trained_models/Sigma_5_t_2/checkpoints/checkpoint_5.pth (torch, 173091 bytes, 10 tensors)

conv_layer.conv_layers.0.parametrizations.weight.original f4 [8, 1, 7, 7]
0.02478573 0.0786291 -0.023648873 0.109978445 -0.06649132 0.03883174 -0.00961737 0.03871657
0.09478285 -0.11699481 0.13112584 0.03257736 0.09933556 0.030577233 0.044299055 -0.07120296
0.10896654 0.16539446 -0.019225169 0.022327118 -0.05184239 0.03159328 -0.047854953 0.21029617
-0.4386279 -0.03342597 -0.043132983 -0.0009837756 0.0020248056 -0.09934685 0.15671435 -0.12597308
0.16149852 0.10223158 -0.028791323 0.026025467 0.06812365 0.05476028 0.09926178 0.02569482
-0.028844845 0.05544421 0.007107279 0.026651861 0.044418935 -0.032337036 0.04657332 0.010003942
0.027184013 -0.02932047 -0.05602422 -0.022866713 -0.12476828 0.08554504 0.037862007 0.0055562034
0.009273398 -0.0021066766 0.114710115 -0.13872771 -0.0036454813 -0.07408322 0.015832815 -0.05623009
-0.0083925305 -0.06319359 0.23116516 0.0050135897 -0.046314698 -0.054630037 0.09575956 0.10246858
0.2428386 -0.4654026 -0.23060763 -0.09444397 -0.05921142 0.023974903 0.016585182 0.1820133
0.023566943 -0.015942182 0.06221937 -0.0036582057 0.010573073 -0.060326338 0.07509255 -0.07355132
-0.011770101 -0.012505667 0.02888497 -0.039184935 0.0031915698 0.06545296 -0.06885077 -0.0028865444
0.028066829 -0.008800188 -0.03999461 -0.04770044 -0.08679163 0.019787887 -0.034400642 -0.10940529
-0.0034041198 -0.047517 -0.108438835 -0.042425368 -0.16079876 -0.1022136 0.092398606 -0.009822115
0.0053795944 -0.042486984 -0.112622805 -0.10446977 0.04782527 -0.15769634 -0.06850664 -0.028769763
0.034619335 -0.12270816 -0.08368058 -0.00329456 -0.12763609 -0.048934016 -0.05072557 -0.14405867
0.15707959 0.10303297 0.18431053 0.06851912 -0.07404929 -0.028918607 0.0019952797 -0.054747343
-0.12236825 -0.088685215 0.028584931 -0.023326922 -0.03343681 -0.07927616 0.054704376 -0.07208456
-0.016864492 -0.032605242 -0.03768341 0.016731495 0.10834982 -0.11129234 0.009496042 -0.030754667
0.031507045 -0.03977866 0.04458966 -0.061775062 0.07260318 0.06755065 0.008556722 -0.06767311
0.05580535 -0.00977847 0.037095953 -0.13383378 0.08595792 -0.05613912 -0.022996748 0.15896647
-0.011204066 -0.087943584 -0.09622317 -0.043262124 0.13072675 -0.01139289 -0.08574176 0.030860147
-0.07224168 0.039249264 0.25126442 -0.11337818 0.019579934 0.03795061 -0.0074439277 -0.0076797786
0.07618187 0.028638154 0.03447642 0.0009886598 -0.014973547 0.0036708333 -0.027346758 -0.0059907655
0.05926081 0.012185143 0.0027226785 0.004390562 -0.018424058 -0.052070517 0.06344618 0.063217886
-0.0638846 -0.025526216 -0.0031638765 -0.014611155 -0.013603105 -0.03733244 -0.05338401 -0.08507814
-0.04424548 -0.02076216 0.029652009 0.04946682 -0.13818945 -0.03898157 0.062403448 0.12743482
-0.008887232 -0.05004299 0.14545795 -0.14683056 -0.5947977 0.25158742 0.054129463 0.007240656
-0.0994477 0.025676185 0.14362349 0.12411173 -0.18604715 -0.119484365 -0.021964028 0.040663905
-0.04571733 0.10079053 0.050487164 -0.037125375 -0.026060373 -0.040407356 -0.054574266 -0.05358111
0.015287876 -0.04324843 -0.03894936 -0.04355344 -0.019764712 -0.030191854 -0.043185323 0.03425659
-0.048156004 0.049396217 -0.06015781 -0.054665133 -0.016248252 -0.06340608 -0.043678634 -0.15597391
00000000: 710b cb3c 4b08 a13d 48bb c1bc 613c e13d
00000010: 9a2c 88bd 080e 1f3d 2c92 1dbc 4495 1e3d
00000020: 831d c23d fa9a efbd da45 063e d66f 053d
00000030: 7170 cb3d 1b7d fa3c ed72 353d dcd2 91bd
00000040: d929 df3d 2a5d 293e 1a7e 9dbc 5ce7 b63c
00000050: b058 54bd f567 013d 8e03 44bd e157 573e
00000060: d693 e0be abe9 08bd 36ac 30bd 08f2 80ba
00000070: 9ab2 043b 5c76 cbbd ba79 203e 16ff 00be
00000080: de5f 253e ca5e d13d c8db ebbc 5c33 d53c
00000090: 6a84 8b3d 514c 603d c349 cb3d f17d d23c
000000a0: 064c ecbc 7819 633d 2de4 e83b 0155 da3c
000000b0: a1f0 353d d773 04bd aac3 3e3d 93e7 233c
000000c0: 02b1 de3c 7b31 f0bc a779 65bd f952 bbbc
000000d0: 8386 ffbd 3d32 af3d 3115 1b3d d010 b63b
000000e0: 73ef 173c 2b10 0abb 23ed ea3d a30e 0ebe
000000f0: 07e9 6ebb f1b8 97bd d2b3 813c 8651 66bd
00000100: d380 09bc a46b 81bd 8fb6 6c3e 0a49 a43b
00000110: 7bb4 3dbd bfc3 5fbd 971d c43d 0cdb d13d
00000120: afaa 783e 4049 eebe 6824 6cbe d76b c1bd
00000130: ad87 72bd 0467 c43c a6dd 873c b261 3a3e
00000140: 760f c13c 2e99 82bc bdd9 7e3d 82be 6fbb
00000150: af3a 2d3c c018 77bd 1fca 993d 13a2 96bd
00000160: 62d7 40bc 92e4 4cbc 2ca0 ec3c 6280 20bd
00000170: a829 513b 340c 863d a201 8dbd 2e2c 3dbb
00000180: 68ec e53c aa2e 10bc 63d1 23bd 8961 43bd
00000190: cfbf b1bd 351a a23c b0e7 0cbd e10f e0bd
000001a0: a717 5fbb 30a1 42bd 2e15 debd 39c6 2dbd
000001b0: 6ea8 24be 5d55 d1bd 7b3b bd3d f0ec 20bc
000001c0: 4f47 b03b d506 2ebd c9a6 e6bd 3ff4 d5bd
000001d0: 6ee4 433d 267b 21be 364d 8cbd 91ae ebbc
000001e0: 01cd 0d3d 6a4e fbbd b960 abbd 8be9 57bb
000001f0: 09b3 02be 096f 48bd 9ec5 4fbd 1e84 13be
00000200: 79d9 203e f302 d33d e6bb 3c3e c153 8c3d
00000210: 27a7 97bd b7e6 ecbc 3dc3 023b c03e 60bd
00000220: 349c fabd 98a0 b5bd f22a ea3c 1a18 bfbc
00000230: 09f5 08bd 8a5b a2bd b211 603d 12a1 93bd
00000240: 6727 8abc 138d 05bd eb59 1abd 7d10 893c
00000250: 83e6 dd3d 3ded e3bd 4995 1b3c 36f1 fbbc
00000260: 880d 013d f3ee 22bd a6a3 363d d907 7dbd
00000270: fab0 943d ff57 8a3d 7e31 0c3c 3398 8abd
00000280: 2794 643d e035 20bc edf1 173d b90b 09be
00000290: b50a b03d 22f2 65bd ad63 bcbc 1bc8 223e
000002a0: 4291 37bc c41b b4bd a710 c5bd a033 31bd
000002b0: 3cdd 053e 3ea9 3abc 6099 afbd 6bce fc3c
000002c0: 72f3 93bd d6c3 203d bba5 803e d232 e8bd
000002d0: 1966 a03c 1972 1b3d 31ec f3bb a7a6 fbbb
000002e0: 3e05 9c3d 909a ea3c 2637 0d3d eb95 813a
000002f0: 9c53 75bc 5d92 703b 4f06 e0bc 2f4e c4bb
00000300: 77bb 723d 32a4 473c f76e 323b b4de 8f3b
00000310: 0dee 96bc e547 55bd 12f0 813d 6178 813d
00000320: eed5 82bd 5b1c d1bc 0a59 4fbb a063 6fbc
00000330: 8fdf 5ebc e7e9 18bd 31a9 5abd 733d aebd
00000340: c03a 35bd 6815 aabc c5e8 f23c b89d 4a3d
00000350: 8981 0dbe 24ab 1fbd c29a 7f3d 467e 023e
00000360: c19b 11bc e1f9 4cbd eef2 143e c05a 16be
00000370: a944 18bf 11d0 803e dbb6 5d3d 0643 ed3b
00000380: 3cab cbbd dd56 d23c 0912 133e 4a2e fe3d
00000390: 2583 3ebe 38b4 f4bd e8ed b3bc 328f 263d
000003a0: 1842 3bbd 446b ce3d a1cb 4e3d c710 18bd
000003b0: 907c d5bc 2f82 25bd 4489 5fbd de77 5bbd
000003c0: 007a 7a3c 4425 31bd 5d89 1fbd 1865 32bd
000003d0: 9be9 a1bc e854 f7bc 18e3 30bd a350 0c3d
000003e0: 3b3f 45bd b053 4a3d 0968 76bd 8ce8 5fbd
000003f0: 0e1b 85bc 0cdb 81bd 5ee8 32bd a0b7 1fbe

conv_layer.conv_layers.1.parametrizations.weight.original f4 [32, 8, 7, 7]
0.029994046 0.03843079 0.019354172 -0.001558896 -0.052343696 0.007570826 0.020155223 -0.03340755
0.018116826 0.016041454 0.005636897 0.01675306 0.0007073357 -0.053217504 -0.064051695 -0.026297638
-0.0130465105 0.008073546 -0.008661766 -0.043932058 0.04850547 0.031129634 0.043935392 -0.0011680956
-0.02604627 0.040254496 -0.045034487 -0.026576612 0.011773169 -0.02478279 -0.00976089 0.026724638
0.04334715 -0.016359083 -0.031195259 -0.018594954 -0.012126632 0.023561988 0.014231777 -0.040306192
-0.049754836 0.020212322 -0.048776295 0.034072194 -0.024694147 -0.005450027 0.0041921404 -0.022302205
-0.030253267 0.040079456 0.0073990272 0.050080366 0.044163305 -0.04611476 -0.049986564 0.061757654
0.054829262 -0.0317739 0.0028200818 -0.04067563 -0.028571423 0.004002754 -0.010308829 0.006661455
0.017980702 0.036652684 0.013698532 -0.021845555 0.017090188 -0.015434563 0.020298323 -0.013595101
0.034526654 -0.025112476 -0.032378715 -0.0055265636 0.03764089 0.034573972 0.0428391 0.038515095
0.0678603 -0.0051517477 -0.054876905 0.0126665365 -0.030397257 -0.019302584 -0.018234551 -0.006774866
0.027811037 -0.02520444 -0.04928069 -0.0025944745 -0.05016162 -0.01969097 0.017895432 -0.020791676
0.012453295 0.04766658 -0.008069946 0.023822185 0.021638745 0.010463819 -0.029010296 0.00554284
0.036525596 0.0662226 0.014524477 -0.031594366 -0.016284207 0.005537141 0.032850735 0.03408241
0.01936554 0.015363676 -0.016649215 -0.019552177 -0.0034910238 0.0067954883 0.029589007 -0.016906217
0.034542516 -0.02665008 -0.021894343 -0.014665704 0.09326292 -0.030658253 0.018588413 0.009336391
0.034602 0.04388629 0.0070089283 0.03777062 0.05645682 -0.013390992 0.020209052 0.02957215
0.014674167 0.018552162 0.03395215 0.014131056 -0.009406563 0.04474591 0.03923153 -0.007471836
-0.044390302 0.0091065755 -0.026257407 0.033605143 -0.055082116 0.007887434 -0.012853073 0.012751131
0.045223914 0.0017910119 0.012191324 0.056393024 0.024462586 0.0011376295 -0.011486566 0.013899233
-0.011926841 0.0007106674 0.0072184578 -0.036305595 0.006999506 0.007849263 0.03597333 0.043155227
0.026069082 0.040427294 0.027287265 -0.028467225 -0.03384913 -0.034604643 -0.005679685 -0.0071121585
-0.02907044 -0.062224604 -0.008374672 -0.036093023 -0.023044406 0.0069047883 0.04762417 -0.010152171
-0.01813384 0.023208536 0.00874265 -0.016831899 0.029518653 -0.043203164 0.0011959312 0.046937294
0.013715692 -0.008410512 -0.038273066 0.026777048 0.04718427 0.015869213 0.011255001 0.048175745
-0.021451756 0.0027650625 -0.054380666 -0.0648251 0.011192677 -0.025908776 0.01870019 -0.015410249
-0.05950934 0.021745155 -0.031803336 -0.027032431 -0.013936185 -0.013967749 -0.01659759 -0.024693297
0.019673686 0.030543601 0.021276683 -0.039023504 -0.054031223 0.034738492 0.011189737 -0.022904377
-0.0067112925 -0.04627514 -0.010931658 0.04964216 -0.03336134 0.012811354 -0.014459622 -0.008828375
-0.0050692805 -0.06318898 -0.01538458 0.025410991 -0.04576945 0.008450205 -0.037530653 -0.015770191
0.024439145 0.023014478 -0.012626358 -0.012004365 -0.019705972 -0.005518128 -0.015443274 -0.010715501
0.030594684 -0.0386868 0.028016789 0.0007896588 -0.057540547 -0.024027226 0.018163482 -0.016487505
00000000: 13b6 f53c 9b69 1d3d a48c 9e3c df53 ccba
00000010: 5866 56bd b114 f83b 911c a53c 5bd6 08bd
00000020: bd69 943c 5e69 833c b8b5 b83b b73d 893c
00000030: 7f6c 393a 99fa 59bd 892d 83bd 256e d7bc
00000040: 08c1 55bc e846 043c 14ea 0dbc 1af2 33bd
00000050: acad 463d 9303 ff3c 99f5 333d c91a 99ba
00000060: fd5e d5bc e6e1 243d 1576 38bd 32b7 d9bc
00000070: 40e4 403c 4705 cbbc 24ec 1fbc a1ed da3c
00000080: c88c 313d 7c03 86bc 338d ffbc 7254 98bc
00000090: c8ae 46bc 1205 c13c 662c 693c 1b18 25bd
000000a0: bacb 4bbd 5094 a53c a7c9 47bd 498f 0b3d
000000b0: 614b cabc 2496 b2bb 395e 893b 1db3 b6bc
000000c0: b3d5 f7bc 5b2a 243d 8a73 f23b 1221 4d3d
000000d0: 95e4 343d d5e2 3cbd b6be 4cbd 98f5 7c3d
000000e0: a694 603d 5925 02bd 1fd1 383b 7d9b 26bd
000000f0: 9e0e eabc 8929 833b 5de6 28bc 5648 da3b
00000100: 444c 933c 2021 163d cf6f 603c 73f5 b2bc
00000110: b900 8c3c 40e1 7cbc ab48 a63c fdbd 5ebc
00000120: d26b 0d3d aeb8 cdbc 8b9f 04bd 2d18 b5bb
00000130: 552d 1a3d 709d 0d3d 0d78 2f3d 01c2 1d3d
00000140: 57fa 8a3d fecf a8bb 9bc6 60bd 4e87 4f3c
00000150: ab03 f9bc 7420 9ebc a060 95bc b2ff ddbb
00000160: f9d3 e33c 8b79 cebc 8cda 49bd 0f08 2abb
00000170: 4576 4dbd f54e a1bc 7199 923c 4e53 aabc
00000180: e808 4c3c 083e 433d cf37 04bc be26 c33c
00000190: bd43 b13c 7070 2b3c 00a7 edbc b6a0 b53b
000001a0: dd9b 153d b79f 873d 12f8 6d3c 1869 01bd
000001b0: 7566 85bc e870 b53b 7e8e 063d ff99 0b3d
000001c0: 7ba4 9e3c edb7 7b3c ef63 88bc e32b a0bc
000001d0: a9c9 64bb b0ac de3b a564 f23c e87e 8abc
000001e0: 747c 0d3d 4551 dabc c45b b3bc 6c48 70bc
000001f0: a100 bf3d 0427 fbbc ba46 983c aaf7 183c
00000200: d4ba 0d3d 1cc2 333d 27ab e53b 5eb5 1a3d
00000210: 443f 673d e465 5bbc 748d a53c 4b41 f23c
00000220: eb6b 703c b4fa 973c 6911 0b3d f285 673c
00000230: fc1d 1abc 7d47 373d 3eb1 203d 4ed6 f4bb
00000240: 9bd2 35bd bf33 153c c619 d7bc 8ca5 093d
00000250: c99d 61bd 4c3a 013c b295 52bc 1fea 503c
00000260: b63c 393d 63c0 ea3a 1ebe 473c 5ffc 663d
00000270: c365 c83c 831c 953a 2632 3cbc 9cb9 633c
00000280: cc68 43bc 154c 3a3a d088 ec3b 2db5 14bd
00000290: 1d5c e53b 329a 003c c558 133d 89c3 303d
000002a0: d48e d53c 1797 253d 8b89 df3c 1934 e9bc
000002b0: 63a5 0abd 99bd 0dbd a71c babb 1c0d e9bb
000002c0: 2225 eebc 3adf 7ebd ec35 09bc 47d6 13bd
000002d0: 9fc7 bcbc 9041 e23b 9011 433d 4b55 26bc
000002e0: 6b8d 94bc d41f be3c 553d 0f3c 0de3 89bc
000002f0: 1ad1 f13c cdf5 30bd cbc0 9c3a 5241 403d
00000300: c8b7 603c 3ecc 09bc 38c4 1cbd 8a5b db3c
00000310: 4b44 413d 2700 823c e566 383c ee53 453d
00000320: 98bb afbc 0d36 353b 43be 5ebd 06c3 84bd
00000330: 7d61 373c a43e d4bc 2431 993c 457b 7cbc
00000340: 11c0 73bd e522 b23c 3744 02bd 1e73 ddbc
00000350: 9954 64bc fcd8 64bc abf7 87bc 9949 cabc
00000360: b62a a13c 9336 fa3c 704c ae3c 1cd7 1fbd
00000370: d84f 5dbd f349 0e3d 2955 373c f6a1 bbbc
00000380: 67ea dbbb 008b 3dbd b21a 33bc 9455 4b3d
00000390: e7a5 08bd b7e6 513c 0de8 6cbc e3a4 10bc
000003a0: 351c a6bb 3969 81bd 9b0f 7cbc b62a d03c
000003b0: bf78 3bbd bb72 0a3c beb9 19bd 7d30 81bc
000003c0: 9a34 c83c dc88 bc3c c9de 4ebc f5ad 44bc
000003d0: 6b6e a1bc 6ad1 b4bb c905 7dbc 1290 2fbc
000003e0: b4a1 fa3c 0d76 1ebd 7783 e53c 1b01 4f3a
000003f0: a3af 6bbd bfd4 c4bc 95cb 943c ce10 87bc

activation.coefficients_vect f4 [672]
-0.0 0.0010944072 0.00063060835 0.0005926872 0.0004752055 0.0003266683 0.00030042522 0.00023969238
0.00012239143 5.6709192e-05 2.2898037e-05 -2.2804545e-05 -7.049482e-05 -0.00010309267 -0.0001667581 -0.0003925625
-0.00042486077 -0.0005983198 -0.0010537563 -0.0013070774 0.0 -0.0 0.000569216 0.00049406255
0.0003951265 0.00019499207 0.00017068017 6.0378796e-05 1.6798165e-05 -6.935871e-05 -0.00041341563 8.839796e-05
0.0006270517 0.00027550117 0.00020865549 -5.3770973e-06 -0.00023388778 -0.00031622083 -0.00048944296 -0.0005045226
-0.00090890593 0.0 -0.0 0.0029670761 0.0021389392 0.0011800815 0.00081160106 0.00017217253
-8.940457e-05 -0.00013355564 -0.00023325323 -0.0003003451 1.482311e-05 0.0003705745 6.441784e-05 -0.00016779122
-0.00021766257 -0.00024596113 -0.00026906628 -0.00038990102 -0.00048820092 -0.00056286936 0.0 -0.0
0.0018746599 0.0013060939 0.0010611238 0.0009347138 0.0008940873 0.0004194898 0.00017944588 7.475231e-05
6.157901e-05 6.5089303e-06 2.4141292e-07 -0.00012537133 -0.00015120475 -0.00044577316 -0.00058545574 -0.0006027281
-0.00090874976 -0.0010777658 -0.0014124718 0.0 -0.0 0.0024443322 0.0019010011 0.0013614127
0.00082156755 0.0006840707 0.0006830673 0.00045110492 2.9099333e-06 -0.00012965799 -2.531293e-05 4.284227e-05
-0.0003165178 -0.00045055934 -0.0004803151 -0.0005038377 -0.00094853883 -0.0017516653 -0.0022224416 -0.0024486487
0.0 -0.0 0.0028590567 0.002089858 0.0019779752 0.00083726563 0.00073892344 0.00014161598
9.101698e-05 4.8827962e-05 -0.00013048341 0.000189752 0.00013443106 4.748991e-05 -0.00013718584 -0.00076676096
-0.0009708196 -0.0011891295 -0.0016317212 -0.0017408297 -0.002970315 0.0 -0.0 0.0010642768
0.0008466632 0.00075180846 0.0005432338 0.000475958 0.0004493302 0.00024503205 0.00013678132 0.000112958536
1.5920372e-05 -9.05842e-05 -0.00014747589 -0.0002032401 -0.00035044565 -0.0006166345 -0.0007613719 -0.0011571405
-0.0013687622 -0.0023056816 0.0 -0.0 0.0017002864 0.0014037555 0.00050156325 0.00046583803
0.0003554922 0.00029439345 0.00012123115 -0.00018914648 -0.0002910263 -3.2447893e-05 0.00024129971 7.2415474e-05
-5.3522188e-05 -9.117614e-05 -0.000109654655 -0.00014467642 -0.00020303245 -0.00040546813 -0.0005956685 0.0
-0.0 0.0007315941 0.0006321584 0.00047822224 0.00032562602 0.00029417762 0.00013883984 0.00010582425
3.0314142e-05 -7.3376556e-05 -0.00013434284 -0.00017015565 -0.0001805812 -0.00020451366 -0.00020821573 -0.00038861844
-0.000747108 -0.0010382367 -0.0010530977 -0.0012803024 0.0 -0.0 0.0017427019 0.0013934227
0.0012688251 0.0010190223 0.00030368933 0.00027196374 4.8711845e-05 -1.0338267e-05 -0.0004380494 5.8472404e-05
0.0005854618 2.5340218e-05 -0.0001149969 -0.00018707634 -0.00052656664 -0.00053300743 -0.00065565563 -0.00066373113
-0.00073162944 0.0 -0.0 0.0013721244 0.0012591607 0.0006009108 0.000577815 0.00054828194
0.00047601823 0.00035360787 0.00013525992 2.4479215e-05 2.3447983e-05 1.209247e-05 -0.00013615972 -0.00043085657
-0.00046558757 -0.00071265915 -0.00089616317 -0.0009445011 -0.0012134416 -0.001646736 0.0 -0.0
0.002940475 0.002370386 0.0017318351 0.0013462874 0.0011264099 0.0008869756 0.00010903066 -2.1713076e-05
-0.00018065944 -0.00020506313 -0.00021021714 -0.00043725068 -0.0005302661 -0.0005395028 -0.00070011645 -0.0010416054
-0.0012979311 -0.0014160618 -0.0015444201 0.0 -0.0 0.0011955949 0.0011299717 0.00078631437
00000000: 0000 0080 3672 8f3a 694f 253a 915e 1b3a
00000010: 0125 f939 ad44 ab39 6482 9d39 ef55 7b39
00000020: 3356 0039 08db 6d38 2915 c037 634c bfb7
00000030: 9ed6 93b8 7533 d8b8 c9db 2eb9 d9d0 cdb9
00000040: d9bf deb9 90d8 1cba 321e 8aba 3d52 abba
00000050: 0000 0000 0000 0080 7037 153a fa83 013a
00000060: fb28 cf39 c976 4c39 9cf8 3239 3d3f 7d38
00000070: c9e9 8c37 ad74 91b8 b5bf d8b9 4b62 b938
00000080: ba60 243a 2471 9039 88ca 5a39 ea6c b4b6
00000090: c63f 75b9 71ca a5b9 f64d 00ba f041 04ba
000000a0: a543 6eba 0000 0000 0000 0080 4773 423b
000000b0: 722d 0c3b f7ac 9a3a a0c1 543a 3689 3439
000000c0: b77e bbb8 120b 0cb9 7095 74b9 a377 9db9
000000d0: c6b0 7837 ab49 c239 1118 8738 1df1 2fb9
000000e0: 5a3c 64b9 58f4 80b9 7711 8db9 a16b ccb9
000000f0: 38f5 ffb9 868d 13ba 0000 0000 0000 0080
00000100: 26b7 f53a 3d31 ab3a 6815 8b3a 9507 753a
00000110: 2f61 6a3a f8ee db39 a329 3c39 57c4 9c38
00000120: fb23 8138 4967 da36 8a9b 8134 1c76 03b9
00000130: b78c 1eb9 a9b6 e9b9 4579 19ba 6600 1eba
00000140: 2a39 6eba d243 8dba b022 b9ba 0000 0000
00000150: 0000 0080 1731 203b 032b f93a 6e71 b23a
00000160: 775e 573a 3553 333a df0f 333a 4782 ec39
00000170: 4648 4336 cdf4 07b9 1a57 d4b7 8ab1 3338
00000180: 4df2 a5b9 0d39 ecb9 cdd2 fbb9 fa13 04ba
00000190: 5da7 78ba 2298 e5ba 62a6 11bb 8279 20bb
000001a0: 0000 0000 0000 0080 035f 3b3b 00f6 083b
000001b0: eba0 013b f27b 5b3a 50b4 413a c07e 1439
000001c0: 5ee0 be38 a0cc 4c38 60d2 08b9 2af8 4639
000001d0: 10f6 0c39 e72f 4738 8bd9 0fb9 7500 49ba
000001e0: 9a7e 7eba 91dc 9bba 7adf d5ba 8d2c e4ba
000001f0: 9ea9 42bb 0000 0000 0000 0080 347f 8b3a
00000200: 9bf2 5d3a 0315 453a ce67 0e3a 008a f939
00000210: 1494 eb39 a577 8039 f56c 0f39 27e4 ec38
00000220: bd8c 8537 06f8 bdb8 c2a3 1ab9 d91c 55b9
00000230: 05bc b7b9 a4a5 21ba ce96 47ba 31ab 97ba
00000240: 0a68 b3ba eb1a 17bb 0000 0000 0000 0080
00000250: 25dc de3a 38fe b73a 577b 033a b93b f439
00000260: 5b61 ba39 d258 9a39 7a3d fe38 9f55 46b9
00000270: e494 98b9 a918 08b8 6605 7d39 c3dd 9738
00000280: 037d 60b8 d135 bfb8 65f6 e5b8 48b4 17b9
00000290: 1ce5 54b9 0395 d4b9 a326 1cba 0000 0000
000002a0: 0000 0080 73c8 3f3a 6fb7 253a e7b9 fa39
000002b0: c9b8 aa39 da3b 9a39 8995 1139 f6ed dd38
000002c0: 204b fe37 bde1 99b8 62de 0cb9 cf6b 32b9
000002d0: 665a 3db9 b872 56b9 7c54 5ab9 7cbf cbb9
000002e0: 92d9 43ba 7115 88ba 1808 8aba d2cf a7ba
000002f0: 0000 0000 0000 0080 5f6b e43a 82a3 b63a
00000300: b54e a63a b790 853a 7e38 9f39 5b96 8e39
00000310: f24f 4c38 8572 2db7 ffa9 e5b9 4440 7538
00000320: ad79 193a b491 d437 7e2a f1b8 ec29 44b9
00000330: 4a09 0aba 86b9 0bba 4ee0 2bba 3efe 2dba
00000340: d2ca 3fba 0000 0000 0000 0080 dbd8 b33a
00000350: 6c0a a53a 7186 1d3a 8278 173a 94ba 0f3a
00000360: 1692 f939 7264 b939 8fd4 0d39 b758 cd37
00000370: 29b2 c437 c3e0 4a37 19c6 0eb9 97e4 e1b9
00000380: 1b1a f4b9 bfd1 3aba 7eec 6aba 6598 77ba
00000390: 580c 9fba 4bd7 d7ba 0000 0000 0000 0080
000003a0: fcb4 403b 7a58 1b3b befe e23a e975 b03a
000003b0: 0ba4 933a ed83 683a 64a7 e438 7a24 b6b7
000003c0: 666f 3db9 3706 57b9 bc6d 5cb9 cb3e e5b9
000003d0: 8e01 0bba 6c6d 0dba 0588 37ba 7a86 88ba
000003e0: 571f aaba 269b b9ba 246e caba 0000 0000
000003f0: 0000 0080 82b5 9c3a 8f1b 943a aa20 4e3a

u f4 [1, 1, 20, 20]
-0.0062014814 0.01349243 -0.019392163 0.01976942 -0.0045333244 -0.009185574 0.0060165245 0.007953794
-0.012404418 0.007395675 -0.001538137 -0.0029710843 0.011666907 -0.009150324 0.003563473 -0.022413142
0.031999253 -0.01618466 0.0073206727 -0.0051532453 -0.0033638766 -0.05141171 0.12954342 -0.04424341
-0.08210728 0.082833275 -0.025950864 -0.017822113 0.005303235 0.04418297 -0.10462369 0.13603427
-0.10357751 0.04550027 -0.09049988 0.20097306 -0.15815362 0.051282495 -0.022877378 0.009175496
0.010198497 0.03764684 -0.10355064 -0.023368653 0.07422994 0.035774823 -0.05580387 0.009303118
0.0063004736 0.028737385 -0.022183182 -0.018545559 0.0015670452 0.050810665 0.008814191 -0.10460512
0.01556935 0.019034449 0.035005756 -0.016360782 -0.031565893 0.0654032 -0.020894147 -0.005398558
0.081349075 -0.092132606 -0.04208247 0.07605271 0.010900371 -0.10363674 0.10940064 -0.080474265
0.063942656 -0.09944961 0.12891363 -0.11258465 0.13996561 -0.01425981 -0.07837798 0.02191336
0.031371236 -0.072072834 0.03805898 -0.039107032 -0.003020371 0.021002147 0.032993656 -0.0072316956
0.0010760191 -0.057341114 0.06679545 0.033438154 -0.06774761 0.034631707 0.0040544327 -0.005370145
-0.09615624 0.006478335 0.07644445 -0.021068554 -0.03308731 0.09363789 -0.06899015 0.059451263
0.028457016 -0.09457176 0.019316833 0.026858471 -0.03407319 0.039885886 -0.03187734 -0.012405805
0.012958767 0.011802444 -0.06929755 0.0725594 0.07527341 -0.017468113 -0.0717313 0.023604546
0.035853226 -0.085911304 -0.008911286 0.044429265 -0.03403438 -0.002750699 0.065283954 -0.025236778
-0.023782674 0.030898761 0.02114696 -0.07723951 0.04430173 0.03365842 0.00100422 -0.08296464
-0.009488677 -0.0154431835 0.06766164 -0.01536356 -0.02116772 0.050879035 0.018836975 -0.004159417
0.019881925 -0.03851434 0.008344278 -0.03236694 -0.010025792 0.014770345 0.020049794 -0.01769553
0.0075622145 -0.0017791111 -0.02383995 0.0622076 0.057754327 -0.036056705 -0.03822203 0.010267071
0.02163611 -0.056364797 0.00057940045 0.0058682365 -0.075910345 0.05018279 0.058363106 -0.015926462
-0.009060185 0.03981329 -0.044186495 0.013306614 0.013033954 -0.011097613 0.00198251 -0.024484998
-0.075920574 0.033941925 0.033687882 -0.0093943365 -0.018447217 0.016159784 0.07317148 -0.0039525577
-0.028391987 0.028216923 -0.04463377 -0.008087015 0.0029745698 0.0035414621 -0.032779105 0.035166334
0.027336758 -0.057338048 -0.022758013 0.09666594 0.009529152 -0.018099304 -0.011931799 0.0011000669
0.019239534 -0.021458343 -0.06189037 -0.0009763192 0.0027098209 0.05240053 -0.004077808 -0.038268037
0.044189636 0.030321833 -0.054471184 -0.0010868367 -0.00898535 0.017100703 0.028134484 -0.035754744
-0.035714753 0.023583472 -0.0004261951 0.0021928546 -0.025465298 0.049120963 0.022462163 -0.008128164
0.014835675 0.014026329 -0.09729217 0.022493564 0.025743056 -0.030662652 0.014766829 0.028241124
0.003913682 -0.0055057136 0.0059549185 -0.006837262 0.0054760436 0.0068833926 0.0060291104 -0.008500485
0.02431843 -0.05172808 0.00461102 -0.030561402 -0.018306326 0.02852906 0.04791102 0.007328296
0.016010216 -0.03442515 -0.0015710173 0.024725748 -0.03748698 -0.035969056 0.053647086 -0.02364188
00000000: cc35 cbbb 5a0f 5d3c 50dc 9ebc 7bf3 a13c
00000010: 488c 94bb 177f 16bc 4426 c53b a150 023c
00000020: e63b 4bbc 6b57 f23b 509b c9ba 86b6 42bb
00000030: 8e26 3f3c 3eeb 15bc 2889 693b c49b b7bc
00000040: a611 033d b195 84bc 41e2 ef3b 8edc a8bb
00000050: 7c74 5cbb 1695 52bd 08a7 043e 9438 35bd
00000060: dd27 a8bd 7ea4 a93d e896 d4bc aeff 91bc
00000070: c2c6 ad3b 34f9 343d f244 d6bd 914c 0b3e
00000080: 7220 d4bd 7e5e 3a3d 0058 b9bd e2cb 4d3e
00000090: 06f3 21be 980d 523d 5769 bbbc d254 163c
000000a0: 9917 273c 9333 1a3d 5c12 d4bd 9e6f bfbc
000000b0: de05 983d 9f88 123d 9992 64bd 1b6c 183c
000000c0: 3474 ce3b aa6a eb3c 81b9 b5bc dbec 97bc
000000d0: 5065 cd3a d81e 503d 6669 103c 363b d6bd
000000e0: 9616 7f3c 22ee 9b3c 3262 0f3d 0c07 86bc
000000f0: 3d4b 01bd 1df2 853d 342a abbc 63e6 b0bb
00000100: 589a a63d 05b0 bcbd ab5e 2cbd 86c1 9b3d
00000110: 7897 323c 803f d4bd 710d e03d b1cf a4bd
00000120: 5ef4 823d 3dac cbbd ef01 043e c892 e6bd
00000130: 2553 0f3e faa1 69bc a284 a0bd a683 b33c
00000140: 207f 003d ec9a 93bd bce3 1b3d b22e 20bd
00000150: 6bf1 45bb b20c ac3c 5b24 073d dcf7 ecbb
00000160: 3609 8d3a 84de 6abd 0ecc 883d 72f6 083d
00000170: 42bf 8abd fad9 0d3d 0cdb 843b 0bf8 afbb
00000180: 90ed c4bd 3648 d43b e88e 9c3d f697 acbc
00000190: 8f86 07bd 39c5 bf3d b54a 8dbd 2b83 733d
000001a0: b01e e93c d7ae c1bd 563e 9e3c 4c06 dc3c
000001b0: 5490 0bbd 625f 233d d091 02bd b841 4bbc
000001c0: 0251 543c 0a5f 413c e0eb 8dbd 069a 943d
000001d0: f228 9a3d 4a19 8fbc dce7 92bd 525e c13c
000001e0: d5da 123d 44f2 afbd a400 12bc 76fb 353d
000001f0: a267 0bbd 1245 34bb 98b3 853d 5cbd cebc
00000200: e2d3 c2bc 661f fd3c 643c ad3c c02f 9ebd
00000210: bb75 353d 69dd 093d 08a0 833a 5de9 a9bd
00000220: 6576 1bbc 6805 7dbc 3092 8a3d 71b7 7bbc
00000230: ed67 adbc 8966 503d 0050 9a3c b84b 88bb
00000240: 6bdf a23c 36c1 1dbd 70b6 083c 3293 04bd
00000250: 3843 24bc 51ff 713c 773f a43c 37f6 90bc
00000260: 74cc f73b 1031 e9ba 004c c3bc 65cd 7e3d
00000270: cd8f 6c3d 32b0 13bd b48e 1cbd 3837 283c
00000280: 363e b13c c6de 66bd e8e2 173a 564a c03b
00000290: e276 9bbd 788c 4d3d 270e 6f3d 3678 82bc
000002a0: 2c71 14bc 4313 233d e6fc 34bd fc03 5a3c
000002b0: 5e8c 553c c3d2 35bc 00ed 013b c394 c8bc
000002c0: 3f7c 9bbd b006 0b3d 4efc 093d b4ea 19bc
000002d0: 9e1e 97bc 8661 843c eeda 953d 7584 81bb
000002e0: 5096 e8bc 2d27 e73c e6d1 36bd 667f 04bc
000002f0: 00f1 423b e017 683b 6243 06bd 930a 103d
00000300: 56f1 df3c 4ddb 6abd 036f babc cbf8 c53d
00000310: 2920 1c3c fe44 94bc 987d 43bc 1f30 903a
00000320: 3a9c 9d3c 68c9 afbc c280 7dbd acef 7fba
00000330: 4097 313b f0a1 563d 229f 85bb f2be 1cbd
00000340: 3100 353d 7e65 f83c 2d1d 5fbd 3074 8eba
00000350: 4a37 13bc c616 8c3c 4a7a e63c 9173 12bd
00000360: a249 12bd 2032 c13c f072 dfb9 ffb5 0f3b
00000370: 9a9c d0bc 1033 493d 9202 b83c fe2b 05bc
00000380: 5511 733c b0ce 653c 1e41 c7bd 6c44 b83c
00000390: 1ae3 d23c 3e30 fbbc 92f0 713c ee59 e73c
000003a0: 583e 803b 4669 b4bb 7a21 c33b 1c0b e0bb
000003b0: 6270 b33b 158e e13b d88f c53b 9e45 0bbc
000003c0: 7237 c73c d3e0 53bd 0a18 973b e85b fabc
000003d0: 26f7 95bc c6b5 e93c 593e 443d 3422 f03b
000003e0: db27 833c 6301 0dbd 98ea cdba a78d ca3c
000003f0: f38b 19bd 4a54 13bd 0cbd 5b3d 9eac c1bc

exp_avg f4 [8, 1, 7, 7]
0.00582358 0.0008249696 -0.007004653 0.0007657372 0.0017514551 0.016101167 0.005519079 0.017523693
-0.0015554995 -0.005302713 0.008120811 0.0037410215 0.0011959741 -0.004009251 0.0005272231 -0.014792678
0.010661721 -0.009502289 0.0036874355 0.0077912984 0.0035669797 -0.010116417 0.005491373 -0.013156524
-0.00078525377 -0.008701388 0.018807698 -0.005451517 0.0028758026 0.01235654 0.0038781574 -0.008154734
0.015864342 0.012232545 -0.012178176 -0.00223414 -0.017724283 0.0011438135 -0.009105985 0.013258774
-0.01114515 -0.0050622104 0.004002852 -0.0072146915 -0.014010449 0.0076412507 -0.010946348 -0.0046728654
-0.0023279702 0.0032792478 0.015877454 0.0049555907 0.016942084 0.023523748 0.044721916 0.037214506
0.0064886725 0.0027013712 0.0028196266 0.024209585 0.024490668 0.029333306 0.028472798 -0.010480094
-0.022576712 0.0017823268 -0.003224743 0.020364638 0.03141859 0.03308277 -0.025222622 -0.019325618
-0.024531865 0.00071899965 -0.0059197103 0.026300035 0.016727524 -0.025426582 -0.014120649 -0.016214455
-0.022971574 0.018067604 0.021767262 0.0070912256 -0.040195026 -0.046846397 -0.035182312 -0.03215873
-0.0022447505 -0.0061341086 -0.0017549256 -0.02359633 -0.026405903 -0.03433376 -0.009250427 -0.012078797
0.008964173 0.008880322 -0.013370483 -0.005114485 0.0020188668 -0.015104323 -0.0025831196 -0.0014806911
0.0060499427 -0.0092175 -0.0021310896 -0.0027264734 -0.010837901 -0.0040507847 -0.007157468 -0.0033379605
-0.0079064565 -0.0026338215 -0.0032751823 -0.0057601742 0.0028187446 0.0009857492 0.008245037 -0.002081434
-0.0038006315 0.0058652144 0.0035535793 4.4004206e-05 0.0016964227 0.010449217 -0.00955929 -0.0045704683
0.009007244 -0.002482597 -0.0009525917 -0.001895 0.0064329696 -0.01133708 5.5589182e-05 0.0027657615
0.0033359637 0.0006516985 -0.0028810643 0.009357084 0.010805153 0.011713128 0.010700031 -0.0009085476
0.005091989 0.008266918 0.017246222 -0.010390358 -0.0192964 -0.026416158 -0.013611171 -0.017275153
-0.011934394 -0.017393526 -0.008653227 -0.01713823 -0.019036818 -0.0103884395 -0.016287992 -0.0085216025
-0.021439653 0.0029086578 0.0002215472 -0.005749782 -0.009134364 0.003766628 -0.0005274214 -0.007771653
0.004972016 0.006495947 0.005684315 0.010893627 -0.0014925728 0.0035879617 -0.0013537091 0.007278685
0.0038527923 -0.00357374 0.0054763965 0.005543684 -0.000627653 -0.000755257 0.015750088 0.004972984
0.0125922905 0.011026577 0.0039294045 0.00849399 0.011455472 0.022419384 0.018344233 0.015073601
0.015232507 0.010080293 0.025361454 0.013354928 0.028465303 0.007840263 0.0025525603 0.008771965
0.017817382 0.01000561 0.008611195 0.015363237 -0.0058948873 0.007982332 0.011260129 0.0069746915
-0.010319742 -0.0038347628 0.00016348541 -0.002730004 0.009837367 -0.017000457 0.008668337 -0.0014744333
0.0012444078 0.007160799 0.0024617543 -0.00090167054 0.005430082 -0.003652589 0.0044087926 -0.0062940167
0.005318901 0.0026312037 -0.006590671 -0.015363791 0.02072029 -0.015031104 -0.01486264 -0.0039236015
-0.02494406 -0.0012035299 -0.0051624635 -0.0041699097 -0.029546984 -0.008918922 0.009745685 -0.001862429
-0.007948089 0.009829301 -0.009743586 -0.0022171773 -0.009673993 0.0075179664 -0.0026858638 0.0016496537
-0.011060145 -0.0025217412 0.00222897 -0.0018563188 0.010841492 0.0014406234 0.00481307 0.0036642228
00000000: bbd3 be3b c642 583a 4a87 e5bb c1bb 483a
00000010: 1591 e53a 98e6 833c 64d9 b43b d98d 8f3c
00000020: e7e1 cbba 61c2 adbb 260d 053c ed2b 753b
00000030: 3bc2 9c3a 0960 83bb 5835 0a3a fd5c 72bc
00000040: 80ae 2e3c 7daf 1bbc e7a8 713b 264e ff3b
00000050: fdc3 693b 54bf 25bc faf0 b33b 768e 57bc
00000060: 7dd9 4dba 4490 0ebc 9a12 9a3c a4a2 b2bb
00000070: f677 3c3b 1673 4a3c af28 7e3b 6f9b 05bc
00000080: f0f5 813c 036b 483c f986 47bc a66a 12bb
00000090: 8432 91bc 03ec 953a 4531 15bc 543b 593c
000000a0: 269a 36bc e6e0 a5bb 5b2a 833b 3869 ecbb
000000b0: 158c 65bc 7563 fa3b 5058 33bc d61e 99bb
000000c0: dc90 18bb a6e8 563b 6f11 823c 8262 a23b
000000d0: 20ca 8a3c e0b4 c03c 542e 373d 3d6e 183d
000000e0: ee9e d43b 7d09 313b 7cc9 383b 2e53 c63c
000000f0: a7a0 c83c 674c f03c c93f e93c b3b4 2bbc
00000100: ccf2 b8bc f79c e93a 3656 53bb bed3 a63c
00000110: c8b0 003d cc81 073d ac9f cebc c250 9ebc
00000120: 0df7 c8bc 407b 3c3a 21fa c1bb 2c73 d73c
00000130: 2908 893c 684b d0bc 4b5a 67bc 2dd4 84bc
00000140: e22e bcbc 8302 943c 4251 b23c 835d e83b
00000150: 8aa3 24bd 02e2 3fbd 541b 10bd dfb8 03bd
00000160: aa1c 13bb a200 c9bb 8805 e6ba 174d c1bc
00000170: 3151 d8bc 8fa1 0cbd 1a8f 17bc 26e6 45bc
00000180: 77de 123c c57e 113c df0f 5bbc 6997 a7bb
00000190: f74e 043b 1f78 77bc 8e49 29bb c013 c2ba
000001a0: 993e c63b ff04 17bc c0a9 0bbb a2ae 32bb
000001b0: 7491 31bc 72bc 84bb 3189 eabb afc1 5abb
000001c0: 158a 01bc 319c 2cbb 71a4 56bb d8bf bcbb
000001d0: b0ba 383b 4134 813a 3116 073c ab68 08bb
000001e0: 0414 79bb fc30 c03b 2be3 683b 2891 3838
000001f0: 805a de3a 3133 2b3c 919e 1cbc dec3 95bb
00000200: 1f93 133c 11b3 22bb 59b7 79ba a661 f8ba
00000210: a9cb d23b 29bf 39bc 6e28 6938 c741 353b
00000220: 2fa0 5a3b bfd6 2a3a 3dd0 3cbb 744e 193c
00000230: 1908 313c 6be8 3f3c 2f4f 2f3c 992b 6eba
00000240: b3da a63b f871 073c f347 8d3c 523c 2abc
00000250: 7c13 9ebc b366 d8bc 6401 5fbc 9f84 8dbc
00000260: 7a88 43bc de7c 8ebc 44c6 0dbc 7965 8cbc
00000270: 1af3 9bbc 4634 2abc 656e 85bc 319e 0bbc
00000280: 36a2 afbc 2e9f 3e3b 204f 6839 ab68 bcbb
00000290: 4da8 15bc 88d9 763b a742 0aba 5aa9 febb
000002a0: 4bec a23b f4db d43b 7e43 ba3b 2f7b 323c
000002b0: 6fa2 c3ba 0224 6b3b f16e b1ba 0982 ee3b
000002c0: 217f 7c3b 6835 6abb 5873 b33b cba7 b53b
000002d0: 1489 24ba 70fc 45ba 5406 813c 6af4 a23b
000002e0: e54f 4e3c d1a8 343c 3cc2 803b 602a 0b3c
000002f0: bbaf 3b3c dba8 b73c a546 963c 44f7 763c
00000300: c491 793c d027 253c d3c2 cf3c a1ce 5a3c
00000310: 1130 e93c 7274 003c db48 273b 4ab8 0f3c
00000320: c2f5 913c 92ee 233c f815 0d3c 16b6 7b3c
00000330: e629 c1bb 54c8 023c 677c 383c f48b e43b
00000340: 2314 29bc a550 7bbb 486d 2b39 dee9 32bb
00000350: e82c 213c 8b44 8bbc a405 0e3c c641 c1ba
00000360: 661b a33a 23a5 ea3b 6255 213b 165e 6cba
00000370: d4ee b13b 4660 6fbb a277 903b 0a3e cebb
00000380: 2d4a ae3b 4670 2c3b 8ef6 d7bb 69b8 7bbc
00000390: 99bd a93c 0545 76bc 6e82 73bc 8e91 80bb
000003a0: 7c57 ccbc c3bf 9dba e229 a9bb bda3 88bb
000003b0: 840c f2bc ac20 12bc 5eac 1f3c bf1c f4ba
000003c0: b438 02bc 140b 213c 90a3 1fbc 104e 11bb
000003d0: ab7f 1ebc 4659 f63b 5105 30bb 3139 d83a
000003e0: 9c35 35bc cc43 25bb e913 123b b94f f3ba
000003f0: 83a0 313c 4dd3 bc3a f5b6 9d3b 7523 703b

exp_avg_sq f4 [8, 1, 7, 7]
0.011464927 0.012272815 0.011009024 0.015461704 0.0154599035 0.011745756 0.011663133 0.010893656
0.018045546 0.013505651 0.02200263 0.01737595 0.01467361 0.010799981 0.013365803 0.018585498
0.025086483 0.02675587 0.02494152 0.017016448 0.012705752 0.015497731 0.025979416 0.038147327
0.02170506 0.04147601 0.0224868 0.01598446 0.013795874 0.022554975 0.026627298 0.03269427
0.021841973 0.020133035 0.01323989 0.014338493 0.018626029 0.01903105 0.02326943 0.020399252
0.011777712 0.011466923 0.011668719 0.011679819 0.012043732 0.012586699 0.015483231 0.009887088
0.010948856 0.015125342 0.016694823 0.012897504 0.019881168 0.01836054 0.018154847 0.017668406
0.014915116 0.016062181 0.013825036 0.023547424 0.0205175 0.017566878 0.01598146 0.01424429
0.017502122 0.020598155 0.03371247 0.01985476 0.015386258 0.01354 0.017140124 0.022118466
0.023857709 0.021471879 0.032843288 0.01666665 0.014090125 0.01468938 0.017165745 0.01695779
0.029381702 0.016066002 0.014621353 0.013792393 0.016180107 0.018369537 0.015470259 0.022816006
0.016238907 0.012965654 0.013081231 0.01770436 0.01416108 0.012391794 0.019951183 0.017300325
0.011797746 0.013030591 0.010158395 0.00826906 0.00786847 0.008939652 0.008562391 0.007867458
0.008069309 0.0070428117 0.0070165577 0.006827505 0.009006828 0.006955479 0.006455703 0.0069243037
0.005355079 0.004617929 0.0052464874 0.0059729586 0.0053741755 0.0048805983 0.005495774 0.0040127514
0.0033593602 0.0037138849 0.005270618 0.004326689 0.0041245427 0.004693736 0.004559739 0.003641746
0.0036624137 0.004105284 0.004275226 0.005004558 0.004563963 0.0065284884 0.005215433 0.0061551915
0.006423227 0.006931387 0.006874607 0.007852936 0.007595358 0.007121921 0.009407416 0.009113084
0.007811711 0.007934969 0.009323134 0.010418989 0.007656194 0.0065324833 0.006485368 0.0053453012
0.0060373642 0.0066521056 0.0072805756 0.0063361623 0.0058391187 0.005734858 0.004019784 0.004770836
0.0053456062 0.006472885 0.0036720964 0.004443281 0.004049148 0.004142481 0.0038302839 0.0047635064
0.005117255 0.0033289744 0.003802486 0.004467111 0.0037242426 0.004464618 0.0049002436 0.005744593
0.0035384882 0.004024536 0.0037324456 0.004450506 0.005086886 0.0055208206 0.0062008174 0.004266799
0.0043086065 0.0057833754 0.004905067 0.0058484366 0.0069418917 0.007291493 0.004967552 0.0058714617
0.006007455 0.005832851 0.0065239947 0.007927369 0.00943207 0.012250694 0.018997034 0.016887117
0.016285459 0.012237449 0.01406602 0.014088462 0.015465137 0.021418253 0.02761209 0.021770606
0.019856522 0.015242412 0.015843961 0.021653567 0.025042752 0.04233461 0.03033568 0.024047833
0.013685698 0.015011611 0.022432482 0.037842207 0.025046475 0.042427387 0.030495618 0.016431333
0.012976585 0.021892179 0.02513586 0.042469155 0.025859904 0.0194628 0.015989365 0.012967224
0.0216674 0.027164025 0.029499093 0.020835467 0.019485347 0.013972915 0.01507339 0.011450202
0.01881656 0.019023487 0.012590731 0.014741163 0.010693809 0.0038972704 0.005959708 0.004911121
0.0069536837 0.004773313 0.005568316 0.005741745 0.004962427 0.007572444 0.0069055934 0.008848751
00000000: 64d7 3b3c eb13 493c 325f 343c 1653 7d3c
00000010: 894b 7d3c 4571 403c ba16 3f3c 4e7b 323c
00000020: 41d4 933c ce46 5d3c dc3e b43c 0258 8e3c
00000030: 9569 703c 67f2 303c 3efc 5a3c 9d40 983c
00000040: 2b82 cd3c 202f db3c 2952 cc3c 1466 8b3c
00000050: c92b 503c 32ea 7d3c c9d2 d43c 5f40 1c3d
00000060: cfce b13c c0e2 293d 3d36 b83c d8f1 823c
00000070: 1708 623c 36c5 b83c 7e21 da3c 6dea 053d
00000080: f0ed b23c 09ee a43c 20ec 583c 00ec 6a3c
00000090: 9d95 983c 01e7 9b3c 889f be3c 551c a73c
000000a0: 4ef7 403c c3df 3b3c 282e 3f3c b65c 3f3c
000000b0: 1353 453c 7138 4e3c 61ad 7d3c 74fd 213c
000000c0: d562 333c 48d0 773c 95c3 883c 0d50 533c
000000d0: d5dd a23c d868 963c 79b9 943c 55bd 903c
000000e0: 885e 743c d694 833c 6782 623c 87e6 c03c
000000f0: 5114 a83c 6ae8 8f3c 8deb 823c e260 693c
00000100: 9c60 8f3c 76bd a83c 1616 0a3d 73a6 a23c
00000110: a516 7c3c e0d6 5d3c 7269 8c3c c931 b53c
00000120: 3e71 c33c cbe5 af3c af86 063d 8088 883c
00000130: 45da 663c baab 703c 2d9f 8c3c 10eb 8a3c
00000140: e5b1 f03c d99c 833c 668e 6f3c 7df9 613c
00000150: 258c 843c b67b 963c f876 7d3c a2e8 ba3c
00000160: 7507 853c e56d 543c a952 563c bc08 913c
00000170: e003 683c f306 4b3c aa70 a33c 69b9 8d3c
00000180: 554b 413c 437e 553c 666f 263c f47a 073c
00000190: c1ea 003c 9e77 123c 4549 0c3c 83e6 003c
000001a0: 2335 043c 63c7 e63b 27eb e53b 43b9 df3b
000001b0: 6091 133c c9ea e33b 5d8a d33b 45e5 e23b
000001c0: a979 af3b ff51 973b baea ab3b cfb8 c33b
000001d0: da19 b03b 6ded 9f3b e515 b43b 667d 833b
000001e0: b628 5c3b a664 733b 26b5 ac3b e6c6 8d3b
000001f0: 2c27 873b e9cd 993b dd69 953b 5caa 6e3b
00000200: 1b05 703b 9e85 863b 3217 8c3b 46fd a33b
00000210: 4c8d 953b eeec d53b 39e6 aa3b 7db1 c93b
00000220: ef79 d23b b020 e33b 6244 e13b 9aa9 003c
00000230: 7be2 f83b 015f e93b 9021 1a3c 0b4f 153c
00000240: 62f9 ff3b ac01 023c 0fc0 183c 68b4 2a3c
00000250: cfe0 fa3b 710e d63b 3683 d43b a327 af3b
00000260: 15d5 c53b e8f9 d93b e591 ee3b 959f cf3b
00000270: 1456 bf3b 7aeb bb3b 64b8 833b ac54 9c3b
00000280: 322a af3b 7f1a d43b 8ea7 703b f198 913b
00000290: b7ae 843b a6bd 873b 8005 7b3b 3017 9c3b
000002a0: a5ae a73b ec2a 5a3b 2133 793b d860 923b
000002b0: 6c12 743b ee4b 923b 3992 a03b 243d bc3b
000002c0: fbe5 673b 41e0 833b 0c9c 743b 8dd5 913b
000002d0: e5af a63b 00e8 b43b 3a30 cb3b 81d0 8b3b
000002e0: 362f 8d3b 7882 bd3b afba a03b 3ea4 bf3b
000002f0: cf78 e33b 7aed ee3b d9c6 a23b 6465 c03b
00000300: 2fda c43b 8021 bf3b 3cc7 d53b cce1 013c
00000310: f888 1a3c 23b7 483c ab9f 9b3c da56 8a3c
00000320: 1569 853c 957f 483c 2a75 663c 4bd3 663c
00000330: 7c61 7d3c 5575 af3c c032 e23c 4558 b23c
00000340: 25aa a23c 4fbb 793c 32cb 813c d262 b13c
00000350: 7526 cd3c 0e67 2d3d 8882 f83c f6ff c43c
00000360: fa39 603c 43f3 753c 53c4 b73c 6e00 1b3d
00000370: 442e cd3c 57c8 2d3d f2d1 f93c 019b 863c
00000380: be9b 543c 3a57 b33c b8e9 cd3c 23f4 2d3d
00000390: 26d8 d33c 7370 9f3c 21fc 823c 7b74 543c
000003a0: d57f b13c 1787 de3c 15a8 f13c 24af aa3c
000003b0: bc9f 9f3c a7ee 643c 61f6 763c a199 3b3c
000003c0: 3025 9a3c 25d7 9b3c 5a49 4e3c eb84 713c
000003d0: 1635 2f3c 5969 7f3b a749 c33b 78ed a03b
000003e0: badb e33b 7469 9c3b 6c76 b63b 3f25 bc3b
000003f0: db9b a23b 4422 f83b 5148 e23b 5afa 103c

exp_avg f4 [32, 8, 7, 7]
6e-45 6e-45 -6e-45 6e-45 -6e-45 6e-45 -6e-45 -6e-45
-6e-45 -6e-45 6e-45 -6e-45 6e-45 6e-45 -6e-45 6e-45
6e-45 6e-45 6e-45 -6e-45 6e-45 6e-45 6e-45 6e-45
-6e-45 6e-45 -6e-45 6e-45 6e-45 -6e-45 -6e-45 6e-45
6e-45 -6e-45 -6e-45 6e-45 6e-45 -6e-45 -6e-45 -6e-45
-6e-45 -6e-45 6e-45 6e-45 -6e-45 -6e-45 -6e-45 -6e-45
-6e-45 6e-45 6e-45 6e-45 6e-45 -6e-45 -6e-45 -6e-45
6e-45 -6e-45 6e-45 6e-45 6e-45 -6e-45 -6e-45 6e-45
6e-45 6e-45 6e-45 -6e-45 -6e-45 -6e-45 6e-45 -6e-45
6e-45 6e-45 -6e-45 -6e-45 -6e-45 6e-45 6e-45 -6e-45
6e-45 -6e-45 -6e-45 -6e-45 6e-45 -6e-45 -6e-45 -6e-45
-6e-45 -6e-45 -6e-45 -6e-45 -6e-45 -6e-45 -6e-45 -6e-45
-6e-45 -6e-45 6e-45 -6e-45 6e-45 6e-45 6e-45 -6e-45
6e-45 6e-45 6e-45 -6e-45 6e-45 6e-45 -6e-45 6e-45
-6e-45 -6e-45 6e-45 6e-45 6e-45 -6e-45 -6e-45 6e-45
6e-45 -6e-45 6e-45 6e-45 6e-45 -6e-45 6e-45 -6e-45
-6e-45 6e-45 -6e-45 6e-45 6e-45 -6e-45 6e-45 -6e-45
-6e-45 6e-45 6e-45 6e-45 -6e-45 -6e-45 -6e-45 -6e-45
-6e-45 6e-45 -6e-45 6e-45 -6e-45 6e-45 -6e-45 -6e-45
6e-45 6e-45 6e-45 6e-45 -6e-45 -6e-45 6e-45 6e-45
6e-45 6e-45 6e-45 -6e-45 -6e-45 -6e-45 6e-45 6e-45
-6e-45 6e-45 6e-45 -6e-45 6e-45 6e-45 6e-45 -6e-45
6e-45 6e-45 6e-45 -6e-45 6e-45 6e-45 6e-45 -6e-45
6e-45 -6e-45 6e-45 6e-45 -6e-45 -6e-45 6e-45 6e-45
6e-45 -6e-45 -6e-45 6e-45 6e-45 6e-45 6e-45 6e-45
-6e-45 -6e-45 -6e-45 -6e-45 6e-45 6e-45 6e-45 -6e-45
-6e-45 6e-45 6e-45 6e-45 -6e-45 6e-45 6e-45 -6e-45
-6e-45 6e-45 -6e-45 6e-45 -6e-45 6e-45 6e-45 -6e-45
-6e-45 6e-45 -6e-45 6e-45 -6e-45 -6e-45 6e-45 6e-45
-6e-45 -6e-45 6e-45 6e-45 -6e-45 -6e-45 -6e-45 6e-45
6e-45 6e-45 6e-45 -6e-45 -6e-45 6e-45 6e-45 -6e-45
6e-45 -6e-45 6e-45 -6e-45 6e-45 6e-45 6e-45 -6e-45
00000000: 0400 0000 0400 0000 0400 0080 0400 0000
00000010: 0400 0080 0400 0000 0400 0080 0400 0080
00000020: 0400 0080 0400 0080 0400 0000 0400 0080
00000030: 0400 0000 0400 0000 0400 0080 0400 0000
00000040: 0400 0000 0400 0000 0400 0000 0400 0080
00000050: 0400 0000 0400 0000 0400 0000 0400 0000
00000060: 0400 0080 0400 0000 0400 0080 0400 0000
00000070: 0400 0000 0400 0080 0400 0080 0400 0000
00000080: 0400 0000 0400 0080 0400 0080 0400 0000
00000090: 0400 0000 0400 0080 0400 0080 0400 0080
000000a0: 0400 0080 0400 0080 0400 0000 0400 0000
000000b0: 0400 0080 0400 0080 0400 0080 0400 0080
000000c0: 0400 0080 0400 0000 0400 0000 0400 0000
000000d0: 0400 0000 0400 0080 0400 0080 0400 0080
000000e0: 0400 0000 0400 0080 0400 0000 0400 0000
000000f0: 0400 0000 0400 0080 0400 0080 0400 0000
00000100: 0400 0000 0400 0000 0400 0000 0400 0080
00000110: 0400 0080 0400 0080 0400 0000 0400 0080
00000120: 0400 0000 0400 0000 0400 0080 0400 0080
00000130: 0400 0080 0400 0000 0400 0000 0400 0080
00000140: 0400 0000 0400 0080 0400 0080 0400 0080
00000150: 0400 0000 0400 0080 0400 0080 0400 0080
00000160: 0400 0080 0400 0080 0400 0080 0400 0080
00000170: 0400 0080 0400 0080 0400 0080 0400 0080
00000180: 0400 0080 0400 0080 0400 0000 0400 0080
00000190: 0400 0000 0400 0000 0400 0000 0400 0080
000001a0: 0400 0000 0400 0000 0400 0000 0400 0080
000001b0: 0400 0000 0400 0000 0400 0080 0400 0000
000001c0: 0400 0080 0400 0080 0400 0000 0400 0000
000001d0: 0400 0000 0400 0080 0400 0080 0400 0000
000001e0: 0400 0000 0400 0080 0400 0000 0400 0000
000001f0: 0400 0000 0400 0080 0400 0000 0400 0080
00000200: 0400 0080 0400 0000 0400 0080 0400 0000
00000210: 0400 0000 0400 0080 0400 0000 0400 0080
00000220: 0400 0080 0400 0000 0400 0000 0400 0000
00000230: 0400 0080 0400 0080 0400 0080 0400 0080
00000240: 0400 0080 0400 0000 0400 0080 0400 0000
00000250: 0400 0080 0400 0000 0400 0080 0400 0080
00000260: 0400 0000 0400 0000 0400 0000 0400 0000
00000270: 0400 0080 0400 0080 0400 0000 0400 0000
00000280: 0400 0000 0400 0000 0400 0000 0400 0080
00000290: 0400 0080 0400 0080 0400 0000 0400 0000
000002a0: 0400 0080 0400 0000 0400 0000 0400 0080
000002b0: 0400 0000 0400 0000 0400 0000 0400 0080
000002c0: 0400 0000 0400 0000 0400 0000 0400 0080
000002d0: 0400 0000 0400 0000 0400 0000 0400 0080
000002e0: 0400 0000 0400 0080 0400 0000 0400 0000
000002f0: 0400 0080 0400 0080 0400 0000 0400 0000
00000300: 0400 0000 0400 0080 0400 0080 0400 0000
00000310: 0400 0000 0400 0000 0400 0000 0400 0000
00000320: 0400 0080 0400 0080 0400 0080 0400 0080
00000330: 0400 0000 0400 0000 0400 0000 0400 0080
00000340: 0400 0080 0400 0000 0400 0000 0400 0000
00000350: 0400 0080 0400 0000 0400 0000 0400 0080
00000360: 0400 0080 0400 0000 0400 0080 0400 0000
00000370: 0400 0080 0400 0000 0400 0000 0400 0080
00000380: 0400 0080 0400 0000 0400 0080 0400 0000
00000390: 0400 0080 0400 0080 0400 0000 0400 0000
000003a0: 0400 0080 0400 0080 0400 0000 0400 0000
000003b0: 0400 0080 0400 0080 0400 0080 0400 0000
000003c0: 0400 0000 0400 0000 0400 0000 0400 0080
000003d0: 0400 0080 0400 0000 0400 0000 0400 0080
000003e0: 0400 0000 0400 0080 0400 0000 0400 0080
000003f0: 0400 0000 0400 0000 0400 0000 0400 0080

exp_avg_sq f4 [32, 8, 7, 7]
4.2557426e-11 4.106226e-11 2.4057941e-11 4.9732905e-11 1.9035886e-11 1.8657447e-11 1.5619436e-11 4.552698e-11
3.294139e-11 2.4131492e-11 3.134485e-11 2.8505398e-11 2.6001614e-11 2.9190546e-11 3.2562744e-11 4.082228e-11
4.242267e-11 2.0421984e-11 2.7358338e-11 2.2133647e-11 1.8893508e-11 5.9221385e-11 5.2453257e-11 7.1831076e-11
5.208457e-11 5.4883167e-11 3.7311383e-11 2.95588e-11 5.350616e-11 3.3859134e-11 5.948856e-11 4.7484638e-11
6.437282e-11 4.0188037e-11 3.2430662e-11 3.1830077e-11 3.3019986e-11 6.5162487e-11 4.59963e-11 2.4130994e-11
2.5047457e-11 3.9223035e-11 5.173571e-11 2.9426735e-11 2.9293484e-11 3.2005894e-11 3.310712e-11 3.0116062e-11
2.9458415e-11 5.5711734e-11 4.6685072e-11 5.7509403e-11 7.453174e-11 9.044352e-11 7.100336e-11 6.6601294e-11
6.095001e-11 1.0438236e-10 1.0419078e-10 1.5276337e-10 1.0887273e-10 8.059887e-11 7.4226264e-11 9.4841954e-11
7.540525e-11 8.8120754e-11 9.695411e-11 9.4204596e-11 7.419729e-11 9.0242654e-11 9.314569e-11 8.6496796e-11
8.586941e-11 5.408937e-11 9.8084256e-11 5.0466024e-11 7.09706e-11 1.0839342e-10 1.10031005e-10 8.629359e-11
7.196261e-11 7.8432136e-11 7.940567e-11 5.7283074e-11 4.0386874e-11 6.003807e-11 5.8269785e-11 7.190243e-11
7.520288e-11 7.219548e-11 6.7315785e-11 3.7394067e-11 6.7443225e-11 9.1287526e-11 5.2972866e-11 5.5277904e-11
7.7408475e-11 5.784411e-11 5.8224564e-11 7.606378e-11 1.0834522e-10 6.269405e-11 7.5225756e-11 7.0304984e-11
6.1695246e-11 6.742262e-11 8.1758544e-11 1.3102325e-10 1.1051559e-10 9.450809e-11 4.361413e-11 5.4008836e-11
5.951582e-11 8.241209e-11 1.4709675e-10 9.232017e-11 6.700718e-11 5.3212698e-11 4.0731616e-11 7.661161e-11
9.325235e-11 1.07463746e-10 1.4121052e-10 9.2194204e-11 5.2692004e-11 5.4806108e-11 4.162594e-11 6.0222625e-11
5.54606e-11 9.968391e-11 5.5502707e-11 5.721242e-11 6.874015e-11 5.6420365e-11 5.743661e-11 6.862674e-11
1.07025416e-10 7.3434744e-11 5.7161005e-11 5.884568e-11 3.023206e-11 4.5287392e-11 3.5148644e-11 5.5051835e-11
6.437142e-11 5.262709e-11 7.898928e-11 1.0536927e-10 8.076907e-11 1.3039542e-10 6.034124e-11 1.06323145e-10
9.7986175e-11 1.304277e-10 6.767948e-11 4.3976024e-11 1.1300467e-10 1.2143743e-10 1.086828e-10 1.3729719e-10
1.329785e-10 4.9437184e-11 1.0881526e-10 1.1696216e-10 1.7816351e-10 1.09268296e-10 1.4933352e-10 1.1315691e-10
1.2917128e-10 1.04468906e-10 1.3844947e-10 1.7701272e-10 2.0685921e-10 1.341179e-10 1.6364861e-10 1.5246854e-10
1.6994207e-10 1.715133e-10 1.4268937e-10 1.5735344e-10 1.6854558e-10 1.0785327e-10 9.6039066e-11 2.2642303e-10
1.3039789e-10 1.7668295e-10 8.0876236e-11 1.0733659e-10 5.7648577e-11 7.036658e-11 1.1382867e-10 2.645374e-10
1.4241372e-10 1.240075e-10 6.2222776e-11 1.15472944e-10 3.1720234e-11 2.163655e-11 2.4794437e-11 6.444865e-11
5.0755754e-11 1.8789052e-11 2.3340432e-11 2.2491557e-11 2.252536e-11 4.9448712e-11 5.407345e-11 8.892772e-11
3.171164e-11 5.7447568e-11 5.3245262e-11 3.598088e-11 3.770616e-11 3.436839e-11 6.075579e-11 6.6986756e-11
3.02746e-11 3.2524972e-11 4.135835e-11 4.3870102e-11 6.9122e-11 3.22769e-11 4.1928395e-11 2.5784456e-11
2.7208864e-11 4.189336e-11 5.957229e-11 3.6959127e-11 2.7264597e-11 2.7733814e-11 3.9589616e-11 2.3431455e-11
3.553959e-11 4.3401876e-11 3.9853267e-11 2.4380966e-11 4.3028067e-11 3.4499906e-11 2.8840716e-11 3.319351e-11
2.2630722e-11 3.8303683e-11 2.6322514e-11 7.6024194e-11 3.275408e-11 6.72909e-11 8.72286e-11 1.2737812e-10
1.09570436e-10 7.800634e-11 9.183793e-11 6.219411e-11 7.4503334e-11 1.5903022e-10 1.5398231e-10 1.0662921e-10
00000000: 672b 3b2e ff97 342e ab9d d32d 46ba 5a2e
00000010: 0171 a72d d61c a42d d863 892d d33a 482e
00000020: b5e0 102e 4a43 d42d 2adb 092e 73bc fa2d
00000030: 6eb6 e42d a261 002e 6436 0f2e cd89 332e
00000040: ae93 3a2e 38a2 b32d 80a5 f02d 8bb0 c22d
00000050: 6630 a62d ad3a 822e 1eb1 662e 4df5 9d2e
00000060: 0312 652e f460 712e e218 242e 4000 022e
00000070: 9552 6b2e ffe9 142e 15d1 822e f3d6 502e
00000080: ad8e 8d2e b5bf 302e aea1 0e2e 7bfd 0b2e
00000090: 3339 112e 384b 8f2e 3b4b 4a2e 2b42 d42d
000000a0: dc51 dc2d 3681 2c2e 3b89 632e 8f6b 012e
000000b0: 88d5 002e 6fc3 0c2e 4e9b 112e ac73 042e
000000c0: 3a8f 012e d605 752e b852 4d2e d5ed 7c2e
000000d0: a4e5 a32e 2de3 c62e 5723 9c2e 3275 922e
000000e0: ce07 862e 0b8a e52e 321e e52e 11f7 272f
000000f0: e669 ef2e 213d b12e ac39 a32e 468f d02e
00000100: 62d1 a52e 93c7 c12e 5034 d52e 7928 cf2e
00000110: 5c29 a32e 1972 c62e 5dd4 cc2e 5e35 be2e
00000120: 2ed4 bc2e 37e3 6d2e 87b0 d72e b1f3 5d2e
00000130: e510 9c2e 125c ee2e f3f5 f12e f9c2 bd2e
00000140: 593f 9e2e 5e79 ac2e 6b9d ae2e 02ef 7b2e
00000150: 949f 312e 6e06 842e f922 802e 781d 9e2e
00000160: 755f a52e 71c2 9e2e 6b07 942e fa75 242e
00000170: 294f 942e 4fbe c82e 25fa 682e 631d 732e
00000180: 1939 aa2e ae66 7e2e 8409 802e 1a44 a72e
00000190: f040 ee2e 9ddd 892e 566c a52e 309a 9a2e
000001a0: 56ab 872e 9043 942e f8c9 b32e c40f 102f
000001b0: bf06 f32e 53d3 cf2e 25d1 3f2e 8b88 6d2e
000001c0: 6ee0 822e e239 b52e 0ebc 212f a303 cb2e
000001d0: b059 932e 2c08 6a2e b923 332e 8178 a82e
000001e0: 6810 cd2e b650 ec2e 3a43 1b2f b9bc ca2e
000001f0: ecbd 672e 310a 712e a412 372e 536e 842e
00000200: 16eb 732e 0d35 db2e 7e1a 742e 759f 7b2e
00000210: 4429 972e af23 782e e09b 7c2e 6ce9 962e
00000220: f459 eb2e 167c a12e 9265 7b2e 2c67 812e
00000230: 46f6 042e 122d 472e db95 1a2e db1e 722e
00000240: e38d 8d2e d674 672e 03b3 ad2e a0b5 e72e
00000250: f29c b12e 0c5f 0f2f 19b1 842e 9cce e92e
00000260: 5079 d72e 2268 0f2f 29d4 942e 9a68 412e
00000270: f97f f82e 9985 052f fafe ee2e b9f5 162f
00000280: 1f36 122f 526d 592e 8c49 ef2e ec99 002f
00000290: 92e4 432f 9548 f02e a631 242f add5 f82e
000002a0: 7c06 0e2f c4ba e52e 103a 182f a7a0 422f
000002b0: b171 632f d576 132f fdee 332f 14a4 272f
000002c0: 71da 3a2f b494 3c2f 7de3 1c2f 0e03 2d2f
000002d0: 5d51 392f fe2b ed2e 3031 d32e 6bf4 782f
000002e0: be5f 0f2f d443 422f 46d9 b12e 2109 ec2e
000002f0: 878a 7d2e ddbc 9a2e d84f fa2e 546e 912f
00000300: e695 1c2f 0259 082f 4fd4 882e 7ded fd2e
00000310: cf81 0b2e 2e51 be2d 1c18 da2d 5db9 8d2e
00000320: e639 5f2e 2f45 a52d fb4d cd2d 7cd6 c52d
00000330: 9a22 c62d 4d7a 592e 4bd1 6d2e db8d c32e
00000340: 2278 0b2e 36a8 7c2e d62c 6a2e df3e 1e2e
00000350: 5dd5 252e 5e27 172e 789a 852e 314e 932e
00000360: 2b26 052e dd0b 0f2e 5de5 352e 58f1 402e
00000370: 3a00 982e 8ff4 0d2e 2d67 382e 6fcd e22d
00000380: ea54 ef2d bb3f 382e 3800 832e 478c 222e
00000390: 6ad2 ef2d fff2 f32d f21d 2e2e f21a ce2d
000003a0: 054e 1c2e 2be2 3e2e ca46 2f2e 0e75 d62d
000003b0: 4c3d 3d2e 71bb 172e 85af fd2d 92fc 112e
000003c0: db0f c72d 1d76 282e 0889 e72d d12d a72e
000003d0: d10d 102e 69f9 932e 56d1 bf2e c10d 0c2f
000003e0: acf2 f02e aa89 ab2e 29f4 c92e 2cc4 882e
000003f0: a6d5 a32e 07db 2e2f 2b4e 292f e97a ea2e
