trained_models/Sigma_5_t_2/checkpoints/checkpoint_10.pth (torch, 173091 bytes, 10 tensors)

conv_layer.conv_layers.0.parametrizations.weight.original f4 [8, 1, 7, 7]
00000000: 4f03 a83c 1de0 9d3d d069 adbc c087 e53d
00000010: 6e46 85bd bf14 213d 39c7 13bc d294 123d
00000020: 28b8 c23d 99d3 eabd 6867 093e 1661 0f3d
00000030: 0636 cb3d 31d7 073d 623d 3d3d 4dc4 95bd
00000040: 720f d93d 2980 2a3e f49f 66bc aaf4 a83c
00000050: 3767 64bd 245c 023d 11fb 3dbd 9269 5e3e
00000060: 1a9e e4be c3c2 08bd 1757 32bd 8ad4 72bb
00000070: efe2 c03a b463 c2bd 1cb2 1d3e ef68 f8bd
00000080: 82b1 243e 3e65 cf3d f13c fdbc 04ef c83c
00000090: 6ede 913d adad 423d f132 ca3d 90d6 d93c
000000a0: b6d6 01bd f9cb 653d 085b 043c 5d3c a93c
000000b0: 2d4f 393d 9a50 ffbc 2911 423d 2c6c 283c
000000c0: 9bf1 d03c 2b93 dcbc 253f 4fbd e8ff c6bc
000000d0: 4f09 01be 6010 af3d 98b1 0d3d c6a3 153b
000000e0: 7e9b 503c 0cc1 75bb 2699 ee3d 1d5a 10be
000000f0: 0869 bdb8 d9d2 97bd 06ad 8f3c ca3c 7cbd
00000100: 695e 11bc 0d2a 8abd 82a9 6b3e 0ffc e53b
00000110: 7e68 31bd d454 63bd f64f be3d 9be4 de3d
00000120: dc0f 803e 59da f1be a10f 73be 2d28 bebd
00000130: 302a 6dbd 2ba4 aa3c f093 993c a973 3f3e
00000140: d872 003d 5164 5dbc 75f9 713d d8ca 88bb
00000150: 49cb 013c 8e96 73bd a77d 963d 7c72 95bd
00000160: 6c29 29bc 68e5 7cbc 77a8 de3c 2803 16bd
00000170: 83f4 323a 2465 753d da32 86bd caf7 15bb
00000180: 1ff3 dc3c b57a 18bc 0c0b 29bd 49ce 31bd
00000190: e102 b9bd cd5a a73c 8171 08bd b742 dabd
000001a0: f8bf f5ba 9532 36bd 22dc e1bd a94d 2abd
000001b0: bb07 25be df75 d3bd b566 ae3d eb98 4cbc
000001c0: 3b83 553b 6fa6 22bd e231 dfbd 8368 e8bd
000001d0: 3308 443d 8f8e 26be 0cfd 8fbd 8701 0bbd
000001e0: 68af 133d 0894 febd ecd9 b0bd 5f8c 8d3b
000001f0: 83d3 ffbd 6e80 31bd 97d7 43bd efbe 17be
00000200: 0c6c 233e 972d e13d 8681 443e fcac 8a3d
00000210: 20e8 92bd ef3f fdbc eda1 8eb9 cd8c 76bd
00000220: 4f3a f2bd 87c0 a6bd bce8 e93c b224 f6bc
00000230: 708a 06bd 0f43 9fbd 613e 543d 007d 91bd
00000240: 30d8 8cbc 1836 04bd 3ca3 1fbd af24 563c
00000250: 4492 dc3d 50d1 e1bd 71c8 1a3c f92f fdbc
00000260: cb0f e73c 9a28 22bd 2f0b 353d 26ad 60bd
00000270: 5acf 923d 619c 8c3d a503 653c 1af3 86bd
00000280: 3c29 483d 6805 24bc edaf 173d 2713 0ebe
00000290: 5fe6 c23d 3517 84bd 92d9 aabc 6e99 253e
000002a0: 83fd 34bc 4735 b8bd 41ab d4bd 83d6 21bd
000002b0: bd41 053e b72b 4dbc 98a6 a6bd abc1 123d
000002c0: 2d4e 9dbd 1fe7 163d f8fa 853e c251 e5bd
000002d0: 85a4 963c d688 0c3d aa8b 05bc 1cd5 0bbc
000002e0: d66a a83d 752c 003d 6b26 063d 24c1 3fba
000002f0: 1387 4bbc e14a 5d3b e2d1 ffbc 376a babb
00000300: a9cb 6c3d 374b 073c bd14 8f3b 0c19 6d3b
00000310: 0aae 7ebc ae59 5cbd f071 863d 49fb 693d
00000320: 0c04 84bd ef43 bdbc 0f11 b2bb 2e0e 86bc
00000330: 3f5a 2fbc c040 06bd c339 5ebd aa5a adbd
00000340: 6429 25bd 18d9 a4bc 5057 e03c ae8d 4b3d
00000350: 3953 0fbe acdd 22bd 75c9 7e3d 5bac 033e
00000360: a7a7 08bc b2c9 48bd 41e2 123e c793 14be
00000370: b8ed 1bbf acd2 833e 1e6b 7d3d a64a cf3b
00000380: ebaa cabd 9f9e c83c f34f 0e3e d067 033e
00000390: c93e 3fbe fc3b f5bd 6bb0 b0bc d748 183d
000003a0: 0090 2ebd 0a56 c13d 0d59 463d 5846 1cbd
000003b0: 5a72 d9bc 09da 1abd ab2e 51bd e267 52bd
000003c0: 35c7 733c 16f2 2cbd 2203 23bd 1147 2abd
000003d0: 3afc aabc a277 e4bc 6841 3dbd 93f0 ec3c
000003e0: 22da 5cbd cdcc 473d 82d9 73bd 8af6 53bd
000003f0: 2b38 84bc 7e15 85bd eeac 36bd 7deb 1fbe
0.02050939 0.07708762 -0.02116862 0.11207533 -0.06507574 0.039326426 -0.009019666 0.035786457
0.09507781 -0.1146614 0.13418353 0.035004698 0.099224135 0.033164207 0.046201117 -0.07312832
0.10598649 0.16650452 -0.014076222 0.020624477 -0.055762496 0.031826153 -0.046382014 0.2171996
-0.44651872 -0.033388864 -0.043540087 -0.0037052953 0.0014716069 -0.09491673 0.15399975 -0.121293895
0.16083339 0.10126732 -0.030912848 0.024528034 0.07122503 0.04752891 0.098729976 0.02659157
-0.031698905 0.056102727 0.008078344 0.020658666 0.045241524 -0.031166364 0.047379646 0.010279696
0.025505831 -0.026925644 -0.05059733 -0.024291947 -0.12601207 0.08548045 0.034593195 0.0022833212
0.012732385 -0.0037499098 0.116503045 -0.14096875 -9.031786e-05 -0.07413263 0.017538559 -0.06158141
-0.008872607 -0.06746302 0.23013881 0.007018573 -0.043312542 -0.05550082 0.09292595 0.10883447
0.250121 -0.472369 -0.2373643 -0.09285007 -0.05790156 0.020830235 0.0187473 0.18696465
0.031359524 -0.013512687 0.05907579 -0.0041745715 0.007922002 -0.059469752 0.07348185 -0.07297227
-0.010324817 -0.015435554 0.02717994 -0.036624104 0.0006826596 0.05991091 -0.06552668 -0.002288329
0.026971398 -0.009306599 -0.0412703 -0.04340962 -0.09033752 0.02042904 -0.03331137 -0.10657256
-0.0018749228 -0.044481833 -0.11028315 -0.04157797 -0.1611623 -0.103252165 0.085156836 -0.01248763
0.003257944 -0.039709505 -0.10898186 -0.11348059 0.047859382 -0.1626532 -0.07030687 -0.033937003
0.036055952 -0.124305785 -0.08635315 0.004319712 -0.124915145 -0.04333537 -0.047813024 -0.14818929
0.15959185 0.10995024 0.19190034 0.067712754 -0.071731806 -0.030914275 -0.00027204995 -0.06019287
-0.11827528 -0.081421904 0.02855336 -0.030046795 -0.032846868 -0.07776462 0.0518173 -0.0710392
-0.01719293 -0.03227815 -0.03897403 0.0130702695 0.107700855 -0.11026251 0.009447203 -0.030906664
0.028205773 -0.039589502 0.04420012 -0.054852627 0.071684554 0.068657644 0.01397792 -0.06589337
0.04886745 -0.010011055 0.03703301 -0.13874494 0.09516596 -0.06449739 -0.020855699 0.1617181
-0.01104677 -0.08994537 -0.103842266 -0.039511215 0.13013358 -0.012522629 -0.08137244 0.035829227
-0.076809265 0.036841508 0.26168036 -0.11197235 0.018388996 0.034310184 -0.008150974 -0.008534696
0.08223502 0.031292398 0.032751482 -0.0007314852 -0.012422341 0.0033766555 -0.03122801 -0.0056889313
0.057811413 0.008257679 0.004366486 0.003617826 -0.015544424 -0.053796463 0.065647006 0.05712441
-0.064460844 -0.023103682 -0.0054341624 -0.016364183 -0.010702669 -0.032776594 -0.054254305 -0.084645584
-0.040322676 -0.02012305 0.027385384 0.049695663 -0.1399659 -0.039762184 0.062203843 0.12858717
-0.008340753 -0.049020477 0.14344122 -0.14509498 -0.60909605 0.25746667 0.061869733 0.0063260375
-0.09895881 0.024489699 0.13897686 0.1283257 -0.18676294 -0.11974332 -0.021568498 0.03717884
-0.042617798 0.09440239 0.04842477 -0.038153023 -0.026543785 -0.03780559 -0.051069897 -0.0513686
0.014879038 -0.04222306 -0.03979791 -0.04157168 -0.020872224 -0.027889077 -0.046204954 0.028923308
-0.053918965 0.048779298 -0.059533603 -0.05174879 -0.016140064 -0.0649824 -0.044598512 -0.15617175

conv_layer.conv_layers.1.parametrizations.weight.original f4 [32, 8, 7, 7]
00000000: 13b6 f53c 9b69 1d3d a48c 9e3c df53 ccba
00000010: 5866 56bd b114 f83b 911c a53c 5bd6 08bd
00000020: bd69 943c 5e69 833c b8b5 b83b b73d 893c
00000030: 7f6c 393a 99fa 59bd 892d 83bd 256e d7bc
00000040: 08c1 55bc e846 043c 14ea 0dbc 1af2 33bd
00000050: acad 463d 9303 ff3c 99f5 333d c91a 99ba
00000060: fd5e d5bc e6e1 243d 1576 38bd 32b7 d9bc
00000070: 40e4 403c 4705 cbbc 24ec 1fbc a1ed da3c
00000080: c88c 313d 7c03 86bc 338d ffbc 7254 98bc
00000090: c8ae 46bc 1205 c13c 662c 693c 1b18 25bd
000000a0: bacb 4bbd 5094 a53c a7c9 47bd 498f 0b3d
000000b0: 614b cabc 2496 b2bb 395e 893b 1db3 b6bc
000000c0: b3d5 f7bc 5b2a 243d 8a73 f23b 1221 4d3d
000000d0: 95e4 343d d5e2 3cbd b6be 4cbd 98f5 7c3d
000000e0: a694 603d 5925 02bd 1fd1 383b 7d9b 26bd
000000f0: 9e0e eabc 8929 833b 5de6 28bc 5648 da3b
00000100: 444c 933c 2021 163d cf6f 603c 73f5 b2bc
00000110: b900 8c3c 40e1 7cbc ab48 a63c fdbd 5ebc
00000120: d26b 0d3d aeb8 cdbc 8b9f 04bd 2d18 b5bb
00000130: 552d 1a3d 709d 0d3d 0d78 2f3d 01c2 1d3d
00000140: 57fa 8a3d fecf a8bb 9bc6 60bd 4e87 4f3c
00000150: ab03 f9bc 7420 9ebc a060 95bc b2ff ddbb
00000160: f9d3 e33c 8b79 cebc 8cda 49bd 0f08 2abb
00000170: 4576 4dbd f54e a1bc 7199 923c 4e53 aabc
00000180: e808 4c3c 083e 433d cf37 04bc be26 c33c
00000190: bd43 b13c 7070 2b3c 00a7 edbc b6a0 b53b
000001a0: dd9b 153d b79f 873d 12f8 6d3c 1869 01bd
000001b0: 7566 85bc e870 b53b 7e8e 063d ff99 0b3d
000001c0: 7ba4 9e3c edb7 7b3c ef63 88bc e32b a0bc
000001d0: a9c9 64bb b0ac de3b a564 f23c e87e 8abc
000001e0: 747c 0d3d 4551 dabc c45b b3bc 6c48 70bc
000001f0: a100 bf3d 0427 fbbc ba46 983c aaf7 183c
00000200: d4ba 0d3d 1cc2 333d 27ab e53b 5eb5 1a3d
00000210: 443f 673d e465 5bbc 748d a53c 4b41 f23c
00000220: eb6b 703c b4fa 973c 6911 0b3d f285 673c
00000230: fc1d 1abc 7d47 373d 3eb1 203d 4ed6 f4bb
00000240: 9bd2 35bd bf33 153c c619 d7bc 8ca5 093d
00000250: c99d 61bd 4c3a 013c b295 52bc 1fea 503c
00000260: b63c 393d 63c0 ea3a 1ebe 473c 5ffc 663d
00000270: c365 c83c 831c 953a 2632 3cbc 9cb9 633c
00000280: cc68 43bc 154c 3a3a d088 ec3b 2db5 14bd
00000290: 1d5c e53b 329a 003c c558 133d 89c3 303d
000002a0: d48e d53c 1797 253d 8b89 df3c 1934 e9bc
000002b0: 63a5 0abd 99bd 0dbd a71c babb 1c0d e9bb
000002c0: 2225 eebc 3adf 7ebd ec35 09bc 47d6 13bd
000002d0: 9fc7 bcbc 9041 e23b 9011 433d 4b55 26bc
000002e0: 6b8d 94bc d41f be3c 553d 0f3c 0de3 89bc
000002f0: 1ad1 f13c cdf5 30bd cbc0 9c3a 5241 403d
00000300: c8b7 603c 3ecc 09bc 38c4 1cbd 8a5b db3c
00000310: 4b44 413d 2700 823c e566 383c ee53 453d
00000320: 98bb afbc 0d36 353b 43be 5ebd 06c3 84bd
00000330: 7d61 373c a43e d4bc 2431 993c 457b 7cbc
00000340: 11c0 73bd e522 b23c 3744 02bd 1e73 ddbc
00000350: 9954 64bc fcd8 64bc abf7 87bc 9949 cabc
00000360: b62a a13c 9336 fa3c 704c ae3c 1cd7 1fbd
00000370: d84f 5dbd f349 0e3d 2955 373c f6a1 bbbc
00000380: 67ea dbbb 008b 3dbd b21a 33bc 9455 4b3d
00000390: e7a5 08bd b7e6 513c 0de8 6cbc e3a4 10bc
000003a0: 351c a6bb 3969 81bd 9b0f 7cbc b62a d03c
000003b0: bf78 3bbd bb72 0a3c beb9 19bd 7d30 81bc
000003c0: 9a34 c83c dc88 bc3c c9de 4ebc f5ad 44bc
000003d0: 6b6e a1bc 6ad1 b4bb c905 7dbc 1290 2fbc
000003e0: b4a1 fa3c 0d76 1ebd 7783 e53c 1b01 4f3a
000003f0: a3af 6bbd bfd4 c4bc 95cb 943c ce10 87bc
0.029994046 0.03843079 0.019354172 -0.001558896 -0.052343696 0.007570826 0.020155223 -0.03340755
0.018116826 0.016041454 0.005636897 0.01675306 0.0007073357 -0.053217504 -0.064051695 -0.026297638
-0.0130465105 0.008073546 -0.008661766 -0.043932058 0.04850547 0.031129634 0.043935392 -0.0011680956
-0.02604627 0.040254496 -0.045034487 -0.026576612 0.011773169 -0.02478279 -0.00976089 0.026724638
0.04334715 -0.016359083 -0.031195259 -0.018594954 -0.012126632 0.023561988 0.014231777 -0.040306192
-0.049754836 0.020212322 -0.048776295 0.034072194 -0.024694147 -0.005450027 0.0041921404 -0.022302205
-0.030253267 0.040079456 0.0073990272 0.050080366 0.044163305 -0.04611476 -0.049986564 0.061757654
0.054829262 -0.0317739 0.0028200818 -0.04067563 -0.028571423 0.004002754 -0.010308829 0.006661455
0.017980702 0.036652684 0.013698532 -0.021845555 0.017090188 -0.015434563 0.020298323 -0.013595101
0.034526654 -0.025112476 -0.032378715 -0.0055265636 0.03764089 0.034573972 0.0428391 0.038515095
0.0678603 -0.0051517477 -0.054876905 0.0126665365 -0.030397257 -0.019302584 -0.018234551 -0.006774866
0.027811037 -0.02520444 -0.04928069 -0.0025944745 -0.05016162 -0.01969097 0.017895432 -0.020791676
0.012453295 0.04766658 -0.008069946 0.023822185 0.021638745 0.010463819 -0.029010296 0.00554284
0.036525596 0.0662226 0.014524477 -0.031594366 -0.016284207 0.005537141 0.032850735 0.03408241
0.01936554 0.015363676 -0.016649215 -0.019552177 -0.0034910238 0.0067954883 0.029589007 -0.016906217
0.034542516 -0.02665008 -0.021894343 -0.014665704 0.09326292 -0.030658253 0.018588413 0.009336391
0.034602 0.04388629 0.0070089283 0.03777062 0.05645682 -0.013390992 0.020209052 0.02957215
0.014674167 0.018552162 0.03395215 0.014131056 -0.009406563 0.04474591 0.03923153 -0.007471836
-0.044390302 0.0091065755 -0.026257407 0.033605143 -0.055082116 0.007887434 -0.012853073 0.012751131
0.045223914 0.0017910119 0.012191324 0.056393024 0.024462586 0.0011376295 -0.011486566 0.013899233
-0.011926841 0.0007106674 0.0072184578 -0.036305595 0.006999506 0.007849263 0.03597333 0.043155227
0.026069082 0.040427294 0.027287265 -0.028467225 -0.03384913 -0.034604643 -0.005679685 -0.0071121585
-0.02907044 -0.062224604 -0.008374672 -0.036093023 -0.023044406 0.0069047883 0.04762417 -0.010152171
-0.01813384 0.023208536 0.00874265 -0.016831899 0.029518653 -0.043203164 0.0011959312 0.046937294
0.013715692 -0.008410512 -0.038273066 0.026777048 0.04718427 0.015869213 0.011255001 0.048175745
-0.021451756 0.0027650625 -0.054380666 -0.0648251 0.011192677 -0.025908776 0.01870019 -0.015410249
-0.05950934 0.021745155 -0.031803336 -0.027032431 -0.013936185 -0.013967749 -0.01659759 -0.024693297
0.019673686 0.030543601 0.021276683 -0.039023504 -0.054031223 0.034738492 0.011189737 -0.022904377
-0.0067112925 -0.04627514 -0.010931658 0.04964216 -0.03336134 0.012811354 -0.014459622 -0.008828375
-0.0050692805 -0.06318898 -0.01538458 0.025410991 -0.04576945 0.008450205 -0.037530653 -0.015770191
0.024439145 0.023014478 -0.012626358 -0.012004365 -0.019705972 -0.005518128 -0.015443274 -0.010715501
0.030594684 -0.0386868 0.028016789 0.0007896588 -0.057540547 -0.024027226 0.018163482 -0.016487505

activation.coefficients_vect f4 [672]
00000000: 0000 0080 3672 8f3a 694f 253a 915e 1b3a
00000010: 0125 f939 ad44 ab39 6482 9d39 ef55 7b39
00000020: 3356 0039 08db 6d38 2915 c037 634c bfb7
00000030: 9ed6 93b8 7533 d8b8 c9db 2eb9 d9d0 cdb9
00000040: d9bf deb9 90d8 1cba 321e 8aba 3d52 abba
00000050: 0000 0000 0000 0080 7037 153a fa83 013a
00000060: fb28 cf39 c976 4c39 9cf8 3239 3d3f 7d38
00000070: c9e9 8c37 ad74 91b8 eeae 82b9 e95f d138
00000080: f5b7 e939 2471 9039 88ca 5a39 ea6c b4b6
00000090: c63f 75b9 71ca a5b9 f64d 00ba f041 04ba
000000a0: a543 6eba 0000 0000 0000 0080 4773 423b
000000b0: 722d 0c3b f7ac 9a3a a0c1 543a 3689 3439
000000c0: b77e bbb8 120b 0cb9 28ff 37b9 d12e 50b9
000000d0: ed8a e537 fb33 8639 1118 8738 1df1 2fb9
000000e0: 5a3c 64b9 58f4 80b9 7711 8db9 a16b ccb9
000000f0: 38f5 ffb9 868d 13ba 0000 0000 0000 0080
00000100: 26b7 f53a 3d31 ab3a 6815 8b3a 9507 753a
00000110: 2f61 6a3a f8ee db39 a329 3c39 57c4 9c38
00000120: fb23 8138 4967 da36 8a9b 8134 1c76 03b9
00000130: b78c 1eb9 a9b6 e9b9 4579 19ba 6600 1eba
00000140: 2a39 6eba d243 8dba b022 b9ba 0000 0000
00000150: 0000 0080 1731 203b 032b f93a 6e71 b23a
00000160: 775e 573a 3553 333a df0f 333a 4782 ec39
00000170: 4648 4336 f2a1 cfb8 541b 1bb8 e0e2 9237
00000180: 4df2 a5b9 0d39 ecb9 cdd2 fbb9 fa13 04ba
00000190: 5da7 78ba 2298 e5ba 62a6 11bb 8279 20bb
000001a0: 0000 0000 0000 0080 035f 3b3b 00f6 083b
000001b0: eba0 013b f27b 5b3a 50b4 413a c07e 1439
000001c0: 5ee0 be38 a0cc 4c38 b128 05b8 12f9 d138
000001d0: 1774 7439 e72f 4738 8bd9 0fb9 7500 49ba
000001e0: 9a7e 7eba 91dc 9bba 7adf d5ba 8d2c e4ba
000001f0: 9ea9 42bb 0000 0000 0000 0080 347f 8b3a
00000200: 9bf2 5d3a 0315 453a ce67 0e3a 008a f939
00000210: 1494 eb39 a577 8039 f56c 0f39 27e4 ec38
00000220: bd8c 8537 06f8 bdb8 c2a3 1ab9 d91c 55b9
00000230: 05bc b7b9 a4a5 21ba ce96 47ba 31ab 97ba
00000240: 0a68 b3ba eb1a 17bb 0000 0000 0000 0080
00000250: 25dc de3a 38fe b73a 577b 033a b93b f439
00000260: 5b61 ba39 d258 9a39 7a3d fe38 a757 17b9
00000270: 683c 60b9 89a5 16b8 cf28 ff38 c3dd 9738
00000280: 037d 60b8 d135 bfb8 65f6 e5b8 48b4 17b9
00000290: 1ce5 54b9 0395 d4b9 a326 1cba 0000 0000
000002a0: 0000 0080 73c8 3f3a 6fb7 253a e7b9 fa39
000002b0: c9b8 aa39 da3b 9a39 8995 1139 f6ed dd38
000002c0: 204b fe37 bde1 99b8 62de 0cb9 cf6b 32b9
000002d0: 665a 3db9 b872 56b9 7c54 5ab9 7cbf cbb9
000002e0: 92d9 43ba 7115 88ba 1808 8aba d2cf a7ba
000002f0: 0000 0000 0000 0080 5f6b e43a 82a3 b63a
00000300: b54e a63a b790 853a 7e38 9f39 5b96 8e39
00000310: f24f 4c38 8572 2db7 74b8 8db9 88c2 9638
00000320: 12f5 d739 b491 d437 7e2a f1b8 ec29 44b9
00000330: 4a09 0aba 86b9 0bba 4ee0 2bba 3efe 2dba
00000340: d2ca 3fba 0000 0000 0000 0080 dbd8 b33a
00000350: 6c0a a53a 7186 1d3a 8278 173a 94ba 0f3a
00000360: 1692 f939 7264 b939 8fd4 0d39 b758 cd37
00000370: 29b2 c437 c3e0 4a37 19c6 0eb9 97e4 e1b9
00000380: 1b1a f4b9 bfd1 3aba 7eec 6aba 6598 77ba
00000390: 580c 9fba 4bd7 d7ba 0000 0000 0000 0080
000003a0: fcb4 403b 7a58 1b3b befe e23a e975 b03a
000003b0: 0ba4 933a ed83 683a 64a7 e438 7a24 b6b7
000003c0: 666f 3db9 3706 57b9 bc6d 5cb9 cb3e e5b9
000003d0: 8e01 0bba 6c6d 0dba 0588 37ba 7a86 88ba
000003e0: 571f aaba 269b b9ba 246e caba 0000 0000
000003f0: 0000 0080 82b5 9c3a 8f1b 943a aa20 4e3a
-0.0 0.0010944072 0.00063060835 0.0005926872 0.0004752055 0.0003266683 0.00030042522 0.00023969238
0.00012239143 5.6709192e-05 2.2898037e-05 -2.2804545e-05 -7.049482e-05 -0.00010309267 -0.0001667581 -0.0003925625
-0.00042486077 -0.0005983198 -0.0010537563 -0.0013070774 0.0 -0.0 0.000569216 0.00049406255
0.0003951265 0.00019499207 0.00017068017 6.0378796e-05 1.6798165e-05 -6.935871e-05 -0.00024925865 9.983761e-05
0.00044578282 0.00027550117 0.00020865549 -5.3770973e-06 -0.00023388778 -0.00031622083 -0.00048944296 -0.0005045226
-0.00090890593 0.0 -0.0 0.0029670761 0.0021389392 0.0011800815 0.00081160106 0.00017217253
-8.940457e-05 -0.00013355564 -0.00017547293 -0.00019853866 2.736362e-05 0.000255972 6.441784e-05 -0.00016779122
-0.00021766257 -0.00024596113 -0.00026906628 -0.00038990102 -0.00048820092 -0.00056286936 0.0 -0.0
0.0018746599 0.0013060939 0.0010611238 0.0009347138 0.0008940873 0.0004194898 0.00017944588 7.475231e-05
6.157901e-05 6.5089303e-06 2.4141292e-07 -0.00012537133 -0.00015120475 -0.00044577316 -0.00058545574 -0.0006027281
-0.00090874976 -0.0010777658 -0.0014124718 0.0 -0.0 0.0024443322 0.0019010011 0.0013614127
0.00082156755 0.0006840707 0.0006830673 0.00045110492 2.9099333e-06 -9.900694e-05 -3.698033e-05 1.7510203e-05
-0.0003165178 -0.00045055934 -0.0004803151 -0.0005038377 -0.00094853883 -0.0017516653 -0.0022224416 -0.0024486487
0.0 -0.0 0.0028590567 0.002089858 0.0019779752 0.00083726563 0.00073892344 0.00014161598
9.101698e-05 4.8827962e-05 -3.1747568e-05 0.000100122896 0.000233129 4.748991e-05 -0.00013718584 -0.00076676096
-0.0009708196 -0.0011891295 -0.0016317212 -0.0017408297 -0.002970315 0.0 -0.0 0.0010642768
0.0008466632 0.00075180846 0.0005432338 0.000475958 0.0004493302 0.00024503205 0.00013678132 0.000112958536
1.5920372e-05 -9.05842e-05 -0.00014747589 -0.0002032401 -0.00035044565 -0.0006166345 -0.0007613719 -0.0011571405
-0.0013687622 -0.0023056816 0.0 -0.0 0.0017002864 0.0014037555 0.00050156325 0.00046583803
0.0003554922 0.00029439345 0.00012123115 -0.00014433135 -0.00021384808 -3.5916953e-05 0.00012166949 7.2415474e-05
-5.3522188e-05 -9.117614e-05 -0.000109654655 -0.00014467642 -0.00020303245 -0.00040546813 -0.0005956685 0.0
-0.0 0.0007315941 0.0006321584 0.00047822224 0.00032562602 0.00029417762 0.00013883984 0.00010582425
3.0314142e-05 -7.3376556e-05 -0.00013434284 -0.00017015565 -0.0001805812 -0.00020451366 -0.00020821573 -0.00038861844
-0.000747108 -0.0010382367 -0.0010530977 -0.0012803024 0.0 -0.0 0.0017427019 0.0013934227
0.0012688251 0.0010190223 0.00030368933 0.00027196374 4.8711845e-05 -1.0338267e-05 -0.00027031044 7.188792e-05
0.00041190587 2.5340218e-05 -0.0001149969 -0.00018707634 -0.00052656664 -0.00053300743 -0.00065565563 -0.00066373113
-0.00073162944 0.0 -0.0 0.0013721244 0.0012591607 0.0006009108 0.000577815 0.00054828194
0.00047601823 0.00035360787 0.00013525992 2.4479215e-05 2.3447983e-05 1.209247e-05 -0.00013615972 -0.00043085657
-0.00046558757 -0.00071265915 -0.00089616317 -0.0009445011 -0.0012134416 -0.001646736 0.0 -0.0
0.002940475 0.002370386 0.0017318351 0.0013462874 0.0011264099 0.0008869756 0.00010903066 -2.1713076e-05
-0.00018065944 -0.00020506313 -0.00021021714 -0.00043725068 -0.0005302661 -0.0005395028 -0.00070011645 -0.0010416054
-0.0012979311 -0.0014160618 -0.0015444201 0.0 -0.0 0.0011955949 0.0011299717 0.00078631437

u f4 [1, 1, 20, 20]
00000000: 40a4 92ba 3401 893a efa5 07bb 28d5 1b3c
00000010: 9039 483b d010 27ba 009f 5fb9 40df 08ba
00000020: a04a 433c 7442 9ebb 6000 c6ba e62e 8bbb
00000030: 7e38 7fbb 70fe 92ba b49f 053c 588c 24bc
00000040: a868 223c e125 f4bb 9cb5 493b 86a4 1fbb
00000050: 810b edba 4037 dcb8 0edc bd3c a923 b0bc
00000060: 5271 0cbd d4ea 86bb 3bef 51bc 11c9 b13c
00000070: 2607 6cbd 3f00 5f3c e892 2f3c 46b1 633c
00000080: 13a0 b33c a602 e33b 7aec 35bd 0213 553d
00000090: feb9 bfbc 3ce0 9d3c 1b01 10bc 1642 243b
000000a0: 5478 483b 28c9 943b 1c2e 25bd c2b4 633c
000000b0: 085c 113d 9353 163d 3064 bf3c 3edb 84bc
000000c0: a489 1b3d 5052 463c 3ad7 5fbc a2eb 19bc
000000d0: b113 0cbd 4110 093d f5b2 a6bb 78f7 ecbc
000000e0: 1a5b 8ebc 409c 5bbc e6eb 8c3c f3c7 88bb
000000f0: f676 55bb 00ae a43c 14d2 d3bc 6512 613c
00000100: 049d 603a 290e 76bd f399 75bc fc57 16bd
00000110: 9d77 763d d5d6 13bc a6ca 0dbd 7005 983c
00000120: ec5f f8bc 963c 81bc 9d9a 623d 2247 82bc
00000130: d428 2d3d bac1 353c 7878 9fbc 267f c33b
00000140: 4024 a73a de4d e7bc 876f 0e3d 9686 ac3c
00000150: b61b ed3c 46ec 583c 8f9a 1b3d 867f 20bc
00000160: 0059 71bd c2b0 723c b222 12bc c49c fd3c
00000170: 3643 0d3c 001c 95bc 0cca b0b9 be1d 103b
00000180: e7ba 85bc e07f c8bc 6e40 4e3c 0e6a 77bb
00000190: 0559 3dbb 52bd c43c 88ba ab3a 4011 8ebd
000001a0: 3cee 0fbd 6ac2 1cbd 644f 97bc de44 073d
000001b0: d3f1 16bc c9be 693c 28b4 4bbc f277 2d3d
000001c0: 4693 643c d00e cdbb 0d17 95bb 986f fd3a
000001d0: 7615 853c 5ffe 083d 04d1 d3bc 30ac db3b
000001e0: 7ced 4e3b 5627 0ebd 7be5 ef3c c0ae 383d
000001f0: c255 62bc f671 613d f168 113d 6d5d 2c3d
00000200: 848d cebc 85c2 06bc ae5c 313c 64c2 34bd
00000210: 054f 303c d957 a13c 14d8 54bd 4e69 aebc
00000220: c08f 16bd 64f9 02bc 085d eb3c c417 e9bb
00000230: 9670 ec3a 028b a73c 4565 b1bc 20ae 03bd
00000240: 137a 78bb c8ee a23c 897e d0bd 4286 c73b
00000250: fc6a 923c 9076 d83b bf38 543c ee12 12bd
00000260: 481e 3cbd bda8 b13c a50c 213d 61a6 783d
00000270: c450 fb3c bae0 683b 848f d5bc 329e c13b
00000280: 2217 0b3a ea62 71bc d271 41bc a2c7 923d
00000290: dddf b63c 4e45 1d3d 5bf5 02bc 04df 05bd
000002a0: 81bf d9bc 724c be3c 583b 4fbb 1818 9a3c
000002b0: 2488 87bc 3d58 0d3d 5f06 c2bc 8222 b0bc
000002c0: b4e1 4ebd aaa2 febb 804b db3c 4c4e e7bb
000002d0: e838 8abb e166 fe3c 8c4d 82bc bdc3 74bd
000002e0: e1ba 42bd 4015 e3bc b99a b6bc c28c 033d
000002f0: 4dc9 d53c e269 2dbc 4670 8cbb 1745 823d
00000300: 6dd5 bc3c 0695 6cbc 35cb 2cbd 60f7 563d
00000310: 455c db3c aa62 853b 8c47 c2bc 6497 b93b
00000320: 82b7 fe3a 1ebb 8cbc 7bf0 463c fa96 3e3d
00000330: 6c33 bdb9 1969 c83c c042 af3d f665 d53c
00000340: 5b82 02bd c048 99bc 2e28 e2bc 140b d6bc
00000350: 970a 67bc 71af 2d3c 30d8 d0bc 36d6 59bd
00000360: 6bb1 bebc 5e17 5b3c 14d5 c03c 9c43 c3bb
00000370: 7dfc 76ba bfe8 403c 32a2 48bc 3048 36bc
00000380: b27f b83a 29d6 46bd 5f48 58bd 26a7 73bb
00000390: 5100 663c 06d8 093d 94ad e9bc 84d6 803c
000003a0: e033 2dbb a651 ccbb c6a5 0d3d 2398 743d
000003b0: 42b7 293d 8ac3 b2bc 4d9c 7abc 3610 0e3b
000003c0: 96fd 8fb9 c76b c9bc a977 a43c 4f80 1e3d
000003d0: eb9c f13c d27e 8b3c 7c55 5f3c 9772 c7bc
000003e0: f85e 71bd 48c6 d73c a0f9 833c a451 0bbb
000003f0: 0cc0 49bd 7d64 183d 12cb ee3c 3034 82bd
-0.0011187866 0.0010452629 -0.002069827 0.00951127 0.0030551888 -0.00063730497 -0.0002132617 -0.0005221255
0.011919647 -0.004829699 -0.0015106313 -0.004247534 -0.0038943584 -0.0011214744 0.008155752 -0.010043226
0.009912647 -0.0074508046 0.0030778414 -0.0024359538 -0.0018085093 -0.000105007086 0.02317622 -0.02150138
-0.03428776 -0.004117349 -0.012813385 0.021702321 -0.057624005 0.0136108985 0.0107161775 0.013897246
0.021926915 0.006927806 -0.044414975 0.05202008 -0.023404118 0.019271962 -0.008789326 0.0025063804
0.00305893 0.0045405813 -0.040327176 0.0138980765 0.03548816 0.036700796 0.023363203 -0.016217824
0.03797306 0.012104586 -0.013662154 -0.009394558 -0.034198467 0.033462767 -0.0050872513 -0.028926596
-0.017377425 -0.013403952 0.017202329 -0.0041742264 -0.0032572127 0.0201025 -0.025857009 0.013737296
0.0008568319 -0.060072098 -0.014990318 -0.036705002 0.060172666 -0.009023388 -0.03461709 0.01855728
-0.030319177 -0.01577596 0.055323232 -0.01590306 0.042275265 0.011093551 -0.019466624 0.005966085
0.0012751892 -0.028235372 0.03477433 0.02106027 0.028943878 0.013239926 0.037989195 -0.009796029
-0.058922768 0.01481265 -0.008919405 0.03095854 0.008621981 -0.018201828 -0.00033719873 0.0021990384
-0.016324474 -0.024475038 0.012588603 -0.0037752423 -0.002889217 0.024016056 0.0013101855 -0.06936884
-0.035139307 -0.038271345 -0.018470474 0.03302466 -0.009212929 0.014266678 -0.012433089 0.042350717
0.013951128 -0.0062578693 -0.004549867 0.0019335626 0.016245585 0.033445712 -0.025856502 0.006703876
0.0031574657 -0.034705482 0.02928423 0.04508853 -0.013814392 0.055040322 0.03550047 0.042081285
-0.025213964 -0.008225088 0.010825319 -0.044130698 0.010761027 0.01969521 -0.05196388 -0.021290448
-0.036758184 -0.00799403 0.028730884 -0.007113429 0.0018038924 0.020452026 -0.021654734 -0.03214848
-0.0037914559 0.01988925 -0.10180385 0.006089003 0.01787328 0.0066059306 0.012952982 -0.035662584
-0.045927316 0.021686906 0.0393187 0.060705546 0.03067816 0.0035534338 -0.02606941 0.005908751
0.0005305876 -0.014733056 -0.011806922 0.07166983 0.022323543 0.038396172 -0.007993068 -0.032683387
-0.026580574 0.023229811 -0.0031621065 0.018810317 -0.01654441 0.03450798 -0.023684679 -0.02150083
-0.050508216 -0.007770856 0.0267694 -0.0070588943 -0.0042182095 0.031054916 -0.015906118 -0.059756983
-0.047541503 -0.027720094 -0.022290574 0.03211666 0.026096964 -0.010584326 -0.004285845 0.06360834
0.023050988 -0.014439827 -0.04218598 0.05248201 0.026777396 0.0040705996 -0.023715757 0.005663799
0.0019433352 -0.017179068 0.012142296 0.0465307 -0.000360872 0.024464177 0.085576534 0.026049595
-0.031862598 -0.018711448 -0.02760705 -0.02612833 -0.014101646 0.0106009105 -0.025493711 -0.053182803
-0.023277959 0.01337227 0.023539104 -0.0059589874 -0.0009421779 0.011774241 -0.012245702 -0.011125609
0.0014076142 -0.048544083 -0.052803393 -0.0037178486 0.014038161 0.03365328 -0.028525151 0.015727289
-0.0026428625 -0.006235319 0.034581922 0.0597154 0.041434534 -0.021821756 -0.015296054 0.0021677143
-0.00027464022 -0.024587525 0.02007659 0.038696583 0.02949377 0.017028246 0.013631221 -0.024346633
-0.05892846 0.026339665 0.016110241 -0.0021258378 -0.049255416 0.037205208 0.029149566 -0.0635761

exp_avg f4 [8, 1, 7, 7]
00000000: 3611 1f3c 81a3 ab3b bb8b c1bb 415f a6bc
00000010: 259e 69bc b890 813b 7d77 9b3c 07d4 f9bc
00000020: 4f29 96bc 0f14 45bc 4988 573c b9d5 37bb
00000030: c1ba 89bc aea6 95bc 288f 57ba 4870 dd3a
00000040: 5600 893c 8a62 203c bc01 ef3b a3ef 093c
00000050: 18b8 f43c c228 fbbc b06f ee3b 2f3d 02bc
00000060: f230 1c3b 0d9e c8bb 3e7d 5a3c fafc 0abc
00000070: aabf ae3b e0cd 553c b152 d53a 2c9f a6ba
00000080: 506e 883c cd83 573c a432 b83b b732 b2bc
00000090: 3286 88bc 6ed0 8d39 efaa d73c 2712 c13c
000000a0: 00f7 ff3b b6ce 0fbc b9fd 9b3b df82 e13b
000000b0: 88e6 9cbc 526a 76bc ca4f 8cbc a1dc 523c
000000c0: 2901 ef3b 41fb 7a3c 20bd ea3b 6928 3639
000000d0: 27c3 b6bc a2a1 ffba 8cf2 b63c 01d4 293d
000000e0: 05ab 27bd 6321 01bd 9eae 4ebc bd03 4a3c
000000f0: edc5 333c 2a61 3dbb d35c d9bb 29a9 d5bb
00000100: b3e6 9dbc cc7a 3c3b 9079 f7bb 89c4 033c
00000110: cfc4 883c 0fdc 263d 4607 18bd fc25 b9bc
00000120: d3d6 8abc 91a5 87bc 8d84 48bc c763 bbbb
00000130: 57c4 b3bc 1230 5f3c cfc6 923b cbe7 1c3a
00000140: 3700 bfbc 68f9 5a3c d146 993c 8a3a d03c
00000150: 1dd9 c4bc 2622 efbc f89c c9bb 21b1 833c
00000160: 45a9 b43c 3072 263c 6c4a 8fba 9faf ff3c
00000170: f461 b23c 0ddf 8f3b 3b17 39bc 3bf2 27bc
00000180: 3335 493c 9cde 963c ae8f 303b 1410 603a
00000190: 9042 28bb f77f 83bc 90ae 55bb ae7a 76ba
000001a0: 628d 253c a3ed d63a 1b7c 103c e327 c03b
000001b0: f507 b23a 9a07 9d3b 3385 b53b 840e 353b
000001c0: a233 a13c 84e0 383c 37a2 413c 8227 843b
000001d0: aa70 003c 5950 853b c71b 9a3c 3a90 1bbc
000001e0: 3f19 4cbc f5c3 26bc b04c 18bc 2559 6dbc
000001f0: c768 82bc f4f4 75bc 7a22 9cbb 5118 24bc
00000200: 9231 8abb 9a62 0ebc 5bf1 a9ba 60d2 aebb
00000210: 463d 25bb 295d 05bc b5d4 bfbb f79a 18bc
00000220: 2b6e 14bc d2fe aabb 57c6 8fbc d1a7 11bc
00000230: a1fd c03c fb3b 793c 24bc 523c 8a14 8e3b
00000240: 2efa 073c 4e2c 113c 9900 7d3c 0691 a83c
00000250: 1967 0c3c 90ee f3bb e724 eebb 5a6b 9839
00000260: a45f db3a adce cabb 2697 8b3c 6cf1 2d3c
00000270: 24a7 ad3b 4d28 c03b 30b8 0ebb 30ec b9ba
00000280: 6182 c1bb 7f1e 263d c7de b73c fd5a 8a3b
00000290: 3453 acb9 747f 1b3c 802c d43b 3f96 57ba
000002a0: 8639 8b3c 8c0a 403c e567 423b ab74 d33b
000002b0: 39d2 59bb 24bb 5cbc ce42 68bc 9709 483c
000002c0: 7aca 083b 08c7 37bc 6306 e9bb 3b35 02bc
000002d0: e215 b8bb 2569 853a 5c5b ddb9 e2bb 84bb
000002e0: 8481 89bb 3f89 f5bb be01 b9bc 3fd6 efbc
000002f0: 9a6d bcbc 6613 7e3c fe6a 8a3b bf38 9abb
00000300: f315 1fbc 67c0 d7bb fad4 17bc 0287 2dbc
00000310: afac da3c 385b 8e3c dfcc 26bc bb76 d4bc
00000320: 6da3 d0bb 4211 1c3c 87c6 b23c bd0e 50bc
00000330: dfc6 ba3b 0564 d03b 5853 0b3c 7ca5 18bc
00000340: c710 c7bc 5184 91bc 51e5 c83c 2f8c 1e3d
00000350: 4892 ab3c 5ab1 29bc 326e aa3b 4132 9b3c
00000360: cdb2 0b3d a6f6 aebb 77cd ba3c 11aa 77bb
00000370: 801a 80bb 9212 10bb ad80 abbb 55a4 e4bc
00000380: 5fbd c23c 606d 433c 250c acbb 2a56 29bc
00000390: 1f78 443c c0ca 6ebb 152f 90bb 949b cfbc
000003a0: b78e 84bc bc4f 373b 7e1b 813c 9bfe 21bb
000003b0: 8d89 cbbc 14e3 1dbd 93e5 d53c 7b6e 783c
000003c0: 0752 b4bc c2b8 16bd fbfb aabc 7e35 2b3b
000003d0: 4d13 983b cde9 643c bf93 e33b fccc 163b
000003e0: 562e 95bc e378 f7bb 8b65 043c dc5b 873c
000003f0: 0a95 973b 41b5 0f3c 6cf9 813b 78d2 2d3c
0.009708693 0.005237997 -0.0059065497 -0.020309092 -0.014258896 0.0039540194 0.018977875 -0.03049661
-0.018330244 -0.012028708 0.0131550515 -0.0028050973 -0.016812684 -0.018267956 -0.0008222931 0.0016894424
0.016723793 0.009789119 0.007293908 0.00841895 0.029872939 -0.030659083 0.007276498 -0.007949158
0.0023832885 -0.0061223567 0.013335524 -0.008483166 0.0053329067 0.013049573 0.0016275254 -0.0012712232
0.016654164 0.013153982 0.005621271 -0.021752698 -0.016665552 0.00027048908 0.026326625 0.023568226
0.007811427 -0.008777311 0.0047604707 0.006882056 -0.019152895 -0.015039997 -0.01712789 0.012869985
0.0072938395 0.015318693 0.0071636587 0.00017371927 -0.022309853 -0.0019503126 0.022332452 0.04146195
-0.04093458 -0.03152598 -0.012614874 0.012329993 0.010972482 -0.0028897026 -0.00663338 -0.0065204096
-0.019275045 0.0028759716 -0.007552333 0.008042463 0.016695408 0.040737208 -0.03711631 -0.02260112
-0.01694814 -0.01655844 -0.012238634 -0.0057186815 -0.021944208 0.013622301 0.0044792662 0.00059854676
-0.023315532 0.013365127 0.018710526 0.025418539 -0.024029309 -0.029191088 -0.0061527453 0.016075673
0.02205337 0.01015906 -0.0010932214 0.031211672 0.021775223 0.0043906034 -0.0112970425 -0.010250623
0.01228075 0.018416695 0.0026941109 0.00085473177 -0.002567444 -0.01605223 -0.0032605268 -0.0009402436
0.010104509 0.0016397726 0.008818652 0.00586413 0.0013582694 0.004792166 0.00553956 0.002762706
0.01967794 0.011283997 0.01181846 0.00403303 0.007839361 0.004068416 0.018812073 -0.0094948355
-0.012457191 -0.010178556 -0.0092956275 -0.014486586 -0.015919102 -0.015012015 -0.004764852 -0.010015563
-0.004217335 -0.008690501 -0.0012965606 -0.0053351372 -0.0025213524 -0.008139887 -0.005854214 -0.00931429
-0.009059469 -0.005218365 -0.01755063 -0.008890108 0.02355844 0.015212054 0.012862239 0.0043359445
0.008299394 0.008860661 0.015442037 0.020576965 0.008569502 -0.0074442104 -0.0072675827 0.00029071682
0.0016736877 -0.0061891885 0.017039847 0.0106166415 0.0052994657 0.005864179 -0.0021777265 -0.0014184769
-0.005905435 0.040556427 0.022445096 0.0042222724 -0.00032868388 0.009490836 0.0064750314 -0.00082239875
0.016995203 0.011721265 0.0029663977 0.006453117 -0.0033236875 -0.013472352 -0.014176084 0.012209318
0.0020872639 -0.011216886 -0.007111357 -0.007947261 -0.005617843 0.001017843 -0.00042220473 -0.0040507177
-0.0041963477 -0.0074931676 -0.022583839 -0.029276965 -0.02300148 0.015507555 0.0042241802 -0.0047064717
-0.009709823 -0.0065842154 -0.009267086 -0.01059127 0.02669367 0.01737748 -0.010180681 -0.025935521
-0.006367138 0.009525599 0.02182318 -0.012698826 0.005699977 0.0063595795 0.008503757 -0.009316798
-0.024299992 -0.017763289 0.02452341 0.03870791 0.020943776 -0.010357225 0.0052011246 0.018944861
0.034106065 -0.0053394614 0.022803051 -0.0037790576 -0.003909409 -0.0021983725 -0.005233845 -0.02791039
0.02377194 0.0119279325 -0.005250471 -0.0103354845 0.01199153 -0.0036436766 -0.004400144 -0.02534274
-0.016181333 0.002797111 0.01576018 -0.0024718407 -0.024845863 -0.038546637 0.026110446 0.015163059
-0.02201177 -0.036797293 -0.020872107 0.0026124413 0.0046409727 0.013971758 0.006945103 0.0023010364
-0.018210571 -0.0075522526 0.00808085 0.016523294 0.004625921 0.008771242 0.003966501 0.010609262

exp_avg_sq f4 [8, 1, 7, 7]
00000000: 714e b73b 55de da3b decb b93b 9f4e ed3b
00000010: 845d e43b 29bf ac3b de90 ac3b 1473 c33b
00000020: 74cb d83b ef7e d33b ca4a 1e3c cbe3 e93b
00000030: 2ce6 d03b 3a56 d33b 18d3 d03b 1e85 f43b
00000040: 6806 353c 9f1d 5a3c a34f 263c 0766 fe3b
00000050: e2e5 a83b fa85 133c 480f 4b3c db4e a93c
00000060: 5832 843c 5309 cc3c 350b 223c 1509 263c
00000070: 06f8 f03b 1207 3f3c d982 3e3c cdb3 7d3c
00000080: e2b9 463c 163c 0f3c 54ea e33b de79 e03b
00000090: 136b dd3b 75a5 043c d701 123c 2f67 123c
000000a0: 08d3 d73b 9b62 c33b d05e cb3b 45ac e83b
000000b0: 538b b53b 1a7b 0a3c b775 c53b 51ba d93b
000000c0: 6bad d63b 58c4 143c ec6f 2c3c 77da f23b
000000d0: f8c5 3c3c 5d80 173c 7127 433c c8dd 403c
000000e0: 32b4 ff3b 5ae2 f53b 27ad cd3b cf74 4b3c
000000f0: 5d2e 123c d3c4 1d3c 9d22 493c d16b 073c
00000100: da99 0a3c f6c8 0e3c 07eb 993c 3e9b 163c
00000110: 4acb 2b3c 20a1 0f3c 7581 313c ee3d 4a3c
00000120: dfa9 6f3c fa92 8d3c 4832 a43c 0c18 163c
00000130: c0c4 193c 8226 083c c71b 3f3c 8db1 0d3c
00000140: 45d2 853c c12b 073c 3333 fb3b 6948 043c
00000150: c85c 143c 6e42 153c b6b9 0f3c 6727 453c
00000160: ca97 033c 1d3d f83b e405 043c 975c 333c
00000170: 2edb 133c 07b0 fd3b b8c1 5f3c 6f5e 083c
00000180: b63c ee3b ed32 133c 1fe0 ab3b 5c4d 963b
00000190: 2cc2 943b e7d5 a83b 2fe8 9b3b 2dee 9a3b
000001a0: e5ca a13b 921b 833b d491 7f3b 1f43 813b
000001b0: 8937 953b bfd3 6f3b 779b 753b c466 7d3b
000001c0: c1ee 533b 9a95 2b3b 5ec4 543b 2c8b 6d3b
000001d0: c8a8 303b 1040 463b 0f6f 563b c224 3c3b
000001e0: 76c2 1e3b 0e46 043b c6c7 4b3b f68e 1a3b
000001f0: 2748 253b 50af 3d3b d587 403b 7f24 0f3b
00000200: e378 0e3b 6738 0f3b e915 323b e37d 423b
00000210: b512 413b b7cd 813b 18d7 553b 135c 713b
00000220: cbc7 733b 5964 7f3b 6ed1 703b 1061 8d3b
00000230: 3a23 923b 69b7 893b f6e4 aa3b 3015 933b
00000240: 1d7e 913b a8ac 913b 28e7 a33b 7fab 9b3b
00000250: 09a9 583b 5e35 6a3b f813 493b 9cab 393b
00000260: fb60 483b bad5 793b 4a53 753b 4e47 393b
00000270: c27a 443b 87ef 4c3b b973 023b e163 1e3b
00000280: f584 4b3b fcbb 533b dd8e 073b 0023 333b
00000290: d531 293b d4fb 063b 52fe 0b3b 0c9a 4d3b
000002a0: e7bc 453b 2c15 093b f4e5 093b 843f 173b
000002b0: 0fd1 ec3a c842 0b3b 364c 3e3b ee8a 503b
000002c0: 13f5 ef3a d7c8 2b3b bff3 093b cc89 353b
000002d0: f6ab 2a3b 9bcc 473b 3a2c 5a3b d30a 333b
000002e0: ea93 1d3b e6c1 503b 8fe3 1a3b 8d9b 373b
000002f0: 981d 5b3b 09a9 893b 133f 2f3b a7c1 4f3b
00000300: 4972 4a3b 5b8c 353b dc43 4f3b 0050 7f3b
00000310: b823 d73b 0432 f43b efa6 e13b d58a 6d3c
00000320: 0d1b e53b 727a fb3b b481 dd3b 63ac e43b
00000330: dd1a fc3b d82c 173c 9dd5 583c d83a 093c
00000340: dd21 023c 15d4 0f3c b4f6 e43b 84c7 2f3c
00000350: d160 313c 95d5 c73c c713 4b3c 7bee 523c
00000360: c861 ec3b 8aa8 1d3c 2c84 2c3c b181 c33c
00000370: 8edf 983c d394 e33c bf08 7c3c 7ab7 273c
00000380: cc5d be3b b3ea 653c a52f 443c dd09 d13c
00000390: a9a3 1b3c 1124 233c 58ab e93b 39ce 053c
000003a0: 35db 083c b907 2f3c f5e4 623c d7b9 053c
000003b0: f2ff 063c 04fc fc3b 8b34 c83b 387f 013c
000003c0: f7f8 013c d648 473c 0961 bb3b ce6c 003c
000003d0: 4b55 b53b be0c 243b c303 6b3b 48a6 083b
000003e0: 04e0 7b3b 867a 1e3b 01f3 303b 5a56 613b
000003f0: 02a9 3e3b 13dd 663b dedc 233b baff 933b
0.0055940677 0.006679336 0.005670055 0.0072420384 0.0069691557 0.0052718115 0.005266293 0.005964646
0.0066160504 0.0064543406 0.009661386 0.0071377507 0.006375095 0.006449488 0.0063728206 0.007462158
0.011048891 0.013312726 0.010150823 0.0077636275 0.0051543573 0.0090041105 0.01239378 0.020667484
0.016137287 0.02490679 0.009890367 0.010134001 0.0073537854 0.011659401 0.011627876 0.015484762
0.012129279 0.008742353 0.0069554243 0.006850465 0.006757149 0.008096089 0.008911571 0.008935734
0.006586436 0.0059626824 0.006206371 0.0071006143 0.0055402904 0.008452201 0.0060259956 0.006644525
0.0065514348 0.009080015 0.010524731 0.007411297 0.011521809 0.009246913 0.011911259 0.011771627
0.0078034634 0.00750379 0.006276745 0.012417986 0.008922187 0.009629446 0.012276319 0.0082654515
0.008459533 0.008714905 0.018788828 0.009192286 0.01048548 0.008766443 0.010834088 0.012343867
0.014627903 0.017281998 0.020043507 0.009161007 0.009385288 0.008309962 0.0116643375 0.008648288
0.016335616 0.008250178 0.0076660155 0.008073905 0.009055324 0.009110076 0.008772304 0.01203332
0.008031795 0.0075756446 0.008058045 0.010947368 0.0090244245 0.0077419314 0.013657026 0.008323296
0.007270421 0.00898431 0.005245223 0.0045868587 0.0045397487 0.0051524523 0.004757903 0.0047281
0.004937517 0.0040010894 0.0038996832 0.003944769 0.0045537394 0.0036594716 0.0037476697 0.003866599
0.0032338353 0.0026181699 0.0032465677 0.0036246283 0.002695607 0.0030250587 0.0032720005 0.0028708433
0.0024224794 0.0020183357 0.0031094416 0.0023583747 0.0025220008 0.0028943606 0.0029377837 0.0021841822
0.0021739535 0.0021853687 0.0027173704 0.0029677085 0.0029460613 0.0039612907 0.0032629427 0.0036828562
0.0037197943 0.0038969724 0.0036745924 0.0043145493 0.0044597657 0.0042027724 0.0052152826 0.0044886097
0.0044400827 0.004445631 0.005001921 0.0047506685 0.0033059737 0.0035737376 0.0030682068 0.0028331047
0.0030575383 0.0038121776 0.0037433677 0.002827126 0.0029980396 0.00312707 0.0019905402 0.002416842
0.003105459 0.0032308092 0.0020684518 0.0027334094 0.0025817056 0.0020596879 0.0021361304 0.0031372337
0.003017241 0.002091716 0.0021041604 0.002307863 0.0018067675 0.0021249522 0.0029037124 0.003182109
0.0018307291 0.002621224 0.0021049825 0.0027700542 0.0026042438 0.0030486945 0.0033290521 0.0027319684
0.0024044462 0.0031853854 0.002363417 0.00280163 0.0033434387 0.0042010588 0.0026740476 0.003170112
0.0030890873 0.0027702067 0.003162614 0.0038957596 0.0065655373 0.0074522514 0.006886355 0.014498432
0.00699175 0.0076745087 0.0067598466 0.006978558 0.007693632 0.009227 0.013234523 0.008375846
0.007942644 0.008778592 0.006987417 0.010728721 0.0108263055 0.024393836 0.012394852 0.012874241
0.007213805 0.009622702 0.010529559 0.023865553 0.018661287 0.027780926 0.015382945 0.010236615
0.0058095213 0.014033007 0.01197425 0.025517398 0.009499469 0.009957329 0.0071310215 0.008166843
0.008353044 0.010682994 0.013848533 0.008161983 0.008239733 0.0077204723 0.0061097792 0.0079038665
0.007932893 0.012163362 0.0057183546 0.007838441 0.0055338494 0.002503201 0.0035860396 0.0020851064
0.0038433084 0.0024181916 0.002700031 0.0034383745 0.0029092436 0.0035226985 0.0025003473 0.004516569

exp_avg f4 [32, 8, 7, 7]
00000000: 0400 0000 0400 0000 0400 0080 0400 0000
00000010: 0400 0080 0400 0000 0400 0080 0400 0080
00000020: 0400 0080 0400 0080 0400 0000 0400 0080
00000030: 0400 0000 0400 0000 0400 0080 0400 0000
00000040: 0400 0000 0400 0000 0400 0000 0400 0080
00000050: 0400 0000 0400 0000 0400 0000 0400 0000
00000060: 0400 0080 0400 0000 0400 0080 0400 0000
00000070: 0400 0000 0400 0080 0400 0080 0400 0000
00000080: 0400 0000 0400 0080 0400 0080 0400 0000
00000090: 0400 0000 0400 0080 0400 0080 0400 0080
000000a0: 0400 0080 0400 0080 0400 0000 0400 0000
000000b0: 0400 0080 0400 0080 0400 0080 0400 0080
000000c0: 0400 0080 0400 0000 0400 0000 0400 0000
000000d0: 0400 0000 0400 0080 0400 0080 0400 0080
000000e0: 0400 0000 0400 0080 0400 0000 0400 0000
000000f0: 0400 0000 0400 0080 0400 0080 0400 0000
00000100: 0400 0000 0400 0000 0400 0000 0400 0080
00000110: 0400 0080 0400 0080 0400 0000 0400 0080
00000120: 0400 0000 0400 0000 0400 0080 0400 0080
00000130: 0400 0080 0400 0000 0400 0000 0400 0080
00000140: 0400 0000 0400 0080 0400 0080 0400 0080
00000150: 0400 0000 0400 0080 0400 0080 0400 0080
00000160: 0400 0080 0400 0080 0400 0080 0400 0080
00000170: 0400 0080 0400 0080 0400 0080 0400 0080
00000180: 0400 0080 0400 0080 0400 0000 0400 0080
00000190: 0400 0000 0400 0000 0400 0000 0400 0080
000001a0: 0400 0000 0400 0000 0400 0000 0400 0080
000001b0: 0400 0000 0400 0000 0400 0080 0400 0000
000001c0: 0400 0080 0400 0080 0400 0000 0400 0000
000001d0: 0400 0000 0400 0080 0400 0080 0400 0000
000001e0: 0400 0000 0400 0080 0400 0000 0400 0000
000001f0: 0400 0000 0400 0080 0400 0000 0400 0080
00000200: 0400 0080 0400 0000 0400 0080 0400 0000
00000210: 0400 0000 0400 0080 0400 0000 0400 0080
00000220: 0400 0080 0400 0000 0400 0000 0400 0000
00000230: 0400 0080 0400 0080 0400 0080 0400 0080
00000240: 0400 0080 0400 0000 0400 0080 0400 0000
00000250: 0400 0080 0400 0000 0400 0080 0400 0080
00000260: 0400 0000 0400 0000 0400 0000 0400 0000
00000270: 0400 0080 0400 0080 0400 0000 0400 0000
00000280: 0400 0000 0400 0000 0400 0000 0400 0080
00000290: 0400 0080 0400 0080 0400 0000 0400 0000
000002a0: 0400 0080 0400 0000 0400 0000 0400 0080
000002b0: 0400 0000 0400 0000 0400 0000 0400 0080
000002c0: 0400 0000 0400 0000 0400 0000 0400 0080
000002d0: 0400 0000 0400 0000 0400 0000 0400 0080
000002e0: 0400 0000 0400 0080 0400 0000 0400 0000
000002f0: 0400 0080 0400 0080 0400 0000 0400 0000
00000300: 0400 0000 0400 0080 0400 0080 0400 0000
00000310: 0400 0000 0400 0000 0400 0000 0400 0000
00000320: 0400 0080 0400 0080 0400 0080 0400 0080
00000330: 0400 0000 0400 0000 0400 0000 0400 0080
00000340: 0400 0080 0400 0000 0400 0000 0400 0000
00000350: 0400 0080 0400 0000 0400 0000 0400 0080
00000360: 0400 0080 0400 0000 0400 0080 0400 0000
00000370: 0400 0080 0400 0000 0400 0000 0400 0080
00000380: 0400 0080 0400 0000 0400 0080 0400 0000
00000390: 0400 0080 0400 0080 0400 0000 0400 0000
000003a0: 0400 0080 0400 0080 0400 0000 0400 0000
000003b0: 0400 0080 0400 0080 0400 0080 0400 0000
000003c0: 0400 0000 0400 0000 0400 0000 0400 0080
000003d0: 0400 0080 0400 0000 0400 0000 0400 0080
000003e0: 0400 0000 0400 0080 0400 0000 0400 0080
000003f0: 0400 0000 0400 0000 0400 0000 0400 0080
6e-45 6e-45 -6e-45 6e-45 -6e-45 6e-45 -6e-45 -6e-45
-6e-45 -6e-45 6e-45 -6e-45 6e-45 6e-45 -6e-45 6e-45
6e-45 6e-45 6e-45 -6e-45 6e-45 6e-45 6e-45 6e-45
-6e-45 6e-45 -6e-45 6e-45 6e-45 -6e-45 -6e-45 6e-45
6e-45 -6e-45 -6e-45 6e-45 6e-45 -6e-45 -6e-45 -6e-45
-6e-45 -6e-45 6e-45 6e-45 -6e-45 -6e-45 -6e-45 -6e-45
-6e-45 6e-45 6e-45 6e-45 6e-45 -6e-45 -6e-45 -6e-45
6e-45 -6e-45 6e-45 6e-45 6e-45 -6e-45 -6e-45 6e-45
6e-45 6e-45 6e-45 -6e-45 -6e-45 -6e-45 6e-45 -6e-45
6e-45 6e-45 -6e-45 -6e-45 -6e-45 6e-45 6e-45 -6e-45
6e-45 -6e-45 -6e-45 -6e-45 6e-45 -6e-45 -6e-45 -6e-45
-6e-45 -6e-45 -6e-45 -6e-45 -6e-45 -6e-45 -6e-45 -6e-45
-6e-45 -6e-45 6e-45 -6e-45 6e-45 6e-45 6e-45 -6e-45
6e-45 6e-45 6e-45 -6e-45 6e-45 6e-45 -6e-45 6e-45
-6e-45 -6e-45 6e-45 6e-45 6e-45 -6e-45 -6e-45 6e-45
6e-45 -6e-45 6e-45 6e-45 6e-45 -6e-45 6e-45 -6e-45
-6e-45 6e-45 -6e-45 6e-45 6e-45 -6e-45 6e-45 -6e-45
-6e-45 6e-45 6e-45 6e-45 -6e-45 -6e-45 -6e-45 -6e-45
-6e-45 6e-45 -6e-45 6e-45 -6e-45 6e-45 -6e-45 -6e-45
6e-45 6e-45 6e-45 6e-45 -6e-45 -6e-45 6e-45 6e-45
6e-45 6e-45 6e-45 -6e-45 -6e-45 -6e-45 6e-45 6e-45
-6e-45 6e-45 6e-45 -6e-45 6e-45 6e-45 6e-45 -6e-45
6e-45 6e-45 6e-45 -6e-45 6e-45 6e-45 6e-45 -6e-45
6e-45 -6e-45 6e-45 6e-45 -6e-45 -6e-45 6e-45 6e-45
6e-45 -6e-45 -6e-45 6e-45 6e-45 6e-45 6e-45 6e-45
-6e-45 -6e-45 -6e-45 -6e-45 6e-45 6e-45 6e-45 -6e-45
-6e-45 6e-45 6e-45 6e-45 -6e-45 6e-45 6e-45 -6e-45
-6e-45 6e-45 -6e-45 6e-45 -6e-45 6e-45 6e-45 -6e-45
-6e-45 6e-45 -6e-45 6e-45 -6e-45 -6e-45 6e-45 6e-45
-6e-45 -6e-45 6e-45 6e-45 -6e-45 -6e-45 -6e-45 6e-45
6e-45 6e-45 6e-45 -6e-45 -6e-45 6e-45 6e-45 -6e-45
6e-45 -6e-45 6e-45 -6e-45 6e-45 6e-45 6e-45 -6e-45

exp_avg_sq f4 [32, 8, 7, 7]
00000000: 1d28 8a27 9a4d 8527 9433 1c27 8f73 a127
00000010: 9430 f726 7c46 f226 83d3 ca26 00cc 9327
00000020: 05e1 5527 dcad 1c27 8583 4b27 e813 3927
00000030: 59d2 2827 8c86 3d27 c66b 5327 3486 8427
00000040: 3db8 8927 3298 0427 5fa1 3127 06b5 0f27
00000050: 2a57 f526 2c41 c027 6048 aa27 8b30 e927
00000060: d715 a927 ab2b b227 a040 7227 c3ea 3f27
00000070: 6ab3 ad27 6bd6 5b27 331f c127 0327 9a27
00000080: 43fa d027 0977 8227 4690 5227 faa9 4e27
00000090: d163 5627 a48a d327 1a52 9527 18ad 1c27
000000a0: 33a0 2227 40aa 7e27 0ef4 a727 430f 3f27
000000b0: f531 3e27 50ce 4f27 9ef4 5627 f188 4327
000000c0: df43 3f27 60dc b427 8c8e 9727 54b2 ba27
000000d0: 0af5 f127 78ce 1228 9280 e627 4836 d827
000000e0: c2dd c527 a26e 2928 e31e 2928 5bf6 7728
000000f0: 62b8 3028 98d3 0228 edf6 f027 2df2 1928
00000100: f6ca f427 2d09 0f28 ba5f 1d28 31e9 1828
00000110: f5de f027 d87a 1228 4e31 1728 6666 0c28
00000120: cc61 0b28 0998 af27 6935 1f28 aed4 a327
00000130: 9b65 e627 4ff1 2f28 b599 3228 f011 0c28
00000140: d39d e927 6e9e fe27 c3e3 0028 47f6 b927
00000150: 491c 8327 e5e7 c227 4d2a bd27 016c e927
00000160: cc22 f427 995f ea27 1088 da27 1aca 7227
00000170: f8f1 da27 0d2d 1428 33f8 ab27 db73 b327
00000180: 044c fb27 65c8 bb27 9a04 bd27 58ee f627
00000190: 45dd 2f28 1487 cb27 d235 f427 4c3c e427
000001a0: fe48 c827 b6e0 da27 73b5 0428 ccac 5428
000001b0: 2563 3328 7567 1928 4d96 8d27 f154 af27
000001c0: bb35 c127 ffc4 0528 e4c3 6e28 41da 1528
000001d0: a287 d927 7ebf ac27 bc3a 8427 50b5 f827
000001e0: a15d 1728 de6e 2e28 c635 6528 f9a5 1528
000001f0: bc0e ab27 beeb b127 0822 8727 4281 c327
00000200: 870b b427 29ce 2128 a12e b427 94bb b927
00000210: e427 df27 5429 b727 bb75 ba27 8cc9 de27
00000220: e2b8 2d28 4c65 ee27 b390 b927 cc08 bf27
00000230: f449 4427 0905 9327 f435 6427 e3b7 b227
00000240: f6f8 d027 aad8 aa27 d836 0028 6f08 2b28
00000250: 4e1a 0328 cca7 5328 75e3 c327 d094 2c28
00000260: a70c 1f28 09b5 5328 3db6 db27 3fc3 8e27
00000270: 596d 3728 6a1d 4528 8c69 3028 b8db 5e28
00000280: 32d9 5728 d27d a027 7aa0 3028 e1d9 3d28
00000290: 8198 9028 ae5c 3128 4465 7228 a4ac 3728
000002a0: 20ab 5128 6392 2928 adba 6028 7ba9 8f28
000002b0: 77e2 a728 90b2 5928 d6d0 8428 0c7c 7728
000002c0: 75ec 8928 db32 8b28 3c9c 6728 c269 7f28
000002d0: 40ca 8828 bf10 2f28 9ce3 1b28 54c3 b728
000002e0: efa8 5328 ee64 8f28 d146 0328 313a 2e28
000002f0: e025 bb27 5e6f e427 cec3 3828 18b2 d628
00000300: d129 6728 7449 4928 5eff c927 036f 3b28
00000310: 78f3 4d27 f17a 0c27 defb 2027 3339 d127
00000320: 87c5 a427 1cfc f326 108b 1727 2008 1227
00000330: 4040 1227 6987 a027 a58a af27 5658 1028
00000340: 2de5 4d27 d77e ba27 73da ac27 519d 6927
00000350: 08d1 7427 1425 5f27 5a3c c527 a276 d927
00000360: 8190 4427 0e2d 5327 a643 8627 ff6a 8e27
00000370: 3165 e027 c290 5127 771d 8827 4469 2727
00000380: f0a8 3027 3000 8827 a864 c127 63f7 6f27
00000390: aa05 3127 7611 3427 ac85 8027 4922 1827
000003a0: cbbf 6627 02e6 8c27 db60 8127 954c 1e27
000003b0: 24af 8b27 bbff 5f27 4d41 3b27 1984 5727
000003c0: 7bef 1227 06b2 7827 88e7 2a27 56cd f627
000003d0: bda9 5427 7473 da27 5d96 0d28 25c2 4e28
000003e0: 5dda 3128 cf3c fd27 ad11 1528 a5e7 c927
000003f0: 67dd f127 3711 8128 21f1 7928 2914 2d28
3.8346185e-15 3.699905e-15 2.167731e-15 4.4811766e-15 1.7152235e-15 1.6811228e-15 1.4073896e-15 4.1021873e-15
2.9681671e-15 2.1743598e-15 2.8243206e-15 2.5684699e-15 2.3428713e-15 2.6301957e-15 2.9340556e-15 3.6782863e-15
3.822489e-15 1.8401185e-15 2.4651164e-15 1.994337e-15 1.7023916e-15 5.3361365e-15 4.7262948e-15 6.472312e-15
4.69306e-15 4.945227e-15 3.361928e-15 2.663384e-15 4.8211667e-15 3.0508592e-15 5.3602087e-15 4.2785883e-15
5.800293e-15 3.6211306e-15 2.9221565e-15 2.8680387e-15 2.9752576e-15 5.871458e-15 4.1444822e-15 2.1743183e-15
2.256886e-15 3.5341874e-15 4.6616416e-15 2.6514848e-15 2.6394879e-15 2.8838863e-15 2.9831073e-15 2.7135922e-15
2.6543368e-15 5.0198967e-15 4.206547e-15 5.1818714e-15 6.715661e-15 8.149399e-15 6.397722e-15 6.0010895e-15
5.4918914e-15 9.405374e-15 9.388082e-15 1.3764674e-14 9.809944e-15 7.262332e-15 6.68811e-15 8.54572e-15
6.7943655e-15 7.940084e-15 8.736008e-15 8.48826e-15 6.685511e-15 8.1312656e-15 8.392875e-15 7.793765e-15
7.737256e-15 4.8737094e-15 8.8378545e-15 4.5472176e-15 6.3947985e-15 9.766777e-15 9.914315e-15 7.775451e-15
6.4841605e-15 7.067093e-15 7.154815e-15 5.161483e-15 3.639047e-15 5.4097237e-15 5.25039e-15 6.478759e-15
6.776133e-15 6.5051694e-15 6.0654674e-15 3.3693806e-15 6.07695e-15 8.225419e-15 4.7731132e-15 4.980809e-15
6.974891e-15 5.2120195e-15 5.2463027e-15 6.853713e-15 9.762432e-15 5.649027e-15 6.7781957e-15 6.3348086e-15
5.559029e-15 6.0750787e-15 7.3668175e-15 1.1805833e-14 9.957995e-15 8.51564e-15 3.929832e-15 4.866435e-15
5.3626516e-15 7.4257e-15 1.3254131e-14 8.318488e-15 6.0376652e-15 4.7947206e-15 3.670104e-15 6.9030407e-15
8.402486e-15 9.682981e-15 1.2723714e-14 8.307151e-15 4.747801e-15 4.938296e-15 3.7506924e-15 5.4263514e-15
4.9972534e-15 8.981999e-15 5.001059e-15 5.1551187e-15 6.1938183e-15 5.083751e-15 5.1753014e-15 6.1835895e-15
9.643519e-15 6.6168096e-15 5.15047e-15 5.3022687e-15 2.7240554e-15 4.0806155e-15 3.1670604e-15 4.9604295e-15
5.800152e-15 4.7419386e-15 7.11732e-15 9.494236e-15 7.277665e-15 1.1749238e-14 5.436998e-15 9.580187e-15
8.829017e-15 1.1752109e-14 6.0982294e-15 3.9624604e-15 1.0182252e-14 1.0942075e-14 9.7928494e-15 1.23711195e-14
1.1981994e-14 4.4545336e-15 9.8047604e-15 1.05388525e-14 1.605335e-14 9.8455705e-15 1.3455657e-14 1.0195976e-14
1.16389374e-14 9.413127e-15 1.2474977e-14 1.594969e-14 1.8638938e-14 1.2084639e-14 1.4745512e-14 1.3738153e-14
1.5312602e-14 1.5454155e-14 1.2856954e-14 1.4178276e-14 1.5186745e-14 9.718083e-15 8.653583e-15 2.0401791e-14
1.17494845e-14 1.591996e-14 7.287317e-15 9.6715586e-15 5.194399e-15 6.3403457e-15 1.025651e-14 2.3836009e-14
1.2832143e-14 1.1173669e-14 5.6065577e-15 1.0404657e-14 2.858145e-15 1.949555e-15 2.2340998e-15 5.807117e-15
4.5733304e-15 1.6929847e-15 2.1030846e-15 2.0265975e-15 2.02964e-15 4.4555733e-15 4.8722576e-15 8.012761e-15
2.8573701e-15 5.176289e-15 4.7976433e-15 3.2420527e-15 3.3975118e-15 3.0967567e-15 5.4743917e-15 6.035822e-15
2.72788e-15 2.9306556e-15 3.7265816e-15 3.9528923e-15 6.22822e-15 2.908305e-15 3.777953e-15 2.323297e-15
2.4516488e-15 3.7747786e-15 5.3677393e-15 3.3302021e-15 2.4566755e-15 2.4989484e-15 3.5672064e-15 2.1112823e-15
3.2022883e-15 3.910718e-15 3.5909703e-15 2.196842e-15 3.877014e-15 3.1086099e-15 2.5986863e-15 2.9908854e-15
2.0391393e-15 3.451342e-15 2.3717753e-15 6.850134e-15 2.9512925e-15 6.063233e-15 7.859677e-15 1.14773955e-14
9.872824e-15 7.0287535e-15 8.274994e-15 5.6039856e-15 6.7130982e-15 1.4329343e-14 1.3874563e-14 9.607801e-15
