trained_models/Sigma_5_t_20/checkpoints/checkpoint_10.pth (torch, 173091 bytes, 10 tensors)

conv_layer.conv_layers.0.parametrizations.weight.original f4 [8, 1, 7, 7]
0.03825462 0.059903327 -0.046830013 0.1534496 -0.0789692 0.03293333 -0.01124455 0.019751322
0.12979905 -0.11134074 0.182331 0.03682137 0.11004098 0.016372433 0.0022762315 -0.12136037
0.20526782 0.2609157 -0.024369173 -0.04722824 -0.060838226 0.029277131 -0.09286281 0.2710154
-0.5947926 0.08626175 -0.070443064 0.02035616 0.025359713 -0.06326057 0.21601133 -0.20529024
0.21451712 0.13597901 0.017025439 0.067177095 0.062066928 -0.03055962 0.12251331 -0.036205348
-0.037242934 0.06267396 -0.003751397 0.05575366 0.03974518 -0.014477009 0.066424824 0.016864905
0.026603483 -0.0314321 -0.0883897 0.0046789246 -0.16287565 0.1323556 0.011990286 -0.0005726938
0.0022274272 -0.01483271 0.1555481 -0.16298003 -0.007948677 -0.094789974 -0.010400348 -0.08787193
-0.005923102 -0.08959565 0.3284976 -0.007291233 -0.061139215 -0.071682006 0.14754926 0.095305994
0.25440785 -0.7503073 -0.20720252 -0.06710584 -0.0551291 0.0035652486 0.04022662 0.17786516
-0.022511434 0.012041465 0.07649991 -0.0018017053 0.00025987468 -0.04551353 0.07260972 -0.043125823
-0.02782406 -0.010368283 0.008712238 -0.04921505 -0.02557036 0.092505805 -0.10940542 -0.013268098
0.02222078 -0.013544109 -0.02499545 -0.03106855 -0.08623189 0.08254216 -0.045630153 -0.12571655
-0.01765041 -0.07340444 -0.11888724 -0.0495879 -0.22056082 -0.10483315 0.1017784 0.047584187
0.031902023 -0.041913565 -0.10143698 -0.047292113 0.10322305 -0.1865159 -0.0591509 -0.08457301
0.03931151 -0.12502274 -0.10164622 -0.014135594 -0.13735567 -0.06377544 -0.060810834 -0.13131912
0.19094001 0.05009973 0.23322259 0.12405804 -0.10749455 0.010830149 -0.030878186 -0.028390191
-0.17455852 -0.11735056 0.043841958 -0.02154856 -0.016358558 -0.09197878 0.08905045 -0.10689088
-0.03859536 -0.044581167 -0.047370683 0.026603194 0.12632084 -0.12822239 0.023994507 -0.05619073
0.030138848 -0.035987165 0.03493846 -0.058845308 0.08426 0.105463624 0.036276132 -0.05543875
0.089685045 -0.024235256 0.018640496 -0.18940589 0.103290215 -0.0644472 -0.07243247 0.15305088
-0.024191927 -0.057781767 -0.09044838 -0.0903992 0.102760606 0.006566051 -0.102467395 0.045594975
-0.09150691 0.0898731 0.28761506 -0.1532814 0.032105003 0.06733335 0.011971338 -0.03472923
0.086878136 0.0597484 0.054718316 0.025281535 -0.06513796 -0.0037491973 -0.0077119395 -0.009402599
0.0639174 0.038180634 -0.029843958 0.003762119 -0.039885838 -0.05852366 0.07016553 0.08116294
-0.068477444 -0.053629525 -0.005214044 -0.015670912 -0.04990902 -0.109797455 -0.059263144 -0.11918922
-0.03312244 -0.019915521 0.0628774 0.06993172 -0.10440123 -0.07389981 0.01550034 0.15515712
-0.027773842 -0.06886616 0.20056549 -0.09868209 -0.7825134 0.26819518 0.00044310227 0.0064363778
-0.1310565 -0.008186119 0.12152 0.20006241 -0.20441432 -0.13252535 -0.03552427 0.05318613
-0.043827053 0.046637468 0.094902195 0.010029599 -0.012901948 -0.049790416 -0.050286505 -0.11344414
0.09766312 -0.03976375 -0.04331402 -0.033829853 -0.014476995 -0.03694846 -0.06432694 0.09583221
-0.06763889 0.09143848 -0.054168053 -0.045142736 -0.020996545 -0.08507288 -0.042246353 -0.1135266
00000000: e0b0 1c3d 315d 753d d4d0 3fbd e421 1d3e
00000010: 9bba a1bd 19e5 063d 103b 38bc 86cd a13c
00000020: 0bea 043e 9d06 e4bd fab4 3a3e 01d2 163d
00000030: 2a5d e13d 7b1f 863c d42c 153b c98b f8bd
00000040: ba31 523e be96 853e dca1 c7bc 6672 41bd
00000050: 8131 79bd 98d6 ef3c db2e bebd 88c2 8a3e
00000060: 5444 18bf 00aa b03d 7444 90bd f6c1 a63c
00000070: 2cbf cf3c c28e 81bd 1332 5d3e 9b37 52be
00000080: 60aa 5b3e 153e 0b3e ef78 8b3c 2594 893d
00000090: e439 7e3d 2b58 fabc 42e8 fa3d 0f4c 14bd
000000a0: 0c8c 18bd 355b 803d ffd9 75bb f35d 643d
000000b0: d8cb 223d fa30 6dbc bd09 883d 4528 8a3c
000000c0: 8cef d93c f2be 00bd a905 b5bd aa51 993b
000000d0: e0c8 26be 3a88 073e e872 443c d520 16ba
000000e0: 07fa 113b e504 73bc 0048 1f3e 3de4 26be
000000f0: 2b3b 02bc 3f21 c2bd 3966 2abc 33f6 b3bd
00000100: 9516 c2bb ed7d b7bd d630 a83e 4ceb eebb
00000110: 1d6d 7abd 04ce 92bd 2717 173e ca2f c33d
00000120: bf41 823e 2414 40bf e62c 54be c96e 89bd
00000130: 0dcf 61bd f2a6 693b abc4 243d 4922 363e
00000140: e669 b8bc 9149 453c fcab 9c3d 3327 ecba
00000150: ca3f 8839 656c 3abd 68b4 943d b4a4 30bd
00000160: 48ef e3bc bbdf 29bc c6bd 0e3c b895 49bd
00000170: ee78 d1bc af73 bd3d f30f e0bd 7062 59bc
00000180: 5a08 b63c 1ce8 5dbc 42c3 ccbc 7983 febc
00000190: 589a b0bd dd0b a93d afe6 3abd d7bb 00be
000001a0: 9897 90bc 1155 96bd 277b f3bd af1c 4bbd
000001b0: b2da 61be c3b2 d6bd 3271 d03d a3e7 423d
000001c0: b2ab 023d 8fad 2bbd 31be cfbd 60b5 41bd
000001d0: 9b66 d33d 06fe 3ebe 3748 72bd 9d34 adbd
000001e0: 1b05 213d f605 00be e52b d0bd fa98 67bc
000001f0: f7a6 0cbe b39c 82bd c814 79bd 8578 06be
00000200: c785 433e 6035 4d3d e7d1 6e3e 2412 fe3d
00000210: 1a26 dcbd f070 313c 40f4 fcbc 8c92 e8bc
00000220: 78bf 32be 7e55 f0bd a093 333d 9b86 b0bc
00000230: 6202 86bc 5f5f bcbd 1560 b63d 9be9 dabd
00000240: 2b16 1ebd be9a 36bd c307 42bd f1ee d93c
00000250: 405a 013e bb4c 03be 2190 c43c 4028 66bd
00000260: bfe5 f63c 4767 13bd a11b 0f3d c707 71bd
00000270: 8290 ac3d 50fd d73d 4896 143d be13 63bd
00000280: cbac b73d 0489 c6bc f4b3 983c 9ef3 41be
00000290: d289 d33d e5fc 83bd 7a57 94bd 5fb9 1c3e
000002a0: 262e c6bc 93ac 6cbd 003d b9bd 3723 b9bd
000002b0: 2774 d23d 0728 d73b 6dda d1bd ccc1 3a3d
000002c0: fa67 bbbd 630f b83d 4842 933e cdf5 1cbe
000002d0: 8980 033d 11e6 893d 6e23 443c 3d40 0ebd
000002e0: 2aed b13d bdba 743d 5020 603d 391b cf3c
000002f0: 0d67 85bd 18b5 75bb 70b4 fcbb 5c0d 1abc
00000300: 20e7 823d 4c63 1c3d 517b f4bc e28d 763b
00000310: 555f 23bd 81b6 6fbd f2b2 8f3d c138 a63d
00000320: e73d 8cbd a2aa 5bbd 92da aabb 4960 80bc
00000330: 676d 4cbd 7ddd e0bd e9bd 72bd 7a19 f4bd
00000340: 65ab 07bd e025 a3bc dec5 803d 5d38 8f3d
00000350: 50d0 d5bd c958 97bd 23f5 7d3c 82e1 1e3e
00000360: f885 e3bc b409 8dbd 0a61 4d3e d619 cabd
00000370: cc52 48bf e150 893e 2e50 e839 40e8 d23b
00000380: ad33 06be 121f 06bc 7adf f83d 29dd 4c3e
00000390: fd51 51be bab4 07be e681 11bd b3d9 593d
000003a0: ff83 33bd ee06 3f3d 155c c23d 3053 243c
000003b0: b162 53bc 09f1 4bbd 39f9 4dbd 6755 e8bd
000003c0: 9a03 c83d 50df 22bd 0b6a 31bd 2c91 0abd
000003d0: eb30 6dbc 4557 17bd d8bd 83bd ad43 c43d
000003e0: 4286 8abd 1944 bb3d 52df 5dbd 97e7 38bd
000003f0: f200 acbc b13a aebd 830a 2dbd a280 e8bd

conv_layer.conv_layers.1.parametrizations.weight.original f4 [32, 8, 7, 7]
-0.004824916 0.02454887 -0.03304344 -0.036282197 0.011944239 0.0038051258 -0.00468375 -0.014009131
-0.001855603 0.12265508 -0.016177343 0.0715279 -0.053906173 -0.024201483 0.045542378 -0.026276857
-0.10509878 0.002066033 -0.008146075 0.035165 -0.015341781 0.007618792 -0.07562245 0.20579912
-0.25107557 0.09430903 0.0113522615 -0.021710495 -0.030493619 0.0072220615 -0.13005352 0.20592552
-0.0027125205 0.042504102 0.03314077 0.009192013 -0.06439231 0.002384883 -0.030807309 0.14344282
-0.10950821 0.010161412 0.015795842 -0.008631942 -0.00928776 -0.0549923 -0.03964657 0.025289144
-0.011309786 -0.010051205 0.0070892945 0.0109243905 0.0013126773 -0.0068859654 -0.013771611 0.015524877
-0.008050866 4.187007e-05 -0.008073556 0.0049997624 -0.02444136 0.04490042 -0.015642045 0.019585945
-0.005040849 -0.054961167 0.1280466 0.007922745 -0.039917417 0.0038640935 -0.00623664 0.021373173
0.08756557 -0.27445 0.05001306 0.015160714 0.032139953 -0.0032108428 -0.09229388 0.015613687
0.2646062 -0.12695478 -0.11558729 0.03787264 0.013928521 0.07704154 -0.16932607 -0.049040843
0.079015605 0.102167025 -0.07594601 -0.020685133 0.012757093 0.01807861 0.028235205 0.0002474573
0.0002604556 0.05824363 -0.011044776 -0.009778483 0.030146638 0.009487715 -0.04951929 0.010455613
-0.0013761279 0.021001896 -0.044257384 -5.0004895e-05 0.0014573818 -0.0017829692 -0.0019430816 0.02177007
0.048736095 0.0558318 -0.078056134 -0.051457405 -0.048915155 0.026181571 -0.019105295 0.023220994
-0.12667881 0.03946211 -0.0060890773 0.0630657 0.057229917 0.0046079727 0.031849436 0.19586934
-0.18191938 0.15343103 -0.0811491 -0.034009896 -0.022873838 -0.0665692 0.02127088 0.24483676
-0.14454561 0.004514731 0.0044229236 0.014318784 -0.014126967 0.020280216 -0.023487275 -0.010649594
0.014411575 -0.040700357 0.0011957958 -0.015282951 -0.004952821 0.013336435 0.0044076634 0.012438904
-0.017360888 0.0041711847 -0.024357844 -0.0004587929 0.0012803694 0.01528263 -0.058398843 0.0077342615
-0.003287635 0.0068479907 -0.05700566 -0.039524075 0.12281283 0.0055138525 -0.02041984 -0.017165145
0.09607435 0.11005019 0.034317106 -0.33762363 0.020252498 0.009251277 0.037666064 -0.056966744
-0.07272602 0.09139328 0.06889701 0.000785801 -0.10232544 0.011367744 -0.02145601 0.024925001
-0.12483605 0.08040604 0.017470462 0.11970384 -0.020660654 0.01535301 -0.04675351 0.10273811
-0.0672307 0.012333593 -0.049332757 0.032521125 0.0012996861 0.016521482 -0.019610986 0.011433501
-0.010870739 0.010135623 0.001675242 -0.016475167 0.011979593 -0.023057949 0.074087605 -0.033354726
0.042971663 -0.04294795 -0.008136294 -0.03303865 0.028997099 0.15269424 0.00013138175 -0.05691855
0.016505081 0.0243263 0.0758406 0.08057258 -0.5377196 0.16597965 0.059818868 0.05740546
0.0032055706 -0.13648601 0.06863375 0.16302265 -0.20016569 -0.038002547 -0.03523697 0.007903514
0.03611488 -0.032243915 -0.05947375 0.061895244 -0.017622255 -0.07214516 -0.006082893 -0.037515596
0.03779189 0.010308389 -0.07854177 0.059082557 0.0037452232 -0.006376022 -0.011935549 0.02842981
-0.018539753 0.009764929 0.0005780214 -0.016578225 -0.045323525 0.02443268 0.020305205 -0.052940473
00000000: 541a 9ebb b61a c93c 8f58 07bd a49c 14bd
00000010: c5b1 433c 6b5f 793b 257a 99bb 8e86 65bc
00000020: b437 f3ba 9632 fb3d 5986 84bc 387d 923d
00000030: b8cc 5cbd 3042 c6bc a58a 3a3d 9042 d7bc
00000040: 073e d7bd 4866 073b 1d77 05bc 2d09 103d
00000050: 185c 7bbc 0fa7 f93b f1df 9abd 01bd 523e
00000060: fa8c 80be 1825 c13d d6fe 393c 35da b1bc
00000070: c1cd f9bc 0ba7 ec3b c02c 05be 24de 523e
00000080: 8bc4 31bb c818 2e3d 9ebe 073d 199a 163c
00000090: 1ee0 83bd b24b 1c3b 9c5f fcbc ade2 123e
000000a0: d745 e0bd 0d7c 263c 4866 813c fd6c 0dbc
000000b0: b02b 18bc 9b3f 61bd 7164 22bd 2e2b cf3c
000000c0: ae4c 39bc cfad 24bc 504d e83b 37fc 323c
000000d0: 240e ac3a aaa3 e1bb 53a2 61bc 0e5c 7e3c
000000e0: c8e7 03bc a59d 2f38 f346 04bc 0cd5 a33b
000000f0: 3f39 c8bc 81e9 373d bf23 80bc b472 a03c
00000100: b52d a5bb f61e 61bd a61e 033e 67ce 013c
00000110: 7280 23bd bb3c 7d3b ba5c ccbb cb16 af3c
00000120: 9455 b33d b684 8cbe 7fda 4c3d a564 783c
00000130: 2fa5 033d 016d 52bb 9304 bdbd 8dd0 7f3c
00000140: 777a 873e 6f00 02be 07b9 ecbd 5720 1b3d
00000150: 7434 643c f4c7 9d3d d063 2dbe 0ddf 48bd
00000160: efd2 a13d f23c d13d 9589 9bbd de73 a9bc
00000170: 2003 513c 9819 943c 844d e73c 28bd 8139
00000180: c28d 8839 df90 6e3d 26f5 34bc ee35 20bc
00000190: 15f6 f63c 5c72 1b3c bdd4 4abd 054e 2b3c
000001a0: 315f b4ba 2b0c ac3c 3b47 35bd 59bc 51b8
000001b0: 9e05 bf3a 85b2 e9ba 00af feba 2557 b23c
000001c0: 809f 473d e3af 643d e5db 9fbd 00c5 52bd
000001d0: 425b 48bd bc7a d63c b582 9cbc f439 be3c
000001e0: 17b8 01be 05a3 213d e286 c7bb 9728 813d
000001f0: eb69 6a3d 7afe 963b 8e74 023d f991 483e
00000200: 1349 3abe 061d 1d3e 8031 a6bd f64d 0bbd
00000210: ea61 bbbc 6f55 88bd 4540 ae3c 7db6 7a3e
00000220: c403 14be 4ff0 933b 2cee 903b 5599 6a3c
00000230: cb74 67bc b222 a63c 6368 c0bc a27b 2ebc
00000240: 871e 6c3c 6bb5 26bd 40bc 9c3a 5865 7abc
00000250: 464b a2bb 1081 5a3c 296e 903b 8bcc 4b3c
00000260: 6c38 8ebc 6fae 883b 1a8a c7bc 248a f0b9
00000270: 11d2 a73a ff63 7a3c a033 6fbd b06f fd3b
00000280: 5d75 57bb 1c65 e03b c47e 69bd ffe3 21bd
00000290: 4b85 fb3d 8cad b43b 8247 a7bc eb9d 8cbc
000002a0: a1c2 c43d fe61 e13d 1890 0c3d 01dd acbe
000002b0: 91e8 a53c ab92 173c bb47 1a3d f655 69bd
000002c0: 61f1 94bd 662c bb3d e019 8d3d 36fe 4d3a
000002d0: 0090 d1bd c63f 3a3c 84c4 afbc 842f cc3c
000002e0: 0baa ffbd ecab a43d 371e 8f3c 4927 f53d
000002f0: 8840 a9bc 318b 7b3c 9c80 3fbd 5c68 d23d
00000300: 40b0 89bd d712 4a3c 2511 4abd df34 053d
00000310: 3b5a aa3a 0f58 873c 38a7 a0bc 9453 3b3c
00000320: 2f1b 32bc e20f 263c cb93 db3a eef6 86bc
00000330: 0e46 443c 06e4 bcbc 3ebb 973d f79e 08bd
00000340: 0e03 303d 31ea 2fbd 174e 05bc 8953 07bd
00000350: 538b ed3c e15b 1c3e 85c3 0939 6d23 69bd
00000360: aa35 873c f347 c73c 5152 9b3d 3d03 a53d
00000370: fea7 09bf 92f6 293e a104 753d fd21 6b3d
00000380: 8d14 523b fdc2 0bbe da8f 8c3d 69ef 263e
00000390: 3cf8 4cbe 8fa8 1bbd a454 10bd be7d 013c
000003a0: 32ed 133d 3212 04bd bf9a 73bd de85 7d3d
000003b0: 8c5c 90bc d7c0 93bd 0153 c7bb f4a9 19bd
000003c0: abcb 1a3d 84e4 283c 82da a0bd 8d00 723d
000003d0: 6b72 753b f3ed d0bb 528d 43bc a2e5 e83c
000003e0: aee0 97bc 15fd 1f3c 5c86 173a 0fcf 87bc
000003f0: 29a5 39bd 0b27 c83c 1a57 a63c 1cd8 58bd

activation.coefficients_vect f4 [672]
-0.0 0.0007339519 0.00068766385 0.00028497807 0.00023659786 3.7612434e-05 -1.3558516e-05 -0.00014614759
-0.00015218479 -0.0002510733 -4.2657022e-05 0.00019215728 0.00015785232 0.00013727463 2.9376926e-05 -2.5173698e-05
-0.0001540899 -0.000233341 -0.0006147977 -0.00092165085 0.0 -0.0 0.0017789667 0.0012830654
0.0012649153 0.00040051586 0.00040038617 -8.0104735e-05 -9.721631e-05 -0.00014307421 -0.00015800832 3.252828e-06
0.00017005362 0.00011200745 4.0375682e-05 -0.00017043199 -0.0009349088 -0.0011968637 -0.0015463803 -0.0017015791
-0.0020971259 0.0 -0.0 0.0022703318 0.0018824342 0.0011401759 0.0007402565 0.000449692
0.0001690207 6.282951e-05 -0.00012186469 -0.00023057188 2.561504e-05 0.00024224067 0.00020561353 4.3621236e-05
3.98834e-05 -8.608714e-05 -9.732253e-05 -0.0003540878 -0.0019916177 -0.0023055403 0.0 -0.0
0.001497561 0.0011606746 0.0007558315 0.00049733825 0.00027694524 -7.1533545e-06 -6.935779e-05 -9.3147406e-05
-0.0001293511 8.125142e-05 0.0002375449 0.00022178506 0.000109784974 6.9263864e-05 -0.00044129707 -0.0008163272
-0.0012185767 -0.0018845985 -0.002151899 0.0 -0.0 0.0008550016 0.0005034729 0.00041361467
0.0002791415 0.0002514542 0.00015525016 8.22136e-05 2.362575e-05 -6.394898e-05 -0.000110222994 -0.00012125964
-0.00012680821 -0.000145245 -0.00019033939 -0.00039330265 -0.0003935359 -0.0004206171 -0.00046686965 -0.000726275
0.0 -0.0 0.0009688947 0.00063382456 0.00051085226 0.00032710913 0.00019729098 0.00010334753
9.167243e-05 8.618321e-05 4.7896505e-05 -3.8291626e-05 -5.2263265e-05 -6.709205e-05 -9.7709424e-05 -0.00013378996
-0.00015333587 -0.00026799104 -0.00032746536 -0.0003977711 -0.00042243363 0.0 -0.0 0.00069200655
0.0004180401 0.0003872243 9.112855e-05 3.0463985e-05 1.0914465e-05 -0.00015855096 -0.00020293756 -0.0003524048
0.00018316053 0.00017088733 0.00014983502 7.562817e-05 -1.5284346e-05 -0.0006265938 -0.00066695234 -0.0009011555
-0.0012115671 -0.0014053207 0.0 -0.0 0.0008312869 0.0004733772 0.00038415284 0.00035443506
0.0002990665 0.0002416713 0.00023662986 0.00014003656 6.0230836e-05 4.9279755e-05 -5.6378627e-05 -9.165694e-05
-0.00014981425 -0.0001556126 -0.00031141817 -0.00035047735 -0.00046238545 -0.0005581908 -0.001075973 0.0
-0.0 0.0006604269 0.00049912545 0.00023704761 0.00020251868 -4.874572e-06 -0.00010299882 -0.00023728052
-0.00045981773 -0.00051476585 -0.00019049174 0.00015795077 0.00013511624 0.00010854093 -3.0398964e-05 -0.00014116969
-0.00032037642 -0.00032697042 -0.0006003451 -0.00088091916 0.0 -0.0 0.0017497649 0.0011277737
0.0006238897 0.0005399684 0.0003414582 0.00032865384 0.00030668292 0.00026013737 0.00011277953 9.0679736e-05
5.7584002e-05 5.1404227e-06 -7.5181415e-05 -0.00011324926 -0.0002587599 -0.00041459195 -0.000607789 -0.00092233863
-0.0018988727 0.0 -0.0 0.0012344301 0.00082981226 0.000579372 0.0005121389 0.00041313178
0.0002714265 0.00020908393 0.00016151546 0.00015322382 0.00011537472 -6.029083e-05 -0.00013179085 -0.00031115973
-0.00035807418 -0.0004531127 -0.0004555949 -0.0006520177 -0.0007030441 -0.0008572529 0.0 -0.0
0.0010193468 0.0010166994 0.000567957 0.0003271953 0.00024951293 0.00022300388 0.00020634875 0.00016457388
5.7467423e-05 -2.512594e-05 -5.8083464e-05 -0.00011692992 -0.00022015485 -0.00025420327 -0.00035808838 -0.0004256697
-0.00044395617 -0.00082009536 -0.0009913889 0.0 -0.0 0.0011182121 0.00059235666 0.00056579127
00000000: 0000 0080 ae66 403a 5744 343a 1c69 9539
00000010: 4117 7839 0bc2 1d38 6279 63b7 323f 19b9
00000020: cb93 1fb9 7da2 83b9 a1ea 32b8 d47d 4939
00000030: 2985 2539 61f1 0f39 786e f637 1b2c d3b7
00000040: 3193 21b9 ffac 74b9 602a 21ba f19a 71ba
00000050: 0000 0000 0000 0080 382c e93a 882c a83a
00000060: 84cb a53a 54fc d139 ecea d139 e7fd a7b8
00000070: 9ce0 cbb8 3106 16b9 09af 25b9 294b 5a36
00000080: 6c50 3239 8be5 ea38 0f59 2938 fdb5 32b9
00000090: ab14 75ba 15e0 9cba eaaf caba 8507 dfba
000000a0: ef6f 09bb 0000 0000 0000 0080 d9c9 143b
000000b0: 03bc f63a f471 953a c60d 423a a3c4 eb39
000000c0: 263b 3139 56c3 8338 9b91 ffb8 abc5 71b9
000000d0: e1df d637 fc01 7e39 f699 5739 f2f5 3638
000000e0: 7a48 2738 ae89 b4b8 a319 ccb8 dca4 b9b9
000000f0: cd85 02bb 8c18 17bb 0000 0000 0000 0080
00000100: cf49 c43a c721 983a fe22 463a ce5f 023a
00000110: f632 9139 d906 f0b6 2e74 91b8 2258 c3b8
00000120: 6ca2 07b9 8665 aa38 7915 7939 f98e 6839
00000130: 5c3c e638 c141 9138 e45d e7b9 cbfe 55ba
00000140: a6b8 9fba a204 f7ba e006 0dbb 0000 0000
00000150: 0000 0080 3022 603a 7ffb 033a 6cda d839
00000160: bd59 9239 9dd5 8339 a6ca 2239 176a ac38
00000170: e92f c637 591c 86b8 8527 e7b8 c64c feb8
00000180: d2f7 04b9 e84c 18b9 d795 47b9 3034 ceb9
00000190: 7f53 ceb9 4686 dcb9 2fc6 f4b9 7d63 3eba
000001a0: 0000 0000 0000 0080 6cfd 7d3a 3f27 263a
000001b0: b7ea 053a d87f ab39 e5df 4e39 48bc d838
000001c0: 4340 c038 42bd b438 7be4 4838 529b 20b8
000001d0: 4135 5bb8 c5b3 8cb8 59e9 ccb8 f849 0cb9
000001e0: c9c8 20b9 2681 8cb9 a8af abb9 ef8b d0b9
000001f0: 157a ddb9 0000 0000 0000 0080 c667 353a
00000200: 642c db39 5e04 cb39 451c bf38 e98c ff37
00000210: 451d 3737 b340 26b9 a3cb 54b9 f9c2 b8b9
00000220: c80e 4039 3830 3339 081d 1d39 919a 9e38
00000230: e236 80b7 0042 24ba 6ad6 2eba 863b 6cba
00000240: 72cd 9eba bd32 b8ba 0000 0000 0000 0080
00000250: b8ea 593a 9d2f f839 1f68 c939 78d3 b939
00000260: 07cc 9c39 2569 7d39 d81f 7839 c7d6 1239
00000270: 5ea0 7c38 bcb1 4e38 1778 6cb8 f237 c0b8
00000280: 7517 1db9 f02b 23b9 d745 a3b9 46c0 b7b9
00000290: 536c f2b9 8d53 12ba aa07 8dba 0000 0000
000002a0: 0000 0080 8020 2d3a bed7 023a fc8f 7839
000002b0: 325b 5439 4190 a3b6 1201 d8b8 81ce 78b9
000002c0: b113 f1b9 5af1 06ba bdbe 47b9 969f 2539
000002d0: fdad 0d39 78a0 e338 4701 ffb7 f306 14b9
000002e0: 32f8 a7b9 3a6d abb9 7a60 1dba 7ced 66ba
000002f0: 0000 0000 0000 0080 5e58 e53a ced1 933a
00000300: 878c 233a aa8c 0d3a be05 b339 2c4f ac39
00000310: 49ca a039 0c63 8839 0d84 ec38 502b be38
00000320: 5a86 7138 e57b ac36 b7aa 9db8 3c80 edb8
00000330: 2aaa 87b9 975d d9b9 0854 1fba 19c9 71ba
00000340: 98e3 f8ba 0000 0000 0000 0080 9acc a13a
00000350: c287 593a ffe0 173a 0f41 063a 9c99 d839
00000360: 404e 8e39 8a3d 5b39 7a5c 2939 b5aa 2039
00000370: 55f5 f138 c9e0 7cb8 5631 0ab9 2723 a3b9
00000380: e7bb bbb9 c28f edb9 eadc eeb9 2bec 2aba
00000390: 7e4c 38ba 45b9 60ba 0000 0000 0000 0080
000003a0: 9a9b 853a c542 853a f3e2 143a 698b ab39
000003b0: 0fd1 8239 26d6 6939 525f 5839 7791 2c39
000003c0: 2d09 7138 8cc5 d2b7 a59e 73b8 4638 f5b8
000003d0: 5ed9 66b9 9646 85b9 cfbd bbb9 6c2c dfb9
000003e0: cac2 e8b9 abfb 56ba 7ef1 81ba 0000 0000
000003f0: 0000 0080 f990 923a 6248 1b3a 9c51 143a

u f4 [1, 1, 20, 20]
-0.0023871511 0.0013722777 0.0030916482 -0.009365019 0.014230384 -0.018741021 0.022290012 -0.023736179
0.025473136 -0.024570856 0.024466287 -0.021780252 0.020436866 -0.01731006 0.015388934 -0.01230899
0.008950766 -0.0035148324 0.002233583 -0.00029010372 -0.027443271 0.07430309 -0.11481199 0.15041384
-0.18214062 0.20940958 -0.2299712 0.24100006 -0.24896574 0.246673 -0.24222317 0.22755532
-0.21203071 0.18841067 -0.16432454 0.13478117 -0.10357028 0.06687294 -0.038765676 0.012896557
0.0031217192 -0.017560467 0.034901816 -0.051735405 0.06506525 -0.07634133 0.085321054 -0.0882041
0.09478156 -0.09443811 0.09826924 -0.09343863 0.092431575 -0.08337188 0.076738864 -0.06357764
0.049518593 -0.02923059 0.01564842 -0.0047566276 0.01313855 -0.030320888 0.056839876 -0.07526545
0.09397288 -0.111617595 0.12741011 -0.14478177 0.14978942 -0.15618831 0.14986926 -0.14782698
0.1345259 -0.1261266 0.10947269 -0.09626886 0.0807967 -0.06878888 0.052464925 -0.022028543
0.032810017 -0.07603453 0.08606516 -0.08968933 0.09262259 -0.09376508 0.09335544 -0.08615453
0.089240134 -0.08492954 0.089773245 -0.08302943 0.083518654 -0.07214342 0.06539421 -0.05074775
0.03710898 -0.01818642 0.0014927469 0.0013636872 -0.0023790344 -0.0010278933 0.01606648 -0.026961407
0.035126686 -0.04188735 0.042928774 -0.045491584 0.030586552 -0.020193275 -0.0033996429 0.014963752
-0.035018347 0.04068288 -0.04980052 0.046828315 -0.04396403 0.032333724 -0.019954521 0.0076323035
-0.0062254593 0.028323906 -0.07349071 0.111728564 -0.14020415 0.16465323 -0.17943189 0.19283608
-0.1829415 0.17489976 -0.14917359 0.13386703 -0.10616704 0.09136008 -0.06996158 0.058716767
-0.04422114 0.03610537 -0.026454465 0.011732229 -0.019323252 0.03217848 -0.011487136 -0.012151888
0.024337308 -0.03417366 0.035479985 -0.03901613 0.021443218 -0.011033348 -0.01309677 0.020861126
-0.037428923 0.036321424 -0.03913641 0.02933493 -0.021899737 0.007936722 0.0035660816 -0.004543697
0.0024036113 0.013214978 -0.044759307 0.06850382 -0.077434674 0.08338614 -0.07770016 0.07348002
-0.046591338 0.027822584 0.004550188 -0.018875536 0.041737378 -0.045491 0.052516088 -0.04523124
0.039895874 -0.02676098 0.014748295 -0.0043417583 -0.004436708 -0.009153925 0.04381984 -0.07272676
0.082650796 -0.09013274 0.08656227 -0.08660255 0.06469974 -0.05255631 0.02693425 -0.019239351
0.0011565657 -0.000106397085 -0.0070184614 0.0025628458 -0.0032765428 -0.0015640417 0.0024988935 -0.002294348
0.0071401754 -0.0020842636 -0.020185707 0.03897818 -0.038770124 0.038634855 -0.029305328 0.026888803
-0.0054769814 -0.0030849725 0.023000734 -0.023776513 0.034748822 -0.029145302 0.030189196 -0.020393874
0.015817262 -0.0062179435 0.00015420513 0.0021445523 -0.001338239 -0.014120439 0.04006163 -0.05584697
0.053288415 -0.052996054 0.045183834 -0.04621382 0.029702805 -0.026391836 0.011285195 -0.013216621
0.0026297802 -0.0053970814 -0.00078034494 -0.0015143184 -0.0019848784 0.0010005515 -0.00066406967 -0.00028431977
0.013096059 -0.0139841335 0.00055285264 0.008527205 -0.00024918374 -0.0026994916 0.00949684 -0.0041426187
0.013197498 -0.007922867 0.013684918 -0.0040637106 0.00820446 -0.0017870301 0.005710859 -0.0031988127
00000000: c071 1cbb 00de b33a 409d 4a3b bd6f 19bc
00000010: 8e26 693c c586 99bc 8b99 b63c 6072 c2bc
00000020: 0aad d03c d248 c9bc 866d c83c 806c b2bc
00000030: 376b a73c d4cd 8dbc de21 7c3c a5ab 49bc
00000040: 3ca6 123c 1a59 66bb 4e61 123b 1019 98b9
00000050: b6d0 e0bc 382c 983d 8c22 ebbd 1606 1a3e
00000060: 1283 3abe 776f 563e 927d 6bbe b8c8 763e
00000070: e0f0 7ebe d997 7c3e 5a09 78be 4304 693e
00000080: 941e 59be baee 403e b144 28be 1304 0a3e
00000090: a81c d4bd aef4 883d c2c8 1ebd 154c 533c
000000a0: c295 4c3b f8da 8fbc 35f5 0e3d 81e8 53bd
000000b0: ee40 853d d858 9cbd cebc ae3d 5aa4 b4bd
000000c0: d61c c23d c568 c1bd 6241 c93d c15c bfbd
000000d0: c44c bd3d e0be aabd 4429 9d3d fe34 82bd
000000e0: 02d4 4a3d fe74 efbc 1e31 803c 7cdd 9bbb
000000f0: 1343 573c 8363 f8bc eed0 683d c624 9abd
00000100: da74 c03d c497 e4bd cc77 023e ac41 14be
00000110: 6662 193e d4ef 1fbe 5477 193e f55f 17be
00000120: 28c1 093e 5527 01be 3833 e03d 9c28 c5bd
00000130: be78 a53d 2fe1 8cbd 76e5 563d 3475 b4bc
00000140: cc63 063d feb7 9bbd ee42 b03d 0aaf b7bd
00000150: eab0 bd3d e807 c0bd 2331 bf3d c971 b0bd
00000160: 88c3 b63d 8aef adbd 09db b73d 550b aabd
00000170: d40b ab3d eebf 93bd 66ed 853d dfdc 4fbd
00000180: 96ff 173d b0fb 94bc 46a8 c33a c0bd b23a
00000190: 93e9 1bbb 60ba 86ba da9d 833c 2bde dcbc
000001a0: 00e1 0f3d 1292 2bbd 15d6 2f3d 6255 3abd
000001b0: a690 fa3c 5e6c a5bc 8bcc 5ebb 862a 753c
000001c0: 666f 0fbd 17a3 263d a1fb 4bbd 0ccf 3f3d
000001d0: a013 34bd 5e70 043d aa77 a3bc 6718 fa3b
000001e0: f0fe cbbb 8907 e83c 4c82 96bd f2d1 e43d
000001f0: ad91 0fbe db9a 283e febc 37be d276 453e
00000200: 0455 3bbe ec18 333e f6c0 18be 7014 093e
00000210: 1b6e d9bd fe1a bb3d 0448 8fbd fe80 703d
00000220: 3a21 35bd 39e3 133d 09b7 d8bc 8938 403c
00000230: cc4b 9ebc 95cd 033d 8a34 3cbc b618 47bc
00000240: 095f c73c aef9 0bbd 7653 113d 61cf 1fbd
00000250: b0a9 af3c 37c5 34bc d693 56bc f4e4 aa3c
00000260: 124f 19bd c6c5 143d 804d 20bd cf4f f03c
00000270: 1467 b3bc 0609 023c ecb4 693b 4be3 94bb
00000280: e885 1d3b a383 583c 8955 37bd bb4b 8c3d
00000290: 1296 9ebd 5ac6 aa3d 4321 9fbd b17c 963d
000002a0: 8fd6 3ebd 30ec e33c be19 953b dea0 9abc
000002b0: d0f4 2a3d c554 3abd 1c1b 573d 6544 39bd
000002c0: db69 233d d839 dbbc d5a2 713c 4f45 8ebb
000002d0: ce61 91bb 58fa 15bc 6f7c 333d c4f1 94bd
000002e0: d244 a93d 8497 b8bd 8f47 b13d ae5c b1bd
000002f0: 4c81 843d 4945 57bd 37a5 dc3c d89b 9dbc
00000300: e897 973a 8021 dfb8 1ffb e5bb 6bf5 273b
00000310: 44bb 56bb 8800 cdba 7ac4 233b c65c 16bb
00000320: 22f8 e93b 2498 08bb 7f5c a5bc 96a7 1f3d
00000330: 6ccd 1ebd 953f 1e3d ba11 f0bc e845 dc3c
00000340: 4078 b3bb 402d 4abb 096c bc3c f6c6 c2bc
00000350: c854 0e3d 21c2 eebc 554f f73c 0e11 a7bc
00000360: 3493 813c e4bf cbbb 20b2 2139 9e8b 0c3b
00000370: d967 afba 6a59 67bc aa17 243d cbbf 64bd
00000380: f444 5a3d 6412 59bd af12 393d b44a 3dbd
00000390: 4c53 f33c b133 d8bc 8ae5 383c 878a 58bc
000003a0: 6458 2c3b 00da b0bb 1090 4cba 187c c6ba
000003b0: bc14 02bb f024 833a f614 2eba c110 95b9
000003c0: da90 563c b51d 65bc 50ed 103a b1b5 0b3c
000003d0: e0a4 82b9 f4e9 30bb a298 1b3c cebe 87bb
000003e0: 523a 583c eace 01bc b536 603c e028 85bb
000003f0: 006c 063c c83a eaba 2822 bb3b 2ca3 51bb

exp_avg f4 [8, 1, 7, 7]
-0.00025622724 0.016186673 0.0024651575 0.010519537 -0.016540974 0.0073656263 -0.0008263244 -0.014655724
0.015153279 -0.010976729 0.010637926 -0.024015015 0.0055589695 -0.018330244 0.00048194363 0.016381808
0.0051909694 0.014390382 0.0004703184 0.017823016 -0.002160688 0.019221134 -0.03890498 0.012916503
-0.00937604 0.027598575 -0.026204022 0.020234443 0.0029320188 -0.031103069 0.0074594333 -0.012402418
0.006213148 -0.021985944 0.020574922 0.0016331914 0.003772528 -0.00094805367 0.010264047 -0.0019174633
0.0066934186 0.0060765827 -0.01750918 0.007683372 -0.020820262 0.0011975624 -0.009653237 0.01207381
-0.010583723 0.0064115818 0.011890902 -0.006060104 0.008937198 -0.0086899465 0.017333208 0.013091571
-0.005718297 0.010091879 -0.009070744 0.014034771 -0.0115441205 0.00810278 0.002394767 -0.0034173427
0.0053010485 -0.010780105 -0.0067275995 -0.008330724 0.006853554 0.0051532583 0.014511214 -0.041467123
-0.0079302015 -0.019686904 0.018973839 -0.034824032 0.008762926 0.0051397467 -0.016633334 -0.016146617
-0.024815416 -0.001182114 -0.017755102 0.009709059 0.00391687 0.0105038965 -0.00727659 0.0018073597
0.0066530816 0.019572183 0.0133903455 -0.005320408 0.013974149 -0.013205359 -0.00086195965 0.00031295573
0.027973441 0.012646475 -0.012757634 -0.00982891 0.004095077 -0.0049114223 0.0007885479 -0.00995655
-0.014773648 -0.00063717423 0.0041507017 0.020121334 0.009542289 0.009197486 0.0011057828 0.0032313168
-0.013608199 0.004926544 0.0037776046 0.003498898 -0.007689227 0.0013899247 -0.008065222 -0.018126648
-0.0014025384 0.001000287 -0.00010823988 -0.012578104 -0.0047174925 -0.014749251 -0.0019181394 0.0024277284
0.010050443 -0.0023706837 -0.0050388738 -0.002189053 -0.0018285655 0.0088481 -0.0012846148 0.019341823
0.003993331 0.012184632 0.00036219857 0.0077362144 -0.00310494 -0.006372222 0.009498887 0.008249293
0.006853837 -0.0014733787 0.00311846 -0.0036017343 -0.0060625197 -0.00833512 -0.006754898 -0.0052018687
-0.012625502 -0.020847855 0.00043932593 -0.004254412 -0.0023893223 0.0014700979 0.0011922678 -0.011621455
-0.014315709 -0.004784857 0.0008432379 -0.0087533835 -0.00460601 -0.0034800158 0.00076525146 -0.0105266925
-0.0015824654 0.005402529 0.00863493 0.0069466275 0.00060272665 -0.0010680874 -0.006931372 0.0065747993
0.016777955 0.009540798 0.0032077604 0.0054541035 0.008300158 0.002356948 0.0044842865 0.0063483855
0.012622982 0.017560428 0.01860022 0.010903056 0.0014350216 -0.011179296 -0.0063835806 0.0033308372
0.008381502 0.0035435052 -0.0034139815 -0.006999576 0.0062720175 0.013748279 0.0044794087 0.016959058
0.0059684087 0.024447965 0.0080534825 0.00959814 0.008245858 0.010447672 0.022365278 0.003384752
0.0128202895 0.0076977205 0.016851922 -0.016560389 0.0068134298 -0.0015810296 0.0097481245 -0.0041657155
0.015973287 0.007421944 -0.055474296 0.006313592 -0.002374208 0.006494313 -0.04200893 0.014265374
-0.011086837 -0.017203147 -0.015167 -0.008034966 -0.006882806 -0.010371117 0.007672275 -0.014762775
0.0004754164 -0.019680668 0.0044694836 -0.0010332047 0.00931178 -0.0065948307 -0.015902037 -0.0065178876
-0.025191303 0.0007879937 0.005667556 0.011344939 0.0024932087 -0.0033521953 -0.0015433034 -0.00742703
0.0159268 0.0070716664 0.013822589 0.009172615 -0.010879577 -0.003609038 -0.013847966 0.0084987255
00000000: 3d56 86b9 ea99 843c 7b8e 213b 235a 2c3c
00000010: f080 87bc 5a5b f13b b19d 58ba 901e 70bc
00000020: 7545 783c bdd7 33bc b24a 2e3c 23bb c4bc
00000030: 0428 b63b 4f29 96bc 61ad fc39 2433 863c
00000040: 0219 aa3b a3c5 6b3c 1195 f639 9301 923c
00000050: 549a 0dbb a475 9d3c d45a 1fbd bd9f 533c
00000060: f69d 19bc 6816 e23c d1a9 d6bc b4c2 a53c
00000070: 1d27 403b ddcb febc 436e f43b 8333 4bbc
00000080: aa97 cb3b de1b b4bc bd8c a83c cf10 d63a
00000090: 843c 773b ce86 78ba 892a 283c 6453 fbba
000000a0: 7754 db3b 121e c73b 696f 8fbc ccc4 fb3b
000000b0: 418f aabc 87f7 9c3a 9c28 1ebc 3bd1 453c
000000c0: 5a67 2dbc 3f18 d23b 0fd2 423c d693 c6bb
000000d0: 536d 123c 4760 0ebc 5ffe 8d3c 077e 563c
000000e0: 8d60 bbbb 6958 253c 759d 14bc 19f2 653c
000000f0: 8d23 3dbc 86c1 043c 86f1 1c3b 7ff5 5fbb
00000100: 6bb4 ad3b 0a9f 30bc 3273 dcbb 977d 08bc
00000110: c793 e03b aadc a83b 71c0 6d3c 6ed9 29bd
00000120: aded 01bc 6e46 a1bc 066f 9b3c a5a3 0ebd
00000130: 6092 0f3c 526b a83b a142 88bc e945 84bc
00000140: b349 cbbc 2af1 9aba 2673 91bc bf12 1f3c
00000150: 1659 803b 8918 2c3c 7670 eebb eee4 ec3a
00000160: 1802 da3b d855 a03c 2e63 5b3c d156 aebb
00000170: d4f3 643c 4a5b 58bc 22f5 61ba 3514 a439
00000180: 8f28 e53c 2933 4f3c 6505 51bc 7009 21bc
00000190: ff2f 863b ffef a0bb 8eb6 4e3a cc20 23bc
000001a0: 2c0d 72bc 0a08 27ba 9c02 883b 7fd5 a43c
000001b0: 4357 1c3c 0db1 163c eaef 903a 80c4 533b
000001c0: ecf4 5ebc d96e a13b b091 773b c44d 653b
000001d0: e9f5 fbbb 222e b63a fe23 04bc 567e 94bc
000001e0: 61d5 b7ba 101c 833a d8fe e2b8 6414 4ebc
000001f0: 3295 9abb d8a6 71bc 146a fbba 861a 1f3b
00000200: 9daa 243c 795d 1bbb 231d a5bb 3776 0fbb
00000210: 7aac efba 9ff7 103c 8560 a8ba be72 9e3c
00000220: 7dda 823b 0da2 473c 78e5 bd39 1280 fd3b
00000230: 407c 4bbb 13ce d0bb 38a1 1b3c 0b28 073c
00000240: 2796 e03b 631e c1ba 145f 4c3b 130b 6cbb
00000250: 1aa8 c6bb 0790 08bc 3158 ddbb 7074 aabb
00000260: 32db 4ebc 1fc9 aabc 5455 e639 9868 8bbb
00000270: 2d96 1cbb 4db0 c03a de45 9c3a ea67 3ebc
00000280: 6f8c 6abc 4aca 9cbb bd0c 5d3a 5a6a 0fbc
00000290: 03ee 96bb fa10 64bb 289b 483a 2678 2cbc
000002a0: ba6a cfba b307 b13b 8579 0d3c 89a0 e33b
000002b0: 4d00 1e3a 11ff 8bba 9020 e3bb 6a71 d73b
000002c0: ec71 893c 0251 1c3c 4a39 523b 56b8 b23b
000002d0: 63fd 073c 0777 1a3b ecf0 923b 1e06 d03b
000002e0: a0d0 4e3c e3da 8f3c 7d5f 983c bba2 323c
000002f0: 5617 bc3a 5e29 37bc 5b2d d1bb 2d4a 5a3b
00000300: 9152 093c 273a 683b 1bbd 5fbb b35c e5bb
00000310: 7f85 cd3b 7640 613c 01c8 923b b9ed 8a3c
00000320: a492 c33b 1947 c83c c1f2 033c 8441 1d3c
00000330: a319 073c b62c 2b3c 6337 b73c b7d2 5d3b
00000340: 310c 523c 293d fc3b 0b0d 8a3c a7a9 87bc
00000350: 3143 df3b 8d3a cfba 99b6 1f3c 8e80 88bb
00000360: 69da 823c c733 f33b 0439 63bd 40e2 ce3b
00000370: 9a98 1bbb 3fce d43b 8e11 2cbd 51b9 693c
00000380: 91a5 35bc 9ded 8cbc 027f 78bc 17a5 03bc
00000390: 2989 e1bb 9eeb 29bc b567 fb3b 91df 71bc
000003a0: 4f41 f939 5a39 a1bc bf74 923b 996c 87ba
000003b0: 7090 183c 7319 d8bb fd44 82bc 0194 d5bb
000003c0: fe5d cebc 5d91 4e3a e8b6 b93b 1fe0 393c
000003d0: 1a65 233b 81b0 5bbb ab48 caba 715e f3bb
000003e0: ec78 823c 70b9 e73b 2478 623c bc48 163c
000003f0: 4140 32bc 9c85 6cbb 94e2 62bc 3d3e 0b3c

exp_avg_sq f4 [8, 1, 7, 7]
0.0096940715 0.012767374 0.012549437 0.012746458 0.011863098 0.012881574 0.011350071 0.011551757
0.011969761 0.010456034 0.008464137 0.008642687 0.009389397 0.0077759502 0.0077872598 0.0077423053
0.0096195545 0.004231871 0.005778235 0.0052118977 0.0050318385 0.023171946 0.026423853 0.022355841
0.0035421336 0.038971424 0.032484137 0.023203937 0.013431465 0.011268888 0.009573098 0.007556722
0.012063909 0.009257272 0.008498175 0.0038527788 0.0033659646 0.0037405645 0.004947052 0.0036413213
0.003553853 0.003994558 0.007218289 0.0094038425 0.010336377 0.010206197 0.00950791 0.011255116
0.011556142 0.012278177 0.012683711 0.012946277 0.015212922 0.012735701 0.011336336 0.0135670835
0.008086321 0.0071463753 0.0075023887 0.0076183574 0.007335147 0.00837332 0.009105167 0.0077098175
0.0086912615 0.008490795 0.0072317393 0.008119457 0.007406597 0.008456418 0.022592885 0.03110581
0.021200405 0.0043995413 0.04171175 0.026623368 0.021867907 0.008961384 0.0071832454 0.0070938445
0.007374531 0.006619646 0.006520096 0.006956177 0.007301287 0.006929081 0.006870198 0.0073985704
0.0069039473 0.007670814 0.008937571 0.011450728 0.016715208 0.011064595 0.015020186 0.012118992
0.013251372 0.014364658 0.0053335223 0.004401171 0.0035920162 0.0040036826 0.003744299 0.0041515124
0.004990333 0.005107903 0.0040677716 0.0033625753 0.0033884225 0.003781037 0.003945652 0.0048851697
0.0052531892 0.0045181396 0.0034677973 0.00490734 0.0037144388 0.004966297 0.006073112 0.0065690023
0.004438524 0.0023163287 0.0038859663 0.00321935 0.004687745 0.0049444237 0.0034938422 0.0029187934
0.0021274332 0.0032425413 0.0020968495 0.00344159 0.004118535 0.0052956506 0.0045848317 0.0048623006
0.00466572 0.0047851615 0.004569468 0.006238172 0.0060451343 0.0049552177 0.005616077 0.0042024516
0.004610347 0.004881452 0.006377323 0.0053097005 0.004386239 0.003970496 0.004080715 0.004091504
0.004338196 0.0052239676 0.0043591666 0.0043789367 0.0036844336 0.0033508905 0.0033984692 0.004170587
0.004577113 0.0036737288 0.0034877262 0.0025247086 0.0026872111 0.0029524383 0.0036447893 0.003958997
0.003408554 0.0027994076 0.0031468475 0.0025731723 0.0027321777 0.0030664178 0.004112428 0.003544125
0.003723353 0.0030157112 0.0017189902 0.0037578878 0.0030446982 0.0040032757 0.0037038112 0.0031576587
0.0032076566 0.0031600352 0.0035043594 0.0033880281 0.004569141 0.0041675465 0.003540483 0.003410266
0.0037123675 0.0035530743 0.003953543 0.005209145 0.010646906 0.010761406 0.012030563 0.009819155
0.012628051 0.010893042 0.011302053 0.006098403 0.0058199377 0.006255068 0.006610181 0.0061095697
0.0065352228 0.006392364 0.0053172936 0.0050867856 0.0066354577 0.0070805503 0.006918281 0.0071632797
0.007343719 0.019011965 0.026161632 0.031924494 0.0019182193 0.022055468 0.026330398 0.018192487
0.005159349 0.004565982 0.006422656 0.0055767307 0.0059204693 0.005408932 0.006082401 0.0061400575
0.0064968104 0.008879208 0.007236694 0.008122229 0.007932449 0.00938505 0.008974284 0.012068711
0.009521905 0.013798284 0.010242076 0.012152909 0.010171437 0.0050466857 0.006152722 0.0050976006
0.0074567706 0.005317405 0.007373235 0.005261262 0.00379669 0.003548374 0.0034615893 0.0034367247
00000000: e2d3 1e3c 3f2e 513c 279c 4d3c 85d6 503c
00000010: 705d 423c 3d0d 533c a6f5 393c 9543 3d3c
00000020: d11c 443c c94f 2b3c 2aad 0a3c 0f9a 0d3c
00000030: fcd5 193c 66cd fe3b 452c ff3b 2ab3 fd3b
00000040: 569b 1d3c 82ab 8a3b 5957 bd3b 91c8 aa3b
00000050: 1fe2 a43b 18d3 bd3c d676 d83c 9923 b73c
00000060: 2423 683b 80a0 1f3d 160e 053d 2f16 be3c
00000070: a60f 5c3c 24a1 383c 7cd8 1c3c 619e f73b
00000080: b4a7 453c d0ab 173c ee3b 0b3c e77e 7c3b
00000090: 8497 5c3b 4224 753b e11a a23b 3ca3 6e3b
000000a0: c2e7 683b c8e4 823b 6687 ec3b 9312 1a3c
000000b0: e859 293c e537 273c 11c7 1b3c 6167 383c
000000c0: f955 3d3c 682a 493c 57cf 4f3c 9f1c 543c
000000d0: 9f3f 793c 67a9 503c 0abc 393c 7948 5e3c
000000e0: 7d7c 043c 242c ea3b 99d6 f53b 6aa3 f93b
000000f0: ac5b f03b 4030 093c d72d 153c a3a2 fc3b
00000100: cb65 0e3c fa1c 0b3c 3af8 ec3b 7907 053c
00000110: 0ab3 f23b ca8c 0a3c b714 b93c 9dd1 fe3c
00000120: 79ac ad3c 072a 903b f1d9 2a3d 4019 da3c
00000130: 5324 b33c c5d2 123c 6e61 eb3b 7b73 e83b
00000140: 0da6 f13b 9ee9 d83b 88a6 d53b a4f0 e33b
00000150: a23f ef3b 580d e33b 661f e13b b56f f23b
00000160: 823a e23b 745b fb3b e46e 123c d69b 3b3c
00000170: 55ee 883c 4648 353c 3a17 763c bd8e 463c
00000180: 481c 593c be59 6b3c d4c4 ae3b b337 903b
00000190: 0868 6b3b 5331 833b ea62 753b 6909 883b
000001a0: f385 a33b 3260 a73b f14a 853b a75e 5c3b
000001b0: 4c10 5e3b 46cb 773b 874a 813b c613 a03b
000001c0: f222 ac3b e70c 943b fc43 633b c0cd a03b
000001d0: f16d 733b 52bc a23b f500 c73b c940 d73b
000001e0: 0a71 913b 8ccd 173b b2ab 7e3b bbfb 523b
000001f0: a89b 993b d504 a23b f2f8 643b 3a49 3f3b
00000200: 686c 0b3b d180 543b 4c6b 093b 4c8c 613b
00000210: c7f4 863b 2387 ad3b 5b3c 963b ef53 9f3b
00000220: e5e2 983b d8cc 9c3b 7abb 953b 9469 cc3b
00000230: 4316 c63b 615f a23b 1207 b83b b8b4 893b
00000240: 6512 973b 96f4 9f3b ddf8 d03b fffc ad3b
00000250: 71ba 8f3b ef1a 823b 85b7 853b 0612 863b
00000260: 6d27 8e3b d12d ab3b 57d7 8e3b 2f7d 8f3b
00000270: 8a76 713b 9d9a 5b3b dab8 5e3b 6ba9 883b
00000280: 9bfb 953b f1c2 703b 5692 643b 9575 253b
00000290: ec1b 303b b27d 413b 6bdd 6e3b 79ba 813b
000002a0: 0c62 5f3b 4476 373b 573b 4e3b aba2 283b
000002b0: 560e 333b f4f5 483b 8cc1 863b 8d44 683b
000002c0: 7f03 743b 3da3 453b bd4f e13a e546 763b
000002d0: 8f89 473b e92d 833b a4bb 723b b9f0 4e3b
000002e0: 8c37 523b 9818 4f3b 65a9 653b ae09 5e3b
000002f0: bcb8 953b ea8f 883b 7307 683b c57e 5f3b
00000300: 314b 733b b2da 683b b98c 813b 7ab1 aa3b
00000310: 5c70 2e3c 9c50 303c d71b 453c 85e0 203c
00000320: e3e5 4e3c bb78 323c 3f2c 393c 1dd5 c73b
00000330: 2db5 be3b 50f7 cc3b 389a d83b c932 c83b
00000340: 6c25 d63b 0977 d13b b13c ae3b 0daf a63b
00000350: 416e d93b f603 e83b bfb2 e23b f2b9 ea3b
00000360: 94a3 f03b fbbe 9b3c eb50 d63c 42c3 023d
00000370: c26c fb3a abad b43c d9b2 d73c 6908 953c
00000380: c20f a93b 3c9e 953b 2575 d23b 02bd b63b
00000390: 7f00 c23b 693d b13b e14e c73b 8932 c93b
000003a0: 32e3 d43b 197a 113c ca21 ed3b 1913 053c
000003b0: 1af7 013c c1c3 193c e008 133c d8bb 453c
000003c0: c401 1c3c 3312 623c 61ce 273c ff1c 473c
000003d0: 19a6 263c ab5e a53b c69c c93b c609 a73b
000003e0: ed57 f43b a03d ae3b 2e9b f13b aa66 ac3b
000003f0: e3d1 783b d68b 683b d5db 623b ac3a 613b

exp_avg f4 [32, 8, 7, 7]
-0.0044167046 -0.0018902445 -0.0017592468 -0.00084615237 -0.0005967762 0.0017454243 -0.0018748975 0.00083163084
0.004646234 0.002110283 0.002989126 0.001327776 0.0033298666 5.6365487e-05 0.0037811217 -0.0014471338
-0.0031200226 -0.0023753433 -0.0021457693 -0.001333456 -0.0021583892 0.0020718775 -0.0023117552 -0.0016547085
0.00051310426 -7.499745e-05 -0.0034991398 0.0010416803 0.0016991309 0.0017385632 -0.0014196633 -0.00046942223
0.0017213731 -0.00019909053 0.0002779179 -0.0018591256 -0.002021303 -0.0021160138 -0.0016693748 -0.0010709837
0.00029701996 -0.0016609428 -0.00016205566 -5.9935373e-06 0.0019572892 -0.000685259 7.7506505e-05 0.0028975392
-0.00015475195 0.0009956422 0.00028776113 -0.0008755779 -0.0005764384 0.00077489 0.0009320118 -0.0034694176
0.003674018 0.0035732712 0.0023101512 0.003040333 0.0012993648 0.0024932995 -0.0011276569 0.0050105406
-0.0003726196 -0.005396619 -0.0031296546 -0.001960057 -0.0006119419 -0.0018393393 0.0032979283 0.00020576589
-0.0011139056 0.0005876026 -0.0005478026 -0.0012150184 0.0007778742 0.0014861207 0.0010712442 -0.0054595997
-0.00093292864 0.0017633368 0.0019356933 -0.00036384104 0.0011986316 0.0004154761 -0.0014854942 -0.0020967966
-0.00016547683 0.0004666494 -0.0024511414 0.0023457357 0.0026480164 0.0010622302 0.0014070357 0.00089809974
0.003406207 0.001499073 0.0014458214 -0.0016543402 -0.0019443979 -0.0022650014 -0.002464982 -0.0009910344
-0.000672534 0.0007879735 -0.00014718172 0.0019690976 0.0015802082 -0.00028222668 -0.0007537955 -0.0013270042
0.0008534769 -0.0013466855 -0.00095707644 0.0007516672 0.002316426 0.00042468036 0.0001069576 -0.0015872613
-5.9081194e-05 -0.0012031221 -0.00037413408 0.0019861676 0.0007986639 -0.00053946616 3.6720045e-05 0.00016820265
-0.00017276728 -0.0038182668 0.0009183243 -0.0011143713 -0.0024184217 -0.001311233 -0.00224301 -7.560266e-05
-0.0042295717 -0.0032097893 -0.0027543185 -0.002983141 -0.001161554 -0.0022796078 0.00014687808 -0.001186229
-0.000642723 0.0007096428 0.00017579946 -0.000804634 -0.0009767995 -0.00046737219 -0.0012255554 -0.0020799094
-0.0021425074 -0.001977251 -0.0005748006 -0.00014289113 0.0020680916 0.0026523 0.0002987772 0.00086616573
0.0026415875 -0.0007366058 0.00014464367 0.0010659704 0.0005626292 -0.0007920433 -0.0010108473 0.0018572945
0.0005004063 -0.0023872354 -0.00021913493 0.00023111634 -0.003682654 -0.0033029793 -0.00019640649 -0.00032105512
0.00041201443 0.0016086865 0.0009800518 -0.0012992567 -0.0034556775 -0.0008337693 -0.0018698558 -0.0022622412
-9.395076e-05 -0.0034478102 -0.0021362116 -0.0024432514 -0.0022837291 -0.003027081 -0.0016013292 -1.5396565e-05
0.000980466 -0.001533154 -0.0009878001 0.0013174326 0.0018491776 6.4328735e-05 0.0014303264 0.00075699505
0.00096062367 0.002780458 0.00088564225 -0.0014630501 -0.0026814295 -0.00029719796 0.0021631808 0.0010168605
0.002225386 0.0015512465 2.674404e-06 0.00037915853 -0.0027660667 -0.0027108565 -0.0017022983 0.000437416
-0.0013355666 0.0026132988 0.0020716041 0.00057383813 0.0024608604 0.003158056 -0.0018347151 -0.0011303871
-0.00020614678 0.0010779664 -0.0049265823 -0.0032843985 0.0012080276 -0.0048147407 -0.005168566 -0.00066474493
-0.00029169687 -0.0027162489 -0.002589247 0.0018441532 -0.0004078568 -0.00379364 -0.0012942547 0.00095637824
0.0015804607 -0.00033938457 8.6185275e-05 0.006039015 0.0025401944 -0.0007362189 -1.348441e-05 0.0027185571
-4.8626218e-05 0.001960806 0.000965913 0.0005041738 0.0013493525 -0.00032967248 0.0014515473 2.9729748e-05
00000000: 01ba 90bb 15c2 f7ba 8796 e6ba 53d0 5dba
00000010: f970 1cba b9c6 e43a 1fbf f5ba cd01 5a3a
00000020: 703f 983b ac4c 0a3b 36e5 433b c508 ae3a
00000030: e439 5a3b fb69 6c38 b2cc 773b c1ad bdba
00000040: 4b79 4cbb a6ab 1bbb 09a0 0cbb 5cc7 aeba
00000050: c373 0dbb 56c8 073b d180 17bb cee2 d8ba
00000060: d881 063a f347 9db8 d351 65bb fe88 883a
00000070: 5fb5 de3a 80e0 e33a ff13 baba c91c f6b9
00000080: b29f e13a f5c2 50b9 82b5 9139 e7ad f3ba
00000090: d677 04bb d2ac 0abb ecce daba 4060 8cba
000000a0: 58b9 9b39 feb3 d9ba 7ced 29b9 181c c9b6
000000b0: dd45 003b f4a2 33ba fd8a a238 a4e4 3d3b
000000c0: e944 22b9 3580 823a a5de 9639 0a87 65ba
000000d0: 201c 17ba fd21 4b3a 4152 743a 2b5f 63bb
000000e0: cbc7 703b 8b2d 6a3b e865 173b 5340 473b
000000f0: 734f aa3a a066 233b e3cd 93ba 762f a43b
00000100: 285c c3b9 1fd6 b0bb e41a 4dbb 4d74 00bb
00000110: ba6a 20ba fc15 f1ba 0e22 583b dcc2 5739
00000120: 7800 92ba 5809 1a3a 699a 0fba 4141 9fba
00000130: 41ea 4b3a f0c9 c23a fe68 8c3a 71e6 b2bb
00000140: c88f 74ba c41f e73a 17b7 fd3a ebc1 beb9
00000150: 671b 9d3a 42d4 d939 eab4 c2ba 696a 09bb
00000160: d983 2db9 9fa8 f439 54a3 20bb eaba 193b
00000170: 588a 2d3b 883a 8b3a 496c b83a 746e 6b3a
00000180: ac3a 5f3b 8b7c c43a b781 bd3a 72d6 d8ba
00000190: 2bdb feba 6b70 14bb 898b 21bb 99e5 81ba
000001a0: fe4c 30ba 0290 4e3a cb54 1ab9 fa0b 013b
000001b0: fd1e cf3a d3f7 93b9 5c9a 45ba dfee adba
000001c0: ddbb 5f3a 4483 b0ba 50e4 7aba 880b 453a
000001d0: 2ecf 173b a2a7 de39 6d4e e038 a70b d0ba
000001e0: f3cd 77b8 14b2 9dba 6d27 c4b9 5d2a 023b
000001f0: 6d5d 513a f66a 0dba d903 1a38 8e5f 3039
00000200: dd28 35b9 e33b 7abb b3bb 703a 1910 92ba
00000210: 627e 1ebb aedd abba 77ff 12bb de8c 9eb8
00000220: 3898 8abb 545b 52bb cc81 34bb cd80 43bb
00000230: 493f 98ba 7965 15bb 4903 1a39 3e7b 9bba
00000240: 697c 28ba 5207 3a3a cf56 3839 13ee 52ba
00000250: f407 80ba a209 f5b9 d1a2 a0ba 174f 08bb
00000260: 4f69 0cbb c494 01bb 37ae 16ba 0cd5 15b9
00000270: d288 073b 36d2 2d3b 32a5 9c39 660f 633a
00000280: 7c1e 2d3b c718 41ba 7dab 1739 08b8 8b3a
00000290: 687d 133a 20a1 4fba 687e 84ba 7670 f33a
000002a0: b32d 033a 2a73 1cbb 96c7 65b9 d257 7239
000002b0: ae58 71bb cc76 58bb 77f2 4db9 4a53 a8b9
000002c0: a403 d839 90da d23a 1575 803a d24b aaba
000002d0: a678 62bb 5091 5aba f315 f5ba 1c42 14bb
000002e0: 6e07 c5b8 a8f4 61bb afff 0bbb f51e 20bb
000002f0: 9eaa 15bb fe61 46bb b1e3 d1ba df27 81b7
00000300: fb82 803a 1df4 c8ba 1279 81ba b4ad ac3a
00000310: 1b60 f23a 3ae8 8638 ca79 bb3a 1471 463a
00000320: 5dd2 7b3a 5838 363b 722a 683a d1c3 bfba
00000330: ecba 2fbb 3cd1 9bb9 27c4 0d3b 2d48 853a
00000340: c8d7 113b 3253 cb3a e979 3336 ccc9 c639
00000350: e646 35bb a0a8 31bb a71f dfba fb54 e539
00000360: 2e0e afba e143 2b3b c0c3 073b a06d 163a
00000370: 6346 213b 63f7 4e3b d37a f0ba 7f29 94ba
00000380: 1b29 58b9 8d4a 8d3a 2b6f a1bb 103f 57bb
00000390: ae56 9e3a f9c4 9dbb 135d a9bb 4742 2eba
000003a0: e4ee 98b9 1803 32bb 5bb0 29bb 83b7 f13a
000003b0: 9dd5 d5b9 b89e 78bb fba3 a9ba 75b5 7a3a
000003c0: 7627 cf3a 6def b1b9 5ebe b438 eee2 c53b
000003d0: 6479 263b d0fe 40ba 1a3b 62b7 d229 323b
000003e0: 01f4 4bb8 de80 003b 5335 7d3a 882a 043a
000003f0: c2dc b03a e4d7 acb9 d841 be3a 2664 f937
