trained_models/Sigma_5_t_20/checkpoints/checkpoint_5.pth (torch, 173091 bytes, 10 tensors)

conv_layer.conv_layers.0.parametrizations.weight.original f4 [8, 1, 7, 7]
00000000: 2529 213d 3603 823d e712 43bd 0a9c 1c3e
00000010: 7eda abbd d341 0d3d 6dbf 3bbc b060 b93c
00000020: 9de5 033e 44a5 eebd 1cb6 393e 725f f83c
00000030: a907 e13d fcd4 803c deb3 9b3b aa55 edbd
00000040: b209 503e 1055 833e 6004 01bd 1497 2dbd
00000050: 04b8 6abd 44d7 f23c 4b95 babd 3ca4 893e
00000060: b9c0 14bf 3948 b23d ce00 8fbd 8d10 b03c
00000070: b84a d33c e2cc 85bd 2215 5b3e 00ea 57be
00000080: d4f0 5d3e 66a9 0b3e c37b 843c 2ef5 903d
00000090: 5702 653d 8acd a3bc 8972 fe3d b7fe 12bd
000000a0: 9a2d 10bd ac03 6d3d 8f2e ecbb 90f1 703d
000000b0: aa90 2a3d 39c0 81bc ae27 893d 6b74 883c
000000c0: 7d22 eb3c 5244 08bd 3d39 b8bd 7d9f a53a
000000d0: 7531 25be 3ac2 053e 511c 3a3c 63c0 173b
000000e0: 385b 1bba 7edb 5cbc 5b9e 193e 7754 28be
000000f0: 930d 06bc fc65 babd 48cd 0ebc 7d17 b0bd
00000100: df98 a6bb ddd4 afbd 2a8c a53e a6e2 0ebc
00000110: 5fb7 6dbd d39d 8ebd 54d9 193e 7878 bd3d
00000120: c838 803e 4946 3cbf 3d33 50be 25ed 87bd
00000130: a36a 5dbd 13bf a93b 2328 1d3d 7531 373e
00000140: b81b fdbc 1d80 463c f09b a03d 54ed 4abb
00000150: 3f8c eb3a 9867 4fbd d645 943d 974d 25bd
00000160: 8e3a dcbc 5d8f 4cbc 73e6 dc3b f221 5ebd
00000170: 7a42 b4bc 1b3d bf3d 0719 e0bd 9c52 5abc
00000180: 25e5 c33c 0e45 5ebc 24d5 c6bc 3c6f 04bd
00000190: 5e77 b5bd c9b1 aa3d 66e0 34bd 7b00 00be
000001a0: 7406 98bc 48f8 97bd bed1 efbd 35ae 22bd
000001b0: e6a2 5bbe 6d09 d0bd 4795 d63d 1647 433d
000001c0: e591 023d e4ac 33bd fafd dcbd 2a73 25bd
000001d0: bce7 c03d a090 37be 370c 73bd e851 a5bd
000001e0: 68eb 1c3d cd40 02be 4489 cebd 2145 94bc
000001f0: 883e 11be 8e80 81bd 21bc 81bd a1dc 06be
00000200: f836 3e3e e665 493d 3228 683e e0d5 ef3d
00000210: 0c1b e8bd 6d3c 943c e5fe 03bd 9eb0 01bd
00000220: b018 32be d61c e7bd d106 1a3d ee75 97bc
00000230: 0b1b a4bc 2a22 bebd 097c ba3d f3d4 d3bd
00000240: 51cf 11bd c54b 39bd 49d9 3bbd e9ab ee3c
00000250: 21cc 023e ea89 04be b6ef af3c 59a5 5cbd
00000260: 9efa fa3c b0f6 1abd abb6 1e3d 66f2 84bd
00000270: b995 a33d 8959 cb3d 265a 063d 7e1d 76bd
00000280: c4b7 b53d 4ffe bbbc fa1b a43c b544 3abe
00000290: fd76 ca3d 2c31 65bd 02b7 90bd 9dff 193e
000002a0: 0a94 cbbc b90b 5bbd bb78 adbd 724c acbd
000002b0: f9a3 ce3d 83cf 3c3c ba68 d6bd e20a 163d
000002c0: fc43 b1bd 8ff5 b83d 63e8 8b3e ff5d 17be
000002d0: bdc1 0e3d 444e 983d a566 003c 78f7 fdbc
000002e0: 020c af3d f587 713d 8c94 493d 5628 c83c
000002f0: 4491 86bd bc62 76bb 698f 09bc 07a5 1fbc
00000300: c6a1 833d 50c7 323d 50f2 07bd b6c2 883b
00000310: 1d7c 21bd 8594 7fbd 631e 8e3d bc1d ac3d
00000320: aa17 8dbd 9b1f 67bd 5ae5 2ebb f0a1 74bc
00000330: 2335 49bd 78d7 d6bd d783 60bd 8251 ecbd
00000340: 266c 18bd 49da 90bc 6415 833d 18ad 863d
00000350: b63e cfbd 9872 a2bd 166a 743c 17d9 1b3e
00000360: e99a dbbc c13d 8dbd b591 493e 1433 cdbd
00000370: 9d3b 41bf 8d86 873e 73d0 b9bb f442 003c
00000380: 23fc 03be fc8c dfba 9f26 003e 5edd 3f3e
00000390: c720 50be 5db3 03be 08ac 09bd 6f1c 543d
000003a0: 9eaf 26bd 2cc5 4d3d 8c17 c23d e683 273c
000003b0: 24dc 3bbc bd19 5bbd 7e25 52bd 7cd3 e6bd
000003c0: 9564 cd3d ce33 2fbd a9ec 27bd 214d 1bbd
000003d0: 2577 3fbc 6366 1ebd fba5 8abd 6ef9 c43d
000003e0: 9333 85bd 6490 bf3d 5ab6 5bbd 9e70 44bd
000003f0: aeee b9bc 5ea2 a8bd c6f6 2cbd 1db2 ebbd
0.03934588 0.06348269 -0.04762545 0.15293899 -0.083912835 0.034486603 -0.011459214 0.022629112
0.1288056 -0.11652616 0.18135875 0.03031895 0.10987789 0.015726559 0.0047516664 -0.11588605
0.20316198 0.25650835 -0.031498313 -0.042380407 -0.057304397 0.029643662 -0.091105066 0.26883113
-0.5810657 0.08705182 -0.06982575 0.021492267 0.025792465 -0.06533219 0.2139478 -0.21085358
0.216739 0.13638839 0.016172295 0.07078014 0.055910435 -0.01999547 0.124241896 -0.035887446
-0.03519974 0.05786483 -0.0072076987 0.058824122 0.04164187 -0.01583873 0.066970214 0.016657075
0.028702969 -0.03326828 -0.08995292 0.0012636032 -0.16132148 0.13062373 0.01135929 0.0023155443
-0.00059263734 -0.013480065 0.15001814 -0.16438471 -0.008181947 -0.09101483 -0.008715935 -0.0859823
-0.0050841416 -0.08585522 0.323335 -0.008721029 -0.058036204 -0.06963696 0.1502431 0.09251493
0.2504332 -0.73544747 -0.20332046 -0.066370286 -0.054056775 0.0051802485 0.038368355 0.1788996
-0.030897006 0.0121155055 0.07842243 -0.0030964212 0.0017970874 -0.050635904 0.07239883 -0.0403572
-0.02688339 -0.012485352 0.006741339 -0.05423159 -0.022004355 0.09337827 -0.109422736 -0.01332536
0.023912976 -0.013566269 -0.024271555 -0.032332644 -0.08860658 0.08334691 -0.044159316 -0.12500183
-0.018557765 -0.07420403 -0.11709927 -0.039716918 -0.2144886 -0.10158048 0.10477691 0.047675215
0.031877417 -0.043866053 -0.1079063 -0.040393032 0.094192 -0.17926264 -0.05933782 -0.08072263
0.03831044 -0.12720032 -0.10084775 -0.01809937 -0.1418401 -0.06323348 -0.06334711 -0.13170101
0.18575656 0.049169444 0.22671583 0.11710715 -0.11333284 0.01809522 -0.03222551 -0.031662576
-0.1739223 -0.11284797 0.037604157 -0.01848885 -0.020032426 -0.0928386 0.09105689 -0.10343351
-0.035598103 -0.045238275 -0.045861516 0.029134708 0.12773181 -0.12943235 0.021476608 -0.053868625
0.030637082 -0.037832916 0.038748425 -0.06491546 0.07987542 0.09929187 0.032800816 -0.06008672
0.08872941 -0.022948412 0.020032872 -0.18190272 0.098859765 -0.055955097 -0.07066156 0.15038915
-0.024850864 -0.053477976 -0.08470293 -0.08413018 0.10089869 0.011524084 -0.10469194 0.036631472
-0.08655545 0.090312116 0.27325734 -0.1478195 0.034852732 0.07436803 0.007836972 -0.031001791
0.08547212 0.05896755 0.04921393 0.024433296 -0.06570676 -0.0037595471 -0.008396008 -0.009743935
0.0642734 0.04364711 -0.03319007 0.004173602 -0.039425004 -0.0623975 0.069393896 0.08404109
-0.06889279 -0.056426626 -0.0026686997 -0.014931187 -0.04912294 -0.10490316 -0.054813232 -0.11538984
-0.037212513 -0.017682211 0.06400564 0.06575984 -0.10119383 -0.07932013 0.014917871 0.15219532
-0.026807265 -0.06896544 0.19684489 -0.10019508 -0.7548159 0.26469842 -0.005670601 0.007828463
-0.12889151 -0.0017055566 0.12514733 0.18736789 -0.20325004 -0.1286139 -0.033611327 0.05178493
-0.040694825 0.050236866 0.094771475 0.010224318 -0.01146606 -0.053491343 -0.051305287 -0.11270806
0.1002895 -0.042774014 -0.04099718 -0.037915353 -0.011686121 -0.038671862 -0.067699395 0.096178874
-0.065039776 0.09353712 -0.0536407 -0.047958963 -0.02269682 -0.08234094 -0.04222753 -0.11508582

conv_layer.conv_layers.1.parametrizations.weight.original f4 [32, 8, 7, 7]
00000000: 06a8 9fbb 349d d63c 4e87 03bd 5322 11bd
00000010: 3fe3 3e3c 7e9e 023b 3d84 d6ba d7d8 47bc
00000020: 3329 17bc 55f1 e93d 8877 31bc b457 6f3d
00000030: bb4a 43bd 3b17 f3bc 27aa 0a3d b249 99bc
00000040: 4d19 cebd bf86 89bb 9f8a a039 87fb f13c
00000050: 402a 2cbc ed05 753c a6aa 9cbd a281 4a3e
00000060: 7097 7fbe 5339 c23d 6bab 4c3b d4b9 afbc
00000070: c3e3 15bd 062b b43c 334b f8bd 1200 503e
00000080: 08b7 25bc 2477 493d 0640 123d b4b0 413c
00000090: d063 83bd 1e42 c53c de6e 91bc 0b00 f03d
000000a0: 92ee e4bd 487a 0f3c 105a a13c 733d 87bb
000000b0: 5a0e 91bc 1c2c 41bd fe07 c2bc 6f06 9c3c
000000c0: a7f4 75bc 2193 29bc 047b da3b c622 303c
000000d0: f12e 4cba 83f6 f4bb fa4f 59bc db82 943c
000000e0: 4078 14bc 9139 a039 69da 8ebb d8b8 213b
000000f0: 0212 f4bc 5fc6 4e3d cba2 95bc 9410 843c
00000100: c094 11bc bfe6 53bd 1a65 033e eb64 133c
00000110: b43b 3bbd fdf9 903a bace f3bb 7d58 af3c
00000120: 57b1 b03d d9af 8bbe a44a 3d3d 2a9a 3f3c
00000130: 223f 1a3d fe17 e338 ea6a a7bd e94a b23c
00000140: fe7b 823e 1ffa 06be 1587 dbbd 3f32 193d
00000150: 3260 273c 8b66 ad3d d7ea 29be d787 2ebd
00000160: 92c0 ac3d 6258 b73d 8cbc 9bbd f194 aabc
00000170: bb03 ce3b 56c7 7f3c af0b a53c 2fd7 acba
00000180: b6b9 103c 2f25 673d 9d06 07bc cc17 1fbc
00000190: 12a0 d33c 8f77 343c 0fd6 4bbd 5c20 cf3b
000001a0: 4730 5bba 3d33 c83c 0579 1ebd 779f 8abb
000001b0: 16dd b4bb e91f 63bb 9a5d 833b 42cf b73c
000001c0: 5bac 673d 3755 573d b9e3 98bd 234a 4bbd
000001d0: 96fa 63bd 918f c03c 972b 9bbc 9754 913c
000001e0: 688a efbd 499e ed3c 7d6c dfba ddba 7b3d
000001f0: ee9a 873d 0378 c5b9 fc64 fd3c ee85 383e
00000200: 85cc 1ebe b039 173e 592e a1bd f8c3 45bd
00000210: f151 8bbc a974 91bd deba c03c 3b90 6b3e
00000220: 30f9 16be f60c 023c b285 8d3c afaa 2b3c
00000230: 58e6 4dbc 6731 883c bc13 87bc a49d 8dbb
00000240: 94dd 583c c04e 41bd 25ab c33a 6a9e 81bc
00000250: 2c7b a2bb f1e7 703c bc4d da3b 08ec 323c
00000260: 5ef1 73bc 0c13 323b 08f5 a2bc 8609 8d3b
00000270: fb8e 2e3c 8f84 4d3c 252f 68bd 58c8 233c
00000280: 00dc e3bb 920e fe3b 4467 50bd 995a 2bbd
00000290: 0705 ff3d 4e21 c53b c461 bcbc 8629 54bc
000002a0: 81c5 ab3d dd58 dc3d b9dd 133d 3c85 a8be
000002b0: ed93 a93c 1f1b 5a3c 2ae5 013d a06f 57bd
000002c0: a772 95bd 9a6e bf3d 05c7 8c3d 9bdd 81bc
000002d0: 585f dabd 7f2b 233c dbac e6bc ed7e 973c
000002e0: f625 f3bd c1d2 903d 3818 863c 53e7 ed3d
000002f0: 7035 83bc dcfd c83c b0bf 2bbd 910f cd3d
00000300: 7102 89bd cb0e ec3b ad6b 59bd f69a 083d
00000310: 1d2e e83a 8558 863c d7ed 8fbc 661e 7a3c
00000320: 8a15 88bc 5887 743c beab 7138 23b6 33bc
00000330: e210 4d3c 8180 bdbc 2b1f 883d e118 fdbc
00000340: ceae 283d 3076 2abd 8e6e 51bc d725 e3bc
00000350: 725d b33c a643 1f3e c44d 86b7 69d7 82bd
00000360: 68c6 9f3c ba11 e53c ef8f 943d 76f9 b03d
00000370: 5cff 06bf f038 233e 4351 873d 0868 483d
00000380: b9f7 a33b 5822 03be b3ca 613d 37e6 1e3e
00000390: b3ca 56be 636e 04bd 1b7a 06bd 9a5b fb3b
000003a0: 93de 013d f15a f8bc f539 77bd 5797 873d
000003b0: b762 8cbc f7aa 92bd 1b76 36bc c79d 0dbd
000003c0: 1e0e 083d 148c 8c3c 739a 9fbd e5a4 693d
000003d0: 9e76 bb3b ece1 eebb 9a1e 41bc 37a8 ef3c
000003e0: c6cf a6bc d4eb 4e3c b927 263b bfe7 8ebc
000003f0: 7022 46bd d63e ba3c 354b b53c 56dd 3cbd
-0.004872325 0.026198007 -0.03211146 -0.035433125 0.011650859 0.0019930894 -0.0016366314 -0.012197695
-0.009226131 0.114229836 -0.010831721 0.05843325 -0.04767869 -0.029674163 0.033853676 -0.018711898
-0.100634195 -0.004196971 0.0003062086 0.029538883 -0.01050812 0.014955026 -0.07649736 0.19776013
-0.24960113 0.0948359 0.0031230103 -0.021450914 -0.036594164 0.021993171 -0.12123718 0.20312527
-0.010114439 0.049185887 0.03570559 0.011821914 -0.06415522 0.024079379 -0.01775306 0.11718758
-0.11178316 0.008757181 0.019696265 -0.0041271984 -0.017707039 -0.047161207 -0.023685452 0.019046037
-0.015011943 -0.01035002 0.0066674966 0.010750478 -0.0007788977 -0.0074756755 -0.013263697 0.018128803
-0.009061873 0.00030560468 -0.0043595326 0.0024676826 -0.029793743 0.05048215 -0.018266102 0.016121186
-0.008885562 -0.05173373 0.12831536 0.008996229 -0.045711234 0.001106083 -0.007440415 0.0214045
0.08627575 -0.272826 0.04621376 0.01169447 0.037657864 0.000108286724 -0.08174689 0.021764236
0.25485224 -0.13181351 -0.10719124 0.037401434 0.010215806 0.08466824 -0.1659349 -0.042610016
0.08435167 0.089524046 -0.07604322 -0.020822974 0.006287066 0.01561149 0.020147173 -0.0013186688
0.008833339 0.056431945 -0.008241323 -0.009710263 0.025833163 0.011014833 -0.04976469 0.006320996
-0.0008361381 0.024438495 -0.038689632 -0.0042304355 -0.0055195196 -0.003465647 0.004008961 0.022437695
0.056560855 0.0525715 -0.0746531 -0.04963125 -0.0556589 0.023505958 -0.018941684 0.01774053
-0.11696321 0.02900614 -0.0017045882 0.061457504 0.06621347 -0.00037664184 0.030931942 0.1801984
-0.15507706 0.147681 -0.07870168 -0.048282593 -0.017006846 -0.07102329 0.023526605 0.23004238
-0.14743495 0.00793766 0.017275665 0.010477706 -0.012567125 0.01662512 -0.016488902 -0.0043217707
0.013236422 -0.047194242 0.0014928324 -0.015822608 -0.004958531 0.014703737 0.0066620987 0.010920532
-0.014889089 0.0027171997 -0.01989223 0.004304114 0.010654206 0.012543811 -0.056685586 0.009996496
-0.0069537163 0.0077532018 -0.05087973 -0.041834448 0.12452131 0.006015933 -0.022995837 -0.012949353
0.0838728 0.10759137 0.036100123 -0.3291415 0.02070042 0.01331213 0.03171269 -0.05259669
-0.07297259 0.093472674 0.068738975 -0.01585274 -0.106627166 0.009959101 -0.028158596 0.01849314
-0.11872475 0.07071448 0.01636897 0.11616387 -0.016016692 0.024535112 -0.041930854 0.10012735
-0.06689919 0.007203912 -0.053081203 0.033350907 0.0017713938 0.016399631 -0.017569466 0.015266037
-0.016611833 0.014924847 5.7618825e-05 -0.010968718 0.012516232 -0.023132564 0.0664657 -0.030895652
0.04118233 -0.04161662 -0.012782706 -0.027728004 0.021895144 0.1555315 -1.6010257e-05 -0.063887425
0.019503787 0.027962554 0.07254016 0.08641331 -0.527334 0.15939689 0.06607296 0.048927337
0.005003896 -0.1280607 0.05512495 0.15517507 -0.20975761 -0.032331835 -0.032831293 0.007670832
0.031706404 -0.030316802 -0.060358007 0.06620663 -0.017136915 -0.07161515 -0.011136557 -0.034574296
0.03321659 0.017156638 -0.07793131 0.05704202 0.0057209274 -0.0072901156 -0.011787081 0.029255016
-0.020362746 0.012629468 0.0025353266 -0.01744449 -0.048372686 0.02273504 0.022130588 -0.04610952

activation.coefficients_vect f4 [672]
00000000: 0000 0080 f298 ec39 5626 ac39 0adf 8f39
00000010: 27e4 9fb6 f07a ddb7 dc91 61b8 b07b 38b9
00000020: e3ec 91b9 64f2 9db9 050c c3b7 7572 7e39
00000030: 874c 7739 01bc 5a39 6598 4a39 8c77 4439
00000040: df9c 5737 59ab f8b8 5c20 aeb9 f19a 71ba
00000050: 0000 0000 0000 0080 382c e93a 882c a83a
00000060: 84cb a53a 54fc d139 ecea d139 e7fd a7b8
00000070: 9ce0 cbb8 e6ff 29b9 c02d 47b9 a60d fc37
00000080: de88 7339 8be5 ea38 0f59 2938 fdb5 32b9
00000090: ab14 75ba 15e0 9cba eaaf caba 8507 dfba
000000a0: ef6f 09bb 0000 0000 0000 0080 d9c9 143b
000000b0: 03bc f63a f471 953a c60d 423a a3c4 eb39
000000c0: 263b 3139 56c3 8338 4c50 84b9 6bdd a7b9
000000d0: 0064 f936 329a 9d39 7c3e 8739 f2f5 3638
000000e0: 7a48 2738 ae89 b4b8 a319 ccb8 dca4 b9b9
000000f0: cd85 02bb 8c18 17bb 0000 0000 0000 0080
00000100: cf49 c43a c721 983a fe22 463a ce5f 023a
00000110: f632 9139 d906 f0b6 2e74 91b8 0cc8 e3b8
00000120: 1a41 16b9 72ca 3138 fe5b 9839 d544 7239
00000130: 5c3c e638 c141 9138 e45d e7b9 cbfe 55ba
00000140: a6b8 9fba a204 f7ba e006 0dbb 0000 0000
00000150: 0000 0080 3022 603a 7ffb 033a 6cda d839
00000160: bd59 9239 9dd5 8339 a6ca 2239 176a ac38
00000170: e92f c637 591c 86b8 8527 e7b8 c64c feb8
00000180: d2f7 04b9 e84c 18b9 d795 47b9 3034 ceb9
00000190: 7f53 ceb9 4686 dcb9 2fc6 f4b9 7d63 3eba
000001a0: 0000 0000 0000 0080 6cfd 7d3a 3f27 263a
000001b0: b7ea 053a d87f ab39 e5df 4e39 48bc d838
000001c0: 4340 c038 42bd b438 7be4 4838 529b 20b8
000001d0: 4135 5bb8 c5b3 8cb8 59e9 ccb8 f849 0cb9
000001e0: c9c8 20b9 2681 8cb9 a8af abb9 ef8b d0b9
000001f0: 157a ddb9 0000 0000 0000 0080 c667 353a
00000200: 642c db39 5e04 cb39 451c bf38 e98c ff37
00000210: 451d 3737 b340 26b9 a3cb 54b9 7326 cfb9
00000220: f2d5 6c39 3830 3339 081d 1d39 919a 9e38
00000230: e236 80b7 0042 24ba 6ad6 2eba 863b 6cba
00000240: 72cd 9eba bd32 b8ba 0000 0000 0000 0080
00000250: b8ea 593a 9d2f f839 1f68 c939 78d3 b939
00000260: 07cc 9c39 2569 7d39 d81f 7839 c7d6 1239
00000270: 5ea0 7c38 bcb1 4e38 1778 6cb8 f237 c0b8
00000280: 7517 1db9 f02b 23b9 d745 a3b9 46c0 b7b9
00000290: 536c f2b9 8d53 12ba aa07 8dba 0000 0000
000002a0: 0000 0080 8020 2d3a bed7 023a fc8f 7839
000002b0: 325b 5439 4190 a3b6 1201 d8b8 81ce 78b9
000002c0: b113 f1b9 4d46 22ba a19e 64b9 3cb0 6a39
000002d0: 0378 0f39 78a0 e338 4701 ffb7 f306 14b9
000002e0: 32f8 a7b9 3a6d abb9 7a60 1dba 7ced 66ba
000002f0: 0000 0000 0000 0080 5e58 e53a ced1 933a
00000300: 878c 233a aa8c 0d3a be05 b339 2c4f ac39
00000310: 49ca a039 0c63 8839 0d84 ec38 502b be38
00000320: 5a86 7138 e57b ac36 b7aa 9db8 3c80 edb8
00000330: 2aaa 87b9 975d d9b9 0854 1fba 19c9 71ba
00000340: 98e3 f8ba 0000 0000 0000 0080 9acc a13a
00000350: c287 593a ffe0 173a 0f41 063a 9c99 d839
00000360: 404e 8e39 8a3d 5b39 7a5c 2939 b5aa 2039
00000370: 55f5 f138 c9e0 7cb8 5631 0ab9 2723 a3b9
00000380: e7bb bbb9 c28f edb9 eadc eeb9 2bec 2aba
00000390: 7e4c 38ba 45b9 60ba 0000 0000 0000 0080
000003a0: 9a9b 853a c542 853a f3e2 143a 698b ab39
000003b0: 0fd1 8239 26d6 6939 525f 5839 7791 2c39
000003c0: 2d09 7138 8cc5 d2b7 a59e 73b8 4638 f5b8
000003d0: 5ed9 66b9 9646 85b9 cfbd bbb9 6c2c dfb9
000003e0: cac2 e8b9 abfb 56ba 7ef1 81ba 0000 0000
000003f0: 0000 0080 f990 923a 6248 1b3a 9c51 143a
-0.0 0.0004512738 0.0003283496 0.00027441263 -4.7651297e-06 -2.64025e-05 -5.3780022e-05 -0.00017593685
-0.0002783305 -0.0003012597 -2.3251408e-05 0.00024265966 0.00023584264 0.00020860137 0.00019320993 0.00018736551
1.2851523e-05 -0.000118574775 -0.00033211976 -0.00092165085 0.0 -0.0 0.0017789667 0.0012830654
0.0012649153 0.00040051586 0.00040038617 -8.0104735e-05 -9.721631e-05 -0.00016212426 -0.00018995162 3.0047097e-05
0.00023225273 0.00011200745 4.0375682e-05 -0.00017043199 -0.0009349088 -0.0011968637 -0.0015463803 -0.0017015791
-0.0020971259 0.0 -0.0 0.0022703318 0.0018824342 0.0011401759 0.0007402565 0.000449692
0.0001690207 6.282951e-05 -0.00025236828 -0.0003201769 7.43242e-06 0.00030060258 0.0002579576 4.3621236e-05
3.98834e-05 -8.608714e-05 -9.732253e-05 -0.0003540878 -0.0019916177 -0.0023055403 0.0 -0.0
0.001497561 0.0011606746 0.0007558315 0.00049733825 0.00027694524 -7.1533545e-06 -6.935779e-05 -0.00010861465
-0.00014329367 4.238863e-05 0.0002906024 0.0002310456 0.000109784974 6.9263864e-05 -0.00044129707 -0.0008163272
-0.0012185767 -0.0018845985 -0.002151899 0.0 -0.0 0.0008550016 0.0005034729 0.00041361467
0.0002791415 0.0002514542 0.00015525016 8.22136e-05 2.362575e-05 -6.394898e-05 -0.000110222994 -0.00012125964
-0.00012680821 -0.000145245 -0.00019033939 -0.00039330265 -0.0003935359 -0.0004206171 -0.00046686965 -0.000726275
0.0 -0.0 0.0009688947 0.00063382456 0.00051085226 0.00032710913 0.00019729098 0.00010334753
9.167243e-05 8.618321e-05 4.7896505e-05 -3.8291626e-05 -5.2263265e-05 -6.709205e-05 -9.7709424e-05 -0.00013378996
-0.00015333587 -0.00026799104 -0.00032746536 -0.0003977711 -0.00042243363 0.0 -0.0 0.00069200655
0.0004180401 0.0003872243 9.112855e-05 3.0463985e-05 1.0914465e-05 -0.00015855096 -0.00020293756 -0.00039510764
0.00022586415 0.00017088733 0.00014983502 7.562817e-05 -1.5284346e-05 -0.0006265938 -0.00066695234 -0.0009011555
-0.0012115671 -0.0014053207 0.0 -0.0 0.0008312869 0.0004733772 0.00038415284 0.00035443506
0.0002990665 0.0002416713 0.00023662986 0.00014003656 6.0230836e-05 4.9279755e-05 -5.6378627e-05 -9.165694e-05
-0.00014981425 -0.0001556126 -0.00031141817 -0.00035047735 -0.00046238545 -0.0005581908 -0.001075973 0.0
-0.0 0.0006604269 0.00049912545 0.00023704761 0.00020251868 -4.874572e-06 -0.00010299882 -0.00023728052
-0.00045981773 -0.0006190285 -0.00021802868 0.00022381631 0.0001368225 0.00010854093 -3.0398964e-05 -0.00014116969
-0.00032037642 -0.00032697042 -0.0006003451 -0.00088091916 0.0 -0.0 0.0017497649 0.0011277737
0.0006238897 0.0005399684 0.0003414582 0.00032865384 0.00030668292 0.00026013737 0.00011277953 9.0679736e-05
5.7584002e-05 5.1404227e-06 -7.5181415e-05 -0.00011324926 -0.0002587599 -0.00041459195 -0.000607789 -0.00092233863
-0.0018988727 0.0 -0.0 0.0012344301 0.00082981226 0.000579372 0.0005121389 0.00041313178
0.0002714265 0.00020908393 0.00016151546 0.00015322382 0.00011537472 -6.029083e-05 -0.00013179085 -0.00031115973
-0.00035807418 -0.0004531127 -0.0004555949 -0.0006520177 -0.0007030441 -0.0008572529 0.0 -0.0
0.0010193468 0.0010166994 0.000567957 0.0003271953 0.00024951293 0.00022300388 0.00020634875 0.00016457388
5.7467423e-05 -2.512594e-05 -5.8083464e-05 -0.00011692992 -0.00022015485 -0.00025420327 -0.00035808838 -0.0004256697
-0.00044395617 -0.00082009536 -0.0009913889 0.0 -0.0 0.0011182121 0.00059235666 0.00056579127

u f4 [1, 1, 20, 20]
00000000: e800 00bb a026 763b 90e1 d8bb e8a2 1c3c
00000010: 6c66 3ebc 74d1 5e3c 0858 76bc 42ae 843c
00000020: ccb8 8abc 3492 8d3c 7a43 8dbc 42d2 893c
00000030: 7f64 83bc 2a23 753c 0029 5dbc 6ee7 3f3c
00000040: f865 18bc f805 c63b a6bb 99bb f8fb f03a
00000050: 402a 663c b8e9 0cbd ad37 563d c698 8bbd
00000060: 11d9 a73d d5af c1bd 3fbf d53d 80d3 e4bd
00000070: fa05 ee3d c42c f1bd 5e2e ee3d 6e27 e5bd
00000080: 5269 d63d 92ac c2bd 0831 aa3d ad50 8ebd
00000090: 0e82 5d3d de02 15bd ba47 c03c a068 11bc
000000a0: 9002 25ba d010 743b 08ad 2bbc 1200 9e3c
000000b0: c389 dbbc 0e81 0e3d 7dfb 2bbd da90 483d
000000c0: ad0b 61bd f7d2 743d 0147 81bd 5da9 843d
000000d0: 9f2a 84bd 9d66 7f3d 4ba5 6dbd 9098 533d
000000e0: f903 2fbd ac15 fb3c f683 b0bc 5c8f 123c
000000f0: bc58 89bb 1eb5 4c3c dc4c c4bc 3fc9 033d
00000100: 709f 26bd d063 443d 31ad 61bd ee5a 783d
00000110: 4f9d 84bd 0e4f 893d 5e31 8abd f612 873d
00000120: 7207 80bd b795 6a3d 6a83 4ebd dc29 2c3d
00000130: d4ca 0abd 48a1 d33c f457 88bc c4bf c93b
00000140: adfa 0ebc 963a b73c 85da e9bc dc13 093d
00000150: 08ab 17bd 6f9e 253d cc54 2bbd 3897 2c3d
00000160: b77f 27bd b024 1d3d 3692 0dbd f9ec f33c
00000170: 11ee c6bc 8d5c 963c 216d 4cbc a055 f73b
00000180: 44e1 1fbb 384c d2ba 1311 9e3b ea4c 0dbb
00000190: b074 c2bb 4307 733c 04d8 a9bc 9ea4 b03c
000001a0: d8f2 b5bc 5bd5 ad3c bee6 9ebc 8677 833c
000001b0: 8088 43bc 9dde e83b d494 06bb c09c 43bb
000001c0: 02be fb3b b928 3fbc 9ede 713c d9cd 89bc
000001d0: a86c 8c3c ce60 82bc 2c6f 2d3c 7bac 9ebb
000001e0: 17c9 223b 768d 0fbc d876 9d3c 1e6a f2bc
000001f0: be71 213d c1f8 45bd e6df 693d ee38 84bd
00000200: f8c7 903d 1078 99bd d010 9e3d 41ee 9dbd
00000210: 1ad2 983d 17c3 8ebd 416d 7f3d 1ef6 57bd
00000220: 1050 283d 5a5a e3bc b065 913c 150a dbbb
00000230: 400d 36ba c084 2ebb fcdb bd3b e8be f7bb
00000240: ca94 133c 7ad7 2dbc 9e79 3c3c 5443 45bc
00000250: 6826 403c a0cd 2fbc 4093 113c 9242 d1bb
00000260: c039 5e3b 802c aab8 6080 50bb 82e4 c83b
00000270: d59b 02bc 5425 043c d237 28bc 16bb bb3b
00000280: 5473 613b 1c31 3bbc 42a5 8e3c fa78 9ebc
00000290: 38d6 ac3c 46b6 b3bc 54c2 b63c eaa3 b0bc
000002a0: cad7 a33c 4e67 8fbc 1579 6b3c fbb9 2fbc
000002b0: 6d64 de3b 4eef 36bb bc44 86ba 6cd7 7e3b
000002c0: 74b5 d2bb 2fbb 003c 39b4 92bb 00b1 6f3a
000002d0: 81bd 2f3c d1c1 bfbc ba64 043d ae4c 19bd
000002e0: c27a 2a3d 48a3 37bd e628 3b3d d0e3 37bd
000002f0: d3bf 2d3d b22e 1ebd 8603 0a3d fac0 e5bc
00000300: 02c0 b43c ac20 85bc 1825 333c b54c c6bb
00000310: fda2 583b c44a b9ba e05b d73a 000c c9b9
00000320: 8f6d de3b e61b 1fbc 1495 913b 905b 683b
00000330: bef1 46bc 2e48 b23c cc51 01bd 38e9 293d
00000340: c71f 4fbd d9d8 6e3d fe42 83bd b422 8a3d
00000350: 6b65 8bbd f2d9 863d 2c6a 78bd 8619 543d
00000360: 6cf9 26bd f575 dd3c 4dc2 89bc cf4c aa3b
00000370: 04ca 9aba 1db0 093c 2c72 a1bc e748 c43c
00000380: 86d4 e5bc 8312 003d 8830 0dbd 4c43 153d
00000390: 2af0 17bd c2cf 143d 36e7 0bbd 9adc fb3c
000003a0: f410 d7bc 84df aa3c 952c 76bc c18d 1d3c
000003b0: be08 b1bb 2089 543b 9271 023b a812 89ba
000003c0: 0238 c5bc 26d3 573d 5e4a 92bd 0f3c b43d
000003d0: f66f d3bd 3e50 ee3d 1015 00be 665f 053e
000003e0: 37dc 06be b07b 043e 8bf9 fcbd ac4d ea3d
000003f0: f428 d2bd acee b53d 248a 96bd d774 6c3d
-0.001953179 0.0037559643 -0.006618686 0.009560324 -0.011621099 0.013599742 -0.015035637 0.016196374
-0.016933821 0.01728163 -0.01724409 0.016823892 -0.016039131 0.014961997 -0.013498545 0.011712892
-0.009301655 0.006043192 -0.004691559 0.0018385639 0.014048159 -0.03440258 0.05229919 -0.068162486
0.08195699 -0.094573654 0.10436868 -0.11173153 0.11622234 -0.117761165 0.116299376 -0.11189161
0.10469307 -0.095055714 0.08310133 -0.069489814 0.054079108 -0.036379687 0.023471702 -0.008875042
-0.00062946323 0.0037241466 -0.010478266 0.019287143 -0.026799088 0.034791045 -0.041987885 0.048966266
-0.054942776 0.059771504 -0.06312371 0.06477616 -0.06453442 0.06235372 -0.058018964 0.051659167
-0.042728398 0.030649982 -0.021547299 0.008945312 -0.004191486 0.012494354 -0.02396243 0.032174345
-0.040679395 0.04794675 -0.05509681 0.060633592 -0.06475317 0.067045316 -0.06747697 0.065954134
-0.0625142 0.057271685 -0.050418295 0.042032108 -0.03388484 0.02583374 -0.016643502 0.0061568934
-0.008726758 0.022366803 -0.028546581 0.033466205 -0.037028342 0.040434297 -0.041828915 0.0421364
-0.040893283 0.038365066 -0.034563266 0.029776083 -0.02428344 0.018354679 -0.01247719 0.007548049
-0.0024395743 -0.0016044443 0.0048238127 -0.0021560737 -0.0059343204 0.014833274 -0.020732887 0.02156287
-0.022210523 0.0212199 -0.019397136 0.016048204 -0.0119344 0.0071066157 -0.0020535486 -0.002984807
0.007682563 -0.011667424 0.014762549 -0.016821789 0.017141655 -0.0159153 0.0105855875 -0.0048423386
0.0024839097 -0.008761754 0.019221708 -0.029591616 0.039415114 -0.048332933 0.05709829 -0.06456171
0.07069391 -0.07493603 0.077180505 -0.07711459 0.07461949 -0.06970804 0.062360052 -0.05272495
0.04109198 -0.027753044 0.017748684 -0.0066845515 -0.00069447234 -0.0026629418 0.0057940464 -0.0075605996
0.009007642 -0.010610456 0.011503605 -0.012039978 0.011727907 -0.010730177 0.008885205 -0.0063861096
0.0033908933 -8.1145205e-05 -0.0031814799 0.006130756 -0.007971724 0.00806554 -0.010267215 0.0057290895
0.0034401016 -0.011425283 0.017412785 -0.019344795 0.021098241 -0.0219375 0.02230946 -0.021562535
0.020000357 -0.017505314 0.01437213 -0.010725494 0.006786874 -0.0027913633 -0.0010243873 0.0038885726
-0.0064303223 0.007857128 -0.0044770506 0.00091435015 0.010726334 -0.023407849 0.032322623 -0.037426643
0.041620977 -0.04483345 0.0456933 -0.044894993 0.042419266 -0.03861875 0.033694766 -0.02804612
0.022064213 -0.01625093 0.010934137 -0.0060516247 0.0033056133 -0.0014136662 0.0016430579 -0.00038346648
0.0067879627 -0.009711241 0.0044428203 0.0035454966 -0.012142597 0.021762934 -0.03157215 0.04148218
-0.050567415 0.05831227 -0.06409262 0.067449 -0.06806453 0.065845385 -0.06064813 0.051782154
-0.04076521 0.027033785 -0.016816283 0.0051971446 -0.0011809473 0.008403805 -0.019707762 0.023960544
-0.02805544 0.031267654 -0.03447011 0.036441132 -0.037094273 0.036330946 -0.034156047 0.03074484
-0.026253201 0.020858534 -0.015025278 0.009616316 -0.0054026535 0.0032430366 0.001990412 -0.001045783
-0.024074558 0.0526916 -0.07143091 0.08800518 -0.10324089 0.11636399 -0.12508035 0.13024673
-0.13169943 0.12937808 -0.12352284 0.11440596 -0.102617174 0.08883414 -0.07350567 0.057728615

exp_avg f4 [8, 1, 7, 7]
00000000: 65bd 26bb a7f1 73bc a2ae ab3c 9301 42bc
00000010: 1bec d73c c520 68bc acbd 113b 9bb1 183c
00000020: 61b2 ccbc 5d98 f43c 9cfe 9ebb ee55 b83c
00000030: 7f5a cdbc e1d1 ed39 9b77 8f3b 3867 6abb
00000040: 035e 993c 00ec cd3a 4a1b af3c 1977 ecbb
00000050: b9ef a83b d1e5 23bd 05c1 043d 6218 28bd
00000060: 0774 293c a30a 0cbd 7fa7 de3c fade 10bd
00000070: 511f fdbc e3b1 8f3c 5e86 d4bc a8b3 8f3b
00000080: e7b2 1bbd 0a8b 1f3c 0753 22bd bc91 103c
00000090: cbc1 703c 2fe7 c43c 0a09 383c 28dd aa3c
000000a0: a981 303b ef86 f43b 3b14 833c 5897 2fbb
000000b0: 4d31 bc3c a6b8 8ebc d559 a13c b713 77bc
000000c0: c100 873c 499f 1d3d f801 d33c 62f4 173d
000000d0: e350 3abb 4099 003d ea1b b9b9 9fb6 503c
000000e0: 84fb e43c 6276 983c f67a f43c 57d5 fc3b
000000f0: 5e0c bf3c e854 7bb9 7a64 a3bb 3337 d53a
00000100: 0e86 123c 131f f237 1070 ffbb 96d2 df3a
00000110: ff8f a5bb 5ddc 33bc 2520 eebc 628b 0a3d
00000120: 6ae4 33bd dbeb 42bc 0469 68bd de3c b0b8
00000130: cfe8 58bd beea 82bc 6a4c 073c 42d7 88bc
00000140: f933 95bc 6a30 1cbd b153 23bc 1c16 0ebd
00000150: ea70 8b3c 1b4a 723c f200 763c 7e60 2a3b
00000160: 54ae 863c 7a86 233b fb9b 343c 705d 7b3c
00000170: e9fb 2dbb edfc bd3b 8bed d2bc acb8 96b9
00000180: d96d a9bc 358d 0c3b 0f40 4dbc 4e91 53bb
00000190: 39f1 01bc 1941 1a3c 762d 7a3b db0c ca3c
000001a0: 3f9a 173d aaa7 9ebb f8aa e1bb eeb8 9fbb
000001b0: 562a 623a 60ab 1d3c 30fc 863c 8584 0f3d
000001c0: 29cd 823b a9c7 adbc 84c1 bbbb 08d8 44bc
000001d0: 9557 153c 1787 ef3b dce5 213d df6d 673b
000001e0: d570 8bbc 5762 38bc d75c 40bc 085f b93b
000001f0: 873f 4fba 494b e83c ac15 b8bc 4989 59bc
00000200: 2b5b 99bc ce40 0039 d0f1 7fb9 61ed 803c
00000210: 3d4c 7a3c 3938 87bc 7d17 c1bb 429f 9bbc
00000220: 453b 9c3b 76c2 29bb 34c9 b63c 3906 b03c
00000230: 749c 08bd 7858 ccbc 2181 dcbc fa55 73bc
00000240: 1109 5dbc e875 233b 2db7 803c 75b2 6c3c
00000250: 0762 b23b 893a 58bb fcec 1b3b 70b9 003c
00000260: 65bb cb3c 474d a63c 1883 a53c 68ea 4e3c
00000270: 764a 70ba a542 033b 49e8 e639 b641 c33c
00000280: e4bb 813c 48a0 b43c a905 4aba 96bd cebb
00000290: 7a67 05bc 2edf 813b 0fcc 863c 918a ac3c
000002a0: afac 833c c8f9 8fbb 5933 55bc 750d 2fbc
000002b0: 6dfa 1aba 71e4 e73b 9104 1c3c 0f33 6b3c
000002c0: b174 49bc 3eb8 abbb a4c3 0fbc eec4 b33b
000002d0: 1c3a d03b 0fcd 713c b4a5 ddba 57bc 99bc
000002e0: 461d c4bc 0df9 8fbc 5395 23bc ce37 7e3b
000002f0: 2de0 043c 004d 96bc b901 e3bc a020 2ebd
00000300: 5d5f 06bd ecb0 e8bc 80a4 96bb d619 b43a
00000310: ee97 fa3c f085 49b8 9880 a93c a5c7 6e3b
00000320: 11a1 c03c c3d8 98bb f9c1 cb3b c44d d33c
00000330: e5e5 503b 0605 863c 98ec 5a3c 772d f23b
00000340: 3917 f8bb 2aaf 0dbc cfc5 183c 6435 8e3c
00000350: f9c9 95bc 6a67 c43b b530 d8bb bcd3 263c
00000360: e9ed c8bb b835 4dbc f265 cf3c ec42 50bd
00000370: 7a12 b2bb a996 12bd 42b1 573c 8554 fcbc
00000380: 683b 4d3c 8f67 e7ba 17ec fabb abd9 25bc
00000390: b868 8abb fef7 7db6 3459 e9bb 7a3d 033d
000003a0: afb4 c9bb 13e3 be3b e6c3 68bb ccee bf3c
000003b0: 311e c0bb 024c 373c e536 623c 30ce c3bc
000003c0: f91d 7ebc 9686 12bd ca6d 7bbb 2e70 80bc
000003d0: 569c 1dbb 235c 3ebc f6e2 80bc 7040 edbb
000003e0: 549e 76bc 5340 7e3a a69d 81bc 9e61 473c
000003f0: b862 1abc 11ff 79bc b20b 93bb a544 423b
-0.0025442478 -0.014889157 0.020957295 -0.011841196 0.026357701 -0.014167969 0.0022238297 0.009319688
-0.024987401 0.029857809 -0.004852129 0.022501912 -0.025067566 0.00045360535 0.0043782718 -0.003576709
0.018721586 0.0015710592 0.021375317 -0.007216346 0.0051555303 -0.040014092 0.03241064 -0.04103888
0.0103426045 -0.03418983 0.027179478 -0.035368897 -0.030898722 0.017540878 -0.025942978 0.0043854304
-0.03801241 0.009737739 -0.039629962 0.008823808 0.014694641 0.024036018 0.011232624 0.020857409
0.0026932752 0.0074623744 0.016000858 -0.0026793089 0.022972727 -0.017422032 0.019696156 -0.015080384
0.016479852 0.038481984 0.025757775 0.037098296 -0.002842956 0.03139615 -0.00035306747 0.012738853
0.027951963 0.018611137 0.029843789 0.007715862 0.023321327 -0.00023968855 -0.004986343 0.0016267061
0.008943094 2.8863118e-05 -0.0077953413 0.0017076309 -0.005052566 -0.010977832 -0.029068062 0.033824332
-0.043919004 -0.011897053 -0.056740776 -8.4036714e-05 -0.0529564 -0.015981074 0.008257965 -0.016704205
-0.018213259 -0.03813211 -0.009968684 -0.034689054 0.017021615 0.014788176 0.015014874 0.0025997455
0.016440548 0.002495198 0.011023517 0.015342101 -0.0026547855 0.0057979734 -0.025748035 -0.0002874782
-0.020682262 0.002144647 -0.01252748 -0.0032282653 -0.007931047 0.009414935 0.003817407 0.024664333
0.037012335 -0.0048417645 -0.006886836 -0.0048743403 0.00086275244 0.0096233785 0.016477674 0.03503849
0.003991742 -0.02121337 -0.005729856 -0.0120143965 0.009115119 0.007309805 0.03952585 0.003531329
-0.017021576 -0.011253915 -0.011740885 0.0056570806 -0.00079058897 0.028356211 -0.022471271 -0.01327736
-0.01872023 0.00012231173 -0.00024408777 0.015738191 0.015276966 -0.016506301 -0.0058926926 -0.018996838
0.0047678077 -0.0025903261 0.022312738 0.021487342 -0.03335233 -0.024944529 -0.026917042 -0.014852041
-0.013490931 0.0024942104 0.015712345 0.014446844 0.0054438147 -0.0032993874 0.0023792377 0.007856712
0.02486963 0.02030052 0.020204112 0.012629129 -0.0009166369 0.0020028737 0.00044042084 0.023835044
0.015836664 0.022049084 -0.0007706532 -0.0063092215 -0.0081423465 0.0039633727 0.016454725 0.021062167
0.016073553 -0.00439379 -0.0130127305 -0.010684361 -0.000591195 0.007076793 0.009522573 0.014355435
-0.012295888 -0.0052404692 -0.008774672 0.0054861223 0.0063545834 0.014758362 -0.0016910345 -0.018766565
-0.02393974 -0.017574811 -0.009984332 0.0038790586 0.008110088 -0.018347263 -0.027710782 -0.042511582
-0.03280579 -0.028404675 -0.0045972466 0.001374061 0.030590024 -4.8046873e-05 0.020691201 0.0036434915
0.023514302 -0.004664512 0.0062181917 0.025793917 0.003187531 0.016359817 0.013362072 0.0073906737
-0.0075711277 -0.008647719 0.009324505 0.017359443 -0.018284785 0.005993773 -0.006597603 0.010182317
-0.0061318767 -0.012525015 0.025317166 -0.05084507 -0.0054343315 -0.035788212 0.01316482 -0.03080202
0.012526371 -0.0017654764 -0.0076575386 -0.010122697 -0.004223909 -3.7844288e-06 -0.0071212295 0.03204105
-0.0061555724 0.005825409 -0.0035517155 0.023429297 -0.005862974 0.011187555 0.013807033 -0.023902029
-0.015510076 -0.035772882 -0.0038365 -0.015678491 -0.0024049482 -0.011618647 -0.015733223 -0.0072403476
-0.015052397 0.0009698916 -0.015822243 0.01216927 -0.00942295 -0.0152585665 -0.004487478 0.0029642966

exp_avg_sq f4 [8, 1, 7, 7]
00000000: 3951 353c 544a 753c f38a 803c 2f68 7e3c
00000010: cdec 803c 558a 8d3c 6fff 7d3c 1470 b33c
00000020: 938f e23c 00bf b73c b401 ab3c 9544 9f3c
00000030: ee16 bb3c 4955 7c3c 6c16 3c3c 8d2e 3c3c
00000040: 121a 4f3c 7b08 ab3b 0121 ea3b 752c c93b
00000050: e3b7 bb3b a851 f13c 03c0 053d 030d f53c
00000060: eafc c33b aa67 593d 71f3 333d 2944 0e3d
00000070: 6d4d d73c c0c9 c53c 74b9 b03c 774c 8c3c
00000080: 56e8 b23c 3c1e 8c3c 0879 793c 42f2 bb3b
00000090: 5d14 b33b 0167 b13b a125 e23b 4d53 e13b
000000a0: 9cf5 de3b c208 fb3b fd50 733c 12bd 963c
000000b0: 01ea ac3c e20c a93c e19f a33c 9a77 a93c
000000c0: 6282 aa3c f7f5 a13c 5e40 993c ee88 ad3c
000000d0: e248 af3c 4be2 b43c 78a9 8c3c 4822 b63c
000000e0: 8e34 823c a2be 763c 7394 813c d659 843c
000000f0: 044c 653c c016 783c 5768 803c 9e8c 3d3c
00000100: 603f 6d3c 6ef8 5a3c 9ab0 4b3c 54c2 533c
00000110: ac25 3a3c a367 483c ea35 f13c 66ea 203d
00000120: 9fa9 eb3c 4e64 c83b facf 653d 6d4c 083d
00000130: 667c f53c 6db1 853c 7fe6 723c be65 643c
00000140: 2366 6b3c 6caa 453c 2e3a 313c 3c87 343c
00000150: 86d8 433c 5491 4b3c 0df9 493c 4e78 693c
00000160: 8da8 4c3c 2548 6b3c 422f 743c 58eb 993c
00000170: b896 ea3c 76b4 9e3c c70a e33c 56f8 a53c
00000180: 3391 b03c 820a b43c 77d3 2a3c d607 093c
00000190: e971 dc3b 385a ee3b bc2a c63b 7539 e03b
000001a0: 2d18 033c af91 053c a7fb d43b e633 a23b
000001b0: 479b 893b 95d2 943b 9492 a03b 71fd d13b
000001c0: b23b 083c 13ba d53b 411d ab3b 4718 be3b
000001d0: ef63 a33b 1bd3 ce3b 1fb0 1c3c a3dd 1e3c
000001e0: d1c7 ca3b b815 483b 739f b63b 2e73 843b
000001f0: 693a dc3b 80ff ed3b 933e ac3b a6f8 813b
00000200: b56d 303b 866f 963b 7438 283b b057 aa3b
00000210: 339d cc3b f8dd 033c 1c88 d83b 5820 043c
00000220: 3753 cf3b 15a8 f53b 495e eb3b 89b1 1e3c
00000230: 8ba8 1a3c 6ddf ee3b 2cdf 053c 9ba9 c13b
00000240: b8a6 e83b cb6c f03b 831a 1c3c df11 233c
00000250: b57b 0a3c aa50 f83b 1c9a ed3b 6858 d53b
00000260: 5163 db3b fb9a 033c 2a11 fa3b fdb3 e93b
00000270: b05a cb3b 281f b13b 7ddf 9c3b 835e be3b
00000280: 9427 ca3b 7bff ae3b 58e0 b23b ec43 553b
00000290: cc01 743b 1258 823b b4ec 9e3b c1c6 c53b
000002a0: 82f6 a23b 1ebe 883b 75be 9c3b d92c 8c3b
000002b0: c905 783b 6061 943b a4fa c23b fb57 a93b
000002c0: 35a2 b93b 2c78 a03b d06b 313b db1a c33b
000002d0: 2653 933b aaf9 e03b 0a37 a93b 36c3 923b
000002e0: 2093 9c3b 6ce2 a13b d2e3 a53b f74d ac3b
000002f0: 78d6 ed3b 247c c93b 9d4d af3b 6974 aa3b
00000300: b7f1 be3b 99dc bc3b 416b d63b 65e9 0d3c
00000310: 2bab 823c 593e 7f3c 0ebc a03c 71b4 813c
00000320: ce86 b03c 7787 9a3c c2b3 9a3c 5d31 283c
00000330: 3c1d 153c 6aee 2d3c dfdd 3c3c 25ac 2d3c
00000340: 7b80 463c 5419 213c 2001 f43b 28eb f03b
00000350: 7a71 263c 2b39 5b3c dad8 5b3c 3869 6d3c
00000360: be0a 573c 5b53 d43c 9362 0b3d f393 323d
00000370: b255 293b 4c6c ed3c 5aed 0d3d cc80 c63c
00000380: fefb f43b a3ef da3b 1e7e 173c eecc 0b3c
00000390: bf0b 133c db3e 183c 0133 133c cd3a 1f3c
000003a0: 37ff 3d3c c011 743c b732 793c 812b 843c
000003b0: bc7a 8e3c 5825 853c 4e70 5c3c 561d 923c
000003c0: c80d 663c 29be ab3c ef9b 763c ad54 923c
000003d0: 74b6 693c 10d1 f53b bcc4 143c 1a95 063c
000003e0: 1920 4b3c fef6 153c 9524 4e3c cb78 103c
000003f0: 5177 e73b 243b f03b eb09 e43b e7e7 103c
0.011066728 0.0149713345 0.015691256 0.015527769 0.015737915 0.017277876 0.015502795 0.021904029
0.027656352 0.022429943 0.020874836 0.019441882 0.022838082 0.015401193 0.011479955 0.011485708
0.012640493 0.005219517 0.0071450477 0.006139333 0.005728708 0.029457882 0.03265382 0.029913431
0.0059810774 0.053077377 0.043933336 0.03473297 0.026282037 0.024144053 0.021572806 0.017126305
0.021839302 0.01710426 0.01522661 0.0057356665 0.005465074 0.0054138904 0.0069014584 0.0068763853
0.0068041813 0.007660956 0.014850852 0.018400703 0.021107676 0.020636026 0.019973697 0.020686913
0.020814124 0.019770605 0.01870745 0.021183457 0.021397058 0.022080561 0.017170653 0.022233143
0.0158942 0.015060099 0.015817856 0.016156118 0.013995174 0.015142143 0.015674753 0.01156917
0.014480442 0.013364894 0.012432242 0.012924749 0.011361521 0.01223174 0.029444654 0.03928604
0.028767405 0.006115473 0.056106545 0.03327601 0.029966544 0.016319955 0.014825462 0.013940273
0.014367613 0.0120645575 0.010817094 0.0110185705 0.011953479 0.012424786 0.012327445 0.014249874
0.0124913575 0.014360462 0.014903845 0.018788978 0.028636321 0.01937316 0.0277151 0.020260017
0.021553611 0.021977667 0.010426394 0.008363685 0.0067274463 0.0072739385 0.006047575 0.006842787
0.008001369 0.008152409 0.006499726 0.0049500344 0.0041994187 0.004541705 0.004900286 0.0064083864
0.008315014 0.006522426 0.005221993 0.005801234 0.0049862782 0.006311787 0.009563475 0.009696397
0.0061883708 0.0030530524 0.005573207 0.004042051 0.00672083 0.007263124 0.005256483 0.003966409
0.002692086 0.0045909313 0.0025668414 0.0051984414 0.0062443255 0.008048527 0.0066080224 0.008064352
0.0063270587 0.0074968436 0.0071828705 0.009685882 0.009439598 0.007289818 0.008170884 0.005910111
0.0070999525 0.007337188 0.009527805 0.009952991 0.008452346 0.0075779753 0.0072510373 0.006510783
0.006695189 0.008032556 0.0076314406 0.007132052 0.006205879 0.0054053254 0.004787384 0.0058096065
0.006169269 0.0053405142 0.0054588728 0.0032541705 0.0037232516 0.003977784 0.0048499946 0.006035656
0.0049732337 0.0041730544 0.0047834464 0.004277807 0.0037845245 0.0045282096 0.005950289 0.005167959
0.0056650885 0.004897138 0.0027072318 0.005954129 0.004495996 0.0068657 0.005164032 0.0044788374
0.004778281 0.0049403217 0.0050625587 0.0052583176 0.0072582327 0.006148832 0.0053498284 0.0052018655
0.0058271545 0.005763602 0.0065435474 0.008661603 0.01595076 0.01557883 0.019620921 0.015833111
0.021548655 0.018863423 0.018884543 0.010265675 0.009101208 0.010615924 0.011527508 0.0106001245
0.012115593 0.009832699 0.007446423 0.0073522516 0.010158891 0.013380329 0.013418401 0.014490418
0.01312512 0.025918653 0.034029555 0.043598127 0.0025838432 0.028982304 0.034650184 0.024231337
0.007476329 0.006681399 0.009246377 0.008532746 0.008974968 0.00929233 0.008984328 0.009718609
0.0115964925 0.01489681 0.015209845 0.016134026 0.017392509 0.016253158 0.01345451 0.017836254
0.014041372 0.020964699 0.015051826 0.017862642 0.014264692 0.007501729 0.009080108 0.0082142595
0.012397789 0.009153126 0.012581964 0.008817862 0.007063784 0.007331269 0.00695919 0.008844352

exp_avg f4 [32, 8, 7, 7]
00000000: 73cd 7c39 880f 7c3b 0e7b 8e3b f875 493a
00000010: 1424 8f3b 0577 a739 6e74 9239 4f88 e63a
00000020: ac00 283b 9666 263b e957 8f3a 2ca9 5a3b
00000030: 2843 5d39 eca6 323a 6791 a8ba bcbf b23a
00000040: cc63 4ebb 0c95 ec3a 7cb0 b639 0c5c db39
00000050: b047 89b9 0858 18bb 40dc 5f39 e600 40ba
00000060: d328 8b3b 06f9 19ba 9cdb f33a adb2 5fbb
00000070: 9df5 8c3a 5641 c7ba 7925 433b aa9e 623b
00000080: 6e7f 163b f303 00b9 55ad ecb9 bc09 063b
00000090: 1d88 f33a 3317 673b 1b58 993a 8c67 253b
000000a0: 0fee 86ba 99c1 863a 0192 1abb f0bd 3a39
000000b0: ea92 3bba 5a1b 8eb9 4a35 923a 0883 06ba
000000c0: 21f4 c2ba d351 14bb 344e 6f3a f268 123b
000000d0: 9457 893a 0f5b 993b 0adb 2f3b 0611 3dba
000000e0: 8c30 9ebb 8168 50ba 9baf 8eba afa1 b63a
000000f0: 3476 013b a16b 0e39 0ba4 a2ba b655 bdba
00000100: 892c 80bb d5b8 b5bb 0a44 2aba 88fa 893b
00000110: 8e6f bd3a ece8 993a c81e 3cba 7c8d 0a3b
00000120: 069e 4fb9 c89b b43a cdb4 123b 7623 963a
00000130: e875 2bbb f04d 27b7 a84b 9539 fc5f 6e3b
00000140: 150c 933b 8788 ae3b eb44 2f38 0098 22bb
00000150: e93f 3d38 d868 463b beb3 4bba e17e 423b
00000160: af2d 823b dcbd 7a3a 7713 993a 1377 c2ba
00000170: 6e18 d939 b2ca 2dbb 50f5 77bb abaf 0ab9
00000180: fc12 cdba c47b 30bb fc2b 34ba 6529 2d3a
00000190: c716 94ba fbb0 88ba e657 daba 3888 23b9
000001a0: 6e82 56ba dfcc 32ba 35f1 72b9 b830 d239
000001b0: 2792 6dba 87b1 4cbb 11b9 59bb 91e5 75ba
000001c0: 263e f5ba b5d0 94b9 9e8f 7939 4ff6 1f3a
000001d0: 8118 a5b9 8868 fbb9 f315 b1ba 6634 fc3a
000001e0: 1e6e 7b3a a31d 2dba 4b7b a5ba bbd1 8dba
000001f0: fc21 bdb9 af8c 8839 3773 8a3a 5d30 a13a
00000200: 09a8 e9ba 375f 97ba ff83 51bb 0f58 8bba
00000210: d607 8a39 f432 283a e4c5 a83b bce0 5a3b
00000220: a06e 603b 2785 113b c574 a33a 6de1 7b3a
00000230: 1cec 4ebb 2f1a 3fbb 7fb8 3cbb ffb5 1cbb
00000240: 7e7d 2c3a b15a 0d3b 8d34 2e39 f0a3 88b8
00000250: e923 203a cbe7 7a3a 6e2e 2a3a d91c d6b9
00000260: 9634 cf3a 5f32 17b8 d659 b03a a362 2a3a
00000270: 31fe ed3a cd4c c13a 0de6 5739 d24b e83a
00000280: 443e 9c3a 55bf 6f3a ca40 4bba c5aa 8439
00000290: dd5a dab9 43c3 76ba 5460 80b9 bd5f a33a
000002a0: e43d 4bba 4270 4c3a 0279 e839 22d8 51ba
000002b0: 5978 4bba 4dcf 783a 8448 a439 f206 27ba
000002c0: c4fe 8eba d3b5 e03a 3782 0e3a ab28 0d37
000002d0: f2f3 263b 961a 0c3b 6558 b239 bb15 c43a
000002e0: f120 92ba ee1e f13a ffbe 163b f37d 5c3b
000002f0: 5a27 8e3b 5980 303a 9f29 5039 ea01 27ba
00000300: d644 09bb a26f bbb9 80ec 6b3a b43a d33a
00000310: 07b7 e339 7d2e 4f39 55bb 2c3b 22c9 2339
00000320: e3d8 543b ca9f 553b 5d94 303a 2f40 75bb
00000330: e725 4ebb 20d1 f239 6107 acba e0bb bcb8
00000340: 24db 603a 5788 11bb a4af e53a 3db2 a2ba
00000350: 3a4d 45bb 9079 25bb a058 5e39 8096 61b9
00000360: 0dd0 6f3b e82a 283b 9822 803b bd7f dcba
00000370: 2373 75ba ac9e cdba 13dd 943a da34 19b9
00000380: 3b41 3a3b 2ab3 8c38 a48a 80b7 708c 173b
00000390: 441a 1b3b 44bc 2a3b 475a d53a 6098 8b3a
000003a0: 7f29 6eba e8b2 34bb 582e 8439 4e63 1d3b
000003b0: 16c0 0e39 6b22 06b9 c620 b63a 2a73 143a
000003c0: 1e75 8dba aca5 4fbb 151e 85ba 2941 47ba
000003d0: 255e 9239 2bf2 253b cd13 333a 7fbd 0a3b
000003e0: 04a6 8539 2e6c 98ba 4e2f 083b 84d4 c339
000003f0: 77e8 8e3a 39cb b93a f043 a8ba d16b c639
0.00024109129 0.0038461406 0.0043481654 0.000768512 0.0043683145 0.000319414 0.00027934037 0.001758823
0.0025635166 0.0025390736 0.0010936233 0.0033364994 0.0002110122 0.00068150344 -0.0012860716 0.0013637464
-0.003149259 0.001804979 0.00034845236 0.00041839515 -0.00026184088 -0.002324583 0.00021348987 -0.00073243526
0.00424681 -0.0005873594 0.0018604877 -0.0034133599 0.0010754351 -0.0015201967 0.0029776974 0.0034579434
0.0022964138 -0.00012208502 -0.0004514257 0.002045258 0.0018579994 0.003526163 0.0011699231 0.002523872
-0.0010294336 0.0010281085 -0.002358556 0.000178091 -0.0007155376 -0.0002710473 0.0011154797 -0.00051312195
-0.0014873781 -0.002263178 0.00091287796 0.0022340384 0.0010478371 0.0046800445 0.0026833438 -0.00072123145
-0.0048275646 -0.00079501426 -0.0010886075 0.0013933684 0.0019754292 0.0001358227 -0.0012408508 -0.00144451
-0.003911559 -0.0055457153 -0.0006495124 0.004210774 0.0014452802 0.001174239 -0.00071762176 0.002114146
-0.00019799927 0.0013779337 0.0022385598 0.001145466 -0.0026162807 -9.972122e-06 0.00028475863 0.003637313
0.0044875243 0.005326334 4.1787436e-05 -0.0024809837 4.5120632e-05 0.0030274894 -0.0007770619 0.0029677677
0.003972731 0.00095650344 0.0011678775 -0.0014836512 0.00041407667 -0.002651852 -0.0037835427 -0.00013226147
-0.0015645917 -0.0026929239 -0.0006873009 0.00066055945 -0.0011298292 -0.0010428721 -0.0016658276 -0.00015595637
-0.00081828877 -0.00068206893 -0.00023168775 0.0004009062 -0.0009062611 -0.0031233744 -0.003322188 -0.00093802164
-0.0018710538 -0.0002838426 0.00023799992 0.00061020715 -0.0003148951 -0.00047952333 -0.001351057 0.001924169
0.0009591299 -0.00066038425 -0.0012625245 -0.0010819951 -0.0003607421 0.0002604476 0.0010562901 0.0012297739
-0.0017826568 -0.0011548762 -0.0031969545 -0.0010631102 0.0002632725 0.0006416284 0.0051505435 0.0033398112
0.0034245625 0.002220461 0.0012470713 0.0009608481 -0.0031573838 -0.0029159894 -0.0028796492 -0.002391219
0.0006579979 0.002156895 0.0001661351 -6.515521e-05 0.00061088667 0.0009571283 0.0006491904 -0.00040838754
0.0015808519 -3.6048117e-05 0.0013454508 0.00064996834 0.001815742 0.001474762 0.00020589698 0.0017722792
0.0011920412 0.0009145637 -0.000775349 0.00025304235 -0.000416479 -0.00094132515 -0.00024485833 0.0012464445
-0.0007753058 0.000779871 0.00044340646 -0.00080049236 -0.00077617686 0.00094913394 0.00031334546 -0.00063715794
-0.0010909666 0.0017144032 0.00054362736 8.413724e-06 0.0025474993 0.002137815 0.00034016665 0.001496009
-0.0011148733 0.0018396059 0.0023002026 0.0033644408 0.004338187 0.00067329925 0.00019851931 -0.00063708297
-0.002094557 -0.00035750592 0.000899978 0.0016115517 0.0004343318 0.00019758377 0.0026356776 0.00015619819
0.0032477907 0.0032596462 0.0006735975 -0.003742229 -0.0031455697 0.00046313647 -0.0013124758 -8.999533e-05
0.00085775764 -0.002220651 0.0017523658 -0.0012412738 -0.0030105845 -0.002524946 0.00021204585 -0.00021513738
0.0036592514 0.002566034 0.003910374 -0.0016822737 -0.0009363165 -0.0015687547 0.0011357389 -0.00014610906
0.0028420228 6.709092e-05 -1.5323349e-05 0.0023124479 0.0023666779 0.0026052156 0.0016277515 0.001065027
-0.0009085163 -0.0027572457 0.0002521153 0.002401549 0.00013613733 -0.00012792058 0.0013895265 0.0005662913
-0.001079235 -0.0031684441 -0.001015606 -0.0007600957 0.00027917433 0.0025321345 0.00068312587 0.0021170077
0.00025491428 -0.001162892 0.002078015 0.00037351635 0.001090302 0.0014174945 -0.001283763 0.00037845832
