trained_models/Sigma_25_t_30/checkpoints/checkpoint_5.pth (torch, 173091 bytes, 10 tensors)

conv_layer.conv_layers.0.parametrizations.weight.original f4 [8, 1, 7, 7]
00000000: 4e96 c73c 4644 eb3d 31ba 69bb 83d4 633e
00000010: 322d 5bbd 3b03 02bd 364a b3bc a0d5 513d
00000020: 79c2 1b3e 8694 e4bd 7458 8a3e d388 523d
00000030: 5499 303e db3f e9bc 48bb ac3c ccf1 2abd
00000040: 314d 3b3e 908d 683e 70c0 07bd 5c54 c13c
00000050: 595b dcbd e39e 82bc 8bb2 55bd 6520 583e
00000060: e37c 02bf b8d0 62bd 8cf2 42bd 00ad 11bd
00000070: aefd 903a c77d 2dbe 66b6 253e 9b94 79be
00000080: 2e6a 3a3e 7ca0 063e 221a 9bbc 8ae2 023e
00000090: c219 b73d 942f 4e3d ac39 693d 6e74 51bd
000000a0: 576f 1cbd d3b3 383d e594 afbc f8d5 823d
000000b0: 751b 863d 2810 a2bd e9ed 983d 02d2 e33c
000000c0: e308 7c3d cda3 b9bc d32d a7bd dc32 cfbc
000000d0: 7f92 17be 81fd e33d 1e11 703d cef0 e83b
000000e0: c472 203c 10ca 9ebb 8358 f43d 36f2 37be
000000f0: 5747 96bb 0693 1fbe ada7 463d 69b1 b7bd
00000100: f327 9abb 5d02 6dbd 231d 523e 213a 193d
00000110: c9b9 c4bd 7b54 a3bd 99b9 503e 22a2 f73d
00000120: 6573 863e 4e2b 10bf 7b2f 90be 79ef 28be
00000130: 23c2 05be df6c 133d 17bc 133d dc58 4e3e
00000140: 8e73 42bd 7fde 96bd 38e4 083e 687a 513c
00000150: 3d4d a23c 153a b3bd 9a47 da3d 8c2f 5abc
00000160: 0544 2ebb 54c8 083d 0982 ea3c 739b a0bd
00000170: cddd 043d 9a3a d03d f792 5dbd 7bd1 c7bb
00000180: 6562 933d b09a 31bc 5397 e5bc c4ca c7bd
00000190: 7490 0fbe 49b7 823d 20fd 6dbd 96e1 19be
000001a0: 9328 4cbd b081 cbbd ccf7 f8bd e5ca 74bd
000001b0: 65b4 80be a094 0ebe a696 503e 9b42 923d
000001c0: 62c4 663d 2256 ccbd 2e4a 56be e847 59bd
000001d0: a597 6b3d e7be 87be 152a 52bd 00c3 fabd
000001e0: 900e 373d 0cc8 d2bd 0b7d a63d 6861 bc3b
000001f0: 0569 05be 835a d1bd 39a6 afbd 88b1 47be
00000200: 98e2 4d3e 3334 8e3d 3412 703e a024 963d
00000210: 743c b9bd 1a18 ad3d 0864 1d3d b6be ffbb
00000220: 51c2 4cbe d6ef 08be 5270 cb3d 6a13 41bd
00000230: ab68 b5bc 9327 aebd 985b bc3d fea8 d2bd
00000240: 8407 803b a4c6 76bc 0817 21bd 917f 5d3d
00000250: 79ac 213e e95c f1bd 47cb 783d c5a7 d9bd
00000260: beec 87bb 2d58 c7bd f23d 973d d29a 84bd
00000270: ecf2 c43d 6251 fd3d 7d81 43bc 0819 54bd
00000280: cc59 f63d f572 0bbc 70b2 143d 0c14 15be
00000290: 25d3 e23d f370 90bd 464f d4bd 6e61 503e
000002a0: 0541 e3bc 5621 14be 5a42 50be 431a 86bd
000002b0: 49a5 1b3e 7d20 90bd 2a20 00be 8b5b 613d
000002c0: 685d 0fbe 8a9a 0c3e 9e01 913e d064 52be
000002d0: 307b a93d 0ee6 ad3d 1c48 0cbd af6c 82bd
000002e0: 8373 303d 257f fa3d 6a52 143e 944b c33c
000002f0: 87f8 a1bd 6936 6bbc bd19 a6bb 86eb 363b
00000300: 1921 cf3d df89 873d 31fb 0dbd d514 66bc
00000310: 891c f7bc 8630 a9bd b58e 853d b0bf 1d3d
00000320: 47dd 5bbd 1117 67bc e245 2b3d 948f 84bc
00000330: 5e81 bf3a 9947 94bd 676e 6abd d27f e6bd
00000340: 2838 34bd c4da 9d36 bad2 b83d 5295 0e3e
00000350: 18cb 1bbe dbbc debd 6d0d aa3d 99ef 5d3e
00000360: aea0 133d 459e bdbd 555e 483e b088 38be
00000370: c33e 33bf 7788 343e 2c18 13bd 2891 d73c
00000380: 2e9b 19be 40c0 a33d c27b 703e 2036 6e3e
00000390: fcef 49be 09dc 2fbe 154b a0bd a8ff ce3d
000003a0: 5cba 1cbd 6cfc e33d bd50 c43d d7ee 92bc
000003b0: 876a 44bd 4362 8cbd d13d 9bbd 5bca dfbd
000003c0: 2998 ae3d def2 c2bc de0f 4bbd 0b9e 39bd
000003d0: 4126 75bc 5fe0 85bd 2a8e 86bd 53fb 283d
000003e0: a89b 3abd 356a a03d 8f1e 8dbd 2500 fdbd
000003f0: d794 d4bc 6f44 d4bd 657f c0bd 17d7 eebd
0.024363663 0.114876315 -0.0035663957 0.22249036 -0.0535099 -0.031741362 -0.021885972 0.05122912
0.15210904 -0.11161141 0.2702061 0.051400017 0.1724599 -0.028472831 0.021085396 -0.0417345
0.18291165 0.22710252 -0.033142507 0.023599796 -0.10759611 -0.015944904 -0.052172225 0.21106108
-0.5097181 -0.05537483 -0.047594592 -0.035565376 0.001106193 -0.16942511 0.1618286 -0.24373095
0.18204567 0.13147157 -0.01893336 0.1278173 0.0894046 0.050338343 0.056939766 -0.051136427
-0.03819212 0.04509337 -0.021433303 0.063884676 0.06548206 -0.07913238 0.07467253 0.0278101
0.061531913 -0.022661114 -0.08163037 -0.025292806 -0.14801978 0.111323364 0.058610074 0.0071087843
0.009792987 -0.004845865 0.11930945 -0.1796349 -0.004586141 -0.15583429 0.04849975 -0.08969385
-0.0047044693 -0.057863582 0.20518927 0.03740895 -0.09605748 -0.07975098 0.203833 0.12091471
0.26259914 -0.5631608 -0.28161225 -0.16497602 -0.13062339 0.0359925 0.03606805 0.20151085
-0.047473483 -0.073666565 0.13368309 0.012785532 0.01981222 -0.08751313 0.10658188 -0.013317
-0.0026590836 0.033394173 0.028626459 -0.078421496 0.03243809 0.10167427 -0.054095235 -0.00609797
0.07196502 -0.010840103 -0.028026259 -0.09755471 -0.14019948 0.06382615 -0.058102727 -0.1502746
-0.049843382 -0.09936845 -0.121566385 -0.059763808 -0.2513763 -0.13923883 0.20369968 0.0714161
0.05633963 -0.09977366 -0.20926735 -0.05304709 0.057517666 -0.26512834 -0.051309664 -0.122442245
0.044691622 -0.10292062 0.08129319 0.0057489164 -0.13028343 -0.10222342 -0.08576626 -0.19501317
0.2010597 0.0694355 0.23444444 0.073312044 -0.09044734 0.08451863 0.038425475 -0.007804717
-0.19996001 -0.1337274 0.09933533 -0.047137655 -0.022144636 -0.08503642 0.091971576 -0.10286139
0.003907146 -0.015062008 -0.039328605 0.054076735 0.1578845 -0.11785299 0.060740735 -0.106277026
-0.004148095 -0.09733615 0.07384862 -0.06474842 0.09616646 0.12369038 -0.011932728 -0.051781684
0.12028846 -0.008511295 0.036302984 -0.14558429 0.11075429 -0.07052793 -0.10366683 0.20349666
-0.027740965 -0.14465842 -0.20337811 -0.06547978 0.1519977 -0.07037447 -0.1251227 0.055018943
-0.14000475 0.13730827 0.28321546 -0.2054627 0.08275449 0.08491145 -0.034248456 -0.06368386
0.04307891 0.12231282 0.14484563 0.02383975 -0.07908731 -0.014356234 -0.005068986 0.002791138
0.10113735 0.06618094 -0.034663383 -0.014043053 -0.030164974 -0.08261208 0.0652136 0.038512886
-0.053677823 -0.014104621 0.041814692 -0.016181745 0.0014610698 -0.07240219 -0.057234194 -0.112548485
-0.043998867 4.7044323e-06 0.09024568 0.13924149 -0.15214193 -0.10875865 0.08303342 0.2167343
0.036041908 -0.09258703 0.19567235 -0.18020892 -0.7001764 0.17630182 -0.035911724 0.026314333
-0.15000603 0.07995653 0.2348471 0.23262835 -0.19720453 -0.1717378 -0.07826821 0.10107356
-0.038263664 0.1113213 0.09585712 -0.017936153 -0.047953155 -0.068546794 -0.0758015 -0.10927268
0.08525116 -0.023797449 -0.04957568 -0.045316737 -0.014962734 -0.06536936 -0.065700844 0.041255306
-0.0455586 0.078327574 -0.06890594 -0.12353543 -0.025949879 -0.10364615 -0.093992986 -0.11662119

conv_layer.conv_layers.1.parametrizations.weight.original f4 [32, 8, 7, 7]
00000000: 8b84 6ebb 461f e0ba df9a 5ebd 46aa aa3b
00000010: f510 29bc 12e0 903c 0402 643d d251 a6bc
00000020: 297b adbc 0f50 783d 48a5 ec3c 1a6b 80bc
00000030: 62b6 bcbc f814 cfbd 179b 80bc 9299 ebbc
00000040: ab68 26be cbb6 e13d 650e 08bd 2397 bfbb
00000050: 7cd5 10bb f503 85ba c2ce e4bc 599c b53d
00000060: f00f 5fbe 9104 073e 8ddc 94bd 8d52 343d
00000070: 16a0 a5bb ebec 2f3c 6949 c0bd ff7d 063e
00000080: 1de6 0bbc 3bde df3c 8899 023c 54a2 673c
00000090: 87aa 163d 3fa6 f9bb 6da5 dc3d ca4d 8bbc
000000a0: 7551 5ebd 4ee0 af3c 89ab d93c 41ea 083d
000000b0: 868c cebb 8749 e5bd 8c18 3a3a 9bd4 acbb
000000c0: 9b79 84bc 416e 23ba 46a0 f63c c517 d23c
000000d0: b690 b8bb d384 61bc 30ea 32bd 1591 7a3c
000000e0: 9765 013b d237 bf3c a590 29bc d767 ab3c
000000f0: 92a4 febd e32a 043e b9ae 98bc 2e17 75bc
00000100: fdee dcbb 7872 053d bbd4 333e 3f7d adbc
00000110: fe75 95bd 0c72 a6bb 4395 4cbc ca2b d9bc
00000120: be53 da3c 6137 8ebe b3c1 a23d 6c9d d23d
00000130: 8d6c 0fbc fbd2 d73c 3014 9fbd a4ea 013e
00000140: ef3a f93d 863f 14be 599d a6bd e32f d33d
00000150: 5f59 723a 8007 d23d 8ac3 b5bd 61bc 743c
00000160: 8c3b 1f3c 987d 5cbd 7b6e f9bd f43d 78bd
00000170: c821 acbd b573 8b3c 86b3 2bbc a792 913d
00000180: ab68 bb3c c6a3 ec3c 743b 2fbd 5376 3f3c
00000190: 2122 73bc 87ed 5dbc a6a3 f4bc d2e0 1ebc
000001a0: 3ae6 5f3d f1ea 4f3d 3990 d5bd 2289 0cbd
000001b0: 5bfc 4d3c 5a9e 5dbb 0d19 753d dd4f 34bd
000001c0: 53d2 5a3d 4f84 933c 66bf aa3c e7df fcbc
000001d0: b2fc cdbd 7084 153c d170 f4bc 9b1d aabc
000001e0: 2f44 b3bc b2ba 9ebd 56dc 0cbd 2e29 343d
000001f0: 9ba4 423d 9a3a 993c da0d 3a3d aa3f 3c3c
00000200: 0ca2 61bc 0cf7 ce3d 202d 84bd a2bc 83bd
00000210: febe 023c f2af 92bd a877 8b3d e248 8a3d
00000220: 9121 b0bc 85fb 9a3d fdcd 373d 9524 1ebd
00000230: cde7 823d 5195 abbc 064e 96bc d9bd 5bbc
00000240: d0f1 76bd fa10 b7bc 989d 213d b834 7dbc
00000250: b0a9 4f3d 1910 993c 7f95 e6bb c6a6 c93b
00000260: 71b7 bbbc fb3c 2bba afec 9cb9 47f5 d7ba
00000270: fa26 e13c 968e 9abd f0ec 90bd 81f4 113d
00000280: f78b 5a3d 9b3f c03c 360a bebd 3d1f 683b
00000290: bbfc 3a3e e76f 6fbc 6e8c c2bc 647b a9bb
000002a0: 2ef0 213d e88d 783d c188 b03d af45 82be
000002b0: 6881 b63d d251 6f3d bc6f eabc 9fef 903c
000002c0: 7dbd 84bc 5343 3abd 2a12 6b3d a890 b8bd
000002d0: 3f72 80bd 226b 2e3d e522 b8bd 6be4 dfbc
000002e0: 75eb a1bd a640 a83d d0f0 d23b 688e 393b
000002f0: 2eea 0f3d 0b6b 353d f363 2e3d cfba 7d3d
00000300: e263 afbd 39c2 abbc fb04 13bd aff3 43bc
00000310: 5141 c43b ae5b 5d3c 1def a3bc b657 423b
00000320: 1398 8fba d2e4 8d3c 6981 203d c205 903b
00000330: 5721 2c3d f4fb c03c a8c4 98b9 3252 b8bd
00000340: c534 be3d 07dd b7bd 809d 0cbd e7f5 83bd
00000350: 557f 0e3d ac72 933e 795b 5abd 9929 1cbe
00000360: a9ee 963d 70bd 4fbb 9fb9 783d e15a 11be
00000370: 67c7 aebe d3b7 8d3e fa83 2c3e 2545 acba
00000380: c7c4 903c d30f a1bd 3dae f93d 5062 803d
00000390: 911d 01be 47a8 4a3d 9c06 543d 32ad e03c
000003a0: da56 ad3c a551 5cbd 8325 11bd 008d 733a
000003b0: 48dc 14bd b412 eebc 2ecd cdbc a4c8 9a3c
000003c0: 9964 13bd 441d b43c 397a b8bc 0a90 bc3d
000003d0: 8fde 09bd 4097 323c c6a0 813d 5add b83c
000003e0: 8fdb 0cbc cfd3 d8bc 5570 a4bb b305 0dbd
000003f0: e501 93bc 929a 333a 4443 2ebd 89bd 383c
-0.003639492 -0.0017099164 -0.054346915 0.0052082865 -0.010318984 0.01768497 0.055665985 -0.020302687
-0.021176891 0.060623225 0.028887406 -0.01567607 -0.023036186 -0.10111421 -0.015698953 -0.028759751
-0.16250865 0.11021193 -0.033216853 -0.0058468743 -0.0022099903 -0.0010148274 -0.027930621 0.088677116
-0.21783423 0.13185336 -0.07268629 0.04402404 -0.005054484 0.010737638 -0.09389002 0.13134001
-0.00853875 0.027327647 0.007971175 0.014137823 0.03678372 -0.007618695 0.1077374 -0.017004866
-0.054276902 0.021469261 0.026571052 0.033426527 -0.006303373 -0.11195665 0.00070989947 -0.005274368
-0.016171267 -0.00062343857 0.030105721 0.0256461 -0.0056324853 -0.013764578 -0.04368037 0.015293379
0.001974439 0.023342047 -0.010349427 0.020923538 -0.12433733 0.12906985 -0.018638002 -0.01495914
-0.006742357 0.03257987 0.17561619 -0.021177886 -0.07297896 -0.0050795134 -0.012486759 -0.026510138
0.02665126 -0.27776626 0.079471014 0.10283932 -0.008753908 0.02634572 -0.07767522 0.12687165
0.12169444 -0.14477357 -0.081354804 0.10311868 0.0009244885 0.10255337 -0.08875187 0.014937491
0.009718787 -0.053830713 -0.121792756 -0.060605958 -0.08404881 0.017022947 -0.010479813 0.0710805
0.022877058 0.028886687 -0.04278131 0.011685926 -0.01483968 -0.0135454 -0.02986319 -0.009697156
0.05466292 0.050761167 -0.10427899 -0.034310468 0.012572373 -0.0033816309 0.059838343 -0.044021476
0.053423237 0.018007426 0.020843219 -0.030868484 -0.100579634 0.009125814 -0.029838951 -0.02076607
-0.021883098 -0.07750453 -0.034389816 0.043984585 0.04752026 0.018704701 0.045423366 0.011489788
-0.013771545 0.10105714 -0.064539194 -0.06432463 0.007980106 -0.07162465 0.06809932 0.067521825
-0.02150038 0.07567505 0.04487418 -0.038609106 0.06391869 -0.020945223 -0.018347751 -0.013411962
-0.060289204 -0.022346962 0.039456934 -0.015454464 0.050698936 0.018684434 -0.0070368643 0.006153914
-0.02291462 -0.0006532219 -0.00029930982 -0.0016476297 0.027484406 -0.07546727 -0.07076442 0.035633568
0.053356137 0.02346783 -0.09279291 0.003541901 0.18260472 -0.014614082 -0.023748603 -0.00517218
0.039535694 0.060682207 0.08619834 -0.2544379 0.08911401 0.05842764 -0.028617732 0.017692385
-0.016203636 -0.04547436 0.05739037 -0.09011966 -0.06271791 0.04258264 -0.089910306 -0.027330598
-0.07906238 0.08215456 0.0064373985 0.002831364 0.03513544 0.044291537 0.042575788 0.061945733
-0.08563973 -0.020966636 -0.03589342 -0.011959954 0.0059892316 0.013510628 -0.020011479 0.002965433
-0.0010955356 0.017321024 0.039185915 0.0043952176 0.042023983 0.02355764 -0.0002913822 -0.090000525
0.09287409 -0.089777045 -0.03432989 -0.064433865 0.034789402 0.28798425 -0.05330989 -0.15250243
0.073697396 -0.0031698607 0.060723897 -0.14194824 -0.34136507 0.2767931 0.1684722 -0.0013143165
0.017671956 -0.07864346 0.121914364 0.062687516 -0.12608935 0.049476888 0.051764116 0.027426336
0.021159578 -0.0537888 -0.035436165 0.0009290725 -0.03634289 -0.029061653 -0.025122251 0.018894501
-0.03598461 0.021986611 -0.022519218 0.09207161 -0.033659514 0.010900319 0.06329493 0.022566486
-0.008597269 -0.026468186 -0.005018274 -0.034429263 -0.01794524 0.0006851341 -0.04254462 0.011275657

activation.coefficients_vect f4 [672]
00000000: 0000 0080 aa78 123a 070c 2239 fe70 5238
00000010: e453 cab8 7e20 20b9 88df 36b9 e5e1 a4b9
00000020: d0ac d7b9 5c16 03ba 6dd9 5a39 4469 5c3a
00000030: 741c 2439 58d2 2039 128e e038 fe2f a538
00000040: b0e4 9138 6af8 3b38 a9a4 afb8 6257 8fb9
00000050: 0000 0000 0000 0080 5529 de39 3aab 5a39
00000060: 685f a1b8 24f1 cdb8 89f9 11b9 2fcb 35b9
00000070: e86a 84b9 b2e5 20ba f907 5aba 8c76 c8b9
00000080: 9136 6d38 56b5 7d36 c28e 92b7 a879 d2b8
00000090: e7bd f2b9 55f0 61ba af45 a4ba f27b d9ba
000000a0: a21e 36bb 0000 0000 0000 0080 3afa 103a
000000b0: 2551 c039 0f16 aa38 202e 9438 5c15 acb8
000000c0: d4fc f9b8 493f 73b9 ee8b b6b9 ee88 09ba
000000d0: 8db0 2d39 78eb 503a f63a bb39 8027 6639
000000e0: 717e 4e39 4ecd bf38 8c16 8e37 aae0 8eb8
000000f0: 95ea b5b8 1a3d 7fb9 0000 0000 0000 0080
00000100: 63cb 1e3b 7520 f03a e302 183a f8e6 e839
00000110: 4a22 a639 b299 9839 baf8 85b8 129d 73b9
00000120: a7de a0b9 d1dc f5b7 7607 7e39 c8f0 0e39
00000130: 7c85 a638 9366 87b7 fa2f bdb9 319c 16ba
00000140: 8b19 96ba 6f1b 9fba 4a43 acba 0000 0000
00000150: 0000 0080 aa5a 2e3b 2f18 b93a e958 4a3a
00000160: de12 493a c5e5 013a 1af1 dd39 18e4 a838
00000170: 34a8 ba37 8d60 e3b8 77dd f538 5c45 b439
00000180: c571 9b39 df1e 8e38 1588 85b7 f5e2 86b9
00000190: abd8 e0b9 525a 8aba 16ac a5ba 1850 feba
000001a0: 0000 0000 0000 0080 28f0 bb3a 9b62 9e3a
000001b0: b387 613a 227b 293a d43b 153a 2deb 113a
000001c0: 5835 5139 1924 f738 e434 c436 1857 76b8
000001d0: 0c72 ecb8 4915 3db9 4846 a8b9 89cd f2b9
000001e0: 2565 f7b9 44a0 23ba 8cd6 31ba 0001 8bba
000001f0: ebb4 aaba 0000 0000 0000 0080 184d 3539
00000200: c7f6 a938 3815 8738 fb04 0138 e8c7 9ab8
00000210: 2398 ecb8 d0e3 1bb9 9ce2 3bb9 47cd 12ba
00000220: 8ee5 0ab6 fb49 123a 1181 de39 0050 ba39
00000230: e158 4239 fc7f 2539 48e7 1539 25d3 d738
00000240: 5817 8238 73f2 38b9 0000 0000 0000 0080
00000250: f861 1b3b f843 cf3a ea8b ad3a 7772 663a
00000260: 72ca 3f3a 6543 df39 f747 3b39 8abb e638
00000270: a373 2037 21e2 4339 4a81 c839 e859 9f39
00000280: c446 9539 e88a f8b9 66a8 19ba c8e6 72ba
00000290: 1e74 d1ba 9f96 faba b289 1dbb 0000 0000
000002a0: 0000 0080 8924 8339 c6d8 d138 bffb 94b8
000002b0: c272 3bb9 0323 95b9 baf3 a7b9 c344 1fba
000002c0: 22f9 1cb9 f591 3a39 ed3f 58b8 c679 fd39
000002d0: 7f37 7739 f6e3 1339 87d4 7638 ecce b236
000002e0: 38e8 8db6 b244 95b9 94c6 9db9 2f95 e8b9
000002f0: 0000 0000 0000 0080 f5f1 033b 9753 c03a
00000300: ee91 613a d8f0 4a3a b336 c939 df42 9a39
00000310: db21 2939 48f2 d437 8124 deb8 2305 ae39
00000320: 4171 4a3a ae94 bd39 7b6d 4539 b74b 1f39
00000330: 3553 1939 bd3a 9736 e212 2ab8 c841 2cb9
00000340: 901c 50b9 0000 0000 0000 0080 7353 483a
00000350: f1e0 1b3a e3a1 d639 1596 cf39 67b1 2038
00000360: ab76 0a37 b9fc 3db8 8c4c dbb8 8b62 55b9
00000370: dfab 0838 02b5 8a39 64ca 4a39 4e01 4939
00000380: 9d11 4c38 c503 1438 ff8c 89b8 36c5 0aba
00000390: b3ee 39ba aecf 47ba 0000 0000 0000 0080
000003a0: 3fc5 de3a cdad 323a 8108 f539 6278 cf38
000003b0: cf3f 38b9 eb45 87b9 485c a2b9 f3b3 d0b9
000003c0: 57c5 41ba d7d4 25b9 5ac1 c239 60dc 8139
000003d0: ebdb 3239 c989 e238 3611 9c38 9632 2c38
000003e0: d132 89b7 aa54 49b9 8661 d1b9 0000 0000
000003f0: 0000 0080 6c06 0f3b b1dd 093b 48ce bc3a
-0.0 0.00055874384 0.00015454004 5.0173134e-05 -9.6477364e-05 -0.00015270893 -0.00017440144 -0.00031448822
-0.0004113675 -0.0005000585 0.00020871098 0.000840802 0.00015650858 0.00015337148 0.00010707615 7.876752e-05
6.956735e-05 4.4815628e-05 -8.3753206e-05 -0.0002734019 0.0 -0.0 0.00042373934 0.00020853887
-7.694849e-05 -9.820078e-05 -0.00013921237 -0.00017337197 -0.00025256653 -0.0006137743 -0.0008317228 -0.00038235297
5.6556022e-05 3.780549e-06 -1.7471033e-05 -0.000100362406 -0.00046299325 -0.0008618881 -0.0012532974 -0.0016592725
-0.0027789255 0.0 -0.0 0.0005530451 0.0003668155 8.1103404e-05 7.0657814e-05 -8.2055776e-05
-0.00011920338 -0.00023197861 -0.00034818 -0.00052465394 0.00016564336 0.0007969658 0.0003571135 0.00021949224
0.00019692794 9.145831e-05 1.6938218e-05 -6.8129346e-05 -8.674447e-05 -0.00024341457 0.0 -0.0
0.0024230115 0.001832022 0.000579877 0.00044422573 0.00031687535 0.0002910621 -6.388263e-05 -0.00023232799
-0.00030683467 -2.9309102e-05 0.00024226107 0.00013631873 7.94036e-05 -1.6141019e-05 -0.00036084634 -0.000574532
-0.0011451704 -0.0012138913 -0.0013142612 0.0 -0.0 0.0026604333 0.0014121587 0.0007718937
0.0007670353 0.0004955198 0.0004233204 8.05335e-05 2.2251254e-05 -0.000108421875 0.000117237614 0.00034383952
0.0002964867 6.776838e-05 -1.5918204e-05 -0.00025727568 -0.0004288604 -0.0010555482 -0.0012639787 -0.0019402532
0.0 -0.0 0.001433854 0.001208383 0.00086032896 0.00064651866 0.0005692814 0.0005566355
0.00019951665 0.000117846015 5.8474125e-06 -5.8732083e-05 -0.000112746 -0.00018032374 -0.0003209582 -0.00046310973
-0.0004718687 -0.0006241838 -0.0006783984 -0.0010605156 -0.0013023888 0.0 -0.0 0.00017290225
8.104514e-05 6.441254e-05 3.0760635e-05 -7.380528e-05 -0.000112816946 -0.00014866819 -0.00017918128 -0.0005600047
-2.069722e-06 0.0005580482 0.00042439302 0.0003553629 0.00018534392 0.00015783304 0.00014295906 0.000102913276
6.203231e-05 -0.00017637927 0.0 -0.0 0.0023709517 0.0015813103 0.001324055 0.00087908603
0.00073162385 0.00042584087 0.00017860519 0.000110021865 9.563667e-06 0.00018680889 0.000382433 0.0003039383
0.0002847222 -0.0004740574 -0.000586158 -0.00092659565 -0.001598004 -0.0019118375 -0.0024038372 0.0
-0.0 0.00025013488 0.00010006274 -7.104081e-05 -0.0001787646 -0.0002844558 -0.00032034313 -0.0006075615
-0.00014970129 0.00017792716 -5.155795e-05 0.0004834665 0.0002357643 0.00014103935 5.8848902e-05 5.3289023e-06
-4.2291613e-06 -0.00028470677 -0.00030093326 -0.0004436164 0.0 -0.0 0.0020133231 0.0014673349
0.0008604814 0.0007741577 0.00038378462 0.00029422992 0.00016129708 2.538519e-05 -0.00010592584 0.00033191693
0.00077225646 0.00036159664 0.00018828169 0.00015191628 0.00014622214 4.5069887e-06 -4.0548744e-05 -0.00016427704
-0.00019847066 0.0 -0.0 0.00076418294 0.00059462996 0.00040937876 0.00039593937 3.831219e-05
8.2530705e-06 -4.5296478e-05 -0.00010456992 -0.00020349973 3.2584994e-05 0.00026456272 0.00019339618 0.0001916934
4.8653794e-05 3.528946e-05 -6.558932e-05 -0.0005293669 -0.0007092759 -0.0007622194 0.0 -0.0
0.001699604 0.00068160595 0.00046736377 9.892952e-05 -0.00017571378 -0.000258013 -0.00030967803 -0.00039806924
-0.00073917717 -0.00015814915 0.00037146622 0.0002476899 0.00017057329 0.00010802184 7.4418655e-05 4.1055107e-05
-1.6355336e-05 -0.00019200394 -0.00039936247 0.0 -0.0 0.0021823896 0.002103668 0.0014404738

u f4 [1, 1, 20, 20]
00000000: e070 92bb 1842 3abb c462 073c c077 c5bb
00000010: d90d bd3c 60f1 3abc 8066 123a 0e35 14bc
00000020: a8d0 9b3b a06b 21bd 78e9 fa3c a0b8 47bb
00000030: 6f2e 9e3c 806d 9e3b a891 ec3b 28aa 6ebc
00000040: d082 98bb 366a 92bc 0ca8 533c 3656 a53b
00000050: 9bc0 47bc 74ca b63c be0e bbbc 5a08 823c
00000060: 58a5 fcbc 0865 4f3d e0f8 7d3c 2556 e5bc
00000070: 40d4 973c eb19 d13c b4d1 45bd 8b2a 8bbd
00000080: 5a89 1e3d c000 d6bb 5058 a93a 28d8 853c
00000090: 3d53 9a3d 3d93 bcbc 4461 2ebd 604a 003c
000000a0: a2ed 0b3d e881 04bd 4865 533c d05e 51bb
000000b0: 99bf 18bc 80cb 81bd 7212 2cbd 78c7 dd3c
000000c0: 6ea1 473d 805f 0f3b bcee 013d 3095 e53d
000000d0: 0ea6 97bc bea4 ecbd 301c af3b f861 f0bb
000000e0: fd29 b8bd a443 9e3c bf07 ad3d 1e10 1cbd
000000f0: 5999 0ebd bf84 1f3c 243e c13c 6453 8d3b
00000100: af87 c03c 8546 713d c646 233d 0095 8439
00000110: 7e84 0ebe 0a22 30bd 622c 173d 0a25 cabd
00000120: e4d2 c6bc 622a 503e a2be ee3c 0c93 38bc
00000130: 7824 9d3b 9cc7 0d3b 8e44 fdbc dd26 ee3c
00000140: 508e 4d3c 8c90 293d e806 a1bd c757 14bc
00000150: 5d66 4cbd 3cab 0b3d b890 72bd 08bd df3c
00000160: 3016 093e f210 f63d fc4a 1ebe ea9e 503d
00000170: 3cd5 95bb 2756 e3bd c0ec 03be c6c5 7a3d
00000180: b08d d43d 7dfe d7bb 780a f4bd d8c2 003d
00000190: 4ef9 923c 666c 78bd f4a2 763d f5a5 923d
000001a0: 04b0 10bc 3567 0bbd b700 a1bd a81c 933d
000001b0: 528c 38be ae96 1bbd f922 b33d a8c7 3e3e
000001c0: 40bb 71bd 6a3f fb3c b27a c73d c0ff efbc
000001d0: 55bb 7abe ba8d 4a3d 63e7 623e 3ce9 a9bd
000001e0: 60ec 75bd cd1c 9c3d 346a 5cbd c3ec ccbc
000001f0: 86cc e7bc 1261 0f3e f052 913d 2875 333b
00000200: 3ed2 16bd ba14 e73d ba5c 1cbe 6292 55be
00000210: 2220 61bd 6850 503e bf51 03be 66e3 ce3d
00000220: b949 4f3e 634a 61bc ac50 77be 304f c83d
00000230: 48de 983d 5272 cbbc 901c 0cbd 48e4 033d
00000240: d07f 49bd b4ec 9cbd 6c66 39be 8a12 983d
00000250: b2d0 ed3d c046 de3c 00c6 793a b865 933e
00000260: de59 e0ba 10b4 66be baa6 b8bc 9ff8 58bd
00000270: 6ed5 e4bd c53a 493c 6291 af3d 6178 0cbd
00000280: 1eae 9bbd 40c2 5538 1357 533d be0e 803d
00000290: bcba ce3b 54ee b73d 6c1a d13d 350d 1a3c
000002a0: e4dd 98be f2cb 08bd 8feb c13c 8654 05be
000002b0: 2b5d e9bc 3c42 7c3e f2d5 d73d 27bb 2b3d
000002c0: b655 c6bd 225d 8e3c 3954 0c3e ec74 85bd
000002d0: acae 133d d066 423d 8552 bcbd f78e c2bd
000002e0: d4a4 a0bc 4f6b dd3c d616 7fbd 48b7 763c
000002f0: 3667 803e 4916 f73d e838 04be 2640 6e3b
00000300: 6e07 1abd a702 e3bd fcd3 4fbe 3e60 153d
00000310: bbc1 6e3e a66b 6cbb 0a77 a6be c508 1b3e
00000320: fef8 b13c 9247 8fbd 938f 9a3d c1e5 f23d
00000330: 2cbc 823b 3021 e7bd 5cd9 2fbd f215 d2bc
00000340: 7ab8 eabd 1ade 05be b0e6 323e 0c94 1e3e
00000350: 80bd 483d 9843 d9bc 81aa 493e 1ef1 fcbd
00000360: 2aa0 6abe 7801 09bd d40b b13e 042e 20be
00000370: 5859 86bd 2bd5 2c3d caa2 85bb cebc cdbd
00000380: 1e6b 2b3d 7e34 c93d ceea 3f3e bd2b f2bc
00000390: 14ed 913b cee9 133d 082e 05be c040 99be
000003a0: 22f6 a93c ce43 a33d 0453 41bd d351 113e
000003b0: 7fb4 0d3e 2c92 913c 78d5 19be dab6 6e3d
000003c0: 238f c33d 1d8d f5bc 88ae 42bc f254 04bd
000003d0: 6ab1 06bc ca38 09be 3934 13be 5ac2 9abc
000003e0: 8860 503e a8c9 46bd bb54 213e 6c1b 5a3e
000003f0: 5dc1 4e3c beb3 1fbe c89d 9cbd 80a6 15be
-0.004469022 -0.0028420743 0.008263294 -0.006026238 0.023077892 -0.011410087 0.00055847317 -0.009045852
0.0047550984 -0.03940928 0.030628905 -0.0030475035 0.01930925 0.0048348308 0.007219512 -0.014566936
-0.004654266 -0.017872911 0.0129184835 0.0050456775 -0.012191917 0.022313334 -0.022834178 0.015873123
-0.03084056 0.05063346 0.015501231 -0.027995178 0.018533826 0.025525054 -0.04829569 -0.06795224
0.038705207 -0.006530851 0.0012919996 0.016338423 0.07535408 -0.023019427 -0.04257323 0.007830232
0.03416217 -0.03235045 0.012902565 -0.0031947382 -0.009323024 -0.06337643 -0.04200978 0.027072653
0.048737936 0.002187699 0.031721815 0.11210096 -0.018511798 -0.115548596 0.0053439364 -0.0073358975
-0.08992384 0.019319363 0.08448743 -0.038101308 -0.034814212 0.009736239 0.023589201 0.0043129195
0.023502199 0.058905143 0.039862417 0.00025288016 -0.1391773 -0.043001212 0.03690756 -0.09870346
-0.024270482 0.20328668 0.029143635 -0.011265527 0.004795607 0.002163387 -0.030916478 0.029071266
0.012546137 0.041397616 -0.078626454 -0.009054131 -0.04990231 0.03409885 -0.059220046 0.027311817
0.1338737 0.12014951 -0.15458292 0.050932802 -0.0045725387 -0.11100417 -0.12883282 0.061223768
0.10378587 -0.0065916167 -0.11916059 0.031435817 0.017941143 -0.06065025 0.060213998 0.0716056
-0.008831028 -0.034033973 -0.078614645 0.071832 -0.18022278 -0.037985496 0.08746905 0.1863085
-0.059016466 0.030669887 0.09740199 -0.029296756 -0.24485524 0.049451567 0.2215858 -0.08296439
-0.060039878 0.07622681 -0.05381222 -0.02501524 -0.028295767 0.14001873 0.07095897 0.0027383063
-0.036821596 0.1128325 -0.15269747 -0.20856622 -0.054962285 0.20343173 -0.12824152 0.101019666
0.20242967 -0.013750645 -0.24151868 0.09780729 0.07464272 -0.024834786 -0.034206927 0.032200128
-0.049194157 -0.07662335 -0.18105477 0.07425411 0.11612071 0.027133346 0.00095281005 0.28788543
-0.0017116626 -0.22529626 -0.022540439 -0.05297148 -0.11173521 0.012282078 0.085726514 -0.03429449
-0.076015696 5.0964067e-05 0.051596712 0.06252812 0.0063088816 0.08981004 0.10210118 0.009402563
-0.2985679 -0.033397622 0.023671893 -0.13020524 -0.028486809 0.24634641 0.10538854 0.04192653
-0.09684317 0.017378394 0.13704003 -0.06516442 0.036055252 0.04746133 -0.09195427 -0.09499925
-0.019609846 0.027028708 -0.062277637 0.015058346 0.25078744 0.120647974 -0.12912333 0.0036354153
-0.03760474 -0.1108449 -0.2029571 0.036468737 0.2331609 -0.0036074906 -0.32512695 0.15140064
0.021725174 -0.06996073 0.07546916 0.11860228 0.003989717 -0.11285627 -0.0429319 -0.02564523
-0.11460967 -0.13073006 0.17470813 0.15486163 0.049008846 -0.026521489 0.19693948 -0.12350677
-0.2291266 -0.033448666 0.34579337 -0.15642554 -0.0656001 0.04219548 -0.004078244 -0.10045777
0.0418502 0.09824465 0.18741915 -0.029561872 0.0044533107 0.036111645 -0.13005841 -0.29932213
0.020747248 0.07971917 -0.04719831 0.1419137 0.13838385 0.017769895 -0.15022838 0.05827985
0.095487855 -0.029974515 -0.011882432 -0.032307573 -0.00822101 -0.1340057 -0.1437539 -0.018891502
0.20349324 -0.048532158 0.15754978 0.21299523 0.012619344 -0.1559591 -0.07647282 -0.14614296

exp_avg f4 [8, 1, 7, 7]
00000000: aba9 8dbd 73f3 2dbd 5fe2 aebc 882d 6abc
00000010: 670b 703b d548 7e3c 0089 813c 2e6e 9cbd
00000020: e566 13bd cfaa 263d f12d bb3d 40e0 503c
00000030: 6d84 613c 7213 df3c 30f9 0abd f34c 24bb
00000040: a111 3a3d 3dd9 fcbc ea8c ea3c a1d0 2c3d
00000050: b101 633d d7f6 c5bd 8b81 d1bc 59fd b9bc
00000060: 66eb 373c 61ce 74bd a589 dbbb 562b 2abc
00000070: 136d a0bd 3a65 98bb ac52 993c 4d6d 83bd
00000080: 5b30 5abd a40a 3c3c b8f3 523b 241a b8bc
00000090: 666f 6c3c 3768 a13d d69b a43d 2a0b a53d
000000a0: 19ff 743d c0e8 0f3d b160 b1bd 20a6 1ebd
000000b0: be00 993c 0040 903d 2ac7 0a3b d091 4a3b
000000c0: 412b 863c cd62 47bd fa67 9fbc 522f 653b
000000d0: 6f4b d8bb 8829 3e3d e980 973d 82b8 813d
000000e0: f6b9 e2bd 3c65 99bd b543 11bb 8482 ba3d
000000f0: 28aa 873d 3b9a 443d f1f0 463d 5c98 3fbd
00000100: eb11 bfbc 7ca1 32bb c02b 7cbd 83a7 2a3d
00000110: d84e 943d 0561 8f3d 1a5e f3bd fdfb 85bd
00000120: 5b26 34bd ee34 a33c 7ea6 afbc ff7d 3a3c
00000130: 72c2 ca3c a08a 43bd 76d8 493c 4e22 533b
00000140: 49f2 8bbd ddee 3fbc e1d1 823c b1e7 1d3d
00000150: e05e cfbd 7939 5ebd 4925 8b3b e2ad 053d
00000160: 9f70 993d 532c 763d ae5e 0c3d fd6b 93bd
00000170: 7cfb a0bd 345b c5bc eece de3c 7845 203d
00000180: d2e7 193d 80f3 303d f362 6e3d d71e 8f3d
00000190: 59b0 323d d4df 39bc e0c8 513c 462e 693c
000001a0: 04e3 473c 7e20 203d e9ac 143a e8f5 42bc
000001b0: e74a 82ba 5068 32bc 1d2e 36bc 2442 983c
000001c0: c909 e13b b348 f03c 5de1 9f3c 3a15 193a
000001d0: 29f8 1bbd 8690 24bd 805b 22bc 42aa 953c
000001e0: bc96 2b3b b72b 8f3c 766c ce3c a290 e23c
000001f0: afbc faba 4155 223c 2f16 8b3c b113 253d
00000200: 1a3b 013d 3fdf 3d3d aa29 a2bc 714e 383b
00000210: dc87 1b3d 9a6d 63bc ed21 96bc 65fa 1bbd
00000220: 3347 49bd f2ca 18bd cfab 00bd f5d6 babc
00000230: ee45 963a 97be 9fbc 7b3e e8bc 4e39 00bd
00000240: 6edc 9bbd 754b 87bd 145e 7bbc 1797 ad3d
00000250: 58ec 353d b96f f53c 22b6 85ba bf0d 6cbd
00000260: bc7f a5bd 2385 9ebd c1c0 763d 1d9b 463d
00000270: bd65 be3c fd59 8fbc afb1 38bd 5185 a3bd
00000280: d4bd 8bbd 17de 693d 395d 093c ea6e b5bc
00000290: 7dec 49bd b82e fcbc 356d 86bd cd40 b9bd
000002a0: 38b5 893d 47fc f43c e0b7 0a3d cf57 c33c
000002b0: f0bc 1cbd 1111 40bd df25 4abd 2b74 db3d
000002c0: b906 9a3d 9c99 4e3c 0a6e a6bc 2e19 353c
000002d0: 92af d7bc b0f9 afbc ff8c 973d 4968 693d
000002e0: b6ad 843d 737b 563d 7cf6 10bd ba5d 4cbd
000002f0: c6c7 02bd 3577 cd3d 91ba 913d e509 823c
00000300: a517 cabc 5402 29bd 70cb 17bd f14f 35bd
00000310: d7ad 163d 18d0 e43c 7716 643d bf44 4b3d
00000320: 41d8 ad3b 8423 3ebd d6a9 5fbd 305f 8e3c
00000330: 2755 143d 3624 943d 5f17 803d 59f8 073c
00000340: 6c68 05bd fa2a 5ebd 0bab 273d e43a e23c
00000350: a438 5bbd 0afd e4bd 972b 4e3c 7002 723c
00000360: fabc f5bc 5d75 3fbc 9339 d2ba 051c d4bc
00000370: 02c0 5dbb ed31 c4bd dda2 73bd b7cd b0bd
00000380: 97f2 203d 57f3 aa3d 71d5 523a 2d83 d1bd
00000390: 23e8 763c fa27 3dbc 3fbf f0bc c887 c7ba
000003a0: 9ab6 133d 8a1d a93d eaac ee3d 4e4f 3d3d
000003b0: dbfe 66bc 1ab8 7cbd 915c b83c 7bda 043d
000003c0: 5e4f 473b c9d7 debc 77d1 d6bb d7de 2bbb
000003d0: 8d38 b2bc 0e0d 56b9 a709 0e3d 8ac2 0439
000003e0: b126 5ebd 163b 08bd 1ee0 58bd 56dc b1bd
000003f0: ceee 143c 05a0 b33c 1a20 ec3c 3e6f 563d
-0.06917127 -0.0424685 -0.021348177 -0.014293082 0.003662789 0.015520294 0.015812397 -0.076382026
-0.0359868 0.04069024 0.09139622 0.012748778 0.013764483 0.027230952 -0.03392905 -0.002507028
0.04542697 -0.030865306 0.028631646 0.04219115 0.055421535 -0.096662216 -0.025574466 -0.022703813
0.011225557 -0.05976713 -0.006699758 -0.010386309 -0.07833304 -0.004650739 0.018716179 -0.06417332
-0.05326877 0.011477146 0.0032188725 -0.022473402 0.014430856 0.078812055 0.08037536 0.0805877
0.059813593 0.035134077 -0.086610205 -0.038732648 0.018677112 0.07043457 0.002117584 0.0030909665
0.016378047 -0.04867821 -0.01945876 0.0034970832 -0.0066007893 0.046426326 0.073976345 0.0633402
-0.110706255 -0.07490012 -0.00221656 0.09106925 0.066242516 0.047998648 0.048569623 -0.04677616
-0.023323974 -0.0027256897 -0.06156516 0.041663658 0.07241601 0.07000927 -0.11883183 -0.065422036
-0.04398189 0.0199227 -0.021441694 0.011382579 0.024750922 -0.047739625 0.012319675 0.0032216492
-0.068333216 -0.011714664 0.015969219 0.038551036 -0.10125518 -0.05425403 0.004246388 0.03263653
0.07492184 0.060100865 0.03426998 -0.071983315 -0.07860467 -0.02409134 0.027198281 0.03912875
0.037574597 0.04320097 0.058199834 0.06988304 0.04362521 -0.011344869 0.01280424 0.014232224
0.012200121 0.039093487 0.00056715176 -0.011899449 -0.0009940536 -0.010889128 -0.011119393 0.018586226
0.0068676216 0.02933154 0.019516641 0.000583965 -0.03807846 -0.04017689 -0.009909511 0.018269662
0.0026182374 0.0174769 0.025198203 0.027656857 -0.0019129718 0.009908021 0.016978351 0.040301982
0.031550504 0.046355482 -0.019795258 0.0028122927 0.037971362 -0.0138811115 -0.018326724 -0.03808059
-0.049140166 -0.03730292 -0.03141385 -0.022807578 0.0011464932 -0.01950006 -0.028350106 -0.03130465
-0.07610403 -0.06606189 -0.015342254 0.08476084 0.044414848 0.0299605 -0.0010201375 -0.057630297
-0.08081004 -0.077402376 0.06024242 0.04848777 0.023241872 -0.017498964 -0.045091327 -0.079844125
-0.06823316 0.057096567 0.008384042 -0.022147615 -0.0492978 -0.030783996 -0.06563798 -0.09045563
0.06724018 0.029905451 0.033866763 0.023845581 -0.038266122 -0.046891276 -0.049352523 0.10715517
0.075208135 0.0126098655 -0.020316143 0.011053367 -0.026328836 -0.021481365 0.0739994 0.05698422
0.06478445 0.052363824 -0.035391316 -0.049894072 -0.0319288 0.100325026 0.07115663 0.015873859
-0.024669478 -0.041261986 -0.037059247 -0.04426569 0.03678688 0.027931258 0.055685487 0.04962611
0.0053053205 -0.04642059 -0.054605328 0.017379373 0.03621402 0.07233469 0.06254458 0.008298957
-0.032570288 -0.054240204 0.040934604 0.027615972 -0.053520814 -0.11181076 0.012583635 0.014771089
-0.029997338 -0.011685696 -0.0016038887 -0.025892267 -0.003383637 -0.09579835 -0.05948149 -0.08632987
0.03929385 0.08347195 0.00080426695 -0.10230098 0.015069994 -0.011545176 -0.029388068 -0.0015222961
0.036062814 0.08257587 0.116540745 0.04621821 -0.014098848 -0.06169901 0.022505077 0.03243492
0.0030412297 -0.027202504 -0.006555732 -0.0026225352 -0.021755481 -0.00020413494 0.034677174 0.00012660972
-0.054236118 -0.033259474 -0.05294811 -0.08684604 0.009090139 0.02192689 0.028823901 0.052352183

exp_avg_sq f4 [8, 1, 7, 7]
00000000: ee92 ff3d 7ea5 f23d 2e14 0c3e b340 d93d
00000010: 1dd4 013e 87ba e33d 3811 d63d c0fd 033e
00000020: 85db 123e e1b6 4a3e 231e 953e 0465 1b3e
00000030: 2fe3 c63d de5e cf3d 2794 e23d 0a31 103e
00000040: 2e61 443e 8644 4a3e cb78 1d3e 40fc ec3d
00000050: 8028 e53d e4f5 f83d 656f 3e3e 0497 713e
00000060: 9aa1 aa3d ace6 a43e 0bb8 093e a9ba d03d
00000070: 1ce0 133e f7ae 083e f60c 523e f6f1 813e
00000080: 1fa4 913e 46b3 e93d d9ed 003e ec86 003e
00000090: 25c1 fa3d 9cb8 0e3e bd4b 293e f07f 243e
000000a0: ea72 0a3e 45d9 df3d 7ea0 f13d 002a fb3d
000000b0: 3b9f 063e 17ed 233e eabb 1e3e 29a3 093e
000000c0: 9a90 053e e4b6 0e3e f6df 0a3e 6f10 fe3d
000000d0: 521a 2c3e 8426 243e be00 043e 360e 1f3e
000000e0: f52c ec3d 2dbe f23d 5c6e b63d b84b 723e
000000f0: 5e15 073e 1bf8 0a3e 7af8 0d3e b692 f43d
00000100: dfca f33d c7b8 ec3d a37c b73e 1256 193e
00000110: 5ccf ed3d 16d9 073e ba49 e33d 10e2 2f3e
00000120: f38e eb3d 2b3f ab3d 54c8 b33e 797a f63d
00000130: 1292 013e 8454 2d3e da8a 5c3e 6685 ce3d
00000140: 3954 693e e329 503e 4bb7 eb3d 043e fa3d
00000150: 9d16 013e 06c3 013e 388f 2e3e 8216 1a3e
00000160: e6ef ea3d 6fd7 de3d 310e d53d 8f7f 1e3e
00000170: 6eda 023e 2f48 ef3d 900e 013e aea6 e43d
00000180: 037b d63d c99f e53d 00fc 973d 89db 7f3d
00000190: 0815 4f3d aa2d 6e3d a020 583d a6c6 5e3d
000001a0: 26e4 603d 7124 6d3d ea96 b23d fd75 903d
000001b0: 0dc7 293d 5094 223d f540 0c3d 57c8 283d
000001c0: 0769 643d 7e9f 143d f117 3b3d 6bd9 d23c
000001d0: c4ec fe3c 38a8 463d b302 393d 3763 2c3d
000001e0: f35e 5d3d 33d0 523d bc5d 0c3d f801 ed3d
000001f0: 71cd 1d3d 2a6b 343d d28e 243d f019 633d
00000200: dc38 033d 89c1 9a3d ea09 143d 8db9 3a3d
00000210: 29b5 5e3d 1e5b 413d ef7b 243d 36c9 1a3d
00000220: d85b 563d 9428 913d 56bb 583d e6ac 5b3d
00000230: a997 623d 4dc5 543d 1440 523d be50 643d
00000240: 3d0e aa3d 4bc4 823d 9f3e 913d c586 8a3d
00000250: d1a2 683d bf9f 5c3d 1641 6c3d 6399 5a3d
00000260: f88e 6c3d c2ca 663d 06b1 6f3d 0d8d 593d
00000270: 615e 7f3d 2b09 883d ad86 8c3d 8cb1 4a3d
00000280: 87ae 8c3d 46e1 513d b3e7 cb3d b654 973d
00000290: 509a 0c3e 581c 323d cfab 803d 9548 503d
000002a0: 4d50 593d 7376 c93d 0005 173d 65ec a33d
000002b0: 3c51 973d 3a6d 5d3d 1d7f 8b3d 60ff 1c3d
000002c0: 68e8 523d 7923 6a3d 08b2 703d f766 ad3d
000002d0: 4f31 483d d45d 553d a911 3f3d d80f 273d
000002e0: 9fe3 9c3d 9a4f aa3d 9eb3 813d 6391 8b3d
000002f0: a376 9e3d c431 323d d967 313d 4bc2 753d
00000300: bf50 713d b5cd 293d 1da6 6b3d d66b 6f3d
00000310: 6bbd ff3d c08b ff3d dc61 003e 8411 1f3e
00000320: a805 033e 0b26 e73d f84b eb3d 1193 e83d
00000330: f97e f43d a1e0 0d3e 5230 453e d336 0b3e
00000340: 3913 083e 5ce4 f73d ed4b 0a3e 0f62 093e
00000350: ad4b 963e 0871 1d3f 9d5c 2c3e 37b0 143e
00000360: 9eda cc3d 26c3 e73d f7fe 213e b860 763e
00000370: 0791 523d 1b21 cb3e ae9b 433e fc24 fd3d
00000380: eeb8 013e ae89 1f3e e6f7 253e 6b51 ef3e
00000390: 2a7b 333e 50d0 073e 7368 d93d 33c0 f93d
000003a0: 6d12 0c3e b8ce 7f3e 0df0 873e b8a1 f83d
000003b0: 959b 2b3e 8986 ec3d 5241 e43d aaea c93d
000003c0: cef6 083e 2bdd 013e 0311 e33d e1bc 023e
000003d0: aaec fb3d 7987 8d3d 3ee3 a73d 8fef 823d
000003e0: 5a93 ba3d 8105 a63d babe 843d 0c0b 9c3d
000003f0: 25e8 a43d 85c1 ad3d 6579 913d f9ce f23d
0.124791965 0.118479714 0.13679573 0.106080435 0.12678571 0.11119562 0.10452503 0.12889767
0.14341553 0.19796325 0.29124555 0.15175253 0.097113006 0.10125516 0.11063414 0.14081207
0.19177696 0.19752702 0.1537811 0.1157155 0.111893654 0.12156275 0.18597181 0.23592764
0.08331604 0.3220724 0.13449113 0.101918526 0.1444096 0.13347994 0.20512757 0.25379914
0.28445527 0.11411147 0.12590732 0.12551469 0.12243871 0.1393761 0.16532798 0.1606443
0.13520399 0.10930113 0.117981896 0.1226387 0.13146679 0.16008411 0.15501371 0.13441147
0.13043442 0.13936955 0.13561997 0.12405478 0.16806915 0.16030318 0.12890908 0.15532765
0.115320124 0.118526794 0.08907768 0.23661697 0.13191745 0.13571207 0.13864318 0.119420454
0.11903929 0.11558681 0.35837278 0.1497424 0.11611816 0.13266405 0.110980466 0.1717608
0.11501875 0.08361658 0.35113776 0.120350786 0.12653378 0.16926771 0.21537343 0.100840375
0.22786035 0.20328479 0.1150957 0.1221886 0.12606283 0.12672052 0.17046821 0.15047649
0.11471538 0.108809344 0.104030974 0.15478347 0.12778637 0.1168369 0.12603211 0.11164604
0.104726814 0.11212117 0.07421112 0.062465224 0.050557166 0.058149017 0.05276549 0.054388665
0.05490508 0.05789608 0.08720191 0.070537545 0.041449595 0.039692223 0.034241635 0.041206684
0.055764224 0.036284916 0.04567713 0.025738439 0.031118758 0.04850027 0.04516859 0.042086806
0.05404563 0.051468085 0.03426908 0.11572641 0.038526002 0.044047512 0.040175267 0.055444658
0.032036647 0.07556445 0.036142267 0.04558711 0.054371987 0.047206037 0.040157255 0.037789546
0.052333683 0.07087818 0.052913032 0.053631686 0.055320416 0.051945973 0.05133064 0.055741064
0.08303497 0.06385096 0.07092022 0.067639865 0.0567959 0.053863283 0.05767926 0.053368937
0.057753533 0.05634571 0.058518432 0.053113032 0.062345866 0.06642374 0.06861625 0.04948573
0.06869226 0.051240228 0.099563025 0.07389204 0.1373074 0.043484062 0.0628277 0.05085047
0.053055096 0.098370455 0.036870003 0.08004073 0.07388541 0.054059245 0.06811354 0.038329482
0.05149117 0.057162736 0.058763534 0.084669046 0.04887515 0.052091435 0.0466477 0.040786594
0.07660603 0.08315964 0.063330874 0.0681484 0.07737472 0.04350449 0.043311927 0.059999745
0.058914896 0.041455943 0.057531465 0.05845245 0.124873005 0.12477827 0.1253733 0.15534025
0.12795126 0.11286553 0.11489099 0.11356176 0.119382806 0.1385522 0.19256714 0.13595133
0.13288583 0.12104103 0.13505526 0.13416313 0.2935461 0.61500597 0.16832204 0.14520346
0.100026354 0.113165185 0.15819918 0.24060333 0.05140784 0.39673695 0.19102356 0.1236057
0.12668201 0.15579864 0.16207847 0.46741804 0.17527452 0.13263059 0.10615625 0.12194862
0.13678904 0.249812 0.26550332 0.121402204 0.16758569 0.11549098 0.11145271 0.09859212
0.13375399 0.12682025 0.11087229 0.12767364 0.123009995 0.06910605 0.0819764 0.063933484
0.09110136 0.081065185 0.06481691 0.076192945 0.080520906 0.084841765 0.07103232 0.11855883

exp_avg f4 [32, 8, 7, 7]
00000000: c431 143b 64a8 81bb f8f8 90bb e1c2 ee3b
00000010: eac7 91bb ffb9 563a 0465 053c febf 2bbc
00000020: b6e9 70bb 939d 48bc 9a43 50bc 0e41 8ebb
00000030: 3091 44bb 4a28 6a3a 3c62 51bc 591c acbc
00000040: c656 8cbc 9157 84bc c707 2cbc 1eb5 25bb
00000050: c5cc 86bb 4cf4 bdbb eb08 f7bb e71c 84bc
00000060: 8030 e6bb dd17 32bc a406 22bc 34de 823b
00000070: f2a3 4dba c174 7dba 2e83 c0bb 2675 e9bb
00000080: cc0c 753c af63 3d3c 46aa 023a 5641 31bb
00000090: f701 8cbb e5ed 0e3c fb5a 713c 3b33 7a3a
000000a0: 36a9 be3a ed0e d63b c3ef 363a b4d6 2f3b
000000b0: 8856 95bb 06ef a33b f918 7d3c 1477 3c3c
000000c0: dc27 7e3b 843a 5e3c 7acf 0d3b dfee 47bb
000000d0: 8c5f 67bc b6ea 9bbc ab75 de3a 0f5b 133c
000000e0: 1af7 f83b 7e8f 133c acc9 d9ba 6379 503b
000000f0: e5a9 50bb 8e18 67bc 817b c43b cdc5 463b
00000100: b091 f9b9 2243 0dbc 9af2 27bc 389e 583c
00000110: ba83 d23b fc5e 4cbc 2f88 893b 33ec 713b
00000120: 116f 6fbb b7da c63a b78c 96bb 44a3 de3b
00000130: da2a ef3b 42af ae3b 4146 7e3b c7db 49bc
00000140: 2d10 aa3a f497 dc3c 47b2 343c 1f79 623b
00000150: 2605 923b 2ad1 253c 155d 153c 724f b13b
00000160: 3af9 1dbb af15 903b e931 863b 690a 803c
00000170: db70 d83b ae15 f4bb 19b9 763c 63d1 9b3c
00000180: f442 ab3b 85cd 353b ffa6 c6bb eea9 6cbc
00000190: b7c0 eebb eaaa 583b d868 cbba e26f c73b
000001a0: 2840 6a3b bd0b 843c 35bb 7d3c adb9 953b
000001b0: 34b8 ca3b 21bc 223c f9aa 913b efdf 043c
000001c0: 3e84 133c 48b8 7f3c c55a 843c 6339 ac3b
000001d0: 6c45 d4b9 26f3 e93b 67b0 aeba e7b3 b9bb
000001e0: c76d a43b 5b49 de3c 2e42 d73c 81f2 8bbb
000001f0: 4dff 63bc 10f3 adbb c49c 1b3c 82fe 0c3b
00000200: 94f6 94ba beae 3e3c 1381 a83c f10d 143c
00000210: 3473 19bc 847f 333c b957 793b 2dd5 2f3b
00000220: 7f16 cfbb 923c 72bc 06bc 253c be4e 823c
00000230: c496 4e3c 64a8 063c 278d c1bb 2f0c adbb
00000240: b35b e9bb d7ef cfbb de57 9a3b 5dd9 62bb
00000250: e722 4f3a d365 3f3c 3826 27b9 535f 35bc
00000260: d59d c33a 44d8 4c3b 9b10 12b9 6f6b a7bb
00000270: 92e3 faba 5947 983c 6d53 b13b 9987 73bc
00000280: 2c41 b2bb 8366 27bc f7db b83a fc80 793b
00000290: b911 5dbc 80fb 05bb fbd0 a938 9d66 55bc
000002a0: 2b70 183c 3198 05bc 8985 d6bb 1234 093c
000002b0: 69a0 abbb a10e 91bb e731 c43a 7956 283b
000002c0: 23fe 593c 6040 d93b 197a ddbb f0f8 16bb
000002d0: b70e b0ba f984 373c 5910 91ba d141 f9bb
000002e0: 2320 c13b 5bcc 813b f2fe c2b7 4e2f 643b
000002f0: e595 ffb9 4294 123b ca26 aebb 981c 83bb
00000300: c581 4d3c 5e37 a53b 1eb9 c9bb 5b7b 073c
00000310: cdf5 a43c a093 573c 128b 2cbb b525 5cbc
00000320: eb84 21bc d1fd 0c3c b9d0 d03a b9d9 bbbb
00000330: 8d79 873b 9fd9 8d3b ae17 363c e26f f9bb
00000340: 0183 edbc 5996 37bc 9c86 e9bb b742 bcba
00000350: 3ca5 a33a ea9a 3dbb c0da 473c 2a93 a33a
00000360: 6a87 9cbc 0192 57bb 6da0 e8bb 60fb 34bc
00000370: 0884 f03b 61ae 2b3b f7ce a03b bacf f13a
00000380: 8f80 693c 086e 813c dc84 15bc 5965 dfbc
00000390: c67a b9ba e535 533c 7075 963c ccd3 693b
000003a0: 2d52 d93b 70a4 623c 3c30 4b3a 5b13 8dbc
000003b0: aa0f 47bc 12bb dfba 871a 6cbb 91bf 0dbc
000003c0: a738 01bc 2e35 963c 2bf6 433c 5a8f 16bc
000003d0: 4839 3cbc 3268 a33b f603 8f3b f9fe 9b3b
000003e0: e432 323c 4016 f2bb 7e56 eabb bfa1 9fba
000003f0: 2448 27bc 33dd 1e3b e43b 1fbb a71c 91ba
0.002261267 -0.0039568413 -0.0044242106 0.007286415 -0.0044488804 0.0008191168 0.00814176 -0.010482786
-0.0036760396 -0.0122446 -0.01271143 -0.004341251 -0.0029993765 0.0008932395 -0.012779769 -0.021009611
-0.01713122 -0.016155036 -0.010499901 -0.0025284956 -0.004113766 -0.0057969447 -0.007538905 -0.016127063
-0.0070248246 -0.010869947 -0.009889279 0.003993774 -0.0007844559 -0.0009668582 -0.005875013 -0.007124561
0.014956664 0.011559411 0.0004984479 -0.0027047 -0.004272695 0.008723711 0.014731164 0.0009544377
0.0014546278 0.006532541 0.00069784763 0.0026830854 -0.0045574345 0.005002859 0.0154478485 0.011503
0.0038781082 0.013563756 0.0021638558 -0.0030507369 -0.014121901 -0.019032817 0.0016972324 0.008993878
0.007597816 0.009006379 -0.0016615889 0.0031810633 -0.0031839546 -0.014104975 0.005996168 0.00303303
-0.00047601527 -0.008621963 -0.010250712 0.013221316 0.0064243944 -0.012473818 0.0041971426 0.0036914467
-0.0036534707 0.0015171383 -0.0045944112 0.006794365 0.0072988095 0.005330951 0.0038799199 -0.012320465
0.0012974791 0.026927926 0.011028833 0.0034557057 0.00445618 0.010120669 0.009116431 0.005411082
-0.002410485 0.004397116 0.004095305 0.015629964 0.0066052503 -0.0074488735 0.015058779 0.019020742
0.0052264873 0.0027740907 -0.006062388 -0.014444811 -0.007286157 0.0033060857 -0.0015518917 0.0060863355
0.0035743807 0.016118878 0.015486528 0.0045692534 0.0061865095 0.009932549 0.0044454304 0.008110031
0.009003697 0.015607901 0.016156564 0.0052558645 -0.00040487514 0.0071395813 -0.0013327718 -0.005667198
0.0050179693 0.027134588 0.026276674 -0.004270852 -0.013915849 -0.0053085163 0.009497825 0.0021514003
-0.001136499 0.0116383415 0.02056936 0.009036527 -0.0093658455 0.010955695 0.0038046672 0.0026829944
-0.0063198204 -0.014784949 0.010115629 0.015906688 0.0126091875 0.008218858 -0.0059067192 -0.0052809934
-0.007121527 -0.00634573 0.0047101816 -0.0034614422 0.0007901624 0.011681992 -0.00015940599 -0.01107009
0.0014924357 0.0031256834 -0.00013929831 -0.0051092426 -0.0019141308 0.018588709 0.0054115565 -0.014863872
-0.005439898 -0.010217312 0.001410364 0.0038071265 -0.013492995 -0.0020444095 8.0974736e-05 -0.013024953
0.009304087 -0.008153961 -0.0065466803 0.008374231 -0.0052376282 -0.0044267927 0.0014968485 0.0025686307
0.01330522 0.0066299886 -0.00675894 -0.0023036562 -0.001343212 0.011201137 -0.0011067494 -0.007606723
0.0058937236 0.0039611286 -2.324532e-05 0.0034818235 -0.0004874907 0.00223662 -0.0053146826 -0.0040012114
0.0125431465 0.0050420007 -0.006156101 0.008269156 0.020136738 0.013157755 -0.002632801 -0.013436724
-0.00985835 0.008605436 0.0015931345 -0.0057327417 0.004134363 0.004328921 0.011114044 -0.0076122144
-0.028993132 -0.011205279 -0.0071266424 -0.0014363144 0.0012485157 -0.0028931447 0.01219815 0.0012479771
-0.01910754 -0.0032893422 -0.0070992024 -0.011046261 0.007339958 0.0026196467 0.0049074846 0.0018448748
0.014251842 0.015799537 -0.009125914 -0.027270006 -0.0014150969 0.012891267 0.018366545 0.003567922
0.0066321106 0.01383315 0.0007751023 -0.017221143 -0.012149731 -0.0017069301 -0.0036026554 -0.00865163
-0.007887042 0.018335905 0.0119605465 -0.009189451 -0.011488266 0.0049867863 0.004364486 0.0047606197
0.010876391 -0.0073879063 -0.007151424 -0.0012178941 -0.010210071 0.0024240732 -0.0024297172 -0.0011071161
