trained_models/Sigma_25_t_5/checkpoints/checkpoint_10.pth (torch, 173091 bytes, 10 tensors)

conv_layer.conv_layers.0.parametrizations.weight.original f4 [8, 1, 7, 7]
00000000: f47f 8d3d adf6 343e 28e7 673d e474 8d3e
00000010: f064 8abd 3388 8f3d 531e 76bd ef83 c33c
00000020: a4ab 143e dd2c 03be 7456 5e3e 83d6 d93d
00000030: d2d8 2a3e 9dba c63b f7a5 25bc 0057 a3bd
00000040: c508 503e 9643 193e 8913 50bd 97da 443c
00000050: 6c97 edbd 46d4 093d 6f41 59bd dac2 243e
00000060: 02f2 06bf be75 acbd 72eb 8dbd f902 8ebd
00000070: 98e2 a7bb 56ac 11be 4795 203e 05ad 83be
00000080: 1529 2f3e 73e0 b53d 042f dbbc 9c2a e43d
00000090: 4b27 793d 18a5 a73d dd80 883d ea5b 05bd
000000a0: 22e3 b33b 7f83 ff3c ef4b 11bc a82a 643d
000000b0: 044f cf3d c449 9ebd 289b bc3d 00cd da3c
000000c0: 6ec4 a63c d436 dfbc 4dfd e4bd eae6 50bd
000000d0: a317 7dbe 817a 103e 4247 783d 2e98 323c
000000e0: ea43 343d 2071 a13c 6df3 233e 2f5f 4fbe
000000f0: 4f61 7dbd 49b3 2bbe c5f3 573d 19bd 92bd
00000100: 20e1 3cbc 193e 22bd 82e2 7d3e 00ee 043d
00000110: 6c61 9abd ae08 5bbd 16b4 523e 5a97 1e3e
00000120: fcb4 703e f880 f4be cd98 a6be 8f87 2bbe
00000130: 598c debd 4e14 8f3d 9bcc 993d 4b9f 723e
00000140: a720 0ebd a737 95bd b971 ee3d dca4 c2bc
00000150: 47a5 073d ac94 90bd 077a ae3d 0b33 88bd
00000160: f5a0 aa3c 0f6f 21bc 33b3 853c 01ce 5abd
00000170: 85a6 bcbc f601 ea3d 2f25 d9bd 5592 06bc
00000180: c13e ce3d acac 563c 9bfc 92bc d079 03be
00000190: 2beb 13be 6961 a73b c28f 2dbd b2bc 3dbe
000001a0: 96a9 14bd 3ff9 f4bd 0f0a 06be bd51 02be
000001b0: 2995 8abe 738b f3bd 3694 263e a423 933d
000001c0: c76d 363c 539b 69bd 39c2 36be 906e 7ebd
000001d0: eb98 973d f787 89be b0d5 9cbd 4f14 fabd
000001e0: b88a a43d 1c66 15be 8e83 94bb 7e71 473b
000001f0: 6eff 26be d641 92bd d315 a5bd 7eff 78be
00000200: 513b 8d3e 2b17 a23d 10c8 7b3e e099 f33d
00000210: 3474 d2bd a5cb a53d 5d01 9b3d 1b46 e5bc
00000220: 7eca 1bbe 1f3f ccbd b65d 8f3d 8c38 0cbb
00000230: a9ad 52bc b996 4bbd 4267 113e d1f6 febd
00000240: ccdb c53a e3b1 cbbc 334c aebc 9b67 583d
00000250: 9663 2d3e e52d 16be e81e 943d f8b1 d3bd
00000260: 672f 853d 0809 aebd 1977 7a3d a73c 28bd
00000270: 98b6 d23d 4ad6 183e 5a09 7db9 d016 02bc
00000280: 87e5 273e 5ec2 18bd 5a4a 63bd b504 27be
00000290: a701 943d fcc8 dbbd af98 febd b398 8b3e
000002a0: afff f2bc bd30 f5bd 2dba 20be 74cd 7cbd
000002b0: ed34 f23d bae7 babd aa9d 09be 3859 023d
000002c0: ba22 85bd 6f6d f23d ba39 8b3e fb6b 4cbe
000002d0: 92b1 f83d 6820 7c3d 5d7b c7bc c5d8 80bd
000002e0: cae3 553d 88bd f93d 6260 ce3d 6496 623c
000002f0: b71d 94bd 46da c0bc 8c22 0bbd 0a5f 9bbd
00000300: 2107 253e dc97 773d 0d61 aebb ef6c 06bd
00000310: d930 13bd 5b19 5cbd 4a1e df3c 7e74 6d3d
00000320: db4c 83bd 6b38 65bd bb4a 843d 9f4e 583d
00000330: 636b 783a 5c71 abbd ad1a a2bd 66e7 8fbd
00000340: 129d 20bd b216 49bc b4b4 da3d b51a 263e
00000350: 484c 10be e0e0 3bbe 49b8 eb3c 4d88 6a3e
00000360: 3b1a 4f3d 4145 46bd b007 283e cd90 2bbe
00000370: 4224 1bbf a377 213e 94cc 7ebd a288 3f3c
00000380: 91f9 1cbe a79a 8d3d 68a7 583e bcae 1b3e
00000390: 1123 3ebe 135a 12be d70b 03bd 2d11 d63d
000003a0: 08a1 463d 11c0 f93d 146e 4b3e 4533 cdbc
000003b0: 7936 1c3c 5386 24bd 9949 dfbd cb60 0cbe
000003c0: d976 553d 188d 24bd 7b22 dfbc cd56 b1bd
000003d0: 3d82 dab9 6ecc a6bd 0f30 8bbd dd0d 4e3d
000003e0: 3931 8abd c505 d73d 163d b7bd 00e0 d7bd
000003f0: 5bd6 3cbd 675f d8bd 2576 dcbd 5c7a 27be
0.06909171 0.17672224 0.056616932 0.27628243 -0.067575336 0.070084 -0.060087513 0.023866622
0.145186 -0.12810083 0.21712667 0.10636618 0.16684273 0.0060647265 -0.01011037 -0.07975578
0.20315845 0.14967188 -0.05079988 0.0120150065 -0.11601147 0.033649705 -0.053040918 0.16089955
-0.52713025 -0.08420895 -0.06929673 -0.06934161 -0.0051234476 -0.14225897 0.15681945 -0.2571794
0.17105515 0.08880701 -0.026755817 0.111409396 0.06082849 0.08185786 0.06665204 -0.03255836
0.005489723 0.031190632 -0.008868202 0.055704743 0.10122493 -0.077289134 0.09209281 0.02670908
0.020357337 -0.027247824 -0.11181126 -0.051001467 -0.24716048 0.14109232 0.06061483 0.01090054
0.04401008 0.019707263 0.16010828 -0.20251153 -0.06186038 -0.1676761 0.05272271 -0.07164974
-0.011528283 -0.039610002 0.24793437 0.032453537 -0.07538113 -0.053475074 0.2057651 0.15487424
0.2350654 -0.47754645 -0.32538453 -0.1675093 -0.10866613 0.06986295 0.075097285 0.23693578
-0.03469911 -0.072860055 0.116427846 -0.023760252 0.033116605 -0.07059607 0.085193686 -0.06650361
0.020828703 -0.009853139 0.0163208 -0.053419117 -0.023028621 0.11426155 -0.10602795 -0.008213599
0.10070563 0.013102692 -0.017942717 -0.12839437 -0.14445178 0.0051080477 -0.042373426 -0.18529013
-0.036294542 -0.119616024 -0.13089775 -0.12726493 -0.27066925 -0.11891832 0.16267475 0.07184532
0.011134571 -0.057032894 -0.17847528 -0.06211716 0.07402214 -0.26861545 -0.07657945 -0.12210905
0.08034271 -0.14589733 -0.004532284 0.0030432637 -0.16308376 -0.071414635 -0.08060803 -0.24316213
0.27584317 0.07914575 0.24588037 0.11894584 -0.1027607 0.08095483 0.075686194 -0.02798753
-0.15213963 -0.09972977 0.07000296 -0.002139601 -0.012858787 -0.049704287 0.14199546 -0.1244942
0.0015095412 -0.024865096 -0.021276569 0.05283318 0.1693252 -0.14665945 0.072324574 -0.10336679
0.06503182 -0.08497816 0.061148737 -0.041073468 0.10288733 0.14925495 -0.00024131444 -0.007940009
0.16396151 -0.037294738 -0.05549083 -0.1631039 0.07226878 -0.10731694 -0.12431466 0.27264938
-0.029662935 -0.11972187 -0.1569602 -0.061719373 0.11826501 -0.091262296 -0.1343905 0.031823367
-0.06500764 0.11837279 0.2719248 -0.19963066 0.12143244 0.061554343 -0.024350816 -0.062913455
0.05221919 0.12194353 0.10076977 0.013829801 -0.0723223 -0.02354158 -0.033968493 -0.07586487
0.16116 0.06044756 -0.005321628 -0.03281873 -0.035935257 -0.05373512 0.027236123 0.057972424
-0.064111434 -0.055962007 0.06459566 0.052809354 0.0009476451 -0.08371231 -0.07915244 -0.070265576
-0.039212294 -0.012273477 0.10678998 0.16221125 -0.14091599 -0.18347502 0.028774397 0.22903557
0.050562125 -0.04840589 0.16409183 -0.16754456 -0.606022 0.15768294 -0.06220682 0.011690291
-0.15329577 0.06914263 0.2115761 0.15203375 -0.18568064 -0.14292173 -0.031993713 0.10452495
0.048493415 0.12194837 0.1986621 -0.025048861 0.009534472 -0.040167164 -0.109027095 -0.13708799
0.052115295 -0.04017362 -0.027238121 -0.08659134 -0.00041677235 -0.081444606 -0.06796276 0.05030619
-0.0674767 0.10499147 -0.08947198 -0.105407715 -0.046102863 -0.105650716 -0.10764722 -0.1635527

conv_layer.conv_layers.1.parametrizations.weight.original f4 [32, 8, 7, 7]
00000000: d1b0 0dbd 7f18 2e3d ee6c 5bbc 6525 dfbc
00000010: 957f fbbc 2676 3b3d 77cc de3c 6eda 4aba
00000020: 2b01 bd3c 4daa a4bb 9a7b e53c 81b5 12bd
00000030: e017 013d f2f6 51bd 94a4 9abd c1f6 a239
00000040: 4d9e 99bd 4f6b 083d a9bf 4c3c c5c0 0dbd
00000050: 96f3 0b3d bcd1 913c 0a25 9b3c 4f3c 943c
00000060: 0e2a 0bbe e3b6 283d 697e 39bb 5b40 72bd
00000070: 1101 043d 0b36 1b3d 0daa 71bc 02dc d93d
00000080: 3414 933c 2ee0 5c3c cf3a a2bc 035e c0bc
00000090: c5b5 85bb de28 5bbb 349b f23c a600 1fbd
000000a0: 6a9c 0ebd 4536 543d 528a 3ebd e913 523d
000000b0: 6580 66bc 29dc 7b3c e2b1 a83c ef92 d93b
000000c0: e0db 53bd 2403 0fbc 04d0 143c 4cd9 b93c
000000d0: e4d4 833d 26ef 12bd 687a 3ebd 52e5 893d
000000e0: 8e8a 333d 7785 fcbc fe2d 0c3c ec59 a7bd
000000f0: c2fd 8ebd 3895 063d 98ba 23bc b3d2 afbc
00000100: ad69 753b 71ff 623d 552b 813d 0140 b9bc
00000110: d305 61bc 4be3 443b 25c2 ac3c ad03 6fbd
00000120: 76d3 19bc e500 06be 9772 78bb e43e b03c
00000130: 2758 883c fd08 643c e357 853d 8b6b 483d
00000140: 1250 983d 55ac 72bd 9b2e 1cbd a9b5 7f3d
00000150: af1e 6fb9 4f19 2ebd 88d6 3dbd 309d c73c
00000160: 06ed 2f3d 2be6 27bd 3df9 77bd c174 11bb
00000170: e95a 77bd 31c1 953c cded 50bc 0323 e43c
00000180: fe23 873c c8d1 3d3d 889f 1fbd 289b 55bc
00000190: f860 61ba 2ef9 e33c d8fb fbbc b8b4 15bd
000001a0: 49ae b93c ec1b 8b3d f99c 9c3c 5929 c8bc
000001b0: 7669 96bd 7f68 0abc 00f0 473d 6306 403d
000001c0: b8d7 363c 2a85 873c 797d 32bc 6f26 353c
000001d0: 998f 00bd 529a 22bd e29c 37bc d6e9 25bd
000001e0: 23f2 a23c 3f85 94bc 279a fbbc a3f3 dfbc
000001f0: 6f7d 703d 2909 0dbd 2cf5 e83c fe18 b7bc
00000200: 0f07 1b3d e5ca 8f3d 719c 8ebd e3cd 00bd
00000210: 90da 433d cf28 37bd adad be3c d9c3 623c
00000220: a4f6 e5bc 27af 5b3d 7754 b8bc 3aa5 8d3b
00000230: 0fb7 d83c 6e15 02bd cae3 8b3d f67d 3abc
00000240: d1cb 96bd 155c 7f3c 8463 10bd b2f0 873a
00000250: bc66 75bd d3b1 ba3c 7009 9bbc f892 873c
00000260: 96b9 303d 3058 49ba d380 833c 6b5d 303d
00000270: 97fe 243d 0a6a eabc 0cc9 3fbc 5a10 bd3c
00000280: 7dbf ebbc 6ca9 2f3d 60f2 7a3a b1d0 80bd
00000290: ebdc 813d f347 18bb 25ae 89bb e72f b03d
000002a0: d1c2 523b f7e6 ab3d f125 b63c ef35 e2bd
000002b0: ee46 003c 266b 3b3c fad9 7abd e7c1 92bc
000002c0: 9871 b5bd 06d6 02bd 2cf9 b9bc cea5 96bd
000002d0: b2e6 81bc ecbc a53c 3fde 5f3d 16e3 d3bc
000002e0: 129d 60bd f4eb 6f3d 3715 01bd b050 cbbc
000002f0: e7ad 193d 1891 3bbd 98fb ca3c cc29 133d
00000300: c014 92bc f739 073d 6e7c 2cbd b9fe 9cbb
00000310: 5d28 ef3c 3ab6 1f3d 6f43 f93c 2df1 2c3d
00000320: 73c1 c4bc 7ea4 363d 8a73 20bd 5b1a dfbc
00000330: ab9b dfba c848 4fbd b56a 85bc 15d8 3fbd
00000340: c6cc d0bb c189 dabc 5200 9bbc 8903 cd3c
00000350: 7f21 5cbc 8e8e b73d 3402 a6bc 709d 0ebd
00000360: ca3b a23d 5088 303d 34a0 0b3d c017 38bc
00000370: 7a35 1dbe cde2 9c3d 5c05 b13d e628 94bd
00000380: 260f 0c3a ade4 74bd 2a8e 223c b149 9d3d
00000390: 095e b7bc c1ce 013d ae47 99bc ad51 433b
000003a0: 01e2 a03b 0c7e 21bd 90b7 44bd 9018 0e3c
000003b0: 5b1c cfbc 7e94 a13c ea17 e9bc a816 cdbc
000003c0: 99cf ac3b 98ce 583d 64e8 edbc 8c7c 143b
000003d0: 0146 8abb d629 c7b9 6c6d 6dbd 1267 18bd
000003e0: 994a 1e3c 1c9f 24bd 0bed 613d 2d21 7fbd
000003f0: f740 8ebc cdca cfbc bc5f e13b 52d9 713b
-0.034592453 0.04250383 -0.01339267 -0.02723951 -0.030700484 0.045766972 0.027197106 -0.0007738237
0.023071846 -0.0050251842 0.02801304 -0.035817627 0.03151691 -0.051260896 -0.07550922 0.00031082894
-0.075008966 0.033305462 0.012496867 -0.034607667 0.03416785 0.017800204 0.01893856 0.018095164
-0.13590261 0.04119004 -0.0028304106 -0.059143405 0.03222758 0.037893336 -0.014750016 0.10637666
0.01795397 0.013481183 -0.019803433 -0.023482328 -0.0040805065 -0.0033441107 0.029615022 -0.038818978
-0.034817137 0.051809568 -0.04651863 0.05128852 -0.014068698 0.0153723145 0.020592634 0.0066398303
-0.05172336 -0.008728776 0.009082798 0.022686623 0.0643709 -0.0358726 -0.046503454 0.067331925
0.043833308 -0.03082536 0.008555887 -0.08171448 -0.06981994 0.03285715 -0.009993218 -0.021462774
0.003744702 0.05541939 0.06307093 -0.022613527 -0.013734299 0.0030042704 0.02108867 -0.058353115
-0.009388795 -0.13086279 -0.0037910098 0.021514364 0.016643597 0.013918159 0.06510904 0.048930686
0.07437147 -0.05924638 -0.038130384 0.062429104 -0.00022804247 -0.042504605 -0.04634717 0.024366945
0.042950653 -0.04099099 -0.060540427 -0.0022194835 -0.060389433 0.018280597 -0.012752009 0.027848726
0.016496655 0.04634264 -0.0389705 -0.01303748 -0.00085975183 0.02782878 -0.030759737 -0.0365493
0.022666113 0.06792435 0.01911782 -0.024433779 -0.07344334 -0.008447765 0.048812866 0.04688109
0.01115983 0.01654299 -0.010894173 0.011056527 -0.031386945 -0.039697953 -0.011206837 -0.040506206
0.01989085 -0.018129943 -0.030713154 -0.027337855 0.058713373 -0.034432564 0.02843722 -0.022350784
0.03784853 0.07021121 -0.069634326 -0.03144635 0.04781586 -0.044716652 0.023276174 0.013840639
-0.028071709 0.053633835 -0.022501213 0.004322675 0.026454477 -0.03175872 0.06830557 -0.0113825705
-0.07363094 0.015585919 -0.035251155 0.0010371415 -0.05991243 0.022789871 -0.018925399 0.016549572
0.04314574 -0.00076806825 0.01605264 0.04305784 0.04028186 -0.028615016 -0.011705648 0.023079086
-0.028777832 0.042886183 0.000957286 -0.06289805 0.06340965 -0.0023236244 -0.004201668 0.08602887
0.0032159577 0.083936624 0.022234889 -0.11045443 0.007829411 0.01143912 -0.061243035 -0.017914725
-0.08859557 -0.03194239 -0.022701822 -0.073558435 -0.015857074 0.020231687 0.05465531 -0.025865119
-0.054837294 0.05857463 -0.031514373 -0.024818748 0.03751936 -0.04579267 0.024778172 0.035928532
-0.01783216 0.033014264 -0.042110853 -0.0047911075 0.029194051 0.038992144 0.030427663 0.04222219
-0.024018025 0.044590466 -0.039172687 -0.027234247 -0.0017059942 -0.05060652 -0.016286233 -0.04683693
-0.006372067 -0.026677014 -0.018921051 0.0250261 -0.0134357205 0.08962737 -0.020264722 -0.034818113
0.0792156 0.043098748 0.03408833 -0.011236131 -0.15352431 0.07660446 0.086436 -0.07234363
0.00053428335 -0.059788395 0.00992159 0.07680071 -0.022383707 0.031691317 -0.018710937 0.0029803321
0.0049097543 -0.03942685 -0.04802662 0.008672848 -0.025282076 0.019724127 -0.028453786 -0.025035217
0.005273771 0.0529314 -0.029041477 0.0022657244 -0.004219771 -0.00037987408 -0.05796568 -0.03720767
0.00966134 -0.0401908 0.055157702 -0.0622875 -0.017364962 -0.025365258 0.0068778675 0.0036903215

activation.coefficients_vect f4 [672]
00000000: 0000 0080 6cbe 163a d2ce f939 e5a8 f639
00000010: 1c21 e839 adc9 c439 732b a739 6d06 2739
00000020: 1110 0339 4717 f1b6 897f e8b7 db4b a0b8
00000030: 7f8d 04b9 dade 0ab9 3919 1bb9 452e 68b9
00000040: fc88 7ab9 f057 dab9 081a 0aba 59a3 39ba
00000050: 0000 0000 0000 0080 d356 0a3b 6661 8b3a
00000060: 0e9a 223a da9c 063a cf1a 8f39 8d9e 4c36
00000070: 9676 9cb7 97d0 84b8 c6dd 9eb8 bfa6 8b39
00000080: a9b4 1f3a 898c 5539 3933 c738 d780 12b9
00000090: 1ef8 9fb9 fe87 d9b9 c88f dfb9 9add 20ba
000000a0: ef0d 79ba 0000 0000 0000 0080 21b1 093a
000000b0: 425b b4b6 8d9e 11b8 2cb1 7cb8 e195 40b9
000000c0: 5555 48b9 1c9e 71b9 496e 9db9 ca61 b7b9
000000d0: c6d4 ad38 b803 043a afa7 4839 d000 2039
000000e0: c9a6 be38 4cf0 fc37 be01 f937 7775 c237
000000f0: 903d 5cb8 c4db b0b8 0000 0000 0000 0080
00000100: 0801 103b 4099 df3a e684 873a 9830 263a
00000110: 1051 b139 8ea3 6b39 bb1a 2138 70fe 12b9
00000120: 6be1 2eb9 f19b 6c39 b9a2 223a 397d bc39
00000130: 92d3 a439 67e5 3f39 f6ec e538 3fd3 6038
00000140: f733 68b8 1d90 c8b8 4281 cdb9 0000 0000
00000150: 0000 0080 a7d2 c23a 73ab 8c3a cab4 4e3a
00000160: 5bdd 2d3a 8a58 133a 3ef6 8b39 92ae 3839
00000170: 53da 7936 a17b 9ab8 a609 8238 c849 4139
00000180: d8ce 1939 a0eb 86b6 85ce 24b9 b03a 0eba
00000190: 89ec 1fba afd8 96ba 2d4a e5ba 74bd 42bb
000001a0: 0000 0000 0000 0080 0e09 ef3a a8bc d63a
000001b0: 6531 a23a 8441 f939 abb5 a139 955a 1f39
000001c0: d559 d738 4b62 0338 7362 1cb8 b031 8ab8
000001d0: 83a6 efb8 8211 02b9 a423 41b9 8741 acb9
000001e0: 4a1c 25ba 35d5 2cba 13fd 6dba 2393 7aba
000001f0: ef81 8dba 0000 0000 0000 0080 117a 2638
00000200: 0bda cd37 8f8f 32b8 a5aa eeb8 658d 1eb9
00000210: a554 2cb9 cbab c1b9 0200 25ba 7fb9 beb9
00000220: 1528 9cb8 4747 4b39 a2df f439 4a6e 9d39
00000230: fb32 3e39 9a67 3739 724d bd38 f84c 6f38
00000240: 16cd 4f38 2c61 92b9 0000 0000 0000 0080
00000250: 7f0e ce37 ae77 e2b7 e5fe 06b8 233e e2b8
00000260: a824 f0b8 14d6 0ab9 2d98 33b9 ebc9 55b9
00000270: a927 c9b9 04b8 abb8 077c 6b39 9ed6 023a
00000280: 82d4 5439 b0fb 3939 9bb4 1e39 da70 5d38
00000290: 5d49 3fb5 32e3 ccb7 b1b6 07b9 0000 0000
000002a0: 0000 0080 4fbb bf39 30e7 3fb9 94b5 70b9
000002b0: bb46 8ab9 1a5b a5b9 eec8 aeb9 b1e7 dbb9
000002c0: a71b eab9 8422 c0ba f642 0bba 27ba d239
000002d0: 6831 ac3a 08ca 113b 496e 9d39 c3b9 9439
000002e0: 061d 8d39 6a5a 5739 51ca 2939 391c 2d38
000002f0: 0000 0000 0000 0080 2ec5 0f39 35ee b4b7
00000300: f28b 41b8 cc8b 4fb8 1872 d8b8 cd83 e1b8
00000310: b347 17b9 496e 9db9 df7c bfb9 e3a7 a2b6
00000320: a865 bc39 7b1f 1939 7342 fb38 775b da38
00000330: 91e5 c738 81e7 ab38 0bf8 9138 95aa ad37
00000340: ca30 41b8 0000 0000 0000 0080 f4f0 4338
00000350: 0451 f037 ddd0 d937 af71 95b8 5838 c1b8
00000360: 6d7a deb8 1af0 4cb9 d378 b2b9 301c c1b9
00000370: de8c 9237 72f6 d439 f85f 9539 3fc4 3f39
00000380: 7f35 ea38 b439 9038 fbde 8b38 968a 5ab8
00000390: 24e1 9fb8 c0cb 47b9 0000 0000 0000 0080
000003a0: 6ed1 ce3a 30fa 8c3a ff1b 003a 43a6 f739
000003b0: 844b e139 368b 9c39 d17e 8539 736f 5e39
000003c0: e674 6738 0bc6 3eb7 b6f1 2bb8 a198 9eb8
000003d0: 2a4b 32b9 75bb 92b9 e764 95b9 d8bd dfb9
000003e0: a346 13ba e374 2fba 858d 5fba 0000 0000
000003f0: 0000 0080 ad22 053b 1b40 a43a 52c5 883a
-0.0 0.0005750421 0.00047647074 0.00047046613 0.00044275157 0.00037534293 0.00031885094 0.00015928755
0.00012499119 -7.1850695e-06 -2.7715943e-05 -7.643524e-05 -0.00012641212 -0.00013243724 -0.00014791348 -0.00022142481
-0.00023892889 -0.0004164572 -0.0005268161 -0.00070815306 0.0 -0.0 0.002110888 0.0010633885
0.00062027655 0.0005135067 0.0002729506 3.0490658e-06 -1.865187e-05 -6.3331034e-05 -7.5753356e-05 0.00026636382
0.0006092289 0.00020365616 9.4986004e-05 -0.00013971642 -0.00030511705 -0.00041490787 -0.00042641 -0.0006136537
-0.00095006725 0.0 -0.0 0.00052525295 -5.375042e-06 -3.4718356e-05 -6.0246486e-05 -0.00018366381
-0.00019105275 -0.00023042451 -0.00030027542 -0.00034977339 8.288915e-05 0.00050359545 0.00019135953 0.00015259092
9.090972e-05 3.0152638e-05 2.9683924e-05 2.3181301e-05 -5.2509422e-05 -8.4332685e-05 0.0 -0.0
0.002197327 0.0017059222 0.001033929 0.00063396385 0.00033820467 0.00022472275 3.8410286e-05 -0.0001401843
-0.00016677908 0.00022564807 0.0006204057 0.00035951452 0.0003143815 0.00018300638 0.00010963708 5.36025e-05
-5.5361506e-05 -9.563586e-05 -0.00039196952 0.0 -0.0 0.0014863805 0.0010732248 0.0007885216
0.0006632411 0.00056207983 0.0002669561 0.0001761264 3.7230973e-06 -7.36632e-05 6.20068e-05 0.000184334
0.00014668272 -4.0209416e-06 -0.00015717193 -0.0005425615 -0.0006100615 -0.0011508669 -0.001749342 -0.0029714974
0.0 -0.0 0.0018236951 0.0016383128 0.001237434 0.00047541794 0.00030843666 0.00015197166
0.000102687314 3.1324376e-05 -3.7284986e-05 -6.589608e-05 -0.00011427423 -0.00012404288 -0.00018419191 -0.00032855218
-0.0006298466 -0.00065930496 -0.00090785435 -0.0009558668 -0.001079617 0.0 -0.0 3.9691167e-05
2.4539439e-05 -4.2572206e-05 -0.000113805094 -0.00015120728 -0.00016434731 -0.00036939824 -0.00062942517 -0.0003637783
-7.4461255e-05 0.00019386142 0.00046705926 0.00030027545 0.00018138804 0.00017490835 9.0266476e-05 5.7053723e-05
4.9543647e-05 -0.0002791969 0.0 -0.0 2.4563864e-05 -2.699703e-05 -3.218548e-05 -0.00010788094
-0.000114509196 -0.00013240456 -0.0001712746 -0.00020388483 -0.00038367257 -8.188191e-05 0.0002245755 0.0004991087
0.00020297061 0.00017736736 0.00015135335 5.2795607e-05 -7.12598e-07 -2.4424491e-05 -0.00012942661 0.0
-0.0 0.00036569915 -0.00018301303 -0.00022955827 -0.0002637411 -0.00031539128 -0.0003333757 -0.0004194356
-0.0004465256 -0.0014658724 -0.0005312407 0.00040193016 0.0013137283 0.0022245664 0.00030027542 0.00028367163
0.0002691524 0.0002053768 0.00016192465 4.12727e-05 0.0 -0.0 0.00013710998 -2.1568596e-05
-4.614512e-05 -4.9482842e-05 -0.00010320934 -0.00010753386 -0.00014427192 -0.00030027542 -0.00036523395 -4.847521e-06
0.00035933894 0.00014602944 0.0001198099 0.00010412087 9.5318195e-05 8.1970364e-05 6.9603404e-05 2.070264e-05
-4.6060224e-05 0.0 -0.0 4.6716028e-05 2.8647955e-05 2.5965675e-05 -7.126049e-05 -9.213452e-05
-0.000106085885 -0.00019544401 -0.00034040827 -0.0003683283 1.7470153e-05 0.00040619407 0.00028490997 0.00018288287
0.00011167954 6.877203e-05 6.66957e-05 -5.210432e-05 -7.6236465e-05 -0.00019054022 0.0 -0.0
0.0015778968 0.0010755714 0.0004886984 0.00047235386 0.00042971608 0.0002985836 0.00025462222 0.00021213088
5.5183562e-05 -1.1370993e-05 -4.0994688e-05 -7.5624564e-05 -0.00017003404 -0.00027986956 -0.00028494673 -0.0004267532
-0.00056181307 -0.00066931377 -0.0008527863 0.0 -0.0 0.0020314858 0.0012531312 0.0010434783

u f4 [1, 1, 20, 20]
00000000: e08e 9e3b 8898 c0bc 12e2 663d 67e4 97bd
00000010: 6037 0e3d 5058 f83b d08f 4c3c 3607 dbbc
00000020: eac4 fb3c bc3e edbc a8ba 2bbc c04a 1b3d
00000030: e5aa 8dbc 1812 99bb 3ca5 aabb b48d 9f3c
00000040: 082c 35bc b026 c9ba 242c 0bbc a0bb e63b
00000050: 507b b8bb 7b5b 8c3c 06ca 7abd 7cc3 c13a
00000060: 9bba 213e 14c8 0fbe e604 c13c c031 973c
00000070: 4019 42bc eee4 94bd d406 a13d 3a52 afbd
00000080: 94fe 473c 90ad e23c 16cd ba3d f1d5 a2bc
00000090: 9bf5 20bd de2b 7f3c 2359 b83c 1c05 f7bc
000000a0: 665f 513d b2fd dabd 00f5 2c3a d6aa 3d3d
000000b0: b28d 803d 11dc d6bd e8cd 623d 1c3d 2b3d
000000c0: 2f1b 6cbd 9088 143b f4b0 bf3d ca50 e7bc
000000d0: 1000 95bc 49a4 613d 7de6 28bd c4b2 e2bd
000000e0: b471 8cbc 50f2 5e3d 2076 4d3b 0801 d23c
000000f0: 11ee bd3b 3d4e afbd 5e28 173e a4e9 dd3b
00000100: a508 dbbd 4023 2b3c 4b4e 0b3d 8ce8 bebd
00000110: aa15 9e3d dc44 423c 70b8 eebb e68c 1a3d
00000120: 805c 7dba 0081 abbd 6ba6 a9bc 8ef8 2ebd
00000130: 4470 af3d d4e6 ce3c edac f1bc def9 87bb
00000140: 467e c23c eac3 83bc f5df fc3d 81be dcbd
00000150: b27c eabd 9184 303d d4d9 dc3c a416 c5bd
00000160: 76a9 0c3e ab5c c13c 1d15 99bd 6b74 ee3c
00000170: ad09 103d c49f b9bd 4ed9 8d3d d867 8d3d
00000180: fc69 333d bab7 63bd 8fd5 a7bc 8325 0b3c
00000190: 749a 173d 94aa c7bd 0a23 033e 32cd d7bd
000001a0: 0d9d b93c 6a80 b83d d2b5 5b3d 303f 4cbd
000001b0: c460 4e3d e43d 27bd a911 f6bd 84e7 ecbc
000001c0: 1f6c b73d b242 a7bd caf2 8dbc e5a8 d93c
000001d0: 43f9 953d 041d 9fbd 7081 953c fa59 13bc
000001e0: 1c1f ffba ce27 e9bd 33d1 013e 0609 21bd
000001f0: 5c00 8c3c 7cd3 a63c 288e 81bc 52ec 00be
00000200: d65c a63d 2086 783d 17bb 02bd 2232 6ebd
00000210: d457 9e3d 1259 c83c 51d2 573d 78fa 19bb
00000220: 3a83 563d b593 01be 657f 553d 0c26 a5bc
00000230: 3ff9 4a3d 1e58 d4bd fa75 013e c913 bebd
00000240: 24bd bfbd f528 2d3d 97e9 b63d e6eb a8bd
00000250: 0c37 093c 906e ae3c 99e5 2fbd c0b5 35bd
00000260: d388 7e3d d83f fcbb 9021 883d 91f8 06bd
00000270: 3812 77bc 5e73 03be feda 153e a0ba 23bd
00000280: 3429 babc 9dc6 f3bc aa66 133e 3acb f6bc
00000290: 4736 98bc ba55 f63d 1aca fe3d c90d b1bd
000002a0: 5177 80bd 2f6f 4bbd b58a 8ebc 1a0e b13d
000002b0: 385d d63d 746a 0bbe 54cc cabc d32d b4bc
000002c0: 6c0f 773c dc70 e0bd 145d 473e 0112 6dbd
000002d0: aa62 86bc 677c 943d 2875 043d d9f4 a1bd
000002e0: 8e28 33bd 5f57 e6bd 280d 19be 3cd7 c8bd
000002f0: 60fb 6a3d 9e62 e13d 869b a43d 1259 d73c
00000300: b788 143d c6b7 21be 5866 193b 2d38 313d
00000310: 387c a93d 75bc 24be bef4 d13d 89b1 0cbd
00000320: aaa3 abbc de20 1d3e de5c b4bc 70e0 b8bd
00000330: bc2a 693d ec27 e8bb 808e d8bc 48d6 193e
00000340: 6023 193e 4087 3e3d a2e2 f0bc 3a07 10be
00000350: 1d29 333d 7684 ba3c b048 37bc fcf1 ad3c
00000360: 0ca6 023e bc93 29be 5998 a43d 3a7d 37bd
00000370: 6148 15bd 641e 133e 3592 d7bd 5022 d8bd
00000380: b8ab 923d 5a7e 8b3c b0b6 96bc 6fdb d13c
00000390: 9b3f cdbd 1645 fcbd 3645 3ebc 9062 bdbd
000003a0: 7648 f63c 2c6b 093c 5fd6 aebd aace b1bd
000003b0: 9d8d 033e 9c12 59bd 045a e43c 2ab7 8e3c
000003c0: c966 923b 7223 c73d e3c5 57be 3877 5abc
000003d0: e7f8 d73d b9fb 35bd 62ca 2ebc b7c4 733d
000003e0: a6e2 21bd 6235 d93c a8ed 293e 685e 773c
000003f0: f5dd fe3c 1ffd 163d 0040 a23d 3dad 723d
0.0048388094 -0.023510233 0.05636794 -0.07416611 0.03472078 0.007578887 0.012485459 -0.026736837
0.030733544 -0.028960578 -0.010481514 0.037913084 -0.017293403 -0.0046713464 -0.0052076858 0.019476749
-0.011057861 -0.0015346613 -0.008494411 0.0070414096 -0.0056299344 0.017133465 -0.06122782 0.001478299
0.1579384 -0.14041167 0.023561906 0.01845634 -0.01184684 -0.072702274 0.078626305 -0.08560605
0.012206692 0.027670652 0.09121148 -0.019877406 -0.039296728 0.015574424 0.022503441 -0.030153804
0.05111637 -0.1069292 0.0006597787 0.0463055 0.06277026 -0.10491193 0.05537215 0.041806325
-0.05764311 0.0022664405 0.09359923 -0.028236765 -0.018188506 0.055088315 -0.041235436 -0.11069253
-0.017144062 0.054430306 0.0031350926 0.025635257 0.005796202 -0.08559845 0.14761493 0.006772237
-0.10695008 0.010445416 0.034010213 -0.093216985 0.07718976 0.011857238 -0.0072851703 0.037732027
-0.00096649677 -0.08374214 -0.020709237 -0.04271751 0.08566335 0.025256552 -0.029501403 -0.0041496595
0.023741852 -0.01608463 0.12347404 -0.10778523 -0.11449565 0.043095175 0.026959337 -0.09623459
0.13736519 0.023603758 -0.0747473 0.029108247 0.035165478 -0.09063676 0.06926213 0.06904572
0.043802246 -0.055595137 -0.020487575 0.00849283 0.037012532 -0.09749332 0.12806335 -0.10537185
0.022657895 0.09008868 0.053640194 -0.049864948 0.05038525 -0.040830508 -0.12015087 -0.028918989
0.08956169 -0.08167018 -0.017327685 0.026569793 0.073229335 -0.07769206 0.018250197 -0.00899362
-0.0019464227 -0.11384545 0.1267746 -0.039315246 0.017090015 0.020364515 -0.015814856 -0.12590149
0.08123176 0.060674787 -0.031916704 -0.05815328 0.07731596 0.024456535 0.052690808 -0.0023495238
0.05237124 -0.12654002 0.052123446 -0.020159744 0.049554106 -0.103683695 0.1264266 -0.092811175
-0.093622476 0.042275388 0.089312725 -0.08248119 0.008374941 0.021292955 -0.04294357 -0.044362783
0.062142204 -0.0076980405 0.066470265 -0.032951895 -0.015080027 -0.12836978 0.1463432 -0.0399729
-0.022724725 -0.029757792 0.14394632 -0.030126203 -0.018580569 0.1202807 0.124408916 -0.086452074
-0.06272758 -0.04966658 -0.017400125 0.08645268 0.10466999 -0.13614827 -0.024755634 -0.021994507
0.01507936 -0.10959026 0.194691 -0.057878498 -0.016404469 0.0725029 0.03233829 -0.07908029
-0.043739848 -0.112471335 -0.14946425 -0.09806678 0.057368636 0.11005138 0.08037476 0.02628759
0.036263194 -0.1579276 0.002340695 0.043266464 0.08275646 -0.16087516 0.10251759 -0.034349
-0.020952065 0.15344569 -0.022016939 -0.09027183 0.05692552 -0.007084837 -0.026435137 0.15023148
0.149549 0.046515703 -0.029404942 -0.14065257 0.04374038 0.02276824 -0.011186764 0.021233551
0.12758654 -0.16560262 0.080368705 -0.04479716 -0.03644598 0.14367062 -0.10525934 -0.105534196
0.07161659 0.017028023 -0.018397659 0.02561733 -0.100218974 -0.123178646 -0.011613181 -0.09247315
0.030063849 0.008387368 -0.08536982 -0.08681996 0.1284699 -0.052996263 0.027874954 0.017421324
0.0044678194 0.097235575 -0.21071582 -0.013334088 0.10545521 -0.044429515 -0.010668369 0.059513774
-0.03952279 0.026514713 0.16594565 0.015098192 0.031111697 0.03686249 0.07922363 0.059247244

exp_avg f4 [8, 1, 7, 7]
00000000: f2a6 363d 0245 003d 4bf4 333c 1ac5 c83b
00000010: cc57 633a 579a e43c 166c fbba 57ac da3c
00000020: 163a 4f3d fc7f fdba 21c4 07bb d86b c43b
00000030: 40a1 d33c c8b6 22bc b8f5 ae3c 9ae7 023d
00000040: 28ed 0dbc 6f0d e23b 6ec5 f53b 1abf e1bc
00000050: 1d5f 423a 7fed ac3c 1d84 c9bc 518e a0bc
00000060: edb5 653d 9882 ae3c c159 59bd 0b3a e7bc
00000070: d918 e33c d688 76bd 4ed0 b8bc 0a12 993c
00000080: 0638 84bc 442f 2cbd 87cf 8bbc 146a a33c
00000090: 27e3 d0bb af36 8b3b dfcc f03c 275b 24bc
000000a0: beab a2bb 8653 2ebc e686 cd3b e4c3 79bb
000000b0: 9aeb 83bc 3d60 1ebc 53db 3ebd 6963 18bd
000000c0: e3e0 bdbc ee86 d43c ffb7 f2bb 5456 c9bc
000000d0: 190a 90bc 2923 8ebc 4494 a9bc d106 043c
000000e0: 171d 233c e810 e43c dbb7 3eba a7fe 35bc
000000f0: 1b6d beba 3a21 703c 5c57 343b f9a8 a33c
00000100: 577d ef3c 0ac5 91ba 1077 acbc d72f 16bc
00000110: fd37 6abc 61de 953c 840c 563c 38e7 4a3b
00000120: 1248 4ebc f9b8 843c db8f 72ba f502 15bd
00000130: 3865 a4bb 2b5e 163c d8b3 cbbc 8726 cebc
00000140: dd37 9bbc b5bc e6bc 4958 34bd 4177 80bc
00000150: 6f4b 1d3b f0ce 9c3c 3e6e 663c eab2 983c
00000160: e640 7c3c 41b8 733c b876 a13c b4c9 583c
00000170: 74da 7a3c 6f59 4f3c fcb2 433c 09dd 29ba
00000180: cdfc cf3a af27 e43a 7f65 ad3c 7351 e23c
00000190: 7446 c83c d014 a53c a62d 943c 815d bfbb
000001a0: 833c 703c 429b 04bb 4647 3dbc 1011 3c3a
000001b0: 89fc 5b3c 45e2 a23b cacc b7bc 4667 36bb
000001c0: e834 a93c 3610 1d3b 9f55 853c d6c7 593c
000001d0: 7359 37bc 4a3a 6dbb 041b ef3b af0d 373c
000001e0: 5802 1839 a418 183b 4fc0 e73b 1f9a 8fbc
000001f0: 4516 0fbc f61d 303c a127 cbbc a28f bcbc
00000200: 7034 15bc 4e96 93bc 7bfe 25bd 5c08 e8bc
00000210: 8da3 9f3b c76f da3b 9054 80bc 2c12 763c
00000220: 4877 653c c325 26bc a997 79bc 317e 923c
00000230: 3676 503c f32d 00bc 521f 253b c736 03bc
00000240: ec36 73bc 8feb 28bc 5588 9d3a 13b4 35bc
00000250: 03c0 2a3a c8c1 b93b 8662 38bc 8938 32bc
00000260: cd2e 6fbb 4289 873c 482e 14bc ba37 933c
00000270: 0ed2 c23c 6b8b 8cbb 4d5e c6bb 71b4 863c
00000280: a468 943c 519d 7cbc ea0b 26bc d5d7 ab3b
00000290: 50b2 c7bc 9ee4 c6bc 8218 a63b 036d a73c
000002a0: cc4f 8dbc eb45 0a3c 038f 4b3c def7 85bc
000002b0: 0575 9ebc 44e8 7a3c ace0 ed3c 8dcd 8cbc
000002c0: 8884 3fbc c242 65bc ac48 0cbd dadc 46bc
000002d0: 66f4 1d3b 66ba cb3b c3cc 953b 79d7 9a3c
000002e0: 43bd 5d3b 54af 18bc b2ab 813c 33e6 723c
000002f0: 7313 e13b addb c53b b0e0 8c3b c742 9a3b
00000300: 4063 a8bb 875c 813b 6295 d6ba 6692 d43a
00000310: 21c8 ef3c 7989 733c b591 6b3b 529f 143d
00000320: b281 343d 139b 953d f2e1 d83d d918 133c
00000330: e82c bf3c bd8f a8bb 73a9 ca3c 3094 e83c
00000340: d578 073d 7fe3 973d 9e3f 0abc b59e 6ebd
00000350: cbc4 2fbd 4f32 553c c80c 73bb aca8 a9bc
00000360: bc54 9e3d d78f e7bc 62e1 9bbd c19c febc
00000370: 1639 143d b6ff 0e3b e8d3 0ebd c1f6 f13c
00000380: d154 afbc 6ee9 90bd 1858 2fbd 672b b9bc
00000390: 08bb 97bc b868 35bc 6606 883c 4a1b 09bd
000003a0: 8440 fcbb 3551 97bc c751 2ebc bc6d 0dbb
000003b0: 8278 183c a380 a83c 6a1f 39bd 08fa 1bbd
000003c0: 3190 f6bc 676b 2cbc c5dc 55bc 3af6 95bc
000003d0: 045c a33c f0ec 863c e639 9abc 79bc a9bc
000003e0: 355d 3b3c adc5 c53b b877 0d3c 4794 0b3b
000003f0: a264 3c3b fa53 17bc ddb3 cbbc 1f73 743c
0.044592805 0.03131581 0.010983537 0.006127012 0.00086724455 0.027905626 -0.0019181992 0.026693506
0.050592504 -0.001934051 -0.0020716267 0.0059943013 0.025833726 -0.009931274 0.021357402 0.031959154
-0.0086624995 0.006898574 0.007500342 -0.027556945 0.00074146857 0.02110934 -0.02459913 -0.019599112
0.0560817 0.021302506 -0.05306411 -0.02822592 0.02772181 -0.06018909 -0.022560265 0.01868536
-0.016139995 -0.042037264 -0.01706673 0.019948043 -0.006374735 0.004248462 0.029394565 -0.010031498
-0.004964321 -0.010640031 0.0062721847 -0.0038111145 -0.016103555 -0.0096665 -0.046595883 -0.03720418
-0.023178523 0.025943246 -0.007407188 -0.024577297 -0.01758294 -0.01735075 -0.020700581 0.008058266
0.009955666 0.027840093 -0.00072753214 -0.011108077 -0.0014528366 0.014656359 0.002751789 0.019978033
0.029234571 -0.0011121344 -0.021052867 -0.009166679 -0.014295575 0.018294515 0.013064507 0.003096057
-0.012590425 0.016201483 -0.00092530035 -0.036379773 -0.005016949 0.009177725 -0.02486603 -0.025164856
-0.018947536 -0.028166154 -0.044029508 -0.015681865 0.002400126 0.019141644 0.01406437 0.01864
0.015396332 0.0148754725 0.01970993 0.0132316835 0.015310872 0.0126556 0.011944529 -0.0006479775
0.0015868187 0.0017406846 0.021166561 0.027626729 0.024447657 0.020151526 0.018088173 -0.005840004
0.014662865 -0.0020234142 -0.011552637 0.00071741734 0.013426908 0.004970821 -0.022436518 -0.0027832552
0.02065511 0.0023965961 0.016276179 0.0132922735 -0.01119076 -0.0036198073 0.0072969217 0.011172696
0.00014496723 0.0023208046 0.0070724855 -0.017529545 -0.008733337 0.010749331 -0.02479917 -0.023017708
-0.00910674 -0.018016007 -0.040525895 -0.028324299 0.0048717917 0.006666157 -0.015665323 0.015018981
0.01400549 -0.010140839 -0.0152339125 0.017882438 0.012723496 -0.007823455 0.002519567 -0.008008665
-0.014844637 -0.010310068 0.001201878 -0.011090296 0.00065135973 0.0056688525 -0.011253959 -0.010877737
-0.0036496401 0.016544942 -0.009044237 0.017970908 0.023781803 -0.004289081 -0.006053722 0.016443463
0.018116303 -0.0154183665 -0.0101346765 0.005244235 -0.024377018 -0.024278935 0.0050688395 0.020437723
-0.017249964 0.008439521 0.012424233 -0.016353544 -0.019342909 0.0153141655 0.029037796 -0.017187858
-0.011689313 -0.013992967 -0.034248993 -0.012137616 0.0024101972 0.006217289 0.0045715286 0.018901573
0.0033834733 -0.009319145 0.015828941 0.014825392 0.0068687736 0.0060381503 0.004299246 0.0047076675
-0.0051387846 0.0039477977 -0.0016371424 0.0016217947 0.029270234 0.014864319 0.0035945002 0.036284752
0.044069 0.07304969 0.10589971 0.008978092 0.023336843 -0.005144088 0.024739003 0.028390974
0.03307422 0.07416438 -0.008438019 -0.058256824 -0.042912286 0.013012483 -0.0037086476 -0.020710312
0.077310055 -0.02826683 -0.07611348 -0.031080605 0.036187254 0.0021819896 -0.03487006 0.029536607
-0.021402748 -0.07075773 -0.042808622 -0.022603704 -0.0185218 -0.01107233 0.016604614 -0.03347329
-0.0076981205 -0.01847134 -0.010639614 -0.00215803 0.009306075 0.020569151 -0.045195974 -0.038080245
-0.030098053 -0.010523654 -0.013053124 -0.018305887 0.019941337 0.016470402 -0.018826436 -0.020719754
0.0114357965 0.0060355277 0.0086345 0.0021298097 0.0028746505 -0.00923633 -0.024866039 0.014920025

exp_avg_sq f4 [8, 1, 7, 7]
00000000: 03a3 533d 6c47 5f3d ebe2 923d 8b6c a43d
00000010: 9dbd 543d 8623 853d 4276 663d 79b8 803d
00000020: 5c33 173e 1635 f13d f751 e03d 2b41 c13d
00000030: 2d68 0c3e 02f4 833d 2d2b 5a3d f721 883d
00000040: 8010 123e 096c e73d b7b0 143e 77e5 a63d
00000050: d538 5b3d 0610 c03d 7ad0 a03d 5089 da3d
00000060: d6ad 4a3e 9b1e c43d a28a ba3d 2116 ad3d
00000070: 4c8c 8c3d 22d0 c13d af75 483e b23f d33d
00000080: c513 763e 6ddf 203e 7537 653d 7b6a a03d
00000090: 4254 963d 62c3 a33d 51f0 fc3d 5c25 973d
000000a0: 4b75 ad3d 06af a83d 00cd 353d 638c 3d3d
000000b0: f333 983d 2971 963d 8679 a63d f2e2 6e3d
000000c0: 4daf 463d a176 243d 588c 253d 8825 3d3d
000000d0: 81d4 5c3d 7043 533d 6706 693d d495 6e3d
000000e0: a876 483d 1d85 ad3d 295e 643d 2bba a23d
000000f0: 78dc 6b3d 5096 953d 548b 6a3d 6519 2f3d
00000100: 0ae9 3f3d ee24 b13d 1204 0c3e 4c42 fa3d
00000110: ec07 aa3d 9a45 823d 8a9a 813d 3602 563d
00000120: 0bc0 6c3d 3426 d53d 0d1f 953d 3ecf 8d3d
00000130: e688 713d b201 853d ec0c 3e3d b58b 653d
00000140: ed11 6d3d 4050 fa3d b495 073e 692b 743d
00000150: 650b 813d 8c0d 8b3d 7797 513d 0f90 973d
00000160: ee56 423d 7021 7b3d b89f 753d 53a3 373d
00000170: ff8d 153d 03b7 133d 3710 333d 3dd6 4e3d
00000180: 0042 2b3d 440a 2a3d e286 a43c 7104 7b3c
00000190: 0ea0 a53c 672f 893c 786d 813c 332a a13c
000001a0: 616b b83c aa8c 863c bf1c 6f3c c622 883c
000001b0: 8048 403c d77d b83c deb3 633c 4f3c 7d3c
000001c0: b972 843c b8b5 923c 7b53 9b3c f559 613c
000001d0: 9155 c73c 7926 993c 5a2c 973c c714 af3c
000001e0: 5158 853c 2304 853c 621c 113d 60be e03c
000001f0: 06bb 303d dd94 fd3c 42f6 723c b8ee 413c
00000200: 09b5 5f3c b373 ae3c 84e9 843c 3ec2 503c
00000210: cae3 b63c 5ed8 ab3c 970b 8d3c d424 a13c
00000220: 6e45 3e3d dcb4 f03c 74c3 f03c 3101 123d
00000230: f345 883c b0f3 a03c 532d cb3c 46bd 933c
00000240: 5099 ea3c 6fd2 993c 4da7 af3c 1156 2d3c
00000250: b8ad 753c 5614 793c b59f 6d3c 07a8 4f3c
00000260: c802 6f3c 082f 373c c86d 613c b6a9 583c
00000270: 1e66 c63c 2ff4 6f3c cfaf 963c 3a2e 823c
00000280: eb5e 6c3c 83c4 9b3c fd2a 003d 16b9 513c
00000290: dcd9 ef3c 3abe 413c 4fc5 623c 0ba8 803c
000002a0: 9686 833c df58 533c 9280 2e3d da02 c13c
000002b0: 65a7 c83c 1c26 983c 6d20 533c 0821 833c
000002c0: e02c 753c e36a 723c b233 263d 6c28 8c3c
000002d0: 4fe0 9a3c e76d 913c 1e31 623c f5d7 8b3c
000002e0: b916 bd3c c291 a53c e341 223d 170d bd3c
000002f0: 73c2 8f3c 3473 303c e336 3d3c f916 463c
00000300: 6bb9 8b3c 03dd 3a3c 5e55 783c 512a 703c
00000310: 73a0 7e3d e3d0 7f3d 0b44 af3d 4b89 bb3d
00000320: 1b6f b03d acec 853d 0c24 833d 9763 a73d
00000330: 488a c93d 355d 9c3d 9298 cf3d bc7a a93d
00000340: 4aaf cd3d 274e 983d 7465 7d3d 6179 123e
00000350: 5791 673e eb44 d03d 4663 673e 1457 b03d
00000360: fdf8 703d d1a8 cc3d e35f d13d ac83 b33d
00000370: 751d 3a3e 8978 1d3e 1a44 aa3d 8636 b33d
00000380: dfcc 853d 8473 993d f70d 153e 7387 f83d
00000390: 8e75 2b3e 62d0 8f3d f5c7 603d 6be3 b13d
000003a0: 853a 233e 444b c23d 76d1 1c3e 253e 9d3d
000003b0: 43a3 fc3d a9d2 973d 83ff 613d ed23 863d
000003c0: b6ad 7f3d e48e 8d3d 128e 953d 890a 633d
000003d0: 91d2 483d 12a9 e23c 1b51 f93c 946f 543d
000003e0: 1768 393d eca9 fa3c ce15 123d f256 033d
000003f0: ba43 463d 4cec 4e3d f618 163d 41ab 8f3d
0.051669132 0.054511473 0.071721874 0.080285154 0.05193864 0.06500916 0.056265123 0.06285185
0.14765686 0.117777035 0.109531336 0.09436258 0.13711615 0.06443025 0.053263832 0.06647103
0.14264107 0.11299903 0.14520536 0.08149236 0.053520996 0.09378056 0.07852264 0.106707215
0.19792876 0.0957615 0.09108473 0.084514864 0.06862697 0.09463526 0.19576143 0.10314883
0.24030979 0.1571023 0.05596109 0.078328095 0.0734029 0.07996251 0.12350524 0.073801726
0.084696375 0.08236508 0.044384956 0.04627646 0.074317835 0.07345802 0.081286475 0.0583219
0.048507024 0.040152196 0.040417045 0.04617837 0.053913597 0.051577985 0.05689087 0.058248356
0.048941284 0.08472655 0.05575386 0.07945665 0.057583302 0.073040605 0.05726178 0.042748827
0.046853103 0.08649622 0.13673428 0.122196764 0.08302292 0.06360932 0.06328304 0.052248202
0.057800334 0.10407677 0.07281313 0.06924294 0.058968447 0.06494464 0.046399042 0.056041438
0.057878423 0.12222338 0.13240701 0.05961171 0.063010015 0.06789693 0.05116984 0.07400524
0.047446184 0.061311185 0.059966773 0.044833492 0.03651237 0.036063205 0.043716636 0.050497282
0.04181099 0.041513696 0.020083848 0.015320883 0.020217922 0.016746236 0.01579927 0.019673442
0.02251214 0.016424496 0.014594256 0.016618144 0.011736035 0.022520943 0.013897864 0.015456273
0.016167985 0.017908916 0.018960705 0.013754358 0.024332793 0.018695103 0.018453766 0.021372212
0.016277464 0.016237324 0.03542746 0.027434528 0.04314711 0.030954773 0.01482922 0.0118367
0.013654002 0.021295404 0.01622463 0.012741623 0.022325415 0.020977195 0.01721744 0.019670881
0.046452932 0.029383115 0.029390074 0.035645667 0.016634917 0.01964745 0.024801886 0.018034589
0.028637558 0.0187771 0.02144208 0.010579602 0.014995031 0.015202602 0.014503409 0.012674338
0.014588065 0.011180647 0.013759084 0.013224056 0.024218615 0.01464562 0.018394379 0.015891183
0.014426927 0.019014603 0.031290997 0.012800476 0.029278688 0.011825139 0.013840987 0.01570513
0.016055387 0.0128996065 0.042603083 0.02356093 0.024493882 0.01857286 0.012886149 0.016006961
0.014964312 0.014795992 0.040576644 0.017109118 0.018905787 0.0177526 0.013805656 0.01707075
0.023082124 0.020211104 0.039613616 0.02307753 0.017548775 0.010769654 0.011548731 0.012090438
0.017056188 0.011405232 0.015157072 0.0146585265 0.062164735 0.06245507 0.085579 0.09157046
0.08614942 0.06539282 0.0640336 0.08173292 0.09840828 0.07634965 0.10136522 0.08275363
0.10043199 0.074367814 0.06186433 0.14304115 0.22614037 0.10169395 0.22596464 0.08610359
0.058831204 0.09993137 0.10223367 0.08765349 0.181753 0.15378012 0.083137706 0.08750634
0.06533217 0.07492736 0.14556108 0.1213521 0.16744062 0.07022168 0.054878194 0.08685955
0.15940292 0.09487012 0.15314278 0.07677869 0.12335827 0.07413227 0.055175316 0.06549821
0.062421523 0.0691202 0.073024884 0.05542997 0.049028937 0.02766851 0.030434182 0.05186422
0.045265283 0.030598603 0.035665326 0.03206534 0.048404433 0.05051832 0.0366449 0.07015086

exp_avg f4 [32, 8, 7, 7]
00000000: 0400 0000 0400 0000 0400 0000 0400 0000
00000010: 0400 0000 0400 0000 0400 0000 0400 0000
00000020: 0400 0000 0400 0000 0400 0000 0400 0000
00000030: 0400 0000 0400 0000 0400 0000 0400 0000
00000040: 0400 0000 0400 0000 0400 0000 0400 0000
00000050: 0400 0000 0400 0000 0400 0000 0400 0000
00000060: 0400 0000 0400 0000 0400 0000 0400 0000
00000070: 0400 0000 0400 0000 0400 0000 0400 0000
00000080: 0400 0000 0400 0000 0400 0000 0400 0000
00000090: 0400 0000 0400 0000 0400 0000 0400 0080
000000a0: 0400 0080 0400 0000 0400 0000 0400 0000
000000b0: 0400 0000 0400 0080 0400 0080 0400 0080
000000c0: 0400 0080 0400 0000 0400 0080 0400 0080
000000d0: 0400 0080 0400 0080 0400 0080 0400 0080
000000e0: 0400 0000 0400 0080 0400 0080 0400 0080
000000f0: 0400 0080 0400 0080 0400 0080 0400 0000
00000100: 0400 0080 0400 0080 0400 0080 0400 0080
00000110: 0400 0080 0400 0080 0400 0000 0400 0000
00000120: 0400 0000 0400 0000 0400 0080 0400 0080
00000130: 0400 0080 0400 0000 0400 0000 0400 0000
00000140: 0400 0000 0400 0000 0400 0080 0400 0080
00000150: 0400 0000 0400 0000 0400 0000 0400 0000
00000160: 0400 0000 0400 0000 0400 0080 0400 0000
00000170: 0400 0000 0400 0000 0400 0000 0400 0000
00000180: 0400 0000 0400 0000 0400 0080 0400 0080
00000190: 0400 0080 0400 0080 0400 0080 0400 0080
000001a0: 0400 0080 0400 0080 0400 0080 0400 0080
000001b0: 0400 0080 0400 0080 0400 0080 0400 0080
000001c0: 0400 0080 0400 0080 0400 0080 0400 0080
000001d0: 0400 0080 0400 0080 0400 0080 0400 0080
000001e0: 0400 0080 0400 0080 0400 0080 0400 0080
000001f0: 0400 0080 0400 0080 0400 0080 0400 0080
00000200: 0400 0080 0400 0000 0400 0000 0400 0000
00000210: 0400 0000 0400 0000 0400 0000 0400 0000
00000220: 0400 0000 0400 0000 0400 0000 0400 0000
00000230: 0400 0000 0400 0000 0400 0000 0400 0000
00000240: 0400 0000 0400 0000 0400 0000 0400 0080
00000250: 0400 0080 0400 0080 0400 0080 0400 0000
00000260: 0400 0000 0400 0080 0400 0080 0400 0000
00000270: 0400 0000 0400 0080 0400 0000 0400 0000
00000280: 0400 0080 0400 0080 0400 0080 0400 0000
00000290: 0400 0080 0400 0080 0400 0080 0400 0000
000002a0: 0400 0080 0400 0000 0400 0000 0400 0080
000002b0: 0400 0000 0400 0000 0400 0000 0400 0080
000002c0: 0400 0000 0400 0000 0400 0080 0400 0080
000002d0: 0400 0000 0400 0080 0400 0080 0400 0080
000002e0: 0400 0080 0400 0080 0400 0080 0400 0080
000002f0: 0400 0080 0400 0080 0400 0080 0400 0080
00000300: 0400 0080 0400 0080 0400 0000 0400 0000
00000310: 0400 0000 0400 0000 0400 0000 0400 0000
00000320: 0400 0080 0400 0080 0400 0080 0400 0080
00000330: 0400 0080 0400 0080 0400 0080 0400 0080
00000340: 0400 0080 0400 0080 0400 0000 0400 0000
00000350: 0400 0000 0400 0080 0400 0080 0400 0080
00000360: 0400 0080 0400 0000 0400 0000 0400 0000
00000370: 0400 0000 0400 0000 0400 0080 0400 0080
00000380: 0400 0000 0400 0080 0400 0080 0400 0000
00000390: 0400 0000 0400 0080 0400 0080 0400 0000
000003a0: 0400 0000 0400 0080 0400 0000 0400 0000
000003b0: 0400 0080 0400 0080 0400 0080 0400 0000
000003c0: 0400 0000 0400 0000 0400 0000 0400 0000
000003d0: 0400 0080 0400 0080 0400 0080 0400 0080
000003e0: 0400 0000 0400 0080 0400 0080 0400 0080
000003f0: 0400 0000 0400 0000 0400 0000 0400 0000
6e-45 6e-45 6e-45 6e-45 6e-45 6e-45 6e-45 6e-45
6e-45 6e-45 6e-45 6e-45 6e-45 6e-45 6e-45 6e-45
6e-45 6e-45 6e-45 6e-45 6e-45 6e-45 6e-45 6e-45
6e-45 6e-45 6e-45 6e-45 6e-45 6e-45 6e-45 6e-45
6e-45 6e-45 6e-45 6e-45 6e-45 6e-45 6e-45 -6e-45
-6e-45 6e-45 6e-45 6e-45 6e-45 -6e-45 -6e-45 -6e-45
-6e-45 6e-45 -6e-45 -6e-45 -6e-45 -6e-45 -6e-45 -6e-45
6e-45 -6e-45 -6e-45 -6e-45 -6e-45 -6e-45 -6e-45 6e-45
-6e-45 -6e-45 -6e-45 -6e-45 -6e-45 -6e-45 6e-45 6e-45
6e-45 6e-45 -6e-45 -6e-45 -6e-45 6e-45 6e-45 6e-45
6e-45 6e-45 -6e-45 -6e-45 6e-45 6e-45 6e-45 6e-45
6e-45 6e-45 -6e-45 6e-45 6e-45 6e-45 6e-45 6e-45
6e-45 6e-45 -6e-45 -6e-45 -6e-45 -6e-45 -6e-45 -6e-45
-6e-45 -6e-45 -6e-45 -6e-45 -6e-45 -6e-45 -6e-45 -6e-45
-6e-45 -6e-45 -6e-45 -6e-45 -6e-45 -6e-45 -6e-45 -6e-45
-6e-45 -6e-45 -6e-45 -6e-45 -6e-45 -6e-45 -6e-45 -6e-45
-6e-45 6e-45 6e-45 6e-45 6e-45 6e-45 6e-45 6e-45
6e-45 6e-45 6e-45 6e-45 6e-45 6e-45 6e-45 6e-45
6e-45 6e-45 6e-45 -6e-45 -6e-45 -6e-45 -6e-45 6e-45
6e-45 -6e-45 -6e-45 6e-45 6e-45 -6e-45 6e-45 6e-45
-6e-45 -6e-45 -6e-45 6e-45 -6e-45 -6e-45 -6e-45 6e-45
-6e-45 6e-45 6e-45 -6e-45 6e-45 6e-45 6e-45 -6e-45
6e-45 6e-45 -6e-45 -6e-45 6e-45 -6e-45 -6e-45 -6e-45
-6e-45 -6e-45 -6e-45 -6e-45 -6e-45 -6e-45 -6e-45 -6e-45
-6e-45 -6e-45 6e-45 6e-45 6e-45 6e-45 6e-45 6e-45
-6e-45 -6e-45 -6e-45 -6e-45 -6e-45 -6e-45 -6e-45 -6e-45
-6e-45 -6e-45 6e-45 6e-45 6e-45 -6e-45 -6e-45 -6e-45
-6e-45 6e-45 6e-45 6e-45 6e-45 6e-45 -6e-45 -6e-45
6e-45 -6e-45 -6e-45 6e-45 6e-45 -6e-45 -6e-45 6e-45
6e-45 -6e-45 6e-45 6e-45 -6e-45 -6e-45 -6e-45 6e-45
6e-45 6e-45 6e-45 6e-45 -6e-45 -6e-45 -6e-45 -6e-45
6e-45 -6e-45 -6e-45 -6e-45 6e-45 6e-45 6e-45 6e-45

exp_avg_sq f4 [32, 8, 7, 7]
00000000: 8b0f ac2c 5527 9b2c 81f6 c72c d19c d52c
00000010: 6e63 cd2c 19a8 a72c 8f80 f92c 121a 912c
00000020: 3b3c b02c 940b a12c dc23 ea2c a02b 032d
00000030: f0b6 822c 2a13 e22c 3754 3b2c 9748 d62c
00000040: 9696 f92c f1eb 6e2c 99e1 0a2d 7dc7 0b2d
00000050: 600b 8d2c dc15 022d 6ae9 a42c 76b1 222d
00000060: c384 d62c e576 aa2c dfb0 2a2d a79f 852c
00000070: c49e e12c 972f e42c 1e9c 9f2c 9b27 dd2c
00000080: 0c9f 932c a2f0 032d 6d92 0a2d 2dfd f82c
00000090: d0f4 d52c b5cc d52c e67e 182d b493 092d
000000a0: 2a04 412c ab60 c32c 88d3 ae2c 702b a62c
000000b0: f77d cc2c d6f1 e12c a0eb db2c 0196 8e2c
000000c0: 9c42 8f2c b9c6 8e2c 1735 0f2d 4181 852d
000000d0: b329 272d 0534 322d 5924 de2c 53a8 572d
000000e0: d566 082d c535 252d afd7 9e2d 1844 032d
000000f0: e6a4 ed2c d84e 892d 8188 1a2d cb05 d72c
00000100: cd95 8c2d fcb4 882d 7f79 262d 4e8e 0e2d
00000110: f7b8 852d 4d7b 572d 30a2 452d cdeb 912d
00000120: 2f3d 322d 2692 ed2c 40a9 9c2d f0d7 612d
00000130: 1c99 442d 44e0 6f2d 25c0 552d 7142 312d
00000140: 8161 322d bf8d 962d eb7a 822d 0379 722c
00000150: bba2 492d 4336 2a2d 374c b62c a244 662d
00000160: 2d2a 7d2d e7f2 372d b792 332d fef5 362d
00000170: 244d f72c e133 2a2d 991e 892d 32d4 812d
00000180: 3094 bf2c 4886 362d 3e8e d62c 9091 f12c
00000190: 53f6 fb2c a297 102d a8bc ce2c 3192 212d
000001a0: 6bff ec2c a63f d32c 0dcb 192d b237 1b2d
000001b0: 9678 002d b37f 162d 2ac3 2f2d 9009 f42c
000001c0: 9d86 f72c 23f5 3c2d f52c 312d 7d7d f12c
000001d0: d239 522d 2845 4d2d 5493 182d 122f f42c
000001e0: 9719 112d 6af1 492d c0d2 6d2d 61b4 352d
000001f0: 956b 402d 2ac6 942d 74ee 192d 2300 3b2d
00000200: 774e 1d2d 960f 6c2d 1c64 8c2d e533 ae2c
00000210: 5ab8 7b2d 232c e62c a8c5 332d deaf 582d
00000220: 19c4 932c a55c 9d2d 3e44 822d 33c7 a42c
00000230: 56bb 1a2d be0a e12c 2c3a 552d 4284 502d
00000240: 2ba6 242d eccb 4e2d a674 342d abb5 0c2d
00000250: 4323 9d2d 0b29 442d b78c 902d 8979 9b2d
00000260: b509 1c2d 7c6e 962d c599 8c2d 3c7f 152d
00000270: c9c3 d22d 48b6 472d 4966 e22d 92fd 792d
00000280: 1d11 7c2d 3c51 8f2d bad0 a12d 2580 892d
00000290: 1b39 052e eeb3 ec2c db3c 072e 62a8 712d
000002a0: 9826 522d d53f 022e b046 922d 75b9 ad2d
000002b0: 20e2 012e 3c8a ff2c 7273 d62d 8872 802d
000002c0: 9741 8e2d 8adf 1b2e 641c ba2c a391 db2d
000002d0: 45c1 c92d d460 0a2d d533 962d 286a a92d
000002e0: 9e6a 982d 193c 182e ee07 092d 2e60 e72d
000002f0: 92ee a92d 6d5c 892d 1089 af2d 37dd 932d
00000300: 6ea4 842d 8d52 ee2d fe18 192d 64b9 b72d
00000310: cc0f 8c2c 7898 652c 8a68 bd2c 6cda cf2c
00000320: 9e02 e62c 8c0b 0d2d 4b39 962c 63e5 762c
00000330: ed6c d52c 27bb a02c ead9 112d c280 142d
00000340: 47a3 352d 04ed de2c a4f5 e82c ff0b b42c
00000350: 974a 132d 164f d22c d729 122d b4b5 292d
00000360: 2596 cb2c 2a9f 0c2d 1178 b32c fe90 ca2c
00000370: e92f 662d c6f3 432c 340c 502d a021 092d
00000380: a12c 8c2c 126d 112d c7e9 b32c e246 332d
00000390: 848e 182d fa04 0f2d 3297 212d 7908 de2c
000003a0: b403 002d b1af ff2c cead 022d 2e1b 0e2d
000003b0: 5326 0c2d 94fe 1e2d ba07 9f2c 137b 0b2d
000003c0: 5865 832c 9cc3 0b2d 8a17 dc2c 56d2 132d
000003d0: a386 a52c 42f5 8c2d 62cb 592d 37f8 8e2d
000003e0: 2737 8c2d d5c8 862d 237e 9a2d 121b ea2c
000003f0: f464 642d 0605 852d 070d 552d 8a1a 052e
4.8902596e-12 4.4097317e-12 5.6832876e-12 6.0712342e-12 5.8374893e-12 4.765088e-12 7.0912785e-12 4.1240423e-12
5.008908e-12 4.5771806e-12 6.654661e-12 7.456175e-12 3.7151324e-12 6.425434e-12 2.6621047e-12 6.090305e-12
7.093724e-12 3.3952808e-12 7.8944845e-12 7.9455305e-12 4.008724e-12 7.394498e-12 4.6870745e-12 9.248038e-12
6.0969853e-12 4.8448905e-12 9.7026545e-12 3.7978123e-12 6.412511e-12 6.4854333e-12 4.5363843e-12 6.285595e-12
4.195649e-12 7.499919e-12 7.876905e-12 7.076692e-12 6.0810038e-12 6.076551e-12 8.668377e-12 7.820345e-12
2.7429261e-12 5.5529656e-12 4.968862e-12 4.7228263e-12 5.8120136e-12 6.421734e-12 6.250514e-12 4.0525365e-12
4.0716996e-12 4.0579454e-12 8.140397e-12 1.517775e-11 9.50211e-12 1.0129679e-11 6.313655e-12 1.22587105e-11
7.753538e-12 9.391103e-12 1.8058303e-11 7.461608e-12 6.7542525e-12 1.561011e-11 8.7841965e-12 6.1113107e-12
1.5982682e-11 1.5541783e-11 9.462985e-12 8.1033635e-12 1.520249e-11 1.2248713e-11 1.1234166e-11 1.6589308e-11
1.0131714e-11 6.752171e-12 1.7810309e-11 1.2837717e-11 1.1175307e-11 1.3635374e-11 1.2150313e-11 1.0076038e-11
1.0139779e-11 1.7115974e-11 1.4833875e-11 3.4457443e-12 1.1461661e-11 9.67543e-12 5.1812127e-12 1.3089226e-11
1.439075e-11 1.0456281e-11 1.0207549e-11 1.04001235e-11 7.0287266e-12 9.674901e-12 1.5588685e-11 1.4759836e-11
5.4449986e-12 1.0375319e-11 6.098038e-12 6.8657927e-12 7.1611965e-12 8.2191216e-12 5.875817e-12 9.1842514e-12
6.7358805e-12 6.004047e-12 8.742129e-12 8.823097e-12 7.302733e-12 8.554868e-12 9.990933e-12 6.9359588e-12
7.0351073e-12 1.0740994e-11 1.0071268e-11 6.863564e-12 1.1949957e-11 1.1668257e-11 8.672913e-12 6.940123e-12
8.247978e-12 1.1479132e-11 1.3518686e-11 1.0328711e-11 1.0937824e-11 1.6913655e-11 8.74999e-12 1.062975e-11
8.9418395e-12 1.3418508e-11 1.5960615e-11 4.951139e-12 1.4308632e-11 6.5418933e-12 1.02188605e-11 1.2317229e-11
4.1997625e-12 1.7889976e-11 1.4809595e-11 4.683276e-12 8.7954834e-12 6.3960772e-12 1.2120565e-11 1.1852798e-11
9.359217e-12 1.1755024e-11 1.02577166e-11 7.998417e-12 1.7864493e-11 1.11504235e-11 1.6433395e-11 1.7675432e-11
8.869729e-12 1.710209e-11 1.5984445e-11 8.497921e-12 2.3961182e-11 1.1352315e-11 2.5738649e-11 1.4210315e-11
1.43283415e-11 1.6293293e-11 1.8396274e-11 1.5632004e-11 3.029142e-11 6.7274996e-12 3.0749497e-11 1.37366524e-11
1.19456875e-11 2.9615272e-11 1.662967e-11 1.9750182e-11 2.9532043e-11 7.262883e-12 2.4380251e-11 1.4602777e-11
1.6172659e-11 3.5441462e-11 5.28959e-12 2.4962093e-11 2.2936883e-11 7.865892e-12 1.7076044e-11 1.9260218e-11
1.7327747e-11 3.4614176e-11 7.789309e-12 2.6304372e-11 1.9319022e-11 1.5616142e-11 1.9956065e-11 1.6810204e-11
1.5079684e-11 2.7094127e-11 8.7025925e-12 2.0887021e-11 3.980793e-12 3.2627494e-12 5.3833092e-12 5.9075436e-12
6.5372837e-12 8.017486e-12 4.269617e-12 3.5086038e-12 6.0659173e-12 4.5682516e-12 8.290682e-12 8.441416e-12
1.0324914e-11 6.3359335e-12 6.621108e-12 5.1172395e-12 8.372545e-12 5.9773393e-12 8.3084295e-12 9.646884e-12
5.7862764e-12 7.99342e-12 5.100816e-12 5.7572827e-12 1.30846245e-11 2.7846488e-12 1.1826141e-11 7.795015e-12
3.983994e-12 8.266514e-12 5.1134405e-12 1.0190711e-11 8.6718445e-12 8.129714e-12 9.1853625e-12 6.31056e-12
7.27678e-12 7.2670416e-12 7.428237e-12 8.077801e-12 7.966588e-12 9.037788e-12 4.5199096e-12 7.928563e-12
3.7344954e-12 7.944669e-12 6.2553894e-12 8.4026865e-12 4.7045297e-12 1.6025074e-11 1.2380182e-11 1.625376e-11
1.594065e-11 1.5323224e-11 1.7563789e-11 6.6536854e-12 1.2982716e-11 1.512258e-11 1.2110541e-11 3.026427e-11
