trained_models/Sigma_25_t_20/checkpoints/checkpoint_10.pth (torch, 173091 bytes, 10 tensors)

conv_layer.conv_layers.0.parametrizations.weight.original f4 [8, 1, 7, 7]
00000000: 3be3 093d 1a50 143e b304 1e3b 11e5 893e
00000010: e17c 5ebd ab85 713c bba1 13bd b35e 743d
00000020: b4fa f43d 2464 01be dfe4 8b3e 9eda cd3d
00000030: a60f 243e 488e 363b f9e0 93ba 6d25 68bd
00000040: 9b66 523e 5126 2a3e 7b1a 283c 1f83 ac3c
00000050: 7048 fbbd d605 cabc 60a7 febc 4338 2d3e
00000060: 9ed1 19bf a7a8 49bd af21 8abd 1f47 84bc
00000070: 593e 133c 4e0d 1fbe 6d31 143e 4fd2 82be
00000080: 11e7 363e a66d ed3d 95e7 4abd e577 003e
00000090: 08f9 9a3d 094e 5c3d cb8e 833c cfb0 25bd
000000a0: c2bf 453c 63e1 663d 997f b3bc 7cbb 4b3d
000000b0: 0ce7 933d 08fb 9abd af2c ae3d a81d ae3c
000000c0: 9609 6e3d e7bb e0bc 1591 e2bd 4418 1dbc
000000d0: af35 0ebe f646 d83d a61d e43c 14c2 06bc
000000e0: 18e5 b03b cb2b 3e3d 3fe0 0b3e 33e1 10be
000000f0: 32a2 23bd 6cc4 26be eb43 3e3d 4b68 c2bd
00000100: 1411 2abd e854 8cbd cd0f 7e3e 22ac 303d
00000110: 985d f0bd 11dd 9dbd 8bed 3f3e 8cd0 233e
00000120: a323 9a3e db66 15bf 4c81 a4be a8e8 27be
00000130: 35c7 e0bd 9727 8e3d 5f27 883d 23b9 443e
00000140: 104a 87bc 1ab4 6cbd b757 053e 22e3 d23b
00000150: 6964 a0bb b464 94bd 9ecd f13d 75e4 62bd
00000160: 9930 45bc f64d f9bb 7a08 0a3d 01c1 23bd
00000170: e8d4 abbc 4468 a93d 7e20 dabd bc3a 873c
00000180: 3425 dd3d 72ed 7a3c 8457 2bbd b137 d5bd
00000190: 0258 0cbe 04b3 853c 5604 4abd 9bc4 13be
000001a0: 69e4 26bd 37c2 dcbd faa9 03be 118f 6cbd
000001b0: 31e9 6ebe d1c4 06be 439c 5c3e 4cf8 cd3d
000001c0: b9f9 ea3c cf1e bebd e351 76be 0ee9 8bbd
000001d0: 5e8a 563d aba4 6fbe 2601 8fbd ddfe fbbd
000001e0: 91da 5e3d 9e23 e0bd c3bd 4f3e 82e1 ebbc
000001f0: b747 2ebe 2635 9cbd dc73 b2bd 8612 5abe
00000200: 7393 573e 141e 343d 8a96 7f3e 83a8 8e3d
00000210: 2662 ffbd 28dd 893d f900 293d c253 d93b
00000220: 94aa 65be 2c28 bbbd 4fed 9a3d b76c 5fbd
00000230: 0242 41bc ff0e b2bd 5ee6 f03d 6e8e febd
00000240: 7238 033c 2913 df3b e476 d3bc 6907 a33c
00000250: 8b40 3c3e 7439 11be 4f6f ac3d 36f1 c6bd
00000260: 38e8 1d3c 9640 bbbd da70 183d 647d cfbd
00000270: a753 d43d 4737 3e3e 1417 243d 9fb1 c4bc
00000280: d040 e93d 3839 f13c 75e4 19bc 7828 32be
00000290: c58e 0a3e 3c50 9fbd 2d87 f3bd c79f 793e
000002a0: 73ad 1f3b fc09 c2bd a46a 2ebe 3689 afbd
000002b0: e62f ed3d 546f ebbd f71c 13be b9bb 203d
000002c0: 5203 d6bd 93a6 013e cb4a 9d3e 3ed5 43be
000002d0: 56c0 c03d 1866 4b3d 8b2d 9cbc 2d57 90bd
000002e0: f18b da3c 8c76 aa3d 6b3c 0c3e 4d55 973b
000002f0: 2ed9 75bd 30bd 97bc 96e7 76bd da40 30bd
00000300: 20e1 cf3d 006c bc3d d9b1 c7bc 6843 e9bc
00000310: 1bb3 95bc 80a7 09bd e77d 233d 00cc 533c
00000320: 21e1 41bd 5339 92bc 3a3a 833d 3de6 743c
00000330: 6c88 a5bc f838 7dbd 6854 dcbd 2263 8ebd
00000340: 95dd c2bc cce8 0e3c 5f95 a83d 06a8 493e
00000350: bad5 4bbe 8b42 2bbe 2881 533d c5a9 453e
00000360: 3654 083d 3d58 90bd 66a6 3c3e 9aed 23be
00000370: 5c14 39bf fbb4 1f3e f177 86bd f011 bf3c
00000380: baa8 ffbd 214c a73c 0ced 4e3e 250d 713e
00000390: 181e 1cbe 1993 44be 9c54 a0bd 7a4c a03d
000003a0: 0257 143d e941 123e de4a 053e c945 4abc
000003b0: 12c9 c13b 08c2 edbc 79a6 b3bd ec59 c7bd
000003c0: 3236 693d a269 c6bc 8299 1bbd e068 51bd
000003d0: 3d86 84bc 0664 a0bd 9f74 a0bd 1321 943d
000003e0: ca73 a7bd 83f3 703d 71c6 a6bd 2085 bebd
000003f0: 81f8 2cbc 7c40 f5bd 2e08 e1bd d0a1 09be
0.03366397 0.14483681 0.0024111688 0.26932576 -0.054318313 0.014741342 -0.03604291 0.059660625
0.1196188 -0.12635857 0.27323052 0.100514635 0.16021594 0.0027855802 -0.0011282257 -0.056676317
0.20546953 0.16616179 0.01026022 0.021058617 -0.12269676 -0.024660986 -0.03108567 0.16915993
-0.60085475 -0.049233105 -0.06744706 -0.016147194 0.008987033 -0.15532419 0.1447198 -0.25551078
0.17861582 0.115931794 -0.04953726 0.12545736 0.0756703 0.053785358 0.0160593 -0.04045182
0.012069644 0.05636729 -0.02191143 0.049739346 0.07221803 -0.07567412 0.085046165 0.021254376
0.05811461 -0.027433349 -0.110628285 -0.009588305 -0.13887666 0.1056041 0.027846169 -0.008224983
0.005398404 0.046428483 0.13659762 -0.14148407 -0.039949603 -0.16285866 0.04645149 -0.094925486
-0.041520193 -0.06852132 0.24810715 0.04313291 -0.117366016 -0.07708181 0.18742959 0.15997523
0.30105314 -0.5836007 -0.32129896 -0.16397345 -0.10975496 0.06941145 0.066481344 0.19211249
-0.016514808 -0.057788946 0.13021742 0.0064357677 -0.0048947823 -0.0724577 0.118067965 -0.055393655
-0.012035512 -0.0076081706 0.03369949 -0.039978985 -0.020975545 0.0827184 -0.10650729 0.016507499
0.107981116 0.0153154 -0.04183151 -0.10411013 -0.13705447 0.016320713 -0.04932054 -0.14430468
-0.040745173 -0.10779231 -0.1285781 -0.057753626 -0.23331143 -0.13161017 0.21543984 0.100571245
0.02868353 -0.0928322 -0.24054675 -0.06831561 0.05237805 -0.2340266 -0.06982641 -0.12304471
0.05440766 -0.109442934 0.20287232 -0.028794054 -0.17019545 -0.07627325 -0.08713505 -0.21296129
0.21052341 0.043973997 0.2495977 0.06965735 -0.12469892 0.06731635 0.041260693 0.006632299
-0.22428352 -0.091385216 0.07564794 -0.054547038 -0.011795523 -0.086942665 0.11762689 -0.1242951
0.008009063 0.006807704 -0.025813527 0.019900994 0.18383996 -0.14182073 0.08419668 -0.09713976
0.009637885 -0.09143178 0.037217 -0.10131338 0.10367518 0.18575774 0.04006107 -0.024010478
0.11389315 0.02944623 -0.009392847 -0.1739825 0.13531025 -0.07778975 -0.11891017 0.24377356
0.0024364858 -0.094745606 -0.17032868 -0.08571093 0.115814015 -0.114958435 -0.14366518 0.039241526
-0.10449852 0.126612 0.30721125 -0.19124314 0.09411685 0.04965791 -0.019064685 -0.070478775
0.026678057 0.08323392 0.13694923 0.004618323 -0.06002157 -0.018522829 -0.06027945 -0.043030597
0.10150361 0.09200287 -0.024376797 -0.028474525 -0.01827388 -0.033607006 0.03991499 0.012927055
-0.04733384 -0.0178496 0.0640759 0.014947471 -0.020206653 -0.061821908 -0.10758287 -0.06952502
-0.0237873 0.008722495 0.08231615 0.19693002 -0.19905749 -0.16724603 0.051636845 0.19303043
0.033283435 -0.0704808 0.18422851 -0.16008607 -0.7229669 0.15596382 -0.06565846 0.023323983
-0.12483354 0.020422043 0.20207614 0.2354017 -0.15245855 -0.19196738 -0.07828638 0.07827087
0.03621579 0.14282955 0.13016841 -0.01234574 0.005913862 -0.029023185 -0.087719865 -0.09733948
0.05693645 -0.024220292 -0.037988193 -0.051125407 -0.016177291 -0.07831578 -0.07834744 0.07232871
-0.08176382 0.05882598 -0.081433184 -0.09302735 -0.010557295 -0.1197519 -0.10987888 -0.13440633

conv_layer.conv_layers.1.parametrizations.weight.original f4 [32, 8, 7, 7]
00000000: 74a5 bebc 150c 473d 6d53 a6bc 961d 57bc
00000010: c738 32bd 69ed 003d d28d ee3c 8b1e 00bd
00000020: 4ed5 683c 5b43 923c d9ff d53b 4bf2 cebc
00000030: a533 373c 6a4b 14bd 3ef7 6bbd 31b9 ecbb
00000040: e256 f2bc 19c4 dd3c 4755 dcb9 3aaf 27bd
00000050: d58f 9d3c 3595 9e3c f640 d33c 4db8 0dbc
00000060: 0f94 a7bd 3f25 f33c 5e61 adbc 4290 4abd
00000070: a600 5e3c 22ba 013d c516 24bd b6b9 803d
00000080: 4e6f 2a3d 71de b23c d58d ebbc dfff 30bd
00000090: f04c 273c 30c7 a33c a326 473d e00e 80bd
000000a0: 4e18 e5bc 193c 2a3d f826 30bd ef39 473d
000000b0: 201b a7bc 321e 22bb acd3 b83a e3ff 033c
000000c0: a39d 32bd 95f6 e13b 9044 6c3b aa59 653c
000000d0: 90f3 473d 289a ccbc b7ec 45bd a1e0 873d
000000e0: 7ba0 383d 83a6 01bd 757b 8c3c 46ae b3bd
000000f0: 1ceb 69bd e4d0 2d3d 2923 a9ba f824 1c3b
00000100: 4444 e13a 79f6 7f3d aa29 213d b3c9 30bd
00000110: 9a03 a2bb 0804 65bc 3e62 00bc c780 37bd
00000120: b995 e83b d92f a1bd 8047 9ebc 1416 443c
00000130: ea3a f13c b2bc c43b 6f63 8b3d a8b2 103d
00000140: 178c 413d 38b1 22bd 6e17 7ebd 0b93 fe3c
00000150: b34f 04bd 28a9 8ebd 241b 51bc 077e f93c
00000160: ef79 df3c 6e67 1cbd 9848 3cbd a5cd 053b
00000170: 5bd2 1bbd a059 f8bb f611 283c 0000 a73c
00000180: 5298 e83c 4f59 983c f293 59bd 8fef 2c3c
00000190: 81a1 943c 5f77 daba 7b52 3abd 898c f0bc
000001a0: 4e3d 7b3b 4b55 753d 0196 6abc 026e cdbc
000001b0: 7353 40bc 1616 37bc 0ec7 7c3c 9d22 223d
000001c0: 5f1d 113c 04c6 463d 60c0 4dbc 9d61 0ebc
000001d0: e0fd 30bd 0fa4 20bd a4ec 9abb 8e68 6cbd
000001e0: 8a7f 0d3d df7a 9ebc 3a78 96bb 6b7c 40bd
000001f0: c54d 663d cc13 d6bc 52eb ee3c 81f6 2fbd
00000200: 9dc2 033b a1b5 963d 1974 1bbd 356c 65bc
00000210: 4dd9 283d 90e6 76bd 5962 cc3c a3c7 853c
00000220: 6eb4 253c 9958 ec3c a9f8 a73a d7ae 2b3c
00000230: cd1a 323c 9bfb 87bc cfb2 793d 0f92 8cba
00000240: 5f59 5dbd 4881 403c 511a b1bc fbff 8c3c
00000250: ac03 38bd 154c 943b 5385 d4bc 4675 163d
00000260: 6482 083d e9d8 5e3c a1de e53b 9f86 0b3d
00000270: 80fc 5e3d 0701 f5bc 15e1 2bbc d79b 983c
00000280: 3ce8 bdbc 2a71 373d d908 c43c 570e 4bbd
00000290: 13ff 653d 7e99 733c 3874 5ebc e05f a23d
000002a0: 74e6 c33a 5cb6 9a3d ec1c 9c3c b1fe b1bd
000002b0: 300e 463b 7c7e 933c ab05 32bd 34ce ecbc
000002c0: 35ce a2bd e05b acbc 4d53 09bd e575 85bd
000002d0: 32d2 8bbc 3f4d c53c 0938 6b3d 3b15 d7bc
000002e0: 9fa0 8abd e313 973d a80b 8cbb cf4a a3bc
000002f0: a90b 313d 0ebc 17bd 48fd 1c3d 38fe 353d
00000300: fa31 3abc ab0b 883c 8234 51bd 05d4 213c
00000310: 9a11 a73c 18d9 f13c 58b6 173d 9649 113d
00000320: cfa0 dfbc e5d2 d93c 2c06 6abc 9a42 ffbc
00000330: e04e 2dbc 3fca 99bd 0fa2 da3b 84de 453b
00000340: 130d 93bc a9dc 98bc 8dfd cbbc 3afb 5a3c
00000350: 9488 363c 18b7 e5bb 3beb 4bbd 7006 8ebb
00000360: 4490 3b3d 00ce 1d3d 4639 893c 78fd 8bbd
00000370: 59e4 a9bd 5a80 9d3d cd63 613d 911f 13bd
00000380: 76a0 843c 8d69 90bc 94f3 143b e9a2 3f3d
00000390: 7fd8 163c aee8 423d f333 76bc 654f ad39
000003a0: 8a75 aebb e79e ecbc c8be 26bd eeca d43b
000003b0: 1af7 76bc 2f1b bc3c cea8 b9bb e571 bebc
000003c0: c107 6e3b 96fd 373d bf44 b2bc f3cc eb3b
000003d0: ba07 38bc 4658 0abc 2f09 32bd 6fdf 38bc
000003e0: 9062 193c a8b0 fcbc 755e 223d b20d 1bbd
000003f0: 693d 14bd 9664 26bd ba29 233d 1da1 b9bb
-0.023272254 0.048595507 -0.020303452 -0.013129612 -0.04351118 0.031476412 0.02912036 -0.031279128
0.014211012 0.017854383 0.0065307436 -0.025262019 0.011181747 -0.036204733 -0.057608835 -0.007224225
-0.029582445 0.027071046 -0.00042025206 -0.040938593 0.019233624 0.019358257 0.025787812 -0.008649898
-0.08182537 0.029680846 -0.021164592 -0.04945398 0.013549959 0.03167165 -0.040060777 0.062854216
0.041610055 0.021834584 -0.028754154 -0.043212768 0.010211214 0.019992441 0.04862083 -0.06252837
-0.027965691 0.04156122 -0.043005913 0.048639234 -0.020398676 -0.0024737236 0.0014101169 0.008056614
-0.043607365 0.00689585 0.0036051609 0.013998428 0.048816264 -0.024975851 -0.048321452 0.066346414
0.04507492 -0.03165294 0.017148713 -0.087734744 -0.057108983 0.04243554 -0.0012904155 0.0023825746
0.0017186482 0.062490914 0.039346375 -0.043161105 -0.004944277 -0.013978012 -0.007835923 -0.044800546
0.0070979265 -0.07870454 -0.019321203 0.011968154 0.029447038 0.0060039395 0.06806075 0.03532663
0.04725274 -0.03971979 -0.062034063 0.031075975 -0.03230257 -0.06965858 -0.0127628185 0.030455602
0.027279822 -0.038184576 -0.04596767 0.0020416763 -0.038042407 -0.0075790435 0.0102581885 0.020385742
0.028392944 0.018597273 -0.053119607 0.010555162 0.018143417 -0.0016667655 -0.045488816 -0.029363887
0.00383361 0.059895795 -0.01431799 -0.02507687 -0.011738646 -0.011174699 0.015428318 0.03958379
0.0088571 0.048528686 -0.012558073 -0.008690265 -0.043210864 -0.03921896 -0.004727917 -0.0577169
0.03454546 -0.019345699 -0.004591969 -0.046993654 0.05622651 -0.026132487 0.029164944 -0.042959694
0.0020105012 0.07358862 -0.037952516 -0.014002849 0.04122286 -0.060278475 0.02494924 0.016330546
0.010113819 0.02885084 0.0012815195 0.010478697 0.010870648 -0.016599467 0.06096154 -0.0010724681
-0.05404031 0.011749573 -0.021618994 0.017211905 -0.044925377 0.0045256712 -0.02594248 0.036732934
0.033327475 0.01360152 0.007015065 0.03406393 0.05444002 -0.029907716 -0.010490675 0.018628998
-0.023182027 0.044785656 0.02393 -0.049574222 0.05615146 0.014868138 -0.013577513 0.07928443
0.0014946 0.075543135 0.01905676 -0.08691157 0.0030220859 0.018004648 -0.043462437 -0.028906919
-0.07949487 -0.021039903 -0.033526707 -0.06516627 -0.017068002 0.024084685 0.057426486 -0.02625524
-0.06768917 0.0737684 -0.0042738505 -0.019933132 0.04322401 -0.037044577 0.038327485 0.044431895
-0.011364454 0.016607126 -0.051075466 0.00987721 0.020394135 0.029522464 0.03703913 0.035470568
-0.02729836 0.02658982 -0.014283698 -0.031159688 -0.010577887 -0.075092785 0.006672151 0.0030192444
-0.01795057 -0.018659906 -0.024901176 0.013365561 0.011140961 -0.007010352 -0.04978488 -0.0043342635
0.04579188 0.038526535 0.016750943 -0.06835455 -0.08295507 0.07690497 0.055026818 -0.035918776
0.016189795 -0.017628456 0.0022728192 0.046786223 0.00920689 0.047585182 -0.015027034 0.00033056285
-0.0053240703 -0.028884364 -0.040709287 0.0064939177 -0.015073562 0.02296218 -0.005665875 -0.023247669
0.003632054 0.044919573 -0.021761296 0.0071960627 -0.011232311 -0.008443898 -0.04346579 -0.0112837395
0.009361878 -0.030845955 0.039640862 -0.037854858 -0.036191378 -0.04062327 0.039834715 -0.005664958

activation.coefficients_vect f4 [672]
00000000: 0000 0080 fdd6 e23a 0cad 9f3a 14fd 883a
00000010: fbec 533a 1e11 c639 069f ba39 7a32 b639
00000020: 88ac 3d39 44e2 f538 e567 b538 023e 7738
00000030: 4098 7337 8b1d 08b7 1676 fbb8 0235 33b9
00000040: d82d 91ba ef5a a0ba d0c9 d8ba 917a e4ba
00000050: 0000 0000 0000 0080 5d96 8639 2c8f 8639
00000060: 2d29 7739 ff80 a9b6 2113 23b9 a860 9ab9
00000070: 706e 9cb9 4a6e 9db9 2aba b7b9 2fc0 01b8
00000080: dc83 9d39 73a2 6239 5da1 3d39 4020 2239
00000090: 5ad3 1b39 35c0 7938 c788 83b8 7c26 97b9
000000a0: 7697 06ba 0000 0000 0000 0080 ce1b f63a
000000b0: f056 a73a 341f 913a 0db7 333a d3f7 0d3a
000000c0: 7b50 0d3a 1526 0f39 7728 03b8 1052 4bb8
000000d0: b20f 67b8 83ce dbb8 4f74 eab8 490a 80b9
000000e0: 8beb a9b9 1e14 f1b9 235b 07ba 9966 07ba
000000f0: 90ea a3ba 2309 b4ba 0000 0000 0000 0080
00000100: 8e61 b43a 7a88 a63a 46a2 093a 2352 e539
00000110: 3d47 8639 bffa a038 54c1 9a38 9b74 2eb8
00000120: 58ab 91b8 b92a 6539 2bdd 043a fc31 dc39
00000130: b5e3 d739 e52f c539 2028 9239 8643 12b9
00000140: 47ee 06ba 3203 41ba 781f ccba 0000 0000
00000150: 0000 0080 31a8 213b 6674 a23a 5ba7 603a
00000160: 5bf5 363a 7720 a439 b055 df38 b24a b038
00000170: ab30 b5b8 d5d9 e7b8 1261 0139 1d65 b739
00000180: 2ce6 a839 e9c8 6738 659f fcb8 7a65 f1b9
00000190: 1d77 12ba 4256 c5ba dad9 13bb b876 49bb
000001a0: 0000 0000 0000 0080 5f7d a43a 64ad 393a
000001b0: e713 073a 1060 fc39 d43a aa39 12d8 7e39
000001c0: c47d 0439 f917 a538 4ed3 5438 8b20 94b7
000001d0: eab3 a0b8 7264 b4b8 c5bd 09b9 811e 17b9
000001e0: b142 c9b9 e8f5 e8b9 4d90 25ba e512 37ba
000001f0: 10af 9cba 0000 0000 0000 0080 c9a2 003b
00000200: 2cb5 dd3a 3498 c43a b198 253a 0ce8 003a
00000210: 0858 1538 f98a 7bb8 cbb7 71b9 2cad 98b9
00000220: 4c82 1ab8 0b87 5a39 f5d2 2639 86a2 8cb8
00000230: 7834 8ab9 dd9b b4b9 f29e 4bba f7e6 5dba
00000240: ced8 bbba e5cf 09bb 0000 0000 0000 0080
00000250: b83d 2f3b 98d6 fa3a b2b6 e73a e183 043a
00000260: 39d1 fa38 788b 6938 55d3 56b9 8340 5bb9
00000270: 76ba 75b9 6c4f 05b9 35a9 be36 39f2 a3b8
00000280: 48c2 67b9 777c 89b9 6428 cfb9 f7d2 19ba
00000290: e8d1 a5ba 85be bdba 194e d5ba 0000 0000
000002a0: 0000 0080 f8d2 8339 e25e deb6 1d27 bcb9
000002b0: 589d dbb9 0669 aeb9 e24c 84b9 8dab 2fb9
000002c0: 38f4 acb8 a1ec 23ba 0c89 1238 82fd 383a
000002d0: 5f76 973a b588 ee39 36ff bc39 6585 bb39
000002e0: 1d53 9a39 f2a8 4a39 558f 2aba 6ab0 87ba
000002f0: 0000 0000 0000 0080 1f69 953a 2efb 0d3a
00000300: 3972 043a b9c8 af39 3f5d ad39 c2bd 6b39
00000310: 8390 2b39 6f13 ef38 25ad 5fb7 fe73 84b7
00000320: 4e8b b3b8 9ab8 0fb9 6fbd 10b9 726b 4fb9
00000330: b2ad 98b9 fea8 99b9 155a ebb9 22ae 11ba
00000340: 903a 34ba 0000 0000 0000 0080 ec83 af3a
00000350: 59d3 463a da5f 433a 83a9 a839 f1c8 7639
00000360: 0a1d 3238 a144 54b8 871e efb8 a2ae 0fb9
00000370: f7c6 29b6 9315 0939 8a1f 7d38 fe77 8eb7
00000380: 068e c2b8 c359 82b9 0bf5 f1b9 ffe8 1fba
00000390: 2da7 28ba c778 78ba 0000 0000 0000 0080
000003a0: 387e 8a39 0808 2438 12a3 0438 3409 3fb8
000003b0: 3b45 68b8 b761 18b9 db0f 71b9 90ae 7bb9
000003c0: 005a e1b9 5920 afb7 2e17 de39 9660 b839
000003d0: 2d57 5539 9b61 ff38 1978 e838 962b 4738
000003e0: 1340 93b8 d5e3 acb8 ec4f deb8 0000 0000
000003f0: 0000 0080 e351 ca3a d486 723a 416a f239
-0.0 0.0017306503 0.0012182309 0.00104514 0.0008084324 0.00037778256 0.00035595166 0.00034751353
0.00018088717 0.000117246556 8.6501044e-05 5.894714e-05 1.4519377e-05 -8.11311e-06 -0.00011990608 -0.00017090517
-0.0011076285 -0.0012234132 -0.0016539637 -0.0017431547 0.0 -0.0 0.000256705 0.00025665143
0.00023571095 -5.0516096e-06 -0.00015552017 -0.00029445183 -0.0002983692 -0.00030027545 -0.00035043183 -3.093498e-05
0.00030043616 0.00021613557 0.00018084557 0.00015461538 0.00014860686 5.9545233e-05 -6.2720435e-05 -0.00028829637
-0.0005134264 0.0 -0.0 0.0018776597 0.0012766998 0.0011071921 0.0006855585 0.0005415652
0.00053907157 0.0001365173 -3.127052e-05 -4.84754e-05 -5.508931e-05 -0.000104811996 -0.00011179654 -0.00024421726
-0.00032409685 -0.0004598209 -0.0005163422 -0.00051651296 -0.0012505818 -0.0013735633 0.0 -0.0
0.0013761984 0.0012705468 0.0005250316 0.0004373948 0.00025611548 7.6760996e-05 7.3793024e-05 -4.159343e-05
-6.946054e-05 0.00021855057 0.0005068357 0.0004199891 0.0004117765 0.00037610452 0.00027877185 -0.000139488
-0.00051472004 -0.0007362842 -0.0015573343 0.0 -0.0 0.00246669 0.0012394309 0.000856986
0.000697931 0.00031304706 0.00010649429 8.406247e-05 -8.639818e-05 -0.00011055513 0.0001233856 0.00034979815
0.00032214948 5.5261804e-05 -0.00012045986 -0.00046042708 -0.0005587207 -0.0015055614 -0.002256027 -0.0030740928
0.0 -0.0 0.001254957 0.0007083027 0.0005152807 0.00048136758 0.00032468757 0.0002430382
0.00012635352 7.8722784e-05 5.074153e-05 -1.7658129e-05 -7.662906e-05 -8.601778e-05 -0.00013136033 -0.00014411846
-0.00038387396 -0.00044433703 -0.0006315753 -0.00069837115 -0.0011954028 0.0 -0.0 0.0019628278
0.0016914955 0.0014998973 0.0006317003 0.000491739 3.5606354e-05 -5.997249e-05 -0.00023052019 -0.00029120722
-3.683781e-05 0.00020840408 0.00015909581 -6.7059926e-05 -0.00026360503 -0.00034448403 -0.000776752 -0.00084648974
-0.0014331581 -0.0021028456 0.0 -0.0 0.0026739668 0.001913744 0.0017678349 0.0005055052
0.000119599 5.568142e-05 -0.00020487358 -0.000209095 -0.00023434483 -0.00012713455 5.6821395e-06 -7.817563e-05
-0.00022102252 -0.0002622341 -0.0003951221 -0.0005867923 -0.0012651058 -0.0014476335 -0.0016273885 0.0
-0.0 0.0002514345 -6.6271614e-06 -0.00035887296 -0.00041888165 -0.00033266115 -0.00025234284 -0.00016753208
-8.2470884e-05 -0.0006253217 3.4936747e-05 0.00070568186 0.0011555663 0.00045496752 0.000360483 0.00035766806
0.00029435093 0.00019327158 -0.00065063435 -0.0010352258 0.0 -0.0 0.0011399126 0.0005416152
0.0005052421 0.0003352815 0.00033066605 0.00022482037 0.00016361666 0.00011400028 -1.3332149e-05 -1.578964e-05
-8.561333e-05 -0.00013706312 -0.0001380348 -0.00019781085 -0.00029121112 -0.00029308343 -0.0004488981 -0.0005557259
-0.00068751816 0.0 -0.0 0.0013390756 0.0007584594 0.00074529427 0.00032169753 0.00023535245
4.246555e-05 -5.0608654e-05 -0.00011402094 -0.00013702599 -2.5298775e-06 0.00013073375 6.0349274e-05 -1.6983595e-05
-9.277095e-05 -0.0002486241 -0.00046149673 -0.0006100088 -0.00064336025 -0.00094784464 0.0 -0.0
0.0002641545 3.9108127e-05 3.1623124e-05 -4.554652e-05 -5.5377586e-05 -0.00014532251 -0.00022989458 -0.00024002255
-0.000429824 -2.0876689e-05 0.0004236041 0.00035167177 0.00020345738 0.00012177528 0.00011084992 4.748589e-05
-7.021441e-05 -8.244036e-05 -0.000106006715 0.0 -0.0 0.0015435781 0.00092516583 0.00046237002

u f4 [1, 1, 20, 20]
00000000: 28f7 dfbb 888b 6b3c 8a07 07bd aef9 8b3d
00000010: efa7 f5bc 0838 38bc 04c2 99bd 67d4 36bc
00000020: 268c 36bd 58fd 693d 1553 093d e473 703d
00000030: 801a 513c 5c87 223c e435 7cbd 4a69 6e3c
00000040: d44b 023c a80a 073b 680e 6bbc 4078 8c3b
00000050: 5082 18bb e004 2ebc 3217 3c3d a299 66bd
00000060: 367a 033d 7cdc 5b3d ccd8 e23d 49e9 ac3d
00000070: 8e5e 93bc 80e8 9b3b b814 4ebe a074 03bc
00000080: 4f83 23be cc5f 983d e601 3d3d 2298 713d
00000090: dc2b c6bd a81a 6d3d 4893 c8bc 84a8 9e3c
000000a0: b887 6d3c 7ae7 8c3c f0db 1ebd a2f8 fe3c
000000b0: abc1 ccbd 1bfc 77bd c0bf 55bd 8009 01be
000000c0: ac43 a03c 945e 913d 74e3 143d 5ce0 293e
000000d0: 50a2 1a3d e0d0 1b3d 06a9 1cbd caee a43c
000000e0: f6c9 52bd f20e 5c3d adad febc 76ce c9bb
000000f0: 8364 51bc 107b 0fbb 7893 633c 687a a6bc
00000100: a24d 183e 14dc 19bc b1e9 883d 24d8 8f3d
00000110: f684 e63c 92b6 cfbd 5e54 ca3d c9df 36be
00000120: 9a66 f43c c0d3 a4bd b9e3 62bd 7c9e 0ebd
00000130: 7293 313d e456 34bd ded3 6d3d 728b dbbb
00000140: a490 e53c 1090 c5bd 4ada 553d b095 87bd
00000150: 8ee9 6ebd c005 233d b8d1 dabd e361 ebbc
00000160: 0052 24bc 1bb4 4cbd 0035 ae3d e8d0 abbd
00000170: 89e8 e73d 1cc7 593a f97b 173e 923b 75bd
00000180: 48a9 203e 8025 0abe f2a8 a23d 03f8 57bd
00000190: ac79 53bd 839c 493e 9b57 c1bd 01ed d33d
000001a0: b572 2e3c 187f 3bbd c03f cb3d 7ff7 8f3a
000001b0: 61fa 2e3d 6534 f53c 6d01 79bd 4c37 b13d
000001c0: cdb7 5cbd f79e 9bbd cd99 24bd a9d9 8ebd
000001d0: 2141 a4bc 130d a6bc a5b4 27bd ba64 2d3d
000001e0: 97a7 303d 56f8 30be 10cf 0f3d 9224 a1bd
000001f0: 3299 debc 30e7 8c3d ecb4 84bd 8bda 7bbc
00000200: 04c6 cb3a 9490 62bd 03bb b33c fc99 e8bc
00000210: cad4 a7bc eacb 073e a8cb b4bc f086 ee3d
00000220: 06f0 d1bd 0f8f 163e 026b 53bc ae82 84bc
00000230: 6a3e 85bc b02f c93d ed9b cc3d 0a98 8d3c
00000240: aab4 403d 7258 ecbd 44d9 0d3e a6c0 72bd
00000250: 5ee7 0a3c 4e32 3a3d 54b6 6cbb 2a07 5bbd
00000260: 147f a93d ef45 13be f0a8 dc3a be9c b73c
00000270: 9ae2 8bbb b80b 5eba 72bb b9bd 6f58 4b3d
00000280: 096f 7b3d 6e61 82be 06ca ab3c 0271 dbbd
00000290: 08ab 793d 0cf0 1f3c 9eb8 f5bd 9822 98ba
000002a0: 589f 023e 2ccc 0ebe ba14 013e e66d 1cbc
000002b0: 1d85 ff3c d022 32bc 6141 d83d ed45 47be
000002c0: 08c4 d23d ea24 51bd 3e38 d43d 48d7 73bd
000002d0: f5ae 26bd 86ff 4a3e 6a27 153d 5d86 343d
000002e0: 04cd 07bd 04d9 513d 5106 153e 6e8a 56bd
000002f0: fd5b 92bd 5044 32bc 8092 323c 6c44 08be
00000300: 2479 fb3b aa6b 85bc 9077 103d 033e a03d
00000310: 73c9 d63c f810 d6bd 8e4d 6c3d a80a a33b
00000320: fe30 52bd ef04 c8bc 847e cfbd 9945 12bd
00000330: d084 293d 2402 31be 1c8b 6cbd 098f 1e3d
00000340: fed7 363d ec2b 253d bd80 c83c 30e8 c83d
00000350: 04ab 8e3d 10c2 0dbd 36d6 c3bd c666 a7bc
00000360: cc2c f93b 462f 263d 303c ffbd 26a0 0f3d
00000370: 0cd5 683d 6b0a ca3d 065b 46bd 0f74 473d
00000380: 0e18 923d acfc b93d c9ce f13d a02c bcbd
00000390: 7165 c83c 1107 0ebd 7200 06be f605 a2bc
000003a0: 3d40 73bd 02de 583c d69e 023e 0637 0abd
000003b0: 3fd7 bfbd 89cd ea3d a2c9 d83d 1e26 5bbd
000003c0: 9f9d 68bd dc1c abbc dc55 50bc 6af5 293d
000003d0: 16fd 08be 7cf0 b5bd ce87 edbd 2889 003e
000003e0: a14f 0dbe 5df8 dc3d 8c82 103e 7986 8dbd
000003f0: f52c 793d ecc7 32bc 2f14 d6bd 35ae 103e
-0.0068348832 0.014376529 -0.032966174 0.06834732 -0.029987304 -0.011243828 -0.07507709 -0.011159039
-0.04456725 0.057126373 0.0335265 0.058704272 0.012762666 0.0099199675 -0.06157483 0.01455147
0.007952649 0.0020605717 -0.014346696 0.004286796 -0.0023271032 -0.0106212795 0.04592056 -0.05629886
0.03209897 0.053677067 0.11076507 0.08442933 -0.017989423 0.004757941 -0.20125091 -0.008023411
-0.15968059 0.07440147 0.04614439 0.058982976 -0.09676334 0.05788675 -0.024484292 0.019367464
0.01449769 0.01720022 -0.038783967 0.031124417 -0.09997877 -0.06054316 -0.05218482 -0.1260128
0.019563518 0.070981175 0.03634973 0.16589493 0.03775245 0.038040996 -0.03824713 0.020133395
-0.051462136 0.05372519 -0.031088674 -0.0061586453 -0.0127803115 -0.002189342 0.01389014 -0.02032204
0.14873365 -0.00939085 0.06685198 0.070236474 0.028139573 -0.101422444 0.09879373 -0.17858805
0.02983408 -0.080482006 -0.055392954 -0.03481911 0.043353505 -0.044028178 0.05806338 -0.006699973
0.028023072 -0.09646618 0.05221013 -0.066203475 -0.058328204 0.039800406 -0.10684532 -0.0287332
-0.010029316 -0.04997645 0.08506203 -0.08389455 0.113236494 0.00083075627 0.14793386 -0.059871264
0.15689576 -0.13490868 0.0794238 -0.052726757 -0.051629707 0.1968861 -0.094405375 0.10347939
0.0106474655 -0.045775503 0.09924269 0.0010983794 0.04271925 0.02993221 -0.060792375 0.08653125
-0.053886224 -0.075986795 -0.04018574 -0.06975109 -0.020050587 -0.020269906 -0.04094376 0.04233239
0.043128576 -0.17282233 0.03510958 -0.07868303 -0.027172659 0.06880033 -0.064798206 -0.015371929
0.0015546684 -0.05531366 0.02193976 -0.028393738 -0.020487208 0.13261381 -0.022069767 0.11646831
-0.10250859 0.1470301 -0.012903931 -0.016175594 -0.016265113 0.09823549 0.09990678 0.017284412
0.047047295 -0.11540307 0.13852412 -0.059265755 0.008478014 0.04545813 -0.0036119418 -0.05347363
0.08276191 -0.14382146 0.0016835015 0.022413608 -0.0042689564 -0.0008470374 -0.090689555 0.049644884
0.06138519 -0.25464958 0.020970356 -0.10714914 0.060954124 0.0097618215 -0.119981036 -0.001160699
0.12756097 -0.13945073 0.12605563 -0.009547686 0.031191403 -0.010872558 0.10559345 -0.19460268
0.10291296 -0.051060595 0.1036229 -0.05953148 -0.040694196 0.19824037 0.03641454 0.04407345
-0.033154503 0.051232353 0.14553191 -0.05237811 -0.071464516 -0.010880545 0.010899186 -0.13307351
0.007674353 -0.01628669 0.035270274 0.07824328 0.026219105 -0.10452455 0.05769115 0.0049756356
-0.051316254 -0.024416415 -0.10131553 -0.035710905 0.041386425 -0.17285973 -0.057749853 0.038710628
0.04463958 0.04032509 0.02447545 0.09809911 0.069662124 -0.0346089 -0.09562342 -0.020434748
0.007604217 0.040572427 -0.12462652 0.03506484 0.056843802 0.09865268 -0.04842665 0.048694666
0.07133494 0.090813965 0.11807019 -0.09188199 0.024462434 -0.034674708 -0.13086107 -0.019778233
-0.059387434 0.013236525 0.12755904 -0.03374388 -0.09367227 0.11464984 0.105853334 -0.05350315
-0.056790944 -0.020887785 -0.012715783 0.04149381 -0.13377795 -0.088837594 -0.11598168 0.12552321
-0.13799907 0.10789559 0.141123 -0.06910414 0.06083389 -0.010911923 -0.104530685 0.14128955

exp_avg f4 [8, 1, 7, 7]
00000000: 39d8 793c ced6 423d f35e 973d 83c3 413c
00000010: 26d6 bd3c 40ef da3c 1a28 13bb 2272 50bd
00000020: d06e 5a3d a228 a13c b02f 8cbc 9c37 85bd
00000030: 9925 4d3c cef1 25bd 5889 8f3d 4952 a23d
00000040: ea75 eb3c baa0 203e bb90 f43c 2bc1 943d
00000050: 6dfd 7bbb 8e4b 963c a01f 42bd 2df9 eabc
00000060: 2085 fe3b 5676 eebc 2195 96bd 718d 86bd
00000070: e613 fe3b 4b62 0a3d 7705 ad3c 159a e83d
00000080: 53a2 33bd 5155 d9bc fadc 0b3d 9647 64bd
00000090: e20c 37bb 32e2 cabd a492 273d 6853 8dbd
000000a0: 715d abbc b970 9cbd 3940 2abd 173c 663c
000000b0: 6dc1 3dbd e9b3 e6bc b930 f6bc 2183 ce3c
000000c0: 0fc7 96bd e70a 01bd 2ce2 fabb f6b8 bebc
000000d0: 8618 ebbc 98a3 e1bc 7341 47bd cabd a4bd
000000e0: 57c2 60bd 99b6 07bb bd2a 8a3c ec5a aabc
000000f0: 6b68 c3bd f888 34bd 8992 61bd f533 2a3d
00000100: 0f5e 6f3d 5688 b8bc e210 cc3d ef7c 963c
00000110: 942e 533d 2ad0 b43c 2f8a 3c3d 732d 9d3c
00000120: 2111 b1bc be4d 02bd 3e16 d4bc 8c14 94bd
00000130: 26b0 d1bd 57be 2f3d 6733 0c3d 7403 503d
00000140: 8bac 9a3d 255a b3bc 7a6f 05bc 2100 153d
00000150: 7cab 4a3d bafc 533d 7b7d 25bd 14c9 bb3c
00000160: 2980 4f3b 03a7 2c3b a226 04bd 90d6 1e3d
00000170: c619 693d c6e9 b93c 22e6 8cbc a97d afbc
00000180: 6b83 803d 6cec 593c 936d 183d 9487 a73c
00000190: c143 353c ec6d 9c3c 3fe7 613c c276 a0bb
000001a0: d6eb ab3b 6ee9 e63a 8e64 d4bb 60e7 933b
000001b0: 5e14 3dbd 1957 eb3c 0100 92bc 51a8 2dbc
000001c0: 6ca4 d3bc 061f dbbc 5f73 513c 524b 65bd
000001d0: 5df4 a2bc 907d 67bb 260c 2e3c b04e babb
000001e0: 7d05 f83c ddd2 3fbc f75a 3dbc 2124 31bb
000001f0: 743c d63b 7db6 66b9 3de6 12bc b257 8cbc
00000200: 7083 8d3c b0b0 1ebd b75f 1a3c e336 ee3c
00000210: f71f abbb ec23 c33c fce8 93bc f4d5 503c
00000220: ffb8 09bc 6f0e 33bc d579 dcbb f1b9 eb3c
00000230: a781 b13c c5d0 703b 101c 503b 286a c33b
00000240: b96f 273a 8daf 02bc 0bd0 5f3c 7bef d13c
00000250: 440b d03c f212 4e3c e200 f0bb 9ed5 643d
00000260: 27fb e0ba c80e 223c 1054 f13a 2c01 b7bc
00000270: 805e 033d 549b 11bd 3c51 02ba adc2 cbbb
00000280: 6e59 bf3c 2a66 c03c e7c8 3cbc e4be c83c
00000290: 1330 66bb 53fb e53c 18dc efbc 33de 823c
000002a0: 4940 84bd 383e 52bd 16cd 01bc b68c b2bd
000002b0: 23b1 96bc 660c 5fbd 0a6a 64bc 06df 2dbb
000002c0: 01c0 33bc b508 163d 21a5 99bc 13ab 7e3b
000002d0: e55f b23b d836 eb3c 37ce 3fba 4fe8 b5bc
000002e0: 031c 7bbc 3298 06bd 41b7 d33c f706 1cbd
000002f0: 5e5f d5ba 8990 333c 7c5c 903b 6406 083d
00000300: 824b 7c3c d073 213d 5045 c63c 74d2 553d
00000310: b364 bb3b 1400 5b3d 233c 4abc 57aa b13c
00000320: 254e 3bbc b570 2a3d 7cee acbb 37ac 52bd
00000330: 75f5 f7bc 3e70 7dbc 2dfb a03c e16b a4bd
00000340: 9868 0c3d 4038 b13b 5191 9f3d 023d 79bd
00000350: 38ac c9bc 7520 e43d 52cb 82bc e218 203c
00000360: efb7 703c dbfd b6bd 5e6c cbbd ab9f b5bd
00000370: d3fb 18bd 7420 9dbd b0c8 a6bd ecc9 4abc
00000380: 9272 533c e3c2 58bc 646e 51bb a407 d53d
00000390: 88c5 81bd 3154 af3d 2dd4 503d fca3 f53a
000003a0: b088 8cbc de8f d0bd 039d f53b 9537 5a3c
000003b0: e324 dd3c 70aa 53bc 0140 083d 1453 c73c
000003c0: fcb3 ce3c 83c7 55bb b58f 593d c019 c43d
000003d0: 130f 9f3d 8ac6 cbba d587 283d 6ab2 b03c
000003e0: 2a55 833d 9fe0 eb3c 28be 803d b178 133d
000003f0: ec70 a3bd b910 ecbb e300 6ebc 6b93 9d3c
0.015249305 0.047568135 0.07391157 0.011826399 0.023173403 0.026725411 -0.0022454322 -0.050890096
0.053328335 0.019672696 -0.017112583 -0.06504747 0.012521171 -0.040513806 0.07008618 0.07925851
0.02874275 0.15686312 0.02985417 0.07263406 -0.0038450614 0.018346574 -0.04739344 -0.02868327
0.0077673346 -0.029109161 -0.07352663 -0.065699466 0.007753837 0.033785146 0.02112077 0.11357514
-0.043855976 -0.02652994 0.034146287 -0.055732332 -0.0027931263 -0.099064246 0.04091133 -0.06900674
-0.02091858 -0.07638688 -0.041565154 0.0140524125 -0.046327043 -0.02816196 -0.03005253 0.025209012
-0.07362186 -0.031504538 -0.0076563563 -0.023281556 -0.028698217 -0.027543828 -0.0486464 -0.08044012
-0.054872837 -0.0020708202 0.016866082 -0.020795308 -0.095414005 -0.044075936 -0.055071387 0.041553456
0.05843931 -0.022525948 0.09964158 0.01837012 0.051558092 0.022071917 0.04603022 0.019186711
-0.021614613 -0.031812422 -0.025889512 -0.072304815 -0.10238676 0.04290613 0.03422871 0.050784543
0.07552441 -0.02189357 -0.008144254 0.036377076 0.049479946 0.05175469 -0.04040287 0.02292303
0.0031662083 0.0026344664 -0.032263406 0.03877884 0.056909345 0.02269448 -0.01719958 -0.021422224
0.06275066 0.013300996 0.037213873 0.02045039 0.011063517 0.019095384 0.0137880435 -0.0048969695
0.0052466197 0.0017617175 -0.0064817136 0.004513666 -0.046162 0.028728055 -0.017822267 -0.010599212
-0.025835238 -0.026748192 0.012783854 -0.055980034 -0.019891912 -0.0035322644 0.010623014 -0.00568565
0.030276055 -0.011707989 -0.011557332 -0.002702959 0.0065379683 -0.00022002491 -0.008966026 -0.01713166
0.017274588 -0.03874272 0.009422234 0.029078906 -0.0052223164 0.02382084 -0.018055432 0.012746323
-0.008405923 -0.010928734 -0.0067283907 0.028775187 0.021668268 0.003674553 0.0031755008 0.0059635825
0.00063871924 -0.007976425 0.013660441 0.025626888 0.025395997 0.012577759 -0.007324324 0.055867784
-0.0017164693 0.009891219 0.0018411893 -0.022339426 0.032072544 -0.035548523 -0.00049712113 -0.0062182755
0.023358073 0.023486216 -0.011522508 0.024505086 -0.003512387 0.028073942 -0.029279754 0.015975093
-0.06457574 -0.051328868 -0.007922431 -0.08718245 -0.018395012 -0.054455183 -0.013941297 -0.0026530637
-0.01097107 0.036629397 -0.018755497 0.0038859292 0.0054435604 0.028712675 -0.00073168 -0.0222055
-0.015326503 -0.03285999 0.025844218 -0.03809258 -0.0016279032 0.010959753 0.0044055562 0.03320922
0.015398862 0.039417088 0.024202973 0.052202657 0.0057187914 0.05346687 -0.012343439 0.02168767
-0.011432205 0.041611392 -0.005277453 -0.051433768 -0.03026841 -0.015468655 0.01965102 -0.08028389
0.034279436 0.005408317 0.07791389 -0.060849197 -0.024618253 0.11139003 -0.015966091 0.0097715575
0.014692291 -0.08935138 -0.09932779 -0.08868345 -0.037349533 -0.076722056 -0.08143747 -0.0123772435
0.012905734 -0.013230058 -0.0031956667 0.10401848 -0.06336504 0.0856098 0.050983597 0.0018740888
-0.017155021 -0.101836905 0.007495524 0.013318916 0.026995128 -0.012919053 0.033264164 0.024331607
0.025232308 -0.003262014 0.053115565 0.09575224 0.07766547 -0.001554684 0.041145165 0.02156945
0.06412728 0.028793631 0.062862694 0.036003772 -0.079805225 -0.007204142 -0.014526579 0.019235333

exp_avg_sq f4 [8, 1, 7, 7]
00000000: 2e8f 823d fc0c 6d3d 1172 9a3d 6784 8c3d
00000010: f7f0 673d 9a1a 783d 947e 563d 46da 473d
00000020: 551d 5e3d 7557 ff3d 8d19 043e 3210 b93d
00000030: a174 903d d91b 323d 7118 5e3d b7e0 b83d
00000040: f42d 583d 353c ea3d 56d5 983d 4eb7 783d
00000050: 3b82 453d 2275 853d c9a1 d53d 1606 3c3e
00000060: e9eb b03d 3e0b 4d3e 5169 963d 754e 933d
00000070: 195c 693d e6ad 8e3d 7da0 213e 1cc0 123e
00000080: aec9 653e 8a8a 613d a782 4c3d 38be 403d
00000090: fe1a b33d a986 8d3d e2c7 ac3d 9967 663d
000000a0: 2073 823d 1f92 653d 67b7 6b3d fdba 833d
000000b0: 15f0 6a3d 6587 6c3d 42d5 823d 2eb2 6e3d
000000c0: eb96 6a3d f6f3 643d a8cc 4e3d c219 433d
000000d0: 78a1 563d ecee 793d 7ebb 5b3d 72ac 7c3d
000000e0: a83a 3a3d 8170 153d 9604 0f3d c9f1 a43d
000000f0: b59d 723d 69d3 643d 4855 453d efe0 553d
00000100: fd5d 8f3d cd90 283d 9372 0f3e 0811 af3d
00000110: 2188 333d 3021 4f3d 3a84 4b3d b07f 7b3d
00000120: 1de5 6c3d 46be 863d 961c ea3d f054 583d
00000130: 7d63 833d 144c 733d 82af ba3d 299f 213d
00000140: d5af a73d e54c eb3d 6529 1c3d c9e8 243d
00000150: 91fe 3a3d 1e40 633d 6409 4d3d 91d6 5a3d
00000160: 6445 1f3d bff0 383d b5fb 2c3d c83f 623d
00000170: 3aba 513d 0472 283d 29e0 243d 443d 133d
00000180: 2c7c 1f3d a31a 3c3d 02cf e23c b8a1 c23c
00000190: 750f bc3c 5126 ba3c 7f7a 983c 636b 9f3c
000001a0: a56a b03c 0dda b33c 119a 0d3d 6df4 183d
000001b0: 47bc 863c a77a 883c c05c 783c 4a62 683c
000001c0: 903c ad3c e6ef 923c 5eaa 443c fc49 5d3c
000001d0: ac12 543c 2914 ab3c 14f2 a53c 055d bf3c
000001e0: b59b c83c e9e8 163d 8c77 173c 5a85 793d
000001f0: 03c0 9b3c ce5c a43c 4eeb 883c dbe8 6b3c
00000200: 0ee6 993c 9ac9 0a3d 578d be3c 4c9e 6a3c
00000210: f695 a63c 8821 8f3c 8e20 8b3c 7b3e 873c
00000220: 7d64 9a3c 600a 963c 8736 953c 254a a13c
00000230: af91 b53c 5bed a13c 99c1 a23c 3ea0 bc3c
00000240: 7caf bd3c 0516 c23c fec4 da3c b404 b73c
00000250: 83c5 c13c d29d 9b3c 9c1a 9d3c ed36 823c
00000260: e68f aa3c 431a 963c e921 c33c 5ba0 973c
00000270: a7b3 be3c b590 9a3c bab0 dd3c 4764 a63c
00000280: 0b82 963c d4f9 ab3c 7a95 333d 1c9b ac3c
00000290: 42ab 5f3d 0c2b b63c 4120 c43c 3cba 8c3c
000002a0: a5aa 9f3c fa10 2d3d 8727 9f3c bbe4 023d
000002b0: d391 dd3c c24d b53c 7faa db3c b42c 9e3c
000002c0: 76d7 cd3c c0bf ce3c 44bd 0c3d 4d11 1a3d
000002d0: 9593 9d3c 086f c33c fde6 8d3c 257c a33c
000002e0: c807 ec3c a8f7 d13c 2aa7 993c 0bbf a93c
000002f0: c4a0 f73c ef13 8b3c 32fc c03c dd9e 943c
00000300: fab6 b63c 5322 753c 89e5 a93c 36cc a13c
00000310: 6f94 623d 54f9 5b3d 04e5 533d 8efa 653d
00000320: 0459 3c3d 89d2 5f3d 8f2d 513d 9934 3e3d
00000330: ee8a 6e3d 62d7 413d 716b 6c3d 5c1a 573d
00000340: 9084 763d c008 223d 6453 1c3d 8bb6 483d
00000350: a62a 483e e854 273e 87c7 d03d f1e8 5f3d
00000360: 759b 253d 6665 713d 65c5 813d 6bb6 ca3d
00000370: 26d2 1b3d 03cd 2a3e e7dd 863d a9cc 3a3d
00000380: 2ebd 493d 045e 773d 3d36 7e3d 07ce 213e
00000390: 0a11 583d 804c 703d cc6a 213d 5086 1c3d
000003a0: 22d1 853d 62d1 d03d 4a52 ce3d 0dd6 7d3d
000003b0: 50c4 403d 9a74 233d 55e2 2c3d 2a41 413d
000003c0: 5ed2 273d 939c 573d a0d8 3a3d 0743 3c3d
000003d0: d115 3b3d cea7 1d3d abfa 1f3d e18b 0c3d
000003e0: 313c 233d c92f 033d 2a17 1e3d 2789 0c3d
000003f0: 782e 0d3d 3e96 263d 0962 043d b19d 853d
0.063749656 0.05787371 0.07541288 0.06861191 0.056626286 0.060572244 0.052366808 0.048792146
0.054227192 0.12467853 0.12900372 0.09036292 0.07053495 0.04348359 0.054222528 0.09027236
0.0527782 0.11437265 0.074625656 0.060721688 0.0482199 0.06516482 0.10431249 0.18361697
0.08638746 0.2002382 0.07344306 0.07192699 0.056972597 0.06966762 0.15783878 0.14331096
0.22440216 0.05506376 0.049929287 0.047056407 0.08745383 0.0691045 0.08436562 0.056251142
0.063696146 0.056047555 0.057547953 0.064321496 0.057357866 0.05774631 0.06388332 0.058275394
0.057272833 0.05589672 0.050488144 0.047631986 0.052400082 0.06101887 0.053645603 0.061687894
0.045466095 0.036484245 0.034916483 0.08053929 0.059232432 0.05586568 0.048177034 0.052216467
0.07000349 0.041153718 0.1400855 0.0854817 0.043830995 0.05056876 0.049686648 0.06140107
0.057835687 0.065792605 0.114312336 0.052815378 0.0641546 0.059398726 0.09115507 0.039458428
0.08187834 0.11489276 0.038125414 0.040261064 0.04565293 0.05548107 0.050057784 0.053427283
0.038884535 0.04515147 0.042232234 0.055236608 0.05120299 0.04112436 0.04025284 0.0359471
0.03893678 0.04592384 0.0276866 0.023758754 0.02295659 0.022723349 0.018613098 0.019460386
0.021535227 0.02195456 0.034570757 0.037342478 0.0164472 0.016660048 0.015158832 0.01418359
0.021147043 0.017936658 0.012003509 0.013506409 0.012943905 0.020883637 0.020257033 0.023359785
0.02448831 0.036843214 0.009244811 0.06091819 0.019012457 0.020063784 0.016713765 0.014398779
0.018786456 0.03388367 0.023260755 0.0143199675 0.020335179 0.017472044 0.016983297 0.016509285
0.018846745 0.018315494 0.018214477 0.019688675 0.022164194 0.0197665 0.019867705 0.023025628
0.023154967 0.02369214 0.026705261 0.02234111 0.023653751 0.018996153 0.019177727 0.015895331
0.02082057 0.01832307 0.02381988 0.01850908 0.023279024 0.01886783 0.027061809 0.020311488
0.018372556 0.02099315 0.043843724 0.021070056 0.054606684 0.022237323 0.023941161 0.017178647
0.01949055 0.04225252 0.019428028 0.031956416 0.027047073 0.022131804 0.026814697 0.019308425
0.025127154 0.025237918 0.034360185 0.037614156 0.019235412 0.023856655 0.017322058 0.019956658
0.028812304 0.025630787 0.018756468 0.02072098 0.030228026 0.016977279 0.023557756 0.018142158
0.022304047 0.014961797 0.020739334 0.019750696 0.05531734 0.053704575 0.05173208 0.05614715
0.04598333 0.05464414 0.05106884 0.04643688 0.058237962 0.047324546 0.05771965 0.052515373
0.060185015 0.039559126 0.038165465 0.04900221 0.19547519 0.16340983 0.10194307 0.05466551
0.04043146 0.05893459 0.06336478 0.09898075 0.03804221 0.16679768 0.06585293 0.045605335
0.04925268 0.060392395 0.062063444 0.1580125 0.052750625 0.058666706 0.03940849 0.038214028
0.065340295 0.101961866 0.10074289 0.061971713 0.04706222 0.03990612 0.042208035 0.047181286
0.040972106 0.052639555 0.045616746 0.04596236 0.045675103 0.03849011 0.039057415 0.034313086
0.039852325 0.032027993 0.03859631 0.034310486 0.034468144 0.040670626 0.032320056 0.06524218

exp_avg f4 [32, 8, 7, 7]
00000000: 0400 0080 0400 0080 0400 0000 0400 0080
00000010: 0400 0000 0400 0000 0400 0080 0400 0080
00000020: 0400 0080 0400 0080 0400 0080 0400 0000
00000030: 0400 0080 0400 0080 0400 0080 0400 0080
00000040: 0400 0080 0400 0080 0400 0080 0400 0080
00000050: 0400 0080 0400 0080 0400 0080 0400 0080
00000060: 0400 0080 0400 0080 0400 0080 0400 0080
00000070: 0400 0080 0400 0080 0400 0080 0400 0080
00000080: 0400 0080 0400 0080 0400 0080 0400 0080
00000090: 0400 0080 0400 0080 0400 0080 0400 0080
000000a0: 0400 0000 0400 0080 0400 0000 0400 0080
000000b0: 0400 0000 0400 0000 0400 0000 0400 0000
000000c0: 0400 0000 0400 0000 0400 0080 0400 0080
000000d0: 0400 0080 0400 0000 0400 0000 0400 0080
000000e0: 0400 0000 0400 0080 0400 0080 0400 0080
000000f0: 0400 0000 0400 0000 0400 0000 0400 0000
00000100: 0400 0080 0400 0080 0400 0080 0400 0000
00000110: 0400 0000 0400 0080 0400 0000 0400 0080
00000120: 0400 0080 0400 0080 0400 0080 0400 0000
00000130: 0400 0080 0400 0000 0400 0080 0400 0080
00000140: 0400 0080 0400 0000 0400 0080 0400 0080
00000150: 0400 0080 0400 0080 0400 0080 0400 0080
00000160: 0400 0080 0400 0080 0400 0080 0400 0080
00000170: 0400 0080 0400 0080 0400 0080 0400 0080
00000180: 0400 0080 0400 0080 0400 0000 0400 0000
00000190: 0400 0000 0400 0000 0400 0000 0400 0080
000001a0: 0400 0000 0400 0000 0400 0000 0400 0000
000001b0: 0400 0000 0400 0000 0400 0080 0400 0000
000001c0: 0400 0000 0400 0000 0400 0000 0400 0000
000001d0: 0400 0000 0400 0080 0400 0080 0400 0080
000001e0: 0400 0000 0400 0000 0400 0000 0400 0080
000001f0: 0400 0080 0400 0080 0400 0080 0400 0080
00000200: 0400 0080 0400 0080 0400 0080 0400 0080
00000210: 0400 0080 0400 0080 0400 0080 0400 0080
00000220: 0400 0080 0400 0080 0400 0080 0400 0080
00000230: 0400 0080 0400 0080 0400 0080 0400 0080
00000240: 0400 0080 0400 0080 0400 0080 0400 0000
00000250: 0400 0000 0400 0000 0400 0000 0400 0080
00000260: 0400 0080 0400 0000 0400 0080 0400 0000
00000270: 0400 0000 0400 0000 0400 0000 0400 0080
00000280: 0400 0000 0400 0080 0400 0000 0400 0000
00000290: 0400 0080 0400 0080 0400 0000 0400 0000
000002a0: 0400 0080 0400 0080 0400 0000 0400 0000
000002b0: 0400 0080 0400 0080 0400 0000 0400 0080
000002c0: 0400 0000 0400 0000 0400 0000 0400 0000
000002d0: 0400 0000 0400 0000 0400 0080 0400 0000
000002e0: 0400 0000 0400 0000 0400 0000 0400 0000
000002f0: 0400 0000 0400 0080 0400 0000 0400 0000
00000300: 0400 0000 0400 0000 0400 0000 0400 0000
00000310: 0400 0000 0400 0000 0400 0080 0400 0000
00000320: 0400 0080 0400 0000 0400 0000 0400 0000
00000330: 0400 0080 0400 0080 0400 0000 0400 0000
00000340: 0400 0000 0400 0000 0400 0000 0400 0080
00000350: 0400 0080 0400 0080 0400 0000 0400 0000
00000360: 0400 0080 0400 0000 0400 0000 0400 0080
00000370: 0400 0000 0400 0000 0400 0000 0400 0000
00000380: 0400 0000 0400 0000 0400 0000 0400 0000
00000390: 0400 0000 0400 0000 0400 0000 0400 0080
000003a0: 0400 0080 0400 0080 0400 0000 0400 0000
000003b0: 0400 0000 0400 0000 0400 0000 0400 0080
000003c0: 0400 0080 0400 0080 0400 0000 0400 0080
000003d0: 0400 0080 0400 0000 0400 0000 0400 0000
000003e0: 0400 0080 0400 0000 0400 0080 0400 0000
000003f0: 0400 0000 0400 0000 0400 0080 0400 0080
-6e-45 -6e-45 6e-45 -6e-45 6e-45 6e-45 -6e-45 -6e-45
-6e-45 -6e-45 -6e-45 6e-45 -6e-45 -6e-45 -6e-45 -6e-45
-6e-45 -6e-45 -6e-45 -6e-45 -6e-45 -6e-45 -6e-45 -6e-45
-6e-45 -6e-45 -6e-45 -6e-45 -6e-45 -6e-45 -6e-45 -6e-45
-6e-45 -6e-45 -6e-45 -6e-45 -6e-45 -6e-45 -6e-45 -6e-45
6e-45 -6e-45 6e-45 -6e-45 6e-45 6e-45 6e-45 6e-45
6e-45 6e-45 -6e-45 -6e-45 -6e-45 6e-45 6e-45 -6e-45
6e-45 -6e-45 -6e-45 -6e-45 6e-45 6e-45 6e-45 6e-45
-6e-45 -6e-45 -6e-45 6e-45 6e-45 -6e-45 6e-45 -6e-45
-6e-45 -6e-45 -6e-45 6e-45 -6e-45 6e-45 -6e-45 -6e-45
-6e-45 6e-45 -6e-45 -6e-45 -6e-45 -6e-45 -6e-45 -6e-45
-6e-45 -6e-45 -6e-45 -6e-45 -6e-45 -6e-45 -6e-45 -6e-45
-6e-45 -6e-45 6e-45 6e-45 6e-45 6e-45 6e-45 -6e-45
6e-45 6e-45 6e-45 6e-45 6e-45 6e-45 -6e-45 6e-45
6e-45 6e-45 6e-45 6e-45 6e-45 -6e-45 -6e-45 -6e-45
6e-45 6e-45 6e-45 -6e-45 -6e-45 -6e-45 -6e-45 -6e-45
-6e-45 -6e-45 -6e-45 -6e-45 -6e-45 -6e-45 -6e-45 -6e-45
-6e-45 -6e-45 -6e-45 -6e-45 -6e-45 -6e-45 -6e-45 -6e-45
-6e-45 -6e-45 -6e-45 6e-45 6e-45 6e-45 6e-45 -6e-45
-6e-45 6e-45 -6e-45 6e-45 6e-45 6e-45 6e-45 -6e-45
6e-45 -6e-45 6e-45 6e-45 -6e-45 -6e-45 6e-45 6e-45
-6e-45 -6e-45 6e-45 6e-45 -6e-45 -6e-45 6e-45 -6e-45
6e-45 6e-45 6e-45 6e-45 6e-45 6e-45 -6e-45 6e-45
6e-45 6e-45 6e-45 6e-45 6e-45 -6e-45 6e-45 6e-45
6e-45 6e-45 6e-45 6e-45 6e-45 6e-45 -6e-45 6e-45
-6e-45 6e-45 6e-45 6e-45 -6e-45 -6e-45 6e-45 6e-45
6e-45 6e-45 6e-45 -6e-45 -6e-45 -6e-45 6e-45 6e-45
-6e-45 6e-45 6e-45 -6e-45 6e-45 6e-45 6e-45 6e-45
6e-45 6e-45 6e-45 6e-45 6e-45 6e-45 6e-45 -6e-45
-6e-45 -6e-45 6e-45 6e-45 6e-45 6e-45 6e-45 -6e-45
-6e-45 -6e-45 6e-45 -6e-45 -6e-45 6e-45 6e-45 6e-45
-6e-45 6e-45 -6e-45 6e-45 6e-45 6e-45 -6e-45 -6e-45

exp_avg_sq f4 [32, 8, 7, 7]
00000000: 9a79 b02b f556 952b 9962 e52b dfc9 a22b
00000010: c983 a42b e2cf b82b f528 c22b df80 762b
00000020: ee86 852b d4de 962b e011 0e2c 6a37 ed2b
00000030: 8a28 912b 5986 872b 16f9 5b2b 4e6b 912b
00000040: f13b dd2b cdd7 ae2b 18e2 062c 30f8 c12b
00000050: 3f21 a12b d822 f92b 8605 902b 0e57 672c
00000060: a021 d52b 2c41 cc2b 93d0 072c 16f3 8e2b
00000070: 7173 a02b 558e ca2b 239b ec2b deb2 fa2b
00000080: e5eb b32b 8403 f32b a46b 052c e00c c92b
00000090: e73a a72b de2f b72b 218a 182c 41cf db2b
000000a0: 015c 772b 6258 352b 5301 872b 59b9 bc2b
000000b0: a0be 952b 06d9 a62b 9fa5 002c f2c3 c22b
000000c0: 10ab a12b 85ee 7f2b 6b7b b22b 659e c62b
000000d0: 5fd6 9f2b 57e8 d22b ceec ac2b f387 f42b
000000e0: c8ab ca2b ab93 da2b a391 122c 3c24 402c
000000f0: fd49 da2b 7b72 202c b085 882b ddbc d32b
00000100: fb77 d52b 9ca3 852c db08 042c cd46 b02b
00000110: 6081 3b2c 2c52 972b 4468 092c 9b1b e42b
00000120: 1bd0 032c 0bfa cd2b 7217 4f2c d2f7 f92b
00000130: b706 972b 4ac1 e42b dc11 ef2b e6c9 b42b
00000140: 6f6e 9a2b 1b67 242c 661a a92b f23c 922b
00000150: 7c98 eb2b 1fa9 a42b 8774 aa2b dc2d 3e2c
00000160: 4e43 932b 1969 cc2b a9f5 d62b 418d 8c2b
00000170: 96c9 ce2b 4075 a12b 87fa 842c fd40 a92b
00000180: a781 802b e247 6c2b a4d0 722b 420a cb2b
00000190: e367 d22b 17af 122c 69c6 a52b eb28 1a2c
000001a0: 234a f62b 6bb0 702b 9742 102c e772 e92b
000001b0: 30e2 002c 3074 e42b 2f9a 142c def5 d42b
000001c0: 0d4d c62b 6843 072c 4eab f42b cc60 e92b
000001d0: 93ee ec2b 2815 102c 68e6 fd2b 1eec e32b
000001e0: 695c 032c 1dd3 1a2c 879f 4c2c 8251 092c
000001f0: efff d52b 33ad 602c 7d0d 062c b507 1d2c
00000200: 362d 312c 6743 172c 49d0 802c ac65 ac2b
00000210: 98a0 042c 05e3 102c 3029 d42b 9fc3 3f2c
00000220: 9aa1 e82b 394c 7e2c 1838 382c e766 b82b
00000230: 0f91 dc2b 7f4a 242c e606 e42b 72aa 212c
00000240: 0bc9 152c c64f 252c 1655 f32b 39d9 862b
00000250: 566a f82b ac0f bc2b 84c2 b02b 9c5b ee2b
00000260: 9577 c42b 3c6a a42b 4fe6 b62b 5939 c92b
00000270: 7107 332c 61af f12b 4372 eb2b c1f4 e62b
00000280: e9d0 ae2b e759 d22b 22e1 062c 1cd3 692c
00000290: f282 212c 2b3d ed2b fac0 022c 3d30 292c
000002a0: 799f e12b 0ac5 a62c aab8 072c 032d 222c
000002b0: df08 732c 58b1 912b 225e 052c 43d5 0e2c
000002c0: 3afa 322c e7e6 7c2c c31d 762b cf3e 282c
000002d0: ed2d 672c f7dd b32b b7a1 6f2c c97c 022c
000002e0: bb11 212c c47a 352c ea4f c62b 3ecf 122c
000002f0: f629 ed2b d2c9 102c 8306 202c 2751 e12b
00000300: 12bf f82b dc85 262c ab3a 062c 22be ee2b
00000310: 0ee9 422b 0877 422b 9fee dc2b 3089 932b
00000320: 798a c02b 6c09 fb2b 72b3 882b bf79 8f2b
00000330: 9bd0 562b f5e9 a42b a34b fd2b ad7a d62b
00000340: 75e2 372c 751c b32b 4f74 bc2b 2367 272c
00000350: 39bf db2b 8707 052c 3249 ad2b 5dd1 112c
00000360: 5e19 072c 18be e42b 49f0 bf2b 7e3a d22b
00000370: 6c6d 382c 5148 832b 2d59 fd2b 74fc 3f2c
00000380: f59a 8b2b 4afe 132c 22bd a52b 1989 382c
00000390: c812 8b2b e3b8 012c 5b16 ef2b 0f2b c82b
000003a0: af8e 0b2c 2c64 882b 77c4 5f2c 34d7 b42b
000003b0: abb0 092c 61bf 0f2c a619 962b 8ef6 1e2c
000003c0: 9354 5a2b 1615 072c 37f6 ae2b 6766 c22b
000003d0: f569 d72b 2ff6 002c 155b f62b 4457 1c2c
000003e0: a9b3 5a2c a3f4 262c 1a8c 5d2c ddbb f72b
000003f0: 3df4 272c f6b7 292c 7860 232c 915d 472c
1.2539303e-12 1.0611222e-12 1.6298795e-12 1.1566823e-12 1.1689479e-12 1.3131685e-12 1.3795897e-12 8.75756e-13
9.487669e-13 1.0719988e-12 2.0189336e-12 1.6855243e-12 1.0314122e-12 9.629616e-13 7.8150106e-13 1.0332653e-12
1.5719632e-12 1.242334e-12 1.9168053e-12 1.3782361e-12 1.1448966e-12 1.7702185e-12 1.0233348e-12 3.28754e-12
1.5143893e-12 1.4513161e-12 1.9300436e-12 1.0157177e-12 1.1400725e-12 1.4392468e-12 1.6811868e-12 1.7813214e-12
1.2784189e-12 1.7267164e-12 1.896019e-12 1.4285483e-12 1.1882412e-12 1.3016218e-12 2.1677176e-12 1.561841e-12
8.787971e-13 6.4426773e-13 9.592694e-13 1.3409648e-12 1.0639996e-12 1.1855246e-12 1.8281832e-12 1.3838915e-12
1.1487217e-12 9.092521e-13 1.2681916e-12 1.411271e-12 1.1357129e-12 1.4985885e-12 1.2287062e-12 1.7374976e-12
1.4400642e-12 1.5530818e-12 2.0828693e-12 2.7304955e-12 1.5510368e-12 2.2800917e-12 9.700487e-13 1.5044872e-12
1.5167862e-12 3.7982516e-12 1.8763244e-12 1.2525203e-12 2.6646116e-12 1.0752003e-12 1.952675e-12 1.6208036e-12
1.8731741e-12 1.4635527e-12 2.9429484e-12 1.7761298e-12 1.0731059e-12 1.6254023e-12 1.6986928e-12 1.2845807e-12
1.097301e-12 2.3363037e-12 1.2015499e-12 1.039084e-12 1.6740077e-12 1.1699841e-12 1.2111569e-12 2.702608e-12
1.0463659e-12 1.4524242e-12 1.5273799e-12 9.986804e-13 1.4693132e-12 1.1472281e-12 3.7794798e-12 1.202621e-12
9.130933e-13 8.39438e-13 8.626522e-13 1.4426865e-12 1.4950232e-12 2.0845042e-12 1.1779025e-12 2.190743e-12
1.7499928e-12 8.550996e-13 2.0500596e-12 1.6587538e-12 1.8315453e-12 1.6232623e-12 2.1117654e-12 1.5131748e-12
1.4090132e-12 1.9222072e-12 1.7384789e-12 1.6582512e-12 1.6835026e-12 2.0475375e-12 1.8040682e-12 1.6194856e-12
1.8667518e-12 2.2001908e-12 2.90787e-12 1.9514117e-12 1.5205596e-12 3.192846e-12 1.9050033e-12 2.231532e-12
2.517831e-12 2.1495806e-12 3.661103e-12 1.2249555e-12 1.8847476e-12 2.0589652e-12 1.5074938e-12 2.7251324e-12
1.6529445e-12 3.6137883e-12 2.617911e-12 1.3102547e-12 1.5672202e-12 2.3347155e-12 1.6202289e-12 2.2974092e-12
2.1285775e-12 2.3492193e-12 1.7289805e-12 9.581564e-13 1.7650974e-12 1.3362553e-12 1.2559541e-12 1.6936344e-12
1.3959828e-12 1.1682387e-12 1.2995801e-12 1.4297826e-12 2.544156e-12 1.7172757e-12 1.6729468e-12 1.6410416e-12
1.2421428e-12 1.494635e-12 1.916752e-12 3.322848e-12 2.2952165e-12 1.685684e-12 1.8581235e-12 2.4043122e-12
1.6031474e-12 4.7398795e-12 1.9287163e-12 2.3046571e-12 3.4537301e-12 1.0352092e-12 1.895269e-12 2.0297798e-12
2.5434225e-12 3.593953e-12 8.743806e-13 2.3909102e-12 3.2852568e-12 1.2780323e-12 3.4053713e-12 1.854338e-12
2.2889318e-12 2.5789796e-12 1.4090927e-12 2.086289e-12 1.6851509e-12 2.0575664e-12 2.2740982e-12 1.6009736e-12
1.7674493e-12 2.3664326e-12 1.9075113e-12 1.696369e-12 6.9246074e-13 6.9087834e-13 1.5698171e-12 1.0483055e-12
1.3680854e-12 1.7837238e-12 9.713187e-13 1.0194552e-12 7.631757e-13 1.1717837e-12 1.7997725e-12 1.5239664e-12
2.6131573e-12 1.2726613e-12 1.3390486e-12 2.378938e-12 1.5613961e-12 1.8904615e-12 1.2312705e-12 2.072196e-12
1.9198735e-12 1.6253136e-12 1.3638059e-12 1.4937632e-12 2.6208714e-12 9.328182e-13 1.8001482e-12 2.7282872e-12
9.919553e-13 2.1031115e-12 1.177645e-12 2.6224077e-12 9.881757e-13 1.8434635e-12 1.6988176e-12 1.4222806e-12
1.9832293e-12 9.691184e-13 3.1799266e-12 1.28495e-12 1.9566941e-12 2.0427759e-12 1.066526e-12 2.2590016e-12
7.756653e-13 1.9196359e-12 1.2431782e-12 1.3812951e-12 1.5306078e-12 1.8326553e-12 1.7504632e-12 2.2217376e-12
3.1079395e-12 2.372582e-12 3.148376e-12 1.7602548e-12 2.3867707e-12 2.4118463e-12 2.3217244e-12 2.833154e-12
