trained_models/Sigma_25_t_20/checkpoints/checkpoint_5.pth (torch, 173091 bytes, 10 tensors)

conv_layer.conv_layers.0.parametrizations.weight.original f4 [8, 1, 7, 7]
0	0x3d170d08	0.036877662
1	0x3e143139	0.14471902
2	0xb9d844b9	-0.00041249933
3	0x3e866010	0.26245165
4	0xbd62b851	-0.05535156
5	0x3c7ad724	0.015310083
6	0xbd22be7f	-0.039732452
7	0x3d73df1b	0.05953894
8	0x3dfac28e	0.122441396
9	0xbe04f985	-0.12985809
10	0x3e85f201	0.26161197
11	0x3dc56790	0.096388936
12	0x3e27f197	0.16400753
13	0x3a3c06f7	0.00071726687
14	0xbad691d9	-0.001637037
15	0xbd67c503	-0.05658437
16	0x3e4ad1d4	0.19806606
17	0x3e239ec6	0.15978536
18	0x3ba61499	0.0050683734
19	0x3ce6a2a2	0.028153721
20	0xbdec3100	-0.115327835
21	0xbca41e3e	-0.020033952
22	0xbd0189f1	-0.03162569
23	0x3e2aaea7	0.16668187
24	0xbf119fa5	-0.56884223
25	0xbd4d3649	-0.0501006
26	0xbd8c37ac	-0.06846556
27	0xbc7e699b	-0.015528108
28	0x3c43eb4b	0.011957954
29	0xbe1ff11f	-0.15619324
30	0x3e148162	0.1450248
31	0xbe81295f	-0.25226876
32	0x3e34c29e	0.17652366
33	0x3dec24cd	0.11530457
34	0xbd400077	-0.046875443
35	0x3dfe933f	0.12430429
36	0x3d8ab97b	0.06773659
37	0x3d6d45ef	0.057928022
38	0x3ca67ed3	0.020324146
39	0xbd3368ce	-0.04380112
40	0x3c900e29	0.017584877
41	0x3d51a92e	0.051186733
42	0xbcb8ec31	-0.022573562
43	0x3d5be4d5	0.053685028
44	0x3d9a29e3	0.075275205
45	0xbd9ada22	-0.07561137
46	0x3dacae15	0.08431641
47	0x3caf3373	0.021386838
48	0x3d74a201	0.05972481
49	0xbcf1ab80	-0.029500723
50	0xbde03991	-0.1094848
51	0xbc3ab513	-0.0113957105
52	0xbe0f08b9	-0.13968171
53	0x3dd120ae	0.10211311
54	0x3cf2f5d6	0.02965824
55	0xbbb5872b	-0.005539795
56	0x3c10f683	0.0088478355
57	0x3d3a622a	0.045503773
58	0x3e0f5334	0.13996583
59	0xbe1112f6	-0.1416739
60	0xbd290ba0	-0.041270852
61	0xbe2299d6	-0.15878996
62	0x3d431679	0.047628853
63	0xbdbe2ba8	-0.092856705
64	0xbd205641	-0.039144758
65	0xbd89b7fc	-0.06724545
66	0x3e7b91cd	0.24567337
67	0x3d1edc3a	0.038784243
68	0xbdd50925	-0.10402135
69	0xbda3059b	-0.079600535
70	0x3e3b512a	0.1829268
71	0x3e177199	0.14789428
72	0x3e95a023	0.29223737
73	0xbf0e9f34	-0.55711675
74	0xbe9f193a	-0.31073934
75	0xbe24595f	-0.16049717
76	0xbdd9f6a5	-0.10642747
77	0x3d877642	0.06614353
78	0x3d82be9d	0.06384013
79	0x3e3e6b17	0.18595539
80	0xbcc635b4	-0.02419553
81	0xbd64cff9	-0.0558624
82	0x3e03a70d	0.12856694
83	0xbb29282c	-0.0025811298
84	0xbaf67a73	-0.0018804803
85	0xbd8e2338	-0.06940311
86	0x3deba734	0.11506501
87	0xbd61bc8b	-0.05511145
88	0xbc57ac73	-0.013163674
89	0xbbf92cc3	-0.007604213
90	0x3ce84751	0.028354319
91	0xbd30d7c4	-0.04317452
92	0xbc990be8	-0.018682435
93	0x3da8348a	0.08213146
94	0xbdcf8994	-0.10133663
95	0x3c02df9f	0.007987886
96	0x3dd5cbfb	0.10439297
97	0x3c81d11d	0.015846783
98	0xbd260eaa	-0.04054133
99	0xbdd0bc6c	-0.101921886
100	0xbe005ae0	-0.12534666
101	0x3c94479d	0.018100554
102	0xbd3f3889	-0.046684776
103	0xbe14b22d	-0.14521094
104	0xbd2e2fbd	-0.042525996
105	0xbdd7df44	-0.105406314
106	0xbdf93452	-0.121681824
107	0xbd5e18c4	-0.054222837
108	0xbe659797	-0.22421108
109	0xbe0c2481	-0.136858
110	0x3e57f6d5	0.21090253
111	0x3dc4f2a2	0.09616591
112	0x3d0298e6	0.031884097
113	0xbdbe5cf3	-0.092950724
114	0xbe6e635c	-0.2328009
115	0xbd83c934	-0.06434861
116	0x3d4e1b07	0.050318744
117	0xbe64e11c	-0.22351497
118	0xbd8af482	-0.067849174
119	0xbded6edb	-0.1159341
120	0x3d580c49	0.05274609
121	0xbdde4cda	-0.10854502
122	0x3e3abf32	0.18236998
123	0xbd0b9f2e	-0.034087352
124	0xbe290823	-0.1650701
125	0xbd9579a6	-0.07298593
126	0xbdb6c3e9	-0.08924086
127	0xbe55cff0	-0.20880103
128	0x3e4c156d	0.19930048
129	0x3d34da96	0.044153772
130	0x3e72f264	0.23725277
131	0x3d8c9e16	0.0686609
132	0xbe08de4f	-0.13366054
133	0x3d91fee3	0.07128694
134	0x3d06fb13	0.032954287
135	0xbb870a77	-0.0041211206
136	0xbe5ffb30	-0.21873164
137	0xbdc72ed8	-0.097257316
138	0x3d9ae8fd	0.0756397
139	0xbd5d2a3d	-0.05399536
140	0xbc43a91c	-0.011942174
141	0xbdb5c4a9	-0.088754006
142	0x3df5785b	0.119858466
143	0xbdfd1335	-0.12357179
144	0x3c1ec839	0.0096912915
145	0x3b68acae	0.0035503316
146	0xbcd452b8	-0.02591835
147	0x3cb18c82	0.021673445
148	0x3e3949eb	0.18094604
149	0xbe0d67e1	-0.13809158
150	0x3da50b72	0.08058824
151	0xbdbf07da	-0.093276694
152	0x3c193a42	0.009352269
153	0xbdadb6fd	-0.08482168
154	0x3d242ef2	0.040083833
155	0xbdda98f4	-0.10673705
156	0x3dd23611	0.102642186
157	0x3e338be3	0.17533831
158	0x3d2d4dd7	0.042310562
159	0xbcf5c695	-0.030001918
160	0x3dee5dba	0.11638971
161	0x3cdbe08b	0.026840469
162	0xbb80f857	-0.0039358544
163	0xbe28f675	-0.16500266
164	0x3e048f37	0.12945257
165	0xbd95e825	-0.07319669
166	0xbdea3732	-0.11436309
167	0x3e74d39c	0.23908848
168	0x3b8a80fa	0.004226801
169	0xbdc0339d	-0.093848445
170	0xbe256721	-0.16152622
171	0xbda5cd46	-0.080957934
172	0x3df32557	0.118723564
173	0xbdd28585	-0.10279373
174	0xbe0fcbc3	-0.14042573
175	0x3d078adc	0.03309141
176	0xbdda77d2	-0.10667385
177	0x3e00b711	0.12569834
178	0x3e957835	0.29193273
179	0xbe44bb73	-0.19212131
180	0x3dbe3cde	0.09288953
181	0x3d4f1c4e	0.050564103
182	0xbc85f21c	-0.016350798
183	0xbd8d265c	-0.06892082
184	0x3cf0aa08	0.029377952
185	0x3da33176	0.07968418
186	0x3dfcd182	0.12344648
187	0x3ba2d48c	0.004969185
188	0xbd817835	-0.06321756
189	0xbc867feb	-0.016418418
190	0xbd621ee7	-0.055205252
191	0xbd2f180d	-0.042747546
192	0x3dc6492e	0.09681927
193	0x3db7345b	0.08945533
194	0xbcb96463	-0.022630876
195	0xbcd842f2	-0.02639911
196	0xbcad06d6	-0.021121424
197	0xbd137adb	-0.036005836
198	0x3d247821	0.040153626
199	0x3cd055f0	0.025431603
200	0xbd4a4a4f	-0.049387272
201	0xbcb516d5	-0.022105614
202	0x3d85b020	0.06527734
203	0x3c756e7d	0.014979956
204	0xbcad9783	-0.02119041
205	0xbd820f1d	-0.06350539
206	0xbdd56d3c	-0.104212254
207	0xbd8fbbad	-0.07018218
208	0xbcd45dca	-0.025923628
209	0x3c07f48d	0.008298052
210	0x3db49bcf	0.08818781
211	0x3e428d63	0.18999247
212	0xbe4732ac	-0.19452924
213	0xbe29408f	-0.16528533
214	0x3d4a7fca	0.049438275
215	0x3e3d9502	0.18513873
216	0x3d0c0a9e	0.034189813
217	0xbd964bfc	-0.073387116
218	0x3e3870dd	0.18011804
219	0xbe247b4f	-0.16062663
220	0xbf2cd35b	-0.6751
221	0x3e1e400d	0.15454121
222	0xbd8d3662	-0.06895138
223	0x3cafa7b2	0.021442268
224	0xbe017184	-0.12640959
225	0x3cd8264b	0.026385447
226	0x3e4b06c7	0.19826804
227	0x3e664ec4	0.22490984
228	0xbe1accab	-0.15117137
229	0xbe403883	-0.18771558
230	0xbd9697e3	-0.07353189
231	0x3d96d5ad	0.07364974
232	0x3d130f84	0.03590347
233	0x3e0ffac2	0.140605
234	0x3e0254ba	0.12727633
235	0xbc0f9877	-0.008764378
236	0x3bf0c526	0.0073477207
237	0xbcfda062	-0.030960266
238	0xbdb98519	-0.090585895
239	0xbdd5c9e1	-0.10438896
240	0x3d6a647c	0.057224736
241	0xbcf8fb81	-0.030393364
242	0xbd098b1f	-0.03357994
243	0xbd54c92c	-0.051949665
244	0xbc3d24e9	-0.011544445
245	0xbda90b89	-0.08254153
246	0xbd975cde	-0.0739076
247	0x3d99dcae	0.075127944
248	0xbda4dd11	-0.080499776
249	0x3d7f2148	0.0622876
250	0xbd97a8fe	-0.074052796
251	0xbdb9e527	-0.090769105
252	0xbc13475d	-0.008989182
253	0xbdeead67	-0.116541676
254	0xbdd8c0f1	-0.10583676
255	0xbe0cd010	-0.13751245

conv_layer.conv_layers.1.parametrizations.weight.original f4 [32, 8, 7, 7]
0	0xbcbea574	-0.023272254
1	0x3d470c15	0.048595507
2	0xbca6536d	-0.020303452
3	0xbc571d96	-0.013129612
4	0xbd3238c7	-0.04351118
5	0x3d00ed69	0.031476412
6	0x3cee8dd2	0.02912036
7	0xbd001e8b	-0.031279128
8	0x3c68d54e	0.014211012
9	0x3c92435b	0.017854383
10	0x3bd5ffd9	0.0065307436
11	0xbccef24b	-0.025262019
12	0x3c3733a5	0.011181747
13	0xbd144b6a	-0.036204733
14	0xbd6bf73e	-0.057608835
15	0xbbecb931	-0.007224225
16	0xbcf256e2	-0.029582445
17	0x3cddc419	0.027071046
18	0xb9dc5547	-0.00042025206
19	0xbd27af3a	-0.040938593
20	0x3c9d8fd5	0.019233624
21	0x3c9e9535	0.019358257
22	0x3cd340f6	0.025787812
23	0xbc0db84d	-0.008649898
24	0xbda7940f	-0.08182537
25	0x3cf3253f	0.029680846
26	0xbcad615e	-0.021164592
27	0xbd4a9042	-0.04945398
28	0x3c5e00a6	0.013549959
29	0x3d01ba22	0.03167165
30	0xbd2416c5	-0.040060777
31	0x3d80b9b6	0.062854216
32	0x3d2a6f4e	0.041610055
33	0x3cb2de71	0.021834584
34	0xbceb8dd5	-0.028754154
35	0xbd30ffdf	-0.043212768
36	0x3c274cf0	0.010211214
37	0x3ca3c730	0.019992441
38	0x3d4726a3	0.04862083
39	0xbd800ee0	-0.06252837
40	0xbce5184e	-0.027965691
41	0x3d2a3c19	0.04156122
42	0xbd3026f8	-0.043005913
43	0x3d4739ef	0.048639234
44	0xbca71b20	-0.020398676
45	0xbb221e32	-0.0024737236
46	0x3ab8d3ac	0.0014101169
47	0x3c03ffe3	0.008056614
48	0xbd329da3	-0.043607365
49	0x3be1f695	0.00689585
50	0x3b6c4490	0.0036051609
51	0x3c6559aa	0.013998428
52	0x3d47f390	0.048816264
53	0xbccc9a28	-0.024975851
54	0xbd45ecb7	-0.048321452
55	0x3d87e0a1	0.066346414
56	0x3d38a07b	0.04507492
57	0xbd01a683	-0.03165294
58	0x3c8c7b75	0.017148713
59	0xbdb3ae46	-0.087734744
60	0xbd69eb1c	-0.057108983
61	0x3d2dd0e4	0.04243554
62	0xbaa92329	-0.0012904155
63	0x3b1c24f8	0.0023825746
64	0x3ae14444	0.0017186482
65	0x3d7ff679	0.062490914
66	0x3d2129aa	0.039346375
67	0xbd30c9b3	-0.043161105
68	0xbba2039a	-0.004944277
69	0xbc650408	-0.013978012
70	0xbc00623e	-0.007835923
71	0xbd3780c7	-0.044800546
72	0x3be895b9	0.0070979265
73	0xbda12fd9	-0.07870454
74	0xbc9e4780	-0.019321203
75	0x3c441614	0.011968154
76	0x3cf13aea	0.029447038
77	0x3bc4bcb2	0.0060039395
78	0x3d8b636f	0.06806075
79	0x3d10b2a8	0.03532663
80	0x3d418c17	0.04725274
81	0xbd22b138	-0.03971979
82	0xbd7e176e	-0.062034063
83	0x3cfe930b	0.031075975
84	0xbd044fb3	-0.03230257
85	0xbd8ea928	-0.06965858
86	0xbc511b24	-0.0127628185
87	0x3cf97e07	0.030455602
88	0x3cdf79ef	0.027279822
89	0xbd1c676e	-0.038184576
90	0xbd3c4898	-0.04596767
91	0x3b05cda5	0.0020416763
92	0xbd1bd25b	-0.038042407
93	0xbbf859a0	-0.0075790435
94	0x3c2811f6	0.0102581885
95	0x3ca70000	0.020385742
96	0x3ce89852	0.028392944
97	0x3c98594f	0.018597273
98	0xbd5993f2	-0.053119607
99	0x3c2cef8f	0.010555162
100	0x3c94a181	0.018143417
101	0xbada775f	-0.0016667655
102	0xbd3a527b	-0.045488816
103	0xbcf08c89	-0.029363887
104	0x3b7b3d4e	0.00383361
105	0x3d75554b	0.059895795
106	0xbc6a9601	-0.01431799
107	0xbccd6e02	-0.02507687
108	0xbc405373	-0.011738646
109	0xbc371616	-0.011174699
110	0x3c7cc70e	0.015428318
111	0x3d22229d	0.03958379
112	0x3c111d5f	0.0088571
113	0x3d46c604	0.048528686
114	0xbc4dc060	-0.012558073
115	0xbc0e619d	-0.008690265
116	0xbd30fde0	-0.043210864
117	0xbd20a40f	-0.03921896
118	0xbb9aeca4	-0.004727917
119	0xbd6c688e	-0.0577169
120	0x3d0d7f8a	0.03454546
121	0xbc9e7adf	-0.019345699
122	0xbb96783a	-0.004591969
123	0xbd407c6b	-0.046993654
124	0x3d664dc5	0.05622651
125	0xbcd613cc	-0.026132487
126	0x3ceeeb52	0.029164944
127	0xbd2ff681	-0.042959694
128	0x3b03c29d	0.0020105012
129	0x3d96b5a1	0.07358862
130	0xbd1b7419	-0.037952516
131	0xbc656c35	-0.014002849
132	0x3d28d94d	0.04122286
133	0xbd76e690	-0.060278475
134	0x3ccc6259	0.02494924
135	0x3c85c7a3	0.016330546
136	0x3c25b46e	0.010113819
137	0x3cec5899	0.02885084
138	0x3aa7f8a9	0.0012815195
139	0x3c2baed7	0.010478697
140	0x3c321acd	0.010870648
141	0xbc87fb9b	-0.016599467
142	0x3d79b2cf	0.06096154
143	0xba8c920f	-0.0010724681
144	0xbd5d595f	-0.05404031
145	0x3c408148	0.011749573
146	0xbcb11a51	-0.021618994
147	0x3c8cfffb	0.017211905
148	0xbd3803ac	-0.044925377
149	0x3b944c15	0.0045256712
150	0xbcd48553	-0.02594248
151	0x3d167546	0.036732934
152	0x3d088264	0.033327475
153	0x3c5ed8e9	0.01360152
154	0x3be5dea1	0.007015065
155	0x3d0b869f	0.03406393
156	0x3d5efc80	0.05444002
157	0xbcf50107	-0.029907716
158	0xbc2be115	-0.010490675
159	0x3c989bd7	0.018628998
160	0xbcbde83c	-0.023182027
161	0x3d37712a	0.044785656
162	0x3cc408d9	0.02393
163	0xbd4b0e57	-0.049574222
164	0x3d65ff13	0.05615146
165	0x3c73997e	0.014868138
166	0xbc5e7438	-0.013577513
167	0x3da25fe0	0.07928443
168	0x3ac3e674	0.0014946
169	0x3d9ab65c	0.075543135
170	0x3c9c1cec	0.01905676
171	0xbdb1feb1	-0.08691157
172	0x3b460e30	0.0030220859
173	0x3c937e7c	0.018004648
174	0xbd3205ab	-0.043462437
175	0xbcecce34	-0.028906919
176	0xbda2ce35	-0.07949487
177	0xbcac5be0	-0.021039903
178	0xbd09534d	-0.033526707
179	0xbd8575e5	-0.06516627
180	0xbc8bd232	-0.017068002
181	0x3cc54d3f	0.024084685
182	0x3d6b3809	0.057426486
183	0xbcd7153b	-0.02625524
184	0xbd8aa09f	-0.06768917
185	0x3d9713e3	0.0737684
186	0xbb8c0ba8	-0.0042738505
187	0xbca34acf	-0.019933132
188	0x3d310ba9	0.04322401
189	0xbd17bc0e	-0.037044577
190	0x3d1cfd48	0.038327485
191	0x3d35fe38	0.044431895
192	0xbc3a31fa	-0.011364454
193	0x3c880bab	0.016607126
194	0xbd513482	-0.051075466
195	0x3c21d405	0.00987721
196	0x3ca7119a	0.020394135
197	0x3cf1d918	0.029522464
198	0x3d17b658	0.03703913
199	0x3d114996	0.035470568
200	0xbcdfa0cf	-0.02729836
201	0x3cd9d2e5	0.02658982
202	0xbc6a062c	-0.014283698
203	0xbcff429a	-0.031159688
204	0xbc2d4ee0	-0.010577887
205	0xbd99ca3f	-0.075092785
206	0x3bdaa20f	0.006672151
207	0x3b45de84	0.0030192444
208	0xbc930d13	-0.01795057
209	0xbc98dca9	-0.018659906
210	0xbccbfd8d	-0.024901176
211	0x3c5afb3a	0.013365561
212	0x3c368894	0.011140961
213	0xbbe5b718	-0.007010352
214	0xbd4beb3b	-0.04978488
215	0xbb8e0670	-0.0043342635
216	0x3d3b9044	0.04579188
217	0x3d1dce00	0.038526535
218	0x3c893946	0.016750943
219	0xbd8bfd78	-0.06835455
220	0xbda9e459	-0.08295507
221	0x3d9d805a	0.07690497
222	0x3d6163cd	0.055026818
223	0xbd131f91	-0.035918776
224	0x3c84a076	0.016189795
225	0xbc90698d	-0.017628456
226	0x3b14f394	0.0022728192
227	0x3d3fa2e9	0.046786223
228	0x3c16d87f	0.00920689
229	0x3d42e8ae	0.047585182
230	0xbc7633f3	-0.015027034
231	0x39ad4f65	0.00033056285
232	0xbbae758a	-0.0053240703
233	0xbcec9ee7	-0.028884364
234	0xbd26bec8	-0.040709287
235	0x3bd4caee	0.0064939177
236	0xbc76f71a	-0.015073562
237	0x3cbc1b2f	0.02296218
238	0xbbb9a8ce	-0.005665875
239	0xbcbe71e5	-0.023247669
240	0x3b6e07c1	0.003632054
241	0x3d37fd96	0.044919573
242	0xbcb244bf	-0.021761296
243	0x3bebccf3	0.0071960627
244	0xbc3807ba	-0.011232311
245	0xbc0a5846	-0.008443898
246	0xbd32092f	-0.04346579
247	0xbc38df6f	-0.0112837395
248	0x3c196290	0.009361878
249	0xbcfcb0a8	-0.030845955
250	0x3d225e75	0.039640862
251	0xbd1b0db2	-0.037854858
252	0xbd143d69	-0.036191378
253	0xbd266496	-0.04062327
254	0x3d2329ba	0.039834715
255	0xbbb9a11d	-0.005664958

activation.coefficients_vect f4 [672]
0	0x80000000	-0.0
1	0x3ae2d6fd	0.0017306503
2	0x3a9fad0c	0.0012182309
3	0x3a88fd14	0.00104514
4	0x3a53ecfb	0.0008084324
5	0x39c6111e	0.00037778256
6	0x39ba9f06	0.00035595166
7	0x39b6327a	0.00034751353
8	0x393dac88	0.00018088717
9	0x38f5e244	0.000117246556
10	0x38b567e5	8.6501044e-05
11	0x38773e02	5.894714e-05
12	0x37739840	1.4519377e-05
13	0xb7081d8b	-8.11311e-06
14	0xb8fb7616	-0.00011990608
15	0xb9333502	-0.00017090517
16	0xba912dd8	-0.0011076285
17	0xbaa05aef	-0.0012234132
18	0xbad8c9d0	-0.0016539637
19	0xbae47a91	-0.0017431547
20	0x00000000	0.0
21	0x80000000	-0.0
22	0x3986965d	0.000256705
23	0x39868f2c	0.00025665143
24	0x3977292d	0.00023571095
25	0xb6a980ff	-5.0516096e-06
26	0xb9231321	-0.00015552017
27	0xb99a60a8	-0.00029445183
28	0xb99c6e70	-0.0002983692
29	0xb99d6e4a	-0.00030027545
30	0xb9d91c9c	-0.0004141078
31	0xb84636e2	-4.7257992e-05
32	0x39c1b9d8	0.00036950293
33	0x398e78b5	0.00027174284
34	0x393da15d	0.00018084557
35	0x39222040	0.00015461538
36	0x391bd35a	0.00014860686
37	0x3879c035	5.9545233e-05
38	0xb88388c7	-6.2720435e-05
39	0xb997267c	-0.00028829637
40	0xba069776	-0.0005134264
41	0x00000000	0.0
42	0x80000000	-0.0
43	0x3af61bce	0.0018776597
44	0x3aa756f0	0.0012766998
45	0x3a911f34	0.0011071921
46	0x3a33b70d	0.0006855585
47	0x3a0df7d3	0.0005415652
48	0x3a0d507b	0.00053907157
49	0x390f2615	0.0001365173
50	0xb8032877	-3.127052e-05
51	0xb84b5210	-4.84754e-05
52	0xb8670fb2	-5.508931e-05
53	0xb8dbce83	-0.000104811996
54	0xb8ea744f	-0.00011179654
55	0xb9800a49	-0.00024421726
56	0xb9a9eb8b	-0.00032409685
57	0xb9f1141e	-0.0004598209
58	0xba075b23	-0.0005163422
59	0xba076699	-0.00051651296
60	0xbaa3ea90	-0.0012505818
61	0xbab40923	-0.0013735633
62	0x00000000	0.0
63	0x80000000	-0.0
64	0x3ab4618e	0.0013761984
65	0x3aa6887a	0.0012705468
66	0x3a09a246	0.0005250316
67	0x39e55223	0.0004373948
68	0x3986473d	0.00025611548
69	0x38a0fabf	7.6760996e-05
70	0x389ac154	7.3793024e-05
71	0xb82e749b	-4.159343e-05
72	0xb9151c61	-0.0001422032
73	0x396ab7a3	0.00022384389
74	0x3a19dbae	0.00058692216
75	0x39dc31fc	0.0004199891
76	0x39d7e3b5	0.0004117765
77	0x39c52fe5	0.00037610452
78	0x39922820	0.00027877185
79	0xb9124386	-0.000139488
80	0xba06ee47	-0.00051472004
81	0xba410332	-0.0007362842
82	0xbacc1f78	-0.0015573343
83	0x00000000	0.0
84	0x80000000	-0.0
85	0x3b21a831	0.00246669
86	0x3aa27466	0.0012394309
87	0x3a60a75b	0.000856986
88	0x3a36f55b	0.000697931
89	0x39a42077	0.00031304706
90	0x38df55b0	0.00010649429
91	0xb83a68f0	-4.4443586e-05
92	0xb90d5877	-0.00013479764
93	0xb931beba	-0.00016951087
94	0x38dc3617	0.000105004925
95	0x39ddc580	0.00042299554
96	0x39cf71cd	0.00039566905
97	0x3867c8e9	5.5261804e-05
98	0xb8fc9f65	-0.00012045986
99	0xb9f1657a	-0.00046042708
100	0xba12771d	-0.0005587207
101	0xbac55642	-0.0015055614
102	0xbb13d9da	-0.002256027
103	0xbb4976b8	-0.0030740928
104	0x00000000	0.0
105	0x80000000	-0.0
106	0x3aa47d5f	0.001254957
107	0x3a39ad64	0.0007083027
108	0x3a0713e7	0.0005152807
109	0x39fc6010	0.00048136758
110	0x39aa3ad4	0.00032468757
111	0x397ed812	0.0002430382
112	0x39047dc4	0.00012635352
113	0x38a517f9	7.8722784e-05
114	0x3854d34e	5.074153e-05
115	0xb794208b	-1.7658129e-05
116	0xb8a0b3ea	-7.662906e-05
117	0xb8b46472	-8.601778e-05
118	0xb909bdc5	-0.00013136033
119	0xb9171e81	-0.00014411846
120	0xb9c942b1	-0.00038387396
121	0xb9e8f5e8	-0.00044433703
122	0xba25904d	-0.0006315753
123	0xba3712e5	-0.00069837115
124	0xba9caf10	-0.0011954028
125	0x00000000	0.0
126	0x80000000	-0.0
127	0x3b00a2c9	0.0019628278
128	0x3addb52c	0.0016914955
129	0x3ac49834	0.0014998973
130	0x3a2598b1	0.0006317003
131	0x3a00e80c	0.000491739
132	0x38155808	3.5606354e-05
133	0xb87b8af9	-5.997249e-05
134	0xb971b7cb	-0.00023052019
135	0xb9a969e2	-0.0003231308
136	0xb88ab8dc	-6.6147855e-05
137	0x398d9bce	0.000270097
138	0x3973e7cc	0.00023260637
139	0xb88ca286	-6.7059926e-05
140	0xb98a3478	-0.00026360503
141	0xb9b49bdd	-0.00034448403
142	0xba4b9ef2	-0.000776752
143	0xba5de6f7	-0.00084648974
144	0xbabbd8ce	-0.0014331581
145	0xbb09cfe5	-0.0021028456
146	0x00000000	0.0
147	0x80000000	-0.0
148	0x3b2f3db8	0.0026739668
149	0x3afad698	0.001913744
150	0x3ae7b6b2	0.0017678349
151	0x3a0483e1	0.0005055052
152	0x38fad139	0.000119599
153	0x38698b78	5.568142e-05
154	0xb956d355	-0.00020487358
155	0xb95b4083	-0.000209095
156	0xb9984abf	-0.0002904739
157	0xb8d038d2	-9.9287965e-05
158	0x385274a1	5.017652e-05
159	0xb8a3f239	-7.817563e-05
160	0xb967c248	-0.00022102252
161	0xb9897c77	-0.0002622341
162	0xb9cf2864	-0.0003951221
163	0xba19d2f7	-0.0005867923
164	0xbaa5d1e8	-0.0012651058
165	0xbabdbe85	-0.0014476335
166	0xbad54e19	-0.0016273885
167	0x00000000	0.0
168	0x80000000	-0.0
169	0x3983d2f8	0.0002514345
170	0xb6de5ee2	-6.6271614e-06
171	0xb9bc271d	-0.00035887296
172	0xba4e3fcc	-0.0007867783
173	0xba0f0a87	-0.0005456586
174	0xb9930f0d	-0.0002804924
175	0xb7b5f92b	-2.169291e-05
176	0x397518da	0.00023374279
177	0xba61339c	-0.0008590759
178	0x385ffe69	5.340428e-05
179	0x3a78f2f0	0.000949665
180	0x3a418644	0.0007382373
181	0x39ee88b5	0.00045496752
182	0x39bcff36	0.000360483
183	0x39bb8565	0.00035766806
184	0x399a531d	0.00029435093
185	0x394aa8f2	0.00019327158
186	0xba2a8f55	-0.00065063435
187	0xba87b06a	-0.0010352258
188	0x00000000	0.0
189	0x80000000	-0.0
190	0x3a95691f	0.0011399126
191	0x3a0dfb2e	0.0005416152
192	0x3a047239	0.0005052421
193	0x39afc8b9	0.0003352815
194	0x39ad5d3f	0.00033066605
195	0x396bbdc2	0.00022482037
196	0x392b9083	0.00016361666
197	0x38ef136f	0.00011400028
198	0xb75fad25	-1.3332149e-05
199	0xb78473fe	-1.578964e-05
200	0xb8b38b4e	-8.561333e-05
201	0xb90fb89a	-0.00013706312
202	0xb910bd6f	-0.0001380348
203	0xb94f6b72	-0.00019781085
204	0xb998adb2	-0.00029121112
205	0xb999a8fe	-0.00029308343
206	0xb9eb5a15	-0.0004488981
207	0xba11ae22	-0.0005557259
208	0xba343a90	-0.00068751816
209	0x00000000	0.0
210	0x80000000	-0.0
211	0x3aaf83ec	0.0013390756
212	0x3a46d359	0.0007584594
213	0x39f28b29	0.0004626152
214	0x391b9c4d	0.00014840178
215	0x3911150c	0.00013836118
216	0xb8bcc575	-9.001318e-05
217	0xb8ef88df	-0.00011421902
218	0xb918d39c	-0.0001457468
219	0xb933f967	-0.0001716368
220	0x371cee85	9.353859e-06
221	0x393fe60f	0.00018300883
222	0x392c8cdf	0.00016455677
223	0x3928ca77	0.00016097153
224	0xb8c28e06	-9.277095e-05
225	0xb98259c3	-0.0002486241
226	0xb9f1f50b	-0.00046149673
227	0xba1fe8ff	-0.0006100088
228	0xba28a72d	-0.00064336025
229	0xba7878c7	-0.00094784464
230	0x00000000	0.0
231	0x80000000	-0.0
232	0x398a7e38	0.0002641545
233	0x38240808	3.9108127e-05
234	0x3804a312	3.1623124e-05
235	0xb83f0934	-4.554652e-05
236	0xb868453b	-5.5377586e-05
237	0xb91861b7	-0.00014532251
238	0xb9710fdb	-0.00022989458
239	0xb97bae90	-0.00024002255
240	0xba0d2cec	-0.0005385417
241	0xb6d8c555	-6.460274e-06
242	0x3a02505b	0.00049710803
243	0x39b86096	0.00035167177
244	0x3955572d	0.00020345738
245	0x38ff619b	0.00012177528
246	0x38e87819	0.00011084992
247	0x38472b96	4.748589e-05
248	0xb8934013	-7.021441e-05
249	0xb8ace3d5	-8.244036e-05
250	0xb8de4fec	-0.000106006715
251	0x00000000	0.0
252	0x80000000	-0.0
253	0x3aca51e3	0.0015435781
254	0x3a7286d4	0.00092516583
255	0x39f26a41	0.00046237002

u f4 [1, 1, 20, 20]
0	0x3c58ec60	0.01323995
1	0x3c2f6250	0.010704592
2	0xbceb2220	-0.028702796
3	0xbd704b77	-0.05866572
4	0xbcc6d05a	-0.024269272
5	0x3d26aa8a	0.040689982
6	0x3dc7b654	0.09751573
7	0x3dc8f5ee	0.09812532
8	0xbd07e21f	-0.03317463
9	0xbddc2a2b	-0.107502304
10	0xbe2435af	-0.16036104
11	0xbd0fe32e	-0.035128765
12	0x3da96e60	0.082730055
13	0x3e3a101a	0.18170205
14	0x3d84f0c4	0.06491235
15	0xbd45cae2	-0.048289187
16	0xbdf3c985	-0.11903671
17	0xbd02148b	-0.031757873
18	0x3cb8f126	0.022575926
19	0x3d199097	0.037491407
20	0xbc02dc08	-0.00798703
21	0xbd300676	-0.04297491
22	0xbb73f4fc	-0.003722488
23	0x3ddab509	0.10679061
24	0x3d6910ac	0.056900665
25	0x3bfb0b08	0.007661227
26	0xbe22eafe	-0.15909955
27	0xbe1b1fcd	-0.1514885
28	0xbda98976	-0.08278172
29	0x3e5d744a	0.21626392
30	0x3e61f295	0.22065194
31	0x3e6411b6	0.22272381
32	0xbdebf3ea	-0.11521132
33	0xbe9c02f2	-0.30470997
34	0xbe80a654	-0.25126898
35	0x3d0cada0	0.03434527
36	0x3e53feb7	0.20702635
37	0x3dfb6673	0.122754
38	0xbd35d240	-0.044389963
39	0xbda3e6b4	-0.080029875
40	0xbb518d00	-0.0031974912
41	0x3af4d930	0.001868045
42	0x3d0c1a9c	0.034205064
43	0x3c676a60	0.014124483
44	0xbd18f714	-0.037345007
45	0xbcc66d88	-0.02422215
46	0x3c76d298	0.015064858
47	0x3d77a5a0	0.060460687
48	0x3c83ff8c	0.016113065
49	0x3ad07040	0.0015902594
50	0xbe1c455c	-0.15260834
51	0xbda75201	-0.08169938
52	0xbd86bf90	-0.065795064
53	0x3e07732c	0.13227528
54	0x3e484aff	0.19559859
55	0x3ddc507d	0.107575394
56	0xbdc3c7f9	-0.09559626
57	0xbdec7fde	-0.11547826
58	0x3c9e12b8	0.019296035
59	0x3db3fdba	0.08788629
60	0xbc6c174e	-0.014409853
61	0x3d2500e8	0.040284067
62	0xbcdb93e8	-0.026803926
63	0x3838e000	4.4077635e-05
64	0xbc4456e0	-0.011983603
65	0xbcc6ce98	-0.024268433
66	0xbc49895c	-0.012300815
67	0xbbef1f40	-0.0072974265
68	0x3d9558c0	0.07292318
69	0x3d2518a6	0.04030671
70	0x3d869b09	0.06572539
71	0xbcfa706b	-0.030571183
72	0xba88f5e0	-0.0010449253
73	0xbdaf3b4b	-0.08556231
74	0xbd963046	-0.07333426
75	0xbd3bcc08	-0.045848876
76	0x3e167805	0.14694221
77	0x3c6aa19c	0.014320757
78	0xbdbd89f7	-0.0925483
79	0xbdba63be	-0.091010556
80	0xbc77bb1c	-0.015120294
81	0x3de65fb4	0.11248723
82	0xbd97c2a8	-0.074101746
83	0x3c00df11	0.007865683
84	0xbd887cd8	-0.06664437
85	0xbd02db64	-0.03194751
86	0x3d9cd226	0.0765727
87	0x3ca9f5bf	0.020747064
88	0x3d80f647	0.06296974
89	0xbe03862d	-0.12844153
90	0xbd3d5a6e	-0.04622882
91	0xbda03574	-0.078226954
92	0x3cb944dc	0.022615843
93	0x3e008387	0.12550174
94	0x3e25145b	0.16121046
95	0xbb594592	-0.003315304
96	0xbe4b9906	-0.19882593
97	0xbd5f18bc	-0.054466948
98	0x3def39aa	0.116809204
99	0x3e017e42	0.1264582
100	0x3c8ed304	0.017434604
101	0xbcdb59a1	-0.026776137
102	0xbcc95c6e	-0.024580207
103	0xbc083aea	-0.008314827
104	0x3d768f85	0.060195465
105	0x3cbbc4b2	0.02292094
106	0x3d4b1d46	0.049588464
107	0xbdc8dcb8	-0.09807724
108	0x3d91a018	0.071106136
109	0xbd024b98	-0.031810373
110	0x3d91dba2	0.0712197
111	0xbc47ad1e	-0.01218727
112	0xbca6bfbc	-0.020355098
113	0xbd80dd97	-0.06292265
114	0xbdc9fa4e	-0.09862195
115	0x3c07d612	0.008290784
116	0x3e4f6327	0.20252667
117	0x3cc79f30	0.024367899
118	0xbdc8202a	-0.0977176
119	0xbe0f2050	-0.1397717
120	0x3c880f9a	0.016609002
121	0xbd907da3	-0.07055213
122	0x3d552b3a	0.052043177
123	0xbcae683d	-0.021289939
124	0xbd26d898	-0.040733904
125	0xbc8a898d	-0.016911292
126	0xbc7c275a	-0.0153902415
127	0x3d5e0990	0.05420834
128	0xbbd33cc0	-0.006446451
129	0xbd623588	-0.055226833
130	0xbd4a3166	-0.049363516
131	0x3ccd2c7e	0.02504563
132	0x3d3ccf30	0.046096027
133	0x3ddc36ac	0.10752615
134	0x3d981e1a	0.074276164
135	0xbd49a0ed	-0.049225736
136	0xbe6140ea	-0.21997419
137	0xbdaedd8c	-0.085383505
138	0x3e12d1ce	0.14337847
139	0x3e1aa5b8	0.15102279
140	0x3d35801e	0.044311635
141	0xbdd41b9f	-0.10356831
142	0x3db06059	0.08612127
143	0xbcb85c98	-0.02250509
144	0x3d303048	0.043014795
145	0x3e076e1b	0.13225596
146	0xbcfcb698	-0.030848786
147	0xbd6a4e9a	-0.057203867
148	0xbcd4fefd	-0.026000494
149	0xbd365eea	-0.04452411
150	0x3dcca4a4	0.0999234
151	0xbd336ec8	-0.04380682
152	0x3d43f9f0	0.04784578
153	0xbdb7b377	-0.08969777
154	0xbd93206a	-0.07183917
155	0xbd0e87c6	-0.034797452
156	0x3e651272	0.22370318
157	0x3d8be990	0.06831658
158	0xbd3d8764	-0.046271697
159	0xbe3dc6a3	-0.18532805
160	0xbd4f4bd8	-0.05060944
161	0xbcf213e6	-0.029550504
162	0x3d73f78e	0.05956226
163	0xbcdc6cc6	-0.026907336
164	0xbd36a45c	-0.04459034
165	0xbd19db0f	-0.037562426
166	0xbd84e820	-0.06489587
167	0x3d736e62	0.05943144
168	0x3cff1aeb	0.031140765
169	0xbd508f1c	-0.05091773
170	0x3d81f7d6	0.06346099
171	0xbb59ef08	-0.0033254046
172	0x3cead286	0.028664839
173	0x3d2626e0	0.040564418
174	0xbc058cf8	-0.008151285
175	0x3d694d02	0.056958206
176	0xbe8126d8	-0.25224948
177	0xbcdf5a68	-0.027264789
178	0x3c16f140	0.009212792
179	0x3e5437e6	0.20724449
180	0x3d4aa4f2	0.04947371
181	0x3cb2ea76	0.021840315
182	0x3d6ca3ae	0.057773285
183	0xbd347c48	-0.044063836
184	0x3de794fb	0.11307713
185	0xbcc242a0	-0.02371341
186	0x3d479813	0.048729014
187	0xbd9017c2	-0.070357814
188	0xbc93f7ec	-0.018062554
189	0xbcac4d9c	-0.0210331
190	0x3d6f6460	0.058445334
191	0xbd43857a	-0.047734715
192	0x3cd11440	0.025522351
193	0xbd95a65a	-0.0730712
194	0xbd55460e	-0.052068762
195	0xbc1f470b	-0.009721528
196	0x3e5bbff0	0.21459937
197	0x3dc908db	0.09816142
198	0xbca7e350	-0.020494133
199	0xbe5a3c70	-0.21312118
200	0xbdbb10a8	-0.09134036
201	0xbc8467f8	-0.016162857
202	0x3ab69c60	0.0013932101
203	0xbbbb5cda	-0.005717856
204	0xbc49ef2c	-0.012325089
205	0xbde89da6	-0.11358194
206	0xbd037dd9	-0.03210244
207	0x3d854152	0.065065995
208	0x3bde0780	0.0067757964
209	0x3dfc87d4	0.12330595
210	0xbcc4aac2	-0.024007205
211	0xbc5d80b4	-0.013519455
212	0xbd16047f	-0.03662538
213	0x3c011123	0.007877621
214	0x3d49f7dd	0.049308646
215	0x3d1f8c3c	0.038952097
216	0xbe3f23ef	-0.18666051
217	0xbd736f18	-0.05943212
218	0x3b03a786	0.0020088865
219	0x3e418c0b	0.18901078
220	0x3dfec9b0	0.124408126
221	0x3cfbf896	0.030758183
222	0x3c93ce33	0.01804266
223	0xbde1fc0b	-0.110344015
224	0x3dcd7366	0.10031776
225	0x3d132487	0.035923507
226	0x3d1756df	0.03694808
227	0x3a2e5f80	0.0006651804
228	0xbda4512f	-0.08023297
229	0xbd06164c	-0.032736108
230	0x3aa6f290	0.0012737084
231	0xbcf5a439	-0.029985534
232	0x3db65600	0.08903122
233	0xbdf445e0	-0.1192739
234	0x3d0c6d10	0.034283698
235	0xbc96736d	-0.018365586
236	0x3e448d04	0.19194418
237	0x3d05fdfa	0.032712914
238	0xbd26dc7e	-0.04073762
239	0xbe243058	-0.16034067
240	0xbe3ca05e	-0.1842055
241	0x3e083ff7	0.1330565
242	0xbe204546	-0.15651426
243	0x3e064e98	0.13115919
244	0xbdc6bfc1	-0.09704543
245	0xbd931852	-0.07182373
246	0x3b844fda	0.0040378394
247	0x3d38d4ce	0.04512482
248	0x3d5e35a2	0.054250367
249	0x3dadbf88	0.08483797
250	0xbd0fed9e	-0.03513872
251	0xbd979704	-0.07401851
252	0xbc956ad8	-0.018239424
253	0x3cfb6630	0.030688375
254	0x3da7cdf4	0.08193579
255	0xbcc32567	-0.023821546

exp_avg f4 [8, 1, 7, 7]
0	0x3cf63b8b	0.03005769
1	0x3d2aedaf	0.04173058
2	0x3d42d014	0.04756172
3	0x3c1185b0	0.008881971
4	0x3c3e25dd	0.011605707
5	0x3d0fed09	0.035138164
6	0x3d7d65f4	0.06186481
7	0xbd1a4c4f	-0.03767043
8	0x3bbb4d86	0.0057160286
9	0x3d673611	0.056448046
10	0x3d9ea1e2	0.077457204
11	0x3c80c679	0.01571964
12	0x3b6c8ab1	0.0036093409
13	0xbbf8086c	-0.0075693633
14	0x3c8828e1	0.016621055
15	0x3d3ab2ab	0.045580547
16	0xbcb65c5b	-0.022260835
17	0xbd48f031	-0.04905719
18	0xbbec41d5	-0.007209996
19	0x3d10ec93	0.035381865
20	0x3d22ccdd	0.039746154
21	0xbcd7359a	-0.026270676
22	0x3cf1ca18	0.029515311
23	0xbd972b26	-0.07381277
24	0x3d2eddb9	0.04269192
25	0xbd672dfc	-0.05644034
26	0x3cf5e9bb	0.030018678
27	0x3b260993	0.0025335297
28	0xbbe7d51e	-0.007074966
29	0x3cf90a8d	0.030400539
30	0xbd5803e3	-0.05273808
31	0xbd8303fd	-0.06397245
32	0xbddaa649	-0.106762476
33	0x3c671350	0.014103726
34	0x3d02d296	0.03193911
35	0xbd799166	-0.06092968
36	0xbc4852d2	-0.012226777
37	0xbcbab7d0	-0.022792727
38	0x3d0cf822	0.034416325
39	0xbbc21613	-0.0059230416
40	0x3d0e0638	0.0346739
41	0xbbf19b82	-0.0073732743
42	0xbd0c5644	-0.034261957
43	0xbce7f051	-0.028312834
44	0xbd7f3adc	-0.062311992
45	0xbcca5483	-0.024698501
46	0xbd127093	-0.03575189
47	0x3b41c69f	0.002956785
48	0x3c9c133c	0.01905214
49	0xbd385454	-0.045002297
50	0xbcd94edf	-0.026526866
51	0xbd36cd22	-0.044629224
52	0xbd88a3e1	-0.066718824
53	0xbd66d7b1	-0.056358043
54	0xbc995828	-0.018718794
55	0xbc7f44ec	-0.015580397
56	0xbde0bd5d	-0.10973618
57	0xbd51ad20	-0.051190495
58	0xbc31664d	-0.010827613
59	0x3d2f1620	0.04274571
60	0xbb9c13d3	-0.0047631054
61	0xbd03ea6f	-0.032205995
62	0xbd704269	-0.058657084
63	0xba888ff1	-0.0010418874
64	0x3cc3fd96	0.02392463
65	0xbc46e2cb	-0.012139033
66	0xbdc93375	-0.09824268
67	0xbd1c7b06	-0.03820326
68	0x3c3e5a3e	0.011618195
69	0x3c3f301e	0.011669187
70	0xbb6dcf0e	-0.0036286744
71	0x3c977daf	0.018492548
72	0xbc2f2974	-0.010691036
73	0x3d8d244f	0.06891691
74	0x3c3d4ef7	0.011554471
75	0x3c96b8d6	0.018398684
76	0x3b03c37c	0.0020105531
77	0x3cf2b43c	0.029626958
78	0x3d98663a	0.07441373
79	0x3cb0ecf6	0.021597367
80	0xbd4e722c	-0.05040185
81	0xbd49b620	-0.049245954
82	0x3bb4fa78	0.0055230223
83	0x3ceb0171	0.02868721
84	0xbcdb3632	-0.02675924
85	0x3b941b6f	0.004519872
86	0x3cf07795	0.029353896
87	0x3d986410	0.074409604
88	0x3da60c43	0.081078075
89	0x3db345af	0.087535255
90	0x3d08a094	0.033356264
91	0x3d069863	0.03286017
92	0x3c9b219c	0.018936925
93	0x3ca169fb	0.019703856
94	0xba9b49cd	-0.0011847556
95	0x3c4fd51e	0.012685088
96	0x3cfe61bf	0.031052468
97	0x3d1ac277	0.037783112
98	0x3ae9f858	0.0017850501
99	0x3b4ee335	0.0031568531
100	0xbc895e01	-0.016768457
101	0xbc3764a6	-0.01119343
102	0x3b384fe7	0.0028123797
103	0xbc16e31f	-0.009209423
104	0xbce2dabc	-0.027692191
105	0x3b6f14c9	0.0036480895
106	0xbd3806b3	-0.044928264
107	0xbd5318de	-0.051537387
108	0xbcd4c4b1	-0.025972696
109	0xbae059cd	-0.0017116606
110	0xbc3061af	-0.010765477
111	0xbc85fe87	-0.01635672
112	0x3c5ef6fb	0.013608689
113	0x3c1d6b26	0.009608066
114	0x3cc82414	0.024431266
115	0x3c76718b	0.015041719
116	0xbb23bba4	-0.0024983669
117	0xbc8bdea0	-0.01707393
118	0xb9747729	-0.00023314044
119	0x3cb72f9b	0.022361567
120	0xbcc38c62	-0.02387065
121	0x3c2e3497	0.010632656
122	0xb9e7063f	-0.00044064407
123	0x3d29f105	0.04148962
124	0x3a9786a5	0.0011560513
125	0xbc874dc2	-0.01651657
126	0x3c0291d8	0.007969342
127	0x3ca9fa7f	0.020749329
128	0x3ca6d3c1	0.020364644
129	0x3d2dcd7e	0.0424323
130	0x3cfd5b80	0.03092742
131	0x3c056f8b	0.00814427
132	0xbb755105	-0.0037432325
133	0x3c54d783	0.012990835
134	0xbb1775c8	-0.0023110975
135	0xbc4176fd	-0.011808154
136	0x3ba6a1e7	0.005085218
137	0x3c496835	0.012292911
138	0x3bef594f	0.0073043476
139	0xbb19037c	-0.0023348024
140	0x3b80ac57	0.0039267945
141	0x3b8cdc74	0.004298741
142	0x3bd573a2	0.0065140286
143	0x3c91940d	0.017770791
144	0xbc3b22e6	-0.011421895
145	0xbca9a9b0	-0.020710796
146	0xbcaf5711	-0.021403821
147	0x3c0b1ea3	0.008491191
148	0xbc0e3c56	-0.008681377
149	0x3d4ad412	0.049518652
150	0x3d10e352	0.03537304
151	0x3ca643a2	0.020295922
152	0xbc111754	-0.0088556595
153	0x3c89a10f	0.016800432
154	0x3bba6bfc	0.0056891423
155	0x3b38db0f	0.002820674
156	0x3d11e2cd	0.035616685
157	0x3c77e656	0.0151306
158	0x3ba0ee2c	0.004911205
159	0xbd4ee4d0	-0.05051118
160	0xbb906547	-0.0044066045
161	0x3c8cad10	0.017172366
162	0xbcdc51a9	-0.026894407
163	0x3a228e17	0.00062009826
164	0xbcc940e5	-0.024567077
165	0x3d07f12c	0.033188984
166	0x3acc3e9d	0.0015582625
167	0xbaad7698	-0.0013234196
168	0xbca07406	-0.019586574
169	0xbce199de	-0.02753919
170	0x3cacd718	0.021098658
171	0xbb1656dc	-0.0022939956
172	0xbbafa7b4	-0.005360568
173	0xbcbb253a	-0.0228449
174	0x3b9d12f6	0.00479352
175	0xbba367ee	-0.0049867546
176	0xbc801208	-0.015633598
177	0xbb32a33c	-0.002725794
178	0xbd0b21f6	-0.033967935
179	0x3c925fec	0.017868005
180	0x3c0b05fd	0.008485314
181	0x3cd58a86	0.02606703
182	0xbd1e6e01	-0.038679127
183	0xbcb8085a	-0.02246492
184	0x3d1d275b	0.03836761
185	0x3d19b642	0.03752733
186	0xbbad7b00	-0.0052942038
187	0xbd05c560	-0.032658935
188	0x3a9d1c98	0.0011986671
189	0x3a1e3635	0.0006035299
190	0xbc6e5d6b	-0.01454864
191	0x3aa94612	0.0012914559
192	0x39b98790	0.00035386952
193	0xbb554f7e	-0.0032548602
194	0xbcb73695	-0.022364894
195	0xbbb0dfcc	-0.0053977724
196	0x3d0d3a74	0.034479573
197	0x3cb9d1b6	0.022683006
198	0xbb534e2f	-0.0032242646
199	0x3b56a9af	0.0032754948
200	0xbb81b024	-0.003957765
201	0xbb5f9fbf	-0.0034122316
202	0xbc923bf7	-0.01785086
203	0xbbd13583	-0.006384553
204	0x3cbb3186	0.022850763
205	0xbca1669f	-0.019702254
206	0x3c5d7f1f	0.013519078
207	0xbce2253d	-0.027605647
208	0xbd2660e1	-0.040619735
209	0xbdae1c9c	-0.085015506
210	0x3d4be151	0.049775425
211	0x3c918428	0.017763212
212	0xbdea60ff	-0.11444282
213	0xbdac912f	-0.08426129
214	0xbc60041b	-0.013672854
215	0x3d35018b	0.044190925
216	0xbccf7e6f	-0.025328843
217	0x3c0e908f	0.008701458
218	0x3cc21f5e	0.023696598
219	0xbc7db8e8	-0.01548598
220	0x3d0e9c6b	0.03481714
221	0xbd8b05d2	-0.067882195
222	0xbbd80a1a	-0.006593001
223	0xbd291b57	-0.04128584
224	0x3d2aa3e3	0.0416602
225	0x3d3d641e	0.046238057
226	0xbca1c511	-0.019747289
227	0xbd8a25d7	-0.067454986
228	0xbc323134	-0.010875989
229	0x3ce49711	0.027904065
230	0x3c21d57e	0.009877561
231	0xba9f636f	-0.0012160371
232	0x3c43e638	0.011956744
233	0x3d167a5d	0.03673779
234	0x3dc9e77f	0.098586075
235	0x3d5b0929	0.053475533
236	0x3bad5fd2	0.0052909637
237	0xbd0cc9be	-0.034372084
238	0x3d4d9339	0.05018923
239	0x3ce21c01	0.027601244
240	0xbca9c8df	-0.020725666
241	0x3ac12e00	0.001473844
242	0x3ceb9fba	0.028762687
243	0x3cc0100e	0.023445155
244	0xbc005a8d	-0.007834089
245	0x3ddd5d4c	0.108088106
246	0x3dbab905	0.09117321
247	0x3c9d95c7	0.019236458
248	0x3cd873d8	0.026422426
249	0x3cf635ad	0.030054891
250	0x3d921fcc	0.07134971
251	0x3d53fb48	0.051753312
252	0x3d438133	0.047730636
253	0x3d1640bb	0.036682826
254	0xbc1d4650	-0.009599283
255	0x3d707fc9	0.058715615

exp_avg_sq f4 [8, 1, 7, 7]
0	0x3e16143b	0.14656155
1	0x3e153d32	0.14574125
2	0x3e2cb6a8	0.16866553
3	0x3e1deae0	0.15421629
4	0x3e145a5f	0.14487599
5	0x3e0f9d0a	0.1402475
6	0x3defc9d1	0.11708415
7	0x3df5417f	0.11975383
8	0x3e192dda	0.14958897
9	0x3e74b08c	0.23895472
10	0x3ea522ca	0.32253104
11	0x3e4ce767	0.20010148
12	0x3e0bf5e1	0.13668014
13	0x3dd4cd2a	0.103906944
14	0x3df6e9a2	0.12056281
15	0x3e5c1a50	0.21494412
16	0x3e25d95b	0.16196196
17	0x3e8d5839	0.2760637
18	0x3e4ac4ea	0.19801679
19	0x3e18894b	0.14896123
20	0x3de386d2	0.11109699
21	0x3e4393de	0.19099376
22	0x3e892d6a	0.2679246
23	0x3edebdc8	0.43504167
24	0x3e0b19d4	0.13584071
25	0x3ee8572f	0.45379016
26	0x3e411846	0.18856916
27	0x3e3e1788	0.18563664
28	0x3e18ea75	0.14933188
29	0x3e54bf88	0.20776188
30	0x3ea63626	0.32463187
31	0x3ea92c59	0.33041647
32	0x3eebf348	0.46084046
33	0x3e376fcf	0.17913745
34	0x3e0ca8ed	0.13736315
35	0x3ddf25ba	0.10895868
36	0x3e352f95	0.17693932
37	0x3e432f4e	0.19061014
38	0x3e625923	0.22104315
39	0x3e32ec49	0.17472948
40	0x3e22e079	0.15905942
41	0x3e0246ce	0.12722322
42	0x3df872b6	0.121312544
43	0x3e1b3505	0.15156944
44	0x3dfc23ed	0.1231154
45	0x3e2c2898	0.1681236
46	0x3e1f892d	0.15579672
47	0x3e1516c1	0.14559461
48	0x3e01640a	0.12635818
49	0x3de1bfe5	0.11022929
50	0x3dcaa6d9	0.09895105
51	0x3dc577f7	0.09642022
52	0x3def89d5	0.11696211
53	0x3dece5a0	0.11567235
54	0x3dc598ac	0.096482605
55	0x3dd3b8ed	0.10338006
56	0x3db8a78c	0.09016332
57	0x3dc8e466	0.098091885
58	0x3dc1dbe2	0.094657674
59	0x3e4112e8	0.18854868
60	0x3dfe3a97	0.12413519
61	0x3de2b780	0.11070156
62	0x3dac6ebd	0.08419559
63	0x3e0d7b7e	0.1381664
64	0x3e09d804	0.1346131
65	0x3dfb3934	0.1226677
66	0x3e9c4954	0.30524695
67	0x3e39a36f	0.18128751
68	0x3de45a15	0.11149994
69	0x3dcefcbf	0.10106801
70	0x3df1fef6	0.11816208
71	0x3e2114a6	0.15730533
72	0x3e00f1d4	0.1259225
73	0x3de7c8f4	0.11317626
74	0x3e8dadce	0.27671665
75	0x3dc8cadf	0.098043196
76	0x3e019010	0.12652612
77	0x3df0f81a	0.117660716
78	0x3e3ad72a	0.18246141
79	0x3ddae784	0.10688689
80	0x3e37b085	0.1793843
81	0x3e59de62	0.21276239
82	0x3dddc094	0.10827747
83	0x3dab529e	0.08365367
84	0x3db04def	0.08608615
85	0x3dc28a65	0.09499053
86	0x3dcb5a16	0.09929292
87	0x3dfd8d76	0.12380497
88	0x3da3181e	0.07963584
89	0x3db3b63d	0.087749936
90	0x3da34d31	0.079737075
91	0x3dce9351	0.10086692
92	0x3dc1c2a8	0.09460956
93	0x3d9d32ec	0.07675728
94	0x3dbb4ad6	0.09145133
95	0x3d91b04b	0.07113703
96	0x3d90bb02	0.07066919
97	0x3d8e2eaf	0.06942498
98	0x3d64ce5c	0.055860862
99	0x3d3be2b2	0.04587049
100	0x3d30ca5d	0.04316174
101	0x3d30a342	0.043124445
102	0x3d15e131	0.036591712
103	0x3d222149	0.039582524
104	0x3d21603d	0.03939842
105	0x3d21414f	0.039368924
106	0x3d863b5d	0.065542914
107	0x3d84c86a	0.064835384
108	0x3d148cbd	0.03626703
109	0x3cf70ff3	0.030158972
110	0x3cc54f2c	0.024085604
111	0x3ceda2b7	0.029008253
112	0x3d2bbb07	0.04192641
113	0x3d18d482	0.03731204
114	0x3ce94f03	0.028480059
115	0x3ce14d69	0.027502732
116	0x3cf4121d	0.029793793
117	0x3d37384f	0.044731434
118	0x3d151834	0.036400035
119	0x3d5087d2	0.05091078
120	0x3d37cae9	0.044871245
121	0x3d9eb649	0.07749612
122	0x3cb6f38a	0.022332925
123	0x3ddb2461	0.10700298
124	0x3d2d9e8f	0.04238754
125	0x3d287360	0.041125655
126	0x3d03615c	0.03207527
127	0x3d00cf60	0.03144777
128	0x3d0cd391	0.034381453
129	0x3d89c71f	0.067274325
130	0x3d5f6015	0.05453499
131	0x3d055123	0.03254808
132	0x3d2b9112	0.041886397
133	0x3cfdcb78	0.03098081
134	0x3d012924	0.031533375
135	0x3d114fb6	0.03547641
136	0x3d230920	0.039803624
137	0x3d191395	0.03737219
138	0x3d25d057	0.04048189
139	0x3d20418c	0.03912501
140	0x3d2a0d6b	0.041516703
141	0x3d1def3b	0.038558226
142	0x3d2e1f74	0.042510465
143	0x3d4037ec	0.04692833
144	0x3d49146a	0.049091734
145	0x3d432f37	0.04765245
146	0x3d5e7d59	0.05431876
147	0x3d46afcf	0.048507508
148	0x3d854359	0.06506986
149	0x3d43552b	0.047688644
150	0x3d57bed0	0.052672207
151	0x3d1f114e	0.038834862
152	0x3d55fff7	0.05224606
153	0x3d18c29d	0.037294973
154	0x3d57a2ca	0.052645482
155	0x3d7999d6	0.060937725
156	0x3d721977	0.059106316
157	0x3d84e007	0.06488042
158	0x3d7be770	0.061500013
159	0x3d770441	0.06030679
160	0x3d274797	0.040839758
161	0x3d603984	0.05474235
162	0x3dd6db75	0.10491077
163	0x3d838a93	0.06422915
164	0x3dfade0d	0.12249384
165	0x3d8502d1	0.06494678
166	0x3d98398e	0.07432853
167	0x3d2b5397	0.041827764
168	0x3d33d46d	0.043903757
169	0x3ddb84f2	0.10718717
170	0x3d41d712	0.047324248
171	0x3de77273	0.11301126
172	0x3d997ae6	0.07494144
173	0x3d8f8d20	0.07009339
174	0x3d6a1474	0.057148412
175	0x3d31147a	0.04323242
176	0x3d890ae7	0.066915326
177	0x3d8b6d29	0.0680793
178	0x3d97c23d	0.07410095
179	0x3dbe5770	0.09294021
180	0x3d6856bc	0.05672334
181	0x3d808d46	0.06276946
182	0x3d195bf9	0.037441228
183	0x3d51bed1	0.051207367
184	0x3d8658fd	0.06559942
185	0x3d9d5982	0.07683088
186	0x3d407682	0.046988018
187	0x3d7a165a	0.061056472
188	0x3d7eb9e2	0.06218899
189	0x3d13ca34	0.036081508
190	0x3d4b2c11	0.049602572
191	0x3d261e3e	0.040556185
192	0x3d6064d6	0.054783665
193	0x3d2429e0	0.040078998
194	0x3d6832fc	0.056689247
195	0x3d36403c	0.044494852
196	0x3ddb54ce	0.107095346
197	0x3de63e47	0.11242347
198	0x3de00bda	0.109397605
199	0x3e0a79fd	0.13523097
200	0x3dbb3eb3	0.09142818
201	0x3dd312bc	0.10306308
202	0x3dcbb619	0.09946842
203	0x3dd3aaa6	0.10335283
204	0x3e01bd73	0.12669925
205	0x3df5a391	0.119940884
206	0x3e06a97c	0.1315059
207	0x3e043b7f	0.12913321
208	0x3de8cd1d	0.11367247
209	0x3daf579a	0.085616305
210	0x3db92deb	0.09041961
211	0x3e1665cb	0.14687268
212	0x3ec2b4f8	0.38028693
213	0x3ea68db2	0.3252998
214	0x3e5b7759	0.21432246
215	0x3e01cfc2	0.1267691
216	0x3dcce326	0.100042626
217	0x3df2e9be	0.11860989
218	0x3e1a5ab6	0.15073666
219	0x3e793ffc	0.24340814
220	0x3d65fa80	0.0561471
221	0x3ea6a96a	0.32551128
222	0x3e1887c5	0.14895542
223	0x3dff00a4	0.12451294
224	0x3dd8de34	0.10589257
225	0x3e0950ff	0.13409804
226	0x3e14b5e0	0.14522505
227	0x3e9c9437	0.3058183
228	0x3e1b1220	0.15143633
229	0x3df66587	0.120310836
230	0x3dca2cbf	0.09871816
231	0x3db8f260	0.09030604
232	0x3e026e71	0.12737443
233	0x3e47672d	0.19472952
234	0x3e6d240e	0.23158285
235	0x3e0aa8be	0.13540933
236	0x3de0c7ab	0.10975584
237	0x3dbcaef9	0.09213061
238	0x3db3cd47	0.08779388
239	0x3dce1672	0.10062875
240	0x3db32afc	0.08748433
241	0x3de58745	0.11207441
242	0x3dd32f7d	0.10311792
243	0x3dcc6781	0.09980679
244	0x3dc64410	0.09680951
245	0x3dad4536	0.084604666
246	0x3ddeef4e	0.108854875
247	0x3db9d2a4	0.0907338
248	0x3dee392d	0.11631999
249	0x3da87b4e	0.082266435
250	0x3dc83f29	0.09777672
251	0x3d99a2aa	0.07501729
252	0x3da0843d	0.078377225
253	0x3df37465	0.11887435
254	0x3dd754fb	0.105142556
255	0x3e37067d	0.17873569

exp_avg f4 [32, 8, 7, 7]
0	0x80000004	-6e-45
1	0x80000004	-6e-45
2	0x00000004	6e-45
3	0x80000004	-6e-45
4	0x00000004	6e-45
5	0x00000004	6e-45
6	0x80000004	-6e-45
7	0x80000004	-6e-45
8	0x80000004	-6e-45
9	0x80000004	-6e-45
10	0x80000004	-6e-45
11	0x00000004	6e-45
12	0x80000004	-6e-45
13	0x80000004	-6e-45
14	0x80000004	-6e-45
15	0x80000004	-6e-45
16	0x80000004	-6e-45
17	0x80000004	-6e-45
18	0x80000004	-6e-45
19	0x80000004	-6e-45
20	0x80000004	-6e-45
21	0x80000004	-6e-45
22	0x80000004	-6e-45
23	0x80000004	-6e-45
24	0x80000004	-6e-45
25	0x80000004	-6e-45
26	0x80000004	-6e-45
27	0x80000004	-6e-45
28	0x80000004	-6e-45
29	0x80000004	-6e-45
30	0x80000004	-6e-45
31	0x80000004	-6e-45
32	0x80000004	-6e-45
33	0x80000004	-6e-45
34	0x80000004	-6e-45
35	0x80000004	-6e-45
36	0x80000004	-6e-45
37	0x80000004	-6e-45
38	0x80000004	-6e-45
39	0x80000004	-6e-45
40	0x00000004	6e-45
41	0x80000004	-6e-45
42	0x00000004	6e-45
43	0x80000004	-6e-45
44	0x00000004	6e-45
45	0x00000004	6e-45
46	0x00000004	6e-45
47	0x00000004	6e-45
48	0x00000004	6e-45
49	0x00000004	6e-45
50	0x80000004	-6e-45
51	0x80000004	-6e-45
52	0x80000004	-6e-45
53	0x00000004	6e-45
54	0x00000004	6e-45
55	0x80000004	-6e-45
56	0x00000004	6e-45
57	0x80000004	-6e-45
58	0x80000004	-6e-45
59	0x80000004	-6e-45
60	0x00000004	6e-45
61	0x00000004	6e-45
62	0x00000004	6e-45
63	0x00000004	6e-45
64	0x80000004	-6e-45
65	0x80000004	-6e-45
66	0x80000004	-6e-45
67	0x00000004	6e-45
68	0x00000004	6e-45
69	0x80000004	-6e-45
70	0x00000004	6e-45
71	0x80000004	-6e-45
72	0x80000004	-6e-45
73	0x80000004	-6e-45
74	0x80000004	-6e-45
75	0x00000004	6e-45
76	0x80000004	-6e-45
77	0x00000004	6e-45
78	0x80000004	-6e-45
79	0x80000004	-6e-45
80	0x80000004	-6e-45
81	0x00000004	6e-45
82	0x80000004	-6e-45
83	0x80000004	-6e-45
84	0x80000004	-6e-45
85	0x80000004	-6e-45
86	0x80000004	-6e-45
87	0x80000004	-6e-45
88	0x80000004	-6e-45
89	0x80000004	-6e-45
90	0x80000004	-6e-45
91	0x80000004	-6e-45
92	0x80000004	-6e-45
93	0x80000004	-6e-45
94	0x80000004	-6e-45
95	0x80000004	-6e-45
96	0x80000004	-6e-45
97	0x80000004	-6e-45
98	0x00000004	6e-45
99	0x00000004	6e-45
100	0x00000004	6e-45
101	0x00000004	6e-45
102	0x00000004	6e-45
103	0x80000004	-6e-45
104	0x00000004	6e-45
105	0x00000004	6e-45
106	0x00000004	6e-45
107	0x00000004	6e-45
108	0x00000004	6e-45
109	0x00000004	6e-45
110	0x80000004	-6e-45
111	0x00000004	6e-45
112	0x00000004	6e-45
113	0x00000004	6e-45
114	0x00000004	6e-45
115	0x00000004	6e-45
116	0x00000004	6e-45
117	0x80000004	-6e-45
118	0x80000004	-6e-45
119	0x80000004	-6e-45
120	0x00000004	6e-45
121	0x00000004	6e-45
122	0x00000004	6e-45
123	0x80000004	-6e-45
124	0x80000004	-6e-45
125	0x80000004	-6e-45
126	0x80000004	-6e-45
127	0x80000004	-6e-45
128	0x80000004	-6e-45
129	0x80000004	-6e-45
130	0x80000004	-6e-45
131	0x80000004	-6e-45
132	0x80000004	-6e-45
133	0x80000004	-6e-45
134	0x80000004	-6e-45
135	0x80000004	-6e-45
136	0x80000004	-6e-45
137	0x80000004	-6e-45
138	0x80000004	-6e-45
139	0x80000004	-6e-45
140	0x80000004	-6e-45
141	0x80000004	-6e-45
142	0x80000004	-6e-45
143	0x80000004	-6e-45
144	0x80000004	-6e-45
145	0x80000004	-6e-45
146	0x80000004	-6e-45
147	0x00000004	6e-45
148	0x00000004	6e-45
149	0x00000004	6e-45
150	0x00000004	6e-45
151	0x80000004	-6e-45
152	0x80000004	-6e-45
153	0x00000004	6e-45
154	0x80000004	-6e-45
155	0x00000004	6e-45
156	0x00000004	6e-45
157	0x00000004	6e-45
158	0x00000004	6e-45
159	0x80000004	-6e-45
160	0x00000004	6e-45
161	0x80000004	-6e-45
162	0x00000004	6e-45
163	0x00000004	6e-45
164	0x80000004	-6e-45
165	0x80000004	-6e-45
166	0x00000004	6e-45
167	0x00000004	6e-45
168	0x80000004	-6e-45
169	0x80000004	-6e-45
170	0x00000004	6e-45
171	0x00000004	6e-45
172	0x80000004	-6e-45
173	0x80000004	-6e-45
174	0x00000004	6e-45
175	0x80000004	-6e-45
176	0x00000004	6e-45
177	0x00000004	6e-45
178	0x00000004	6e-45
179	0x00000004	6e-45
180	0x00000004	6e-45
181	0x00000004	6e-45
182	0x80000004	-6e-45
183	0x00000004	6e-45
184	0x00000004	6e-45
185	0x00000004	6e-45
186	0x00000004	6e-45
187	0x00000004	6e-45
188	0x00000004	6e-45
189	0x80000004	-6e-45
190	0x00000004	6e-45
191	0x00000004	6e-45
192	0x00000004	6e-45
193	0x00000004	6e-45
194	0x00000004	6e-45
195	0x00000004	6e-45
196	0x00000004	6e-45
197	0x00000004	6e-45
198	0x80000004	-6e-45
199	0x00000004	6e-45
200	0x80000004	-6e-45
201	0x00000004	6e-45
202	0x00000004	6e-45
203	0x00000004	6e-45
204	0x80000004	-6e-45
205	0x80000004	-6e-45
206	0x00000004	6e-45
207	0x00000004	6e-45
208	0x00000004	6e-45
209	0x00000004	6e-45
210	0x00000004	6e-45
211	0x80000004	-6e-45
212	0x80000004	-6e-45
213	0x80000004	-6e-45
214	0x00000004	6e-45
215	0x00000004	6e-45
216	0x80000004	-6e-45
217	0x00000004	6e-45
218	0x00000004	6e-45
219	0x80000004	-6e-45
220	0x00000004	6e-45
221	0x00000004	6e-45
222	0x00000004	6e-45
223	0x00000004	6e-45
224	0x00000004	6e-45
225	0x00000004	6e-45
226	0x00000004	6e-45
227	0x00000004	6e-45
228	0x00000004	6e-45
229	0x00000004	6e-45
230	0x00000004	6e-45
231	0x80000004	-6e-45
232	0x80000004	-6e-45
233	0x80000004	-6e-45
234	0x00000004	6e-45
235	0x00000004	6e-45
236	0x00000004	6e-45
237	0x00000004	6e-45
238	0x00000004	6e-45
239	0x80000004	-6e-45
240	0x80000004	-6e-45
241	0x80000004	-6e-45
242	0x00000004	6e-45
243	0x80000004	-6e-45
244	0x80000004	-6e-45
245	0x00000004	6e-45
246	0x00000004	6e-45
247	0x00000004	6e-45
248	0x80000004	-6e-45
249	0x00000004	6e-45
250	0x80000004	-6e-45
251	0x00000004	6e-45
252	0x00000004	6e-45
253	0x00000004	6e-45
254	0x80000004	-6e-45
255	0x80000004	-6e-45
