trained_models/CT_Sigma_25_t_10/checkpoints/checkpoint_5.pth (torch, 401627 bytes, 10 tensors)

conv_layer.conv_layers.0.parametrizations.weight.original f4 [8, 1, 11, 11]
0	0x3c117c07	0.008879668
1	0x3d1f4129	0.0388805
2	0xbc9997c1	-0.01874912
3	0x3df7bbed	0.12096391
4	0x3c679e7a	0.014136905
5	0x3cb44a02	0.022007946
6	0xbd0255c0	-0.03182006
7	0x3e40c1fc	0.18823999
8	0x3ddebd15	0.10875908
9	0xbd8b0320	-0.067877054
10	0x3d484431	0.048893157
11	0xbd0ebef8	-0.03485009
12	0x3cc2106d	0.023689473
13	0xbd8b4b26	-0.06801443
14	0xbcd595e2	-0.026072446
15	0x3c53bcb6	0.01292341
16	0x3e787301	0.2426262
17	0x3d90df43	0.07073834
18	0xbda6bd29	-0.08141548
19	0x3bb1a549	0.005421315
20	0x3c479f5b	0.012183989
21	0xbca28e36	-0.019843202
22	0x3c95361c	0.018214278
23	0x3d8451ee	0.06460939
24	0xbe29ccee	-0.1658208
25	0xbe251cbd	-0.16124244
26	0xbd8ff495	-0.07029072
27	0xbdb8f34a	-0.09030779
28	0x3d02dcbb	0.031948786
29	0xbdc0368e	-0.093854055
30	0x3dd0c511	0.101938374
31	0xbdd68d76	-0.104762
32	0x3d65d35b	0.056109767
33	0xbd837921	-0.06419588
34	0xbd59d10c	-0.05317788
35	0x3e10818b	0.14111917
36	0x3d818f51	0.063261636
37	0x3e352f4c	0.17693824
38	0x3e088158	0.1333059
39	0x3c38738a	0.011258015
40	0x3dc2f4ce	0.09519349
41	0xbdcde5fd	-0.100536324
42	0x3b5dbfd6	0.0033836267
43	0x3dd5fb04	0.10448268
44	0x3df6dd32	0.120539084
45	0xbcf7d5c2	-0.030253295
46	0x3dd2f5a2	0.10300757
47	0xbca1fabd	-0.019772882
48	0x3e1a14ea	0.1504704
49	0xbe031ea5	-0.12804659
50	0xbe5d3440	-0.21601963
51	0xbd3a21a1	-0.045442227
52	0xbe549962	-0.20761636
53	0x3da0e289	0.07855708
54	0xbd42ac09	-0.047527347
55	0x3d56e90e	0.052468352
56	0x3e126ece	0.14300081
57	0x3d5946de	0.0530461
58	0x3e85da7b	0.2614325
59	0xbe810f0b	-0.2520679
60	0x3e80f969	0.25190285
61	0xbed1a4ee	-0.40946144
62	0xbd8c10be	-0.06839131
63	0xbdea90cc	-0.11453399
64	0xbd9dea28	-0.077106774
65	0xbe5e0bf6	-0.2168425
66	0x3db7d471	0.08976067
67	0xbd879195	-0.066195644
68	0xbe016b50	-0.12638593
69	0xbdc65330	-0.096838355
70	0x3e649d68	0.2232567
71	0x3e82c1b4	0.2553841
72	0x3c0510f0	0.008121714
73	0xbea79dec	-0.32737672
74	0xbe86676a	-0.26250774
75	0xbe54746d	-0.20747538
76	0xbe38448c	-0.17994899
77	0x3d424fa4	0.047439232
78	0x3e0261d7	0.12732635
79	0x3e5092f7	0.20368563
80	0xbd5cf83c	-0.053947672
81	0xbd427670	-0.047476232
82	0x3e6aa96e	0.22916195
83	0xbe040d83	-0.1289578
84	0x3c054e85	0.008136396
85	0xbd15292f	-0.03641623
86	0x3d779385	0.06044342
87	0xbd7cf2db	-0.061755043
88	0xbd1d4cd6	-0.038403355
89	0x3d63aed5	0.055586655
90	0x3d579ca7	0.05263963
91	0xbd261c6f	-0.04055446
92	0x3e171b25	0.14756449
93	0x3e699f25	0.22814615
94	0xbe08d6d3	-0.13363199
95	0xbdd5f589	-0.10447223
96	0x3e25549e	0.1614556
97	0x3bf0a5d1	0.0073439856
98	0xbc92041c	-0.017824225
99	0xbd9bb65e	-0.07603143
100	0xbd6ebb2b	-0.058283966
101	0x3d994dd1	0.074855454
102	0xbca1aa5c	-0.019734554
103	0xbd7be214	-0.0614949
104	0x3d32fdda	0.043699123
105	0xbd77e124	-0.060517445
106	0xbd502ccc	-0.05082397
107	0x3ab44ace	0.0013755204
108	0xbd80dd1c	-0.06292173
109	0x3d4fc3b7	0.050723758
110	0x3d7b3c95	0.061337072
111	0x3ce1b0f3	0.027550196
112	0x3d053537	0.032521453
113	0xbda6612c	-0.08124003
114	0xbda008af	-0.07814156
115	0xbc1e8326	-0.009674823
116	0x3ce07776	0.027400713
117	0xbde21e48	-0.11040932
118	0xbcd8be84	-0.026458032
119	0xbcdf9f57	-0.027297659
120	0x3d103306	0.03520491
121	0x3cbf5954	0.023358025
122	0x3ca30544	0.019899972
123	0xbcf9c96f	-0.030491559
124	0xbdb271c6	-0.08713107
125	0xbd7c35bf	-0.061574694
126	0xbda26aab	-0.079305016
127	0xbde4559a	-0.1114914
128	0x3d8457ce	0.0646206
129	0xbd3b966d	-0.045797754
130	0x3d9473ed	0.072486736
131	0xbc5964a6	-0.013268625
132	0xbd1b93fd	-0.03798293
133	0x3dafa92f	0.08577191
134	0xbdab15b4	-0.08353749
135	0xbd2e4e2c	-0.04255502
136	0xbe13e1d4	-0.14441615
137	0xbe8597ee	-0.26092476
138	0x3d70c892	0.05878503
139	0xbd58b9cc	-0.052911565
140	0x3d9e325f	0.07724451
141	0xbdeee004	-0.11663821
142	0x3de2f50e	0.11081897
143	0xbd95a8ae	-0.07307564
144	0xbd3bda49	-0.04586247
145	0xbd25df6f	-0.040496286
146	0x3d34018d	0.04394679
147	0x3dee3386	0.11630921
148	0x3e2bcdaa	0.16777673
149	0xbe300024	-0.17187554
150	0x3bdd145a	0.006746811
151	0xbd8b387d	-0.06797884
152	0x3c97527c	0.018471949
153	0xbd4ee5bd	-0.050512064
154	0x3e0b77db	0.1361994
155	0xbdddd473	-0.10831537
156	0x3dd5b883	0.104355834
157	0x3d2d0ec9	0.04225043
158	0x3dac779a	0.0842125
159	0xbe058e0f	-0.13042472
160	0x3e08071f	0.13283966
161	0xbd7589e5	-0.05994596
162	0xbd5ebbe2	-0.054378398
163	0xbe2888b2	-0.16458395
164	0x3d96969f	0.073529474
165	0xbc3406a7	-0.010987914
166	0xbd52c7dc	-0.051460132
167	0x3e2da98c	0.16959208
168	0x3b275d4b	0.0025537785
169	0xbdd3d7c9	-0.10343892
170	0xbe67ab56	-0.22623953
171	0x3d298786	0.04138901
172	0x3a8dc9bd	0.0010817569
173	0xbdd78dba	-0.10525079
174	0xbe113a9b	-0.14182512
175	0xbd31a0a2	-0.043366082
176	0xbd81a9b1	-0.06331194
177	0x3cf30368	0.02966471
178	0x3e8184eb	0.2529672
179	0xbda9c399	-0.082892604
180	0x3edcc4de	0.43118948
181	0x3f33d8d0	0.70252705
182	0x3e84e630	0.2595687
183	0x3d9addf5	0.07561866
184	0x3e118156	0.14209494
185	0x3d757a37	0.059931006
186	0xbc23eb20	-0.010004789
187	0xbd2bd731	-0.04195327
188	0xbd767f0c	-0.060179755
189	0xbdaca909	-0.084306784
190	0xbd9d2983	-0.07673933
191	0xbd8e4636	-0.069469854
192	0x3e9b84c0	0.30374718
193	0x3e41849f	0.18898247
194	0xbd5e6283	-0.054293167
195	0xbd966206	-0.07342915
196	0xbdd3ce79	-0.10342116
197	0xbe105ded	-0.1409833
198	0x3d04763d	0.032339323
199	0x3bf6e167	0.0075341943
200	0xbe0f3eb2	-0.1398876
201	0xbde96bb9	-0.113974996
202	0x3dae4138	0.08508533
203	0x3dff9a5e	0.12480615
204	0xbc82f33d	-0.015985126
205	0xbddf1432	-0.10892524
206	0xbe227239	-0.15863885
207	0xbdee33ab	-0.11630949
208	0xbdb013d1	-0.0859753
209	0x3d6fac2f	0.058513816
210	0x3daa827b	0.083256684
211	0x3d402dea	0.046918787
212	0xbe2fdc31	-0.1717384
213	0xbe18d050	-0.14923215
214	0xbe16bc74	-0.14720327
215	0x3dff798a	0.124743536
216	0xbd5b497e	-0.053536884
217	0xbc7a6174	-0.015282024
218	0x3d6ed194	0.058305338
219	0xbc5d8501	-0.01352048
220	0xbdb43d36	-0.088007376
221	0x3d6b857b	0.057500344
222	0xbe108e1a	-0.14116707
223	0xbd1a1a89	-0.037622962
224	0xbe3f7e56	-0.18700537
225	0x3d7ded9f	0.06199419
226	0x3d829fbd	0.06378124
227	0x3c88af4e	0.016685154
228	0xbcbc579d	-0.022990996
229	0xbd4da6ae	-0.050207786
230	0x3ce392b0	0.027779907
231	0x3d78d67a	0.060751416
232	0xbd3f8132	-0.04675407
233	0x3d2eb58d	0.04265361
234	0x3dc118bc	0.09428546
235	0xbb83dddd	-0.004024251
236	0x3d41673d	0.047217596
237	0xbe2c4ca0	-0.16826105
238	0xbdb6788a	-0.0890971
239	0xbd6c2c53	-0.05765946
240	0x3df1c9ee	0.11806093
241	0xb9d59866	-0.00040740072
242	0xbca2916f	-0.019844739
243	0xbcd6366f	-0.026149003
244	0x39a5dc6d	0.00031635482
245	0xbd206243	-0.03915621
246	0xbdd71b44	-0.105032474
247	0x3d8d4a31	0.068989165
248	0xbdb3c83c	-0.08778426
249	0x3d91e5a0	0.071238756
250	0xbd8173c3	-0.06320908
251	0xbd9b36e2	-0.075788274
252	0x3c9662c6	0.018357646
253	0xbd74436b	-0.059634607
254	0xbc977e08	-0.018492714
255	0xbd99299d	-0.0747864

conv_layer.conv_layers.1.parametrizations.weight.original f4 [32, 8, 11, 11]
0	0xbc6de33d	-0.01451951
1	0xbd4cbb9b	-0.049983602
2	0xbd1b3d68	-0.03790036
3	0x3d4d7042	0.050155886
4	0xbb930106	-0.004486206
5	0xbba957d0	-0.005167939
6	0x3da2e64e	0.079540834
7	0x3b70523a	0.0036670105
8	0xbdbd6194	-0.09247127
9	0x3d2073c8	0.039172918
10	0xba190093	-0.00058365724
11	0xbc1fe463	-0.0097590415
12	0x3cef523d	0.029214019
13	0xbd6eab75	-0.058268983
14	0xbd2697c7	-0.04067209
15	0x3d5cb91a	0.053887464
16	0xbd1c5d54	-0.038174942
17	0xbacb6437	-0.0015517537
18	0xbb764806	-0.003757955
19	0xbd2781ce	-0.040895276
20	0x3c5eceab	0.013599078
21	0xbc9d2eef	-0.019187419
22	0x3d1f4c03	0.03889085
23	0x3daa1d07	0.08306318
24	0xbd541055	-0.051773388
25	0xbdab69b0	-0.08369768
26	0x3d0dc873	0.03461499
27	0xbc264a62	-0.01014957
28	0x3d10150d	0.035176326
29	0x3d9c4b58	0.07631558
30	0x3cb539e0	0.022122324
31	0xbcdeecad	-0.027212465
32	0x3c6e6899	0.014551305
33	0xbcb493f8	-0.022043213
34	0x3d3c1c66	0.04592552
35	0xbd9959cd	-0.07487831
36	0xbe2015f0	-0.15633368
37	0xbd6cf3bf	-0.057849642
38	0x3dbe0d91	0.09279931
39	0xbb979c7a	-0.0046268078
40	0x3c7caffe	0.015422819
41	0xbcaf8ce8	-0.021429494
42	0x3d09c011	0.033630434
43	0xbc6ebb3e	-0.014571009
44	0xbd2fdd14	-0.042935446
45	0x3e0e51b2	0.13898352
46	0xbdc19c16	-0.09453599
47	0xbe3318f8	-0.17489994
48	0xbd81f091	-0.063447125
49	0x3db96fa1	0.09054495
50	0xbc9e19ac	-0.01929935
51	0x3dd073bd	0.10178325
52	0x3b95de2b	0.0045736036
53	0x3d0dd542	0.034627207
54	0xbcaa6350	-0.020799309
55	0x3b788170	0.0037918948
56	0x3d82ea33	0.06392326
57	0xbddbae7e	-0.10726641
58	0xbe755a61	-0.23960258
59	0xbddc1d1f	-0.10747742
60	0x3dc49850	0.09599364
61	0xbbe5bd35	-0.0070110806
62	0x3db7aecd	0.089688875
63	0x3d2bcc37	0.0419428
64	0xbaea67b0	-0.0017883684
65	0x3d58c9d4	0.052926853
66	0xbbe00ce6	-0.006837475
67	0x3d9c44d2	0.07630314
68	0xbd5e3272	-0.054247327
69	0xbe241383	-0.16023068
70	0x3bf01926	0.0073272167
71	0x3c7fbc6d	0.015608889
72	0xbd5c62cd	-0.05380516
73	0x3d865ae3	0.06560304
74	0x3d6bc299	0.05755863
75	0xbc8bc464	-0.01706142
76	0x3bd03258	0.0063536577
77	0xbd3e0d2f	-0.04639929
78	0x3d23dd93	0.04000623
79	0xbcc0a9d7	-0.023518486
80	0xbe1fa129	-0.15588821
81	0xbd1d40d5	-0.038391907
82	0x3e10323f	0.14081667
83	0x3ca1743d	0.019708747
84	0xbc6aa352	-0.014321165
85	0x3d21ff0b	0.03954987
86	0x3c109ead	0.008826894
87	0x3c5ec841	0.013597549
88	0xbc836143	-0.016037589
89	0xbcb71a8b	-0.022351524
90	0xbd1a8f11	-0.037734095
91	0xbe0d04f7	-0.13771425
92	0xbd824b6d	-0.063620426
93	0x3db5646b	0.08857044
94	0x3caf3720	0.02138859
95	0x3d90df1b	0.07073804
96	0x3c424114	0.011856336
97	0xbb60bfce	-0.0034294012
98	0xbbae5bf7	-0.0053210217
99	0x3d3a2cd4	0.045452908
100	0xbc943d45	-0.018095622
101	0x3c7da581	0.015481354
102	0xbd2bd59c	-0.04195176
103	0xbd095152	-0.03352482
104	0x3d5b260d	0.053503085
105	0xbbeedbaf	-0.007289372
106	0xbaa3b1b6	-0.0012488875
107	0x3cb3375b	0.021876981
108	0xbb71d782	-0.0036902134
109	0x3c919734	0.017772295
110	0x3db38e06	0.08767323
111	0xbc34353d	-0.010999021
112	0xbccfe1da	-0.02537625
113	0xbd5da2b9	-0.054110263
114	0xbd852f20	-0.06503129
115	0xbd3a73e7	-0.04552069
116	0xbc7255d6	-0.014790973
117	0x3d0804ea	0.03320781
118	0x3d7277bc	0.05919622
119	0xbc6bec4d	-0.0143996
120	0x3d195703	0.037436496
121	0xbc37ca89	-0.011217722
122	0xb9f8ad31	-0.00047431284
123	0x3cf4c9bf	0.029881356
124	0xbdd89ef3	-0.10577192
125	0xbce6deae	-0.028182354
126	0xbc8e389d	-0.01736098
127	0x3cf8d34a	0.030374188
128	0x3d276082	0.04086352
129	0xbc49eab9	-0.012324029
130	0xbcbd03b0	-0.023073047
131	0x3d1f936a	0.038958944
132	0xbd5238fd	-0.05132388
133	0x3d9e7e23	0.077389024
134	0x3ccfd777	0.025371296
135	0x3ca78ba7	0.020452334
136	0xbddd47fb	-0.10804745
137	0x3cfa286b	0.03053685
138	0xbcdf77d8	-0.027278826
139	0x3c807c37	0.01568423
140	0x3d6f1d66	0.058377646
141	0x3d224456	0.03961595
142	0xbc1da8f8	-0.009622805
143	0xbcc0a0f8	-0.023514256
144	0x3d71e1a7	0.05905309
145	0x3d4383b5	0.047733027
146	0xbe117e1f	-0.14208268
147	0xbd349f78	-0.044097394
148	0x3d932be2	0.07186104
149	0x3d35a230	0.044344127
150	0x3d02e1bd	0.031953562
151	0x3c8e0c47	0.017339839
152	0x3d8e287f	0.06941318
153	0xbbdc3675	-0.006720359
154	0x3caa2f7f	0.020774601
155	0x3cabbd68	0.02096434
156	0x3d280e66	0.041029356
157	0xbe30f1c1	-0.17279722
158	0xbccbcfec	-0.024879418
159	0x3d9cf213	0.076633595
160	0x3cc990a2	0.0246051
161	0xbd77134c	-0.060321137
162	0xbd6ffaea	-0.0585889
163	0x3dcd8d0f	0.100366704
164	0x3c3955a2	0.01131192
165	0x3da633fe	0.081153855
166	0x3d9cac73	0.076500796
167	0xbb0380e5	-0.002006584
168	0xbe1a9abd	-0.1509809
169	0xbca29159	-0.019844698
170	0x3d1dab9b	0.038493734
171	0xbd31d08e	-0.043411784
172	0xbd84534a	-0.06461199
173	0x3c551be9	0.013007143
174	0x3dfd2ede	0.12362455
175	0xbcc9557f	-0.0245769
176	0x3daa32c2	0.083104625
177	0xbda4fd52	-0.080561295
178	0x3c47a6fe	0.01218581
179	0xbe46a5ae	-0.1939914
180	0x3d83428a	0.06409176
181	0x3e68f972	0.22751406
182	0xbd2eb1fc	-0.042650208
183	0xbdcecda1	-0.10097814
184	0xbcfcad63	-0.030844396
185	0x3dbb501d	0.0914614
186	0xbdaaa2c4	-0.08331826
187	0x3ce65e80	0.028121233
188	0xbd966439	-0.07343335
189	0x3d1cad37	0.038251128
190	0xbdeae8c7	-0.1147018
191	0x3d494f0a	0.049147643
192	0x3dd326bd	0.10310123
193	0xbdac94f1	-0.08426846
194	0xbdc76d04	-0.0973759
195	0xbb2e700f	-0.0026617085
196	0xbd34ab3d	-0.044108618
197	0xbd098c9f	-0.033581372
198	0xbd3cb510	-0.046071112
199	0xbd03ed93	-0.03220899
200	0xbd1ad822	-0.037803777
201	0xbd223089	-0.039597068
202	0xbd348531	-0.044072334
203	0xbca681a9	-0.020325499
204	0xbda6f0da	-0.081514075
205	0xbd794289	-0.06085447
206	0x3daed332	0.08536376
207	0x3d5f01f2	0.054445215
208	0x3c215571	0.009847031
209	0x3c764f30	0.015033528
210	0xbd78523f	-0.06062531
211	0x3d11b74f	0.035575207
212	0x3d5d18de	0.053978793
213	0x3cf3d20b	0.029763242
214	0xbbf361f1	-0.007427447
215	0xbddd3897	-0.10801809
216	0x3c1b8e5c	0.00949439
217	0x3cf4a2ac	0.029862724
218	0x3d39dc04	0.04537584
219	0xbd623ffe	-0.05523681
220	0xbc4f026f	-0.012634858
221	0xbd807da4	-0.06273964
222	0x3cbcca30	0.02304563
223	0x3c54b62e	0.012982888
224	0x3dfff219	0.12497348
225	0xbcf46c40	-0.029836774
226	0xbdbab13d	-0.09115837
227	0xbca2a6db	-0.019854954
228	0x3c36c272	0.011154758
229	0xbbb7ed93	-0.005613038
230	0xbca5ef4f	-0.020255713
231	0xbbb32efc	-0.0054682475
232	0x3acd7e0b	0.0015677823
233	0x3d477cc7	0.04870298
234	0xbdb65c54	-0.08904329
235	0xbc587697	-0.013211868
236	0xbd1a1e35	-0.037626464
237	0xbd629f77	-0.05532786
238	0x3dad89fa	0.084735826
239	0x3b82a330	0.0039867386
240	0x3c9a4d8b	0.018835803
241	0xbde30006	-0.11083989
242	0x3cf79e9e	0.030227002
243	0xbb83e1d7	-0.004024725
244	0x3d6ae82b	0.05735032
245	0x3d1e02c0	0.03857684
246	0xbd7fba83	-0.06243373
247	0xbd859bfd	-0.06523893
248	0xbb108529	-0.0022052026
249	0xbc35c7e0	-0.011095017
250	0x3d49ccb0	0.04926747
251	0xbccdf1bd	-0.025139684
252	0xbcd2601b	-0.025680592
253	0xbc0db329	-0.008648672
254	0x3dc4ecf6	0.09615509
255	0xbb6048cb	-0.0034223075

activation.coefficients_vect f4 [672]
0	0x80000000	-0.0
1	0x3ae118af	0.0017173494
2	0x3ad0f9ce	0.0015943588
3	0x3a8e2ed2	0.0010847694
4	0x3a3a45b8	0.0007105726
5	0x3991145f	0.00027671733
6	0x392ed0cb	0.00016671715
7	0x38b2f928	8.5341104e-05
8	0xb9017e3a	-0.00012349422
9	0xb7c803ec	-2.3843684e-05
10	0x3903f68d	0.00012584981
11	0x39958b30	0.00028523197
12	0x39cb44c3	0.0003877041
13	0x3954f3f9	0.00020308782
14	0x395483d3	0.00020267004
15	0x38c856e5	9.5529285e-05
16	0xba46966c	-0.0007575515
17	0xba95abd1	-0.0011419003
18	0xbab54973	-0.0013831094
19	0xbaddcd00	-0.0016922057
20	0x00000000	0.0
21	0x80000000	-0.0
22	0x3ae9df43	0.0017843026
23	0x3a9c7c59	0.0011938914
24	0x3a6098e7	0.0008567706
25	0x3a272193	0.00063755474
26	0x39d1870f	0.00039964213
27	0x3980ea66	0.00024588703
28	0x397797e4	0.0002361234
29	0x38afd275	8.383851e-05
30	0x37ced5d3	2.4656683e-05
31	0xb50a81b6	-5.159776e-07
32	0xb897345d	-7.2099945e-05
33	0xb8c78831	-9.514427e-05
34	0xb913b9b3	-0.00014088191
35	0xb9296aae	-0.00016156837
36	0xb965d38a	-0.00021917946
37	0xb9e68ec8	-0.000439754
38	0xba682a26	-0.0008856378
39	0xba94cffb	-0.0011353487
40	0xbb321814	-0.0027174996
41	0x00000000	0.0
42	0x80000000	-0.0
43	0x3a5e2ef2	0.00084756233
44	0x3a00a2df	0.0004907082
45	0x39fb50a7	0.0004793454
46	0x3989fd98	0.00026319618
47	0x3971c952	0.00023058549
48	0x396200ec	0.00021553383
49	0x39311961	0.0001688949
50	0x389ea9da	7.5656644e-05
51	0x389cb1eb	7.4717995e-05
52	0x387a92d2	5.9741382e-05
53	0x373e45c5	1.1341127e-05
54	0xb82cf326	-4.1234445e-05
55	0xb902ee6f	-0.0001248659
56	0xb93f6ac0	-0.00018254947
57	0xb9837b87	-0.00025078302
58	0xb9d9fb17	-0.00041576542
59	0xba03f818	-0.0005034222
60	0xba14bf11	-0.0005674223
61	0xba86b8ba	-0.0010278441
62	0x00000000	0.0
63	0x80000000	-0.0
64	0x3a832a8b	0.0010007186
65	0x3a02630b	0.0004973865
66	0x39fc6ad5	0.00048144782
67	0x39cbbaf0	0.00038858457
68	0x38a2f9f1	7.771317e-05
69	0x386e67f7	5.6840447e-05
70	0x3854dcf1	5.0750506e-05
71	0x37a07c40	1.9131345e-05
72	0x373eb119	1.1366116e-05
73	0xb7934b81	-1.7558925e-05
74	0xb7d2cb42	-2.51286e-05
75	0xb853cbb1	-5.0496023e-05
76	0xb8f29e84	-0.00011568985
77	0xb9391712	-0.00017651569
78	0xb9be4a37	-0.00036294918
79	0xba021d51	-0.0004963475
80	0xba0de94b	-0.00054134865
81	0xba261bf8	-0.0006336565
82	0xba99383f	-0.0011689736
83	0x00000000	0.0
84	0x80000000	-0.0
85	0x381504bd	3.552878e-05
86	0xb8e424d4	-0.00010878747
87	0xb94775d9	-0.0001902202
88	0xb9524ec6	-0.00020056506
89	0xb9ac9fe2	-0.00032925518
90	0xb9f3c39f	-0.0004649432
91	0xbac9682b	-0.0015366127
92	0xba838f56	-0.0010037224
93	0xb9f54858	-0.00046783942
94	0x3896912e	7.179599e-05
95	0x3a20d8e5	0.00061358354
96	0x3a96f5b1	0.0011517314
97	0x3adcb8b8	0.0016839718
98	0x3974a864	0.00023332384
99	0x39105218	0.00013763492
100	0x388dd873	6.763721e-05
101	0x3823493e	3.893044e-05
102	0x37e35a12	2.7102451e-05
103	0xb93628c9	-0.00017372066
104	0x00000000	0.0
105	0x80000000	-0.0
106	0x3a6cd8de	0.0009035001
107	0x39c10a5b	0.00036819544
108	0x39321571	0.0001698339
109	0xb783254e	-1.5633788e-05
110	0xb85e610c	-5.3019307e-05
111	0xb88760d3	-6.4553366e-05
112	0xb95a6b80	-0.00020830147
113	0xba02a7b7	-0.0004984098
114	0xb9670cf3	-0.000220347
115	0x38771fb8	5.891893e-05
116	0x39b1c112	0.0003390392
117	0x3a22e255	0.00062135357
118	0x3a6d2dae	0.00090476393
119	0x3a9a7933	0.0011785388
120	0x39912a19	0.0002768792
121	0xb902b79d	-0.00012466167
122	0xb99963d7	-0.0002925682
123	0xba18f202	-0.0005834402
124	0xba69122d	-0.0008890953
125	0x00000000	0.0
126	0x80000000	-0.0
127	0x39b2ffb4	0.0003414132
128	0x38fdd81f	0.00012104236
129	0xb8397a1b	-4.4221157e-05
130	0xb8b4646d	-8.6017746e-05
131	0xb8c1fe81	-9.250362e-05
132	0xb983f080	-0.00025165454
133	0xb98db582	-0.0002702885
134	0xba300bad	-0.0006715607
135	0xb9b04b8b	-0.0003362562
136	0x3617b2a1	2.260473e-06
137	0x39b7e82d	0.00035077464
138	0x3a3486f9	0.00068865676
139	0x3a864d0c	0.001024635
140	0x39b43bdf	0.00034376883
141	0x39b06d9a	0.00033650995
142	0x38e2f6dd	0.00010822502
143	0x38e06ae4	0.00010701062
144	0xb68fdfe5	-4.287797e-06
145	0xb86584bc	-5.4721473e-05
146	0x00000000	0.0
147	0x80000000	-0.0
148	0x3b1ac4bb	0.0023615796
149	0x3a96bda8	0.0011500614
150	0x3a861ede	0.0010232588
151	0x39ec52d2	0.00045075134
152	0x39b1fcf4	0.00033948536
153	0x3960f2e6	0.00021452791
154	0x39160fd3	0.0001431101
155	0x390e2368	0.00013555365
156	0x389a81cc	7.367469e-05
157	0xb92101ac	-0.0001535478
158	0x37e64c7c	2.7453752e-05
159	0x3945ff0c	0.00018882396
160	0x38fcff75	0.00012063879
161	0x368a97db	4.130399e-06
162	0xb9038d96	-0.00012545878
163	0xba1aae29	-0.00059005857
164	0xba2f9399	-0.0006697714
165	0xba919655	-0.0011107425
166	0xbab5876e	-0.0013849565
167	0x00000000	0.0
168	0x80000000	-0.0
169	0x3b36e294	0.0027906047
170	0x3b07923c	0.0020686528
171	0x3ad24a05	0.0016043788
172	0x3a8004ff	0.0009767114
173	0x3a3cc7e8	0.0007201419
174	0x39aa8576	0.00032524363
175	0x38486cc3	4.7785008e-05
176	0xb8e9c254	-0.00011146502
177	0xb94b8822	-0.00019410302
178	0xb711d992	-8.6933305e-06
179	0x3935fccf	0.00017355684
180	0x38d464ce	0.00010127724
181	0xb8eb8247	-0.00011229939
182	0xb93f362b	-0.00018235359
183	0xb96559f9	-0.00021872659
184	0xba4c904d	-0.0007803485
185	0xbae79964	-0.0017669615
186	0xbb0b009d	-0.0021210082
187	0xbb2332f6	-0.0024902201
188	0x00000000	0.0
189	0x80000000	-0.0
190	0x3a3e28c6	0.00072540005
191	0x3a397998	0.0007075309
192	0x39e05a5b	0.0004279193
193	0x39dca93d	0.00042087762
194	0x39347e42	0.00017213172
195	0x3931b23d	0.00016946434
196	0x392a7377	0.00016255477
197	0x38cad218	9.6712436e-05
198	0x38910537	6.91511e-05
199	0x38666540	5.493057e-05
200	0xb7bc999c	-2.2482876e-05
201	0xb833a0af	-4.2826574e-05
202	0xb8e0d98a	-0.00010721672
203	0xb8feb182	-0.00012144727
204	0xb99e7e08	-0.0003023001
205	0xb9a404ed	-0.00031284188
206	0xb9c89549	-0.000382582
207	0xba53965b	-0.0008071416
208	0xbaccdf57	-0.0015630525
209	0x00000000	0.0
210	0x80000000	-0.0
211	0x3ae9918e	0.0017819868
212	0x3a67d0a7	0.00088430423
213	0x39bc5c59	0.0003592696
214	0x39aa7e78	0.00032519153
215	0x3979720c	0.00023788976
216	0x39281cf7	0.00016032519
217	0x38c6e657	9.48428e-05
218	0x389dfac7	7.533054e-05
219	0x3884fd90	6.34148e-05
220	0x381f36c0	3.7959544e-05
221	0x374a2937	1.2049734e-05
222	0xb75d1305	-1.3177055e-05
223	0xb90eecd1	-0.00013630396
224	0xb918e165	-0.00014579816
225	0xb9e48159	-0.0004358392
226	0xba090ba9	-0.0005227873
227	0xba10e642	-0.0005527475
228	0xba3db20a	-0.0007236308
229	0xbaf7bb95	-0.0018900508
230	0x00000000	0.0
231	0x80000000	-0.0
232	0x3b008024	0.0019607628
233	0x3a7f8a0e	0.000974805
234	0x3a7b6ff4	0.00095915725
235	0x3a39281f	0.00070631685
236	0x39f66550	0.0004699626
237	0x398ef947	0.00027270077
238	0x392b5327	0.00016338807
239	0x39012883	0.0001231749
240	0x38c3413b	9.310475e-05
241	0x38a0b8b7	7.6638e-05
242	0x38379f2d	4.3778844e-05
243	0xb830a4b3	-4.2115058e-05
244	0xb94e4069	-0.00019669686
245	0xb965ef5b	-0.00021928309
246	0xb98cd28e	-0.00026859756
247	0xb996e1dd	-0.0002877851
248	0xba03fb78	-0.0005034725
249	0xba0c3095	-0.00053478155
250	0xba1d79f9	-0.000600725
251	0x00000000	0.0
252	0x80000000	-0.0
253	0x3a9499c3	0.0011337328
254	0x39d10685	0.00039868444
255	0x391fc261	0.00015235833

u f4 [1, 1, 20, 20]
0	0xbc82ac9f	-0.015951453
1	0x3ce63431	0.028101059
2	0x3d380a78	0.04493186
3	0x3d29d3d2	0.041461773
4	0x3a901628	0.0010992931
5	0xbd0058f4	-0.031334832
6	0xbce004c3	-0.02734602
7	0x3c2a0f7c	0.010379668
8	0x3dfe621a	0.12421055
9	0x3e225254	0.15851718
10	0x3d5ecb0e	0.054392867
11	0xbcf0c245	-0.02938951
12	0xbdc2ed2b	-0.095178925
13	0xbda5260b	-0.08063897
14	0xbdbf7096	-0.09347646
15	0xbdb58c6a	-0.088646725
16	0xbcf38544	-0.029726632
17	0xbd48d043	-0.04902674
18	0xbc207878	-0.009794347
19	0x3cf63b5b	0.0300576
20	0xbd477fcc	-0.04870586
21	0x3dd55cc9	0.10418088
22	0x3e12f1f2	0.14350107
23	0xbc1f7c13	-0.009734171
24	0x3d8aad9a	0.06771393
25	0x3d2f7896	0.04283961
26	0x3e02094f	0.12698863
27	0x3e0d4f62	0.13799813
28	0x3e2d9082	0.16949657
29	0x3e603126	0.21893749
30	0xbcfbba18	-0.030728385
31	0xbde9f9bd	-0.11424587
32	0xbe43e263	-0.19129328
33	0xbda3a94e	-0.07991277
34	0xbd89f5ac	-0.06736311
35	0xbd1ffe62	-0.039060958
36	0xbd3ee600	-0.046606064
37	0xbdb9b241	-0.09067202
38	0x3d6bc2d6	0.057558857
39	0x3da26a2a	0.079304054
40	0xbd319941	-0.043359045
41	0x3e5908b7	0.2119473
42	0x3e4c46be	0.19948861
43	0xbd691536	-0.056904994
44	0x3dc3734e	0.09543477
45	0xbc67269d	-0.014108327
46	0xbcc545d9	-0.024081158
47	0x3dd88c91	0.10573686
48	0x3eb26812	0.34845024
49	0x3e871001	0.26379398
50	0xbdb00c34	-0.085960776
51	0xbea6c1d4	-0.32569754
52	0xbed3f73e	-0.41399568
53	0xbe0c0c0a	-0.13676468
54	0x3da98340	0.08276987
55	0x3e6454cb	0.22297971
56	0x3d0cf99c	0.034417734
57	0x3bf39276	0.007433231
58	0x3def2dc5	0.11678652
59	0x3de41ff6	0.111389086
60	0xbd82394e	-0.06358586
61	0x3dbab806	0.09117131
62	0xbdb48d5f	-0.08816027
63	0xbeca8fe5	-0.39562908
64	0xbd9099d2	-0.07060589
65	0x3e0c38c1	0.13693525
66	0x3deddd14	0.11614433
67	0x3ea7cd25	0.327737
68	0x3ee3e265	0.44508663
69	0x3dc2d1c4	0.09512666
70	0xbdebc78d	-0.11512671
71	0xbf00d47c	-0.50324225
72	0xbed6026f	-0.41798732
73	0xbd614bd4	-0.055003956
74	0x3e952b63	0.29134664
75	0x3ec2a3ac	0.38015497
76	0x3d79ee6d	0.061018396
77	0x3c13c1bb	0.009018357
78	0x3de9e326	0.11420278
79	0x3df8a0c3	0.12140038
80	0xbe4824b7	-0.19545256
81	0xbe50c9f3	-0.20389538
82	0xbf0635a9	-0.5242563
83	0xbf21cf04	-0.63206506
84	0xbddc0538	-0.10743183
85	0x3ee224a3	0.44168577
86	0x3eb2812f	0.34864184
87	0x3e5c4a61	0.21512748
88	0x3e01feb3	0.12694816
89	0x3d0a34d4	0.033741787
90	0xbd85787b	-0.065171205
91	0xbe8598af	-0.2609305
92	0xbeb2b905	-0.34906784
93	0xbe3a00af	-0.18164323
94	0xbcf82206	-0.030289661
95	0x3cbfd453	0.023416674
96	0xbe1be5e5	-0.15224417
97	0xbe001ad9	-0.12510242
98	0x3da6f3a9	0.08151943
99	0x3d9eeed4	0.077603966
100	0xbea39f9f	-0.3195772
101	0xbef9677c	-0.48711765
102	0xbf3e6229	-0.7436853
103	0xbf4796e6	-0.7796463
104	0x3c3878e4	0.011259291
105	0x3f3cd6ce	0.73765266
106	0x3f21f76e	0.6326817
107	0x3e46c4f0	0.19411063
108	0x3d9d0178	0.07666296
109	0x3dac28ec	0.08406243
110	0x3de5eafa	0.11226459
111	0x3cbd5797	0.023113055
112	0xbe51fdc4	-0.2050696
113	0xbeeb9fb9	-0.46020296
114	0xbd9aae31	-0.075527556
115	0xbebbb522	-0.3666163
116	0xbea8e275	-0.32985273
117	0xbdc9b666	-0.09849243
118	0x3d9267e2	0.0714872
119	0x3c07a798	0.008279704
120	0xbf002794	-0.5006039
121	0xbf3f2d26	-0.74678266
122	0xbf608515	-0.8770307
123	0xbf3dd884	-0.741585
124	0x3e85a061	0.26098922
125	0x3f84ff91	1.0390493
126	0x3f136ed3	0.5759098
127	0x3ec0907f	0.37610242
128	0xbebb25a8	-0.36552167
129	0x3ec45cb2	0.3835197
130	0x3ee41b5a	0.44552118
131	0x3ebb479d	0.36578074
132	0x3dfd23e9	0.12360365
133	0xbed45697	-0.41472313
134	0x3e0a76d1	0.13521887
135	0xbeb69e5d	-0.35667697
136	0xbea2ecbd	-0.31821242
137	0x3e07c738	0.1325959
138	0x3e75f2ae	0.24018356
139	0x3dacfa79	0.08446211
140	0xbf1c1aa1	-0.6097813
141	0xbf7384e1	-0.9512463
142	0xbf8c27e8	-1.0949678
143	0xbf346cfd	-0.704788
144	0x3e5898f5	0.21152098
145	0x3f694106	0.9111484
146	0x3ef3bf51	0.476069
147	0xbd3cbed9	-0.046080444
148	0xbf0f1152	-0.55885804
149	0x3ee0083b	0.4375628
150	0x3eef6d8c	0.46763265
151	0x3e98bbf0	0.29830885
152	0xbca51e20	-0.020155966
153	0xbea5aea9	-0.32359818
154	0xbe660882	-0.22464183
155	0x3da0dd54	0.07854715
156	0x3c52b97e	0.012861608
157	0x3ea57bb6	0.32320946
158	0x3eb1a51c	0.3469628
159	0x3e4ecee7	0.20196114
160	0xbf0e6579	-0.55623585
161	0xbf84742a	-1.034795
162	0xbf9c278d	-1.219957
163	0xbf18eb12	-0.5973369
164	0xb9ab5658	-0.00032679993
165	0x3f3f71a3	0.7478277
166	0x3f33512d	0.7004574
167	0xbecc48e1	-0.39899352
168	0xbdb25fde	-0.087096915
169	0x3c464ef0	0.012103781
170	0x3eec1d57	0.46116135
171	0x3b6faeaf	0.0036572625
172	0xbf1180bc	-0.5683706
173	0xbe59ace8	-0.21257365
174	0xbf4c2276	-0.79740083
175	0x3d0f1d8c	0.034940287
176	0x3df34cef	0.11879908
177	0x3d852e67	0.06502991
178	0x3db3ff18	0.0878889
179	0x3ddc33d4	0.10752073
180	0xbf03e3f0	-0.5151968
181	0xbf85f549	-1.046548
182	0xbf900569	-1.1251651
183	0xbf1b3da9	-0.6064096
184	0xbdba291a	-0.09089871
185	0x3f792fa4	0.9733832
186	0x3f5344f3	0.82527083
187	0xbd070fcd	-0.032974053
188	0x3f270296	0.6523832
189	0x3e00ef92	0.12591389
190	0x3f54edff	0.83175653
191	0x3e0b44f4	0.13600522
192	0xbf19f5f8	-0.60140944
193	0xbb6b173a	-0.0035871998
194	0xbf143e6f	-0.57907766
195	0xbe93cae1	-0.28865722
196	0xbd2392f3	-0.039935064
197	0xbea12c86	-0.3147928
198	0xbe90cfaf	-0.2828345
199	0xbe083898	-0.13302839
200	0xbf10908f	-0.5647058
201	0xbf783d63	-0.9696867
202	0xbf8294cb	-1.0201658
203	0xbf63bba6	-0.88958204
204	0xbdf3f3ec	-0.11911759
205	0x3f5cd8ff	0.8626861
206	0x3f0ecead	0.5578411
207	0x3f054e4d	0.520726
208	0x3f1c9522	0.6116506
209	0x3f2d0881	0.675911
210	0x3f2edae7	0.6830277
211	0x3e51b905	0.20480736
212	0x3d43f09a	0.047836877
213	0xbb2a0b22	-0.0025946577
214	0x3ef087b4	0.46978533
215	0xbd4d478c	-0.05011706
216	0xbdb400fe	-0.08789252
217	0xbea4fa5f	-0.32222268
218	0xbea74bd2	-0.32675034
219	0xbe23a003	-0.15979008
220	0xbefac4dc	-0.48978317
221	0xbf28b364	-0.6589873
222	0xbf3b6455	-0.7319997
223	0xbf60ae1f	-0.8776569
224	0xbd2cc722	-0.042182095
225	0x3ee762e4	0.45192635
226	0x3e254518	0.16139638
227	0x3e9973fd	0.29971305
228	0x3baf8130	0.0053559765
229	0x3f4409aa	0.76577246
230	0xbd01ac66	-0.031658553
231	0xbe2def91	-0.16985919
232	0x3d90e759	0.07075376
233	0xbea03954	-0.31293738
234	0x3f2c7850	0.6737108
235	0x3e86bdf6	0.26316804
236	0xbd92b690	-0.07163727
237	0xbe340739	-0.1758088
238	0xbe2cf25f	-0.16889332
239	0xbcb206d1	-0.021731766
240	0xbe9b7291	-0.30360845
241	0xbe6d525f	-0.23175953
242	0xbe62a12e	-0.22131798
243	0xbead4292	-0.33839852
244	0x3ea288eb	0.31745085
245	0x3eaed862	0.34149462
246	0x3d856f5f	0.06515383
247	0xbd0eaf1e	-0.034834974
248	0xbbf7db38	-0.0075639747
249	0x3f032f13	0.51243705
250	0xbe38db63	-0.1805244
251	0xbecba8a0	-0.39777088
252	0xbed3ed3a	-0.41391927
253	0xbecb3881	-0.39691547
254	0xbd2a71a3	-0.04161228
255	0x3dd61a0b	0.10454186

exp_avg f4 [8, 1, 11, 11]
0	0x3ccceac3	0.025014287
1	0x3c5e831a	0.013581062
2	0x3bf8f2e2	0.0075973133
3	0x3bea3fbd	0.0071487115
4	0x3b36fc39	0.0027921333
5	0xbc024cb3	-0.007952857
6	0xbc4e494f	-0.01259072
7	0xbc98318b	-0.018578311
8	0xbca371c1	-0.019951703
9	0xbc930d21	-0.017950596
10	0x3af7fddc	0.001892026
11	0x3c9b96ab	0.018992743
12	0x3c205e95	0.009788175
13	0x392a3bdd	0.00016234764
14	0x3b47d397	0.0030491108
15	0xba7dd2f4	-0.00096826185
16	0xbc44c0f6	-0.012008896
17	0xbc4d3e13	-0.012527007
18	0xbcbfc214	-0.023407973
19	0xbcbf206e	-0.023330893
20	0xbcb5e1aa	-0.022202332
21	0xbbb971c1	-0.0056593125
22	0x3ca152cc	0.019692801
23	0x3c861109	0.016365545
24	0x3b6e12dd	0.0036327161
25	0x3ba46d55	0.005017916
26	0x3b64b371	0.0034896994
27	0xbc6e98c4	-0.014562789
28	0xbc0f57df	-0.008748977
29	0xbcc573af	-0.024103014
30	0xbcd6d135	-0.026222805
31	0xbcd2bfd0	-0.025726229
32	0xbc3b0913	-0.011415738
33	0x3cd9d997	0.026593013
34	0x3ccb3fe4	0.024810739
35	0x3c5aa139	0.013344103
36	0x3c3e6311	0.011620299
37	0x3c387600	0.011258602
38	0xbc22fed2	-0.009948449
39	0xbbb242a5	-0.0054400736
40	0xbc9c2076	-0.019058447
41	0xbcd295a6	-0.025706124
42	0xbcdc56c6	-0.026896846
43	0xbc5c4b81	-0.013445736
44	0x3d20395d	0.039117206
45	0x3d115b82	0.03548766
46	0x3cd6b5ae	0.026209679
47	0x3cc8d91c	0.024517588
48	0x3c9fd3cc	0.019510172
49	0x3b21cd50	0.0024689026
50	0x395b072f	0.00020888144
51	0xbc114cc5	-0.008868401
52	0xbca5e20f	-0.020249395
53	0xbcc8f59a	-0.024531174
54	0xbc3e63b4	-0.011620451
55	0x3d3a5486	0.045490764
56	0x3d1abc63	0.037777316
57	0x3cea4b1b	0.028600266
58	0x3cdd88cb	0.027042767
59	0x3ca26122	0.019821707
60	0x3b9134d9	0.0044313488
61	0x3a935347	0.0011240029
62	0xbbe3ec2e	-0.006955645
63	0xbc89c990	-0.016819745
64	0xbcdb3fd1	-0.026763828
65	0xbc4c5986	-0.012472516
66	0x3d5488a5	0.051888127
67	0x3d28449a	0.04108105
68	0x3d030a8e	0.031992488
69	0x3cdfae93	0.027304923
70	0x3ca99192	0.020699296
71	0x3bbbc207	0.005729917
72	0x3b9c0f15	0.00476254
73	0xbc20611b	-0.009788777
74	0xbc8b378b	-0.016994258
75	0xbce60de7	-0.028082801
76	0xbc7fcf3f	-0.015613376
77	0x3d4fadb0	0.05070275
78	0x3d3542fb	0.04425333
79	0x3d10f4b9	0.035389636
80	0x3d001921	0.031273965
81	0x3cdbaab2	0.026814792
82	0x3bbd1084	0.005769791
83	0x3bd4377a	0.00647634
84	0xbc39d3c2	-0.011341991
85	0xbc9da9ef	-0.01924607
86	0xbce2d6c7	-0.027690304
87	0xbc9f93d7	-0.019479675
88	0x3d10e711	0.035376612
89	0x3d0d4eee	0.0344991
90	0x3cf70506	0.030153763
91	0x3cd116f7	0.025523646
92	0x3cbaf2b7	0.022820814
93	0xbb4ab081	-0.0030927958
94	0xbb83f7bb	-0.0040273345
95	0xbca6771f	-0.020320473
96	0xbcf5653b	-0.029955497
97	0xbd08bc6c	-0.033382818
98	0xbcbaf7de	-0.02282327
99	0x3c921d7d	0.017836327
100	0x3c8973cf	0.016778855
101	0x3c4f77e4	0.0126628615
102	0x3c369e32	0.011146115
103	0x3bdac0e9	0.0066758287
104	0xbc5cee34	-0.013484526
105	0xbc85b7c6	-0.016322982
106	0xbcf13555	-0.029444376
107	0xbd131d79	-0.03591678
108	0xbd1deba1	-0.03855479
109	0xbcce21e5	-0.025162647
110	0x3be8ad53	0.00710074
111	0xb901115f	-0.0001230887
112	0xbb39f93a	-0.002837731
113	0xbb9cfde9	-0.0047910106
114	0xbc0f8980	-0.00876081
115	0xbcbe1997	-0.023205562
116	0xbcce5c9a	-0.02519064
117	0xbd127467	-0.03575554
118	0xbd1df809	-0.038566623
119	0xbd274c47	-0.040844228
120	0xbccbce5a	-0.02487867
121	0xbbe5aef9	-0.0070093838
122	0xbc14ffa9	-0.009094157
123	0xbc5f9bc0	-0.013647974
124	0xbc7eca0d	-0.015551102
125	0xbc90ae00	-0.017661095
126	0xbcbc0a12	-0.02295402
127	0xbcd6e05a	-0.026230026
128	0xbce710ce	-0.028206255
129	0xbd168c3b	-0.036754828
130	0xbd0b7161	-0.034043673
131	0xbce86c57	-0.028371973
132	0x3bdf912f	0.006822727
133	0x3b5ce4ef	0.003370579
134	0xbb9fd61a	-0.004877818
135	0xbc209f92	-0.0098036695
136	0xbca1f5e7	-0.019770576
137	0xbcb408b2	-0.021976802
138	0xbcd86d6f	-0.02641937
139	0xbcf7b320	-0.03023678
140	0xbd22f4ee	-0.039784364
141	0xbd174371	-0.03692955
142	0xbcf37917	-0.029720826
143	0x3c716b12	0.014735
144	0x3bbb7cf1	0.0057216813
145	0xbc03c5fb	-0.008042808
146	0xbc479b1c	-0.012182977
147	0xbcaf1edf	-0.021377025
148	0xbcc3e7f3	-0.023914313
149	0xbca640d6	-0.020294588
150	0xbcc67798	-0.024226949
151	0xbd14bb99	-0.03631172
152	0xbd114374	-0.03546472
153	0xbd0d386e	-0.034477644
154	0x3c4f8f5e	0.012668459
155	0x3bcac80e	0.006188399
156	0xbc2c883f	-0.0105305305
157	0xbc3cf4ab	-0.011532943
158	0xbc6ebf70	-0.014572009
159	0xbc7b310b	-0.015331517
160	0xbb8a28c8	-0.0042162873
161	0xbbd9b89d	-0.006644322
162	0xbc97a352	-0.018510494
163	0xbcb680e1	-0.022278251
164	0xbcf1abc0	-0.029500842
165	0xb983b2c1	-0.0002511945
166	0xbbbe142b	-0.005800744
167	0xbc856301	-0.01628256
168	0xbcae5060	-0.02127856
169	0xbca84bad	-0.020543898
170	0xbca4763a	-0.020075906
171	0xbc2b0a67	-0.010439492
172	0xbbdc112e	-0.006715915
173	0xbc898224	-0.016785689
174	0xbcaf3ecc	-0.021392249
175	0xbce7ad3f	-0.028280852
176	0xbc09c78d	-0.008409393
177	0xbc6b38c1	-0.014356793
178	0xbcabceaf	-0.020972578
179	0xbccba400	-0.024858475
180	0xbcdeec7e	-0.027212378
181	0xbcfeaa87	-0.031087173
182	0xbce912ae	-0.02845129
183	0xbcb29600	-0.021800041
184	0xbccc6848	-0.024952069
185	0xbcb5c8ad	-0.022190416
186	0xbcaed442	-0.021341447
187	0xbb8739f1	-0.00412678
188	0xbb90c3c4	-0.0044178683
189	0xbc1b24cd	-0.009469223
190	0xbc2ce46e	-0.010552509
191	0xbc9a27c8	-0.018817797
192	0xbcc6d909	-0.024273412
193	0xbcd4ce2b	-0.025977215
194	0xbca00eb9	-0.01953827
195	0xbc95ab40	-0.018270135
196	0xbc422a6a	-0.011850933
197	0xbb844197	-0.004036139
198	0x3addb307	0.0016914316
199	0x3b9a1f51	0.0047034402
200	0xbb1d7678	-0.0024026912
201	0x3b0b44ab	0.0021250646
202	0xbae52fc2	-0.0017485546
203	0xbc07e2d5	-0.008293827
204	0xbbbd38a3	-0.005774574
205	0xb9ac2935	-0.00032837098
206	0x3be4e932	0.006985807
207	0x3c869598	0.016428754
208	0x3cca8962	0.024723712
209	0x39c91237	0.0003835128
210	0x3b39d227	0.002835402
211	0xbbe6197b	-0.0070220805
212	0x3af2a887	0.001851336
213	0x3bb8d820	0.0056409985
214	0x3bf76d8e	0.0075509017
215	0x3c9c15c4	0.019053347
216	0x3cda7e5f	0.026671587
217	0x3d00d66a	0.03145448
218	0x3d28f080	0.041244984
219	0x3d35b3e6	0.044361018
220	0x3c59f2ab	0.013302485
221	0x3c3782da	0.011200631
222	0x3bd28baf	0.006425343
223	0x3c8886cb	0.016665837
224	0x3cea876e	0.028629031
225	0x3d236aef	0.0398969
226	0x3d578da1	0.052625302
227	0x3d808232	0.06274833
228	0x3d82158b	0.06351765
229	0x3d92d9a3	0.07170417
230	0x3d9a641f	0.07538628
231	0x3cdefb13	0.02721933
232	0x3cca10eb	0.02466627
233	0x3cd0bd73	0.025480961
234	0x3d1e0b77	0.038585152
235	0x3d5a49cc	0.053293034
236	0x3d88f5d1	0.06687511
237	0x3d99b5b4	0.0750536
238	0x3dadc961	0.084856756
239	0x3daeb800	0.08531189
240	0x3dbca467	0.09211045
241	0x3dc4bf68	0.0960682
242	0xbd95c2b2	-0.07312526
243	0xbd89a03f	-0.06720018
244	0xbd77d162	-0.060502417
245	0xbd4c66ba	-0.049902655
246	0xbd11eb1d	-0.035624612
247	0xbcc62e45	-0.024191985
248	0xbcf6d6cd	-0.030131722
249	0xbd0125a1	-0.031530026
250	0xbcf8090d	-0.030277753
251	0xbd163b94	-0.036677912
252	0xbd0c2598	-0.03421554
253	0xbd9b6253	-0.07587113
254	0xbd90329c	-0.07040903
255	0xbd829283	-0.06375601

exp_avg_sq f4 [8, 1, 11, 11]
0	0x3da00794	0.078139454
1	0x3d87d619	0.06632633
2	0x3d7b86b0	0.061407745
3	0x3d65e051	0.056122128
4	0x3d5e4a5a	0.054270126
5	0x3d557e5e	0.052122466
6	0x3d54851d	0.05188476
7	0x3d486b73	0.048930597
8	0x3d3dd867	0.046348955
9	0x3d4d48ba	0.050118186
10	0x3d682bb3	0.0566823
11	0x3d6d5d14	0.057950094
12	0x3d40e6b3	0.047095012
13	0x3d2d4cd3	0.042309593
14	0x3d1a4c18	0.037670225
15	0x3d14a862	0.036293395
16	0x3d15a371	0.036532823
17	0x3d13794f	0.03600436
18	0x3d0baecc	0.034102246
19	0x3d046d48	0.03233078
20	0x3d107068	0.03526345
21	0x3d28fd56	0.041257225
22	0x3d2cc6be	0.042181723
23	0x3d03e252	0.032198258
24	0x3ce57a7c	0.028012507
25	0x3cc6cb22	0.024266783
26	0x3cbba573	0.02290604
27	0x3ccf9202	0.025338177
28	0x3cdc63e3	0.026903098
29	0x3cc3b175	0.023888329
30	0x3cbd6aa4	0.02312214
31	0x3cda623b	0.026658168
32	0x3cf93499	0.030420588
33	0x3d0fb0ec	0.035080835
34	0x3cd8faec	0.026486836
35	0x3cb725fc	0.02235698
36	0x3c989b75	0.018628815
37	0x3c7fd97e	0.015615819
38	0x3c916691	0.017749103
39	0x3cad6d00	0.02117014
40	0x3ca62f18	0.020286128
41	0x3cb23abd	0.021756524
42	0x3ce9b509	0.028528707
43	0x3cf80b25	0.030278752
44	0x3d0c6431	0.034275237
45	0x3ce8fbd1	0.028440388
46	0x3cce5a7b	0.025189629
47	0x3cae8042	0.021301392
48	0x3c8c2ed0	0.017112166
49	0x3c76fe09	0.015075215
50	0x3c5ead33	0.013591099
51	0x3c5ad7a9	0.013357081
52	0x3c630194	0.013855357
53	0x3cb65362	0.022256557
54	0x3ce9be80	0.02853322
55	0x3cea48fa	0.028599251
56	0x3cbf575c	0.023357086
57	0x3ca99b63	0.020703977
58	0x3c9ccb23	0.019139832
59	0x3c90d177	0.017678006
60	0x3ca2561e	0.019816454
61	0x3c84fadf	0.016232906
62	0x3c8533bc	0.01626002
63	0x3c8cea7c	0.017201655
64	0x3cc3f0c8	0.023918524
65	0x3cf3cbad	0.029760206
66	0x3cc15e7b	0.023604622
67	0x3c9f68f6	0.019459229
68	0x3c80ae6d	0.015708173
69	0x3c6bc2b2	0.014389681
70	0x3c6cea2f	0.014460131
71	0x3c9de5b8	0.019274577
72	0x3cb469e9	0.022023158
73	0x3cb38dd5	0.021918217
74	0x3cb33930	0.021877855
75	0x3cc3c080	0.023895502
76	0x3ce696b5	0.028148035
77	0x3cd1af19	0.025596188
78	0x3ca56e0a	0.020194072
79	0x3c8eb3bc	0.017419688
80	0x3c8442ef	0.016145198
81	0x3c7ff9d8	0.015623532
82	0x3c98999a	0.01862793
83	0x3cada840	0.021198392
84	0x3c9eed68	0.019400313
85	0x3c9d5ceb	0.019209346
86	0x3cc98581	0.024599792
87	0x3d043eed	0.032286573
88	0x3d00f594	0.0314842
89	0x3cd92dfa	0.026511181
90	0x3cd90e17	0.026495976
91	0x3ce74576	0.028231364
92	0x3ce8b0cb	0.028404614
93	0x3ce5fabf	0.028073667
94	0x3ce5e95c	0.028065376
95	0x3ceaa2ef	0.028642146
96	0x3cf7410a	0.03018238
97	0x3d174012	0.036926337
98	0x3d3c586d	0.045982767
99	0x3d364814	0.044502333
100	0x3d1e0523	0.038579118
101	0x3d1846d1	0.03717691
102	0x3d26daea	0.040736116
103	0x3d32feaa	0.043699898
104	0x3d2f657e	0.0428214
105	0x3d2ac9d9	0.041696403
106	0x3d2d6b11	0.042338435
107	0x3d38ce18	0.04511842
108	0x3d51960c	0.051168486
109	0x3d75f679	0.060049508
110	0x3d76e9f7	0.06028172
111	0x3d6136f6	0.054984055
112	0x3d570460	0.052494407
113	0x3d5d0ba9	0.053966198
114	0x3d698298	0.05700931
115	0x3d6a6a7c	0.057230458
116	0x3d6334bc	0.055470213
117	0x3d67ccae	0.056591682
118	0x3d79072c	0.060797855
119	0x3d8a5e0b	0.067562185
120	0x3d9b4a80	0.07582569
121	0x3d413425	0.04716887
122	0x3d2ccd3c	0.042187914
123	0x3d23b2fd	0.03996562
124	0x3d2a73d5	0.041614372
125	0x3d39a6a6	0.045324944
126	0x3d531d98	0.051541895
127	0x3d60c3d5	0.05487426
128	0x3d5b2c02	0.053508766
129	0x3d4818a9	0.048851643
130	0x3d3f3801	0.04668427
131	0x3d4d1fab	0.05007903
132	0x3d39e260	0.045381904
133	0x3d400493	0.046879362
134	0x3d3c1ff7	0.04592892
135	0x3d27acdb	0.040936332
136	0x3d1f1775	0.03884073
137	0x3d34cf4f	0.044143017
138	0x3d3002f8	0.04297158
139	0x3d32f889	0.043694053
140	0x3d438b59	0.047740314
141	0x3d465fef	0.048431333
142	0x3d4a157e	0.049336903
143	0x3d319bb4	0.04336138
144	0x3d29f69b	0.041494947
145	0x3d150348	0.036380082
146	0x3d09ab1e	0.033610456
147	0x3d194584	0.03741981
148	0x3d4049c8	0.046945363
149	0x3d3badab	0.04581992
150	0x3d21b110	0.0394755
151	0x3d25c010	0.04046637
152	0x3d41d87d	0.0473256
153	0x3d554fe9	0.05207816
154	0x3d2a5f46	0.041594766
155	0x3d0cfa6d	0.034418512
156	0x3d0cfb58	0.034419388
157	0x3d28c788	0.041205913
158	0x3d3093ce	0.043109708
159	0x3d3a64ee	0.04550641
160	0x3d2916c1	0.041281465
161	0x3d0dce21	0.034620408
162	0x3d09a836	0.033607684
163	0x3d241f9d	0.04006921
164	0x3d469327	0.04848018
165	0x3d0a1de5	0.033719916
166	0x3cf7ee5a	0.030265022
167	0x3cfaedc2	0.03063095
168	0x3cfdf01f	0.030998288
169	0x3cfb220d	0.030655885
170	0x3d2d15c8	0.0422571
171	0x3d1010b0	0.035172164
172	0x3d20f345	0.0392945
173	0x3d4b68bb	0.049660426
174	0x3d4178f0	0.047234476
175	0x3d3b1c3b	0.04568122
176	0x3d34812f	0.04406851
177	0x3d303a4a	0.04302434
178	0x3d111480	0.03541994
179	0x3cea5cbe	0.028608676
180	0x3cf29f6a	0.02961703
181	0x3d133ad0	0.03594476
182	0x3ceaecf9	0.02867745
183	0x3ce7f733	0.028316116
184	0x3d489a5c	0.048975334
185	0x3d4bab11	0.04972369
186	0x3d3b5781	0.045737747
187	0x3d0e1773	0.03469033
188	0x3d1b0cc8	0.037853986
189	0x3d133460	0.03593862
190	0x3ce742c5	0.02823008
191	0x3cb773b5	0.02239404
192	0x3cafc193	0.021454608
193	0x3c877523	0.016535347
194	0x3cab12a4	0.020882912
195	0x3d15efea	0.036605753
196	0x3d1d4525	0.03839602
197	0x3d24e110	0.0402537
198	0x3d24fa01	0.040277485
199	0x3d184324	0.037173405
200	0x3d243a24	0.04009451
201	0x3d3a9124	0.045548573
202	0x3d2cdfd9	0.042205665
203	0x3d37e0b6	0.044892035
204	0x3d38d25d	0.045122493
205	0x3d25687e	0.040382855
206	0x3d141623	0.036153924
207	0x3d10313a	0.035203196
208	0x3d27ea61	0.040995006
209	0x3d593c89	0.053036246
210	0x3d3c1bbc	0.045924887
211	0x3d359da6	0.0443398
212	0x3d53de86	0.051725887
213	0x3d5c21c5	0.053743143
214	0x3d62b890	0.055351794
215	0x3d497889	0.049187217
216	0x3d234631	0.03986186
217	0x3d236d0f	0.03989893
218	0x3d3a0c07	0.045421626
219	0x3d5b8e0e	0.05360227
220	0x3d779e61	0.060453776
221	0x3d70cbbf	0.058788057
222	0x3d661982	0.05617667
223	0x3d60bdfe	0.05486869
224	0x3d596a9f	0.053080197
225	0x3d58abba	0.052898146
226	0x3d450899	0.048103902
227	0x3d4c321f	0.049852487
228	0x3d724d3f	0.0591557
229	0x3d7bce73	0.061476182
230	0x3d81e02d	0.06341586
231	0x3d9ab713	0.0755445
232	0x3d95037b	0.072760545
233	0x3d94c9ae	0.0726503
234	0x3d93fc69	0.07225878
235	0x3d93d0d6	0.07217567
236	0x3d9a55ea	0.07535918
237	0x3d923361	0.07138706
238	0x3d8d4727	0.06898337
239	0x3d8f1bde	0.06987737
240	0x3d933df2	0.071895495
241	0x3d9afb4a	0.07567461
242	0x3d950b44	0.07277539
243	0x3d858ce4	0.065210134
244	0x3d754237	0.0598776
245	0x3d54cbc5	0.051952142
246	0x3d36e936	0.044656
247	0x3d3b4052	0.045715638
248	0x3d35f9c6	0.044427656
249	0x3d407e2d	0.04699533
250	0x3d5e1c2d	0.05422609
251	0x3d7a66d5	0.061133225
252	0x3d8ff6e3	0.07029512
253	0x3d65732c	0.05601804
254	0x3d455ed5	0.048186142
255	0x3d27f7e9	0.04100791

exp_avg f4 [32, 8, 11, 11]
0	0x3b3a306b	0.0028410207
1	0x3b8e82b3	0.0043490767
2	0x3aa2e895	0.0012428934
3	0xbb674c03	-0.003529311
4	0xbba330d9	-0.0049801883
5	0xbba28673	-0.0049598753
6	0x3b81b8a2	0.0039587775
7	0x3bacd77f	0.0052747126
8	0xbb1dd101	-0.0024080875
9	0xbc0f1644	-0.008733336
10	0xbbf6eebb	-0.007535783
11	0x3ab24d34	0.0013603331
12	0x3b3e3c6d	0.0029027716
13	0x3a4afce9	0.0007743375
14	0xbb871ffa	-0.004123685
15	0xbbac25de	-0.0052535376
16	0xbbca1a78	-0.006167706
17	0x3b2d41af	0.0026436856
18	0x3b84f51c	0.0040575396
19	0xbb0f2309	-0.002184095
20	0xbc0d55d0	-0.008626416
21	0xbbf57fd0	-0.007492043
22	0xb94e0d11	-0.00019650559
23	0x3ae04dd5	0.001711304
24	0xb98fc6b3	-0.00027423128
25	0xbb9ea97f	-0.004841983
26	0xbbcf984d	-0.0063352943
27	0xbbea0cd9	-0.007142645
28	0x3acb2f71	0.001550181
29	0x3b87791b	0.00413431
30	0xbb027ad0	-0.0019909628
31	0xbbf28ee5	-0.0074022883
32	0xbbd8f016	-0.0066204173
33	0xbb27e4fb	-0.002561866
34	0xba588233	-0.0008259147
35	0xbadb8e65	-0.0016750811
36	0xbbafaeaf	-0.0053614
37	0xbc040027	-0.008056677
38	0xbc0cd067	-0.008594609
39	0x389fa4b6	7.6123906e-05
40	0x3b1985de	0.0023425738
41	0xbb3dcd87	-0.0028961615
42	0xbbee6a84	-0.0072758812
43	0xbbd12798	-0.006382894
44	0xbb9194d2	-0.0044427896
45	0xbb1d3e5e	-0.0023993473
46	0xbb3cb644	-0.0028795162
47	0xbbcf3147	-0.006323013
48	0xbc1340c5	-0.00898761
49	0xbc1bea61	-0.0095163295
50	0xba7f45c1	-0.0009737872
51	0x3ad510b1	0.0016255585
52	0xbb5f4de7	-0.0034073533
53	0xbbd65151	-0.0065404554
54	0xbb9160b6	-0.0044365777
55	0xbb7578a5	-0.0037455943
56	0xbb18b202	-0.002329946
57	0xbb46b62a	-0.003032098
58	0xbbdd42cb	-0.006752347
59	0xbc233219	-0.009960675
60	0xbc32411e	-0.010879783
61	0xbb0cf286	-0.002150686
62	0x3a8d9284	0.0010801111
63	0xbb0c1151	-0.0021372626
64	0xbbbb1440	-0.005709201
65	0xbb575431	-0.0032856578
66	0xbad8b954	-0.0016534724
67	0xba926231	-0.0011168179
68	0xbb49b94d	-0.0030780614
69	0xbbf8fe49	-0.0075986725
70	0xbc2ca3ba	-0.010537082
71	0xbc359184	-0.011082057
72	0xbb1411f2	-0.0022593704
73	0x3a8207c6	0.000992053
74	0xbad16184	-0.0015974496
75	0xbba8118c	-0.005129045
76	0xbb335783	-0.0027365393
77	0x3aa814bb	0.0012823561
78	0x3a09ccc7	0.00052566495
79	0xbb2e5702	-0.0026602154
80	0xbc0adde2	-0.008475753
81	0xbc30dfdc	-0.01079556
82	0xbc350cbd	-0.0110504
83	0xbb0fb8eb	-0.0021930288
84	0x3af60707	0.0018770405
85	0xba42aff5	-0.00074267323
86	0xbb99f9d1	-0.00469897
87	0xbb32355f	-0.0027192456
88	0x3b88422c	0.004158279
89	0x3b5e5439	0.0033924712
90	0xba992437	-0.0011683766
91	0xbbf8f8b4	-0.007598007
92	0xbc242ebe	-0.01002091
93	0xbc1d35f2	-0.009595381
94	0xba320695	-0.0006791142
95	0x3b7bdff6	0.0038433052
96	0x39abe7cc	0.00032788364
97	0xbb78a4bc	-0.0037939986
98	0xbb1fe4be	-0.0024397816
99	0x3beca6e8	0.007222045
100	0x3bc92b8c	0.0061392244
101	0x3a839e9b	0.0010041775
102	0xbbcee914	-0.006314406
103	0xbc12674c	-0.008935761
104	0xbc0a008c	-0.008422982
105	0x3a429796	0.0007423101
106	0x3ba8fa54	0.0051567946
107	0x3b104008	0.0022010822
108	0xbb3847a7	-0.002811888
109	0xbaf8f74b	-0.0018994597
110	0x3c1b132f	0.009465023
111	0x3c0e6c87	0.008692867
112	0x3b508d22	0.0031822403
113	0xbb9cdd9c	-0.00478716
114	0xbc059755	-0.008153756
115	0xbc0155fc	-0.007894035
116	0x3ab9e234	0.0014181794
117	0x3bd51c0d	0.006503588
118	0x3b6b7606	0.0035928502
119	0xbaaac773	-0.0013029411
120	0xbac480cb	-0.0014991997
121	0xbb1c2c14	-0.0023829984
122	0xbb748267	-0.0037309171
123	0xbbaedbe9	-0.005336274
124	0xbb8f61fd	-0.004375695
125	0xbaf558d3	-0.0018718488
126	0x3a9a1291	0.0011754801
127	0x3b248920	0.0025106147
128	0xba8ce0bb	-0.0010748127
129	0xbbad01c5	-0.005279752
130	0xbbdcf1f8	-0.006742712
131	0xbbb1c1bd	-0.0054247067
132	0xbaffd0fd	-0.0019517239
133	0xbb2edc39	-0.0026681556
134	0xbb984d2f	-0.004647873
135	0xbb8843f6	-0.004158492
136	0xbb243f31	-0.002506208
137	0x39f02682	0.00045805058
138	0x3b20c2cb	0.0024530168
139	0x37c9e4b1	2.406756e-05
140	0xbb5650a5	-0.0032701876
141	0xbba2e021	-0.004970566
142	0xbba3edf6	-0.0050027324
143	0xba41f840	-0.0007399358
144	0xba18375a	-0.0005806588
145	0xbb19b9a3	-0.0023456595
146	0xbb29364c	-0.0025819717
147	0xbad8c33a	-0.0016537674
148	0x3a38739f	0.0007036272
149	0x3b52342a	0.003207455
150	0x3ae4308e	0.001740949
151	0xba46b307	-0.0007579778
152	0xbb321202	-0.0027171378
153	0xbb6ba60e	-0.003595713
154	0x3ada9dad	0.0016679071
155	0x3b042f60	0.002016984
156	0x39c82f86	0.0003818238
157	0xb90155a0	-0.00012334296
158	0xb99195f3	-0.00027768276
159	0x3ad17ae9	0.0015982065
160	0x3b85b356	0.0040802164
161	0x3b69dc6f	0.0035684367
162	0x3ae4906f	0.0017438064
163	0x39cb2b1f	0.00038751305
164	0xbabf376d	-0.0014588662
165	0x3b2ec569	0.0026667959
166	0x3b5d582e	0.0033774483
167	0x3b14e211	0.0022717754
168	0x3aea360a	0.0017868888
169	0x3ad687ab	0.0016367337
170	0x3affe863	0.0019524213
171	0x3b9ed0b7	0.004846658
172	0x3ba8ff4a	0.005157386
173	0x3b74cd69	0.003735388
174	0x3b3ba997	0.002863502
175	0x3a14d494	0.00056774286
176	0x3b06ee9e	0.0020589004
177	0x3b3805cd	0.002807963
178	0x3b175144	0.002308921
179	0x3b0968a4	0.0020966912
180	0x3b052e8e	0.0020321938
181	0x3b0e6e25	0.0021733132
182	0x3b9b8bf7	0.0047469097
183	0x3baa96c3	0.0052059605
184	0x3b856ffe	0.0040721884
185	0x3b74f2bf	0.0037376133
186	0x3aec2d15	0.0018018807
187	0x39a2bc97	0.00031039558
188	0x3a2d80c4	0.0006618614
189	0x3a2e54bc	0.00066501996
190	0x3aad82be	0.0013237817
191	0x3b26e298	0.002546465
192	0x3b2bc537	0.0026210079
193	0x3b9f9765	0.0048703426
194	0x3b953f39	0.004554656
195	0x3b789374	0.0037929686
196	0x3b8cd63a	0.0042979987
197	0x3b1dc067	0.002407098
198	0xbabc9c50	-0.0014389846
199	0xbacacafb	-0.001547187
200	0xbb003564	-0.0019563073
201	0xb9a4688f	-0.0003135842
202	0x3af8f494	0.0018993788
203	0x3b5a154c	0.0033276854
204	0x3b92d12a	0.0044805007
205	0x3b870de6	0.00412153
206	0x3b47ca20	0.0030485466
207	0x3b46f9d7	0.0030361318
208	0x3b160fa9	0.0022897518
209	0xbb088416	-0.0020830682
210	0xbb620a71	-0.0034491087
211	0xbb94fe94	-0.0045469496
212	0xbb330d86	-0.0027321293
213	0x398d608d	0.00026965552
214	0x3b290037	0.0025787482
215	0x3b85f9df	0.004088625
216	0x3b3e2fba	0.0029020146
217	0x3a8f1f25	0.0010919316
218	0x3a40736e	0.0007341419
219	0x39abd7d3	0.00032776463
220	0xbb1ef89c	-0.002425707
221	0xbb95236a	-0.004551341
222	0xbbd63f9c	-0.0065383445
223	0xbba140d3	-0.0049210577
224	0xbaf5d74b	-0.0018756179
225	0x3a8258c1	0.0009944664
226	0x3b0f0d2c	0.002182792
227	0x3a681898	0.00088537624
228	0xbaa0a8f9	-0.0012257389
229	0xbadd280d	-0.0016872898
230	0xbb126bdc	-0.0022342121
231	0xbae7aa66	-0.0017674684
232	0xbb8b0af2	-0.004243248
233	0xbbe67019	-0.007032406
234	0xbbc440b7	-0.00598916
235	0xbb6ead50	-0.003641922
236	0xba0e3f82	-0.00054263335
237	0x3a93c951	0.0011275207
238	0x38549916	5.068731e-05
239	0xbb2324ab	-0.0024893682
240	0xbb58d995	-0.0033088673
241	0xbb731d94	-0.0037096487
242	0x3bbf0685	0.0058296346
243	0x3bff8d28	0.0077988096
244	0x3c05f57f	0.008176207
245	0x3b6b7d9d	0.0035933026
246	0xbaef9a7f	-0.0018280296
247	0xbb881e76	-0.004154022
248	0x3a61a3af	0.00086074596
249	0x3bfe0b08	0.00775278
250	0x3c24aa18	0.010050319
251	0x3bf0a6be	0.007344096
252	0x3b817801	0.003951073
253	0x3bc37e2c	0.0059659686
254	0x3c0bde57	0.008536897
255	0x3c0cbb5a	0.00858959
