trained_models/CT_Sigma_25_t_10/checkpoints/checkpoint_10.pth (torch, 401651 bytes, 10 tensors)

conv_layer.conv_layers.0.parametrizations.weight.original f4 [8, 1, 11, 11]
000000 56 3e 41 3b b1 79 23 3d 54 2a 57 bc e1 ff f5 3d
       0.0029486618 0.039910976 -0.01313265 0.12011696
000010 dd 30 a3 3c ce 69 db 3c 0b 17 f8 bc 11 74 3a 3e
       0.01992076 0.02678385 -0.030284425 0.18208338
000020 d2 64 cc 3d 75 2b 87 bd 00 2b 46 3d 72 61 f8 bc
       0.099801674 -0.06600086 0.04838085 -0.030319903
000030 df e1 ec 3c 59 5d 82 bd c5 95 f9 bc bb 73 9a 3c
       0.028916297 -0.06365461 -0.030466923 0.018854013
000040 7d d0 7e 3e f9 b6 93 3d 18 e6 a7 bd 51 f3 f2 3a
       0.2488422 0.07212634 -0.08198184 0.0018535649
000050 4b 52 83 3c 83 28 9b bc 78 57 aa 3c 25 2e 7c 3d
       0.016030451 -0.018940216 0.020793661 0.061567444
000060 95 4a 2f be 53 b7 2e be 2f e3 88 bd 48 78 b2 bd
       -0.17118295 -0.1706212 -0.06683957 -0.08714348
000070 03 af 07 3d ac c0 b8 bd a2 3a d3 3d 95 86 cf bd
       0.03312589 -0.09021124 0.10313918 -0.10133091
000080 b8 cb 68 3d 3a 35 88 bd 90 6c 72 bd 89 99 05 3e
       0.056834906 -0.06650777 -0.059185565 0.1304685
000090 a7 09 5e 3d d1 83 3d 3e 64 82 1e 3e 4c 01 93 3c
       0.054208424 0.18507315 0.15479428 0.017944954
0000a0 4c 72 c9 3d 17 a1 d4 bd ff 17 b5 3b ca 01 d8 3d
       0.098362535 -0.10382288 0.005526542 0.10547216
0000b0 65 13 ed 3d 4e 78 1e bd 3c 1d c3 3d 09 ce f2 bc
       0.11575965 -0.03868895 0.095270604 -0.02963926
0000c0 13 a5 27 3e c5 35 e7 bd 55 51 66 be e9 3f 67 bd
       0.16371565 -0.112895526 -0.22491963 -0.056457434
0000d0 e3 c1 5e be 33 ea 9c 3d 3d 89 51 bd 6e 15 55 3d
       -0.2175365 0.076618575 -0.05115627 0.05202239
0000e0 ac 79 1c 3e 3c ce 6e 3d 1e 21 87 3e ea de 7d be
       0.15280789 0.05830215 0.26392454 -0.24792066
0000f0 ca b5 91 3e bb 1f e0 be 96 a4 b0 bd 93 5c 02 be
       0.28459007 -0.43774208 -0.08625142 -0.12730627
000100 61 da b1 bd 13 24 6f be 46 59 b8 3d 90 ce 57 bd
       -0.086842306 -0.23353605 0.090014026 -0.052687228
000110 d8 6c f6 bd 4f 47 b6 bd c0 fb 72 3e 4b 3c 8c 3e
       -0.12032479 -0.0890032 0.23728848 0.2738975
000120 b3 6f 91 bc 23 87 b0 be 32 5c 88 be cd ca 53 be
       -0.017753458 -0.344781 -0.2663284 -0.20682831
000130 bd 76 46 be c1 56 3f 3d b7 47 09 3e 69 a2 5c 3e
       -0.19381233 0.046713594 0.13406263 0.2154633
000140 b2 72 40 bd 1c 14 15 bd 79 35 76 3e d2 05 16 be
       -0.046984382 -0.03639613 0.24043836 -0.14650658
000150 d8 47 88 3b 1c c5 e4 bc ee 1d 96 3d 03 65 87 bd
       0.004158955 -0.02792602 0.073299274 -0.06611063
000160 d5 7b 07 bd 13 82 73 3d a0 e8 4e 3d 4b f0 30 bd
       -0.03307708 0.05945022 0.050514817 -0.04319791
000170 34 23 18 3e 16 9b 75 3e 27 a3 0d be e7 4f d2 bd
       0.14857179 0.23984942 -0.13831769 -0.102691464
000180 45 57 30 3e 3f 92 a2 3c c0 ba a6 bc a5 d8 95 bd
       0.1722079 0.019845126 -0.020352721 -0.07316712
000190 c8 ff 70 bd ba a3 99 3d 7c 32 bb bc 20 1a 75 bd
       -0.058837682 0.075019315 -0.022851221 -0.059839368
0001a0 be 36 35 3d b4 08 84 bd 33 8f 4a bd e3 cb 87 3b
       0.04424166 -0.064469725 -0.04945297 0.0041441782
0001b0 c3 87 74 bd 1f 65 3e 3d ec 0c 60 3d 83 8b d7 3c
       -0.059699785 0.046483155 0.054699823 0.026311642
0001c0 cc c4 f7 3c b6 f0 a2 bd 8d d4 9e bd f7 2d f7 bb
       0.030245207 -0.07956068 -0.077553846 -0.0075433212
0001d0 1a 20 c0 3c 7d 35 e6 bd ab bf ee bc 98 a8 ea bc
       0.023452807 -0.11240671 -0.029144129 -0.028644845
0001e0 ab 4c e6 3c 58 d2 a6 3c 1d dd 96 3c b4 68 11 bd
       0.02811273 0.020363972 0.018415982 -0.035500243
0001f0 40 c2 b5 bd 46 b3 75 bd 9a 30 a4 bd db ce e6 bd
       -0.08874941 -0.05998542 -0.080170825 -0.11269923
000200 6f bf 86 3d 1e 2f 3f bd c5 b6 8a 3d 39 1c 9b bc
       0.06579482 -0.046675794 0.06773142 -0.018934356
000210 4f 70 fb bc c7 8c b4 3d 3d 4e b4 bd d2 41 2c bd
       -0.030693201 0.08815914 -0.08803985 -0.04205496
000220 b5 ef 0d be 16 5e 87 be 55 f1 6e 3d ed ba 44 bd
       -0.13860972 -0.2643897 0.05833562 -0.04802983
000230 aa 5b 99 3d 79 fb f8 bd d0 84 d6 3d ff 48 8e bd
       0.07488187 -0.121573396 0.10474551 -0.06947517
000240 b3 d8 2e bd 5d 1f 3e bd f8 3e 44 3d c1 b5 f6 3d
       -0.04268713 -0.04641663 0.047911614 0.120463856
000250 26 dc 29 3e 77 a5 36 be b3 66 d6 3b 93 30 8f bd
       0.16587886 -0.17836557 0.0065430044 -0.06991687
000260 4a 1c 9b 3c 33 2d 39 bd f3 ea 0e 3e 9b 40 d5 bd
       0.018934388 -0.04520912 0.13956814 -0.10412713
000270 b0 b2 e1 3d 92 8b 52 3d 01 9e ba 3d 3b 13 0c be
       0.1102041 0.051402636 0.09112168 -0.13679211
000280 28 1a 02 3e 73 a6 84 bd 03 94 6d bd 61 7c 29 be
       0.1270529 -0.0647706 -0.058002483 -0.16551353
000290 82 7f a1 3d ba 3e 29 bc 89 a0 3b bd 4c fc 2e 3e
       0.07885648 -0.010329897 -0.045807395 0.17088431
0002a0 65 6c 17 3c 7a 22 c9 bd 17 41 77 be 0b 57 1c 3d
       0.009242152 -0.09821029 -0.24145924 0.03816895
0002b0 4a 0b 73 bb f5 62 e6 bd a1 59 18 be 7d 0a 23 bd
       -0.0037085586 -0.11249343 -0.1487794 -0.039804924
0002c0 3c d3 72 bd 58 14 08 3d a2 69 85 3e 15 86 87 bd
       -0.05928348 0.033222526 0.26057154 -0.06617371
0002d0 3b 5e ea 3e 6f ed 3a 3f b7 63 8e 3e 72 20 b8 3d
       0.45775017 0.73018545 0.2781045 0.089905635
0002e0 57 ae 11 3e 29 f9 4d 3d 5a 4b 9c bc d9 75 29 bd
       0.14226662 0.050286446 -0.0190789 -0.041372154
0002f0 80 a4 79 bd 7a 0c ae bd 4e c4 92 bd 39 6a 84 bd
       -0.060947895 -0.084984735 -0.071663484 -0.06465573
000300 28 ba 9f 3e 49 5f 41 3e f8 7d 42 bd a2 e6 95 bd
       0.31196713 0.18884005 -0.047483414 -0.0731938
000310 ed 99 e0 bd 2c 51 1a be c0 de de 3c c0 ea b7 ba
       -0.10966859 -0.15070027 0.027205825 -0.0014031753
000320 ca 18 13 be 49 83 e7 bd 67 39 b4 3d 3e 50 07 3e
       -0.14364925 -0.113043375 0.08800011 0.13214204
000330 ae db 65 bc 11 61 d7 bd 9f 7a 26 be f2 05 fb bd
       -0.0140294265 -0.10516561 -0.16257714 -0.12256993
000340 bc bf be bd 80 00 50 3d 4c 02 92 3d f6 32 3e 3d
       -0.09313914 0.050781727 0.07129344 0.04643532
000350 6e df 2b be 9f 10 14 be 68 54 1b be 92 78 f1 3d
       -0.1678445 -0.14459465 -0.15168917 0.11790575
000360 19 a1 6e bd d0 18 86 bc 14 aa 6f 3d ee 55 37 bc
       -0.058259103 -0.016369253 0.05851181 -0.011189921
000370 a9 99 b3 bd 79 3e 65 3d 4d bc 10 be a7 7c 07 bd
       -0.08769543 0.05596778 -0.14134331 -0.033077862
000380 d2 e1 38 be 17 b8 6e 3d 10 fb 5e 3d df c2 5d 3c
       -0.18054894 0.05828103 0.05443865 0.01353523
000390 6e 70 ab bc 79 8a 44 bd ad d3 e2 3c 5b 4b 81 3d
       -0.020927634 -0.04798362 0.027688826 0.06313201
0003a0 e4 b1 48 bd 43 1f 12 3d b9 cc b4 3d 00 b6 c6 bb
       -0.048997775 0.035674345 0.0882811 -0.0060641766
0003b0 4d 47 3c 3d b6 d6 2b be 1b 83 af bd 8e d2 55 bd
       0.045966435 -0.16781124 -0.08569928 -0.052202754
0003c0 ca 95 ec 3d 01 f7 f3 ba 21 63 71 bc 3e 72 ba bc
       0.115520075 -0.0018613042 -0.014733107 -0.022759553
0003d0 29 71 e8 ba ae 73 32 bd de 91 d5 bd b9 1c 89 3d
       -0.001773392 -0.043567352 -0.104282126 0.066949315
0003e0 c4 59 b1 bd 54 c8 9c 3d f1 3d 65 bd 9a f9 97 bd
       -0.086596996 0.07655397 -0.055967275 -0.074206546
0003f0 82 a7 aa 3c 7d 35 65 bd 28 ca 6a bc 91 7f 94 bd
       0.020831827 -0.055959214 -0.014330424 -0.07250894

conv_layer.conv_layers.1.parametrizations.weight.original f4 [32, 8, 11, 11]
000000 83 ea 46 3a a9 0d 7b bd 8c 9b 53 bd 0a 39 3f 3d
       0.00075880456 -0.061292324 -0.051662013 0.046685256
000010 8a d5 ae ba 69 0b 2e bb 9d 16 af 3d 2a 9e e5 3a
       -0.0013338786 -0.0026557094 0.08549235 0.001751845
000020 bd a5 be bd 06 32 14 3d 8c e6 4a 3b dd bf 01 bb
       -0.09308956 0.03618052 0.003096017 -0.0019798197
000030 55 00 b7 3c f4 49 86 bd cd db f4 bc 19 41 58 3d
       0.022339026 -0.06557074 -0.029889965 0.052796457
000040 21 26 2a bd b7 53 10 3b 85 19 1e bb f6 fe 3d bd
       -0.04154027 0.0022022554 -0.0024124098 -0.046385728
000050 35 2e f7 3b 49 f1 27 bc 4e f6 38 3d 6c c6 97 3d
       0.00754335 -0.010250398 0.04515677 0.07410893
000060 b4 f0 7d bd c3 04 8c bd 8c 24 22 3d ac b5 54 bc
       -0.06199713 -0.06836846 0.039585635 -0.012982767
000070 74 1c 09 3d d9 d0 95 3d 0c fb 92 3c 23 b3 15 bd
       0.0334744 0.07315225 0.017941974 -0.03654779
000080 c6 66 a2 3c b0 39 fd bb 48 2b 2b 3d a9 1b a6 bd
       0.019824397 -0.007727824 0.041789323 -0.081107445
000090 70 c2 14 be 5d da 26 bd d2 1c aa 3d d9 9b 3b bc
       -0.14527297 -0.04073559 0.08306278 -0.011450731
0000a0 6a 4c 94 3c 51 54 76 bc 1d d1 cf 3c 52 d6 98 bb
       0.018102843 -0.015034751 0.025368268 -0.004664221
0000b0 c7 23 ce bc dc 95 05 3e d8 e8 d4 bd d7 9a 30 be
       -0.025163544 0.13045448 -0.10395974 -0.17246567
0000c0 4d 9d 1e bd 8b 16 a2 3d 42 7f e3 bc 59 1d cf 3d
       -0.038724232 0.07914456 -0.027770642 0.101130195
0000d0 47 05 77 3c 3a fb 08 3d 08 48 82 bc a4 d6 b5 3c
       0.015076942 0.033442713 -0.015903488 0.022197075
0000e0 c0 92 6c 3d f0 02 f4 bd 31 bc 72 be a9 38 9e bd
       0.05775714 -0.11914623 -0.23704602 -0.07725651
0000f0 2e a9 b9 3d 3d f2 94 bb 02 8b bc 3d 3a 12 24 3d
       0.090654716 -0.0045454786 0.09206201 0.040056445
000100 93 85 1d bc f0 bc 5e 3d 74 ef 9b 3b 0a 3a 8e 3d
       -0.009614366 0.054379404 0.0047587696 0.06944664
000110 4b 9a 8e bd b0 88 21 be 7f 8c f3 3c c0 ec 52 3c
       -0.06963023 -0.15774798 0.02973008 0.012873828
000120 29 2b 47 bd 7c 63 8a 3d 68 38 5c 3d 0d e6 b6 bc
       -0.048625145 0.067572564 0.05376473 -0.022326494
000130 ad c8 10 3c 38 74 27 bd e6 6e 15 3d 16 ce 0d bd
       0.008836907 -0.04088232 0.036482714 -0.034620367
000140 0a 9c 1f be 5d 91 c4 bc 50 22 09 3e 34 85 bd 3c
       -0.15586868 -0.023995096 0.13391995 0.023134805
000150 db 80 49 bc 78 73 0e 3d 8b c5 20 3c 12 6f 6d 3c
       -0.012298788 0.03477809 0.009812723 0.014491813
000160 7f 02 47 bc 7c b8 cc bc c0 46 3a bd 02 c3 08 be
       -0.012146591 -0.024990313 -0.04547763 -0.1335564
000170 cf 1d 52 bd de 9a a9 3d 13 de 97 3c f5 7b 89 3d
       -0.05129796 0.08281492 0.01853851 0.06713096
000180 9e 02 3f 3c 63 48 78 bb 3a d0 1d bc 7b 83 5f 3d
       0.011658339 -0.0037884943 -0.009632165 0.05456875
000190 37 b5 4f bc c0 b3 0f 3c dd 9e 25 bd d3 0c c9 bc
       -0.012677482 0.008770883 -0.040434707 -0.024542248
0001a0 55 e7 43 3d a5 71 16 bc 14 87 a3 bb 1a 22 a5 3c
       0.047828037 -0.009182368 -0.004990468 0.020157862
0001b0 2f 11 89 bb 16 d4 0b 3c d6 dd b3 3d 0e 1a 44 bc
       -0.0041829566 0.008534452 0.08782546 -0.011969103
0001c0 17 a5 2a bd 08 72 75 bd 06 27 67 bd 2f ce 2e bd
       -0.04166135 -0.0599232 -0.0564337 -0.0426771
0001d0 28 71 98 bc dc 6c c1 3c 34 6d 59 3d 0c c3 30 bc
       -0.018608645 0.023611479 0.05308266 -0.01078869
0001e0 81 16 de 3c 20 14 91 3c dc 8e 71 bb 43 0c d8 3c
       0.02711034 0.017709792 -0.0036858832 0.026373034
0001f0 2e 1b be bd c4 59 ac bc 0d 86 c3 bc 8e 31 ac 3c
       -0.09282528 -0.021038897 -0.023867631 0.021019723
000200 c0 84 05 3d d2 3a ce bc 6d 03 b7 bc ee 20 10 3d
       0.032597303 -0.025174532 -0.0223405 0.035187654
000210 b8 0c 0a bd f6 aa 87 3d 87 af eb 3c 0e 54 d1 3c
       -0.033703536 0.06624405 0.028770221 0.025552776
000220 94 5e d6 bd 57 27 d6 3c eb eb b8 bc ac a8 c8 3c
       -0.10467258 0.026141806 -0.022573432 0.024494492
000230 4d a3 4c 3d 39 bb 14 3d 1a ef c3 bb f9 ed 49 bc
       0.049960423 0.036311362 -0.005979431 -0.0123248035
000240 06 cf 7c 3d ce ba 6b 3d d9 3d fc bd 73 8d 42 bd
       0.06172087 0.057551198 -0.12316484 -0.047498178
000250 1f d5 77 3d a4 7e 42 3d 1d 6f 3b 3d cd 25 b2 3c
       0.060505982 0.047484055 0.045760263 0.02174654
000260 65 1c 86 3d af 69 fe 39 cf 57 e1 3c 88 3c f3 3c
       0.065483846 0.00048525396 0.02750769 0.02969195
000270 6b 84 59 3d 87 45 20 be ed bb e6 bc 0e 56 71 3d
       0.0531048 -0.15651523 -0.028165782 0.05891996
000280 52 f5 b4 3c 3b 59 47 bd 4e 6f 48 bd 82 a0 c5 3d
       0.022089634 -0.04866908 -0.048934273 0.09649755
000290 fe 84 ba 3c 4f 69 a9 3d 01 02 98 3d 13 56 17 ba
       0.022768494 0.08272039 0.07422257 -0.0005773019
0002a0 00 d6 0c be bf f8 c0 bc 9c 7a 0e 3d 5b 9a 40 bd
       -0.1375351 -0.023556111 0.0347849 -0.047022205
0002b0 9b e9 70 bd 52 ed b4 3c 52 22 eb 3d 53 b3 4f bc
       -0.058816534 0.02208582 0.114811555 -0.012677032
0002c0 51 65 a5 3d 58 05 a0 bd 68 ec ca b9 38 8f 3d be
       0.08075965 -0.07813519 -0.0003870458 -0.18511665
0002d0 2e 2f 7a 3d bd 4f 71 3e 71 77 1d bd 71 d3 d4 bd
       0.06108015 0.23565574 -0.038443986 -0.10391892
0002e0 91 28 cd bc 84 31 a6 3d 89 db 8e bd e4 76 90 3c
       -0.025043758 0.08114913 -0.06975467 0.017634816
0002f0 2b 68 8f bd 4e e7 f6 3c 65 fa d9 bd 9f 90 11 3d
       -0.0700229 0.030139592 -0.10643462 0.035538312
000300 55 1d df 3d 6f c6 a5 bd cd e9 c0 bd 3d 38 7a 3b
       0.108942665 -0.08094489 -0.09419594 0.0038180493
000310 c2 1a 53 bd 86 4e 9d bc 00 d9 68 bd 53 74 04 bd
       -0.05153919 -0.019202482 -0.056847572 -0.032337498
000320 e1 9c 09 bd 0c 8b 16 bd 2a f4 4f bd 8a b7 77 bc
       -0.033596877 -0.0367537 -0.050769962 -0.015119443
000330 ee 57 99 bd 14 ba 68 bd 81 9c aa 3d 32 7c 4b 3d
       -0.074874744 -0.056818083 0.08330632 0.04967899
000340 e5 13 b1 3c 0b 5f 29 bb 24 b0 66 bd b6 c4 1e 3d
       0.021615932 -0.0025844004 -0.056320325 0.038761817
000350 6d db 82 3d e7 a3 c8 3c 13 ce 5e bc 6d 06 e1 bd
       0.063895084 0.024492217 -0.013598937 -0.10987554
000360 25 73 1f 3c 37 d2 e8 3c d1 60 3b 3d 92 53 14 bd
       0.009732042 0.02842055 0.04574663 -0.03621251
000370 50 16 fe bc 64 93 53 bd 2e cd 02 3d 20 71 ad 3c
       -0.031016499 -0.051654235 0.031933956 0.021172106
000380 22 1f fa 3d 1b 40 06 bd 34 3b b0 bd 97 3f 75 bc
       0.12212969 -0.03277598 -0.08605042 -0.014968774
000390 a1 a5 42 3b fb a3 1b bc 0a 54 2e bc 00 f1 2a 3b
       0.0029700773 -0.009499545 -0.010640154 0.0026083589
0003a0 ae 3d 1b 3c 45 54 68 3d ed 43 b5 bd db 14 1d bc
       0.009475155 0.05672099 -0.088508464 -0.009587492
0003b0 00 f8 22 bd e7 fa 46 bd 01 74 b6 3d eb 3a 10 bb
       -0.039787292 -0.048579123 0.08908845 -0.0022007774
0003c0 e6 b5 82 3c c5 24 c0 bd 95 c7 b0 3c 69 b9 c8 bb
       0.015955877 -0.09382013 0.021579543 -0.0061256182
0003d0 bb 9a 83 3d 2a a0 2a 3d 0a 20 41 bd 92 d0 85 bd
       0.06425997 0.04165665 -0.047149695 -0.06533922
0003e0 8e 2f b0 bb 91 fe bf bc 85 3d 47 3d 38 68 a3 bc
       -0.0053767627 -0.023436816 0.048642654 -0.019947156
0003f0 4a 3a f1 bc 56 9c bd bb 17 17 b8 3d 45 3d 2f 3b
       -0.02944674 -0.005786459 0.08988779 0.00267394

activation.coefficients_vect f4 [672]
000000 00 00 00 80 af 18 e1 3a ce f9 d0 3a d2 2e 8e 3a
       -0.0 0.0017173494 0.0015943588 0.0010847694
000010 b8 45 3a 3a 5f 14 91 39 cb d0 2e 39 28 f9 b2 38
       0.0007105726 0.00027671733 0.00016671715 8.5341104e-05
000020 55 98 64 38 28 c6 b1 b7 c6 fb cb 38 3c 7e 5e 39
       5.4501306e-05 -2.1192318e-05 9.726691e-05 0.00021218596
000030 76 17 a5 39 f9 f3 54 39 d3 83 54 39 e5 56 c8 38
       0.00031488732 0.00020308782 0.00020267004 9.5529285e-05
000040 6c 96 46 ba d1 ab 95 ba 73 49 b5 ba 00 cd dd ba
       -0.0007575515 -0.0011419003 -0.0013831094 -0.0016922057
000050 00 00 00 00 00 00 00 80 43 df e9 3a 59 7c 9c 3a
       0.0 -0.0 0.0017843026 0.0011938914
000060 e7 98 60 3a 93 21 27 3a 0f 87 d1 39 66 ea 80 39
       0.0008567706 0.00063755474 0.00039964213 0.00024588703
000070 e4 97 77 39 75 d2 af 38 d3 d5 ce 37 b6 81 0a b5
       0.0002361234 8.383851e-05 2.4656683e-05 -5.159776e-07
000080 5d 34 97 b8 31 88 c7 b8 b3 b9 13 b9 ae 6a 29 b9
       -7.2099945e-05 -9.514427e-05 -0.00014088191 -0.00016156837
000090 8a d3 65 b9 c8 8e e6 b9 26 2a 68 ba fb cf 94 ba
       -0.00021917946 -0.000439754 -0.0008856378 -0.0011353487
0000a0 14 18 32 bb 00 00 00 00 00 00 00 80 f2 2e 5e 3a
       -0.0027174996 0.0 -0.0 0.00084756233
0000b0 df a2 00 3a a7 50 fb 39 98 fd 89 39 52 c9 71 39
       0.0004907082 0.0004793454 0.00026319618 0.00023058549
0000c0 ec 00 62 39 61 19 31 39 da a9 9e 38 eb b1 9c 38
       0.00021553383 0.0001688949 7.5656644e-05 7.4717995e-05
0000d0 d2 92 7a 38 c5 45 3e 37 26 f3 2c b8 6f ee 02 b9
       5.9741382e-05 1.1341127e-05 -4.1234445e-05 -0.0001248659
0000e0 c0 6a 3f b9 87 7b 83 b9 17 fb d9 b9 18 f8 03 ba
       -0.00018254947 -0.00025078302 -0.00041576542 -0.0005034222
0000f0 11 bf 14 ba ba b8 86 ba 00 00 00 00 00 00 00 80
       -0.0005674223 -0.0010278441 0.0 -0.0
000100 8b 2a 83 3a 0b 63 02 3a d5 6a fc 39 f0 ba cb 39
       0.0010007186 0.0004973865 0.00048144782 0.00038858457
000110 f1 f9 a2 38 f7 67 6e 38 f1 dc 54 38 40 7c a0 37
       7.771317e-05 5.6840447e-05 5.0750506e-05 1.9131345e-05
000120 19 b1 3e 37 81 4b 93 b7 42 cb d2 b7 b1 cb 53 b8
       1.1366116e-05 -1.7558925e-05 -2.51286e-05 -5.0496023e-05
000130 84 9e f2 b8 12 17 39 b9 37 4a be b9 51 1d 02 ba
       -0.00011568985 -0.00017651569 -0.00036294918 -0.0004963475
000140 4b e9 0d ba f8 1b 26 ba 3f 38 99 ba 00 00 00 00
       -0.00054134865 -0.0006336565 -0.0011689736 0.0
000150 00 00 00 80 bd 04 15 38 d4 24 e4 b8 d9 75 47 b9
       -0.0 3.552878e-05 -0.00010878747 -0.0001902202
000160 c6 4e 52 b9 e2 9f ac b9 9f c3 f3 b9 25 0d 5b ba
       -0.00020056506 -0.00032925518 -0.0004649432 -0.00083561457
000170 29 61 0c ba 1d 3e 72 b9 45 9f 96 38 96 c9 c4 39
       -0.0005355054 -0.00023102057 7.1822236e-05 0.00037534226
000180 05 dc 31 3a d7 81 80 3a 64 a8 74 39 18 52 10 39
       0.00067847996 0.000980432 0.00023332384 0.00013763492
000190 73 d8 8d 38 3e 49 23 38 12 5a e3 37 c9 28 36 b9
       6.763721e-05 3.893044e-05 2.7102451e-05 -0.00017372066
0001a0 00 00 00 00 00 00 00 80 de d8 6c 3a 5b 0a c1 39
       0.0 -0.0 0.0009035001 0.00036819544
0001b0 71 15 32 39 4e 25 83 b7 0c 61 5e b8 d3 60 87 b8
       0.0001698339 -1.5633788e-05 -5.3019307e-05 -6.4553366e-05
0001c0 2c ef a1 b9 82 59 29 b9 2e a2 30 b7 c4 20 12 39
       -0.0003088651 -0.0001615044 -1.0528178e-05 0.00013935851
0001d0 04 fe 98 39 f2 11 e8 39 ca bd 1b 3a fa 03 43 3a
       0.00029180956 0.0004426386 0.00059410615 0.0007439252
0001e0 19 2a 91 39 9d b7 02 b9 d7 63 99 b9 02 f2 18 ba
       0.0002768792 -0.00012466167 -0.0002925682 -0.0005834402
0001f0 2d 12 69 ba 00 00 00 00 00 00 00 80 b4 ff b2 39
       -0.0008890953 0.0 -0.0 0.0003414132
000200 1f d8 fd 38 1b 7a 39 b8 6d 64 b4 b8 81 fe c1 b8
       0.00012104236 -4.4221157e-05 -8.6017746e-05 -9.250362e-05
000210 80 f0 83 b9 5e a6 ca b9 ae a2 6e b9 28 aa 93 b8
       -0.00025165454 -0.00038652396 -0.00022758052 -7.0412e-05
000220 c6 ad ba 38 52 99 82 39 2a 44 d6 39 50 ef 12 3a
       8.901539e-05 0.00024909765 0.00040868047 0.00056051183
000230 df 3b b4 39 9a 6d b0 39 dd f6 e2 38 e4 6a e0 38
       0.00034376883 0.00033650995 0.00010822502 0.00010701062
000240 e5 df 8f b6 bc 84 65 b8 00 00 00 00 00 00 00 80
       -4.287797e-06 -5.4721473e-05 0.0 -0.0
000250 bb c4 1a 3b a8 bd 96 3a de 1e 86 3a d2 52 ec 39
       0.0023615796 0.0011500614 0.0010232588 0.00045075134
000260 f4 fc b1 39 e6 f2 60 39 d3 0f 16 39 68 23 0e 39
       0.00033948536 0.00021452791 0.0001431101 0.00013555365
000270 cc 81 9a 38 f0 c8 e1 b8 9a 66 86 37 c8 9d 10 39
       7.367469e-05 -0.000107662636 1.6021822e-05 0.00013791688
000280 75 ff fc 38 db 97 8a 36 96 8d 03 b9 29 ae 1a ba
       0.00012063879 4.130399e-06 -0.00012545878 -0.00059005857
000290 99 93 2f ba 55 96 91 ba 6e 87 b5 ba 00 00 00 00
       -0.0006697714 -0.0011107425 -0.0013849565 0.0
0002a0 00 00 00 80 94 e2 36 3b 3c 92 07 3b 05 4a d2 3a
       -0.0 0.0027906047 0.0020686528 0.0016043788
0002b0 ff 04 80 3a e8 c7 3c 3a 76 85 aa 39 c3 6c 48 38
       0.0009767114 0.0007201419 0.00032524363 4.7785008e-05
0002c0 54 c2 e9 b8 1b cd 0f b9 e1 ab 15 b7 ba 01 f5 38
       -0.00011146502 -0.0001371395 -8.921111e-06 0.00011682832
0002d0 cd 5b bc 38 47 82 eb b8 2b 36 3f b9 f9 59 65 b9
       8.981638e-05 -0.00011229939 -0.00018235359 -0.00021872659
0002e0 4d 90 4c ba 64 99 e7 ba 9d 00 0b bb f6 32 23 bb
       -0.0007803485 -0.0017669615 -0.0021210082 -0.0024902201
0002f0 00 00 00 00 00 00 00 80 c6 28 3e 3a 98 79 39 3a
       0.0 -0.0 0.00072540005 0.0007075309
000300 5b 5a e0 39 3d a9 dc 39 42 7e 34 39 3d b2 31 39
       0.0004279193 0.00042087762 0.00017213172 0.00016946434
000310 77 73 2a 39 18 d2 ca 38 37 05 91 38 40 65 66 38
       0.00016255477 9.6712436e-05 6.91511e-05 5.493057e-05
000320 9c 99 bc b7 af a0 33 b8 8a d9 e0 b8 82 b1 fe b8
       -2.2482876e-05 -4.2826574e-05 -0.00010721672 -0.00012144727
000330 08 7e 9e b9 ed 04 a4 b9 49 95 c8 b9 5b 96 53 ba
       -0.0003023001 -0.00031284188 -0.000382582 -0.0008071416
000340 57 df cc ba 00 00 00 00 00 00 00 80 8e 91 e9 3a
       -0.0015630525 0.0 -0.0 0.0017819868
000350 a7 d0 67 3a 59 5c bc 39 78 7e aa 39 0c 72 79 39
       0.00088430423 0.0003592696 0.00032519153 0.00023788976
000360 f7 1c 28 39 57 e6 c6 38 c7 fa 9d 38 90 fd 84 38
       0.00016032519 9.48428e-05 7.533054e-05 6.34148e-05
000370 c0 36 1f 38 37 29 4a 37 05 13 5d b7 d1 ec 0e b9
       3.7959544e-05 1.2049734e-05 -1.3177055e-05 -0.00013630396
000380 65 e1 18 b9 59 81 e4 b9 a9 0b 09 ba 42 e6 10 ba
       -0.00014579816 -0.0004358392 -0.0005227873 -0.0005527475
000390 0a b2 3d ba 95 bb f7 ba 00 00 00 00 00 00 00 80
       -0.0007236308 -0.0018900508 0.0 -0.0
0003a0 24 80 00 3b 0e 8a 7f 3a f4 6f 7b 3a 1f 28 39 3a
       0.0019607628 0.000974805 0.00095915725 0.00070631685
0003b0 50 65 f6 39 47 f9 8e 39 27 53 2b 39 83 28 01 39
       0.0004699626 0.00027270077 0.00016338807 0.0001231749
0003c0 3b 41 c3 38 b7 b8 a0 38 2d 9f 37 38 b3 a4 30 b8
       9.310475e-05 7.6638e-05 4.3778844e-05 -4.2115058e-05
0003d0 69 40 4e b9 5b ef 65 b9 8e d2 8c b9 dd e1 96 b9
       -0.00019669686 -0.00021928309 -0.00026859756 -0.0002877851
0003e0 78 fb 03 ba 95 30 0c ba f9 79 1d ba 00 00 00 00
       -0.0005034725 -0.00053478155 -0.000600725 0.0
0003f0 00 00 00 80 c3 99 94 3a 85 06 d1 39 61 c2 1f 39
       -0.0 0.0011337328 0.00039868444 0.00015235833

u f4 [1, 1, 20, 20]
000000 54 d3 60 bb 89 32 63 3c f0 da d3 3c 77 51 21 3c
       -0.003430565 0.013867029 0.025861233 0.009846083
000010 70 7a 1c 3c ed d8 f2 bc a4 6b 09 bd 22 08 94 bc
       0.009550676 -0.029644454 -0.03354992 -0.018070284
000020 2a 61 d1 3c 6d 46 86 3d 97 9f de 3d 12 8f 08 3e
       0.025559027 0.065564014 0.10870283 0.13335827
000030 75 3b d9 3d d7 02 76 3d 5b 57 6b 3c 57 bc d5 3c
       0.10607044 0.060061302 0.014364089 0.026090784
000040 3c 9e a4 3c b4 c3 bc 3c 56 a3 d1 3c fc 21 dd 3c
       0.020094983 0.023042537 0.02559058 0.026993744
000050 0f 82 45 bd f3 92 49 bb 91 55 8e ba cb c5 0d bd
       -0.048219737 -0.0030757755 -0.0010859241 -0.03461246
000060 ec 6d 6c bd d6 fa 4c bd c8 8c 3e bd 06 fc bc 3b
       -0.057722017 -0.050043903 -0.04652098 0.005767348
000070 b9 66 a6 3d 61 a5 16 3e b2 cf 43 3e 51 b2 46 3e
       0.081250615 0.14711525 0.19122198 0.1940396
000080 f8 f8 c8 3d c2 88 02 bd ed 16 da bd 53 b5 b4 bd
       0.09813112 -0.031868704 -0.10648904 -0.08823647
000090 97 1f 00 bd d9 9d e6 3c 96 d1 64 3d 9a 00 1a 3d
       -0.031280126 0.02815144 0.05586394 0.03759823
0000a0 b0 29 4c bd 7c b2 b5 bc 16 da fe bb b8 2f 33 3b
       -0.049844444 -0.022179835 -0.0077774627 0.0027341675
0000b0 61 e5 3d bd cc 20 41 bc ac 68 25 bd 0e 9b ec bc
       -0.04636133 -0.011787605 -0.040383026 -0.02888253
0000c0 d2 b2 7a bc f5 8e 54 3d 73 c5 c9 3d ae 00 de 3d
       -0.015301423 0.051894147 0.098521136 0.108399734
0000d0 ab 9e a1 3c 9f fc 11 be cf ec 5c be b4 48 45 be
       0.01972898 -0.14256524 -0.2157471 -0.19266015
0000e0 2a 4e a8 bc 1e 1e 0c 3e aa da 2e 3e 48 ff b4 3d
       -0.020545084 0.13683364 0.17075601 0.088377535
0000f0 9a 65 91 bb 40 41 2a bd f5 8c 05 bd 6a 4b aa 3d
       -0.0044371607 -0.041566133 -0.03260513 0.08315165
000100 78 12 7b 3d 32 f1 25 3e 7e ce 09 3e 84 59 56 3d
       0.06129691 0.1620529 0.13457677 0.052331463
000110 28 1a cd bc 49 bb a5 bc 45 5c af 3b 0d da 7d 3c
       -0.025036886 -0.020230906 0.0053515756 0.015493882
000120 0c bb 89 bc df a5 d4 bd fc 1a df bd 74 3e e0 bc
       -0.016812824 -0.103832 -0.10893819 -0.02737353
000130 4f 37 10 3e 7c aa 95 3e cc a9 67 3e 51 fa c5 3d
       0.14083599 0.29231632 0.22623366 0.09666885
000140 6b 94 e1 bc 89 f1 56 be 3c 50 7d be e6 60 90 bd
       -0.027536592 -0.20990576 -0.24737638 -0.07049732
000150 31 60 3a 3c b0 d4 4e 3e c7 fe 52 3e 49 67 bd 3d
       0.011375473 0.20198321 0.20605002 0.09248216
000160 d6 3f bf bc 0b 22 87 bd 86 4e cf bc 9f c6 c5 3c
       -0.023345869 -0.0659829 -0.025305998 0.024142561
000170 c2 eb bc 3d 69 fa c4 3d 87 24 7a 3d 6a 40 81 3d
       0.09224655 0.096180744 0.06106999 0.06311114
000180 ca 11 d4 3d 48 1f 25 3e 06 32 75 3d 36 5b b4 bb
       0.103549555 0.16125214 0.05986216 -0.0055040373
000190 51 11 df bd c3 1d d3 be fa 13 eb be f1 ca 9f be
       -0.10891975 -0.41233644 -0.45913678 -0.3120952
0001a0 71 6b 12 be 8e e8 3b 3d 76 ca a0 3d 11 72 9f bc
       -0.14298798 0.04587608 0.07851116 -0.01946357
0001b0 95 e8 d3 bd b7 77 18 be c4 33 02 be 24 fe 01 bd
       -0.10347096 -0.14889418 -0.1271506 -0.031736508
0001c0 4e 10 59 3d e9 96 94 3d 2b 87 1c bd ff 80 13 be
       0.052994065 0.07255346 -0.038214844 -0.14404677
0001d0 6d 26 53 be 96 e0 76 be 18 53 99 be 71 9e 59 be
       -0.20620127 -0.2410911 -0.29946208 -0.21251847
0001e0 50 a0 e9 bd 8f eb ae be a7 62 b6 be 60 4a 89 be
       -0.1140753 -0.34164092 -0.3562214 -0.26814556
0001f0 5d 14 13 be 03 40 ac bd 03 2c 1f bd 42 de 4a bd
       -0.14363237 -0.08410647 -0.038860332 -0.049528368
000200 1c 7e 17 3c 10 18 51 3c d9 e5 aa bc 93 c8 a6 bb
       0.009246375 0.012762085 -0.020861553 -0.0050898283
000210 ce 33 d5 3c 5a 70 9c 3b 24 52 d6 bd 3f 62 ab be
       0.026025679 0.0047741355 -0.10464886 -0.33473393
000220 57 99 eb be 68 37 0e bf ba 7b 1a bf 6c 63 bb be
       -0.46015427 -0.55553293 -0.6034504 -0.3659929
000230 0c 17 b3 bc f4 62 47 bb 09 b1 8d 3d ca d9 9b 3d
       -0.021861576 -0.003042397 0.069185324 0.07609899
000240 4c 4e ec 3c 76 d8 07 be d9 23 be bd aa 76 ea 3c
       0.028845929 -0.13266167 -0.09284181 0.028621037
000250 56 31 70 3e 9c 27 93 3e 2f 53 26 3e 96 07 21 3d
       0.2345632 0.28741157 0.1624267 0.039313875
000260 86 2f 11 3d ab 1d 89 3d 2b 41 a6 3d 40 c6 ce bd
       0.035445713 0.06695112 0.081178986 -0.10096407
000270 41 35 61 be 94 62 bf be af 3c eb be 66 46 8a be
       -0.21992971 -0.37379897 -0.45944735 -0.27006835
000280 6a f9 f5 3d d8 a3 b1 3e 18 32 f4 3e b3 16 c5 3e
       0.120104626 0.34695315 0.47694468 0.3849388
000290 e6 4d b9 3d 63 bf 88 be ec f4 6c be 68 dc c3 3b
       0.09048061 -0.26708516 -0.23140305 0.005977202
0002a0 f5 5d 86 3e c6 77 92 3e 9f 53 5a 3d d2 e1 2f be
       0.2624356 0.28607005 0.053302404 -0.17175987
0002b0 42 f2 22 be a9 fc fe 3c ce ed 82 3e 13 2d bc 3e
       -0.15912727 0.031126337 0.25572056 0.3675314
0002c0 84 66 ad 3e e0 f3 10 3e 10 c5 c7 3c 08 10 98 3c
       0.33867276 0.14155531 0.024385959 0.018562332
0002d0 46 22 86 3e 0d 09 00 3f 20 57 18 3f 2a 7e e2 3e
       0.26198024 0.5001381 0.5950794 0.4423688
0002e0 54 43 09 bd 58 3b db be ca 3b b6 be 8d ac 9c bd
       -0.033511475 -0.42818713 -0.3559249 -0.07650099
0002f0 26 c4 02 3e 97 90 64 3d e4 55 71 be 91 52 ea be
       0.12770137 0.055801954 -0.23567921 -0.45766118
000300 05 0d da be 89 0c 3d be 1a bb c8 3d f9 ef c1 3e
       -0.42588058 -0.18461813 0.09801312 0.37878397
000310 16 14 ef 3e 82 d5 ab 3e 0d 53 aa 3e e5 83 37 3e
       0.46695012 0.3356133 0.33266488 0.17921408
000320 da 31 a0 3e c1 45 d0 3e 4b 28 de 3e 8f b6 9d 3e
       0.31288034 0.40678218 0.43390116 0.30803344
000330 83 19 1f be 1a 10 dd be 94 a1 9f be 9e fd 35 bd
       -0.15537076 -0.43176347 -0.31177962 -0.04443132
000340 cf 83 a9 3d 0e 44 d9 bc bc cf 67 be e5 39 a3 be
       0.082770936 -0.026521709 -0.22637838 -0.31880108
000350 50 7a 93 be 33 73 5d be 62 92 11 be 20 a6 84 bd
       -0.28804255 -0.21625976 -0.14215997 -0.06476998
000360 7a 50 fd 3b 69 bb 43 3d 70 2b 56 3e 7e 3d b0 3d
       0.007730541 0.04778615 0.20915008 0.08605479
000370 0d a6 83 3e bb e5 5a 3e 60 83 41 3e ea 1f 3a 3e
       0.25712624 0.21376698 0.18897772 0.18176237
000380 b8 37 42 bd 34 14 59 be c1 b5 05 be 57 11 16 3c
       -0.04741642 -0.21199113 -0.13057615 0.009159408
000390 60 c7 aa 3c a0 1a 39 bd 74 60 d7 bc 7f 48 2a 3e
       0.020847023 -0.045191407 -0.02629111 0.16629218
0003a0 aa a1 9e 3e 45 f7 54 3e 2a a2 41 bd 32 ce b5 be
       0.30982715 0.20797451 -0.047273792 -0.35508877
0003b0 d5 3a da be 18 ac 4a be 31 3a 83 3c fc 6f 83 bc
       -0.4262301 -0.19792211 0.016018959 -0.01604461
0003c0 d4 47 34 3e 7a ca f0 3d 1a d1 02 3e a0 4f 81 3e
       0.17605525 0.11757369 0.12775078 0.25256062
0003d0 10 af 71 3e 08 91 a6 3c 8f 20 af bc 5e 7d d6 bd
       0.23601937 0.020332828 -0.02137783 -0.10473131
0003e0 44 64 6a be f0 b1 8a be 6a b9 6d bd 22 1f cc 3e
       -0.22889811 -0.2708888 -0.058038153 0.39867502
0003f0 d7 9a 3a 3f 0a bf 1d 3f d0 44 59 3e 4f 90 7b be
       0.72892517 0.6161963 0.21217656 -0.24566768

exp_avg f4 [8, 1, 11, 11]
000000 d7 67 d0 ba 44 1f 50 bb 99 2f 5e bc 8c 08 93 bc
       -0.0015900087 -0.0031756917 -0.013561153 -0.017948411
000010 39 c6 aa bc 24 cb 59 bc 81 93 99 bc d3 73 0f bc
       -0.020846473 -0.013293061 -0.018747093 -0.008755642
000020 78 38 a6 bb eb 8e 8a bb 35 e2 3b bb c4 bd 73 bc
       -0.0050726496 -0.004228463 -0.0028668765 -0.014876787
000030 c7 2c 55 bc 84 ef 9b bc 32 15 b4 bc 3e f6 be bc
       -0.013011164 -0.019035108 -0.021982763 -0.023310777
000040 eb a5 72 bc 29 36 b1 bc dd bc 55 bc b8 95 04 bc
       -0.014810066 -0.02163227 -0.013045517 -0.008092336
000050 d7 24 bf bb 5c c9 a4 bb 03 ae ba bc d9 fd 95 bc
       -0.005833249 -0.0050288867 -0.022788053 -0.01830952
000060 e8 24 a7 bc b7 28 b3 bc 0d ac a6 bc 63 46 69 bc
       -0.02040334 -0.02187 -0.020345712 -0.014237973
000070 d9 2a 9f bc d8 03 35 bc 87 df 55 bb 24 db 41 3a
       -0.019429611 -0.01104828 -0.0032634453 0.000739502
000080 46 04 93 3a 9c e6 04 bd 25 04 df bc be 43 dd bc
       0.0011216484 -0.03244649 -0.027223656 -0.027009841
000090 f6 7a e4 bc 2d 9c db bc 6b a9 a3 bc 29 34 d3 bc
       -0.027890664 -0.026807869 -0.019978246 -0.025781708
0000a0 07 d6 71 bc a9 d8 b6 bb 66 d7 3d 39 f3 3e 7a 3a
       -0.014760501 -0.005580027 0.00018104687 0.00095461233
0000b0 9b 2c 19 bd c4 56 00 bd bf 6a fe bc 62 63 03 bd
       -0.037396055 -0.031332746 -0.03105676 -0.0320772
0000c0 89 ae fe bc d7 9e c9 bc a8 a3 ec bc 6d cb 88 bc
       -0.031089084 -0.024611874 -0.028886631 -0.016698563
0000d0 62 33 12 bc 36 26 23 bb 1a 94 1a ba 87 78 f5 bc
       -0.008923383 -0.0024894602 -0.00058967026 -0.029964698
0000e0 76 e7 ca bc da c3 c9 bc aa 62 cc bc 0f 70 d3 bc
       -0.024768572 -0.024629522 -0.02494939 -0.02581027
0000f0 e7 34 90 bc 26 ca b5 bc a7 52 36 bc 28 f2 94 bb
       -0.01760335 -0.022191118 -0.011128104 -0.004545469
000100 9b b3 85 37 6a f4 80 3b fd 25 44 bc 83 86 13 bc
       1.593847e-05 0.0039353864 -0.011971948 -0.009004238
000110 db 97 34 bc a4 3f 3e bc 53 26 0f bc 75 ef 99 3a
       -0.011022533 -0.011611853 -0.008737165 0.0011744337
000120 6a 0e e7 ba 07 29 d1 3b bb b3 1e 3c 92 97 3b 3c
       -0.0017628197 0.0063830647 0.009686406 0.011449711
000130 9a 9d 70 3c 7d 84 00 3c cf 64 bf 3b 7c 09 69 3a
       0.014686013 0.007844088 0.0058408747 0.0008889658
000140 db e6 01 3b 15 8e ae 3b df ce 8b 3c 1f 4f 52 3c
       0.0019821438 0.005326996 0.017066417 0.012836247
000150 70 4a a8 3c df 38 be 3c ef 7d bc 3c 70 a5 cd 3c
       0.020543307 0.023220478 0.023009269 0.0251033
000160 92 ed c6 3c dd cb 96 3c ba a1 45 3c b6 68 39 3c
       0.024283204 0.018407756 0.012062484 0.011316469
000170 ab 29 8a 3c c0 4e d7 3c e9 57 bc 3c 77 0f ef 3c
       0.016865572 0.026282668 0.022991138 0.029182179
000180 b3 e8 06 3d 37 19 09 3d 4a 54 13 3d e3 d9 06 3d
       0.032936763 0.033471312 0.035969056 0.032922637
000190 82 5b d4 3c 10 fc 87 3c 85 b6 83 3c 5c 2e 93 3c
       0.02592254 0.016599685 0.016078243 0.017966442
0001a0 8b c1 e7 3c 27 b3 c8 3c e8 56 f4 3c fe cf 0e 3d
       0.02829053 0.024499489 0.029826596 0.034866326
0001b0 db 85 17 3d a5 8a 23 3d 9c 83 19 3d 03 bc f6 3c
       0.03699289 0.039927144 0.037479028 0.030118948
0001c0 4f 88 b0 3c 5f 45 95 3c dd b1 b1 3c 23 ef 02 3d
       0.021549372 0.018221555 0.021691257 0.03196634
0001d0 e1 73 ef 3c 61 f5 0b 3d 06 60 24 3d 61 75 30 3d
       0.02923006 0.03416956 0.040130638 0.04308069
0001e0 79 4d 3a 3d b4 cc 2e bc a9 70 f4 bb 3d 0f 2e bb
       0.04548404 -0.010668922 -0.007459719 -0.0026559376
0001f0 d5 3b 12 bc 72 a3 0d bc 7f 0b 32 bc ac 7c c6 bc
       -0.008925398 -0.008644925 -0.010866999 -0.02422937
000200 25 d0 37 bd f4 c2 56 bd ba 94 8d bd 3b 9f a8 bd
       -0.044876236 -0.052432016 -0.06913133 -0.08233496
000210 5c 4d d9 3a fe 60 08 3c e4 d5 35 3c 1d 0b 21 3b
       0.0016578841 0.008323906 0.011098359 0.0024573274
000220 f4 71 36 39 03 de 02 bb 19 c2 2b bc 07 ed f5 bc
       0.00017399323 -0.0019968755 -0.010483288 -0.03002025
000230 9d bf 08 bd 93 00 50 bd 4b 86 86 bd 41 9d de 3b
       -0.03338586 -0.050781798 -0.06568583 0.0067936485
000240 67 54 1e 3c cb 27 ff 3b 5b 1f 43 bb e9 70 be bb
       0.009663678 0.007786726 -0.0029773328 -0.0058118
000250 f4 0d d9 bb 32 74 85 bc c2 eb 01 bd cf c0 17 bd
       -0.006623978 -0.016290758 -0.031718977 -0.03704911
000260 f8 49 61 bd 2a 03 8c bd 10 0e 2c 3c 85 84 f4 3b
       -0.055002183 -0.06836541 0.0105014 0.0074620866
000270 43 d7 12 3b ea 09 15 bc 47 33 0c bc f0 1e 2a bc
       0.0022406138 -0.009096602 -0.008557147 -0.010383353
000280 45 02 a6 bc 85 a2 2a bd 32 39 4c bd ce b3 8d bd
       -0.020264754 -0.041658897 -0.049859233 -0.06919061
000290 7b 3c a3 bd 7b 81 d3 3c 3e 9d 84 3c b7 bf 63 3c
       -0.0797052 0.025818577 0.01618826 0.013900689
0002a0 7c c5 d8 3b c5 cb 29 3c c7 ae 3f 3c 9c 79 a0 ba
       0.006615339 0.010363524 0.011699385 -0.0012243274
0002b0 df 33 df bc 27 2a 2c bd bc 51 83 bd 92 88 99 bd
       -0.027246414 -0.042032387 -0.06412074 -0.07496752
0002c0 d8 7f 16 3d d8 89 d1 3c 6a da d0 3c 79 5c b7 3c
       0.036743015 0.025578424 0.025494773 0.022382962
0002d0 68 d4 05 3d d5 dd 16 3d 8a 53 b4 3c d0 4f 10 bb
       0.03267327 0.03683265 0.02201249 -0.0022020228
0002e0 31 15 6e bc fc 24 11 bd af a3 3f bd c4 23 01 3d
       -0.01453142 -0.03543566 -0.04678696 0.03152825
0002f0 e7 01 a9 3c 3d 19 b8 3c e7 26 c7 3c b4 cf 0b 3d
       0.02063079 0.022472972 0.024310542 0.034133628
000300 62 a0 1a 3d 5a 46 d8 3c 52 94 12 3c e2 c3 8d 3a
       0.03775061 0.026400734 0.008946495 0.0010815824
000310 33 b8 9a bc 09 32 02 bd 89 99 06 3d ee 26 d6 3c
       -0.018886661 -0.031786 0.032861266 0.02614161
000320 6f 5f e2 3c 67 1a d8 3c bc 00 06 3d 5c 13 01 3d
       0.027633397 0.026379777 0.032715544 0.031512603
000330 4d 38 b5 3c 84 ea 56 3c 06 8f 54 3c d7 7b 74 bb
       0.022121573 0.013117436 0.012973553 -0.003730526
000340 b5 69 b3 bc 0d 96 14 3d c8 71 08 3d 84 e1 09 3d
       -0.021900991 0.036275912 0.033311635 0.033662334
000350 75 56 f0 3c 51 30 f0 3c f5 2b e7 3c 28 24 b9 3c
       0.0293381 0.029319914 0.028219203 0.022600248
000360 9e 8e 85 3c 82 fc 72 3c 05 fc 68 bb 86 66 b3 bc
       0.016303357 0.01483071 -0.0035550606 -0.021899473
000370 8e c5 00 3d 16 71 f6 3c 03 dd 00 3d 43 bc c4 3c
       0.031438403 0.03008322 0.031460773 0.024015551
000380 fe d2 d6 3c 87 99 f9 3c 7f 02 d7 3c c5 36 9c 3c
       0.026223656 0.030468715 0.026246307 0.019069085
000390 ec 46 74 3c 4f cf bd bb d6 df ba bc 8b 2a d1 3c
       0.014909487 -0.0057925354 -0.022811811 0.025532981
0003a0 73 a8 ba 3c ee 35 c2 3c 18 70 a0 3c 8e c8 d4 3c
       0.022785401 0.023707356 0.0195847 0.025974538
0003b0 c6 32 07 3d b5 a6 fe 3c c1 9d b7 3c 44 61 86 3c
       0.033007406 0.031085351 0.02241409 0.016403802
0003c0 7c 7a 23 bb 27 7e 8a bc a8 c0 51 3d d8 20 3a 3d
       -0.0024944833 -0.016905857 0.051209122 0.04544148
0003d0 af c7 60 3d b7 c5 73 3d 1a 45 63 3d c6 bb 74 3d
       0.054877933 0.059514727 0.055485822 0.059749387
0003e0 ec 21 90 3d 3a 79 95 3d c9 3c 88 3d 21 8f 75 3d
       0.0703772 0.07298513 0.06652219 0.05995095
0003f0 b7 7a 57 3d eb 10 36 3d 0b 6b 1b 3d 40 19 47 3d
       0.052607264 0.044449728 0.03794388 0.048608065

exp_avg_sq f4 [8, 1, 11, 11]
000000 d9 33 33 3d 28 cc 19 3d 4b 04 0f 3d 0d af 04 3d
       0.043750618 0.037548214 0.034916203 0.032393504
000010 73 4a fd 3c 8f 41 fc 3c 1f 33 f2 3c 9e 4f e5 3c
       0.03091929 0.03079298 0.029565392 0.027992066
000020 96 95 e0 3c 96 b0 f1 3c 2c d4 09 3d 8f 72 06 3d
       0.027415078 0.029503148 0.03364961 0.032824095
000030 63 c2 d8 3c db e7 bc 3c 27 50 a5 3c 84 ff 9a 3c
       0.026459878 0.023059776 0.020179821 0.018920667
000040 30 6d 9f 3c 20 25 9e 3c 1f 42 98 3c 7a 81 98 3c
       0.019461244 0.019304812 0.018586216 0.018616427
000050 b0 89 a8 3c 4c 65 c8 3c d7 1b ce 3c 70 88 9c 3c
       0.020573467 0.024462365 0.02515976 0.019108027
000060 2e 1a 82 3c 89 2a 5b 3c dc aa 47 3c 7e d3 4f 3c
       0.015881624 0.01337684 0.012186732 0.012684701
000070 50 6d 4c 3c 43 c5 44 3c 17 c6 53 3c 25 2b 7e 3c
       0.012477234 0.0120099215 0.012925646 0.015513216
000080 32 ec 9a 3c 87 ef a9 3c 0c 22 80 3c d8 95 50 3c
       0.018911455 0.020744098 0.015641235 0.012731038
000090 46 89 26 3c e4 70 07 3c d6 4f 05 3c d2 80 01 3c
       0.0101645645 0.008266661 0.00813671 0.007904248
0000a0 46 33 f9 3b 94 40 19 3c 03 17 58 3c db 49 89 3c
       0.007604989 0.0093537755 0.01318908 0.01675885
0000b0 68 93 9d 3c fe 60 71 3c 7a 2c 46 3c 34 cc 21 3c
       0.019235328 0.014732597 0.012095565 0.009875346
0000c0 bf 80 06 3c 21 52 02 3c 66 e6 f6 3b 69 81 e6 3b
       0.008209406 0.007954151 0.00753479 0.00703447
0000d0 11 53 0d 3c 01 05 54 3c 84 a1 8e 3c fe f9 98 3c
       0.008625762 0.012940646 0.017411001 0.018673893
0000e0 41 09 73 3c b2 10 50 3c 0f aa 31 3c 30 2f 19 3c
       0.014833749 0.012699293 0.010843768 0.009349629
0000f0 19 e6 0c 3c e8 ea 04 3c 7e 58 09 3c a5 1a 30 3c
       0.008599781 0.008112647 0.008382915 0.01074854
000100 0a ae 74 3c 4a 5b 9d 3c 6b 4e 82 3c 5f bd 41 3c
       0.014934072 0.01920857 0.015906533 0.011824935
000110 28 ca 1b 3c 48 c9 00 3c 6a 5a e0 3b 9b ca e9 3b
       0.009508647 0.007860489 0.0068467157 0.007134748
000120 73 77 00 3c 9b 9c 0f 3c 34 fa 2f 3c 5e 34 5d 3c
       0.007840979 0.008765365 0.010740805 0.013501255
000130 cc cb 8b 3c d8 b7 85 3c a8 e4 3f 3c 26 34 1b 3c
       0.017064951 0.016323015 0.011712231 0.009472882
000140 fa 11 09 3c 34 9b 02 3c db e7 0c 3c 5d 5b 1d 3c
       0.008366102 0.007971574 0.0086002005 0.009604302
000150 3c 6a 28 3c fd 92 3e 3c 01 27 69 3c fc 82 97 3c
       0.0102792345 0.011631724 0.014230491 0.018495075
000160 75 bf af 3c c2 10 8b 3c 17 bd 77 3c 6d d3 70 3c
       0.021453599 0.016975764 0.015120766 0.014698845
000170 18 b2 6c 3c 91 85 65 3c 8b 18 66 3c cc 91 73 3c
       0.014446758 0.0140088955 0.014043937 0.014866304
000180 f7 98 88 3c 8d 16 a3 3c 12 c9 cc 3c f3 bc f6 3c
       0.016674502 0.019908214 0.024998222 0.030119395
000190 6b ce d1 3c d6 2f c1 3c 16 94 c1 3c 55 37 c7 3c
       0.025611123 0.02358238 0.023630183 0.024318377
0001a0 d9 af c4 3c 4f 2b bf 3c a2 56 c1 3c 89 68 d0 3c
       0.024009632 0.02333608 0.02360088 0.025440471
0001b0 c1 8a ec 3c e3 5d 0c 3d 78 5f 25 3d ef 89 14 3d
       0.028874757 0.034269225 0.04037425 0.036264356
0001c0 75 88 0d 3d 11 67 0d 3d 72 ab 10 3d 9c e2 0f 3d
       0.034553964 0.03452212 0.035319753 0.03512822
0001d0 ec 28 0d 3d 0b 6f 0f 3d b5 1e 1a 3d 4b 29 2a 3d
       0.034462854 0.03501801 0.03762694 0.041543286
0001e0 2f 15 40 3d a1 e0 f2 3c 97 88 ce 3c 79 0b c2 3c
       0.046895202 0.029648127 0.025211615 0.023687111
0001f0 09 b9 c6 3c 5d b9 d3 3c ef 6b e5 3c ce 8d e5 3c
       0.024258154 0.025845224 0.028005568 0.02802172
000200 98 a3 df 3c 2e 14 d4 3c f3 79 da 3c 2c 0a f6 3c
       0.027299687 0.025888529 0.026669478 0.030034147
000210 e8 bc d2 3c a1 95 be 3c ab ca b5 3c 28 3d a8 3c
       0.025724843 0.023264708 0.022191366 0.020536974
000220 47 af a4 3c 75 a3 ac 3c dc 50 a6 3c 4a 01 b0 3c
       0.02010311 0.021074036 0.020302229 0.02148499
000230 c3 33 bc 3c ce 30 cb 3c 82 0f e2 3c a5 55 b8 3c
       0.0229739 0.024803545 0.027595285 0.022501776
000240 90 18 97 3c 05 3b 7e 3c b5 a7 69 3c eb 73 7f 3c
       0.01844433 0.015517001 0.014261176 0.015591602
000250 5d 41 91 3c 24 c5 88 3c 16 7f 83 3c 58 f1 8f 3c
       0.017731363 0.016695566 0.01605181 0.017571136
000260 24 48 b3 3c 50 b9 d8 3c e6 8a 9f 3c 0f 45 6c 3c
       0.021884985 0.026455551 0.019475412 0.014420762
000270 ff cf 57 3c 35 72 6d 3c 9b ed 76 3c 65 5b 7d 3c
       0.013172149 0.014492561 0.015071298 0.015463685
000280 b6 48 72 3c 0e 58 69 3c 43 da 7d 3c 59 c2 a1 3c
       0.014787843 0.014242185 0.015493932 0.019745992
000290 d8 ea cd 3c 77 0c 90 3c 1f 11 5e 3c 07 23 3b 3c
       0.025136396 0.017584069 0.013553887 0.011421925
0002a0 92 bf 1b 3c 85 87 20 3c 7b 5c 53 3c 13 e4 33 3c
       0.009506123 0.009797935 0.012900467 0.01097967
0002b0 6c 67 3d 3c a7 0c 80 3c b8 59 99 3c 0c 01 b6 3c
       0.011560302 0.015631033 0.018719539 0.022217296
0002c0 54 db 8d 3c 9b 2e 56 3c 75 e9 24 3c 6b ba 15 3c
       0.017316498 0.013072635 0.010065426 0.009138684
0002d0 64 a9 80 3c ee 45 b6 3c cc 44 7e 3c d0 d3 28 3c
       0.015705772 0.022250142 0.015519332 0.010304406
0002e0 ba 05 78 3c 6e ad 9e 3c d8 4b b9 3c 5d 66 75 3c
       0.015138084 0.019369807 0.022619173 0.014978019
0002f0 18 58 3d 3c cc b1 23 3c a1 8c 04 3c e5 6a 13 3c
       0.011556648 0.009991121 0.008090169 0.008997654
000300 88 69 38 3c 7c 98 ec 3b 1c 38 e0 3b ec f1 50 3c
       0.011255629 0.007220326 0.0068426263 0.012752991
000310 5a 61 8d 3c e2 d1 a7 3c 72 2d 9b 3c 1e 8c 6d 3c
       0.017258335 0.020485822 0.018942568 0.014498739
000320 94 80 5f 3c 84 88 5f 3c 08 0e 40 3c fb 97 36 3c
       0.013641495 0.013643388 0.011722095 0.011144633
000330 cf 3b 3a 3c 5b a5 45 3c 00 a1 5f 3c 72 01 8b 3c
       0.011366799 0.01206335 0.013649225 0.016968463
000340 d9 36 b0 3c 4c 90 d3 3c ed 7b ab 3c 8e 52 a0 3c
       0.021510528 0.025825642 0.020933116 0.019570615
000350 60 ab b1 3c 4d 71 ba 3c fa 16 b3 3c 25 29 a1 3c
       0.021688163 0.022759104 0.021861542 0.01967294
000360 36 03 8c 3c ef dc 8c 3c 65 85 ae 3c bb dd dd 3c
       0.017091375 0.017195193 0.021303842 0.027083268
000370 42 16 08 3d d1 66 f7 3c 02 b5 e9 3c 01 36 e0 3c
       0.03322435 0.030200394 0.028528694 0.027369501
000380 7c db db 3c 6d a2 d6 3c 1b 09 cd 3c 6a d0 cc 3c
       0.026838057 0.026200498 0.025028756 0.025001723
000390 ec ff da 3c 8f 54 f4 3c c6 3f 0d 3d 8e 2a 32 3d
       0.026733361 0.029825477 0.034484647 0.043497615
0003a0 94 9c 25 3d 10 79 23 3d 9f 7d 21 3d b5 2d 22 3d
       0.040432528 0.039910376 0.039426442 0.03959437
0003b0 6f d9 21 3d ed a4 1e 3d 26 26 1a 3d 07 c8 1a 3d
       0.039514 0.038731504 0.037634037 0.037788417
0003c0 78 42 24 3d 7f 5f 36 3d 00 92 3c 3d fa c6 27 3d
       0.040102452 0.044524666 0.046037674 0.040961243
0003d0 30 bb 19 3d e1 23 0a 3d 04 99 fb 3c 9d c6 fa 3c
       0.03753203 0.033725623 0.030712612 0.030612284
0003e0 b7 1b f8 3c 8f a0 01 3d 2b 15 11 3d 9e 2a 26 3d
       0.030286653 0.03164726 0.035420578 0.040567987
0003f0 ea 3a 43 3d ba 3e 0a 3d f4 54 ed 3c f4 8a d1 3c
       0.047663607 0.033751227 0.028971173 0.025578953

exp_avg f4 [32, 8, 11, 11]
000000 08 d8 0a bc 96 06 1b bc 11 29 85 bb 8a 8b 06 3b
       -0.008474357 -0.009462019 -0.0040637334 0.002052995
000010 e0 86 85 3b d1 00 c8 3b 6e b2 ce ba 00 f8 3f bb
       0.0040749162 0.006103613 -0.0015769729 -0.0029292107
000020 3c c2 61 3b b4 a0 10 3c 2f f2 15 39 84 92 e4 bb
       0.0034448048 0.008827377 0.00014299968 -0.006975474
000030 af 09 09 bc 3b b7 2e bb 64 47 3f 3b 66 c1 b2 3b
       -0.008364125 -0.0026659507 0.002918684 0.005455184
000040 4b cc e6 3b f4 84 58 ba ad d2 06 bb eb 2b 83 3b
       0.0070433966 -0.00082595577 -0.002057235 0.004003038
000050 8d 61 19 3c e3 c6 84 3a e2 1e 8a bb 17 f5 b3 bb
       0.009361637 0.0010130074 -0.0042151073 -0.0054918635
000060 7d 32 f0 b9 62 28 87 3b 19 e9 cb 3b d0 7c ee 3b
       -0.00045813984 0.004124687 0.0062228558 0.0072780624
000070 10 74 9f b9 31 2e ab ba 9c d9 94 3b f9 f3 1e 3c
       -0.00030413317 -0.0013060031 0.0045425426 0.009701722
000080 89 68 8c 3a 86 d0 ab ba 9e 32 5a bb ae 81 c3 3a
       0.0010712306 -0.001310841 -0.003329433 0.0014915967
000090 6d 2e cc 3b b3 80 f0 3b 38 4c 08 3c 96 c7 69 3a
       0.0062311203 0.007339561 0.008318953 0.0008917985
0000a0 8a f5 be b8 a7 e7 bb 3b 4d 6f 32 3c f2 4a cc 3a
       -9.105641e-05 0.005734402 0.010890794 0.00155863
0000b0 90 24 3a 3a 1f e3 c3 ba 08 ec 2b 3b e4 bb fc 3b
       0.0007100785 -0.0014945007 0.0026233215 0.007712828
0000c0 48 a3 ff 3b a5 2d 14 3c 3d 13 f3 3a 66 90 e4 3a
       0.007801447 0.009044086 0.0018545162 0.0017438054
0000d0 76 2e ec 3b c5 f1 3a 3c df 65 fe 3a a1 bf 22 3b
       0.007207687 0.011410181 0.0019409022 0.0024833458
0000e0 c2 eb 30 ba 58 3a 41 3b f2 d6 f2 3b 1b f8 ee 3b
       -0.0006748998 0.0029484238 0.0074108774 0.00729276
0000f0 d2 0c 0b 3c 4c 8b 17 3b e0 13 41 3b 73 69 1d 3c
       0.008486943 0.00231238 0.002946131 0.009607661
000100 f5 96 51 3c d3 5a 1f 3b 09 74 53 3b 4b 68 f9 38
       0.012792339 0.002431561 0.0032265207 0.00011892671
000110 47 84 1e 3b 5a 4b cc 3b 2f b0 c6 3b 97 39 f6 3b
       0.002418773 0.0062345685 0.006063483 0.0075141895
000120 c3 95 00 3b a4 01 8a 3b c9 44 38 3c b4 b5 59 3c
       0.0019620515 0.0042116214 0.011246868 0.01328795
000130 f1 c9 42 3b c5 cd 36 3b ff 15 05 ba f5 6e a1 3a
       0.0029722417 0.0027893644 -0.0005076825 0.0012316393
000140 15 b6 80 3b 78 c3 84 3b ed fc b7 3b 75 08 8a 3a
       0.003927956 0.004051622 0.005614868 0.0010531085
000150 d8 88 6d 3b c2 03 3b 3c a2 ad 54 3c e4 57 35 3b
       0.0036244895 0.01141447 0.01298085 0.0027670795
000160 9d b2 e9 3a 81 48 cc ba 9e 9a 1b b9 01 40 08 3b
       0.001782972 -0.0015585573 -0.00014839551 0.0020790102
000170 bf 43 f4 3a bc f4 82 3b 88 cb a3 b9 6e b1 44 3b
       0.0018635913 0.00399646 -0.00031241425 0.0030012983
000180 5c 59 24 3c 62 93 3e 3c 1c 11 90 3a e2 01 9f 3a
       0.010031071 0.0116318185 0.0010991427 0.0012131298
000190 8d 6e b9 ba ee d2 f7 b8 83 2b 13 3b 5f 8b d3 3a
       -0.0014147327 -0.000118171665 0.0022456355 0.0016139558
0001a0 a0 b4 84 3b 69 0c 06 36 85 08 26 3b e7 4d 16 3c
       0.0040498525 1.997478e-06 0.0025334668 0.009173847
0001b0 df 5e 2a 3c 8f 29 40 39 27 dc ad 39 1a bf ba ba
       0.010398596 0.00018326029 0.00033161158 -0.0014247627
0001c0 fa 70 9a 3a 16 86 70 3b f6 41 42 3b 75 ce 93 3b
       0.0011782937 0.0036701015 0.0029641367 0.0045106956
0001d0 54 28 85 3a 00 b5 5c 3b e0 d4 0f 3c 94 40 0c 3c
       0.0010159113 0.003367722 0.008778781 0.0085603185
0001e0 88 24 d4 ba 86 6c 0d 3b d5 87 a2 3b 0e a0 ab 3b
       -0.0016185204 0.0021579578 0.00496004 0.005237586
0001f0 b9 34 84 3b 15 54 7c 3b 66 80 4e 3b e9 21 89 3a
       0.0040346053 0.0038502265 0.0031509637 0.0010462377
000200 1a 11 2a 3b f3 8e cb 3b 12 59 a9 3b a1 b2 06 3a
       0.0025950135 0.0062121092 0.0051680887 0.0005138312
000210 61 15 e6 3a c7 32 99 3b 12 cf a7 3b 84 0e 9c 3b
       0.0017553979 0.0046752426 0.0051211203 0.0047624726
000220 62 85 95 3b 93 42 67 3b f8 66 98 3a 0f 78 25 3b
       0.0045630196 0.0035287484 0.0011627367 0.0025248562
000230 55 e2 cc 3b da f1 b0 3b 74 23 64 3a 10 2c 13 3a
       0.006252567 0.0053999247 0.00087027927 0.0005614171
000240 63 11 31 3b 2a 75 5e 3b ca 05 64 3b 88 63 7e 3b
       0.002701842 0.0033944347 0.003479349 0.003881665
000250 90 4f 30 3b 48 7b 8a 39 c0 53 e1 3a 17 da 9a 3b
       0.0026902892 0.00026413263 0.0017191097 0.0047257054
000260 f5 87 82 3b 0b a9 ff b9 e2 da 48 39 e0 d5 6c 3a
       0.0039834925 -0.00048763337 0.00019155027 0.00090345554
000270 a5 c0 ad 3a b5 db 03 3b 78 6a 30 3b f3 28 ea 3a
       0.0013256265 0.002011997 0.002691893 0.0017864987
000280 55 94 00 ba 42 46 da 39 3f ed 38 3b 44 7f 06 3b
       -0.00049049157 0.00041632546 0.0028217582 0.0020522634
000290 3c bb 11 bb 0d 93 05 3a f1 f6 d0 b9 47 75 21 ba
       -0.0022236845 0.00050954596 -0.00039856837 -0.0006159138
0002a0 a6 8e 37 3a d4 d7 03 3b ac 9b 38 3a 2a 52 94 ba
       0.0007002152 0.0020117657 0.000704224 -0.0011315991
0002b0 a4 bd 30 b9 49 bd bc 3a c4 d4 c5 38 fb 83 91 bb
       -0.00016855315 0.0014399673 9.433323e-05 -0.004440782
0002c0 64 a4 b2 39 83 56 01 bb ae 15 17 bb 16 83 6a ba
       0.00034073286 -0.0019735403 -0.0023053694 -0.0008945925
0002d0 c7 88 4f 3a 54 58 0a b9 41 36 8c ba 97 8b a7 b8
       0.0007916805 -0.0001319361 -0.0010697321 -7.989181e-05
0002e0 71 55 28 3a 7a 17 b1 ba b0 db cb bb ab 69 02 3a
       0.0006421423 -0.0013511025 -0.006221257 0.0004974852
0002f0 b2 20 37 bb 2b 96 4a bb 4b a2 fc ba 1a ab 41 3a
       -0.0027943072 -0.003091226 -0.0019274441 0.0007387862
000300 2b 9c 07 3a ce f8 85 39 9f 34 ad 3a 73 64 07 3b
       0.0005173112 0.0002555311 0.0013214535 0.0020659238
000310 56 e1 a0 ba f4 9b d3 bb 9c 8a d8 39 1a 32 1f bb
       -0.0012274187 -0.0064578 0.00041302003 -0.0024291337
000320 84 de 81 bb 08 c4 27 bb 7c eb 16 3a 81 6a c9 3a
       -0.0039632935 -0.0025599021 0.0005757136 0.0015366824
000330 63 1a fe 3a 6c bf 63 3b 17 30 8b 3b 4e e2 46 3a
       0.0019386526 0.0034751548 0.004247676 0.00075868226
000340 30 ef a2 bb 41 aa 80 3a e3 78 f0 ba d5 1e 77 bb
       -0.004972361 0.0009816365 -0.0018346574 -0.0037707586
000350 69 a9 5c bb 41 67 46 b7 d0 26 0d 3b ad 09 58 3b
       -0.0033670312 -1.182576e-05 0.0021538027 0.0032964752
000360 29 0a af 3b 19 74 ce 3b 31 7c 26 3b ac eb 61 bb
       0.0053417874 0.006300461 0.0025403614 -0.0034472747
000370 ca 47 cf 3a 69 58 40 b8 87 c9 0f bb 46 c0 36 bb
       0.0015814241 -4.5858706e-05 -0.0021940188 -0.00278856
000380 97 b1 fb 38 3e 67 20 3b 4b 22 88 3b 82 44 dd 3b
       0.00012001691 0.00244756 0.0041544787 0.0067525515
000390 d6 19 01 3c e1 e3 87 3b 04 96 02 bb d0 15 a8 3a
       0.007879695 0.0041470383 -0.0019925842 0.0012823883
0003a0 b0 68 58 3a 7f f1 89 ba d7 ab 24 bb d0 54 98 ba
       0.0008255346 -0.0010524242 -0.0025126839 -0.0011621956
0003b0 19 8b 39 3a bc 95 01 3b e9 57 86 3b b6 88 af 3b
       0.0007077917 0.0019773087 0.004099835 0.0053568734
0003c0 7c 27 15 3b 1a 7a 40 bb f8 d3 91 bb 7b 4a ff bb
       0.002275913 -0.0029369653 -0.0044503175 -0.007790861
0003d0 0e 33 80 bb 2c 58 0c 3b 7e b1 1d 3b 91 e2 bc 3a
       -0.003912336 0.002141486 0.0024062092 0.0014410784
0003e0 81 8c 99 b9 d4 20 66 ba f1 e8 04 bb 85 1d cd ba
       -0.00029287118 -0.00087786955 -0.0020280445 -0.0015649056
0003f0 68 cf 97 b9 87 3a a5 bb d7 f9 20 bc fb b1 c5 bb
       -0.00028955494 -0.0050423774 -0.009825191 -0.00603318
