trained_models/Sigma_5_t_10/checkpoints/checkpoint_10.pth (torch, 173091 bytes, 10 tensors)

conv_layer.conv_layers.0.parametrizations.weight.original f4 [8, 1, 7, 7]
00000000: 8701 c73c 06f2 503d 5837 57bd 410f 013e
00000010: b54d a8bd 766e ed3b 961d 91bc e3c5 403c
00000020: 8ac2 053e d321 dcbd 6874 503e 325d 0d3c
00000030: d98e fb3d cf63 ad3c db14 6a3b 0d1b c5bd
00000040: 3fd5 333e e85e 6c3e fbf7 8b3c f0bf 04bd
00000050: c5c6 5cbd f095 9c3c 3053 a1bd c3fd 5b3e
00000060: bbb3 22bf bb1e b63d 080a 6dbd 1f51 913c
00000070: ae90 e53c ebd3 a0bd e4f3 733e bb8e 39be
00000080: e4b7 2d3e 3b91 fa3d 79a3 5abc f3e5 873d
00000090: 25aa 473d 0913 0fbc d469 d33d 7c71 523c
000000a0: c1ef e4bc 92b0 483d a34f bebb c8df 3a3d
000000b0: aa62 0e3d 34ea c1bc 76ac 533d 9558 293c
000000c0: a85a bb3c d571 acbc f44a b8bd 1a88 e0bb
000000d0: baaf 25be 9330 d73d 4fc9 8d3c 552d 07bb
000000e0: 0a3a 1b39 05b7 b4bb 74c5 193e 8a85 1bbe
000000f0: 98f1 36bb 5ea4 acbd 5841 6dba 78af 76bd
00000100: e739 21bc f2de b3bd c4b0 a03e 5143 2f3c
00000110: 4799 31bd 540c 83bd 0a83 093e 444a 9b3d
00000120: 4460 6b3e 8c11 26bf 7263 5abe 8aa4 a8bd
00000130: c982 46bd 660b 79bc 0d51 6d3d 0a10 543e
00000140: 031e 28bd 19b5 5fbb c5c2 8e3d 7512 b3bb
00000150: be7f 4e3c 3bf4 2dbd fbb1 673d 7fae 2fbd
00000160: 39b6 0dbd cb85 20ba 5437 b83c 81eb 4cbd
00000170: 00ff 9abc d316 973d b027 d3bd 0bb2 66bb
00000180: a11b 7e3c 0eb0 80bc 5e7d 08bd 6739 1abd
00000190: 6ec2 92bd 98e6 883d 636a 2fbd 4731 d5bd
000001a0: ae2b debc 3f78 72bd c4da 07be 88ab cbbc
000001b0: 239f 54be bdc5 c2bd 1212 c93d a61d 263d
000001c0: ca37 e83c bc7e 4bbd 3d18 c4bd 082f d3bc
000001d0: 964a a73d 0f1b 25be 801b abbd ad78 c5bd
000001e0: c2cd 1e3d 4953 fabd ae57 17bd 51af e0bc
000001f0: fcf4 ffbd 0104 85bd 8fcd 62bd 079b 1bbe
00000200: c6b4 553e b8da b73c e46c 503e b263 a63d
00000210: f573 f2bd 240b 0cbc bd27 d6bc 5c03 84bd
00000220: 88d9 38be ae7a d2bd 5e8f 033d 9dc3 8abc
00000230: 05dd e3bc 94a4 b8bd 87fd b53d ca36 e3bd
00000240: 241e b0bb 4cc3 19bd 3a26 14bd df70 8d3c
00000250: 5c24 eb3d 78d6 ffbd b3b9 a73b 625b 14bd
00000260: 324a c93c 9650 9dbc 13b9 f33c 2a2f 1bbd
00000270: d6ff 883d 1f89 a63d cd32 c23b 17a6 d2bd
00000280: 616b a13d 996d 98bc 8d04 b33a 6de3 2bbe
00000290: 7b65 893d efa8 f9bc 2e0a 9abd 8fe2 223e
000002a0: 0811 25bc 8fcc 6abd 179a 72bd 78dc f5bd
000002b0: 4ee8 f03d 245e aa3c 0a15 e1bd 1339 343d
000002c0: 9cd0 82bd caf4 c83d 16bb 8b3e 9e04 dcbd
000002d0: 2433 193d b21f 953d 6bd7 333c 8cfc 1dbd
000002e0: 5bc8 a93d 7ddd 483d 324a 3c3d 54a4 4a3d
000002f0: 7b10 8ebd d617 63bb 3d4c 7db9 57e5 83bc
00000300: fd6d b13d fa71 823c 1aae 81bc 91a9 a5bb
00000310: e3c6 bdbc 3f48 33bd e7ff 6b3d 3241 a23d
00000320: c62f 5abd c9a1 50bd 7b0a 133c e787 8ebc
00000330: 2dd4 4ebd 0381 c1bd a3ee afbd b20c bfbd
00000340: c529 f9bc 14c9 0cbd bf09 573d 807b 5f3d
00000350: 6254 e5bd 16c7 c1bd 0fd9 133d fbe3 143e
00000360: 187b 1dbc 0400 9cbd 2f8e 203e 9a2f 05be
00000370: 307e 34bf 14a0 533e 9d75 1dbc 040d 003d
00000380: d211 94bd 64e7 573c 9408 1e3e f6b9 2f3e
00000390: a3d8 3bbe 81c3 f9bd 6481 ffbc f755 df3c
000003a0: 21d8 03bd e59b 7e3d 727f e33d db6a 5ebc
000003b0: 2c46 983a 95df 40bd 82f1 54bd 6e92 c7bd
000003c0: c8f8 8b3d cee0 05bd fec6 08bd 16f6 26bd
000003d0: 7236 d7bc 6d8a cdbc 2d4b 76bd 2063 ac3d
000003e0: ca06 8fbd 0b8a b83d b9f6 78bd bdb6 53bd
000003f0: 3fe8 afbc 0f2b 82bd 3d70 29bd 9758 efbd
0.02429272 0.05101206 -0.052543014 0.12603475 -0.082179464 0.007245834 -0.017714303 0.01176593
0.13062492 -0.10748639 0.20356905 0.0086281765 0.122831054 0.021165757 0.0035717997 -0.096243
0.17561816 0.23083079 0.01708602 -0.03240961 -0.0539005 0.019114465 -0.07877195 0.21483521
-0.63555497 0.0889258 -0.057870895 0.017738877 0.02802309 -0.0785292 0.23823506 -0.18120854
0.1696468 0.12234732 -0.013344639 0.06635656 0.048746247 -0.008732566 0.103229195 0.01284444
-0.027946355 0.048996516 -0.0058078333 0.04562357 0.034762062 -0.023671247 0.051678143 0.010336061
0.022870377 -0.021050373 -0.08998671 -0.006852162 -0.16180316 0.10507312 0.017307905 -0.0020626385
0.00014803573 -0.0055149817 0.15016729 -0.1518766 -0.0027914997 -0.08429788 -0.00090505695 -0.060225934
-0.009840465 -0.08782758 0.3138486 0.010697202 -0.043359067 -0.06398836 0.13428894 0.075825244
0.22985941 -0.64870524 -0.21326998 -0.08234508 -0.04846457 -0.0152004715 0.057938624 0.20709243
-0.041044246 -0.0034135042 0.06970743 -0.0054648467 0.012603698 -0.042469244 0.05656622 -0.04289102
-0.03459761 -0.00061234523 0.02248732 -0.05002928 -0.018920422 0.073774 -0.10310304 -0.0035201337
0.015509517 -0.01570895 -0.033322684 -0.0376524 -0.07165991 0.06684607 -0.042826068 -0.104097895
-0.027120437 -0.059196707 -0.13267046 -0.024862066 -0.20763831 -0.09510372 0.098179 0.04055562
0.028346915 -0.04968141 -0.095749356 -0.025779262 0.08168523 -0.16123603 -0.083548546 -0.09642158
0.038770445 -0.12222917 -0.036948852 -0.027427347 -0.12497899 -0.06494904 -0.055371817 -0.15195857
0.20869741 0.02244316 0.20354038 0.08124484 -0.11838523 -0.008547578 -0.026141996 -0.06445953
-0.18051732 -0.102773055 0.032119147 -0.016938979 -0.027815351 -0.09015766 0.08886247 -0.110944346
-0.005374687 -0.037539765 -0.03616927 0.017265735 0.114815444 -0.124920785 0.0051185726 -0.036219962
0.024571512 -0.019203465 0.029751336 -0.037886776 0.06689422 0.081316225 0.005926466 -0.102855854
0.07881809 -0.018606948 0.0013657972 -0.16785975 0.06708809 -0.030476062 -0.07521473 0.15906738
-0.010074861 -0.05732399 -0.059228983 -0.12004942 0.117630586 0.020796843 -0.10990341 0.043999743
-0.06387445 0.09812315 0.27291173 -0.10743068 0.037402287 0.07281436 0.010976653 -0.038570926
0.08290168 0.049039353 0.045969196 0.04947312 -0.06936737 -0.0034651658 -0.00024156361 -0.016100569
0.08663557 0.015923489 -0.015830088 -0.0050556143 -0.023166126 -0.04377007 0.057617094 0.07922591
-0.053268217 -0.05093554 0.008974667 -0.017398788 -0.050495315 -0.09448435 -0.08590438 -0.09328593
-0.030415425 -0.03437145 0.05249953 0.05456114 -0.11197735 -0.09461801 0.036095675 0.14540093
-0.009611867 -0.076171905 0.15679239 -0.1300644 -0.70505047 0.20666534 -0.009610561 0.031262413
-0.072299615 0.013177726 0.1543296 0.17160782 -0.18344359 -0.121954925 -0.031189628 0.02726267
-0.03218854 0.06216039 0.11108293 -0.013575281 0.0011617593 -0.047088224 -0.051988132 -0.09744726
0.06834561 -0.032685094 -0.0333929 -0.04076203 -0.026271079 -0.02509042 -0.060130287 0.08417344
-0.06983717 0.090107046 -0.060782168 -0.051687945 -0.021473048 -0.06355869 -0.041366804 -0.11686819

conv_layer.conv_layers.1.parametrizations.weight.original f4 [32, 8, 7, 7]
00000000: a052 8e3c fd94 33bc 79c7 003d 2737 c43b
00000010: 9c29 1fbc de10 e4bc 654c fe3b 5e9f 06bb
00000020: dff1 89bc 1128 cd3c 5a88 a93c a044 43bc
00000030: 97fd 3cbc 10b2 793c 6cfc d83c 6b6e 9cbc
00000040: d971 a6bd 5ea5 303e de68 dbbd cac6 bebc
00000050: cffb 953d 6247 8f3d cc9b 84bc 8af2 81bd
00000060: 3132 733e 44df 11be 6c16 cdbd 47c5 a33d
00000070: c86e c53d 1bee 063d 008f 04be 38fa 743e
00000080: 6b9a 313d 8e46 32be f40a c13b 1238 a53d
00000090: 9a5e 4c3d 8cef 78bd c5a1 063e a0fe 673d
000000a0: aa29 16bd 0a87 9fbc 6b1a fabc 68ad 973d
000000b0: 538a 7bbd 8e0d a2bc c0a3 013d 33d9 4b3c
000000c0: 9370 e2bc 6559 06bb e15a 2d3c 3437 3f3d
000000d0: 625d 723a e28b 3fbd f64d 5bbc 590f a33c
000000e0: f2df 3c3a 7436 36bb 2e15 3c3d 66bc 00bd
000000f0: 28e7 fdbd f5e0 18bd cc04 d43c c30f 56bc
00000100: 202e 8b3b 028b 993d 191b df3d 37a1 2bbe
00000110: 7a17 72bd 11c4 6f3c 1208 0a3c f161 b43c
00000120: 503d be3d d849 863e f095 87be 4859 44be
00000130: c8a4 5c3d 5a56 d53c 3afd b2bc d59a 6d3c
00000140: a611 a23e 40b8 d4bd c4f0 3abe 46b4 06bc
00000150: 5319 87bc d00a 70bd b28e 85bd 4ad3 823e
00000160: ada4 203e 4016 0cbe e8ba 8ebd e495 00bb
00000170: 55ff b0bd 9bdd 89bd 5172 363d c2d2 5c3e
00000180: f9af 9ebc c155 03bd 68e1 29bc 280e f73c
00000190: f29c f0bc 3f32 903c b8f1 d63d cda1 c8bc
000001a0: d1bb a23b 1dd9 183c a26a 493c 08fc 88bb
000001b0: 3fe5 b1bc f4f3 9a3d f17e 013d 37c3 f83c
000001c0: 00f4 e53c f150 023d 8ce7 b7bd 21d7 323d
000001d0: 132e 1d3c 24e8 1f3c 45a9 df3c 27b0 86bb
000001e0: 87ad 4f3d bfa9 a6bd b189 643d 0b0b 3abd
000001f0: 11c6 c53c a245 ccbc 7874 33bc 228b 933a
00000200: 3c29 fd3b 9a6d 92bc 5791 72ba 18a2 8d3c
00000210: da6d d03c 05ae f9bb a324 333c 9322 2d3c
00000220: 6885 b9bd f789 253d 72ca 313d 7e28 783d
00000230: 1ecf a13c e7cf efbb d7aa 093d 0d1a 9ebc
00000240: 75de 123d df8d 50bd 5563 463c 7eff 0bbd
00000250: f27d 86bb d2f2 d9b9 ad20 803c 6f1d 383c
00000260: e8a1 0ebd 1377 cbbc 0e9a 09bc 4e43 293c
00000270: a9bb 24bc d7bd 613d bb8d 76ba d7d4 ffbc
00000280: 99a5 50bc b630 00bd 40e0 d73c 10f4 96bd
00000290: b979 923d c493 d13c 525e d8bb 1d7b bf3b
000002a0: 1e5f f1bc f936 f23d 7891 e73c 34ba 9bbd
000002b0: 90d8 efbb a48e 953d 4b27 193c 2958 15bd
000002c0: 7ad7 cf3c 69d1 073b ba39 d4bb 378f d2bd
000002d0: 9e26 613d 5c12 08bc 0b7d af3c 5114 ff3c
000002e0: b479 0a3d 6ac7 263d f90a 1fbe b469 af3a
000002f0: 3b2b 5fbc 35af 2cbb c236 9a3c 98ea 66ba
00000300: 79a5 023e b441 0cbe c356 20bd c83c c3bc
00000310: ddbc 28bc eff1 61bc b5ba f7bc 7473 853d
00000320: be41 5bbd 6526 02bd ba7c 63bc cc19 9cbc
00000330: c568 49bc e4d5 a2bd fa36 b93d 6ef1 f83b
00000340: 1bd3 013a 04bb 45bc f17a 0ebd 0ea2 1bbd
00000350: 8af1 4ebb 41da bc3d 39e2 0abe f194 69bd
00000360: 1456 a0bb 02c4 2c3d 20e2 1bbd b330 42bd
00000370: 75f5 853e 1f61 0bbe daa2 20be c848 f4bb
00000380: 9a71 4a3d 94e4 00bd 2d05 d8bd aafd d23d
00000390: eec4 2bbd 7ab3 14be d130 d9bd 0133 123c
000003a0: d0a4 013d df05 e5bd d7a2 f1bd 2d37 e33d
000003b0: 0726 4dbd c0c2 7ebd 6cfe 3c3c 614f 7e3d
000003c0: f43d 20bc 261c 77bd ce6c 5b3c 7aac 23bd
000003d0: b6d1 6abd 03b7 1abc 4a5c 25bd 870d f33b
000003e0: 3212 d5bc 85ec c93c 8817 753d e50f 243d
000003f0: bfee 4fbc adea 3abd 41eb 53bd 86ba 373d
0.017373383 -0.010960815 0.031440232 0.00598802 -0.00971451 -0.027840074 0.007760572 -0.0020541768
-0.016838966 0.02504352 0.0206949 -0.011918217 -0.01153507 0.015240207 0.026487552 -0.01909562
-0.081271835 0.17250583 -0.10713361 -0.02328815 0.07323419 0.06996037 -0.016187571 -0.06345089
0.23749615 -0.14245325 -0.10014042 0.07996612 0.096402705 0.03294192 -0.12945175 0.23923576
0.043360155 -0.17409727 0.0058911983 0.08067335 0.049894907 -0.060775325 0.13147648 0.056639314
-0.036660828 -0.019473571 -0.030530175 0.074061215 -0.061411213 -0.019781854 0.031650305 0.012441921
-0.02764157 -0.002050006 0.010580749 0.046683505 0.00092454825 -0.046764262 -0.013385287 0.01990478
0.00072050013 -0.0027803453 0.045918636 -0.03142967 -0.12397605 -0.03732391 0.025881194 -0.013065281
0.004247442 0.07497217 0.1089384 -0.16760717 -0.05910442 0.014634148 0.008424776 0.022019358
0.09289038 0.26228213 -0.2648158 -0.19174683 0.053868085 0.026042152 -0.021849263 0.014502247
0.3165409 -0.103867054 -0.18255907 -0.0082216915 -0.016491568 -0.05860406 -0.065213576 0.25551826
0.15687819 -0.13680363 -0.06969243 -0.0019620592 -0.08642451 -0.06731721 0.044542614 0.21564773
-0.01937102 -0.032064203 -0.010368682 0.030158117 -0.029371712 0.017602084 0.10495323 -0.024491215
0.004966237 0.009329108 0.01229349 -0.004180435 -0.021715758 0.075660616 0.0316152 0.030366523
0.02807045 0.031815473 -0.08979711 0.043662194 0.0095935045 0.0097599365 0.027302394 -0.0041103545
0.050702598 -0.08137845 0.055795375 -0.045420688 0.024142297 -0.024935547 -0.010953061 0.0011256675
0.007725863 -0.017874528 -0.00092532247 0.017289206 0.025443006 -0.0076196217 0.010934028 0.010567325
-0.09058648 0.040414777 0.043405958 0.06058549 0.019752081 -0.007318485 0.03361019 -0.019299531
0.035856683 -0.05091655 0.012108644 -0.034179203 -0.0041043693 -0.0004157038 0.015640581 0.011237486
-0.034822375 -0.024837052 -0.008398546 0.010330988 -0.010054507 0.055112686 -0.0009405275 -0.03122942
-0.012734794 -0.031296454 0.026352048 -0.0737077 0.07152123 0.025583155 -0.0066030407 0.0058435337
-0.0294643 0.118268915 0.028267607 -0.07603875 -0.0073195174 0.07302597 0.009347747 -0.03646103
0.025371302 0.0020724183 -0.006476608 -0.10281222 0.05496847 -0.0083051585 0.02142193 0.031137617
0.03380747 0.04071752 -0.1553153 0.0013382942 -0.013621147 -0.0026349549 0.018824939 -0.0008808761
0.12758435 -0.13696939 -0.039145242 -0.023832694 -0.010298935 -0.013790592 -0.030240396 0.065161616
-0.053529494 -0.031774897 -0.013884718 -0.01905527 -0.012293045 -0.07950953 0.09043689 0.00759714
0.00049524166 -0.012068514 -0.034785215 -0.037996344 -0.0031577074 0.09221316 -0.1356286 -0.057026807
-0.004893074 0.042179115 -0.038057446 -0.047409724 0.2616383 -0.13611268 -0.15687123 -0.0074549653
0.049424745 -0.03146799 -0.10547862 0.10302289 -0.041935854 -0.1452159 -0.10605014 0.008923293
0.031651318 -0.111827604 -0.11798637 0.11094508 -0.050085094 -0.062197447 0.011535268 0.06208742
-0.009780396 -0.06032958 0.01339264 -0.03995941 -0.057328902 -0.009443047 -0.040371217 0.007417384
-0.026009653 0.024648914 0.059836894 0.04005422 -0.012691199 -0.04563396 -0.051738027 0.044855617

activation.coefficients_vect f4 [672]
00000000: 0000 0080 4c87 0e3b 6c00 033b c4a3 683a
00000010: 8ddb 593a 27e2 273a e088 bf39 083d d2b8
00000020: 815c 35b9 1e63 4fb9 69a7 73b9 b6fd e7b7
00000030: c1e4 5ab9 752b 70b9 c283 f0b9 8801 feb9
00000040: 1e2b 25ba 8f7d 3dba 8e72 c3ba 31d5 e0ba
00000050: 0000 0000 0000 0080 e20c ac3a f76a 933a
00000060: 633a 283a e067 023a bb10 c339 abc0 c837
00000070: 560b dfb6 10df 26b9 0a2b 48b9 ef25 33b8
00000080: 4d1a dc38 7254 a538 fe8d 4838 3ab2 17b7
00000090: d47d 3db8 a7d8 f1b9 2f5c 2cba e492 5fba
000000a0: ecf8 d1ba 0000 0000 0000 0080 b345 953a
000000b0: 2d2e 7f3a b924 263a d37e 013a 0a18 cd38
000000c0: 912b 4db9 4f71 94b9 f41d aab9 d30f b7b9
000000d0: f759 72b8 c642 8339 80d0 b239 8b36 a939
000000e0: 8de6 c037 33c5 04b9 83a2 6fb9 fa8f 26ba
000000f0: 26ae 6eba 70c8 9fba 0000 0000 0000 0080
00000100: b381 143b 692f e33a 61a4 993a 9db6 5e3a
00000110: 230f 543a e250 a339 dd97 9439 bcd0 3ab9
00000120: a5ee 5db9 0bbd 5ab7 be1b 3b39 f6ad 0e39
00000130: baae 9938 3840 44b8 d5aa ddb9 36ff 2eba
00000140: f305 34ba c7d2 b2ba 8532 17bb 0000 0000
00000150: 0000 0080 9c4c 033a 54e9 b339 16bf 9639
00000160: 3e17 9039 36b1 4f39 d6f9 4039 90c4 0339
00000170: 92aa ce38 159c ab38 73c4 6c38 cc5c d7b7
00000180: 94b2 30b8 201a 40b9 58e8 65b9 9d81 aeb9
00000190: fd24 b3b9 badc bab9 44d8 f8b9 ca79 45ba
000001a0: 0000 0000 0000 0080 049b 0a3a d35b 9e39
000001b0: 89e1 9939 3e6f 8339 e260 4e39 08dc 5638
000001c0: 133a 1ab9 84ad 39b9 b67d 87b9 a4d1 a2b7
000001d0: 5c90 6139 25aa 2039 9dad ca38 9596 aeb8
000001e0: 01ae 99b9 1a7f b2b9 0d6f e3b9 8b7e 4fba
000001f0: de4e 5bba 0000 0000 0000 0080 1435 653a
00000200: 519c df39 f9e1 9c39 347a 8f39 b568 8239
00000210: 06e2 8338 eef8 3737 875e 10b8 9114 4cb8
00000220: c1c7 4439 b9ba e939 31b9 9539 3dfa 8838
00000230: 5eff 48b9 8187 b2b9 c1dc 8dba 4eb5 99ba
00000240: aec5 d3ba ad6b deba 0000 0000 0000 0080
00000250: ab3b 093a 439e cc39 c737 cb39 9589 b639
00000260: 39a6 9c39 9973 7e39 c558 1339 3327 2538
00000270: ce8d 4437 bb5d 06b7 5e04 b7b7 5abb 6ab8
00000280: c594 8bb8 ad52 12b9 8a5d 43b9 caa4 b5b9
00000290: 2059 c3b9 8670 0cba d9e7 35ba 0000 0000
000002a0: 0000 0080 45ca ba3a 12ad 7b3a a4a4 513a
000002b0: c67a 133a f81c 2b39 9f38 9cb8 3ddd 0cba
000002c0: cf43 21ba f53d 31ba 0032 96b9 5437 f638
000002d0: 2d1f 0d38 3591 1bb6 d1eb 28b8 d9e2 9eb8
000002e0: dc99 46b9 8a40 98b9 5fc6 1dba 40e9 3cba
000002f0: 0000 0000 0000 0080 58b5 3f3b 96eb 073b
00000300: 0d72 cc3a e8f3 903a 9fa3 843a 2e63 9f39
00000310: b696 8137 633f 46b8 46e8 e5b8 64ad 9838
00000320: a01b 6539 2677 1539 e273 8a38 12c6 ceb9
00000330: a4ba 00ba 9bb9 06ba de1a 86ba 7600 03bb
00000340: f9ae 0bbb 0000 0000 0000 0080 a361 1f3b
00000350: ac4a e03a 022b c93a c23c 863a a60c 233a
00000360: 4aef cd39 348d be39 ef9b e1b8 cb59 1bb9
00000370: 27c6 97b7 ab3d e738 3f21 cf38 0028 88b9
00000380: b080 acb9 327f 74ba 5b38 7eba 0d37 8eba
00000390: 9ab5 e0ba 5282 34bb 0000 0000 0000 0080
000003a0: 2c00 5f3a ff5a 333a cdea 193a 1c57 e739
000003b0: f8e4 af39 d486 a939 8b5a a039 726e 9339
000003c0: 61fb 5339 4f05 3c39 a285 0c39 7231 49b9
000003d0: 26e1 7eb9 fd54 98b9 fd4f d7b9 d574 e8b9
000003e0: 301f 6fba 99b7 75ba 0e31 aeba 0000 0000
000003f0: 0000 0080 85e8 9a3a 70a1 583a e241 553a
-0.0 0.0021748124 0.0019989265 0.00088745006 0.00083106087 0.0006404244 0.0003653234 -0.00010024948
-0.00017295966 -0.00019777982 -0.00023236651 -2.765549e-05 -0.00020875318 -0.00022904373 -0.00045874534 -0.00048447796
-0.00063006754 -0.00072284875 -0.0014911459 -0.001715338 0.0 -0.0 0.0013126398 0.0011247088
0.00064173917 0.0004974585 0.00037205764 2.3931576e-05 -6.6472376e-06 -0.00015914091 -0.0001908952 -4.2712254e-05
0.000104953164 7.883542e-05 4.7815956e-05 -9.041798e-06 -4.5178298e-05 -0.0004612852 -0.0006575016 -0.00085286633
-0.0016019619 0.0 -0.0 0.001138857 0.0009734359 0.00063378696 0.0004939858 9.7796394e-05
-0.00019566553 -0.0002831318 -0.00032447244 -0.0003491627 -5.7781082e-05 0.00025036017 0.0003410615 0.0003227483
2.2995542e-05 -0.00012661963 -0.00022853356 -0.00063538516 -0.00091049296 -0.0012190472 0.0 -0.0
0.0022660315 0.0017332855 0.0011721962 0.00084958394 0.0008089414 0.00031150045 0.00028341907 -0.00017816102
-0.00021165104 -1.3037828e-05 0.00017844044 0.00013606981 7.328154e-05 -4.678985e-05 -0.00042279685 -0.00066756026
-0.00068673416 -0.0013643139 -0.0023070883 0.0 -0.0 0.0005008669 0.00034315384 0.000287526
0.00027483137 0.00019807075 0.00018403618 0.00012566359 9.854617e-05 8.182988e-05 5.6449742e-05 -2.567321e-05
-4.2127984e-05 -0.00018320279 -0.00021925697 -0.00033284436 -0.000341691 -0.0003564114 -0.00047463377 -0.00075331016
0.0 -0.0 0.00052873814 0.00030204523 0.0002935047 0.0002506915 0.00019681783 5.1226496e-05
-0.00014708219 -0.00017707614 -0.00025842868 -1.9409526e-05 0.0002151145 0.00015322173 9.6644486e-05 -8.325015e-05
-0.00029312077 -0.00034045504 -0.00043379553 -0.000791528 -0.0008365939 0.0 -0.0 0.0008743566
0.0004265034 0.00029923 0.00027366134 0.00024873545 6.288667e-05 1.0965608e-05 -3.442031e-05 -4.8656544e-05
0.00018766431 0.00044580342 0.00028557473 6.531596e-05 -0.00019168618 -0.00034051764 -0.0010823236 -0.0011727007
-0.0016156936 -0.0016969346 0.0 -0.0 0.00052350265 0.00039027826 0.00038760735 0.00034816252
0.00029878484 0.00024266391 0.00014052082 3.9375573e-05 1.1715527e-05 -8.008846e-06 -2.1817334e-05 -5.5964432e-05
-6.655747e-05 -0.00013954444 -0.00018631495 -0.00034645788 -0.00037259702 -0.00053573435 -0.000693915 0.0
-0.0 0.0014250955 0.00096006796 0.00079972507 0.00056258996 0.00016318623 -7.449206e-05 -0.0005373543
-0.0006151767 -0.00067612465 -0.00028647482 0.000117405 3.3646054e-05 -2.3181321e-06 -4.0273942e-05 -7.576281e-05
-0.00018940069 -0.00029039785 -0.00060186343 -0.0007206388 0.0 -0.0 0.0029252376 0.0020739785
0.0015597955 0.0011059018 0.0010119564 0.00030400738 1.5448179e-05 -4.7265912e-05 -0.00010962835 7.280221e-05
0.00021849433 0.00014254134 6.601938e-05 -0.00039438956 -0.0004910624 -0.00051393517 -0.0010231396 -0.0019989288
-0.0021314009 0.0 -0.0 0.002431967 0.0017112098 0.00153479 0.0010241496 0.00062198413
0.0003927893 0.0003634483 -0.00010757881 -0.00014815402 -1.8092875e-05 0.00011026425 9.876722e-05 -0.00025969744
-0.00032902276 -0.0009326815 -0.00096977287 -0.0010850147 -0.0017143965 -0.0027543497 0.0 -0.0
0.00085068005 0.00068418676 0.0005871475 0.00044124655 0.00033549196 0.00032334647 0.00030585038 0.00028120313
0.00020216174 0.00017931055 0.00013401223 -0.00019187274 -0.00024307202 -0.0002905502 -0.00041067592 -0.00044337535
-0.0009121774 -0.00093733665 -0.0013289766 0.0 -0.0 0.0011818564 0.0008263802 0.00081351225

u f4 [1, 1, 20, 20]
00000000: 0052 0bb8 32ad 543b e8b5 17bc 53ba 813c
00000010: 14d1 c8bc e9f2 563c b8dd ee3b ecfb 75bc
00000020: 1d1c 8c3c 9df8 74bc 9a8f 8b3b 4031 723a
00000030: 90b0 e8ba 70a2 823b e0fa d4ba 242a d93a
00000040: 40f3 f0ba e0ce 4bb9 c471 08ba f664 bf39
00000050: ef1d e73b e139 1abd b586 723d 8977 b8bd
00000060: 6041 ef3d 66d4 58bd f3dc 1dbd 8680 ac3d
00000070: 3ee9 dabd 2e7f b13d d6f8 07bd d2f7 913b
00000080: f26f 6c3c 50b3 9ebc 3c25 e23b 8d2f debb
00000090: 2c32 933a 0865 213b fe61 073b d87b b7b9
000000a0: f515 94bc 6fb3 803d f079 50bd 06a2 8a3d
000000b0: d684 f9bd 8401 603d 3ac3 be3c 3663 57bd
000000c0: 7ec5 c73d bd65 a1bd 762c fa3c e21b 66bc
000000d0: 2e14 98bc 9475 8e3c fb3f a5bb 76c8 593c
000000e0: 3e0c 023b 00af bfba d2ed 85bb 1ca7 91ba
000000f0: 3a1d 8dbb d508 993c 18cd d4bd a959 913d
00000100: bf3b 833d d4c3 4ebd 92c5 4d3d 4803 51bd
00000110: dda8 a3bc 9500 143c 34cf a6ba ea60 9f3b
00000120: 3401 043d 69d3 27bc 3a2b 033c fcab 88bc
00000130: 9818 07bc a076 50bb fcd1 a83b 5628 f63a
00000140: 6c8a 68bc dadb bb3c e680 ca3d a290 86bd
00000150: 4eec 91bd 2abf 173d e2dc 77bd 3e35 093d
00000160: 54b1 6c3d aa44 05bd 58a9 233d dffc 2fbc
00000170: a431 25bd f93f ad3b 3440 93bc 4fc4 f93b
00000180: 5d79 ae3c 2847 853a 7c90 623a a704 23bb
00000190: 173f c13c dec3 1ebc 8b56 2ebe 427a 0a3e
000001a0: 2051 a03b dabb 92bc 42e4 063e a360 e6bd
000001b0: 7d3b fa3c e414 c8bc 9021 30bd b805 fc3b
000001c0: b248 b53c 4abd df3b 26bd f43c 785c 72bb
000001d0: 5e7f 57bc 040a 03bc 9e72 bdba 9527 ceb9
000001e0: 9639 e5bc e0c4 1539 0e21 483e 48d0 16be
000001f0: 33e2 133d 80b9 933a 2ef5 0abe 6810 b33d
00000200: 4e05 a2bc c4d1 bbbc d6a5 d03d 9625 1abd
00000210: 520d b43c 00b1 9fbc f06a c5bc 2cb1 75bc
00000220: 47cc 773c 01f4 2abb f610 c93b 6af1 183b
00000230: 5c7b 433d 32fd 2abd 9681 09be 56b8 ef3d
00000240: b78a a4bd ea20 bd3c d622 033e c705 e0bd
00000250: 4ec3 b53d 4af1 4dbc e020 7ebd c892 0e3c
00000260: ee90 99bc 1a9d 28bc 7850 173d d8da 3e3b
00000270: 93c8 1d3b 5fde 703b e7f2 b4ba a8c1 92bb
00000280: a7ec f8bc 5cff 88bc 4b1d 393e c295 35be
00000290: 631d 223e 384f 78bd caa3 bcbd 6185 e83d
000002a0: d259 ddbd 7cc1 2ebb cf6f 8d3d 65b5 4cbd
000002b0: c793 763d aee2 83bb 7122 68bc c30a aaba
000002c0: e80c b4ba b807 5bbc 4c6e 503a b97f 2c3b
000002d0: fccc 073d 582d c2bc 04a0 a5bd f67f df3d
000002e0: 6e89 0cbe 3c0d 923d b14e 3b3d fb72 d3bd
000002f0: 4ca6 d83d 5f8e 3bbc 2e47 f6bc 12d4 183d
00000300: 8d6c fdbc c2a5 a7bc f6e9 e23c ba09 dabc
00000310: b9f6 083c 5723 203c 7916 d13a fbd3 bc38
00000320: 1ee1 aabc bc85 943b bd1e a93d ec10 0abe
00000330: d099 323e f03d 00be ac8e 0abb a43e db3d
00000340: 5859 f4bd 3404 573d 76fc cf3b 8cfc 49bd
00000350: 02af 223d c1f9 13bc 1cd4 6fbc a8ed ee3c
00000360: 9d80 2dbb ee96 d0bb fbc5 ee3a aee1 3abb
00000370: cbb0 bb3b 9bd8 e03b 8e81 85bd f4bb d03d
00000380: a0d2 14be 78a7 0a3e 1069 c5bc 5403 89bd
00000390: 9797 a73d e848 53bd ba3b 80bc c85e 493d
000003a0: 46e7 1cbd 28df c13c 3520 b23c ba6e 02bd
000003b0: c0fe bf3b 00e8 6bb9 cca5 00bc 3c56 8f3b
000003c0: 4248 52bc 7674 d43c b032 803b cdc5 14bd
000003d0: c46d ee3d be9d 11be 92f8 1c3d 3298 2c3d
000003e0: 8858 c4bd 5028 c43d 3f20 bebc 50ff 6339
000003f0: 5456 b13c 4cf4 b2bc c6db ebbc a3eb d33c
-3.321655e-05 0.0032451865 -0.009259678 0.015835917 -0.024513759 0.013119438 0.0072896145 -0.015013676
0.01710325 -0.014951852 0.004259062 0.0009238906 -0.0017752815 0.003986649 -0.0016249083 0.0016568345
-0.0018383041 -0.00019436656 -0.00052049407 0.0003650558 0.007053129 -0.037652854 0.059210498 -0.090071745
0.11682391 -0.052936934 -0.03854079 0.084229514 -0.10689019 0.08666836 -0.033196293 0.0044545913
0.014430987 -0.019372612 0.0069014113 -0.006780571 0.0011230162 0.002462687 0.0020657773 -0.0003499675
-0.018076876 0.06284224 -0.05089754 0.06769185 -0.121835396 0.054688945 0.02328645 -0.05258485
0.097544655 -0.07880733 0.030538779 -0.014044734 -0.01856431 0.01739005 -0.0050430275 0.0132924225
0.0019843723 -0.0014624298 -0.0040871883 -0.0011112425 -0.0043064626 0.01868097 -0.10390681 0.070971794
0.0640788 -0.050479725 0.050237246 -0.05102852 -0.019977981 0.009033342 -0.0012726546 0.004863848
0.03222771 -0.010243275 0.0080059115 -0.016683571 -0.00824561 -0.0031808987 0.005151985 0.0018780332
-0.014193159 0.022931982 0.09887867 -0.06570555 -0.0712515 0.037047543 -0.060513385 0.03349804
0.0577863 -0.032536186 0.03995642 -0.0107414415 -0.040330544 0.005287167 -0.01797495 0.0076222788
0.021298105 0.0010168301 0.00086427457 -0.00248746 0.023589654 -0.009690253 -0.17025201 0.135232
0.0048924834 -0.01791184 0.13173011 -0.11248901 0.030545944 -0.024424024 -0.043000758 0.0076911114
0.02212939 0.006827985 0.02987535 -0.0036981385 -0.013152925 -0.007997993 -0.0014453714 -0.00039320873
-0.02798156 0.00014283089 0.1954386 -0.1472789 0.036104392 0.0011270493 -0.13570091 0.087433636
-0.01977792 -0.022927172 0.10187881 -0.0376335 0.021979008 -0.01949358 -0.024098843 -0.014995854
0.015124387 -0.002608538 0.006136055 0.0023337253 0.047725067 -0.041745372 -0.1342834 0.11705081
-0.0803427 0.023086984 0.12806258 -0.10938602 0.08875142 -0.012569735 -0.06204307 0.008701988
-0.018745866 -0.010291362 0.036941975 0.002912214 0.002407585 0.0036753637 -0.0013805301 -0.004478652
-0.030386282 -0.016723327 0.1807758 -0.1773291 0.15831523 -0.060622424 -0.09210928 0.11353565
-0.108081475 -0.0026665619 0.069060914 -0.04997768 0.060199525 -0.004024825 -0.014168368 -0.0012973178
-0.0013736757 -0.0133685395 0.0007951006 0.0026321246 0.033154473 -0.023703262 -0.08087161 0.109130785
-0.137243 0.071314305 0.045729343 -0.10324665 0.105785936 -0.011447518 -0.030063238 0.03731162
-0.03093555 -0.020464782 0.027699452 -0.026615966 0.0083596045 0.009774051 0.0015952132 9.004023e-05
-0.020859297 0.004532544 0.08257816 -0.13483018 0.17441487 -0.12523627 -0.0021142168 0.10705307
-0.119311035 0.052494243 0.0063472344 -0.049313113 0.03971768 -0.009031714 -0.014637973 0.029166058
-0.0026474365 -0.0063656485 0.0018216962 -0.0028515863 0.0057278625 0.006861759 -0.06518851 0.10192099
-0.14533472 0.13540447 -0.02409795 -0.06690088 0.0818321 -0.0515832 -0.01565348 0.049162656
-0.038306497 0.02366598 0.021743873 -0.03184388 0.005859226 -0.00022497773 -0.007852029 0.0043742936
-0.01283461 0.02593444 0.0039122924 -0.03632145 0.1164203 -0.1422033 0.038322993 0.042137332
-0.095871985 0.095780015 -0.023208736 0.00021743518 0.02164761 -0.021845005 -0.02879132 0.025869196

exp_avg f4 [8, 1, 7, 7]
00000000: 732e c43c d4d3 903c 6990 c23c 93cf 2e3c
00000010: 2d59 dc3c 04a0 803c ed0f 9d3c 790c f63b
00000020: 833d 4e3b 5456 ebbb 2b3d 043d b241 af3a
00000030: 6000 52bc db52 1c3c c680 19bc accb 82bb
00000040: 92f0 8b3c aa6a 87bc 4e8d a3bb d0ad 83bc
00000050: 2960 15bb ba3b 1a3c 1d3b b13c e0ed 95ba
00000060: 9f8c 043c 9a72 41bc 7236 a03b 40be a53c
00000070: 3c62 54bb e17d 653c 15e5 f0b9 26e2 07bd
00000080: 98da fbba b17f 12bc c4fb 673c 0bad 96bc
00000090: b4c5 e5bc 11ef acbc 1846 9c3b 466b b0bc
000000a0: 2662 c2bc 77cf 07bc de9e 63bc c653 733b
000000b0: bf23 3cbb ac2b 03bc 3c09 50bb 04ca acbc
000000c0: 1a51 b6bb 30eb c33c 56d7 b93c e011 593c
000000d0: 5f3b 313a 611b cb3b b972 123c 704a b23b
000000e0: 5d17 873b 7926 d43b 940b d9bc cc82 9a3c
000000f0: 757c eabb eaa6 93bc 65c8 8d3b adaa c93b
00000100: 4265 c73b d9c1 153c c0b7 82bc 3c90 8e3a
00000110: b41c 5f3b 1472 b83b 55db 8f3c 5159 d13c
00000120: 76fd 46bc 68eb 303c 01b2 7abc 0eeb 39bb
00000130: 78c1 183c e1fd 4b3b b50e ab3c c197 fc3a
00000140: 7fdb 11bd c2aa 0cbb 8519 91bc 844e b8bb
00000150: f3e8 a43b bbe2 cdba 0099 97bc 67ff a33c
00000160: 4df7 68bb 5dce 5bbc 23a6 a8bb cbba 57bb
00000170: f8fe 603c 849b 7cbc b8a8 62bc 8329 b4ba
00000180: 1fc4 ecbc 09f0 28bc ebed 87bc 7c4a 84bc
00000190: 196f 5dbc 8019 87bc 018d dfbb 32cd 55bc
000001a0: 5717 60bc 4421 39bc 52f8 ccbc fe55 2cbc
000001b0: c785 8cbc 0e3e 8bbc e2d1 28bc 3d95 b8bc
000001c0: b498 fc3a 8377 3f3b a44c 91ba da4e bf3a
000001d0: 09cd 48bb dda4 acbb 0fe5 4e3b d53d 00b9
000001e0: 5e7c 1abc 7917 fa3b 776e 99bb ff02 8ebb
000001f0: 280b 0a3a 9ccb b0bb dd6a 833b f4c0 8e3b
00000200: 5bef ee3a f93b 413c 2092 923b 888a 3439
00000210: a93b f13a 21ce 803c f347 5a3c 528d e53c
00000220: e9d4 973c 57ce 983c d270 6b3c 7c79 1c3c
00000230: 4b4e 5b3c fd35 e83b eb5c 603c 1958 843c
00000240: 7d53 863b 5317 393c b5db 5d3c 3559 39bb
00000250: 2129 c6bb b393 8ebb 718f b7bc 6ebc 1fbc
00000260: 3f8d 09bc f69b e1bc 89de 0cbc 6b0d 0fbc
00000270: 9bc7 83bc 3e3e 47bc 8d5f acbc 0291 b3bc
00000280: 04db e3bc 8cf3 aa3b 902e 103b de2a a53b
00000290: d8be 53bc 45ce 043c 5bb3 c5bb c257 babc
000002a0: 6a5e cf3b 89a7 253b d0f7 2a3a f8df 313c
000002b0: b8d1 aebb cd36 b6bb 0cc9 84bc ff2f d9b9
000002c0: 9c28 a43b accb 153c 6e55 86ba 0314 5e3c
000002d0: a285 a4bb 4540 06bc f93c c73c 91b9 513c
000002e0: 36ab aa3c 8b89 e03c ef93 bb3b ebaf 3e3c
000002f0: b0ef b33b 3e1b 983c ec9d bd3c 5649 8c3c
00000300: 41a3 163c da71 843c 0142 173c 6fb8 313c
00000310: 28c3 803c 6cba 4bbb 5031 443b 5fac 0fbc
00000320: bdd3 223b 9216 d53b e681 0dbb aa1a ebba
00000330: 11be 04bd 5929 e4bc db98 803b a27d 17bd
00000340: c693 ccbc d104 78bc 3731 e0bb db17 ebbb
00000350: acf6 1cbc 1203 05bd ee6f b1bb 96d7 c9bb
00000360: 5a6c 3ebc 3759 b03c 4d35 57bb 547e 62bc
00000370: 011a 503c 4c4a 90bc 2f85 7e3c a5cf 333c
00000380: e2ab 963b 308d c73b a381 30bc bafe 72bc
00000390: 1a37 1e3c 7aae 2fbc aa74 ca3a d513 b03c
000003a0: 7f71 81bc ebcc a63b d065 0d3d 9ac9 59bb
000003b0: 23c0 6b3c 7a74 4d3a d498 b13c 6908 ca3c
000003c0: 892a b43b 5564 8a3c 9cac d73c 1bff 203c
000003d0: 84e8 de3c 1d30 23bc 9bc8 41bc c6a7 97bb
000003e0: bfdb babb 6582 aa3b ae1b 393c b395 723c
000003f0: f233 d0bb 1a38 2fbc 44ad 63bc dcf3 803c
0.02394793 0.017679133 0.0237505 0.010669607 0.026897991 0.015701301 0.019172633 0.007508811
0.003146977 -0.007181922 0.032284897 0.0013371019 -0.012817472 0.009541239 -0.009369081 -0.0039915647
0.017082486 -0.016530354 -0.00499121 -0.016074091 -0.0022792912 0.009413654 0.021634633 -0.001143869
0.008090167 -0.011807108 0.004889303 0.02023232 -0.0032407185 0.014007063 -0.00045947047 -0.033174656
-0.0019214926 -0.008941577 0.014159147 -0.01839306 -0.028048374 -0.02111009 0.004769098 -0.021535527
-0.023728441 -0.00828921 -0.013892857 0.003712879 -0.002870783 -0.008006018 -0.0031743785 -0.021092422
-0.0055638673 0.023915857 0.022685688 0.013248891 0.0006760861 0.006198332 0.008938485 0.0054410025
0.004122658 0.006474313 -0.026494779 0.018861197 -0.0071559497 -0.018023927 0.0043268674 0.0061543793
0.006085069 0.009140455 -0.01595676 0.0010876725 0.0034044208 0.0056288335 0.01756064 0.025555285
-0.012145391 0.010798313 -0.0153012285 -0.0028368863 0.00932347 0.0031126665 0.020881036 0.00192713
-0.03560972 -0.0021464084 -0.017712364 -0.005624594 0.0050326525 -0.001570783 -0.018505573 0.020019246
-0.0035547793 -0.0134159 -0.005146758 -0.0032917734 0.013732664 -0.015417937 -0.013834171 -0.0013745282
-0.028902112 -0.010311135 -0.01659294 -0.016148798 -0.013515257 -0.016491652 -0.006822229 -0.013049411
-0.01367744 -0.011299435 -0.025020752 -0.010518549 -0.017153634 -0.016997363 -0.010303946 -0.0225321
0.0019271583 0.0029215522 -0.0011085463 0.0014595643 -0.0030639789 -0.0052686767 0.0031569635 -0.00012230065
-0.0094290655 0.0076321927 -0.004682358 -0.0043338533 0.00052659446 -0.005395366 0.004010542 0.004356498
0.0018229292 0.011794084 0.004472986 0.00017217745 0.0018404621 0.01572329 0.013322818 0.028021488
0.01853414 0.018653078 0.01437016 0.0095504485 0.013385366 0.007086514 0.013694028 0.01615529
0.004099308 0.011297065 0.013541152 -0.0028281931 -0.0060473834 -0.004351103 -0.022407265 -0.009749515
-0.008395492 -0.027540188 -0.008597978 -0.008731226 -0.01608639 -0.012160836 -0.021041656 -0.021919731
-0.027814396 0.0052170213 0.002200041 0.0050405106 -0.012923919 0.008105819 -0.0060333437 -0.022746924
0.0063283937 0.002527686 0.00065219123 0.010856621 -0.005335059 -0.005560732 -0.016209148 -0.00041425225
0.005009724 0.009142797 -0.0010248849 0.013554576 -0.005020813 -0.008194034 0.024321066 0.01280059
0.020833593 0.027409336 0.005724422 0.011638622 0.0054912195 0.018567678 0.023146592 0.017124813
0.009194196 0.01616757 0.009232045 0.010847195 0.015718058 -0.0031086458 0.002993662 -0.008769124
0.0024845444 0.0065029347 -0.0021592318 -0.0017937024 -0.032407824 -0.027851747 0.003924472 -0.036985047
-0.024972808 -0.015137867 -0.0068418044 -0.0071744747 -0.0095802955 -0.03247363 -0.0054149544 -0.006159733
-0.011622513 0.021526916 -0.0032838166 -0.013824064 0.012701512 -0.017613553 0.015534683 0.010974799
0.0045981267 0.006089829 -0.010773095 -0.014831239 0.009656692 -0.010722751 0.0015446146 0.021493832
-0.01580119 0.005090346 0.034520924 -0.0033231736 0.014389071 0.0007837486 0.02167932 0.024662213
0.0054982346 0.016893545 0.026327424 0.009826447 0.027210481 -0.009960202 -0.011827613 -0.0046281544
-0.0057024653 0.0052035325 0.011298103 0.014806199 -0.0063538486 -0.010694528 -0.01389629 0.015741281

exp_avg_sq f4 [8, 1, 7, 7]
00000000: ca5b bf3b 0666 f83b f365 fa3b 4b21 123c
00000010: 281e e23b 181c c13b 1db9 9f3b 2768 c23b
00000020: 86ee 183c e9cb 353c f99a b53c 637d 2a3c
00000030: 6d62 c43b e8e8 c53b a306 ba3b d2ef 0f3c
00000040: d155 813c 690d 6e3c a53b 313c e2e4 d93b
00000050: 4353 cf3b 761b 4e3c 6a5e 963c 751c a33c
00000060: f55a 953b 5623 d73c cc72 ad3c 3d13 213c
00000070: e308 033c d59e 2c3c 20a4 3c3c 3011 9c3c
00000080: 8079 393c 0442 1c3c 9961 dc3b 1c24 cd3b
00000090: c67e e13b dc1f ea3b f9c2 8f3c 909d 063c
000000a0: 5cdc 293c 471e dc3b e47a d43b ec0c cf3b
000000b0: caf2 ca3b 5a42 ee3b 7895 fb3b 1d34 c63b
000000c0: 4c42 c63b c3a0 373c 4897 673c a029 433c
000000d0: 2a5f 733c 3c4b 2b3c 9650 783c 311a 473c
000000e0: 2cc7 363c 5f1e 933c 4440 583c cf6c bd3c
000000f0: 5ab0 163c 1aa0 3a3c d2f6 4c3c fe22 163c
00000100: e626 593c da55 933c 203b b43c f166 3d3c
00000110: 0297 193c 59ae 303c 60aa 913c 81ee da3c
00000120: 2e3d a53c 501a 0e3c 277b 153d b1d0 ab3c
00000130: 9c5f 673c 9dc2 283c c8c6 473c a38f 833c
00000140: b628 a63c 4076 603c 25ce 2f3c 9939 203c
00000150: a5c2 263c 8ffb 223c 5ec7 463c 072c 963c
00000160: 2faf 353c 211c 423c a30a 373c 2715 3d3c
00000170: 4ed4 163c ad5d 143c 5689 393c 56b6 423c
00000180: ef7c 113c f7f9 3e3c 9cbd a13b 4333 7c3b
00000190: 67bb 703b 9777 5a3b 0a4a 773b f5b2 8b3b
000001a0: cd3e aa3b bec8 873b 966b 513b e64a 2e3b
000001b0: daa4 1e3b 9d59 143b 71bc 3e3b 07cd 823b
000001c0: 478f 423b 8c11 1c3b 1923 5d3b 772a e53a
000001d0: 97e0 c83a a98a 0d3b e097 5b3b 0c38 443b
000001e0: 872f 413b 3c08 f93a f9ff 043b 436d ae3a
000001f0: 7069 0b3b b7e9 4c3b a98b 223b ca13 2d3b
00000200: ce0c fd3a 3135 573b 423d b33a 7ee0 0c3b
00000210: 0f31 513b e104 4a3b ecc6 293b 0f08 203b
00000220: 1080 1f3b 69a5 253b c426 323b 4557 793b
00000230: 94a4 843b 5a86 643b b1bb 613b b586 553b
00000240: 54ed 553b 2ab4 683b 4a1a 9e3b 8e9f a53b
00000250: b2d8 933b 65aa aa3b c278 b93b 6c98 963b
00000260: 4f58 8a3b a020 a23b 8d69 913b 899e 873b
00000270: 0621 a33b d780 ad3b fc53 893b 3ac4 643b
00000280: 0925 833b 67ce 6e3b a11b 9a3b fa9e 6f3b
00000290: dfc4 023c a7e1 9e3b 6997 873b 1e80 503b
000002a0: 5bcc 3c3b 2723 523b 76f6 a93b e92a a23b
000002b0: c7b3 8e3b 0958 7b3b 6408 8c3b 8708 523b
000002c0: cb76 483b a4ba 883b 3faa 733b 164e e33b
000002d0: 3447 953b 68a7 8b3b 05fa 6c3b f030 633b
000002e0: f2d2 363b 76f5 b93b dd86 903b b1ba 893b
000002f0: 70ed 5d3b 2dc5 7a3b 03d0 783b 048e 553b
00000300: 39be a83b 448f 873b 1de4 9d3b ae5a 843b
00000310: 3444 1f3c 069e 0c3c 2771 293c 6352 433c
00000320: e3d4 453c 8564 153c 620c 133c d003 143c
00000330: 2860 213c b545 1d3c 5fc0 9b3c 663c 6c3c
00000340: 0b8f 1e3c 1aef 0f3c 90d4 063c d5aa 0a3c
00000350: d70c 0d3c 60c0 bc3c 7fde 833c ebff 183c
00000360: c82d 013c f8ba 123c 9bde 743c 6b35 a63c
00000370: 5d87 543b e185 b93c 9d51 c53c 0663 673c
00000380: 7818 f53b 006e 0a3c aa54 f63b ac04 8b3c
00000390: 9744 7c3c 4e66 2f3c 1723 f43b f8bb ea3b
000003a0: 1361 fc3b a20d bd3b 927c 893c d5c8 323c
000003b0: 2bbd 593c 565b fc3b 3589 fe3b c8a1 0d3c
000003c0: ecb9 f13b 4b0b 223c cdbb 143c 1fae 1b3c
000003d0: c631 fd3b dbee c63b 8f9b 953b e9fd 813b
000003e0: 5adb ad3b 3d0a 813b fa26 893b 9db9 873b
000003f0: 123b b33b a648 c73b ef0b a93b 0377 da3b
0.0058397995 0.0075805215 0.007641548 0.0089190705 0.0069005676 0.0058932416 0.004874362 0.005932826
0.009334212 0.011095979 0.022168623 0.010405871 0.0059931786 0.0060397275 0.0056770607 0.008785205
0.01578799 0.014529564 0.010817443 0.0066495994 0.0063270642 0.012579789 0.018355567 0.01991103
0.004557962 0.026261967 0.021172903 0.009831247 0.007997724 0.010535915 0.01151374 0.019051164
0.011320472 0.009537224 0.0067255017 0.006260408 0.0068815676 0.007144911 0.017549025 0.008216277
0.010367479 0.0067174765 0.0064843763 0.006318679 0.0061934935 0.0072710933 0.00767773 0.006048693
0.0060503837 0.011207762 0.014135189 0.01191178 0.014854232 0.010454949 0.015155932 0.012152241
0.011155885 0.017958818 0.013198916 0.023123173 0.009197319 0.01139071 0.012510018 0.009163616
0.013253903 0.017985273 0.02200085 0.011560188 0.009374382 0.010783755 0.017781436 0.026725056
0.020170774 0.008673266 0.0364944 0.020973535 0.014121916 0.010300306 0.012193389 0.016059702
0.020283084 0.013700068 0.010730301 0.009779357 0.010178243 0.009947672 0.012132494 0.01833154
0.01108913 0.011847527 0.01117197 0.011540688 0.009205891 0.009055537 0.011324247 0.011884293
0.008879884 0.011656276 0.0049359333 0.0038482703 0.0036732794 0.0033335441 0.003773334 0.0042632767
0.0051954747 0.0041438034 0.0031954995 0.0026594936 0.0024207146 0.0022636421 0.002910402 0.0039917263
0.002968745 0.002381417 0.0033742844 0.0017483969 0.0015325722 0.002159754 0.0033507273 0.0029940633
0.0029477791 0.0018999646 0.0020294173 0.0013307709 0.0021272562 0.0031267235 0.0024802482 0.00264095
0.0019306184 0.00328381 0.0013674872 0.0021496112 0.003192011 0.0030825662 0.002590592 0.0024418866
0.0024337806 0.0025275594 0.002718375 0.0038046401 0.0040479396 0.0034870119 0.0034444148 0.0032581512
0.003264268 0.0035507777 0.0048249112 0.005054421 0.004511916 0.005208301 0.0056601474 0.004595807
0.004221953 0.004947737 0.0044376315 0.004138772 0.004978302 0.0052949 0.00419092 0.0034907
0.0040022177 0.0036438943 0.0047030007 0.0036563263 0.007981508 0.004848677 0.0041379225 0.0031814645
0.0028808329 0.003206441 0.005186851 0.004948963 0.004354927 0.0038352034 0.004273461 0.003204854
0.0030588384 0.00417264 0.0037180332 0.006936799 0.004555607 0.0042618997 0.0036159765 0.003466662
0.002789673 0.005675013 0.004410608 0.0042031636 0.0033863448 0.0038264499 0.0037965782 0.0032585869
0.0051496294 0.0041369516 0.004818453 0.00403913 0.009720851 0.008582598 0.010341919 0.011921498
0.012074682 0.009118204 0.00897512 0.009034112 0.009849586 0.009599139 0.019012628 0.014418697
0.009677659 0.008785034 0.00822939 0.008463581 0.008609018 0.02304095 0.016097305 0.009338359
0.00788445 0.00895571 0.014945651 0.020289144 0.0032429316 0.022646846 0.024086768 0.01412273
0.0074797235 0.008449078 0.007517417 0.016970001 0.0153972125 0.010705544 0.007450472 0.007163521
0.007702002 0.0057694474 0.016783033 0.01091214 0.01328973 0.007701318 0.007767821 0.008644529
0.0073769 0.009890388 0.009077978 0.009501963 0.0077268807 0.0060709543 0.004565663 0.003967036
0.0053056898 0.003937988 0.0041855546 0.004142 0.005469688 0.0060816584 0.0051588933 0.0066670193

exp_avg f4 [32, 8, 7, 7]
00000000: 0e58 bf38 b570 803a 28c9 9a39 b262 03ba
00000010: 3064 5739 9de4 47b9 5f87 b8b9 0660 2bba
00000020: e6b0 263a 90f4 7d38 d93f 78b9 643d 823a
00000030: 32dc 793a 602c a339 5913 04ba f892 39b8
00000040: 57ae e939 1114 8a3a 878b a33a 106f 553a
00000050: ef51 233a fc23 e439 041a f339 647e 953a
00000060: 840c bd3a a243 0f3a eb9d 3b3a aea3 313a
00000070: 87ce cb39 1904 5a3a 2e12 8e3a 1ffe b539
00000080: 0178 9139 c8e3 a7b8 8c9a f139 3ed9 66ba
00000090: 1f9f c7b8 e5c4 a839 2462 f0b9 a4ed 84ba
000000a0: 37e9 f339 9e7f d43a f5e6 abba a7a4 52ba
000000b0: 94bb b839 744e 8238 a2de 9bba e73e 653a
000000c0: fcde c63a 606d 7aba b32d dc3a db87 88ba
000000d0: c40d 7eba d92a 9338 55fc 3eba dc8b e0ba
000000e0: 5370 27ba 9b7b 7e3a 4bbe 8c39 3e88 43ba
000000f0: 17c9 b73a c9fa 3aba b0a8 2639 0436 eaba
00000100: 1f57 1b39 e354 7c3a 1509 813a 593a 753a
00000110: 2d4d c3ba 9ce9 6d39 6512 31ba 66fe 8e39
00000120: bfe3 f43a bd12 de3a 1e87 463a 054d 0aba
00000130: 18c7 513a d0b4 223a 8164 553a cdad ca3a
00000140: 9d69 3ab9 820e 7439 4c4a 69ba 5e30 973a
00000150: fb6d 4bb8 8752 b539 404f cf3a fd65 f4b9
00000160: f88b 0cba d636 b239 936d 1b3b f536 edba
00000170: 7e7b ccba 2b23 e939 3e36 36b9 d047 99ba
00000180: fb84 aeb9 3a5a 213a b6b6 6aba fee5 3fb9
00000190: 4f4f 9e38 d1bc 9b38 3669 8db9 5c8c 9cba
000001a0: a2df afb9 ac59 feb9 ea90 d5b9 09bd c9b9
000001b0: 623c e3b9 7815 b7ba 9560 93ba fb87 01b8
000001c0: 558b 22b8 f536 5d39 ea9a 0bb8 cd76 e4b9
000001d0: 2349 5aba dc27 3239 26c1 96b9 9e81 b6b9
000001e0: cec0 0739 5126 8bb9 4225 80ba 1535 e0b9
000001f0: 5503 713a d6d4 6a3a e7d4 81b9 0cfd 00ba
00000200: 0665 9ab8 6cb7 c4b9 ba14 83b9 e672 373a
00000210: c5c9 6d39 54a4 36b9 6d31 8bb9 2865 2639
00000220: 4385 bdb9 3cda 8bba bada 893a 9e5b 8739
00000230: d22e d2ba cfff abba 50a9 a3b9 42fe 0aba
00000240: f711 9fba 3f9a 48ba a6b5 51ba 2270 273a
00000250: 8b2d 7e39 17cb ff38 ff93 aa39 e86a 2c39
00000260: 6397 73b9 54f0 4939 3f43 6837 8d87 94b9
00000270: 3e02 64b9 389f 42ba da61 67ba e7d2 2dba
00000280: 81ee 1dba eef5 99b7 c2ff 08b8 9c9a 97b9
00000290: 442f 0437 cfa5 63b9 250f 283a 9aa2 313a
000002a0: f859 f439 7019 3bba dcd3 09ba 21a0 88b8
000002b0: 9302 1eb9 7f18 42b9 d9bc ff39 e0f6 563a
000002c0: 232a 213a 9f01 3a38 ead1 b139 a15f 2a39
000002d0: 5e57 fb39 77f5 f039 ed31 75ba f3ed 6739
000002e0: db7a d0b9 6d73 79ba 9834 0dba a511 06ba
000002f0: a54e 4eba 3b29 9aba 591f 51ba c83e 90ba
00000300: ee6b 9aba ca7e e8ba 4a5b b2ba de3f 78ba
00000310: 530c 3538 0e1c 283a 2c59 3a3a d690 05ba
00000320: 6e7d a9ba 4b15 1eba ff3b fb38 8a94 843a
00000330: 2c17 e53a aca7 cf3a 703e 7bba 894b 2bba
00000340: c599 a33a f3c6 993a 165b 34ba f265 0839
00000350: 81b8 c339 9d72 c0ba 04fe 44ba 440e dc38
00000360: 56dc 28b9 ca87 173a 4ddd a1b9 4399 103a
00000370: b4e9 ba3a bdc7 b53a 68f9 7c3a 3e26 2b3a
00000380: 5788 423a 5188 53ba 6a23 33ba 0a37 043a
00000390: 2f48 d33a eac1 0fba 9c2e b9ba 223f b9b9
000003a0: 9615 303a 84f1 293a 16a1 fbb9 70e1 8f39
000003b0: f523 84b9 b582 73ba 2abb 98ba 0894 40ba
000003c0: ce8e 8837 a73a fdb9 5275 2cbb 4aea e7ba
000003d0: bc86 ae38 2d47 9438 e86e a7b8 fa81 7eb9
000003e0: bcba 01ba c547 89ba cc2f 5239 af36 7739
000003f0: 7152 bd3a a8c0 b939 efde 8c3a ade4 9a39
9.123991e-05 0.0009799214 0.00029523042 -0.000501196 0.0002054132 -0.00019063284 -0.00035196074 -0.0006537441
0.00063587574 6.0547667e-05 -0.00023674908 0.0009936509 0.0009531408 0.00031122845 -0.00050382834 -4.4244312e-05
0.00044571116 0.0010534545 0.0012477495 0.0008141855 0.00062301656 0.0004351436 0.00046367955 0.0011405465
0.0014423286 0.0005465095 0.00071570155 0.00067764043 0.00038873052 0.00083166506 0.0010839158 0.00034712345
0.00027745965 -8.005608e-05 0.00046082248 -0.00088061753 -9.518698e-05 0.00032190155 -0.00045849488 -0.0010141623
0.0004652233 0.0016212349 -0.0013115095 -0.00080353994 0.0003523497 6.213496e-05 -0.0011891911 0.000874503
0.0015172656 -0.00095530413 0.0016798287 -0.0010416465 -0.00096913823 7.017487e-05 -0.0007285525 -0.0017131525
-0.0006387282 0.00097077497 0.0002684466 -0.00074589613 0.0014021721 -0.0007132707 0.00015893835 -0.0017868881
0.00014814407 0.0009625686 0.0009844626 0.0009354703 -0.001490032 0.00022689108 -0.0006754755 0.00027273892
0.0018683596 0.001694284 0.00075732346 -0.0005275759 0.00080023846 0.0006206753 0.00081402814 0.0015463174
-0.00017777686 0.00023275058 -0.0008899316 0.00115348 -4.85014e-05 0.00034584498 0.0015816465 -0.00046615294
-0.0005361433 0.00033991662 0.0023716434 -0.0018098044 -0.0015600768 0.00044467425 -0.0001737708 -0.0011694375
-0.00033286944 0.00061551074 -0.00089536177 -0.00018300858 7.5487995e-05 7.426146e-05 -0.00026972004 -0.0011943686
-0.0003354522 -0.00048513466 -0.00040734495 -0.0003847855 -0.00043341803 -0.001396819 -0.0011243994 -3.088264e-05
-3.8753573e-05 0.00021096675 -3.3284457e-05 -0.00043576062 -0.0008326938 0.00016990252 -0.00028754136 -0.00034810317
0.00012946429 -0.00026540694 -0.0009776729 -0.0004276416 0.0009193917 0.00089581066 -0.00024763422 -0.00049205194
-7.362109e-05 -0.00037520693 -0.0002500171 0.0006998017 0.00022677246 -0.0001741809 -0.0002654897 0.00015868677
-0.00036148177 -0.0010669897 0.0010517456 0.00025817467 -0.0016035682 -0.0013122502 -0.0003121593 -0.00053021696
-0.0012136091 -0.0007652379 -0.0007999785 0.00063872535 0.00024240294 0.00012197176 0.00032535192 0.00016443024
-0.00023230682 0.00019258383 1.38439345e-05 -0.00028329753 -0.0002174461 -0.0007424238 -0.00088265317 -0.0006630853
-0.00060246146 -1.8353541e-05 -3.266312e-05 -0.00028916157 7.878818e-06 -0.00021710175 0.0006410948 0.00067762437
0.0004660634 -0.00071372744 -0.0005257705 -6.514812e-05 -0.00015069013 -0.00018510407 0.00048778093 0.00082002394
0.00061479415 4.4347365e-05 0.0003391647 0.00016248088 0.00047939544 0.00045959253 -0.0009353448 0.0002211852
-0.00039764386 -0.0009515796 -0.000538656 -0.00051143236 -0.00078699953 -0.0011761555 -0.00079773884 -0.0011005038
-0.0011781433 -0.0017737981 -0.0013607529 -0.0009469966 4.316524e-05 0.0006412872 0.00071086246 -0.00050951296
-0.0012931058 -0.00060303946 0.00011979788 0.0010115069 0.0017478219 0.0015842817 -0.0009584194 -0.0006534388
0.001248174 0.0011732265 -0.0006880028 0.00013007948 0.00037330764 -0.0014682595 -0.0007514658 0.00010493075
-0.0001610381 0.0005780427 -0.00030873195 0.0005516002 0.0014260323 0.0013868731 0.00096502015 0.0006528831
0.0007420829 -0.0008069324 -0.0006833585 0.0005043602 0.0016119535 -0.00054839125 -0.001412827 -0.00035332987
0.0006717084 0.0006482827 -0.0004799447 0.0002744305 -0.00025203792 -0.0009289191 -0.0011652459 -0.0007346277
1.6278962e-05 -0.0004829962 -0.0026315046 -0.0017693725 8.322063e-05 7.0704475e-05 -7.9838384e-05 -0.00024271748
-0.0004948785 -0.001047366 0.00020044966 0.00023576127 0.0014444125 0.0003542949 0.0010747592 0.00029543546
