trained_models/Sigma_5_t_10/checkpoints/checkpoint_5.pth (torch, 173091 bytes, 10 tensors)

conv_layer.conv_layers.0.parametrizations.weight.original f4 [8, 1, 7, 7]
0.026617192 0.055031806 -0.049423788 0.12620689 -0.084405296 0.014210743 -0.017810479 0.013510635
0.1276339 -0.11296566 0.2029549 0.0023115985 0.120797604 0.017165836 0.0022034275 -0.095425814
0.1718956 0.2269674 0.0064546713 -0.02948799 -0.051062282 0.019867046 -0.07471062 0.215891
-0.6158539 0.087669924 -0.05861342 0.018959293 0.028686453 -0.081527494 0.23644845 -0.1861272
0.1723422 0.12565194 -0.013702691 0.06714817 0.046827722 -0.0007437296 0.103599 0.008044466
-0.027498916 0.052156426 -0.00619356 0.046802953 0.037625197 -0.02725152 0.05619853 0.009243085
0.025300391 -0.021753253 -0.08991962 -0.008724707 -0.16107832 0.1058485 0.015474885 0.0012009692
0.00035247128 -0.005761783 0.14880402 -0.15299936 -0.004122643 -0.07887191 -0.0029388303 -0.05987429
-0.008769513 -0.08655875 0.31085938 0.0063029793 -0.04439455 -0.062884636 0.13673678 0.07525246
0.22825548 -0.6352908 -0.20732637 -0.07956757 -0.044426046 -0.012489645 0.053579908 0.20418102
-0.052997377 -0.004922053 0.07032572 -0.006495647 0.015411682 -0.04672784 0.056113515 -0.04166718
-0.033265527 -0.0024559437 0.02112621 -0.054389797 -0.014148864 0.073712446 -0.103797756 -0.003794577
0.019788913 -0.017147282 -0.03262424 -0.041316874 -0.07264857 0.06919723 -0.044884127 -0.10870568
-0.026261788 -0.06243494 -0.12565643 -0.020779096 -0.19616003 -0.09499435 0.09983513 0.046193972
0.031466007 -0.05169678 -0.10003093 -0.02284412 0.07755529 -0.16002907 -0.07998578 -0.08940843
0.041675713 -0.11944576 -0.03342377 -0.036830787 -0.12412739 -0.0646978 -0.06271631 -0.1547186
0.19267485 0.012670078 0.18823864 0.07572504 -0.12560521 0.00366027 -0.024471661 -0.0625101
-0.16924313 -0.10320943 0.033628643 -0.013799959 -0.031715978 -0.094171956 0.09162173 -0.11169837
-0.0035980106 -0.042014595 -0.032750554 0.019688835 0.1154221 -0.12426951 0.00643046 -0.036222514
0.028609943 -0.022607889 0.030272253 -0.04187096 0.0652148 0.081424564 0.004480907 -0.098506734
0.08058518 -0.019311529 0.005951132 -0.1648328 0.070788875 -0.03403993 -0.06981874 0.15323114
-0.012649465 -0.05366632 -0.06004972 -0.11104987 0.12003996 0.026775243 -0.11240817 0.039222643
-0.06935547 0.091293305 0.25467297 -0.11702094 0.03519076 0.077534445 0.013153651 -0.033779826
0.08459287 0.051533267 0.046747785 0.050433602 -0.06599272 -0.0040455996 -0.0016510551 -0.018351626
0.08485808 0.019593567 -0.0165418 -0.0054117492 -0.02363963 -0.04618005 0.05552778 0.082262464
-0.05802362 -0.054908443 0.010051599 -0.015541915 -0.049180634 -0.09207053 -0.07947336 -0.091820925
-0.03221522 -0.0281968 0.05443072 0.052408762 -0.10953272 -0.09589448 0.03008837 0.1444797
-0.012088908 -0.07911059 0.15867737 -0.13002776 -0.6776024 0.20769031 -0.014079377 0.029110193
-0.07261837 0.014253534 0.15133555 0.15991819 -0.18352024 -0.12233751 -0.031770702 0.029059207
-0.028645927 0.066219054 0.11242252 -0.0088748485 0.001770157 -0.04914173 -0.054283317 -0.09718092
0.07105457 -0.038115934 -0.03549648 -0.03759055 -0.024274481 -0.025396336 -0.0617193 0.0845993
-0.06374144 0.09045832 -0.05989897 -0.05791381 -0.019903492 -0.063159935 -0.04431984 -0.115936995
00000000: 4c0c da3c 0869 613d 9970 4abd 613c 013e
00000010: afdc acbd 2dd4 683c 48e7 91bc b65b 5d3c
00000020: 76b2 023e 8a5a e7bd 69d3 4f3e 307e 173b
00000030: bc64 f73d 5e9f 8c3c 6167 103b 9c6e c3bd
00000040: 6605 303e 246a 683e b581 d33b cc90 f1bc
00000050: af26 51bd 37c0 a23c e201 99bd 8812 5d3e
00000060: 9aa8 1dbf 4a8c b33d a014 70bd 8550 9b3c
00000070: daff ea3c e3f7 a6bd 8b1f 723e 2198 3ebe
00000080: 797a 303e e7aa 003e 4081 60bc fb84 893d
00000090: 6dce 3f3d d9f6 42ba b62b d43d f0cc 033c
000000a0: 6845 e1bc faa1 553d 59f3 cabb 74b4 3f3d
000000b0: e11c 1a3d 943e dfbc 6e30 663d 4f70 173c
000000c0: c442 cf3c e133 b2bc c727 b8bd 13f2 0ebc
000000d0: b7f1 24be 19c7 d83d 5f8a 7d3c d769 9d3a
000000e0: e5cb b839 57cd bcbb 1560 183e ddab 1cbe
000000f0: 3c17 87bb 9987 a1bd 6499 40bb be3e 75bd
00000100: 01ae 0fbc b745 b1bd f628 9f3e 3989 ce3b
00000110: 0fd7 35bd a9c9 80bd ba04 0c3e f61d 9a3d
00000120: cebb 693e 6ba2 22bf 5d4d 54be 52f4 a2bd
00000130: 16f8 35bd 5ea1 4cbc 9b76 5b3d d414 513e
00000140: c713 59bd 2c49 a1bb ee06 903d 70d9 d4bb
00000150: 4881 7c3c b165 3fbd 49d7 653d 34ab 2abd
00000160: 6f41 08bd e6f3 20bb e010 ad3c d6c7 5ebd
00000170: a3d0 67bc 8df6 963d eb93 d4bd 70ae 78bb
00000180: 5c1c a23c 7578 8cbc ffa0 05bd e23b 29bd
00000190: c6c8 94bd 47b7 8d3d 6bd8 37bd 15a1 debd
000001a0: f622 d7bc c8bb 7fbd 14ac 00be ec38 aabc
000001b0: 2dde 48be 668c c2bd 5c76 cc3d e435 3d3d
000001c0: 80e2 003d 01c0 53bd 04dd ccbd 9823 bbbc
000001d0: 4fd5 9e3d a9de 23be 96cf a3bd c41b b7bd
000001e0: 27b4 2a3d fb9f f4bd 5de7 08bd e1db 16bd
000001f0: 8036 febd 4880 84bd 6971 80bd 8d6e 1ebe
00000200: 8e4c 453e 2996 4f3c a1c1 403e bb15 9b3d
00000210: a79e 00be 24e1 6f3b cb78 c8bc 4c05 80bd
00000220: 124e 2dbe 775f d3bd 30be 093d 3919 62bc
00000230: 9de8 01bd 3add c0bd 2ca4 bb3d 1dc2 e4bd
00000240: 9acc 6bbb 7f17 2cbd 7225 06bd 7b4a a13c
00000250: 6c62 ec3d 0381 febd 9cb6 d23b 0f5e 14bd
00000260: 665f ea3c 2e34 b9bc 84fd f73c e280 2bbd
00000270: 568f 853d ecc1 a63d 93d4 923b e6bd c9bd
00000280: d809 a53d 3633 9ebc b701 c33b eec9 28be
00000290: c2f9 903d 746d 0bbd 21fd 8ebd a0e8 1c3e
000002a0: b43f 4fbc 37d1 5bbd b2f6 75bd 1d6e e3bd
000002b0: 83d7 f53d c157 db3c 4136 e6bd eca7 203d
000002c0: 3e0a 8ebd fcf7 ba3d 7f64 823e ada8 efbd
000002d0: 3024 103d 61ca 9e3d 6982 573c b75c 0abd
000002e0: 073f ad3d 8c14 533d 9b7a 3f3d 7793 4e3d
000002f0: 3127 87bd f390 84bb 3768 d8ba 2656 96bc
00000300: 13ca ad3d b082 a03c ab82 87bc 0b55 b1bb
00000310: e6a7 c1bc 4b27 3dbd 1971 633d 3979 a83d
00000320: 2daa 6dbd ade7 60bd 76af 243c 84a3 7ebc
00000330: a271 49bd 798f bcbd eec2 a2bd 9c0c bcbd
00000340: 1bf4 03bd fafc e6bc bff2 5e3d 92aa 563d
00000350: b152 e0bd 5364 c4bd e37b f63c 7df2 133e
00000360: 8e10 46bc bc04 a2bd 527c 223e ff25 05be
00000370: 5a77 2dbf c5ac 543e 30ad 66bc 8078 ee3c
00000380: f1b8 94bd a887 693c b5f7 1a3e 98c1 233e
00000390: bbec 3bbe 178c fabd ff21 02bd 930d ee3c
000003a0: ddaa eabc db9d 873d c73d e63d d067 11bc
000003b0: 9d04 e83a d748 49bd 2f58 5ebd ca06 c7bd
000003c0: 0f85 913d 741f 1cbd c264 11bd 8cf8 19bd
000003d0: 47db c6bc fa0b d0bc 60cd 7cbd 6642 ad3d
000003e0: df8a 82bd 3642 b93d 9f58 75bd 0837 6dbd
000003f0: a60c a3bc ff59 81bd b888 35bd 6070 edbd

conv_layer.conv_layers.1.parametrizations.weight.original f4 [32, 8, 7, 7]
0.015384786 -0.010874437 0.031151704 0.007539119 -0.013576358 -0.016426684 0.009284241 -0.0025116117
-0.015010357 0.031654943 0.02047287 -0.011274321 -0.009323348 0.013780859 0.026400397 -0.019178316
-0.079703555 0.17202523 -0.11009891 -0.018879857 0.07201937 0.06803025 -0.020044057 -0.063955575
0.22712366 -0.14128523 -0.088401124 0.07132714 0.093004264 0.020247256 -0.12730242 0.23223662
0.042483464 -0.1664215 0.0029932845 0.0816951 0.04014145 -0.06137701 0.13917334 0.058677275
-0.04196305 -0.018844385 -0.034882054 0.07524814 -0.057334818 -0.022195017 0.032246154 0.004618462
-0.026060058 -0.002666217 0.012279372 0.047755793 0.004141872 -0.048485044 -0.011638604 0.015652644
0.00015932604 -0.0016347215 0.044333845 -0.040064853 -0.12768866 -0.031866673 0.020987408 -0.0148102995
0.0041987076 0.072675735 0.098792784 -0.17371003 -0.050214395 0.011962153 0.011830987 0.01789388
0.08762587 0.25191873 -0.27330667 -0.17739378 0.05023953 0.027042558 -0.025597407 0.02214204
0.29981655 -0.114217654 -0.1719028 -0.0051606153 -0.018489212 -0.06156972 -0.056389093 0.23773608
0.1343256 -0.12548211 -0.06820404 0.0009751053 -0.07925686 -0.065519966 0.04262351 0.19669147
-0.025632162 -0.026963785 -0.004420366 0.03152579 -0.02315269 0.018451905 0.09453929 -0.021710249
0.0041649663 0.013726221 0.0074397093 -0.003973275 -0.024288991 0.06904822 0.035733107 0.031987563
0.032492388 0.022977574 -0.09034477 0.04641439 -0.0026244684 0.010818173 0.021491595 0.002246686
0.047102608 -0.083554246 0.05777028 -0.040584166 0.025111366 -0.026524628 -0.005781826 -0.0056242677
-0.0052317516 -0.010927326 0.005785935 0.018515501 0.018732449 -0.006381005 0.0034536563 -0.003940854
-0.09435602 0.044696163 0.049390282 0.054916795 0.019261854 -0.002293857 0.029338207 -0.021102441
0.033664186 -0.055028062 0.016659746 -0.032569665 0.00022220863 0.000621429 0.014711374 0.0072073457
-0.035145674 -0.026393846 -0.0045602918 0.013173079 -0.00024560821 0.057939388 0.0010476403 -0.031992853
-0.012421609 -0.026381237 0.02563265 -0.05845474 0.07055318 0.034760375 -0.00591905 0.009387638
-0.025048368 0.11818952 0.032649368 -0.08443721 0.0022377807 0.06630126 0.00870883 -0.038182013
0.022682626 -0.009103419 0.0063747386 -0.084650554 0.052956626 -0.0014551001 0.021265242 0.033770043
0.02456825 0.04617034 -0.14395908 -0.00074940885 -0.0076848613 0.003437886 0.022400225 0.012575496
0.110610895 -0.14977683 -0.047290098 -0.01640511 -0.009770059 -0.017153 -0.02471573 0.072756164
-0.053992577 -0.0346269 -0.012968953 -0.016217107 -0.010734852 -0.07236193 0.08599034 0.004576129
0.0060008876 -0.010660701 -0.031425897 -0.03398333 0.006860759 0.086717315 -0.13448422 -0.058932204
-0.0024737 0.037506994 -0.040811617 -0.040876225 0.25022238 -0.13580027 -0.16496187 0.002837362
0.04778363 -0.033522032 -0.104432374 0.1175633 -0.04099787 -0.14894864 -0.09652162 0.0043578674
0.035689916 -0.11239357 -0.0999711 0.11567995 -0.054101925 -0.05636686 0.0124841435 0.054070752
-0.009818056 -0.04797753 0.020770397 -0.033317663 -0.05288337 -0.008044796 -0.038770027 0.008099729
-0.030270005 0.01805227 0.054109402 0.03313376 -0.016658513 -0.048674434 -0.044520915 0.037015796
00000000: 7810 7c3c b22a 32bc dc31 ff3c b70a f73b
00000010: 5f6f 5ebc 4191 86bc ee1c 183c da99 24bb
00000020: 00ee 75bc 9da8 013d b8b6 a73c eeb7 38bc
00000030: f5c0 18bc 1dc9 613c a545 d83c d81b 9dbc
00000040: 9e3b a3bd 6227 303e 8a7b e1bd eea9 9abc
00000050: e47e 933d 7253 8b3d 6f33 a4bc 24fb 82bd
00000060: 1b93 683e 13ad 10be a60b b5bd f713 923d
00000070: 0579 be3d 93dd a53c 915b 02be 70cf 6d3e
00000080: 2403 2e3d 666a 2abe fb2a 443b c34f a73d
00000090: 5c6b 243d 7666 7bbd 7583 0e3e 9557 703d
000000a0: 72e1 2bbd 8a5f 9abc 7ce0 0ebd b21b 9a3d
000000b0: ead7 6abd 53d2 b5bc 8b14 043d 7856 973b
000000c0: e77b d5bc b3bb 2ebb 6b2f 493c 949b 433d
000000d0: 8ab8 873b 4198 46bd d8af 3ebc f939 803c
000000e0: c210 2739 2744 d6ba 6897 353d 0b1b 24bd
000000f0: d1c0 02be a186 02bd c9ed ab3c e6a6 72bc
00000100: 5095 893b 04d7 943d df53 ca3d 0be1 31be
00000110: 9cad 4dbd e8fc 433c c2d6 413c 3096 923c
00000120: 3175 b33d 7efb 803e daee 8bbe b7a6 35be
00000130: f7c7 4d3d 5b88 dd3c a7b1 d1bc 3963 b53c
00000140: 8e81 993e f2ea e9bd 4a07 30be 611a a9bb
00000150: b076 97bc 8830 7cbd 40f8 66bd 1671 733e
00000160: a68c 093e 627e 00be 8fae 8bbd 359e 7f3a
00000170: 6c51 a2bd 552f 86bd fd95 2e3d 7d69 493e
00000180: 8afa d1bc 28e3 dcbc b8d8 90bb 3021 013d
00000190: b6aa bdbc 7328 973c d19d c13d b1d9 b1bc
000001a0: 457a 883b f2e3 603c cec8 f33b 3f32 82bb
000001b0: b5f9 c6bc 2769 8d3d e15c 123d 6405 033d
000001c0: bd16 053d 773b bc3c ae06 b9bd 041d 3e3d
000001d0: 46ff 2bbb b53e 313c 240f b03c 233d 133b
000001e0: aaee 403d 7d1e abbd 87a0 6c3d 953b 26bd
000001f0: 5ab6 cd3c 2d4a d9bc 7975 bdbb c74b b8bb
00000200: 1d6f abbb 8708 33bc f197 bd3b d2ad 973c
00000210: cb74 993c c017 d1bb bd56 623b 4822 81bb
00000220: bb3d c1bd 5313 373d 774d 4a3d 6ff0 603d
00000230: 09cb 9d3c 8954 16bb ae56 f03c 07df acbc
00000240: 75e3 093d 1b65 61bd 057a 883c c567 05bd
00000250: ad00 6939 65e7 223a fa07 713c 992b ec3b
00000260: e9f4 0fbd e837 d8bc 806e 95bb e6d3 573c
00000270: fac4 80b9 da51 6d3d fa50 893a f00a 03bd
00000280: 0184 4bbc 771d d8bc 90fb d13c 3d6e 6fbd
00000290: 307e 903d e560 0e3d 97f4 c1bb 9cce 193c
000002a0: 3c32 cdbc 590d f23d 58bb 053d 6aed acbd
000002b0: bba7 123b f4c8 873d 7baf 0e3c be64 1cbd
000002c0: ead0 b93c 8226 15bc 2fe3 d03b 455d adbd
000002d0: 0ce9 583d 0fb9 beba 7234 ae3c 7552 0a3d
000002e0: 5b43 c93c 1c1d 3d3d 026a 13be fa73 44ba
000002f0: 4ad1 fbbb 284e 613b ad80 b73c 7409 4e3c
00000300: f787 e23d 195f 19be 43b3 41bd 0264 86bc
00000310: 9912 20bc 7384 8cbc a578 cabc 2f01 953d
00000320: 5227 5dbd f0d4 0dbd bb7b 54bc bdd9 84bc
00000330: 3ce1 2fbc 7e32 94bd b41b b03d 5af3 953b
00000340: 18a3 c43b 39aa 2ebc 71b8 00bd 1b32 0bbd
00000350: 38d0 e03b d998 b13d 3bb6 09be e562 71bd
00000360: cd1d 22bb efa0 193d 152a 27bd d46d 27bd
00000370: 261d 803e 3a0f 0bbe c4eb 28be 09f3 393b
00000380: c5b8 433d 664e 09bd a4e0 d5bd 07c5 f03d
00000390: 62ed 27bd fe85 18be 21ad c5bd 71cc 8e3b
000003a0: 972f 123d 9a2e e6bd a6bd ccbd 9ce9 ec3d
000003b0: fb99 5dbd f0e0 66bd 4b8a 4c3c 4b79 5d3d
000003c0: e9db 20bc 1684 44bd ae26 aa3c 1a78 08bd
000003d0: 3c9c 58bd 52ce 03bc 52cd 1ebd bab4 043c
000003e0: cdf8 f7bc 5be2 933c d2a1 5d3d 44b7 073d
000003f0: 6f77 88bc d85e 47bd 905b 36bd e09d 173d

activation.coefficients_vect f4 [672]
-0.0 0.0021748124 0.0019989265 0.00088745006 0.00083106087 0.0006404244 0.0003653234 -0.00010024948
-0.00018779302 -0.00022482673 -0.0002710123 1.1062845e-05 -0.00020875318 -0.00022904373 -0.00045874534 -0.00048447796
-0.00063006754 -0.00072284875 -0.0014911459 -0.001715338 0.0 -0.0 0.0013126398 0.0011247088
0.00064173917 0.0004974585 0.00037205764 2.3931576e-05 -6.6472376e-06 -0.00017815083 -0.00028240692 -4.4480756e-05
0.00018213646 0.00011389961 4.7815956e-05 -9.041798e-06 -4.5178298e-05 -0.0004612852 -0.0006575016 -0.00085286633
-0.0016019619 0.0 -0.0 0.001138857 0.0009734359 0.00063378696 0.0004939858 9.7796394e-05
-0.00028490787 -0.00033786794 -0.00035791093 -0.0004909895 -9.1088004e-05 0.00031931823 0.00042665415 0.0003227483
2.2995542e-05 -0.00012661963 -0.00022853356 -0.00063538516 -0.00091049296 -0.0012190472 0.0 -0.0
0.0022660315 0.0017332855 0.0011721962 0.00084958394 0.0008089414 0.00031150045 0.00028341907 -0.00017816102
-0.00029544253 2.0644693e-05 0.00025728095 0.00013606981 7.328154e-05 -4.678985e-05 -0.00042279685 -0.00066756026
-0.00068673416 -0.0013643139 -0.0023070883 0.0 -0.0 0.0005008669 0.00034315384 0.000287526
0.00027483137 0.00019807075 0.00018403618 0.00012566359 9.854617e-05 8.182988e-05 5.6449742e-05 -2.567321e-05
-4.2127984e-05 -0.00018320279 -0.00021925697 -0.00033284436 -0.000341691 -0.0003564114 -0.00047463377 -0.00075331016
0.0 -0.0 0.00052873814 0.00030204523 0.0002935047 0.0002506915 0.00019681783 5.1226496e-05
-0.00014708219 -0.00017707614 -0.00034502018 -4.618608e-05 0.00028689523 0.000225905 0.00010955837 0.00010100889
2.1433409e-05 -0.00023525242 -0.00023651142 -0.00050884753 -0.0008365939 0.0 -0.0 0.0008743566
0.0004265034 0.00029923 0.00027366134 0.00024873545 6.288667e-05 1.0965608e-05 -3.442031e-05 -0.00014970356
0.00023710183 0.00047943892 0.00028557473 6.531596e-05 -0.00019168618 -0.00034051764 -0.0010823236 -0.0011727007
-0.0016156936 -0.0016969346 0.0 -0.0 0.00052350265 0.00039027826 0.00038760735 0.00034816252
0.00029878484 0.00024266391 0.00014052082 3.9375573e-05 1.1715527e-05 -8.008846e-06 -2.1817334e-05 -5.5964432e-05
-6.655747e-05 -0.00013954444 -0.00018631495 -0.00034645788 -0.00037259702 -0.00053573435 -0.000693915 0.0
-0.0 0.0014250955 0.00096006796 0.00079972507 0.00056258996 0.00016318623 -7.449206e-05 -0.0005373543
-0.0006151767 -0.0007642078 -0.00029531986 0.00023935654 0.00011701531 -2.3181321e-06 -4.0273942e-05 -7.576281e-05
-0.00018940069 -0.00029039785 -0.00060186343 -0.0007206388 0.0 -0.0 0.0029252376 0.0020739785
0.0015597955 0.0011059018 0.0010119564 0.00030400738 1.5448179e-05 -4.7265912e-05 -0.0001851576 3.8980204e-05
0.00027386998 0.00020991552 6.601938e-05 -0.00039438956 -0.0004910624 -0.00051393517 -0.0010231396 -0.0019989288
-0.0021314009 0.0 -0.0 0.002431967 0.0017112098 0.00153479 0.0010241496 0.00062198413
0.0003927893 0.0003634483 -0.00010757881 -0.00020412242 -2.4408664e-05 0.00016706632 9.876722e-05 -0.00025969744
-0.00032902276 -0.0009326815 -0.00096977287 -0.0010850147 -0.0017143965 -0.0027543497 0.0 -0.0
0.00085068005 0.00068418676 0.0005871475 0.00044124655 0.00033549196 0.00032334647 0.00030585038 0.00028120313
0.00020216174 0.00017931055 0.00013401223 -0.00019187274 -0.00024307202 -0.0002905502 -0.00041067592 -0.00044337535
-0.0009121774 -0.00093733665 -0.0013289766 0.0 -0.0 0.0011818564 0.0008263802 0.00081351225
00000000: 0000 0080 4c87 0e3b 6c00 033b c4a3 683a
00000010: 8ddb 593a 27e2 273a e088 bf39 083d d2b8
00000020: 4eea 44b9 77bf 6bb9 a816 8eb9 8f9a 3937
00000030: c1e4 5ab9 752b 70b9 c283 f0b9 8801 feb9
00000040: 1e2b 25ba 8f7d 3dba 8e72 c3ba 31d5 e0ba
00000050: 0000 0000 0000 0080 e20c ac3a f76a 933a
00000060: 633a 283a e067 023a bb10 c339 abc0 c837
00000070: 560b dfb6 00ce 3ab9 0410 94b9 d990 3ab8
00000080: e2fb 3e39 63dd ee38 fe8d 4838 3ab2 17b7
00000090: d47d 3db8 a7d8 f1b9 2f5c 2cba e492 5fba
000000a0: ecf8 d1ba 0000 0000 0000 0080 b345 953a
000000b0: 2d2e 7f3a b924 263a d37e 013a 0a18 cd38
000000c0: b05f 95b9 de23 b1b9 fea5 bbb9 bfb5 00ba
000000d0: 8006 bfb8 2b6a a739 8db0 df39 8b36 a939
000000e0: 8de6 c037 33c5 04b9 83a2 6fb9 fa8f 26ba
000000f0: 26ae 6eba 70c8 9fba 0000 0000 0000 0080
00000100: b381 143b 692f e33a 61a4 993a 9db6 5e3a
00000110: 230f 543a e250 a339 dd97 9439 bcd0 3ab9
00000120: a0e5 9ab9 242e ad37 aae3 8639 f6ad 0e39
00000130: baae 9938 3840 44b8 d5aa ddb9 36ff 2eba
00000140: f305 34ba c7d2 b2ba 8532 17bb 0000 0000
00000150: 0000 0080 9c4c 033a 54e9 b339 16bf 9639
00000160: 3e17 9039 36b1 4f39 d6f9 4039 90c4 0339
00000170: 92aa ce38 159c ab38 73c4 6c38 cc5c d7b7
00000180: 94b2 30b8 201a 40b9 58e8 65b9 9d81 aeb9
00000190: fd24 b3b9 badc bab9 44d8 f8b9 ca79 45ba
000001a0: 0000 0000 0000 0080 049b 0a3a d35b 9e39
000001b0: 89e1 9939 3e6f 8339 e260 4e39 08dc 5638
000001c0: 133a 1ab9 84ad 39b9 d3e3 b4b9 edb7 41b8
000001d0: 6d6a 9639 e9e0 6c39 b4c2 e538 bcd4 d338
000001e0: e5cb b337 17ae 76b9 0d00 78b9 2e64 05ba
000001f0: de4e 5bba 0000 0000 0000 0080 1435 653a
00000200: 519c df39 f9e1 9c39 347a 8f39 b568 8239
00000210: 06e2 8338 eef8 3737 875e 10b8 bef9 1cb9
00000220: 8a9e 7839 345d fb39 31b9 9539 3dfa 8838
00000230: 5eff 48b9 8187 b2b9 c1dc 8dba 4eb5 99ba
00000240: aec5 d3ba ad6b deba 0000 0000 0000 0080
00000250: ab3b 093a 439e cc39 c737 cb39 9589 b639
00000260: 39a6 9c39 9973 7e39 c558 1339 3327 2538
00000270: ce8d 4437 bb5d 06b7 5e04 b7b7 5abb 6ab8
00000280: c594 8bb8 ad52 12b9 8a5d 43b9 caa4 b5b9
00000290: 2059 c3b9 8670 0cba d9e7 35ba 0000 0000
000002a0: 0000 0080 45ca ba3a 12ad 7b3a a4a4 513a
000002b0: c67a 133a f81c 2b39 9f38 9cb8 3ddd 0cba
000002c0: cf43 21ba 1e55 48ba 29d5 9ab9 c8fb 7a39
000002d0: 1e66 f538 3591 1bb6 d1eb 28b8 d9e2 9eb8
000002e0: dc99 46b9 8a40 98b9 5fc6 1dba 40e9 3cba
000002f0: 0000 0000 0000 0080 58b5 3f3b 96eb 073b
00000300: 0d72 cc3a e8f3 903a 9fa3 843a 2e63 9f39
00000310: b696 8137 633f 46b8 dd26 42b9 ad7e 2338
00000320: 3596 8f39 c51c 5c39 e273 8a38 12c6 ceb9
00000330: a4ba 00ba 9bb9 06ba de1a 86ba 7600 03bb
00000340: f9ae 0bbb 0000 0000 0000 0080 a361 1f3b
00000350: ac4a e03a 022b c93a c23c 863a a60c 233a
00000360: 4aef cd39 348d be39 ef9b e1b8 b209 56b9
00000370: 35c1 ccb7 862e 2f39 3f21 cf38 0028 88b9
00000380: b080 acb9 327f 74ba 5b38 7eba 0d37 8eba
00000390: 9ab5 e0ba 5282 34bb 0000 0000 0000 0080
000003a0: 2c00 5f3a ff5a 333a cdea 193a 1c57 e739
000003b0: f8e4 af39 d486 a939 8b5a a039 726e 9339
000003c0: 61fb 5339 4f05 3c39 a285 0c39 7231 49b9
000003d0: 26e1 7eb9 fd54 98b9 fd4f d7b9 d574 e8b9
000003e0: 301f 6fba 99b7 75ba 0e31 aeba 0000 0000
000003f0: 0000 0080 85e8 9a3a 70a1 583a e241 553a

u f4 [1, 1, 20, 20]
0.00346719 -0.0012315959 0.0032350868 0.009858223 -0.021750972 0.03486742 -0.03249146 0.032555424
-0.035313398 0.04160688 -0.04077688 0.029799398 -0.017218592 0.006049931 0.0028840313 -0.0125894975
0.016982988 -0.010741484 0.0015913635 0.0012314942 0.006670924 -0.042183176 0.045425378 -0.10574764
0.14194211 -0.17041758 0.15585542 -0.15847337 0.1750209 -0.19214918 0.17503883 -0.12462814
0.07360246 -0.029650718 -0.005861534 0.04152546 -0.05361841 0.031627275 -0.0025882116 -0.004332743
-0.026693165 0.09813975 -0.073257476 0.14703639 -0.16380852 0.18019766 -0.1266082 0.10811291
-0.124576814 0.15023127 -0.1324526 0.076767586 -0.037211604 0.01766714 -0.0059992317 -0.029279035
0.048013363 -0.030110044 -0.0016785234 0.006578943 0.017959349 -0.052364193 -0.048046708 -0.01547
-0.0053837523 0.007620286 -0.106455095 0.14878163 -0.12811506 0.07916257 -0.06294979 0.07777004
-0.057801932 0.009612307 0.033957265 -0.016780015 -0.0076514957 0.009903883 0.0115928715 -0.009568777
-0.02245076 0.035557434 0.11535448 -0.041448202 0.07595457 -0.06482661 0.18812975 -0.2427164
0.21882498 -0.15827335 0.126568 -0.13402387 0.09368798 -0.012000721 -0.064725205 0.05828528
-0.024449505 0.0019099235 -0.015310277 0.009648761 0.035394043 -0.037321 -0.15134582 0.057699177
-0.086351365 0.02921537 -0.15010509 0.20117347 -0.18159062 0.12915593 -0.10092172 0.12391764
-0.08597512 -0.0040274654 0.09582275 -0.09397139 0.047332674 -0.0067083132 0.009988609 -0.004740758
-0.046619665 0.057999875 0.13186851 0.0011718161 0.0053880587 0.11226125 -0.0033839494 -0.037308924
0.031744227 -0.0045550885 0.0016081333 -0.07028731 0.06811735 -0.007135485 -0.07584026 0.07493633
-0.027798112 -0.0075812778 0.0014632127 -0.00032058067 0.046761014 -0.056160882 -0.13260818 -0.018513128
0.01731205 -0.18129638 0.08198844 -0.05730232 0.047502074 -0.0520553 0.034802724 0.07303234
-0.10150896 0.071756154 0.0053800624 -0.0151727805 -0.015880112 0.029388387 -0.013011631 0.0035621454
-0.03552174 0.026728598 0.15690844 -0.002542504 0.007819891 0.18656239 -0.09678471 0.09956789
-0.08578691 0.08595094 -0.06652364 -0.06061188 0.10695837 -0.109547935 0.04431793 -0.031238496
0.046745017 -0.03976569 0.015140057 -0.0021920789 0.021616187 0.0146620795 -0.19354466 0.057920374
-0.084800266 -0.11490344 0.029395835 -0.066520855 0.06197757 -0.07956902 0.078527704 0.043915346
-0.09112742 0.11965066 -0.06729118 0.057730895 -0.06212046 0.04279904 -0.012936382 -0.000776639
-0.0127510335 -0.042638987 0.20420802 -0.09204112 0.142367 0.048705846 0.032995842 0.040930126
-0.052362047 0.09911422 -0.1272614 0.027572237 0.0063026724 -0.053656477 0.017902493 -0.025725467
0.03555282 -0.024432091 0.0015581477 0.0056485077 0.008053543 0.051506564 -0.18303083 0.09621985
-0.1725632 0.010102473 -0.10113213 0.006741808 0.011026325 -0.08265712 0.13721284 -0.067947835
0.056860458 -0.0022597369 0.027856506 -0.003387352 -0.014142841 0.015106607 0.0018475987 -0.006577979
-0.009262593 -0.030845188 0.11494438 -0.045816246 0.13959354 -0.013884224 0.11943014 -0.021289475
0.01053733 0.073193 -0.1424945 0.10299998 -0.11855026 0.06780177 -0.09153117 0.054097563
00000000: cc39 633b 806d a1ba c003 543b 6284 213c
00000010: 182f b2bc 24d1 0e3d c415 05bd d658 053d
00000020: c8a4 10bd fa6b 2a3d a805 27bd de1d f43c
00000030: 010e 8dbc 803e c63b 0402 3d3b 2e44 4ebc
00000040: e81f 8b3c 0dfd 2fbc 4c95 d03a 176a a13a
00000050: c497 da3b 44c8 2cbd f60f 3a3d 3892 d8bd
00000060: 4659 113e f281 2ebe 9098 1f3e d846 22be
00000070: ae38 333e c1c2 44be 613d 333e 0a3d ffbd
00000080: e3bc 963d 10e6 f2bc 1c12 c0bb 9a16 2a3d
00000090: fa9e 5bbd 9a8b 013d fc9e 29bb aff9 8dbb
000000a0: a0ab dabc 7efd c83d 0408 96bd b590 163e
000000b0: 6cbd 27be bc85 383e 94a5 01be 4d6a dd3d
000000c0: 2122 ffbd 3ad6 193e a8a1 07be 5338 9d3d
000000d0: 326b 18bd aeba 903c 3495 c4bb 96da efbc
000000e0: a9a9 443d 57a9 f6bc e601 dcba 2d94 d73b
000000f0: 7c1f 933c d67b 56bd a0cc 44bd e275 7dbc
00000100: 306a b0bb 98b3 f93b 2105 dabd 365a 183e
00000110: 9830 03be fc1f a23d d2eb 80bd e645 9f3d
00000120: b8c1 6cbd f07c 1d3c c616 0b3d 3e76 89bc
00000130: 66b9 fabb e543 223c 07f0 3d3c 5cc6 1cbc
00000140: a8ea b7bc aca4 113d f83e ec3d 97c5 29bd
00000150: 128e 9b3d d0c3 84bd 16a5 403e a68a 78be
00000160: a813 603e 6912 22be 0b9b 013e 8e3d 09be
00000170: 7cdf bf3d ac9e 44bc a68e 84bd 8cbc 6e3d
00000180: 544a c8bc 6656 fa3a f5d7 7abc d615 1e3c
00000190: 58f9 103d e8dd 18bd 66fa 1abe f955 6c3d
000001a0: fcd8 b0bd 1255 ef3c 26b5 19be 6b00 4e3e
000001b0: e4f2 39be 7441 043e 0cb0 cebd 88c8 fd3d
000001c0: b913 b0bd d4f8 83bb b83e c43d 1274 c0bd
000001d0: e8df 413d 69d1 dbbb 43a7 233c 5c58 9bbb
000001e0: 43f4 3ebd 4791 6d3d 8a08 073e a097 993a
000001f0: 508e b03b 3ae9 e53d 40c5 5dbb 3ed1 18bd
00000200: 3c06 023d da42 95bb 00c8 d23a cbf2 8fbd
00000210: 1c81 8b3d c9d0 e9bb 2352 9bbd 3878 993d
00000220: deb8 e3bc 5e6c f8bb 45c9 bf3a 9c13 a8b9
00000230: 7a88 3f3d f408 66bd 70ca 07be d8a8 97bc
00000240: 00d2 8d3c c2a5 39be 8ee9 a73d d6b5 6abd
00000250: 8991 423d f037 55bd 4d8d 0e3d fb91 953d
00000260: eee3 cfbd e4f4 923d 3c4b b03b 4197 78bc
00000270: 0217 82bc eabf f03c bc2e 55bc e272 693b
00000280: 3e7f 11bd eff5 da3c 9bac 203e 24a0 26bb
00000290: 001f 003c 360a 3f3e 1037 c6bd 40ea cb3d
000002a0: 0cb1 afbd 0c07 b03d 8c3d 88bd 2a44 78bd
000002b0: fd0c db3d ab5a e0bd b886 353d e0e7 ffbc
000002c0: b477 3f3d 59e1 22bd 000e 783c fba8 0fbb
000002d0: 6e14 b13c 3839 703c 9230 46be ea3d 6d3d
000002e0: c3ab adbd 7f52 ebbd 89cf f03c 163c 88bd
000002f0: 31dc 7d3d 15f5 a2bd 22d3 a03d 94e0 333d
00000300: 03a1 babd 680b f53d f5cf 89bd 3b77 6c3d
00000310: 0672 7ebd 0c4e 2f3d 1ef3 53bc 5c97 4bba
00000320: b6e9 50bc 38a6 2ebd e81b 513e 0e80 bcbd
00000330: a8c8 113e c87f 473d a626 073d 59a6 273d
00000340: 9679 56bd 65fc ca3d d050 02be 2cdf e13c
00000350: a686 ce3b e5c6 5bbd 40a8 923c 37be d2bc
00000360: d59f 113d cf25 c8bc c33a cc3a 1e17 b93b
00000370: 02f3 033c 8cf8 523d 6f6c 3bbe ea0e c53d
00000380: 68b4 30be d884 253c 5d1e cfbd 62ea dc3b
00000390: c2a7 343c 2348 a9bd 8681 0c3e 3c28 8bbd
000003a0: 83e6 683d 1818 14bb 5433 e43c 56fe 5dbb
000003b0: 60b7 67bc b481 773c 202b f23a 168c d7bb
000003c0: 22c2 17bc 0caf fcbc f667 eb3d d1a9 3bbd
000003d0: 9cf1 0e3e a87a 63bc ca97 f43d 4467 aebc
000003e0: c4a4 2c3c 36e6 953d 14ea 11be a7f1 d23d
000003f0: 7bca f2bd a8db 8a3d b274 bbbd 6895 5d3d

exp_avg f4 [8, 1, 7, 7]
-0.020743804 0.017257232 0.0022879103 0.018073406 -0.0045012557 0.007769936 0.006873022 -0.012068076
-0.009557792 0.001183533 0.00031555895 0.0051638936 0.0122183245 0.0016099192 -0.0090360455 -0.006026481
0.013917321 -0.004118674 0.0035291351 0.020391509 0.019324567 -0.018230336 0.015800832 0.0040979288
0.010150959 -0.005384833 0.025309222 0.00911099 -0.021420076 0.004463509 -0.003426249 -0.0029555517
0.006322378 0.016061101 -0.0024068318 -0.026851162 0.001656812 -0.0062824334 -0.011628449 0.010325021
-0.008572684 0.00883525 -0.032908544 -0.013033639 -0.0065601016 -0.011024893 0.0015363174 0.010223791
-0.01707165 -0.035225537 0.011986834 -0.0028486133 0.012312309 0.0071944045 0.012017293 0.018798662
-0.013656216 -0.0006606121 0.0084045855 -0.0016346631 0.014773778 0.024081009 0.013744716 -0.018394573
-0.002030722 0.0047588493 -0.0107264435 -0.0016789918 0.013137693 0.011740271 -0.028123042 0.006357479
-0.009339103 0.0010535643 -0.0035925794 0.01617839 0.0034793434 -0.026275432 0.0053528114 -0.008381658
-0.012961106 0.0015008716 0.0069964887 -0.0047128163 -0.020402672 0.010028173 -0.0006974066 -0.014663891
0.01388906 -0.001777257 0.014600721 -0.030572334 -0.002610251 0.0027307738 -4.600875e-05 -0.00051791064
0.020699192 -0.004287558 -0.008631175 -0.023642281 -0.015063427 -0.0057219327 -0.016009307 -0.0081062615
-0.0015338758 -0.0042469515 -0.0036073027 -0.007548884 -0.00079344277 -0.006496139 -0.0029452827 0.008942985
0.004726801 -0.0054354486 -0.009812505 -0.0008471633 -0.009236731 -0.0037344445 -0.0022236519 0.002127807
-0.0037720546 -0.0009244141 0.00016192473 -0.0017547949 -2.4977906e-05 0.003920869 0.0046839556 -0.0041126544
-0.00067226717 0.0022469535 -0.0021528057 -0.0016815659 0.00075136777 0.020673344 0.012558112 0.008343729
0.023869775 0.00023897663 0.012312246 0.010294509 0.010052752 0.0028560248 0.008130987 0.003747927
0.001168543 -0.0020212207 0.010943588 -0.020440502 -0.0012749572 -0.015747478 -0.014660339 -0.016950263
-0.017704695 -0.023931595 0.0063373693 0.0030019463 -0.00043584345 -0.012803289 -0.010351418 -0.010588916
-0.0098366635 0.0075135278 0.012174926 0.00452279 0.00011181388 -0.003926816 -0.011825201 -0.010616022
-0.0016321487 0.0057273614 -0.00070429954 0.00063970353 -0.0071354397 -0.012679546 -0.016036969 0.011133812
0.010769177 0.009212854 0.005070173 -0.0013979004 -0.00852052 -0.009440858 0.021297958 0.02382253
0.024379164 0.015678853 0.009108961 0.007370988 0.012271632 0.018876733 0.01648409 0.016933141
0.008741816 -0.0065195877 0.00076291716 -0.006783012 -0.03858789 0.007485971 -0.01595236 -0.0051485067
0.0014399466 0.0005548121 -0.0034541215 -0.013224946 -0.007276679 -0.004114827 -0.012587722 0.0134105645
0.0040190755 0.0023702597 -0.015723888 0.016426628 0.00241884 -0.006130221 0.008017142 0.0123074865
0.0087220995 -0.018445127 0.014480401 -0.015139627 0.0012342784 0.0016308597 0.007882118 -0.0044265506
-0.01793326 0.009239764 -0.012976198 -0.012759131 0.011992095 -0.010861432 -0.0055848593 -0.017634649
0.020165188 0.0004963904 0.0043236576 0.01689193 0.003072835 0.0026970631 -0.011672477 0.013626932
0.013141483 0.014396769 0.019923475 0.0200099 -0.0027429454 -0.012436287 0.02113018 0.0047809295
0.006483179 -0.000623507 0.0042886 0.0076687285 -0.0083514545 0.0070199575 0.004609384 0.0011361679
00000000: e9ee a9bc 0a5f 8d3c c4f0 153b ae0e 943c
00000010: 457f 93bb f39a fe3b 1637 e13b 2eb9 45bc
00000020: 4998 1cbc c720 9b3a 9b71 a539 e135 a93b
00000030: 5e2f 483c ed03 d33a ec0b 14bc c979 c5bb
00000040: 7a05 643c f1f5 86bb 1049 673b 180c a73c
00000050: 8e4e 9e3c c957 95bc bf70 813c eb47 863b
00000060: 3550 263c 4173 b0bb 4955 cf3c 4346 153c
00000070: 2879 afbc a142 923b eb8a 60bb eeb1 41bb
00000080: f32b cf3b 9292 833c f0bb 1dbb f8f6 dbbc
00000090: 6329 d93a dfdc cdbb 4085 3ebc 472a 293c
000000a0: 7174 0cbc b9c1 103c 1ccb 06bd 0b8b 55bc
000000b0: 1ff6 d6bb c1a1 34bc 425e c93a b081 273c
000000c0: d8d9 8bbc a748 10bd 6d64 443c cdaf 3abb
000000d0: 91b9 493c 0abf eb3b 2ee4 443c a7ff 993c
000000e0: 52be 5fbc ed2c 2dba 63b3 093c 3142 d6ba
000000f0: b70d 723c 8945 c53c 8431 613c 37b0 96bc
00000100: dd15 05bb 1ff0 9b3b f7bd 2fbc 9e11 dcba
00000110: 7a3f 573c 445a 403c 4b62 e6bc 6652 d03b
00000120: 0903 19bc c017 8a3a 7b71 6bbb 8b88 843c
00000130: b205 643b 933f d7bc a366 af3b 3953 09bc
00000140: d25a 54bc e5b8 c43a cd42 e53b f86d 9abb
00000150: 8123 a7bc 354d 243c 2ad2 36ba d140 70bc
00000160: f18e 633c d9f2 e8ba dd37 6f3c d572 fabc
00000170: bf10 2bbb c8f6 323b 85f9 40b8 65c4 07ba
00000180: 5a91 a93c a57e 8cbb c669 0dbc 75ad c1bc
00000190: 98cc 76bc 0d7f bbbb f325 83bc 20d0 04bc
000001a0: 550c c9ba 032a 8bbb 7f68 6cbb a15c f7bb
000001b0: 0bff 4fba 90dd d4bb a505 41bb 9985 123c
000001c0: 48e3 9a3b d91b b2bb a1c4 20bc 2b14 5eba
000001d0: a855 17bc 95bd 74bb b0ba 11bb ad72 0b3b
000001e0: 9334 77bb 6154 72ba 57ca 2939 2501 e6ba
000001f0: a587 d1b7 a27a 803b de7b 993b 72c3 86bb
00000200: 163b 30ba a041 133b 1616 0dbb fd67 dcba
00000210: 70f7 443a 255b a93c 8ac0 4d3c 23b4 083c
00000220: 8c8a c33c cd95 7a39 4db9 493c 4daa 283c
00000230: 4cb4 243c 252c 3b3b d537 053c c89f 753b
00000240: cc29 993a 7576 04bb bc4c 333c d772 a7bc
00000250: 771c a7ba db00 81bc eb31 70bc 47db 8abc
00000260: 7009 91bc 310c c4bc b5a9 cf3b 4dbc 443b
00000270: eb81 e4b9 e3c4 51bc fe98 29bc 227d 2dbc
00000280: f529 21bc 0a34 f63b 5779 473c ea33 943b
00000290: 9f7d ea38 85ac 80bb 7dbe 41bc d3ee 2dbc
000002a0: d3ed d5ba 97ac bb3b bea0 38ba c7b1 273a
000002b0: 68d0 e9bb dfbd 4fbc f65f 83bc 986a 363c
000002c0: 3471 303c 83f1 163c b223 a63b c139 b7ba
000002d0: a799 0bbc d4ad 1abc 0e79 ae3c 7727 c33c
000002e0: d0b6 c73c f070 803c c03d 153c 5488 f13b
000002f0: f50e 493c 61a3 9a3c a409 873c 5fb7 8a3c
00000300: d539 0f3c 44a2 d5bb 81fe 473a 0744 debb
00000310: 560e 1ebd e04c f53b 86ae 82bc ceb4 a8bb
00000320: 97bc bc3a cf70 113a 8b5e 62bb 72ad 58bc
00000330: 3571 eebb acd5 86bb bc3c 4ebc fcb7 5b3c
00000340: 73b2 833b 5c56 1b3b 62cf 80bc 2391 863c
00000350: 6785 1e3b 05e0 c8bb 555a 033c 57a5 493c
00000360: 23e7 0e3c 3c1a 97bc 343f 6d3c 330c 78bc
00000370: 83c7 a13a 92c2 d53a 0024 013c 990c 91bb
00000380: c6e8 92bc 6162 173c 1f9a 54bc ad0b 51bc
00000390: 7e7a 443c 26f4 31bc 3201 b7bb 8a76 90bc
000003a0: 7731 a53c 3220 023a 78ad 8d3b f260 8a3c
000003b0: 9e61 493b 36c1 303b eb3d 3fbc 7f43 5f3c
000003c0: 604f 573c 6de0 6b3c 8e36 a33c cdeb a33c
000003d0: fdc2 33bb 91c1 4bbc 3319 ad3c 58a9 9c3b
000003e0: d970 d43b d972 23ba 6287 8c3b f549 fb3b
000003f0: 8ad4 08bc ac07 e63b 510a 973b 78eb 943a

exp_avg_sq f4 [8, 1, 7, 7]
0.012668689 0.014981956 0.01916214 0.024290286 0.019133428 0.012775212 0.011875973 0.013402226
0.024089674 0.02528067 0.05970779 0.023966974 0.019927993 0.013280355 0.015188258 0.022028899
0.03118993 0.02941692 0.030433541 0.017889304 0.012644982 0.02157509 0.044210456 0.034088116
0.009323707 0.04165876 0.048488874 0.019711936 0.020843582 0.022218611 0.024765264 0.045782834
0.030111859 0.023129975 0.020652203 0.015148941 0.022842279 0.020850264 0.04858874 0.022612106
0.027809156 0.014863598 0.012867107 0.013481379 0.014553233 0.017358346 0.01949628 0.014212531
0.0138635915 0.02031373 0.023528911 0.024926001 0.034625012 0.025818499 0.021712042 0.024078121
0.019371588 0.03592148 0.030715983 0.056176245 0.031312123 0.037740186 0.026325688 0.022824125
0.032796174 0.03886959 0.04583401 0.03727002 0.022971576 0.02253612 0.026814943 0.057714276
0.040587395 0.016801026 0.05782434 0.054534033 0.02837956 0.022544358 0.022887614 0.02703363
0.0468334 0.038559064 0.02295994 0.023755457 0.020385519 0.023776181 0.023343837 0.05540881
0.032252707 0.035919007 0.02393101 0.021151979 0.020438032 0.022160389 0.028993517 0.029726058
0.021958461 0.021563616 0.00912843 0.008900293 0.00980471 0.00990647 0.009759096 0.009552924
0.008620991 0.010530861 0.009534613 0.012104516 0.011713266 0.0122954855 0.010709415 0.0082033165
0.0066745016 0.0073379376 0.0120972125 0.010123133 0.010696055 0.008886592 0.0072634057 0.008518621
0.008851706 0.010193608 0.014181373 0.010334422 0.0091820825 0.0076907906 0.0052162274 0.004869498
0.0074222805 0.008083116 0.0054455195 0.0067213047 0.0066187955 0.007791211 0.008409177 0.011306553
0.01394294 0.014159506 0.011381841 0.009614147 0.007615125 0.0072015906 0.0117709385 0.011195186
0.012376963 0.010228136 0.010288188 0.008783646 0.0074257553 0.00810417 0.008621271 0.0073538814
0.006978242 0.008267865 0.008387576 0.007593922 0.007587349 0.009036311 0.006250218 0.006383762
0.0069948304 0.0061000003 0.0070097493 0.0071856207 0.011265344 0.006251257 0.007197997 0.0054362025
0.0066221864 0.0063092476 0.009058427 0.008774868 0.00833588 0.006902443 0.0057447813 0.0059851343
0.006257533 0.0066335336 0.0041123675 0.008761993 0.007013208 0.006271101 0.006986662 0.0055273226
0.0065903207 0.009718405 0.007795981 0.006164349 0.0065270374 0.0070867343 0.006779193 0.006880396
0.0101931775 0.0069725327 0.007849034 0.0072670025 0.017839516 0.015122903 0.019262258 0.021790529
0.020041693 0.016126396 0.015400862 0.018489694 0.025177231 0.020708546 0.042445876 0.022296958
0.024404112 0.015436337 0.018188525 0.015327316 0.022798352 0.043683898 0.028827433 0.01894508
0.014216303 0.018228253 0.038184248 0.031529885 0.0055004866 0.03400887 0.046796165 0.01878064
0.016338767 0.013859398 0.017590879 0.02936446 0.029543543 0.021215394 0.014165786 0.014555928
0.01708162 0.018948872 0.038548242 0.021331143 0.023693886 0.012429194 0.016144048 0.013403045
0.018719599 0.023545114 0.017697575 0.016448993 0.0131152375 0.012154419 0.011770552 0.015007403
0.019309485 0.015310209 0.010079444 0.009583119 0.012898509 0.023336051 0.018398322 0.029182818
00000000: 5590 4f3c e176 753c ecf9 9c3c 6cfc c63c
00000010: b5bd 9c3c 1f4f 513c 7193 423c 0395 5b3c
00000020: b557 c53c 6819 cf3c 2890 743d 6356 c43c
00000030: 0840 a33c d995 593c 2cd8 783c f375 b43c
00000040: 0682 ff3c c1fb f03c c34f f93c 978c 923c
00000050: e62c 4f3c 3ebe b03c 0616 353d fb9f 0b3d
00000060: 76c2 183c 60a2 2a3d 459c 463d ed7a a13c
00000070: 29c0 aa3c ce03 b63c 86e0 ca3c c886 3b3d
00000080: 25ad f63c 137b bd3c cf2e a93c 4433 783c
00000090: bb1f bb3c 2cce aa3c fd04 473d 063d b93c
000000a0: 07d0 e33c 7386 733c 8fd0 523c 00e1 5c3c
000000b0: af70 6e3c 1733 8e3c aab6 9f3c addb 683c
000000c0: 1e24 633c fb68 a63c b4bf c03c 9d31 cc3c
000000d0: f5d2 0d3d 5181 d33c 74dd b13c 7b3f c53c
000000e0: 2ab1 9e3c 6722 133d 16a0 fb3c 1019 663d
000000f0: 2441 003d 7495 1a3d f8a8 d73c a9f9 ba3c
00000100: 4855 063d b835 1f3d 71bc 3b3d 73a8 183d
00000110: e32e bc3c ab9d b83c 03ab db3c ce65 6c3d
00000120: f83e 263d 4ea2 893c 37d9 6c3d 145f 5f3d
00000130: 407c e83c f2ae b83c ce7e bb3c a275 dd3c
00000140: 61d4 3f3d 1cf0 1d3d 7c16 bc3c ce9a c23c
00000150: 88ff a63c 44c6 c23c 933b bf3c 59f4 623d
00000160: 6a1b 043d cf1f 133d f70a c43c ea46 ad3c
00000170: a96d a73c b489 b53c d083 ed3c 1084 f33c
00000180: 3be2 b33c 2ea6 b03c 698f 153c 89d2 113c
00000190: efa3 203c bf4e 223c 9ee4 1f3c de83 1c3c
000001a0: 0f3f 0d3c a289 2c3c 1137 1c3c 0552 463c
000001b0: 00e9 3f3c 0173 493c 8b76 2f3c 3467 063c
000001c0: c7b5 da3b 1573 f03b 6333 463c 7fdb 253c
000001d0: 823e 2f3c 1299 113c dd01 ee3b b091 0b3c
000001e0: bf06 113c 1703 273c fd58 683c b551 293c
000001f0: 7270 163c 0703 fc3b e3ec aa3b 4f90 9f3b
00000200: 9a36 f33b 0c6f 043c 5470 b23b 643e dc3b
00000210: 7be2 d83b 6a4d ff3b a5c6 093c 1f3f 393c
00000220: ee70 643c 46fd 673c e77a 3a3c a884 1d3c
00000230: 4c88 f93b 52fb eb3b e5da 403c 036c 373c
00000240: bfc8 4a3c e993 273c ca8f 283c 48e9 0f3c
00000250: c053 f33b 5ac7 043c 3b40 0d3c d4f8 f03b
00000260: bda9 e43b f075 073c 0b6c 093c 6fd6 f83b
00000270: 4c9f f83b 090d 143c a1ce cc3b e12e d13b
00000280: e434 e53b 83e2 c73b 0ab2 e53b 5b75 eb3b
00000290: 4792 383c 58d7 cc3b 2ddd eb3b 2c22 b23b
000002a0: edfe d83b cebd ce3b cc69 143c 77c4 0f3c
000002b0: 3793 083c e32d e23b b83e bc3b f21e c43b
000002c0: fe0b cd3b 1d5e d93b 0ac1 863b 768e 0f3c
000002d0: 0ecf e53b cf7d cd3b 5ef0 e43b 8b1e b53b
000002e0: 9ef3 d73b f239 1f3c 6e75 ff3b 4ffe c93b
000002f0: c2e0 d53b d637 e83b fe23 de3b f274 e13b
00000300: 4901 273c d879 e43b 3c99 003c 0920 ee3b
00000310: 2d24 923c 0dc6 773c e2cb 9d3c 0d82 b23c
00000320: 7a2e a43c 811b 843c e653 7c3c b377 973c
00000330: 7b40 ce3c f8a4 a93c badb 2d3d 1ca8 b63c
00000340: 22eb c73c b1e8 7c3c 1a00 953c 6c1f 7b3c
00000350: 9cc3 ba3c e3ed 323d 8227 ec3c b632 9b3c
00000360: 7feb 683c 6b53 953c 1667 1c3d 7b25 013d
00000370: 6d3d b43b e34c 0b3d 56ad 3f3d dbd9 993c
00000380: e1d8 853c 8712 633c bf1a 903c bc8d f03c
00000390: 4d05 f23c e8cb ad3c 9d17 683c fd7b 6e3c
000003a0: c1ee 8b3c aa3a 9b3c c3e4 1d3d a6be ae3c
000003b0: ae19 c23c d1a3 4b3c 8640 843c 7298 5b3c
000003c0: d859 993c afe1 c03c 81fa 903c 0ac0 863c
000003d0: 4be1 563c 5423 473c 46d9 403c 9ce1 753c
000003e0: ed2e 9e3c acd7 7a3c 4124 253c 8402 1d3c
000003f0: 4554 533c 3f2b bf3c 14b8 963c ce10 ef3c

exp_avg f4 [32, 8, 7, 7]
0.0012596595 -0.0009715682 0.0020698453 0.0005965765 0.0012592893 0.00072190183 0.00047173834 0.0005128395
-0.0013554951 0.00061894226 -0.0008308897 -0.0004320799 -0.00082871504 -0.00049161183 0.00046271068 -0.0013779893
-0.00018321785 -0.0008611752 0.0003594239 0.0003662525 0.0006523232 9.84842e-05 -0.0010345278 0.0010181628
0.0005783823 0.001603492 0.000588027 0.0007566498 0.0015106371 0.00042398123 0.0014556253 0.00025805636
0.0006681209 0.0006530513 -0.00026609752 0.00090412865 -0.0014366286 0.00091410894 0.00037485705 0.00017417772
0.00063111674 -3.1052154e-05 0.0011496891 -0.0019472742 0.00041477385 0.00025383048 0.0004465031 -0.00027188196
-0.0008024694 0.0019487778 -0.0025464501 0.001923665 -0.000584155 -0.00023980382 -0.00024800037 -9.036402e-05
0.0020537567 -0.0032186403 0.0006004147 -0.0017221967 -0.0010073667 -0.001317039 0.00066018116 0.0032650589
-0.0023521646 0.0010164647 -0.00095577515 0.00047287677 0.0009156954 0.00096489914 0.0014192442 -0.00265541
0.0020574676 0.00013367072 0.0009994252 0.00034128287 0.0009284505 0.0036468052 -0.0006585788 0.0031541463
0.0005796376 0.00045218703 0.00016171155 -0.000626522 0.0017953272 -0.0019323939 0.0025645532 -0.00045047898
-0.0007928596 -0.0009781545 -0.00076629134 0.00188623 -0.0018319652 0.0023212067 0.0011963139 -0.00034832166
-0.0018528795 -0.0012797217 -0.0012799854 -0.0012776064 -0.0003906454 -0.0013628486 -0.00017216524 -0.0010723341
-0.001837344 -0.0010265555 -0.0018190193 -0.0006315519 -0.00045691463 0.00016558781 -0.0004813865 -0.0013191836
-0.0002274929 -0.00065742806 7.419034e-05 -0.0005598287 0.00033048444 -0.00023059502 -0.0010293261 -0.00075369957
-0.0004400202 0.0007452601 3.6979953e-05 3.1070722e-05 0.00019458181 -0.0007300239 0.00042752695 -0.0004614368
0.0006196747 0.00059002114 0.0012378582 0.0011934489 -9.686591e-05 -0.0008207539 -0.0015556115 -0.0009467445
-0.0004523922 -2.9469154e-05 0.00047311716 5.044103e-06 0.001090993 0.001120954 0.00094247557 0.0006108619
0.00034778827 0.00013465875 0.0002850919 -0.0017828712 -0.0002973654 -0.0010914106 -0.0013880503 -0.0010070932
-0.00034574862 -0.0011376662 -0.002370355 -0.00078831316 -0.0011061567 -0.0009957096 -0.0014067716 -0.0008098961
-0.0007323833 -0.0013320391 0.0005443623 -0.0007890078 -0.001175437 -0.0014573286 -6.3719905e-05 -0.00047531966
-0.0005255154 0.00087074947 -0.00069789455 -0.0010179428 -0.00020211002 0.0008911954 0.000693435 0.00043623947
0.0010040051 -6.037864e-05 -0.0002927114 0.00024205282 0.0015479352 0.0010310672 -0.00081070274 0.0007923472
3.832883e-05 -0.00072093785 -0.00047449736 0.0008783944 0.0010123617 -7.808989e-05 0.0011289838 -0.00022879818
0.00023551621 0.00041077076 0.001454196 0.0015359907 -0.00016790013 -0.0015173616 -0.0011647879 -0.00080320355
-0.0007551303 2.316233e-05 -0.0009236367 0.00017885714 -0.0011107811 3.518383e-06 0.00025570396 -0.0005794388
-0.00083862426 -0.0006443216 0.001127341 -0.00015554564 0.0006206452 0.00066167134 -0.00040703622 -0.00043752766
-0.0001756061 0.0016452275 -7.79069e-05 0.00092991703 0.00031959292 -7.1304305e-05 -0.00049136445 0.0007497318
0.0015964225 0.00060184323 0.0010330528 0.00093226833 0.0003722779 0.000679966 0.0003738542 0.0007062256
0.00081970444 0.0017521507 0.0014688727 -0.0005987752 -3.974886e-05 0.0003893833 0.0008359415 0.00015559154
0.0012654328 0.0027145613 0.000535299 8.509919e-05 -0.0004595563 0.0004508171 0.0003948208 0.0005925882
0.0013344539 0.0006808775 0.0014759264 -0.0009566372 0.00028518293 0.00041943675 -0.0003414015 -2.2655275e-05
00000000: 291b a53a d7b0 7eba 3ea6 073b 9263 1c3a
00000010: bd0e a53a 033e 3d3a a653 f739 1470 063a
00000020: deaa b1ba 8340 223a 10d0 59ba c888 e2b9
00000030: 203e 59ba 83df 00ba fa97 f239 a69d b4ba
00000040: 2b1e 40b9 7dc0 61ba 0f71 bc39 9405 c039
00000050: ab00 2b3a 4d89 ce38 fe98 87ba e073 853a
00000060: 949e 173a 432c d23a d325 1a3a e959 463a
00000070: 9200 c63a cc49 de39 aeca be3a bd4b 8739
00000080: d624 2f3a 8831 2b3a 0183 8bb9 0c03 6d3a
00000090: 424d bcba d0a0 6f3a 7688 c439 7aa3 3639
000000a0: 8771 253a ff3d 02b8 2ab1 963a ae3b ffba
000000b0: 0176 d939 8d14 8539 a218 ea39 618b 8eb9
000000c0: cf5c 52ba 226e ff3a 58e2 26bb 7d23 fc3a
000000d0: fa21 19ba d973 7bb9 0c06 82b9 d081 bdb8
000000e0: 5298 063b d3ef 52bb 2665 1d3a 55bb e1ba
000000f0: 9e09 84ba 7fa0 acba 0210 2d3a 99fa 553b
00000100: c626 1abb e53a 853a fc8c 7aba 72ec f739
00000110: 470b 703a 49f1 7c3a ef05 ba3a 6306 2ebb
00000120: 94d6 063b f629 0c39 25ff 823a 36ee b239
00000130: 4263 733a 3dff 6e3b 7aa4 2cba cbb5 4e3b
00000140: d2f2 173a 8413 ed39 1d91 2939 2e3d 24ba
00000150: 2f51 eb3a 6148 fdba 1012 283b 442e ecb9
00000160: e8d7 4fba 6b35 80ba f1e0 48ba 603b f73a
00000170: 8d1e f0ba 631f 183b a2cd 9c3a f19e b6b9
00000180: 52dc f2ba 56bc a7ba 2fc5 a7ba 5b75 a7ba
00000190: 8acf ccb9 9ca1 b2ba 4187 34b9 908d 8cba
000001a0: 09d3 f0ba 7d8d 86ba 296c eeba bb8e 25ba
000001b0: 0b8e efb9 a4a1 2d39 9a62 fcb9 75e8 acba
000001c0: 298b 6eb9 4057 2cba a396 9b38 78c1 12ba
000001d0: df44 ad39 e1cb 71b9 74ea 86ba ec93 45ba
000001e0: 83b2 e6b9 8f5d 433a ec1a 1b38 ef51 0238
000001f0: a808 4c39 135f 3fba b225 e039 00ed f1b9
00000200: aa71 223a a6ab 1a3a a13f a23a 806d 9c3a
00000210: 7d24 cbb8 dd27 57ba a9e5 cbba f32e 78ba
00000220: 0e2f edb9 8734 f7b7 b60c f839 8440 a936
00000230: a7ff 8e3a faec 923a 7710 773a 4022 203a
00000240: 5a57 b639 2f33 0d39 6378 9539 3baf e9ba
00000250: b5e7 9bb9 aa0d 8fba 3def b5ba 7100 84ba
00000260: 9845 b5b9 be1d 95ba f557 1bbb cda6 4eba
00000270: 76fc 90ba 7882 82ba 6c63 b8ba 354f 54ba
00000280: 69fd 3fba d197 aeba 89b3 0e3a 6bd5 4eba
00000290: 1f11 9aba d503 bfba 5da1 85b8 5334 f9b9
000002a0: bec2 09ba 0243 643a e9f2 36ba 7e6c 85ba
000002b0: 7fed 53b9 1c9f 693a a3c7 353a 12b7 e439
000002c0: d298 833a 123f 7db8 0f77 99b9 8fcf 7d39
000002d0: 16e4 ca3a e024 873a 5785 54ba 85b5 4f3a
000002e0: 45c3 2038 52fd 3cba f5c5 f8b9 0d44 663a
000002f0: 39b1 843a 31c4 a3b8 69fa 933a 8be9 6fb9
00000300: e7f4 7639 b85c d739 b99a be3a 4c53 c93a
00000310: 590e 30b9 35e2 c6ba ccab 98ba 148e 52ba
00000320: f0f3 45ba ba4c c237 3620 72ba 998b 3b39
00000330: a197 91ba 5c1d 6c36 0110 8639 7be5 17ba
00000340: 1fd7 5bba b1e7 28ba 49c3 933a f719 23b9
00000350: cbb2 223a 0374 2d3a 7a67 d5b9 f863 e5b9
00000360: e722 38b9 ada4 d73a f361 a3b8 adc5 733a
00000370: 098f a739 3589 95b8 e9ce 00ba a689 443a
00000380: 0d3f d13a 04c5 1d3a 8067 873a 7863 743a
00000390: 4b2e c339 bf3f 323a dc01 c439 ff21 393a
000003a0: 6fe1 563a 6ca8 e53a 3087 c03a 20f7 1cba
000003b0: 03b8 26b8 2426 cc39 1623 5b3a 4926 2339
000003c0: e1dc a53a c8e6 313b 4f53 0c3a 4877 b238
000003d0: 9af0 f0b9 a65b ec39 f3ff ce39 ec57 1b3a
000003e0: d8e8 ae3a ea7c 323a df73 c13a d6c6 7aba
000003f0: 9b84 9539 d9e7 db39 22fe b2b9 d50b beb7
