trained_models/Sigma_25_t_50/checkpoints/checkpoint_5.pth (torch, 173091 bytes, 10 tensors)

conv_layer.conv_layers.0.parametrizations.weight.original f4 [8, 1, 7, 7]
0	0x3d124456	0.0357097
1	0x3e04a2f0	0.1295278
2	0xbba42d15	-0.005010257
3	0x3e4863ab	0.1956927
4	0xbd6ed3c2	-0.058307417
5	0x3c123e7e	0.008926032
6	0xbd2f872c	-0.04285352
7	0x3d3d0729	0.046149407
8	0x3e321b21	0.17393161
9	0xbdea575e	-0.11442445
10	0x3e7b6a70	0.24552321
11	0x3d9ccdec	0.07656464
12	0x3e39920d	0.1812212
13	0xb8dec360	-0.00010622176
14	0xbbc6c2f4	-0.0060657207
15	0xbd5b0aee	-0.05347722
16	0x3e5947d4	0.21218807
17	0x3e87cf03	0.26525125
18	0x3c5dc3ca	0.013535449
19	0x3d422d54	0.04740651
20	0xbdb0dcec	-0.086358875
21	0xbbb1d8b8	-0.005427446
22	0xbd668287	-0.056276824
23	0x3e445632	0.19173506
24	0xbf12ae4e	-0.5729722
25	0xbdbd5ca5	-0.09246186
26	0xbdac0839	-0.08400006
27	0xbd41c5d9	-0.047307823
28	0x3c57efaa	0.013179699
29	0xbe2f9d74	-0.17149907
30	0x3e2462b4	0.16053277
31	0xbe6e306b	-0.23260657
32	0x3e433560	0.1906333
33	0x3e0469cc	0.12930983
34	0xbcffdc1a	-0.031232882
35	0x3e2199ea	0.1578137
36	0x3dc4b88a	0.096055105
37	0x3d3430cd	0.043991853
38	0x3d500f1d	0.050795663
39	0xbd769112	-0.060196944
40	0xbc8add8d	-0.016951347
41	0x3d0f94d9	0.03505406
42	0xbc5491a5	-0.0129741775
43	0x3d5c71dc	0.053819522
44	0x3d811583	0.06302931
45	0xbdce27d9	-0.10066194
46	0x3ddacdfb	0.10683819
47	0x3ca94940	0.020664811
48	0x3d638f95	0.055556852
49	0xbd50078a	-0.05078844
50	0xbdb6cc7d	-0.08925722
51	0xbca67795	-0.020320693
52	0xbdf7e660	-0.121044874
53	0x3df38d41	0.118921764
54	0x3d2fcc63	0.042919528
55	0x3c37f18c	0.011227023
56	0x3ca55883	0.020183807
57	0x3b3f2440	0.0029165894
58	0x3e023c9c	0.12718433
59	0xbe1dc5b6	-0.15407452
60	0xbc1e5b16	-0.009665271
61	0xbe2b8664	-0.16750485
62	0x3d18309d	0.037155736
63	0xbde69aae	-0.112599716
64	0xbd429b39	-0.047511313
65	0xbdaf7ba9	-0.08568508
66	0x3e75fc4a	0.24022022
67	0x3d3bdc56	0.045864426
68	0xbddbaa2a	-0.107258156
69	0xbdbd0e35	-0.092312254
70	0x3e4eb504	0.2018624
71	0x3de532b9	0.11191315
72	0x3ea50252	0.32228333
73	0xbf15fc2e	-0.5858792
74	0xbe8d5f1b	-0.27611622
75	0xbe1c8e4e	-0.1528866
76	0xbde65937	-0.11247485
77	0x3d132e61	0.035932902
78	0x3d83dbba	0.06438394
79	0x3e5a3d05	0.2131234
80	0xbd6a9cca	-0.057278432
81	0xbd45ad12	-0.048260756
82	0x3e2840f2	0.16431025
83	0x3c8f8f6f	0.01752445
84	0x3bc2094a	0.0059215175
85	0xbd889ac4	-0.06670144
86	0x3de97aa1	0.11400343
87	0xbcfa1cf7	-0.03053139
88	0xbca736fc	-0.02041196
89	0x3b16cb19	0.002300924
90	0x3cccb055	0.024986425
91	0xbd72819d	-0.05920564
92	0xbc925728	-0.017863825
93	0x3d86220f	0.06549465
94	0xbd92d32a	-0.071691826
95	0xbca5b0e8	-0.020225957
96	0x3dcff337	0.101538114
97	0xbc28e91e	-0.010309486
98	0xbbebc00b	-0.007194524
99	0xbdd837a5	-0.10557488
100	0xbdf8109d	-0.12112544
101	0x3d9bedd4	0.076137215
102	0xbd80c52e	-0.06287609
103	0xbe15a492	-0.1461356
104	0xbd51b12c	-0.051194355
105	0xbdc1dd1b	-0.09466001
106	0xbded2d01	-0.115808494
107	0xbd09b64e	-0.033621125
108	0xbe506385	-0.20350464
109	0xbe4cb1dc	-0.19989723
110	0x3e514d8a	0.20439735
111	0x3c7d2b9d	0.015452293
112	0x3cbbb4c1	0.022913339
113	0xbdb121fb	-0.086490594
114	0xbe88efbf	-0.26745412
115	0xbd5ecdd0	-0.054395497
116	0x3d440303	0.047854435
117	0xbe729e41	-0.23693182
118	0xbdb6d492	-0.08927263
119	0xbdb04b34	-0.08608094
120	0x3db9c956	0.09071605
121	0xbdf655fe	-0.120281205
122	0x3df16ba5	0.1178811
123	0x3b7a926e	0.0038234252
124	0xbe11eed1	-0.14251257
125	0xbd8a9e98	-0.067685306
126	0xbdaab00c	-0.083343595
127	0xbe3e2922	-0.18570378
128	0x3e663de7	0.22484551
129	0x3da4549e	0.08023952
130	0x3e7a8c7b	0.24467652
131	0x3de0d375	0.10977832
132	0xbdf08bd4	-0.1174542
133	0x3d7fcc89	0.06245092
134	0x3d29b790	0.041434824
135	0xbd27f0bd	-0.04100107
136	0xbe5f5611	-0.21810175
137	0xbdf494d0	-0.11942446
138	0x3db6709a	0.08908196
139	0xbd5b681b	-0.05356608
140	0xbcbf334c	-0.02333989
141	0xbdbb62f4	-0.09149733
142	0x3d8bdfd6	0.06829803
143	0xbdf0d2b8	-0.117589414
144	0x3c3d6c3d	0.011561451
145	0x3b7944e4	0.0038035447
146	0xbd3bb4c0	-0.045826674
147	0x3d3e6c5f	0.04649007
148	0x3e35a304	0.17737967
149	0xbe09a451	-0.13441588
150	0x3ce831fa	0.028344143
151	0xbd9de347	-0.07709365
152	0x3c55ffcb	0.013061474
153	0xbdbee525	-0.093210496
154	0x3d898c8a	0.06716259
155	0xbda712a6	-0.08157854
156	0x3da2bcb0	0.079461455
157	0x3de95964	0.11394003
158	0x3d19b4d7	0.037525978
159	0xbcba56f9	-0.02274655
160	0x3df6c1a5	0.120486535
161	0xbd04e33c	-0.03244327
162	0x3d0f8ed9	0.03504834
163	0xbe31fcaf	-0.17381547
164	0x3df6ae53	0.120449685
165	0xbd646de2	-0.055768855
166	0xbdfc61be	-0.1232333
167	0x3e7934b9	0.24336518
168	0x39523217	0.0002004582
169	0xbe0bf6ad	-0.13668318
170	0xbe1cbcee	-0.15306446
171	0xbd8cbd45	-0.06872038
172	0x3e1f153e	0.15535447
173	0xbdb3ac4f	-0.087731
174	0xbe02ae79	-0.12761869
175	0x3d3ed7e8	0.046592623
176	0xbe145d19	-0.14488639
177	0x3df4e022	0.119568124
178	0x3ea819cc	0.3283218
179	0xbe6647cd	-0.22488327
180	0x3db5c588	0.08875567
181	0x3d98f9bd	0.07469509
182	0xbcc7d942	-0.024395589
183	0xbda4174e	-0.080122575
184	0x3da690a0	0.08133054
185	0x3dc5a60c	0.096508116
186	0x3df82830	0.1211704
187	0x3b3ce781	0.002882451
188	0xbda1ba5d	-0.07896874
189	0xbb956ef1	-0.0045603444
190	0xbd22ed67	-0.039777186
191	0xba3ceacb	-0.0007206618
192	0x3d92bb41	0.07164622
193	0x3d82c4aa	0.06385167
194	0xbc7102bb	-0.014710124
195	0xbbbbb789	-0.005728666
196	0xbc8fccc2	-0.01755369
197	0xbda11033	-0.07864418
198	0x3d83e9ec	0.064411014
199	0x3d0332fd	0.032031048
200	0xbcf4fd8e	-0.02990606
201	0xbcabb02a	-0.020958025
202	0x3cfdb3cf	0.030969528
203	0x3cb9c815	0.022678414
204	0xbc929ce1	-0.017897071
205	0xbd21cffb	-0.039504986
206	0xbddf28ff	-0.10896491
207	0xbde72ffb	-0.112884484
208	0xbd041fa0	-0.032256722
209	0xbc9caa70	-0.01912424
210	0x3daf0431	0.08545721
211	0x3e38fc7c	0.18065065
212	0xbe2d20f7	-0.16907106
213	0xbdf684ae	-0.120370254
214	0x3d9c1acc	0.076222986
215	0x3e514610	0.20436883
216	0x3b734bdc	0.0037124073
217	0xbd72c438	-0.05926916
218	0x3e4056c2	0.18783095
219	0xbe2a32f3	-0.16620998
220	0xbf2e1a2d	-0.6800869
221	0x3e42f358	0.19038141
222	0xbd6f4106	-0.05841162
223	0x3d2a49e5	0.041574378
224	0xbe0ed33c	-0.13947767
225	0x3cf24f5b	0.029578855
226	0x3e64b582	0.22334865
227	0x3e8547ba	0.26031286
228	0xbe3f3d6a	-0.18675771
229	0xbe4e6b25	-0.2015806
230	0xbd93ba46	-0.07213263
231	0x3d9bc417	0.076057605
232	0xbd39808f	-0.04528862
233	0x3dead014	0.11465469
234	0x3df3e46c	0.119088024
235	0x3c7759ea	0.015097121
236	0xbd554ab6	-0.052073203
237	0xbd3b2368	-0.045688063
238	0xbd7599ae	-0.059961013
239	0xbe0839f0	-0.13303351
240	0x3d97d4c4	0.07413629
241	0xbd0b75c3	-0.034047853
242	0xbc60f7b3	-0.013730931
243	0xbd3680e4	-0.044556513
244	0xbc5752c0	-0.013142288
245	0xbda2d5b9	-0.079509206
246	0xbd992611	-0.07477964
247	0x3dada361	0.08478428
248	0xbd43dda3	-0.04781879
249	0x3da81da4	0.082087785
250	0xbc8e3402	-0.017358784
251	0xbd96b308	-0.07358366
252	0xbca2ac34	-0.019857503
253	0xbdf7ea66	-0.12105255
254	0xbde38220	-0.11108804
255	0xbe0c7823	-0.13717704

conv_layer.conv_layers.1.parametrizations.weight.original f4 [32, 8, 7, 7]
0	0x3b4ee2a7	0.00315682
1	0x3d81509f	0.063142054
2	0x3c87e305	0.016587744
3	0xbcef371a	-0.02920108
4	0xbd5fcec3	-0.054640543
5	0x3d276b5c	0.04087387
6	0x3c563d61	0.013076157
7	0xbd34a6d3	-0.04410441
8	0xbcfd2e32	-0.030905817
9	0xbbffbc52	-0.007804432
10	0x3c08ed5c	0.008357372
11	0xbd1399ea	-0.036035456
12	0x3d1b4ba9	0.037913952
13	0x3c3b44cb	0.011429976
14	0xbd7d6687	-0.061865356
15	0x3b2d76f3	0.0026468604
16	0xbc9252af	-0.017861692
17	0x3d729c5f	0.05923116
18	0x3cff4afe	0.031163689
19	0xbd596fb6	-0.05308505
20	0x3ad46865	0.0016205428
21	0x3d15cec9	0.03657416
22	0x3d268d91	0.040662352
23	0xbbb62b41	-0.0055593555
24	0xbdf81df0	-0.12115085
25	0x3b18a671	0.0023292566
26	0xbcd77735	-0.02630196
27	0xbd348436	-0.0440714
28	0x373fa469	1.1422767e-05
29	0x3c4acd0e	0.01237799
30	0xbd883b77	-0.06651967
31	0x3d8ec6d6	0.06971519
32	0x3d9a58c6	0.075364634
33	0x3d9579b1	0.072986014
34	0xbc2bc59c	-0.010484125
35	0xbd14e620	-0.036352277
36	0x3d0e777c	0.034781918
37	0x3d15d0c2	0.03657604
38	0x3d8830d6	0.0664994
39	0xbdab920c	-0.083774656
40	0xbd6604b2	-0.05615682
41	0x3c2f25ae	0.010690136
42	0xbd19c7f7	-0.037544217
43	0x3d778ac4	0.06043507
44	0xbd038b3e	-0.032115214
45	0x3ab73adb	0.0013979332
46	0xbc976fa8	-0.018485859
47	0x3cc45d76	0.023970347
48	0xbb0969f4	-0.0020967694
49	0x3d250e50	0.040296853
50	0x3c1a3f35	0.009414484
51	0x3cefc99d	0.029270941
52	0x3d2b945a	0.041889526
53	0xbd2065ed	-0.039159704
54	0xbd7cfe1d	-0.06176578
55	0x3d346666	0.044042967
56	0x3d650ed0	0.05592233
57	0xbd64fb84	-0.055903926
58	0x3c4bacc4	0.012431327
59	0xbdbfb6a1	-0.093610056
60	0xbcb8e71e	-0.022571143
61	0x3d8b8a56	0.06813495
62	0x3d1cbd58	0.03826651
63	0x3ce753bb	0.028238168
64	0x3c89941d	0.016794259
65	0x3d9e0801	0.077163704
66	0x3d28f881	0.041252617
67	0xbd62c552	-0.05536396
68	0xbd1095f6	-0.035299264
69	0xbd39c793	-0.045356344
70	0xbd0daaf1	-0.03458685
71	0xbd93a2c3	-0.07208779
72	0x3ba3bf16	0.0049971445
73	0xbdc5950e	-0.096475706
74	0xbc8fdf4a	-0.017562527
75	0x3c7685aa	0.015046516
76	0x3d5d0ef3	0.053969335
77	0x3cac6047	0.021042002
78	0x3d9294ba	0.071572736
79	0x3d0bcb2f	0.034129318
80	0x3d672d4b	0.05643968
81	0xbd2b8f38	-0.04188463
82	0xbd7efa19	-0.06225023
83	0x3c0d7f26	0.008636272
84	0xbd359dc0	-0.044339895
85	0xbd86292e	-0.06550823
86	0xbc46116a	-0.012089113
87	0x3d276a8d	0.0408731
88	0x3cbff952	0.023434315
89	0xbcb97c8e	-0.0226424
90	0xbd261266	-0.04054489
91	0x3c2a2f5f	0.010387271
92	0xbd0b3d5a	-0.033994056
93	0xbc1c0cd8	-0.009524547
94	0x3a166882	0.0005737619
95	0x3cc5f85b	0.024166277
96	0x3d169f86	0.036773227
97	0x3cfb97b4	0.030711986
98	0xbbbeb26c	-0.0058196094
99	0x3b9fde27	0.0048787775
100	0x3ca1b8ca	0.019741435
101	0xbc01eded	-0.007930261
102	0xbd03f212	-0.032213278
103	0xbd16e949	-0.03684357
104	0xbc886dd5	-0.016653934
105	0x3d24e350	0.040255845
106	0xbc9c14c8	-0.019052878
107	0xbd829bf5	-0.06377403
108	0xbcb21909	-0.021740453
109	0xbcd64ca0	-0.026159585
110	0x3c8bca4c	0.017064236
111	0x3d919ced	0.07110009
112	0x3b12138f	0.002228949
113	0x3d7f65fe	0.062353127
114	0xbb903687	-0.0044010314
115	0x3bb22daf	0.005437575
116	0xbccbbd95	-0.024870673
117	0xbd466d3c	-0.048444018
118	0xbb8eeddf	-0.0043618525
119	0xbd871f95	-0.06597821
120	0x3d3fd083	0.04682971
121	0xbcfb246d	-0.030657018
122	0xbbf0ffe0	-0.0073547214
123	0xbd3c2634	-0.04593487
124	0x3d96e84b	0.07368525
125	0xbd56ffac	-0.05248992
126	0x3cfb1713	0.030650651
127	0xbd46584a	-0.048424043
128	0xbcb9abc1	-0.022664906
129	0x3da58fe1	0.08084083
130	0xbd3708d2	-0.044686146
131	0x3d27c287	0.040957
132	0x3d898edf	0.067167036
133	0xbd6a98ff	-0.057274815
134	0x3d1563f5	0.03647228
135	0x3bc6ad09	0.006063108
136	0x3cba4a05	0.022740373
137	0x3d0f2f2c	0.034957096
138	0xbcb0afd4	-0.021568216
139	0x3c601d94	0.013678927
140	0xbc68b898	-0.014204167
141	0x3c3b7302	0.011440994
142	0x3d5e2447	0.054233816
143	0xbc38eb71	-0.011286602
144	0xbd8369cd	-0.06416664
145	0x3c769f19	0.01505258
146	0xbd24f48d	-0.040272284
147	0x3d3cb67c	0.04607247
148	0xbd50c5db	-0.05096994
149	0xbbcce29a	-0.006252599
150	0xbce9e4f8	-0.028551564
151	0x3ccbe679	0.024890171
152	0x3cd3ac13	0.025838887
153	0xbb7f3359	-0.0038940518
154	0x3b474bae	0.00304101
155	0x3d0274d6	0.031849705
156	0x3d6c36e4	0.057669535
157	0xbd348e4a	-0.04408101
158	0xbb90ffde	-0.004425033
159	0x3baf4821	0.0053491746
160	0xbd387e1d	-0.045042146
161	0x3d131352	0.035907097
162	0x3ce92405	0.028459558
163	0xbd84301d	-0.064544894
164	0x3d7c4ec3	0.06159855
165	0x3c39e9b3	0.011347222
166	0xbc0ba87d	-0.008524057
167	0x3dc4692b	0.09590372
168	0x3ca9da1b	0.020733884
169	0x3da274ed	0.07932458
170	0x3cb3e802	0.021961216
171	0xbdb20ece	-0.0869423
172	0x3c1eb0fa	0.009685749
173	0x3c6848cd	0.014177513
174	0xbd5eb3f7	-0.054370847
175	0xbd070efa	-0.032973267
176	0xbdc2fb90	-0.09520638
177	0xbca89572	-0.020579074
178	0xbcea0342	-0.028566007
179	0xbd954700	-0.07288933
180	0xbb02edd1	-0.0019978175
181	0x3d0f0376	0.03491541
182	0x3da56a65	0.08076934
183	0xbcace5dc	-0.0211057
184	0xbd9d9c8c	-0.076958746
185	0x3d9c589a	0.07634087
186	0xbc39fdb8	-0.011351995
187	0xbcbe661a	-0.023242045
188	0x3d2fbd39	0.042905066
189	0xbd5922ef	-0.05301183
190	0x3d20b6bc	0.03923677
191	0x3c958357	0.018251104
192	0xbcd52598	-0.026018903
193	0x3cbbb82a	0.022914965
194	0xbd65df2d	-0.05612104
195	0x3ca9f27a	0.020745505
196	0x3d21bf1a	0.03948889
197	0x3d1fa4ce	0.03897553
198	0x3d4fd56a	0.050740637
199	0x3d4ea20c	0.05044751
200	0xbcceea73	-0.025258278
201	0x3cc8a0dc	0.024490766
202	0xbd0e26a7	-0.03470483
203	0xbd241a4f	-0.040064152
204	0xbd1f8c7b	-0.038952332
205	0xbdc6d441	-0.09708453
206	0x3c8850c6	0.016640078
207	0xbb03de3c	-0.0020121476
208	0xbd38a1b5	-0.04507609
209	0xbc91e974	-0.017811514
210	0xbd2df542	-0.042470224
211	0x3c99d9fb	0.018780699
212	0xbc5e37f4	-0.013563145
213	0xbc35293d	-0.011057195
214	0xbd24bd4a	-0.040219583
215	0xba4db1d3	-0.0007846627
216	0x3d808c95	0.06276814
217	0x3d1942de	0.037417285
218	0x3ce5081a	0.027957965
219	0xbd4b54a9	-0.049641285
220	0xbdb65d9a	-0.08904572
221	0x3da51aee	0.08061777
222	0x3da21313	0.07913794
223	0xbd51c894	-0.051216677
224	0x3cb80219	0.022461938
225	0xbca27252	-0.019829903
226	0x3c2e6e77	0.010646454
227	0x3d8c0735	0.06837312
228	0xbc4eee22	-0.0126300175
229	0x3c6607cf	0.014039948
230	0xbca190fe	-0.019722458
231	0xbc35ec41	-0.011103691
232	0xbbb947ab	-0.0056542954
233	0xbd4f34a2	-0.050587304
234	0xbd1ffa70	-0.039057195
235	0x3ceb9224	0.028756209
236	0x3ac9b021	0.0015387574
237	0x3d0ee32c	0.034884617
238	0x3b68c670	0.0035518669
239	0xbd1ebbf0	-0.03875345
240	0x3d120522	0.035649426
241	0x3d2beacd	0.04197197
242	0xbc50edad	-0.012751979
243	0xbc634ba7	-0.013873017
244	0xbcbc6623	-0.022997921
245	0xbc8ff450	-0.017572552
246	0xbd8103db	-0.062995635
247	0xbc92d427	-0.017923428
248	0x3ccd47d4	0.025058664
249	0xbd504f6c	-0.050856993
250	0x3d6c8d03	0.057751667
251	0xbd50cda8	-0.05097738
252	0xbd1b6973	-0.03794236
253	0xbd070974	-0.032968
254	0x3d28f44e	0.041248612
255	0xbacfec97	-0.0015863356

activation.coefficients_vect f4 [672]
0	0x80000000	-0.0
1	0x3ac4feb7	0.0015029524
2	0x3a3cd094	0.00072027114
3	0x3a372cbd	0.00069875625
4	0x3a12b5b0	0.00055965316
5	0x3a056880	0.0005089119
6	0x398f08d7	0.00027281672
7	0x39116100	0.00013864413
8	0x38d084dd	9.9429606e-05
9	0x38a57c1e	7.890932e-05
10	0xb8490853	-4.7929887e-05
11	0xb899411d	-7.307737e-05
12	0xb923ca6e	-0.00015620302
13	0xb9592f08	-0.00020712253
14	0xb9979cf3	-0.000289179
15	0xb9aa0dfe	-0.00032435352
16	0xb9d7612d	-0.00041080397
17	0xb9e85c11	-0.00044319083
18	0xba456ccc	-0.00075311656
19	0xba98bffd	-0.0011653897
20	0x00000000	0.0
21	0x80000000	-0.0
22	0x3a8ff2c8	0.0010982389
23	0x3a51a585	0.00079973816
24	0x3a4335aa	0.0007446656
25	0x3a00c435	0.00049120496
26	0x390dbb83	0.00013516661
27	0xb8a47f00	-7.843785e-05
28	0xb919c40a	-0.00014664247
29	0xb92cd26a	-0.00016481584
30	0xb9964ea9	-0.00028668836
31	0x3891b4d8	6.9478236e-05
32	0x39e34dd8	0.00043354812
33	0x39d6bee3	0.00040959482
34	0x399deb17	0.0003012053
35	0x398d8cce	0.00026998523
36	0x39650636	0.00021841456
37	0xb8f43b33	-0.000116458534
38	0xb9ee1b23	-0.00045415116
39	0xba8bb2c0	-0.001065813
40	0xba8ee858	-0.0010902984
41	0x00000000	0.0
42	0x80000000	-0.0
43	0x3a960264	0.0011444804
44	0x3a8857c7	0.0010402136
45	0x3a4b2ff3	0.00077509804
46	0xb7043496	-7.880057e-06
47	0xb80881f1	-3.2545944e-05
48	0xb983a902	-0.00025112188
49	0xb99219e7	-0.0002786659
50	0xb9a0341a	-0.00030556397
51	0xb9b266db	-0.0003402744
52	0xb79c60be	-1.8641698e-05
53	0x399f3595	0.00030366765
54	0x3975e112	0.00023448866
55	0x3921ced5	0.00015431207
56	0xb939eea0	-0.0001773187
57	0xb95f0faf	-0.0002127278
58	0xb9b30336	-0.00034143933
59	0xba08ef5c	-0.00052236556
60	0xba120dd6	-0.000557152
61	0xba37bfd7	-0.00070094824
62	0x00000000	0.0
63	0x80000000	-0.0
64	0x3b1d4f8a	0.0024003708
65	0x3ab76371	0.0013991428
66	0x3a9920e0	0.0011682771
67	0x3a92f7cf	0.0011212769
68	0x39968aa3	0.00028713522
69	0x38c6942c	9.468975e-05
70	0xb9151879	-0.00014218864
71	0xb9498199	-0.00019217133
72	0xb97c31ed	-0.00024051192
73	0xb843eb5f	-4.671083e-05
74	0x3925d547	0.00015815078
75	0x38ba35ed	8.8792156e-05
76	0x36db9bb3	6.5448344e-06
77	0xb98a8cd4	-0.00026426336
78	0xb9e9470c	-0.00044494157
79	0xba692c9c	-0.0008894892
80	0xba88921d	-0.0010419522
81	0xbaf71cab	-0.0018853148
82	0xbb2d94ba	-0.0026486353
83	0x00000000	0.0
84	0x80000000	-0.0
85	0x3ad8b578	0.0016533574
86	0x3a95d410	0.0011430997
87	0x3a487693	0.00076470635
88	0x3a13ee66	0.0005643129
89	0x39b2b3e5	0.00034084838
90	0x37a9e8d7	2.0254794e-05
91	0xb86829a0	-5.5351877e-05
92	0xb8f308e8	-0.00011588802
93	0xb9829788	-0.00024908432
94	0xb8088ae2	-3.255427e-05
95	0x395c9e97	0.00021039914
96	0x38310808	4.220757e-05
97	0xb7fc0603	-3.004354e-05
98	0xb8cd4487	-9.787926e-05
99	0xb97797b2	-0.00023612267
100	0xba2965c0	-0.00064620003
101	0xba54a8da	-0.0008112319
102	0xbaec66f7	-0.0018036057
103	0xbb2c3519	-0.0026276766
104	0x00000000	0.0
105	0x80000000	-0.0
106	0x3b114d7b	0.0022171426
107	0x3a62e3ab	0.0008655141
108	0x3a6139f7	0.0008591706
109	0x3a51bc87	0.000800081
110	0x39eaa18d	0.00044752323
111	0x39a21105	0.00030911728
112	0x394c8e6d	0.00019508014
113	0xb7f6448b	-2.9357403e-05
114	0xb93ab51a	-0.00017805808
115	0xb73ed988	-1.137553e-05
116	0x391a5462	0.0001471802
117	0x386f46ff	5.704816e-05
118	0xb8a97d67	-8.081906e-05
119	0xb9111518	-0.00013836136
120	0xba1be7bf	-0.00059473136
121	0xba22ed88	-0.00062152045
122	0xba7b77d4	-0.0009592746
123	0xba86dead	-0.0010289751
124	0xbb27ef8d	-0.002562496
125	0x00000000	0.0
126	0x80000000	-0.0
127	0x3a3f9e2a	0.000730964
128	0x3a2c0776	0.0006562391
129	0x3a25cd1d	0.0006324815
130	0x3a12f6ce	0.0005606235
131	0x387498be	5.8316386e-05
132	0xb922990b	-0.00015506537
133	0xb9823b20	-0.00024839584
134	0xb9a14c8a	-0.0003076534
135	0xb9da36ce	-0.00041621033
136	0xb82a253e	-4.0565843e-05
137	0x398b356a	0.00026551943
138	0x39731e99	0.00023185684
139	0x392754ac	0.00015957904
140	0x3909bff2	0.00013136843
141	0x37d7acb4	2.5710418e-05
142	0xb943bf95	-0.00018668019
143	0xb9ab34e2	-0.00032655062
144	0xba0544bc	-0.00050837896
145	0xba1d2c8b	-0.0005995712
146	0x00000000	0.0
147	0x80000000	-0.0
148	0x3ab6d4ba	0.0013948896
149	0x3a4e713a	0.00078751484
150	0x3a4c0f73	0.00077842845
151	0x39e518ec	0.00043696852
152	0x39d24dca	0.0004011228
153	0x39982703	0.00029020765
154	0x390eb264	0.00013608631
155	0x3901e931	0.00012389269
156	0x385af5e5	5.2204257e-05
157	0x381337fc	3.509967e-05
158	0xb7b89b3c	-2.2006796e-05
159	0xb8a9cd8e	-8.0968355e-05
160	0xb919afc3	-0.00014656693
161	0xb96f7ce3	-0.0002283934
162	0xb9a12ae9	-0.00030740284
163	0xba102eb3	-0.0005500123
164	0xba42d86b	-0.00074327615
165	0xba880bac	-0.0010379455
166	0xbac012bf	-0.0014654024
167	0x00000000	0.0
168	0x80000000	-0.0
169	0x39b09954	0.00033683574
170	0x38c16ff6	9.2238115e-05
171	0x382fb886	4.1895102e-05
172	0xb8c7fb70	-9.535893e-05
173	0xb90867eb	-0.00013008683
174	0xb92439bf	-0.00015661771
175	0xb95c9a2b	-0.00021038267
176	0xb9bdf680	-0.00036232546
177	0xba8274ca	-0.0009953019
178	0x37e55bb2	2.7341626e-05
179	0x3a91f36a	0.0011135165
180	0x399d6e4b	0.00030027548
181	0x398ecef9	0.00027238557
182	0x398a1a40	0.0002634097
183	0x3962c0a5	0.00021624805
184	0x39297e17	0.00016164068
185	0x3903cee2	0.00012570203
186	0xb9192478	-0.00014604803
187	0xb9388eca	-0.000176008
188	0x00000000	0.0
189	0x80000000	-0.0
190	0x3a781fd5	0.00094651926
191	0x3a4af245	0.00077417894
192	0x39a4612a	0.0003135291
193	0x39a16650	0.00030784542
194	0x398a4ec1	0.00026380087
195	0x396410ee	0.00021750081
196	0x3941223a	0.00018418665
197	0x39133d5d	0.00014041872
198	0xb7bf7716	-2.2824428e-05
199	0xb90dfeed	-0.00013541775
200	0xb9439fc7	-0.00018656171
201	0xb97a62dc	-0.00023878686
202	0xb988625c	-0.00026013225
203	0xb9b9cfbe	-0.0003544073
204	0xb9c1d4f4	-0.0003697049
205	0xb9fff15d	-0.0004881722
206	0xba1790a7	-0.0005781748
207	0xba2aa97b	-0.000651024
208	0xba6b991c	-0.00089873536
209	0x00000000	0.0
210	0x80000000	-0.0
211	0x3b50847e	0.0031817253
212	0x3ad63eb4	0.0016345591
213	0x3ad4149c	0.0016180458
214	0x3a70c6b7	0.0009184884
215	0x3a1bb79b	0.000594014
216	0x398d6840	0.00026971288
217	0xb91a30b8	-0.00014704734
218	0xb9318192	-0.00016928304
219	0xb962858f	-0.00021602794
220	0xb830bff2	-4.2140433e-05
221	0x3911edf9	0.0001391693
222	0x35a388d2	1.2184266e-06
223	0xb887ad9d	-6.4696396e-05
224	0xb9303aca	-0.00016806569
225	0xba2a79b6	-0.00065031217
226	0xba5f58c0	-0.00085199997
227	0xbaee3818	-0.0018174676
228	0xbb06b55b	-0.0020554874
229	0xbb26f619	-0.0025476275
230	0x00000000	0.0
231	0x80000000	-0.0
232	0x3a903e4f	0.0011004898
233	0x3a7b272b	0.00095807266
234	0x3a312ed9	0.0006758995
235	0x3a2308fd	0.0006219296
236	0x39fd117b	0.00048268944
237	0x391a13ad	0.00014693914
238	0x383b8dfa	4.47165e-05
239	0x37f592ef	2.9274697e-05
240	0x36a990a9	5.053433e-06
241	0x369a9bac	4.6076802e-06
242	0xb8b5efb0	-8.675398e-05
243	0xb8b9a169	-8.8515524e-05
244	0xb8d1f542	-0.000100115794
245	0xb8d46d50	-0.00010129309
246	0xb94f0393	-0.0001974239
247	0xb9b6d927	-0.00034875536
248	0xb9d75353	-0.00041070077
249	0xba093869	-0.0005234541
250	0xbaa618a7	-0.0012672142
251	0x00000000	0.0
252	0x80000000	-0.0
253	0x3ae3b57b	0.0017372811
254	0x3a9c1757	0.0011908811
255	0x3a499153	0.00076891965

u f4 [1, 1, 20, 20]
0	0x3bd7d890	0.0065870956
1	0xbc027900	-0.007963419
2	0x3ce6e16d	0.028183663
3	0xbd46ca2c	-0.04853265
4	0x3d786760	0.06064546
5	0xbdc25ad8	-0.09489983
6	0x3dae7b63	0.08519628
7	0xbd42bf34	-0.047545627
8	0x3c4d8f20	0.012546331
9	0xbb844aac	-0.004037222
10	0x3caabc60	0.020841777
11	0xbcdf112a	-0.027229864
12	0x3d21cbd2	0.03950102
13	0xbcc27393	-0.02373675
14	0xbc94b83d	-0.018154258
15	0x3c3ffe77	0.011718384
16	0xbbb459a0	-0.005503848
17	0x3ba54920	0.0050441176
18	0x3c80fe6f	0.015746323
19	0xbc1d5519	-0.009602808
20	0x3b9c4d80	0.004769981
21	0x3c87bcfa	0.016569603
22	0xbd3312ca	-0.04371909
23	0x3db2032e	0.08692013
24	0xbe2f8351	-0.17139937
25	0x3e619bfb	0.22032158
26	0xbe5b2f92	-0.21404865
27	0x3e45c2ff	0.19312666
28	0xbdb8216c	-0.0899075
29	0x3da7353d	0.08164451
30	0xbdacedae	-0.08443771
31	0x3cb7438a	0.022371072
32	0xbdbbfa0a	-0.091785505
33	0x3dc093a9	0.09403164
34	0x3c6612b8	0.014042549
35	0xbc0b1bea	-0.008490542
36	0x3c0bcac9	0.0085322345
37	0xbc659c78	-0.014014356
38	0xbc9ee4a8	-0.019396141
39	0x3c43a581	0.011941315
40	0x39c34700	0.00037246197
41	0xbd122686	-0.03568127
42	0xbb96aef4	-0.0045984928
43	0xbb3e8aa0	-0.0029074326
44	0x3dfdc50e	0.12391101
45	0xbd86bc30	-0.06578863
46	0x3dc0e85e	0.094193205
47	0xbe2a5980	-0.16635704
48	0xbb899eb6	-0.004199828
49	0xbd9070c0	-0.07052755
50	0x3d8c83e9	0.06861097
51	0x3dcd02fd	0.100103356
52	0x3d648379	0.055789445
53	0xbdcf3e9f	-0.10119366
54	0xbcd53501	-0.02602625
55	0x3b74de78	0.0037364047
56	0xbc180f43	-0.009280982
57	0x3c641f87	0.013923532
58	0xbb7e9278	-0.0038844626
59	0x3adc51b0	0.0016809013
60	0xbcab1d2c	-0.020887934
61	0x3c722c6c	0.014781099
62	0x3dd03d20	0.10167909
63	0xbd9e31ec	-0.077243656
64	0xbbd16330	-0.006389998
65	0xbe6c1f60	-0.23058844
66	0x3df36102	0.11883737
67	0x3d4a451e	0.04938232
68	0x3e29d0ce	0.16583559
69	0x3d3645d7	0.0445002
70	0xbd0a1fb1	-0.03372163
71	0xbe7bd5a7	-0.2459322
72	0x3d081054	0.033218697
73	0x3d58b8f4	0.05291076
74	0x3d286ddb	0.04112039
75	0x3c40198e	0.011724843
76	0xbc881009	-0.016609209
77	0x3b77fa54	0.0037838416
78	0x3d271023	0.040786874
79	0xbcb5159d	-0.022105033
80	0x3d96af37	0.07357638
81	0xbc9addbe	-0.018904563
82	0xbe0be082	-0.13659862
83	0xbd2d565b	-0.042318683
84	0x3de54849	0.11195428
85	0x3e8b77d9	0.27239874
86	0xbd556f0a	-0.05210785
87	0xbdc200d2	-0.09472813
88	0xbe67c897	-0.22635113
89	0xbdb7fc4c	-0.08983669
90	0x3d831886	0.06401162
91	0x3e8a24b2	0.2698112
92	0xbd652680	-0.05594492
93	0x3cb8f7dc	0.022579126
94	0xbdb3a181	-0.08771039
95	0x3bb743a6	0.005592781
96	0x3b17ec78	0.0023181718
97	0x3c2ffeba	0.010741884
98	0xbda5c660	-0.08094478
99	0x3d282d83	0.04105903
100	0xbe231006	-0.15924081
101	0x3dd951d4	0.106113106
102	0x3dbf1f7a	0.093321756
103	0x3e4d8e9e	0.20073935
104	0xbe56736a	-0.20942464
105	0xbe8b01c8	-0.27149796
106	0xbdc918dc	-0.09819195
107	0x3e7133f6	0.23554978
108	0x3e293aa6	0.16526279
109	0x3e36e0ea	0.17859235
110	0xbdf134bc	-0.117776364
111	0xbe5b5182	-0.21417812
112	0x3c9075ad	0.017634237
113	0xbd3d8ee6	-0.046278857
114	0x3da146ed	0.07874856
115	0x3c606a86	0.013697272
116	0x3c062a4a	0.008188793
117	0xbd43b6dc	-0.04778181
118	0x3dd46aba	0.10371919
119	0xbd4c9f1a	-0.04995642
120	0x3e5bd9f9	0.21469869
121	0xbe0ec1ec	-0.13941163
122	0xbddba5ec	-0.107250065
123	0xbe7224ae	-0.23646805
124	0x3e066a12	0.131264
125	0x3ecc619a	0.39918214
126	0x3d7b9649	0.06142262
127	0xbe3928d4	-0.18081981
128	0xbe410136	-0.18848118
129	0xbe441ece	-0.19152376
130	0x3e1bf124	0.15228707
131	0x3ddb464d	0.10706768
132	0x3cd73787	0.026271595
133	0x3d96497a	0.07338233
134	0xbd541c94	-0.051785067
135	0xbd947871	-0.07249535
136	0x3d1d5ff0	0.03842157
137	0x3cfe4fde	0.031043943
138	0xbd5fce36	-0.054640017
139	0x3cd81c37	0.026380641
140	0xbe845c2e	-0.25851578
141	0x3e36a838	0.17837608
142	0x3dafa812	0.08576979
143	0x3e858892	0.26080757
144	0xbb9dffe4	-0.0048217643
145	0xbf030de8	-0.51193094
146	0xbc321d10	-0.010871187
147	0x3d8a5825	0.067550935
148	0x3e85f306	0.26161975
149	0x3db33822	0.08750941
150	0xbd53e89f	-0.051735517
151	0xbd866aa4	-0.06563309
152	0xbd5bccc9	-0.053662095
153	0xbddbe664	-0.10737303
154	0x3d77f59f	0.060536977
155	0x3db52333	0.08844604
156	0xbd5ac278	-0.053408116
157	0xbc3ddf12	-0.011588829
158	0xbd1ef716	-0.03880986
159	0x3cc15e18	0.023604438
160	0x3e9b1fe8	0.3029778
161	0xbe8f9fca	-0.28051597
162	0x3d21615a	0.039399482
163	0xbecadb52	-0.39620453
164	0x3d329ce3	0.04360665
165	0x3ede425f	0.43410012
166	0x3da8693c	0.08223197
167	0xbd6f093e	-0.058358423
168	0xbe558a04	-0.2085343
169	0xbdb345ea	-0.087535694
170	0xba9cf19c	-0.0011973861
171	0x3d55e248	0.05221775
172	0x3d208180	0.039186
173	0x3e2d8ed0	0.1694901
174	0xbdf93890	-0.121689916
175	0xbd7f683d	-0.06235527
176	0x3d1abf69	0.0377802
177	0x3c6f9464	0.014622781
178	0x3de57e08	0.11205679
179	0xbd88e4da	-0.06684275
180	0xbe9a7a36	-0.30171365
181	0x3ea3563c	0.3190173
182	0xbda154b0	-0.07877481
183	0x3eca10ed	0.39466038
184	0xbd272898	-0.040810198
185	0xbe979be0	-0.2961111
186	0xbe41c311	-0.18922068
187	0x3dc91754	0.098189026
188	0x3dc2fd1e	0.095209345
189	0x3e033c2d	0.12815924
190	0x3befa8fa	0.0073138447
191	0x3bc76e76	0.006086166
192	0xbdcf29b0	-0.10115373
193	0xbe040242	-0.12891486
194	0x3e0ea0ad	0.1392848
195	0x3cef9cf6	0.02924965
196	0xbca6f82b	-0.020382008
197	0xbc725e4f	-0.014792993
198	0xbe0e19b6	-0.13876995
199	0x3daa6536	0.08320086
200	0x3e7e6339	0.24842538
201	0xbe85e73e	-0.26152986
202	0x3d443fb0	0.0479123
203	0xbe8dee54	-0.27720892
204	0xbdb3bba5	-0.08776025
205	0x3e8e0008	0.277344
206	0x3e037681	0.12838174
207	0xbbe43a54	-0.006964961
208	0xbcaa0b4a	-0.020757336
209	0xbe3695f4	-0.1783064
210	0xbc9a5f2a	-0.018844206
211	0xbc8ca4bf	-0.0171684
212	0x3e06c586	0.13161287
213	0x3d5dd0f6	0.05415436
214	0xbda81aff	-0.08208274
215	0xbd77d41a	-0.06050501
216	0x3d63d38e	0.055621676
217	0xbc730c8e	-0.014834536
218	0x3dfa6240	0.12225771
219	0xbd9784b7	-0.0739836
220	0xbe3bc42c	-0.18336552
221	0x3e35fe30	0.17772746
222	0xbcc69b0c	-0.024243854
223	0x3e3f1078	0.18658626
224	0x3e20ac9c	0.15690845
225	0xbe4de1be	-0.20105645
226	0xbd9689c4	-0.073504955
227	0xbe1849ea	-0.14871946
228	0x3d9bc630	0.07606161
229	0x3dfd5eea	0.12371619
230	0x3db4c6ee	0.08827005
231	0xbceb37ce	-0.028713133
232	0xbde28ce2	-0.110620275
233	0xbd114432	-0.035465427
234	0x3dafa092	0.08575548
235	0x3d266d88	0.0406318
236	0xbd832b0e	-0.064046964
237	0x3cf7880a	0.030216236
238	0xbd8fc3dc	-0.07019779
239	0x3d45a25e	0.04825055
240	0x3dffb3a9	0.12485439
241	0xbe04b5c0	-0.12959957
242	0x3d72640f	0.059177455
243	0xbe296bea	-0.16545072
244	0xbe020bf0	-0.12699866
245	0x3d5ca2d0	0.053866208
246	0x3dca29ac	0.098712295
247	0x3e38485b	0.17996351
248	0xbd5d7c5e	-0.054073684
249	0xbde8fd26	-0.11376409
250	0xbe050856	-0.12991461
251	0x3dea2eac	0.11434683
252	0x3d079db4	0.03310938
253	0x3d18b879	0.0372853
254	0xbdb74896	-0.089493915
255	0xbbf5eac4	-0.007504793

exp_avg f4 [8, 1, 7, 7]
0	0x3e104deb	0.14092223
1	0x3dc22d64	0.09481314
2	0x3dd9aec9	0.10629041
3	0x3db0ab88	0.08626467
4	0x3de27c90	0.11058915
5	0x3d76fbab	0.060298603
6	0x3ce46f26	0.027885031
7	0x3d940b95	0.072287716
8	0x3cda0d59	0.026617693
9	0x3d310c0b	0.043224376
10	0x3d2acd57	0.041699734
11	0x3d1ae8db	0.037819725
12	0xbc9fbf69	-0.019500451
13	0xbd40d3bf	-0.047076937
14	0x3d6be7ce	0.057594113
15	0x3d44131f	0.047869798
16	0x3d2804bd	0.041020144
17	0x3ce59d35	0.028029064
18	0x3cda3b45	0.02663959
19	0xbba4a369	-0.005024363
20	0xbd0ae9de	-0.03391444
21	0x3d03932d	0.03212278
22	0x3d0e36d9	0.034720276
23	0xbccc88c5	-0.02496756
24	0x3cb7e1c3	0.022446519
25	0xbd35ff79	-0.04443309
26	0xbd29bf1d	-0.041442025
27	0xbd86ee83	-0.06588461
28	0x3cd9042c	0.026491247
29	0x3c7b86ab	0.015351932
30	0xbce3ce61	-0.02780837
31	0x3b4def4d	0.0031423152
32	0xbd578125	-0.052613396
33	0xbd5a6ae2	-0.053324588
34	0xbddd53d5	-0.10807005
35	0xbc813cf0	-0.015776128
36	0xbd15f25a	-0.036608078
37	0xbd2bc1be	-0.041932814
38	0xbc62b4c1	-0.01383704
39	0xbd49a667	-0.04923096
40	0xbdb674f5	-0.089090265
41	0xbdeeaf3b	-0.11654516
42	0x3c535f12	0.0129010845
43	0xbd1a3383	-0.03764678
44	0xbd0dc868	-0.03461495
45	0xbccf9133	-0.025337791
46	0xbd2e286b	-0.042519014
47	0xbdb570e2	-0.08859421
48	0xbda6653f	-0.0812478
49	0xbdcac035	-0.09899942
50	0xbded318b	-0.11581715
51	0xbd93acf8	-0.072107255
52	0xbd855d4b	-0.06511935
53	0xbd13436f	-0.03595298
54	0xbcef9812	-0.029247317
55	0x3b71b71b	0.003688282
56	0xbd9089cf	-0.07057535
57	0xbdb1c117	-0.08679407
58	0xbd6cc065	-0.05780067
59	0xbc9aede6	-0.018912267
60	0xbb72d513	-0.0037053272
61	0xbcb0c359	-0.021577524
62	0x3c3eb39e	0.011639504
63	0xbce3f20e	-0.027825382
64	0xbcc3d4dd	-0.023905212
65	0x3af936dd	0.0019013543
66	0x3c2f5a1a	0.010702634
67	0x3d0caf28	0.03434673
68	0x3cb9b73a	0.022670377
69	0x3cf53fe7	0.029937698
70	0xbc95b199	-0.018273162
71	0xbc90f136	-0.017693143
72	0xbd0f9137	-0.035050597
73	0x3caef9dc	0.021359377
74	0xbc76d75e	-0.015065996
75	0xbc259095	-0.010105272
76	0x3c6cc15a	0.0144503955
77	0xbb0ef3c2	-0.0021812771
78	0x3b6b8c37	0.003594173
79	0xbbd8e2c5	-0.00661883
80	0x3cf5dde8	0.03001304
81	0x3c86b6ca	0.016444582
82	0x3cd52d58	0.026022598
83	0x3ca51e32	0.020156
84	0xb9964ba1	-0.00028666577
85	0xbb24bd68	-0.002513731
86	0x3c7e04e4	0.015504096
87	0x3d754d0d	0.059887934
88	0x3d7afe72	0.061277814
89	0x3d578230	0.05261439
90	0x3d758f2f	0.059951004
91	0x3cbfc00a	0.023407001
92	0xbb1fca68	-0.0024382118
93	0x3c99c5a6	0.018771004
94	0x3d2e8097	0.0426031
95	0x3d9a43f9	0.07532496
96	0x3d99a649	0.075024195
97	0x3ddbb252	0.10727371
98	0xbd9b103b	-0.07571455
99	0xbd40dad7	-0.047083702
100	0xbd406a32	-0.046976276
101	0xbd9a9d59	-0.07549543
102	0xbd973bb9	-0.07384438
103	0xbd4744f5	-0.048649747
104	0xbd27fb55	-0.041011173
105	0xbd27321a	-0.040819265
106	0xbc9e53d5	-0.019327084
107	0xbc69f4c4	-0.014279548
108	0xbd035505	-0.032063503
109	0xbcc2a123	-0.023758477
110	0x3bda6c94	0.0066657756
111	0x3cc4e1f7	0.02403353
112	0xbd14ab73	-0.03629632
113	0xbcd5ac5d	-0.026083166
114	0x3b204c00	0.0024459362
115	0xbcc9894b	-0.0246016
116	0xbc7693d5	-0.015049894
117	0x3c35ca11	0.01109554
118	0x3d107933	0.035271835
119	0xbd3ee2a2	-0.046602853
120	0xbd0e2af1	-0.03470892
121	0x3ba0f8ef	0.0049124877
122	0xbd062654	-0.032751396
123	0xbcdcb131	-0.02693996
124	0x3bd1fda6	0.006408411
125	0x3d1cedee	0.038312845
126	0xbd0d93e5	-0.03456487
127	0xbc7a3821	-0.015272171
128	0x3cafb282	0.021447424
129	0x3c81d0c2	0.015846614
130	0x3badd48d	0.005304879
131	0x3d121ef1	0.03567404
132	0x3d86571c	0.065595835
133	0xbb6f89dd	-0.0036550679
134	0x3cd1a305	0.02559043
135	0x3d1a8124	0.037720814
136	0x3d05db7c	0.03268002
137	0x3cb0f3b1	0.021600576
138	0x3d527483	0.051380645
139	0x3da1711c	0.07882902
140	0x3cb0145f	0.021494089
141	0x3d2db306	0.04240706
142	0x3d5585b6	0.05212947
143	0x3d6417e2	0.05568684
144	0x3cfef861	0.031124296
145	0x3d5dbcb9	0.054135058
146	0x3d6c912b	0.05775563
147	0xbbcda697	-0.0062759626
148	0x3c802d06	0.015646469
149	0x3c34d75a	0.011037672
150	0xbba45b49	-0.005015765
151	0xbca5ceb5	-0.020240167
152	0xbca98c7f	-0.020696877
153	0xbd2d5e2e	-0.042326145
154	0xbaa8f706	-0.0012891002
155	0x3c9130b5	0.01772342
156	0x3d0e6ad3	0.034769844
157	0x3cdffa68	0.027341083
158	0x3cc20bfa	0.023687351
159	0x3c58ce36	0.013232758
160	0xbb153c90	-0.0022771694
161	0x3ca10c75	0.01965926
162	0x3cd100fb	0.025513163
163	0x3d2a6312	0.041598387
164	0x3cd50dd1	0.026007565
165	0x3d21124b	0.039324086
166	0x3d0ac616	0.033880316
167	0x3c9409b2	0.01807103
168	0x3ba58519	0.005051267
169	0xbc0a3f7c	-0.008437987
170	0x3c21d80c	0.00987817
171	0x3a594c43	0.0008289257
172	0x3c18452a	0.009293834
173	0x3b84b66f	0.004050068
174	0x3ba1486f	0.004921965
175	0xb8dd96fb	-0.000105662235
176	0x3c0c7101	0.008571864
177	0x3c96d81e	0.0184136
178	0xbb14c15e	-0.0022698264
179	0x3c25ee32	0.010127591
180	0xbc302837	-0.0107517755
181	0xbbcdbb61	-0.006278441
182	0xbce00673	-0.027346825
183	0xbc487f8b	-0.01223744
184	0xbad7c26d	-0.0016461142
185	0x39e055f0	0.00042788638
186	0xbc3f5a5a	-0.011679256
187	0xbc306fa5	-0.010768806
188	0xbce2f435	-0.027704338
189	0xbcf99a6e	-0.030469146
190	0xbc4719cb	-0.012152146
191	0xbcb089a3	-0.021550005
192	0xbca6b7be	-0.020351287
193	0xbd03a999	-0.032144163
194	0xbcddf32a	-0.027093489
195	0xbd6d5cd0	-0.05794984
196	0xbdea19ae	-0.11430679
197	0xbdadb044	-0.084808856
198	0xbc566da4	-0.013087664
199	0xba375e86	-0.0006994981
200	0xbc95d073	-0.018287873
201	0xbb63e74f	-0.0034775322
202	0x3ca7464b	0.02041926
203	0xbde329a8	-0.1109193
204	0xbda2e502	-0.07953836
205	0xbc94d7de	-0.01816934
206	0x3cf4217b	0.029801121
207	0x3b41dcfb	0.0029581178
208	0x3cd690b6	0.02619205
209	0x3d34a85e	0.04410588
210	0xbdae3265	-0.08505706
211	0xbd1b9649	-0.03798512
212	0xbccf6614	-0.02531723
213	0x3cb8e664	0.022570796
214	0x3c612707	0.013742215
215	0x3d37aae1	0.044840697
216	0x3d6ef88f	0.058342513
217	0xbd89fa01	-0.067371376
218	0xbd5b8593	-0.053594183
219	0xbd1c5a08	-0.038171798
220	0x3cdde5d9	0.027087139
221	0xbccd1e0f	-0.025038747
222	0x3d10061b	0.035162073
223	0x3d18b197	0.037278738
224	0xbd9a312f	-0.07528912
225	0xbd0809dd	-0.03321253
226	0x3b9f8861	0.0048685526
227	0x3c9eed11	0.019400151
228	0x3cd0e219	0.025498437
229	0x3bcaf930	0.0061942562
230	0x3cd0adef	0.025473563
231	0xbd3d6717	-0.046240892
232	0xbcf5aa9b	-0.029988578
233	0x3d09a9c6	0.033609174
234	0x3d5753bb	0.052570086
235	0x3d64c5f4	0.055852845
236	0x3d026c21	0.0318414
237	0x3d94a24b	0.072575174
238	0xbc7c45d9	-0.015397512
239	0xbc210fd7	-0.009830437
240	0x3cf83e37	0.030303104
241	0x3d21acdb	0.03947149
242	0x3da034a3	0.0782254
243	0x3d737b5a	0.05944381
244	0x3db424dd	0.087960936
245	0xbc82f44f	-0.015985636
246	0x3c0c06fa	0.008546585
247	0x3d566453	0.05234177
248	0x3d38b405	0.045093555
249	0x3d1bddea	0.03805343
250	0x3ca261ef	0.019822089
251	0x3c6d0ca3	0.014468345
252	0xbd2af255	-0.041735012
253	0xbc106dd8	-0.008815251
254	0x3cca95ce	0.024729636
255	0x3d331efc	0.04373072

exp_avg_sq f4 [8, 1, 7, 7]
0	0x3e0b2a83	0.13590436
1	0x3df9923b	0.121860944
2	0x3e04fa79	0.12986173
3	0x3dd3baf8	0.10338396
4	0x3dff15ad	0.12455306
5	0x3ddad452	0.10685028
6	0x3ddbb760	0.107283354
7	0x3dd5137c	0.10404107
8	0x3de3bad9	0.11119623
9	0x3e1f0195	0.15527947
10	0x3e9e16fb	0.30876908
11	0x3e2a046e	0.16603252
12	0x3dfd56d6	0.12370078
13	0x3dcd0423	0.10010555
14	0x3dcd5f5c	0.10027954
15	0x3de82db7	0.113368444
16	0x3e2063c4	0.15663058
17	0x3e1b20fe	0.15149304
18	0x3e1f14fc	0.15535349
19	0x3dddb758	0.10825986
20	0x3dbc4b08	0.091939986
21	0x3e097970	0.13425231
22	0x3e19186d	0.14950724
23	0x3e8419ce	0.25800937
24	0x3d215676	0.039389096
25	0x3ecc77f7	0.39935276
26	0x3debc3f4	0.115119845
27	0x3df8f81b	0.12156697
28	0x3de1fc0f	0.110344045
29	0x3df44d5b	0.11928817
30	0x3e4c96aa	0.19979349
31	0x3e98f622	0.29875284
32	0x3e8221d6	0.2541644
33	0x3df476c7	0.119367175
34	0x3dd76c87	0.10518747
35	0x3dca38f4	0.09874144
36	0x3dfb2d64	0.12264517
37	0x3e061cfd	0.13096996
38	0x3e08ff12	0.13378552
39	0x3e0895f7	0.13338457
40	0x3df30b1d	0.11867354
41	0x3de99694	0.114056736
42	0x3e068dd7	0.13140045
43	0x3df44988	0.119280875
44	0x3df3747b	0.11887451
45	0x3e153289	0.14570059
46	0x3e0f9f96	0.14025721
47	0x3e161f9f	0.146605
48	0x3e060e61	0.13091423
49	0x3e0eccc5	0.13945301
50	0x3e093a50	0.1340115
51	0x3e0a0332	0.13477781
52	0x3e35ff6f	0.17773221
53	0x3e31e37b	0.17371933
54	0x3e14d2aa	0.14533487
55	0x3e369b3e	0.17832658
56	0x3ddc7720	0.10764909
57	0x3defebf8	0.11714929
58	0x3dd616d6	0.10453574
59	0x3e1a3b20	0.15061617
60	0x3e020ef8	0.12701023
61	0x3e131f1e	0.14367339
62	0x3e11d199	0.14240111
63	0x3e02ef33	0.1278656
64	0x3e0047b9	0.1252736
65	0x3e1e7ec3	0.15478043
66	0x3e7efd51	0.2490132
67	0x3e0e630d	0.13904972
68	0x3dfdd7c3	0.12394669
69	0x3de45d9f	0.11150669
70	0x3dd9185b	0.106003486
71	0x3e5a9f36	0.21349797
72	0x3e032815	0.12808259
73	0x3d92c36c	0.0716618
74	0x3ea78d6d	0.32725087
75	0x3ddfd784	0.10929778
76	0x3e19ff24	0.15038735
77	0x3e0c52ec	0.13703507
78	0x3e4bebad	0.19914122
79	0x3df2ce24	0.118557245
80	0x3e59946a	0.21248022
81	0x3e3005d6	0.17189726
82	0x3ddc6e74	0.10763255
83	0x3dcfb177	0.101412706
84	0x3df83e8f	0.12121307
85	0x3dff3ef9	0.12463183
86	0x3e0a0ac2	0.13480666
87	0x3e082dbf	0.13298701
88	0x3de6f6c0	0.112775326
89	0x3dd54932	0.104143515
90	0x3df10546	0.11768584
91	0x3e187d56	0.14891562
92	0x3e061f1d	0.13097806
93	0x3def64c9	0.11689145
94	0x3df96757	0.12177914
95	0x3de2cb3b	0.110739194
96	0x3e02db34	0.12778932
97	0x3dec342e	0.1153339
98	0x3d9e26f8	0.077222764
99	0x3d7ce18e	0.061738543
100	0x3d3a573d	0.045493353
101	0x3d4ffbef	0.050777372
102	0x3d661be3	0.05617894
103	0x3d57d1ec	0.05269043
104	0x3d5deaa5	0.054178853
105	0x3d584b9e	0.05280649
106	0x3d92a614	0.07160583
107	0x3d78fc73	0.06078763
108	0x3d2538b8	0.040337294
109	0x3d1979ac	0.03746955
110	0x3d11f2f3	0.035632085
111	0x3d2d4e79	0.042311165
112	0x3d5eb0dd	0.05436789
113	0x3d42fd32	0.047604747
114	0x3d2842a0	0.041079164
115	0x3d10492b	0.03522603
116	0x3cf5b1e1	0.029992046
117	0x3d38e3a1	0.04513896
118	0x3d43064e	0.047613434
119	0x3d331caa	0.043728508
120	0x3d872e6d	0.06600652
121	0x3d533774	0.051566556
122	0x3cbe1ed1	0.023208054
123	0x3d83bf26	0.06432943
124	0x3d1e4bd9	0.038646553
125	0x3d4db8f8	0.050225228
126	0x3d24df34	0.040251926
127	0x3d25b05e	0.0404514
128	0x3d022954	0.031777695
129	0x3d53ace4	0.051678553
130	0x3d38d40c	0.0451241
131	0x3d2a5878	0.041588277
132	0x3d7955de	0.060872905
133	0x3d51f839	0.051262114
134	0x3d1955e8	0.037435442
135	0x3d06481e	0.03278362
136	0x3d0994f3	0.033589315
137	0x3d40f563	0.04710902
138	0x3d88a171	0.066714175
139	0x3d6b5e30	0.05746287
140	0x3d705e60	0.058683753
141	0x3d3bb6fd	0.045828808
142	0x3d300335	0.04297181
143	0x3d47eac7	0.048807885
144	0x3d5d4213	0.05401809
145	0x3d6d8d73	0.057996225
146	0x3d8e726b	0.06955417
147	0x3d6e7673	0.05821843
148	0x3d4d0cc0	0.050060987
149	0x3d46cbc4	0.04853417
150	0x3d4669c8	0.048440725
151	0x3d46a966	0.048501395
152	0x3d442762	0.04788912
153	0x3d3e643e	0.046482317
154	0x3d416df7	0.04722401
155	0x3d46c8dd	0.048531402
156	0x3d373520	0.0447284
157	0x3d8fed5f	0.07027697
158	0x3d692b8f	0.056926306
159	0x3d4ce5e1	0.050023917
160	0x3d52e145	0.051484365
161	0x3d269250	0.04066688
162	0x3d969955	0.073534645
163	0x3d2988ce	0.041390233
164	0x3da2cc93	0.07949176
165	0x3d579567	0.052632716
166	0x3d66241c	0.05618678
167	0x3d239d9e	0.039945237
168	0x3d5a43d6	0.05328735
169	0x3dc2d3fc	0.09513089
170	0x3d28b8d9	0.04119191
171	0x3d8dd97f	0.0692625
172	0x3d5f72cd	0.054552842
173	0x3d688d27	0.05677524
174	0x3d536f62	0.051619895
175	0x3d19dd0d	0.037564326
176	0x3d2206ab	0.03955714
177	0x3d30b457	0.043140735
178	0x3d10cff9	0.03535459
179	0x3d872a03	0.0659981
180	0x3d304fbc	0.04304479
181	0x3d4e62cd	0.050387193
182	0x3d454102	0.0481577
183	0x3d157f3f	0.036498304
184	0x3d5ae849	0.05344418
185	0x3d5e523d	0.054277647
186	0x3d3cb307	0.04606917
187	0x3d4ed2d1	0.05049402
188	0x3d5b60c7	0.05355909
189	0x3d3c6f19	0.04600439
190	0x3d2581aa	0.04040686
191	0x3d3c64f0	0.0459947
192	0x3d3cbcd7	0.04607853
193	0x3d3a0001	0.04541016
194	0x3d451669	0.048117075
195	0x3d4d3c71	0.05010647
196	0x3dd4870d	0.103773214
197	0x3de851c2	0.11343719
198	0x3dd2bf1e	0.10290359
199	0x3e052d28	0.13005507
200	0x3dcea24f	0.10089552
201	0x3dc806b0	0.097669005
202	0x3ddac3f2	0.10681905
203	0x3dcb3653	0.09922471
204	0x3de1f3f0	0.110328555
205	0x3df16061	0.11785961
206	0x3e0bcdcc	0.13652724
207	0x3dec3005	0.115325965
208	0x3dea1031	0.114288695
209	0x3db1d348	0.08682877
210	0x3dc24c83	0.0948725
211	0x3df9eb7c	0.12203118
212	0x3e5ddb63	0.2166572
213	0x3ee368e9	0.44415978
214	0x3e260684	0.16213423
215	0x3df47098	0.11935538
216	0x3db90aff	0.090353005
217	0x3dce4dd8	0.10073441
218	0x3dfbc308	0.12293059
219	0x3e66664e	0.22499964
220	0x3ce6d6fd	0.028178686
221	0x3e9211e9	0.2852929
222	0x3e17e1d9	0.14832248
223	0x3dbd7057	0.09249943
224	0x3dba66a5	0.09101609
225	0x3df6668c	0.12031278
226	0x3dd8c9e1	0.1058538
227	0x3e5ce22d	0.21570654
228	0x3e00bce0	0.1257205
229	0x3dd0a21a	0.101871684
230	0x3dc7c45b	0.09754249
231	0x3dd46d10	0.103723645
232	0x3de026b6	0.109448835
233	0x3e55871e	0.20852324
234	0x3e4c462a	0.1994864
235	0x3ddbe1bb	0.10736414
236	0x3dc8aa51	0.0979811
237	0x3dbc1199	0.09183044
238	0x3dd88fcd	0.10574303
239	0x3db50fae	0.08840881
240	0x3ddd0c56	0.107933685
241	0x3de6f960	0.11278033
242	0x3dbc4b23	0.09194019
243	0x3dcb1ba7	0.09917384
244	0x3dcd948b	0.10038098
245	0x3da1f31f	0.079077
246	0x3dafd0c5	0.085847415
247	0x3da9a982	0.08284284
248	0x3de65c07	0.112480216
249	0x3db21538	0.086954534
250	0x3dab5ff7	0.08367913
251	0x3d9b9ee0	0.075986624
252	0x3da53b6a	0.08067973
253	0x3dbd1d07	0.09234052
254	0x3de92ada	0.113851264
255	0x3e21d328	0.15803206

exp_avg f4 [32, 8, 7, 7]
0	0x80000004	-6e-45
1	0x80000004	-6e-45
2	0x80000004	-6e-45
3	0x80000004	-6e-45
4	0x80000004	-6e-45
5	0x80000004	-6e-45
6	0x00000004	6e-45
7	0x80000004	-6e-45
8	0x80000004	-6e-45
9	0x80000004	-6e-45
10	0x80000004	-6e-45
11	0x80000004	-6e-45
12	0x80000004	-6e-45
13	0x80000004	-6e-45
14	0x80000004	-6e-45
15	0x80000004	-6e-45
16	0x80000004	-6e-45
17	0x80000004	-6e-45
18	0x80000004	-6e-45
19	0x80000004	-6e-45
20	0x80000004	-6e-45
21	0x80000004	-6e-45
22	0x80000004	-6e-45
23	0x80000004	-6e-45
24	0x80000004	-6e-45
25	0x80000004	-6e-45
26	0x80000004	-6e-45
27	0x80000004	-6e-45
28	0x80000004	-6e-45
29	0x80000004	-6e-45
30	0x80000004	-6e-45
31	0x80000004	-6e-45
32	0x00000004	6e-45
33	0x80000004	-6e-45
34	0x00000004	6e-45
35	0x80000004	-6e-45
36	0x80000004	-6e-45
37	0x00000004	6e-45
38	0x80000004	-6e-45
39	0x00000004	6e-45
40	0x80000004	-6e-45
41	0x00000004	6e-45
42	0x00000004	6e-45
43	0x00000004	6e-45
44	0x00000004	6e-45
45	0x80000004	-6e-45
46	0x00000004	6e-45
47	0x00000004	6e-45
48	0x00000004	6e-45
49	0x00000004	6e-45
50	0x00000004	6e-45
51	0x00000004	6e-45
52	0x80000004	-6e-45
53	0x00000004	6e-45
54	0x00000004	6e-45
55	0x00000004	6e-45
56	0x00000004	6e-45
57	0x00000004	6e-45
58	0x00000004	6e-45
59	0x80000004	-6e-45
60	0x00000004	6e-45
61	0x00000004	6e-45
62	0x00000004	6e-45
63	0x00000004	6e-45
64	0x00000004	6e-45
65	0x00000004	6e-45
66	0x80000004	-6e-45
67	0x00000004	6e-45
68	0x00000004	6e-45
69	0x00000004	6e-45
70	0x00000004	6e-45
71	0x80000004	-6e-45
72	0x80000004	-6e-45
73	0x00000004	6e-45
74	0x00000004	6e-45
75	0x00000004	6e-45
76	0x00000004	6e-45
77	0x00000004	6e-45
78	0x80000004	-6e-45
79	0x80000004	-6e-45
80	0x80000004	-6e-45
81	0x00000004	6e-45
82	0x00000004	6e-45
83	0x00000004	6e-45
84	0x80000004	-6e-45
85	0x80000004	-6e-45
86	0x80000004	-6e-45
87	0x80000004	-6e-45
88	0x80000004	-6e-45
89	0x00000004	6e-45
90	0x00000004	6e-45
91	0x00000004	6e-45
92	0x80000004	-6e-45
93	0x80000004	-6e-45
94	0x80000004	-6e-45
95	0x80000004	-6e-45
96	0x00000004	6e-45
97	0x00000004	6e-45
98	0x00000004	6e-45
99	0x00000004	6e-45
100	0x00000004	6e-45
101	0x00000004	6e-45
102	0x00000004	6e-45
103	0x00000004	6e-45
104	0x00000004	6e-45
105	0x00000004	6e-45
106	0x00000004	6e-45
107	0x00000004	6e-45
108	0x00000004	6e-45
109	0x00000004	6e-45
110	0x00000004	6e-45
111	0x00000004	6e-45
112	0x00000004	6e-45
113	0x00000004	6e-45
114	0x00000004	6e-45
115	0x00000004	6e-45
116	0x00000004	6e-45
117	0x00000004	6e-45
118	0x00000004	6e-45
119	0x00000004	6e-45
120	0x00000004	6e-45
121	0x00000004	6e-45
122	0x00000004	6e-45
123	0x00000004	6e-45
124	0x80000004	-6e-45
125	0x80000004	-6e-45
126	0x00000004	6e-45
127	0x80000004	-6e-45
128	0x80000004	-6e-45
129	0x80000004	-6e-45
130	0x80000004	-6e-45
131	0x80000004	-6e-45
132	0x80000004	-6e-45
133	0x80000004	-6e-45
134	0x80000004	-6e-45
135	0x80000004	-6e-45
136	0x80000004	-6e-45
137	0x80000004	-6e-45
138	0x80000004	-6e-45
139	0x80000004	-6e-45
140	0x80000004	-6e-45
141	0x80000004	-6e-45
142	0x80000004	-6e-45
143	0x80000004	-6e-45
144	0x80000004	-6e-45
145	0x80000004	-6e-45
146	0x80000004	-6e-45
147	0x00000004	6e-45
148	0x80000004	-6e-45
149	0x80000004	-6e-45
150	0x00000004	6e-45
151	0x00000004	6e-45
152	0x80000004	-6e-45
153	0x80000004	-6e-45
154	0x80000004	-6e-45
155	0x80000004	-6e-45
156	0x80000004	-6e-45
157	0x00000004	6e-45
158	0x00000004	6e-45
159	0x80000004	-6e-45
160	0x80000004	-6e-45
161	0x00000004	6e-45
162	0x80000004	-6e-45
163	0x00000004	6e-45
164	0x00000004	6e-45
165	0x00000004	6e-45
166	0x80000004	-6e-45
167	0x80000004	-6e-45
168	0x00000004	6e-45
169	0x00000004	6e-45
170	0x80000004	-6e-45
171	0x00000004	6e-45
172	0x80000004	-6e-45
173	0x80000004	-6e-45
174	0x80000004	-6e-45
175	0x80000004	-6e-45
176	0x80000004	-6e-45
177	0x00000004	6e-45
178	0x00000004	6e-45
179	0x80000004	-6e-45
180	0x80000004	-6e-45
181	0x00000004	6e-45
182	0x80000004	-6e-45
183	0x80000004	-6e-45
184	0x00000004	6e-45
185	0x00000004	6e-45
186	0x00000004	6e-45
187	0x80000004	-6e-45
188	0x80000004	-6e-45
189	0x00000004	6e-45
190	0x80000004	-6e-45
191	0x00000004	6e-45
192	0x00000004	6e-45
193	0x80000004	-6e-45
194	0x80000004	-6e-45
195	0x80000004	-6e-45
196	0x00000004	6e-45
197	0x80000004	-6e-45
198	0x00000004	6e-45
199	0x00000004	6e-45
200	0x00000004	6e-45
201	0x80000004	-6e-45
202	0x00000004	6e-45
203	0x80000004	-6e-45
204	0x80000004	-6e-45
205	0x80000004	-6e-45
206	0x00000004	6e-45
207	0x00000004	6e-45
208	0x00000004	6e-45
209	0x00000004	6e-45
210	0x00000004	6e-45
211	0x00000004	6e-45
212	0x00000004	6e-45
213	0x80000004	-6e-45
214	0x00000004	6e-45
215	0x00000004	6e-45
216	0x00000004	6e-45
217	0x00000004	6e-45
218	0x00000004	6e-45
219	0x00000004	6e-45
220	0x80000004	-6e-45
221	0x00000004	6e-45
222	0x00000004	6e-45
223	0x00000004	6e-45
224	0x80000004	-6e-45
225	0x00000004	6e-45
226	0x00000004	6e-45
227	0x80000004	-6e-45
228	0x00000004	6e-45
229	0x80000004	-6e-45
230	0x00000004	6e-45
231	0x80000004	-6e-45
232	0x80000004	-6e-45
233	0x80000004	-6e-45
234	0x80000004	-6e-45
235	0x00000004	6e-45
236	0x00000004	6e-45
237	0x00000004	6e-45
238	0x00000004	6e-45
239	0x80000004	-6e-45
240	0x80000004	-6e-45
241	0x00000004	6e-45
242	0x00000004	6e-45
243	0x00000004	6e-45
244	0x80000004	-6e-45
245	0x80000004	-6e-45
246	0x00000004	6e-45
247	0x00000004	6e-45
248	0x00000004	6e-45
249	0x80000004	-6e-45
250	0x00000004	6e-45
251	0x00000004	6e-45
252	0x80000004	-6e-45
253	0x80000004	-6e-45
254	0x80000004	-6e-45
255	0x80000004	-6e-45
