trained_models/Sigma_25_t_50/checkpoints/checkpoint_10.pth (torch, 173091 bytes, 10 tensors)

conv_layer.conv_layers.0.parametrizations.weight.original f4 [8, 1, 7, 7]
0.030507794 0.13152204 -0.0014328792 0.1978045 -0.058430444 0.010185006 -0.045122657 0.04485792
0.17322959 -0.109458715 0.253528 0.07629672 0.18099387 0.0042202845 -0.0058906944 -0.0504308
0.22169949 0.28639793 0.01960512 0.03900444 -0.09311547 -0.005365501 -0.057241496 0.19465813
-0.61419237 -0.09420514 -0.084753565 -0.04864116 0.009560277 -0.17777114 0.16195825 -0.23454714
0.19469471 0.13089064 -0.03293451 0.1606961 0.104055725 0.036593348 0.045768846 -0.058309674
-0.022077704 0.03285953 -0.014337428 0.0489924 0.064537846 -0.102191225 0.10667883 0.01916319
0.053683426 -0.05367172 -0.08572527 -0.020570265 -0.11900632 0.122927524 0.047500953 0.009594807
0.022150913 0.0026634035 0.12732449 -0.15647341 -0.004791807 -0.17758383 0.03381774 -0.118418016
-0.056951657 -0.09009445 0.24678355 0.046420466 -0.113665946 -0.09397132 0.2078254 0.1200181
0.334046 -0.6143505 -0.28739595 -0.16082542 -0.11854269 0.033502538 0.06819808 0.21999702
-0.04816071 -0.043347877 0.17081258 0.023175184 0.0060728253 -0.06731862 0.12082475 -0.028315226
-0.021583147 -0.0005153729 0.02522167 -0.055889364 -0.023473639 0.064302735 -0.07019314 -0.018485893
0.10272722 -0.010673281 -0.005550678 -0.10703018 -0.12897032 0.0796525 -0.06832479 -0.15045318
-0.05503534 -0.09487269 -0.11963102 -0.039383624 -0.20322931 -0.21228224 0.21283603 0.013431287
0.01432043 -0.080333255 -0.2852499 -0.060220532 0.04389345 -0.24485338 -0.091736004 -0.08576084
0.09451681 -0.121235445 0.12767412 0.015506394 -0.14536317 -0.06415949 -0.08588274 -0.18581969
0.23291522 0.07617673 0.25893125 0.12309007 -0.10932892 0.061162937 0.04768263 -0.034436647
-0.22011915 -0.11742219 0.09648149 -0.0574829 -0.028313035 -0.08801914 0.06575142 -0.117519885
0.011038853 0.0064344453 -0.047537267 0.04737941 0.17990209 -0.13211927 0.029604277 -0.084601395
0.014317365 -0.095711224 0.05801628 -0.08198569 0.085343264 0.11527207 0.044221688 -0.018298794
0.1161623 -0.03263823 0.032644603 -0.17569743 0.12087698 -0.05664383 -0.13156462 0.25463337
-0.00056888576 -0.14393838 -0.1643807 -0.07422193 0.16510558 -0.10163245 -0.13087754 0.04958503
-0.14882001 0.11788096 0.35358378 -0.22556135 0.09307433 0.07395676 -0.020317605 -0.08515694
0.08228198 0.10236841 0.12808385 -0.0049523227 -0.07624648 -0.0075423815 -0.044950996 0.0030772767
0.07602743 0.060877085 -0.008755336 -0.0035729816 -0.015412281 -0.07694779 0.06579381 0.023745991
-0.028655771 -0.017002562 0.026767835 0.020670516 -0.015318915 -0.03734861 -0.11772893 -0.112062074
-0.033940043 -0.01885042 0.07898951 0.18232323 -0.16516659 -0.11982335 0.07984967 0.2134378
0.002213289 -0.06103441 0.1922915 -0.16778253 -0.7265709 0.19752602 -0.054472513 0.04351162
-0.13962866 0.023072556 0.23223867 0.27266413 -0.19122185 -0.20770982 -0.079238005 0.079092056
-0.04913099 0.116018645 0.119622305 0.012712498 -0.05635789 -0.044085525 -0.05947921 -0.13306281
0.077646434 -0.029017357 -0.014505686 -0.04602216 -0.0161762 -0.07706569 -0.08217487 0.08431509
-0.046940483 0.07947981 -0.017895877 -0.0724904 -0.02059545 -0.13081647 -0.118761614 -0.13425393
00000000: 7beb f93c b7ad 063e 73cf bbba 438d 4a3e
00000010: c354 6fbd 03df 263c 89d2 38bd f0bc 373d
00000020: 1963 313e e42b e0bd 6cce 813e 7441 9c3d
00000030: 7556 393e 504a 8a3b ba06 c1bb 8790 4ebd
00000040: 3105 633e c0a2 923e eb9a a03c 1fc3 1f3d
00000050: 53b3 bebd 16d1 afbb 0f76 6abd 7654 473e
00000060: b63b 1dbf a0ee c0bd 4793 adbd f43b 47bd
00000070: b5a2 1c3c a309 36be 62d8 253e 202d 70be
00000080: 0d5e 473e 3208 063e 56e6 06bd 858d 243e
00000090: 2b1b d53d e8e2 153d 1d78 3b3d 20d6 6ebd
000000a0: 4ddc b4bc b797 063d 88e7 6abc 41ac 483d
000000b0: 6b2c 843d a249 d1bd 6e7a da3d 1ffc 9c3c
000000c0: 27e3 5b3d e1d6 5bbd bb90 afbd f982 a8bc
000000d0: 96b9 f3bd 6dc1 fb3d 5c90 423d 8a33 1d3c
000000e0: d575 b53c 7f8c 2e3b 5a61 023e 913a 20be
000000f0: 9704 9dbb 89d8 35be 7884 0a3d 2585 f2bd
00000100: 2446 69bd 7083 b8bd d4b4 7c3e 6323 3e3d
00000110: b1c9 e8bd 0974 c0bd 2fd0 543e 0dcc f53d
00000120: 1408 ab3e 1346 1dbf 9025 93be 6baf 24be
00000130: 83c6 f2bd f539 093d 6fab 8b3d e646 613e
00000140: 2a44 45bd 8b8d 31bd 7ee9 2e3e e2d9 bd3c
00000150: 8dfe c63b 58de 89bd f772 f73d 55f5 e7bc
00000160: 24cf b0bc 171a 07ba ad9d ce3c 3fec 64bd
00000170: ca4b c0bc 27b1 833d 6cc1 8fbd ba6f 97bc
00000180: a662 d23d fcde 2ebc 76e2 b5bb a432 dbbd
00000190: cc10 04be da20 a33d deed 8bbd 6610 1abe
000001a0: bd6c 61bd 9d4c c2bd 1c01 f5bd b950 21bd
000001b0: 581b 50be 8460 59be b0f1 593e e70e 5c3c
000001c0: 3da0 6a3c c385 a4bd 460c 92be cea9 76bd
000001d0: 9ec9 333d d8ba 7abe 16e0 bbbd 61a3 afbd
000001e0: 0792 c13d 4a4a f8bd 01bd 023e 880e 7e3c
000001f0: 15da 14be 0d66 83bd 4ae3 afbd 8447 3ebe
00000200: 5481 6e3e 8c02 9c3d a392 843e a616 fc3d
00000210: d7e7 dfbd fd85 7a3d dd4e 433d 710d 0dbd
00000220: ea66 61be 0c7b f0bd 1698 c53d 3073 6bbd
00000230: bdf0 e7bc 6143 b4bd aea8 863d 44ae f0bd
00000240: 4edc 343c 0ad8 d23b 70b6 42bd ea10 423d
00000250: 4138 383e 464a 07be ab84 f23c 7f43 adbd
00000260: 6293 6a3c 3f04 c4bd 7ba2 6d3d 1de8 a7bd
00000270: 73c8 ae3d c313 ec3d cd21 353d 5ae7 95bc
00000280: 80e6 ed3d aaaf 05bd 59b6 053d 07ea 33be
00000290: 5a8e f73d 5c03 68bd e0b8 06be 4e5f 823e
000002a0: 4721 15ba 9564 13be 6a53 28be ab01 98bd
000002b0: 7011 293e ad24 d0bd c304 06be ac19 4b3d
000002c0: 4664 18be 936b f13d ef08 b53e 8ef9 66be
000002d0: c19d be3d a476 973d 1b71 a6bc c366 aebd
000002e0: 7483 a83d 87a6 d13d 6a28 033e 1847 a2bb
000002f0: 1d27 9cbd 1526 f7bb 891e 38bd 23ac 493b
00000300: 45b4 9b3d 405a 793d 8a72 0fbc af28 6abb
00000310: cb83 7cbc ce96 9dbd e8be 863d f486 c23c
00000320: 82bf eabc f548 8bbc 3848 db3c 3755 a93c
00000330: 30fc 7abc dbfa 18bd de1b f1bd cd80 e5bd
00000340: b704 0bbd 326c 9abc 41c5 a13d f1b2 3a3e
00000350: 6e21 29be f265 f5bd 3988 a33d 708f 5a3e
00000360: d40c 113b 38ff 79bd 10e8 443e 2fcf 2bbe
00000370: 8d00 3abf 4344 4a3e 921e 5fbd 3e39 323d
00000380: d1fa 0ebe a802 bd3c f9cf 6d3e a29a 8b3e
00000390: a9cf 43be e2b1 54be 8947 a2bd 04fb a13d
000003a0: 943d 49bd 2f9b ed3d 8afc f43d 1548 503c
000003b0: 88d7 66bd 0693 34bd 79a0 73bd 9e41 08be
000003c0: 1805 9f3d cfb5 edbc 42a9 6dbc bc81 3cbd
000003d0: f383 84bc 9ed4 9dbd 4c4b a8bd 64ad ac3d
000003e0: aa44 40bd 50c6 a23d 609a 92bc d975 94bd
000003f0: cab7 a8bc c1f4 05be 4a39 f3bd dd79 09be

conv_layer.conv_layers.1.parametrizations.weight.original f4 [32, 8, 7, 7]
0.00315682 0.063142054 0.016587744 -0.02920108 -0.054640543 0.04087387 0.013076157 -0.04410441
-0.030905817 -0.007804432 0.008357372 -0.036035456 0.037913952 0.011429976 -0.061865356 0.0026468604
-0.017861692 0.05923116 0.031163689 -0.05308505 0.0016205428 0.03657416 0.040662352 -0.0055593555
-0.12115085 0.0023292566 -0.02630196 -0.0440714 1.1422767e-05 0.01237799 -0.06651967 0.06971519
0.075364634 0.072986014 -0.010484125 -0.036352277 0.034781918 0.03657604 0.0664994 -0.083774656
-0.05615682 0.010690136 -0.037544217 0.06043507 -0.032115214 0.0013979332 -0.018485859 0.023970347
-0.0020967694 0.040296853 0.009414484 0.029270941 0.041889526 -0.039159704 -0.06176578 0.044042967
0.05592233 -0.055903926 0.012431327 -0.093610056 -0.022571143 0.06813495 0.03826651 0.028238168
0.016794259 0.077163704 0.041252617 -0.05536396 -0.035299264 -0.045356344 -0.03458685 -0.07208779
0.0049971445 -0.096475706 -0.017562527 0.015046516 0.053969335 0.021042002 0.071572736 0.034129318
0.05643968 -0.04188463 -0.06225023 0.008636272 -0.044339895 -0.06550823 -0.012089113 0.0408731
0.023434315 -0.0226424 -0.04054489 0.010387271 -0.033994056 -0.009524547 0.0005737619 0.024166277
0.036773227 0.030711986 -0.0058196094 0.0048787775 0.019741435 -0.007930261 -0.032213278 -0.03684357
-0.016653934 0.040255845 -0.019052878 -0.06377403 -0.021740453 -0.026159585 0.017064236 0.07110009
0.002228949 0.062353127 -0.0044010314 0.005437575 -0.024870673 -0.048444018 -0.0043618525 -0.06597821
0.04682971 -0.030657018 -0.0073547214 -0.04593487 0.07368525 -0.05248992 0.030650651 -0.048424043
-0.022664906 0.08084083 -0.044686146 0.040957 0.067167036 -0.057274815 0.03647228 0.006063108
0.022740373 0.034957096 -0.021568216 0.013678927 -0.014204167 0.011440994 0.054233816 -0.011286602
-0.06416664 0.01505258 -0.040272284 0.04607247 -0.05096994 -0.006252599 -0.028551564 0.024890171
0.025838887 -0.0038940518 0.00304101 0.031849705 0.057669535 -0.04408101 -0.004425033 0.0053491746
-0.045042146 0.035907097 0.028459558 -0.064544894 0.06159855 0.011347222 -0.008524057 0.09590372
0.020733884 0.07932458 0.021961216 -0.0869423 0.009685749 0.014177513 -0.054370847 -0.032973267
-0.09520638 -0.020579074 -0.028566007 -0.07288933 -0.0019978175 0.03491541 0.08076934 -0.0211057
-0.076958746 0.07634087 -0.011351995 -0.023242045 0.042905066 -0.05301183 0.03923677 0.018251104
-0.026018903 0.022914965 -0.05612104 0.020745505 0.03948889 0.03897553 0.050740637 0.05044751
-0.025258278 0.024490766 -0.03470483 -0.040064152 -0.038952332 -0.09708453 0.016640078 -0.0020121476
-0.04507609 -0.017811514 -0.042470224 0.018780699 -0.013563145 -0.011057195 -0.040219583 -0.0007846627
0.06276814 0.037417285 0.027957965 -0.049641285 -0.08904572 0.08061777 0.07913794 -0.051216677
0.022461938 -0.019829903 0.010646454 0.06837312 -0.0126300175 0.014039948 -0.019722458 -0.011103691
-0.0056542954 -0.050587304 -0.039057195 0.028756209 0.0015387574 0.034884617 0.0035518669 -0.03875345
0.035649426 0.04197197 -0.012751979 -0.013873017 -0.022997921 -0.017572552 -0.062995635 -0.017923428
0.025058664 -0.050856993 0.057751667 -0.05097738 -0.03794236 -0.032968 0.041248612 -0.0015863356
00000000: a7e2 4e3b 9f50 813d 05e3 873c 1a37 efbc
00000010: c3ce 5fbd 5c6b 273d 613d 563c d3a6 34bd
00000020: 322e fdbc 52bc ffbb 5ced 083c ea99 13bd
00000030: a94b 1b3d cb44 3b3c 8766 7dbd f376 2d3b
00000040: af52 92bc 5f9c 723d fe4a ff3c b66f 59bd
00000050: 6568 d43a c9ce 153d 918d 263d 412b b6bb
00000060: f01d f8bd 71a6 183b 3577 d7bc 3684 34bd
00000070: 69a4 3f37 0ecd 4a3c 773b 88bd d6c6 8e3d
00000080: c658 9a3d b179 953d 9cc5 2bbc 20e6 14bd
00000090: 7c77 0e3d c2d0 153d d630 883d 0c92 abbd
000000a0: b204 66bd ae25 2f3c f7c7 19bd c48a 773d
000000b0: 3e8b 03bd db3a b73a a86f 97bc 765d c43c
000000c0: f469 09bb 500e 253d 353f 1a3c 9dc9 ef3c
000000d0: 5a94 2b3d ed65 20bd 1dfe 7cbd 6666 343d
000000e0: d00e 653d 84fb 64bd c4ac 4b3c a1b6 bfbd
000000f0: 1ee7 b8bc 568a 8b3d 58bd 1c3d bb53 e73c
00000100: 1d94 893c 0108 9e3d 81f8 283d 52c5 62bd
00000110: f695 10bd 93c7 39bd f1aa 0dbd c3a2 93bd
00000120: 16bf a33b 0e95 c5bd 4adf 8fbc aa85 763c
00000130: f30e 5d3d 4760 ac3c ba94 923d 2fcb 0b3d
00000140: 4b2d 673d 388f 2bbd 19fa 7ebd 267f 0d3c
00000150: c09d 35bd 2e29 86bd 6a11 46bc 8d6a 273d
00000160: 52f9 bf3c 8e7c b9bc 6612 26bd 5f2f 2a3c
00000170: 5a3d 0bbd d80c 1cbc 8268 163a 5bf8 c53c
00000180: 869f 163d b497 fb3c 6cb2 bebb 27de 9f3b
00000190: cab8 a13c eded 01bc 12f2 03bd 49e9 16bd
000001a0: d56d 88bc 50e3 243d c814 9cbc f59b 82bd
000001b0: 0919 b2bc a04c d6bc 4cca 8b3c ed9c 913d
000001c0: 8f13 123b fe65 7f3d 8736 90bb af2d b23b
000001d0: 95bd cbbc 3c6d 46bd dfed 8ebb 951f 87bd
000001e0: 83d0 3f3d 6d24 fbbc e0ff f0bb 3426 3cbd
000001f0: 4be8 963d acff 56bd 1317 fb3c 4a58 46bd
00000200: c1ab b9bc e18f a53d d208 37bd 87c2 273d
00000210: df8e 893d ff98 6abd f563 153d 09ad c63b
00000220: 054a ba3c 2c2f 0f3d d4af b0bc 941d 603c
00000230: 98b8 68bc 0273 3b3c 4724 5e3d 71eb 38bc
00000240: cd69 83bd 199f 763c 8df4 24bd 7cb6 3c3d
00000250: dbc5 50bd 9ae2 ccbb f8e4 e9bc 79e6 cb3c
00000260: 13ac d33c 5933 7fbb ae4b 473b d674 023d
00000270: e436 6c3d 4a8e 34bd deff 90bb 2148 af3b
00000280: 1d7e 38bd 5213 133d 0524 e93c 1d30 84bd
00000290: c34e 7c3d b3e9 393c 7da8 0bbc 2b69 c43d
000002a0: 1bda a93c ed74 a23d 02e8 b33c ce0e b2bd
000002b0: fab0 1e3c cd48 683c f7b3 5ebd fa0e 07bd
000002c0: 90fb c2bd 7295 a8bc 4203 eabc 0047 95bd
000002d0: d1ed 02bb 7603 0f3d 656a a53d dce5 acbc
000002e0: 8c9c 9dbd 9a58 9c3d b8fd 39bc 1a66 bebc
000002f0: 39bd 2f3d ef22 59bd bcb6 203d 5783 953c
00000300: 9825 d5bc 2ab8 bb3c 2ddf 65bd 7af2 a93c
00000310: 1abf 213d cea4 1f3d 6ad5 4f3d 0ca2 4e3d
00000320: 73ea cebc dca0 c83c a726 0ebd 4f1a 24bd
00000330: 7b8c 1fbd 41d4 c6bd c650 883c 3cde 03bb
00000340: b5a1 38bd 74e9 91bc 42f5 2dbd fbd9 993c
00000350: f437 5ebc 3d29 35bc 4abd 24bd d3b1 4dba
00000360: 958c 803d de42 193d 1a08 e53c a954 4bbd
00000370: 9a5d b6bd ee1a a53d 1313 a23d 94c8 51bd
00000380: 1902 b83c 5272 a2bc 776e 2e3c 3507 8c3d
00000390: 22ee 4ebc cf07 663c fe90 a1bc 41ec 35bc
000003a0: ab47 b9bb a234 4fbd 70fa 1fbd 2492 eb3c
000003b0: 21b0 c93a 2ce3 0e3d 70c6 683b f0bb 1ebd
000003c0: 2205 123d cdea 2b3d aded 50bc a74b 63bc
000003d0: 2366 bcbc 50f4 8fbc db03 81bd 27d4 92bc
000003e0: d447 cd3c 6c4f 50bd 038d 6c3d a8cd 50bd
000003f0: 7369 1bbd 7409 07bd 4ef4 283d 97ec cfba

activation.coefficients_vect f4 [672]
-0.0 0.0015029524 0.00072027114 0.00069875625 0.00055965316 0.0005089119 0.00027281672 0.00013864413
9.9429606e-05 7.890932e-05 -4.7929887e-05 -7.307737e-05 -0.00015620302 -0.00020712253 -0.000289179 -0.00032435352
-0.00041080397 -0.00044319083 -0.00075311656 -0.0011653897 0.0 -0.0 0.0010982389 0.00079973816
0.0007446656 0.00049120496 0.00013516661 -7.843785e-05 -0.00014664247 -0.00016481584 -0.00021311938 7.949956e-05
0.00037218264 0.0003030249 0.0003012053 0.00026998523 0.00021841456 -0.000116458534 -0.00045415116 -0.001065813
-0.0010902984 0.0 -0.0 0.0011444804 0.0010402136 0.00077509804 -7.880057e-06 -3.2545944e-05
-0.00012630457 -0.00025310012 -0.0002843596 -0.00030129927 -3.4466695e-05 0.00023057012 0.00014498888 4.8156667e-06
-0.0001773187 -0.0002127278 -0.00034143933 -0.00052236556 -0.000557152 -0.00070094824 0.0 -0.0
0.0024003708 0.0013991428 0.0011682771 0.0011212769 0.00028713522 9.468975e-05 -0.00014218864 -0.00019217133
-0.00020279041 -4.607606e-05 0.00011053623 8.8792156e-05 6.5448344e-06 -0.00026426336 -0.00044494157 -0.0008894892
-0.0010419522 -0.0018853148 -0.0026486353 0.0 -0.0 0.0016533574 0.0011430997 0.00076470635
0.0005643129 0.00034084838 2.0254794e-05 -5.5351877e-05 -0.00011588802 -0.00024046711 -1.637335e-05 0.00018683248
4.220757e-05 -3.004354e-05 -9.787926e-05 -0.00023612267 -0.00064620003 -0.0008112319 -0.0018036057 -0.0026276766
0.0 -0.0 0.0022171426 0.0008655141 0.0008591706 0.000800081 0.00044752323 0.00030911728
0.00019508014 -2.9357403e-05 -0.00013054803 -4.7155454e-06 9.757013e-05 5.704816e-05 -8.081906e-05 -0.00013836136
-0.00059473136 -0.00062152045 -0.0009592746 -0.0010289751 -0.002562496 0.0 -0.0 0.000730964
0.0006562391 0.0006324815 0.0005606235 5.8316386e-05 4.778281e-05 -0.0001569324 -0.0002606671 -0.00032868425
-5.11899e-05 0.00022906474 0.00019094352 3.9737257e-05 -5.895041e-05 -0.00019144919 -0.00032564517 -0.00037576986
-0.0004462591 -0.00087350013 0.0 -0.0 0.0013948896 0.00078751484 0.00077842845 0.00043696852
0.0004011228 0.00029020765 0.00013608631 0.00012389269 5.2204257e-05 3.509967e-05 -2.2006796e-05 -8.0968355e-05
-0.00014656693 -0.0002283934 -0.00030740284 -0.0005500123 -0.00074327615 -0.0010379455 -0.0014654024 0.0
-0.0 0.00033683574 9.2238115e-05 4.1895102e-05 -9.535893e-05 -0.00013008683 -0.00015661771 -0.00021038267
-0.00036232546 -0.0008382904 4.4977063e-05 0.00092726405 0.00030027548 0.00027238557 0.0002634097 0.00021624805
0.00016164068 0.00012570203 -0.00014604803 -0.000176008 0.0 -0.0 0.00094651926 0.00077417894
0.0003135291 0.00030784542 0.00026380087 0.00021750081 0.00018418665 0.00014041872 -2.2824428e-05 -0.00013541775
-0.00018656171 -0.00023878686 -0.00026013225 -0.0003544073 -0.0003697049 -0.0004881722 -0.0005781748 -0.000651024
-0.00089873536 0.0 -0.0 0.0031817253 0.0016345591 0.0016180458 0.0009184884 0.000594014
0.00026971288 -0.00012299954 -0.00016090374 -0.00017126424 -4.441781e-05 8.9990084e-05 1.2184266e-06 -6.4696396e-05
-0.00016806569 -0.00065031217 -0.00085199997 -0.0018174676 -0.0020554874 -0.0025476275 0.0 -0.0
0.0011004898 0.00095807266 0.0006758995 0.0006219296 0.00048268944 0.00014693914 4.47165e-05 2.9274697e-05
5.053433e-06 4.6076802e-06 -8.675398e-05 -8.8515524e-05 -0.000100115794 -0.00010129309 -0.0001974239 -0.00034875536
-0.00041070077 -0.0005234541 -0.0012672142 0.0 -0.0 0.0017372811 0.0011908811 0.00076891965
00000000: 0000 0080 b7fe c43a 94d0 3c3a bd2c 373a
00000010: b0b5 123a 8068 053a d708 8f39 0061 1139
00000020: dd84 d038 1e7c a538 5308 49b8 1d41 99b8
00000030: 6eca 23b9 082f 59b9 f39c 97b9 fe0d aab9
00000040: 2d61 d7b9 115c e8b9 cc6c 45ba fdbf 98ba
00000050: 0000 0000 0000 0080 c8f2 8f3a 85a5 513a
00000060: aa35 433a 35c4 003a 83bb 0d39 007f a4b8
00000070: 0ac4 19b9 6ad2 2cb9 cc78 5fb9 00b9 a638
00000080: 8221 c339 50df 9e39 17eb 9d39 ce8c 8d39
00000090: 3606 6539 333b f4b8 231b eeb9 c0b2 8bba
000000a0: 58e8 8eba 0000 0000 0000 0080 6402 963a
000000b0: c757 883a f32f 4b3a 9634 04b7 f181 08b8
000000c0: a070 04b9 86b2 84b9 1916 95b9 b4f7 9db9
000000d0: 5590 10b8 32c5 7139 2808 1839 4396 a136
000000e0: a0ee 39b9 af0f 5fb9 3603 b3b9 5cef 08ba
000000f0: d60d 12ba d7bf 37ba 0000 0000 0000 0080
00000100: 8a4f 1d3b 7163 b73a e020 993a cff7 923a
00000110: a38a 9639 2c94 c638 7918 15b9 9981 49b9
00000120: 23a4 54b9 cb41 41b8 b0cf e738 ed35 ba38
00000130: b39b db36 d48c 8ab9 0c47 e9b9 9c2c 69ba
00000140: 1d92 88ba ab1c f7ba ba94 2dbb 0000 0000
00000150: 0000 0080 78b5 d83a 10d4 953a 9376 483a
00000160: 66ee 133a e5b3 b239 d7e8 a937 a029 68b8
00000170: e808 f3b8 e625 7cb9 8059 89b7 76e8 4339
00000180: 0808 3138 0306 fcb7 8744 cdb8 b297 77b9
00000190: c065 29ba daa8 54ba f766 ecba 1935 2cbb
000001a0: 0000 0000 0000 0080 7b4d 113b abe3 623a
000001b0: f739 613a 87bc 513a 8da1 ea39 0511 a239
000001c0: 6d8e 4c39 8b44 f6b7 b8e3 08b9 3a3a 9eb6
000001d0: 919e cc38 ff46 6f38 677d a9b8 1815 11b9
000001e0: bfe7 1bba 88ed 22ba d477 7bba adde 86ba
000001f0: 8def 27bb 0000 0000 0000 0080 2a9e 3f3a
00000200: 7607 2c3a 1dcd 253a cef6 123a be98 7438
00000210: 676a 4838 388e 24b9 25aa 88b9 4153 acb9
00000220: bdb4 56b8 1931 7039 0338 4839 8eab 2638
00000230: 8541 77b8 c0bf 48b9 5bbb aab9 fa02 c5b9
00000240: e2f7 e9b9 9afb 64ba 0000 0000 0000 0080
00000250: bad4 b63a 3a71 4e3a 730f 4c3a ec18 e539
00000260: ca4d d239 0327 9839 64b2 0e39 31e9 0139
00000270: e5f5 5a38 fc37 1338 3c9b b8b7 8ecd a9b8
00000280: c3af 19b9 e37c 6fb9 e92a a1b9 b32e 10ba
00000290: 6bd8 42ba ac0b 88ba bf12 c0ba 0000 0000
000002a0: 0000 0080 5499 b039 f66f c138 86b8 2f38
000002b0: 70fb c7b8 eb67 08b9 bf39 24b9 2b9a 5cb9
000002c0: 80f6 bdb9 b7c0 5bba c1a5 3c38 a313 733a
000002d0: 4b6e 9d39 f9ce 8e39 401a 8a39 a5c0 6239
000002e0: 177e 2939 e2ce 0339 7824 19b9 ca8e 38b9
000002f0: 0000 0000 0000 0080 d51f 783a 45f2 4a3a
00000300: 2a61 a439 5066 a139 c14e 8a39 ee10 6439
00000310: 3a22 4139 5d3d 1339 1677 bfb7 edfe 0db9
00000320: c79f 43b9 dc62 7ab9 5c62 88b9 becf b9b9
00000330: f4d4 c1b9 5df1 ffb9 a790 17ba 7ba9 2aba
00000340: 1c99 6bba 0000 0000 0000 0080 7e84 503b
00000350: b43e d63a 9c14 d43a b7c6 703a 9bb7 1b3a
00000360: 4068 8d39 70f9 00b9 45b8 28b9 6595 33b9
00000370: 434d 3ab8 0fb9 bc38 d288 a335 9dad 87b8
00000380: ca3a 30b9 b679 2aba c058 5fba 1838 eeba
00000390: 5bb5 06bb 19f6 26bb 0000 0000 0000 0080
000003a0: 4f3e 903a 2b27 7b3a d92e 313a fd08 233a
000003b0: 7b11 fd39 ad13 1a39 fa8d 3b38 ef92 f537
000003c0: a990 a936 ac9b 9a36 b0ef b5b8 69a1 b9b8
000003d0: 42f5 d1b8 506d d4b8 9303 4fb9 27d9 b6b9
000003e0: 5353 d7b9 6938 09ba a718 a6ba 0000 0000
000003f0: 0000 0080 7bb5 e33a 5717 9c3a 5391 493a

u f4 [1, 1, 20, 20]
-0.017879091 0.025397684 -0.026331179 0.032436986 -0.047078602 0.04485693 -0.03340682 0.03922153
-0.032167744 0.033216394 -0.019941986 -0.00018104166 -0.004951641 0.010696925 -0.030228803 0.040192664
-0.036754925 0.022720952 -0.008419793 0.0005568452 -0.024258394 0.042569023 -0.042626005 0.08629521
-0.09988047 0.07662905 0.013893321 -0.12806727 0.13416363 -0.10941374 0.0020385236 0.08901512
-0.08862436 0.0834484 -0.019928839 -0.024698207 0.052489445 -0.04387077 0.02011619 -0.006170423
0.010394559 -0.053364873 0.05656381 -0.02093189 -0.0744835 0.07467199 -0.04961751 0.0156294
0.066653006 -0.021787442 0.036568776 -0.025146022 -0.012212627 -0.027368497 -0.02967395 0.05100086
-0.055210963 0.016957907 0.002429029 0.006480874 0.036583424 -0.12390718 0.17794555 -0.14929682
0.16847962 -0.11983284 0.10460138 -0.056147523 -0.074474156 0.03422974 -0.027854253 -0.08247586
0.1792004 -0.09736389 0.0906239 -0.03621768 0.021325 0.0049965302 0.01174315 -0.023932345
0.08353262 -0.23781893 0.2784366 -0.25562093 0.19053668 -0.188492 0.065970115 0.044638537
-0.058969747 0.15529272 -0.011271832 -0.08019335 0.12768124 -0.21258228 0.07213631 0.00778586
-0.06255344 0.024635565 -0.026577631 0.030945808 0.06944631 -0.1523324 0.18698472 -0.15526244
0.17925876 -0.13298038 0.13634959 -0.028130114 -0.12857352 0.02011321 -0.0012482922 -0.15894769
0.24160153 -0.100276515 0.09032062 -0.013569407 0.020043958 0.0042466745 0.03435574 -0.03998746
0.008938549 -0.02087349 -0.026171263 0.02013513 0.03265953 -0.16983476 0.12044421 -0.048823126
0.0034815352 0.14626776 0.0013375478 -0.0334237 0.06396206 -0.15177022 0.019124985 -0.0147119
-0.034720324 0.01502618 -0.048331052 0.04710723 -0.031792715 0.14783148 -0.20098653 0.15383403
-0.000485003 -0.09270789 0.20789474 -0.11329611 -0.02851154 -0.041958213 -0.06348233 -0.047717668
0.08357907 0.018721849 0.076494455 -0.050902892 0.12408788 -0.090286955 0.06799805 -0.049529564
-0.0823324 0.25986898 -0.37808442 0.27482218 -0.10227509 -0.09875988 0.09846027 -0.11924184
0.091755986 0.056434948 0.08399798 0.016457738 -0.06253251 -0.010208188 -0.062748164 -0.05404012
0.024493188 -0.047068156 0.013400045 0.03346751 -0.076822415 0.23011321 -0.2739538 0.1969105
-0.02193882 -0.06791364 0.18303159 -0.12424442 0.09633507 -0.21116182 0.05304629 -0.09643756
0.0014607408 0.13332546 0.010439791 -0.025954874 0.17543966 -0.12434445 0.027869891 -0.03354212
0.0065215006 0.0675811 -0.15188673 0.08049922 -0.045626275 0.020991772 -0.08873668 -0.008228545
0.09752885 -0.07131884 0.20089433 0.029768903 -0.12733728 0.09533472 -0.16544425 -0.0098537
-0.018878609 -0.039043903 0.06196495 0.017022707 -0.019227356 -0.015158586 0.092654966 -0.050948404
0.057203732 -0.012421442 0.0007010037 0.074430004 0.008409061 -0.20043623 0.1133771 -0.19009596
0.028518759 0.13395947 -0.007689261 0.032122016 0.09455574 -0.021849683 -0.042746957 -0.017296651
0.12719558 -0.24131215 0.21520591 -0.19909215 0.028328694 0.16329828 -0.3150983 0.19782077
-0.025922477 -0.06411627 0.21102437 0.00084927306 -0.049594913 0.04676292 -0.15531066 0.032594517
00000000: 2c77 92bc ce0e d03c 7cb4 d7bc a5dc 043d
00000010: 7ed5 40bd e6bb 373d 97d5 08bd c1a6 203d
00000020: 53c2 03bd ea0d 083d 605d a3bc 00d6 3db9
00000030: 6041 a2bb 2842 2f3c 65a2 f7bc 10a1 243d
00000040: 558c 16bd 4a21 ba3c 2cf3 09bc 40f9 113a
00000050: 8ab9 c6bc db5c 2e3d 9b98 2ebd 8bbb b03d
00000060: 228e ccbd b1ef 9c3d d0a0 633c 1124 03be
00000070: 3162 093e 5014 e0bd c098 053b 8f4d b63d
00000080: b080 b5bd ffe6 aa3d ce41 a3bc e553 cabc
00000090: 2cff 563d d6b1 33bd b5ca a43c 4231 cabb
000000a0: f14d 2a3c 2095 5abd 74af 673d 5b79 abbc
000000b0: ce8a 98bd a1ed 983d bb3b 4bbd 3a09 803c
000000c0: 5f81 883d 947b b2bc 24c9 153d 08ff cdbc
000000d0: 7817 48bc e633 e0bc c916 f3bc 47e6 503d
000000e0: e424 62bd 4feb 8a3c 5830 1f3b 835d d43b
000000f0: 80d8 153d 0cc3 fdbd 5c37 363e 44e1 18be
00000100: ec85 2c3e ec6a f5bd 4039 d63d f2fa 65bd
00000110: e885 98bd 7c34 0c3d 9a2e e4bc 1be9 a8bd
00000120: 4f80 373e b866 c7bd 0699 b93d fd58 14bd
00000130: c4b1 ae3c efb9 a33b 5766 403c c40d c4bc
00000140: 2613 ab3d ce86 73be 3e8f 8e3e bfe0 82be
00000150: 0c1c 433e 0c04 41be 571b 873d e6d6 363d
00000160: 438a 71bd 0e05 1f3e 7dad 38bc 693c a4bd
00000170: dfbe 023e 2baf 59be 34bc 933d 8720 ff3b
00000180: 051c 80bd 86d0 c93c 55b9 d9bc 1082 fd3c
00000190: de39 8e3d 06fd 1bbe ec78 3f3e 1efd 1ebe
000001a0: 9c8f 373e 022c 08be 3a9f 0b3e 2071 e6bc
000001b0: c7a8 03be 75c4 a43c bc9d a3ba 2fc3 22be
000001c0: 6466 773e c65d cdbd 04fa b83d 3852 5ebc
000001d0: 3a33 a43c b027 8b3b 9bb8 0c3d e4c9 23bd
000001e0: fe72 123c e2fe aabc 1e65 d6bc 6ef2 a43c
000001f0: 00c6 053d 2ae9 2dbe 74ab f63d c2fa 47bd
00000200: 782a 643b 37c7 153e a850 af3a 4ae7 08bd
00000210: 8afe 823d a769 1bbe 00ac 9c3c 2e0a 71bc
00000220: e636 0ebd 5e30 763c c8f6 45bd 83f3 403d
00000230: 1439 02bd 2361 173e 6acf 4dbe ab86 1d3e
00000240: 0048 feb9 a2dd bdbd 5ce2 543e ca07 e8bd
00000250: 0891 e9bc 60dc 2bbd 0603 82bd 9a73 43bd
00000260: 812b ab3d 905e 993c 20a9 9c3d 8d7f 50bd
00000270: c921 fe3d 5ee8 b8bd 9042 8b3d 83df 4abd
00000280: e49d a8bd 8c0d 853e 4894 c1be 7eb5 8c3e
00000290: 9a75 d1bd 9f42 cabd 8aa5 c93d 1135 f4bd
000002a0: 90ea bb3d 5528 673d 2207 ac3d 61d2 863c
000002b0: 0b11 80bd 3e40 27bc 1c82 80bd 2c59 5dbd
000002c0: f0a5 c83c 8aca 40bd dd8b 5b3c 3a15 093d
000002d0: 1255 9dbd cca2 6b3e ac43 8cbe e8a2 493e
000002e0: 0ab9 b3bc 4e16 8bbd a26c 3b3e dc73 febd
000002f0: 524b c53d ce3a 58be 1147 593d 0e81 c5bd
00000300: 5476 bf3a 7886 083e a80b 2b3c 519f d4bc
00000310: 74a6 333e 4ea8 febd 664f e43c 7663 09bd
00000320: 50b2 d53b f667 8a3d 3288 1bbe c6dc a43d
00000330: 9ee2 3abd f0f6 ab3c 94bb b5bd 05d1 06bc
00000340: 35bd c73d 9d0f 92bd 3eb7 4d3e eadd f33c
00000350: b464 02be da3e c33d 386a 29be 6a71 21bc
00000360: 50a7 9abc 80ec 1fbd f6ce 7d3d 3473 8b3c
00000370: b082 9dbc b85b 78bc e3c1 bd3d 46af 50bd
00000380: 764e 6a3d 4e83 4bbc 90c3 373a c26e 983d
00000390: 28c6 093c 283f 4dbe 4132 e83d 84a8 42be
000003a0: 2ca0 e93c ac2c 093e 32f6 fbbb 6092 033d
000003b0: 71a6 c13d 1bfe b2bc 6f17 2fbd b5b1 8dbc
000003c0: 8f3f 023e 881a 77be f05e 5c3e d0de 4bbe
000003d0: 9411 e83c aa37 273e 9054 a1be 8791 4a3e
000003e0: 605b d4bc 644f 83bd c616 583e c0a1 5e3a
000003f0: 0924 4bbd 7a8a 3f3d c209 1fbe d481 053d

exp_avg f4 [8, 1, 7, 7]
-0.047496248 -0.038793575 -0.041070253 0.034267396 -0.011657896 0.00737644 0.020390071 -0.061799068
-0.0796401 -0.04869831 0.007872434 -0.007645953 0.012341799 -0.00580649 -0.027681591 -0.036565807
-0.009816177 -0.030304264 -0.00645513 0.022336774 -0.014159748 -0.054468032 -0.032031983 -0.002065747
0.023639536 0.0030227075 0.026442047 -0.033779394 -0.009821541 0.0102877915 0.03189754 -0.0070398473
0.018707866 0.043892868 0.02007582 0.0063818838 0.036686216 0.053502496 0.006974715 0.03384806
0.015030963 0.028410133 0.006692749 0.03993341 0.015900958 0.02267447 0.028847523 -0.009844697
0.039207704 -0.026937434 -0.03465982 -0.0315974 -0.012576477 -0.017961126 -0.005069017 -0.0242072
0.008125186 -0.019639736 -3.616755e-05 0.01135805 0.024205392 0.007211379 -0.019107746 0.051918678
0.04245343 0.06828703 -0.010646274 0.025528649 0.025474781 -0.005577483 -0.013931708 0.0093685705
0.027509704 0.03303153 0.036743894 0.00799751 -0.038591642 -0.015937269 0.018127885 0.013364101
-0.026538638 0.014447076 -0.013495395 -0.027334196 -0.026508851 0.016434563 0.02886917 0.0068324963
0.014872173 -0.051065903 -0.030418571 -0.02863606 0.016868038 -0.0040101837 0.011106032 0.027159518
-0.04185925 -0.020951198 0.031647176 0.033433676 0.03228352 0.029735744 0.025959799 0.0077068848
0.028899092 0.048137404 0.03882444 0.0061641843 0.031878423 0.008715245 -0.0033267515 0.029521782
0.02798039 0.02229808 0.0005129471 0.038150378 -0.0017993358 -0.026409179 0.014587169 0.016413188
-0.012232406 -0.033741534 0.0037286251 -0.010406468 -0.024679001 0.00471851 0.00789519 0.00030392376
-0.03481387 0.0030647523 -0.028362188 -0.037681784 -0.027141538 -0.005815426 -0.02188325 -0.031818874
-0.005962238 -0.02579683 -0.028320143 -0.035175547 0.009107014 -0.0140741905 -0.01060412 -0.0028732042
-0.033008203 -0.021379564 -0.02436208 0.020020952 0.032413155 0.023091858 0.030492809 0.024916999
0.0057891174 0.014344258 0.025104316 0.021338915 0.003497976 0.026475519 0.010138275 -0.0003470821
0.022918567 0.028205689 0.023790324 0.0049274825 0.010895463 -0.0003520732 0.0064411582 0.022055311
-0.015041887 -0.025208998 -0.023076076 -0.000802645 -0.024464602 -0.01892722 -0.011363286 0.00011359136
-0.020681601 -0.026995786 -0.025473865 -0.01696907 -0.010811373 -0.013368493 0.0019268816 -0.027197795
-0.011244006 -0.029321518 -0.03958159 -0.0226139 -0.028068699 0.034790568 0.0087159965 0.013038173
-0.014519744 -0.0061899535 0.00013022865 -0.0029524723 0.045237817 0.013717132 0.024139488 0.009170661
0.026204716 0.043268707 0.009671211 0.0436922 0.025082596 0.018542036 0.0026030065 0.039573498
0.027585167 -0.008277865 0.05715119 0.07385901 0.025644487 -0.037323873 0.03344157 0.034744706
-0.008918753 0.00059532345 0.033135064 0.0068001593 -0.005052512 -0.011987878 -0.011463389 -0.045202672
-0.0014992193 0.032627847 -0.028234271 -0.069760315 -0.0018995068 -0.016557097 -0.014842758 -0.007207358
0.014287266 -0.00796832 -0.02452186 -0.033787522 -0.057399742 -0.04648858 -0.010328846 0.0011308176
-0.040719584 -0.01189774 -0.03543083 -0.056493085 -0.048642647 0.024308592 0.018466927 0.01177746
0.018565578 0.00017176072 0.009361299 -0.012108147 -0.013588199 -0.021388276 -0.017149307 -0.019197535
00000000: 6d8b 42bd 03e6 1ebd 4839 28bd f85b 0c3d
00000010: c300 3fbc 10b6 f13b 1409 a73c 0521 7dbd
00000020: 591a a3bd e177 47bd 62fb 003c e78a fabb
00000030: 4235 4a3c 5e44 bebb 81c4 e2bc 07c6 15bd
00000040: 08d4 20bc a640 f8bc 8e85 d3bb 9cfb b63c
00000050: 4afe 67bc df19 5fbd f833 03bd 7c61 07bb
00000060: b3a7 c13c 9e18 463b fe9c d83c 435c 0abd
00000070: 87ea 20bc 208e 283c ffa6 023d 85ae e6bb
00000080: 3d41 993c 02c9 333d 0c76 a43c 1f1f d13b
00000090: 4944 163d 6f25 5b3d 268c e43b 43a4 0a3d
000000a0: 6e44 763c 5ebc e83c d94e db3b 3791 233d
000000b0: ba42 823c cfbf b93c a451 ec3c a74b 21bc
000000c0: 4298 203d e5ab dcbc 75f7 0dbd 466c 01bd
000000d0: 910d 4ebc 3623 93bc ff19 a6bb 2e4e c6bc
000000e0: 801f 053c 83e3 a0bc 9cb2 17b8 1d17 3a3c
000000f0: 634a c63c 6e4d ec3b d987 9cbc aea8 543d
00000100: a6e3 2d3d 12da 8b3d b66d 2ebc 7521 d13c
00000110: 7db0 d03c 52c3 b6bb d241 64bc a27e 193c
00000120: 085c e13c 124c 073d c480 163d fd07 033c
00000130: 4512 1ebd e08e 82bc ee80 943c 1af5 5a3c
00000140: 8f67 d9bc 6eb3 6c3c ca1b 5dbc f7eb dfbc
00000150: 1729 d9bc c7a1 863c 0a7f ec3c 22e3 df3b
00000160: 6aaa 733c 7b2a 51bd 5e30 f9bc 2c96 eabc
00000170: d72e 8a3c dc67 83bb 13f6 353c a37d de3c
00000180: 9b74 2bbd d9a1 abbc 78a0 013d c0f1 083d
00000190: b93b 043d 6098 f33c a5a9 d43c 098a fc3b
000001a0: cabd ec3c ba2b 453d 6006 1f3d edfc c93b
000001b0: f392 023d 63ca 0e3c a105 5abb aad7 f13c
000001c0: 2137 e53c 77aa b63c 4c77 063a 9243 1c3d
000001d0: b1d7 ebba 1058 d8bc 05ff 6e3c f374 863c
000001e0: 6e6a 48bc 9034 0abd f35b 743b e47f 2abc
000001f0: 9e2b cabc bb9d 9a3b d45a 013c f557 9f39
00000200: fd98 0ebd 03da 483b d257 e8bc 3758 1abd
00000210: ee57 debc 548f bebb 8044 b3bc 8254 02bd
00000220: e15e c3bb e053 d3bc a5ff e7bc 3c14 10bd
00000230: 9635 153c 6f97 66bc e7bc 2dbc 5e4c 3cbb
00000240: 9c33 07bd 3224 afbc fc92 c7bc fb02 a43c
00000250: a8c3 043d 232b bd3c 0ecc f93c bc1e cc3c
00000260: a3b2 bd3b 2e04 6b3c 91a7 cd3c f3ce ae3c
00000270: 4d3e 653b 30e3 d83c 021b 263c 92f8 b5b9
00000280: b8bf bb3c 9e0f e73c ede3 c23c b876 a13b
00000290: e282 323c 7796 b8b9 5a10 d33b 57ad b43c
000002a0: 3f72 76bc 1a83 cebc 0a0a bdbc 9868 52ba
000002b0: fd69 c8bc 420d 9bbc 132d 3abc e637 ee38
000002c0: 766c a9bc 4426 ddbc 91ae d0bc b802 8bbc
000002d0: 2f22 31bc 8607 5bbc 6b8f fc3a e9cd debc
000002e0: c838 38bc ae33 f0bc 4e20 22bd c940 b9bc
000002f0: 54f0 e5bc 8e80 0e3d 8acd 0e3c 109e 553c
00000300: 38e4 6dbc 18d5 cabb fd8d 0839 447e 41bb
00000310: 4a4b 393d d2bd 603c 2dc0 c53c 8a40 163c
00000320: 46ab d63c 873a 313d 0074 1e3c 98f6 323d
00000330: 047a cd3c 78e5 973c 3497 2a3b d217 223d
00000340: 4afa e13c e29f 07bc 5e17 6a3d 6543 973d
00000350: 6314 d23c ebe0 18bd 07fa 083d 7750 0e3d
00000360: f61f 12bc 7b0f 1c3a a2b8 073d dfd3 de3b
00000370: 8b8f a5bb ce68 44bc f0d0 3bbc 7026 39bd
00000380: 7481 c4ba c7a4 053d 8f4b e7bc 7fde 8ebd
00000390: dff8 f8ba c0a2 87bc 0a2f 73bc b32b ecbb
000003a0: 2315 6a3c 8e8d 02bc 11e2 c8bc c964 0abd
000003b0: fe1b 6bbd cf6a 3ebd 523a 29bc f137 943a
000003c0: 94c9 26bd bdee 42bc eb1f 11bd 4b65 67bd
000003d0: 833d 47bd d022 c73c f447 973c 3ff6 403c
000003e0: d716 983c ab1a 3439 2260 193c 4061 46bc
000003f0: 0aa1 5ebc 7736 afbc b47c 8cbc 2644 9dbc

exp_avg_sq f4 [8, 1, 7, 7]
0.060508925 0.050713286 0.056011833 0.046429846 0.05419102 0.048493657 0.048554145 0.048706792
0.03740156 0.062098525 0.094816476 0.068970576 0.04640346 0.046122152 0.041043438 0.048078638
0.06684102 0.047768258 0.05661226 0.045120966 0.042389855 0.057410162 0.069161184 0.13048603
0.022461452 0.17778192 0.0458767 0.05178378 0.044451047 0.04378502 0.07582431 0.10263208
0.10989429 0.03631367 0.042924676 0.044579484 0.043352023 0.04708793 0.048921846 0.046925794
0.04131486 0.044739127 0.061753828 0.052078165 0.052985832 0.06739442 0.061402913 0.05982682
0.06792536 0.06759349 0.05782411 0.051755484 0.07038628 0.079694904 0.07231925 0.08706531
0.049336918 0.038758732 0.03108903 0.04462198 0.045715366 0.056874234 0.06492561 0.053354107
0.05064198 0.06433219 0.090815045 0.04857424 0.047408227 0.05301007 0.052954283 0.10862094
0.05872541 0.03352667 0.15933894 0.047450814 0.072488576 0.057134386 0.09377085 0.037072435
0.07108543 0.06893585 0.038962387 0.048681345 0.06290911 0.050531775 0.059616607 0.049651355
0.038042802 0.03780235 0.051414076 0.07055947 0.05933759 0.056353536 0.05515164 0.045279957
0.047940668 0.0575446 0.039796427 0.027721765 0.023533795 0.025314683 0.025906209 0.026598636
0.030384671 0.027911508 0.029601023 0.029219626 0.016336316 0.01633686 0.017294789 0.023674505
0.026441755 0.02645503 0.016982155 0.014425798 0.012932389 0.021304687 0.02378959 0.024639966
0.03034538 0.021768607 0.010624256 0.029429985 0.017685978 0.025600683 0.02046957 0.017564094
0.014867668 0.020837847 0.022254376 0.017670946 0.03245367 0.026330769 0.016452163 0.016275745
0.016428886 0.01984361 0.028184881 0.029893138 0.03249142 0.026256474 0.0219853 0.022463009
0.024962092 0.029855696 0.03771556 0.032085408 0.02386363 0.023046494 0.02157828 0.021660693
0.023313763 0.026844416 0.023269026 0.019399717 0.019589365 0.02275355 0.021171458 0.018186131
0.026228156 0.018708277 0.029850196 0.014763411 0.036232084 0.019307798 0.019445837 0.019829119
0.02245249 0.04502655 0.014577038 0.025477007 0.018690566 0.018843347 0.025695333 0.018459246
0.0153724905 0.015649758 0.014934676 0.030526511 0.0148706585 0.024228519 0.02115786 0.016377412
0.02089054 0.020318748 0.018102165 0.020059096 0.02731886 0.022401141 0.01721393 0.021321246
0.020611627 0.019289207 0.020442493 0.02453854 0.05354078 0.04210382 0.04134976 0.058816444
0.038830914 0.043337665 0.04744176 0.039442435 0.03813132 0.041909363 0.045667533 0.038001668
0.038702432 0.04519384 0.037624814 0.042448778 0.08309906 0.15627481 0.059534907 0.04479482
0.035313774 0.04329789 0.045477413 0.10172111 0.016397124 0.14818653 0.06383566 0.038560767
0.03954442 0.05417189 0.042275652 0.0852585 0.050905373 0.03874748 0.039414044 0.050189782
0.041024458 0.0891643 0.055490106 0.03328408 0.033481583 0.045235712 0.045003336 0.04100986
0.04259731 0.044659317 0.03621424 0.037955094 0.047502704 0.030172152 0.026305703 0.028842514
0.03592391 0.0318844 0.038342424 0.033931658 0.029049065 0.026604462 0.03439187 0.040377785
00000000: 35d8 773d bcb8 4f3d aa6c 653d 392d 3e3d
00000010: 67f7 5d3d 49a1 463d b6e0 463d c680 473d
00000020: 6132 193d 065b 7e3d 242f c23d 7240 8d3d
00000030: 8e11 3e3d 95ea 3c3d 2a1d 283d 1bee 443d
00000040: f2e3 883d a6a8 433d 42e2 673d c3d0 383d
00000050: fca0 2d3d eb26 6b3d 61a4 8d3d 219e 053e
00000060: 1401 b83c 770c 363e 35e9 3b3d 3b1b 543d
00000070: 4d12 363d ec57 333d c749 9b3d c530 d23d
00000080: 4210 e13d a5bd 143d c9d1 2f3d fa98 363d
00000090: e491 313d 46df 403d 4662 483d 4335 403d
000000a0: c539 293d 6040 373d 95f1 7c3d ea4f 553d
000000b0: ac07 593d 1606 8a3d 9f81 7b3d f80c 753d
000000c0: 731c 8b3d 756e 8a3d f9d8 6c3d 8ffd 533d
000000d0: af26 903d 1537 a33d 1d1c 943d 4c4f b23d
000000e0: 8215 4a3d 7ac1 1e3d 6cae fe3c 8ac5 363d
000000f0: 0940 3b3d f5f4 683d b8f7 843d d689 5a3d
00000100: f76d 4f3d 98c0 833d 3dfd b93d c8f5 463d
00000110: 212f 423d 1621 593d 97e6 583d a874 de3d
00000120: 0e8a 703d 4353 093d bf29 233e c95b 423d
00000130: e474 943d bf05 6a3d ee0a c03d 44d9 173d
00000140: 3d95 913d 3d2e 8d3d 0697 1f3d 1766 473d
00000150: 7ed6 803d 68fa 4e3d 8b30 743d 385f 4b3d
00000160: c5d2 1b3d a3d6 1a3d 9197 523d 7c81 903d
00000170: f90b 733d f7d2 663d b0e6 613d 7a77 393d
00000180: 6f5d 443d e3b3 6b3d 9401 233d c118 e33c
00000190: f2c9 c03c bd60 cf3c 4239 d43c 62e5 d93c
000001a0: 46e9 f83c ada6 e43c d87d f23c ff5d ef3c
000001b0: bdd3 853c e1d4 853c cdad 8d3c 09f1 c13c
000001c0: 619c d83c 38b8 d83c 291e 8b3c 2f5a 6c3c
000001d0: 5fe2 533c 2b87 ae3c 63e2 c23c c1d9 c93c
000001e0: e096 f83c 1454 b23c 5c11 2e3c 2717 f13c
000001f0: 2fe2 903c 86b8 d13c cdaf a73c 93e2 8f3c
00000200: 8597 733c 22b4 aa3c cf4e b63c a9c2 903c
00000210: 24ee 043d a0b3 d73c b0c6 863c b654 853c
00000220: df95 863c 118f a23c fbe3 e63c 74e2 f43c
00000230: b915 053d d117 d73c 841a b43c 5804 b83c
00000240: 4d7d cc3c ef93 f43c a27b 1a3d fd6b 033d
00000250: a97d c33c 00cc bc3c efc4 b03c c471 b13c
00000260: 81fc be3c d2e8 db3c af9e be3c 28ec 9e3c
00000270: e079 a03c a765 ba3c c46f ad3c 15fb 943c
00000280: 6edc d63c 1a42 993c 6688 f43c 3ce2 713c
00000290: 1868 143d 632b 9e3c e04c 9f3c ad70 a23c
000002a0: 49ee b73c c26d 383d 87d4 6e3c 28b5 d03c
000002b0: f51c 993c 5d5d 9a3c 057f d23c d837 973c
000002c0: e6dc 7b3c ec33 803c 92b0 743c bc12 fa3c
000002d0: 10a4 733c e37a c63c 4053 ad3c ec29 863c
000002e0: a322 ab3c 8173 a63c fe4a 943c f952 a43c
000002f0: cdcb df3c 9982 b73c 3a04 8d3c e5a9 ae3c
00000300: b7d9 a83c 6604 9e3c 0477 a73c 0c05 c93c
00000310: 944d 5b3d 0e75 2c3d 5e5e 293d 83e9 703d
00000320: 2a0d 1f3d d682 313d 4a52 423d 648e 213d
00000330: 962f 1c3d 27a9 2b3d e10d 3b3d a3a7 1b3d
00000340: 7186 1e3d 2d1d 393d 7a1c 1a3d c5de 2d3d
00000350: d72f aa3d 8106 203e e0da 733d c67a 373d
00000360: 2da5 103d 2159 313d 8646 3a3d 2853 d03d
00000370: 4353 863c 36be 173e 45bc 823d e5f1 1d3d
00000380: 54f9 213d 58e3 5d3d 3c29 2d3d 029c ae3d
00000390: 2782 503d adb5 1e3d 9f70 213d cd93 4d3d
000003a0: 4309 283d c69b b63d 9849 633d e354 083d
000003b0: fc23 093d 1549 393d 6b55 383d f4f9 273d
000003c0: 847a 2e3d b0ec 363d 6255 143d cd76 1b3d
000003d0: 3292 423d 972b f73c 0f7f d73c 2347 ec3c
000003e0: f324 133d 3799 023d f20c 1d3d ecfb 0a3d
000003f0: 4ef8 ed3c 9af1 d93c 7dde 0c3d 2d63 253d

exp_avg f4 [32, 8, 7, 7]
-6e-45 -6e-45 -6e-45 -6e-45 -6e-45 -6e-45 6e-45 -6e-45
-6e-45 -6e-45 -6e-45 -6e-45 -6e-45 -6e-45 -6e-45 -6e-45
-6e-45 -6e-45 -6e-45 -6e-45 -6e-45 -6e-45 -6e-45 -6e-45
-6e-45 -6e-45 -6e-45 -6e-45 -6e-45 -6e-45 -6e-45 -6e-45
6e-45 -6e-45 6e-45 -6e-45 -6e-45 6e-45 -6e-45 6e-45
-6e-45 6e-45 6e-45 6e-45 6e-45 -6e-45 6e-45 6e-45
6e-45 6e-45 6e-45 6e-45 -6e-45 6e-45 6e-45 6e-45
6e-45 6e-45 6e-45 -6e-45 6e-45 6e-45 6e-45 6e-45
6e-45 6e-45 -6e-45 6e-45 6e-45 6e-45 6e-45 -6e-45
-6e-45 6e-45 6e-45 6e-45 6e-45 6e-45 -6e-45 -6e-45
-6e-45 6e-45 6e-45 6e-45 -6e-45 -6e-45 -6e-45 -6e-45
-6e-45 6e-45 6e-45 6e-45 -6e-45 -6e-45 -6e-45 -6e-45
6e-45 6e-45 6e-45 6e-45 6e-45 6e-45 6e-45 6e-45
6e-45 6e-45 6e-45 6e-45 6e-45 6e-45 6e-45 6e-45
6e-45 6e-45 6e-45 6e-45 6e-45 6e-45 6e-45 6e-45
6e-45 6e-45 6e-45 6e-45 -6e-45 -6e-45 6e-45 -6e-45
-6e-45 -6e-45 -6e-45 -6e-45 -6e-45 -6e-45 -6e-45 -6e-45
-6e-45 -6e-45 -6e-45 -6e-45 -6e-45 -6e-45 -6e-45 -6e-45
-6e-45 -6e-45 -6e-45 6e-45 -6e-45 -6e-45 6e-45 6e-45
-6e-45 -6e-45 -6e-45 -6e-45 -6e-45 6e-45 6e-45 -6e-45
-6e-45 6e-45 -6e-45 6e-45 6e-45 6e-45 -6e-45 -6e-45
6e-45 6e-45 -6e-45 6e-45 -6e-45 -6e-45 -6e-45 -6e-45
-6e-45 6e-45 6e-45 -6e-45 -6e-45 6e-45 -6e-45 -6e-45
6e-45 6e-45 6e-45 -6e-45 -6e-45 6e-45 -6e-45 6e-45
6e-45 -6e-45 -6e-45 -6e-45 6e-45 -6e-45 6e-45 6e-45
6e-45 -6e-45 6e-45 -6e-45 -6e-45 -6e-45 6e-45 6e-45
6e-45 6e-45 6e-45 6e-45 6e-45 -6e-45 6e-45 6e-45
6e-45 6e-45 6e-45 6e-45 -6e-45 6e-45 6e-45 6e-45
-6e-45 6e-45 6e-45 -6e-45 6e-45 -6e-45 6e-45 -6e-45
-6e-45 -6e-45 -6e-45 6e-45 6e-45 6e-45 6e-45 -6e-45
-6e-45 6e-45 6e-45 6e-45 -6e-45 -6e-45 6e-45 6e-45
6e-45 -6e-45 6e-45 6e-45 -6e-45 -6e-45 -6e-45 -6e-45
00000000: 0400 0080 0400 0080 0400 0080 0400 0080
00000010: 0400 0080 0400 0080 0400 0000 0400 0080
00000020: 0400 0080 0400 0080 0400 0080 0400 0080
00000030: 0400 0080 0400 0080 0400 0080 0400 0080
00000040: 0400 0080 0400 0080 0400 0080 0400 0080
00000050: 0400 0080 0400 0080 0400 0080 0400 0080
00000060: 0400 0080 0400 0080 0400 0080 0400 0080
00000070: 0400 0080 0400 0080 0400 0080 0400 0080
00000080: 0400 0000 0400 0080 0400 0000 0400 0080
00000090: 0400 0080 0400 0000 0400 0080 0400 0000
000000a0: 0400 0080 0400 0000 0400 0000 0400 0000
000000b0: 0400 0000 0400 0080 0400 0000 0400 0000
000000c0: 0400 0000 0400 0000 0400 0000 0400 0000
000000d0: 0400 0080 0400 0000 0400 0000 0400 0000
000000e0: 0400 0000 0400 0000 0400 0000 0400 0080
000000f0: 0400 0000 0400 0000 0400 0000 0400 0000
00000100: 0400 0000 0400 0000 0400 0080 0400 0000
00000110: 0400 0000 0400 0000 0400 0000 0400 0080
00000120: 0400 0080 0400 0000 0400 0000 0400 0000
00000130: 0400 0000 0400 0000 0400 0080 0400 0080
00000140: 0400 0080 0400 0000 0400 0000 0400 0000
00000150: 0400 0080 0400 0080 0400 0080 0400 0080
00000160: 0400 0080 0400 0000 0400 0000 0400 0000
00000170: 0400 0080 0400 0080 0400 0080 0400 0080
00000180: 0400 0000 0400 0000 0400 0000 0400 0000
00000190: 0400 0000 0400 0000 0400 0000 0400 0000
000001a0: 0400 0000 0400 0000 0400 0000 0400 0000
000001b0: 0400 0000 0400 0000 0400 0000 0400 0000
000001c0: 0400 0000 0400 0000 0400 0000 0400 0000
000001d0: 0400 0000 0400 0000 0400 0000 0400 0000
000001e0: 0400 0000 0400 0000 0400 0000 0400 0000
000001f0: 0400 0080 0400 0080 0400 0000 0400 0080
00000200: 0400 0080 0400 0080 0400 0080 0400 0080
00000210: 0400 0080 0400 0080 0400 0080 0400 0080
00000220: 0400 0080 0400 0080 0400 0080 0400 0080
00000230: 0400 0080 0400 0080 0400 0080 0400 0080
00000240: 0400 0080 0400 0080 0400 0080 0400 0000
00000250: 0400 0080 0400 0080 0400 0000 0400 0000
00000260: 0400 0080 0400 0080 0400 0080 0400 0080
00000270: 0400 0080 0400 0000 0400 0000 0400 0080
00000280: 0400 0080 0400 0000 0400 0080 0400 0000
00000290: 0400 0000 0400 0000 0400 0080 0400 0080
000002a0: 0400 0000 0400 0000 0400 0080 0400 0000
000002b0: 0400 0080 0400 0080 0400 0080 0400 0080
000002c0: 0400 0080 0400 0000 0400 0000 0400 0080
000002d0: 0400 0080 0400 0000 0400 0080 0400 0080
000002e0: 0400 0000 0400 0000 0400 0000 0400 0080
000002f0: 0400 0080 0400 0000 0400 0080 0400 0000
00000300: 0400 0000 0400 0080 0400 0080 0400 0080
00000310: 0400 0000 0400 0080 0400 0000 0400 0000
00000320: 0400 0000 0400 0080 0400 0000 0400 0080
00000330: 0400 0080 0400 0080 0400 0000 0400 0000
00000340: 0400 0000 0400 0000 0400 0000 0400 0000
00000350: 0400 0000 0400 0080 0400 0000 0400 0000
00000360: 0400 0000 0400 0000 0400 0000 0400 0000
00000370: 0400 0080 0400 0000 0400 0000 0400 0000
00000380: 0400 0080 0400 0000 0400 0000 0400 0080
00000390: 0400 0000 0400 0080 0400 0000 0400 0080
000003a0: 0400 0080 0400 0080 0400 0080 0400 0000
000003b0: 0400 0000 0400 0000 0400 0000 0400 0080
000003c0: 0400 0080 0400 0000 0400 0000 0400 0000
000003d0: 0400 0080 0400 0080 0400 0000 0400 0000
000003e0: 0400 0000 0400 0080 0400 0000 0400 0000
000003f0: 0400 0080 0400 0080 0400 0080 0400 0080

exp_avg_sq f4 [32, 8, 7, 7]
8.540397e-13 6.691264e-13 1.0865202e-12 1.0435394e-12 7.417825e-13 6.3212223e-13 7.656058e-13 5.5176425e-13
6.733573e-13 5.882999e-13 1.4320923e-12 1.3129423e-12 1.0138342e-12 5.5417227e-13 5.883176e-13 6.784217e-13
4.9804995e-13 1.2679644e-12 1.0982393e-12 5.674296e-13 5.359807e-13 1.3510995e-12 7.219531e-13 2.8255807e-12
8.228856e-13 5.3577715e-13 8.221752e-13 8.5652736e-13 3.9315906e-13 8.1591103e-13 1.2523612e-12 1.1564663e-12
9.053894e-13 5.3916653e-13 6.702947e-13 6.528157e-13 9.625044e-13 8.194564e-13 1.3515249e-12 3.8995085e-13
2.367591e-13 3.0924113e-13 4.1665033e-13 9.247603e-13 4.0384842e-13 1.1625957e-12 2.0551228e-12 4.707689e-13
2.8823105e-13 1.581767e-12 1.5250201e-12 1.8651133e-12 1.597245e-12 8.8691505e-13 1.339879e-12 1.914312e-12
1.4493668e-12 2.0815372e-12 1.8949373e-12 3.497284e-12 1.6838767e-12 1.471388e-12 1.1145921e-12 1.90125e-12
1.3767131e-12 4.61033e-12 1.756598e-12 8.339303e-13 3.4089602e-12 8.201525e-13 1.7788836e-12 1.9709499e-12
2.002413e-12 1.0216796e-12 4.0533653e-12 1.845693e-12 7.28786e-13 1.4310513e-12 2.3277268e-12 8.7311885e-13
1.389814e-12 1.9710416e-12 5.72234e-13 1.0579724e-12 1.7154454e-12 1.6709192e-12 1.6454492e-12 2.6348181e-12
7.889393e-13 1.3192112e-12 8.024394e-13 9.702636e-13 1.932363e-12 7.1478457e-13 4.4302843e-12 9.439698e-13
8.2398324e-13 6.734736e-13 1.0437954e-12 1.1957826e-12 1.5275683e-12 1.7228164e-12 1.1764928e-12 1.8175175e-12
1.646094e-12 1.1963628e-12 1.7496381e-12 1.6045715e-12 1.4766431e-12 1.2026485e-12 1.1881252e-12 9.764706e-13
1.7198188e-12 1.3991853e-12 1.2152002e-12 1.1955171e-12 8.189583e-13 1.4330569e-12 1.0551178e-12 1.5920053e-12
1.6597901e-12 1.7906448e-12 2.0082356e-12 1.957356e-12 7.2998226e-13 2.0332043e-12 1.6127152e-12 1.5926923e-12
2.5123822e-12 1.2633691e-12 2.0933149e-12 1.783666e-12 8.4633873e-13 1.5322803e-12 1.1159708e-12 1.8300131e-12
1.0376085e-12 3.0932045e-12 1.2975759e-12 6.2210144e-13 6.6008576e-13 2.2535444e-12 8.968067e-13 1.3359088e-12
1.3732261e-12 1.3132461e-12 9.0780465e-13 1.0523898e-12 1.2841559e-12 8.7857483e-13 1.372776e-12 1.3703101e-12
9.393575e-13 9.867059e-13 1.1215173e-12 1.2474145e-12 2.141022e-12 1.2853971e-12 8.81695e-13 1.6541504e-12
9.240587e-13 1.1195271e-12 1.4076858e-12 3.2026447e-12 1.9072998e-12 1.8905684e-12 1.0147981e-12 1.4616642e-12
1.1816306e-12 5.005875e-12 1.4162266e-12 1.8148343e-12 2.1109093e-12 9.85293e-13 1.7683253e-12 2.296312e-12
1.7031713e-12 3.2730927e-12 1.0667658e-12 1.4563435e-12 2.3628916e-12 8.2094916e-13 3.0449102e-12 1.81538e-12
8.7795765e-13 1.3883377e-12 1.0813984e-12 6.0102623e-13 1.3633823e-12 1.8308128e-12 9.843144e-13 1.4441795e-12
6.75792e-13 1.786375e-12 1.1426683e-12 7.209232e-13 4.662518e-13 4.4386275e-13 1.1620776e-12 6.7766436e-13
5.4414193e-13 1.3662903e-12 7.589163e-13 4.7154587e-13 5.742659e-13 4.993865e-13 8.6833785e-13 1.2871312e-12
1.8336589e-12 1.2590473e-12 8.04345e-13 2.4703525e-12 1.869011e-12 1.913517e-12 7.8797055e-13 9.585387e-13
2.1438996e-12 1.6359984e-12 1.0514922e-12 6.877536e-13 2.2239777e-12 7.3911005e-13 1.2035481e-12 2.5871536e-12
6.4191035e-13 8.296132e-13 1.2416019e-12 1.3296014e-12 5.83638e-13 1.4738742e-12 1.8271198e-12 1.4459062e-12
1.1351199e-12 8.3564666e-13 2.274969e-12 7.4821334e-13 6.863899e-13 1.5614067e-12 5.0402624e-13 1.5917907e-12
4.2334853e-13 1.0247789e-12 6.576826e-13 1.1176815e-12 1.1271975e-12 1.130641e-12 1.3060462e-12 1.3066395e-12
1.5397858e-12 9.902503e-13 2.737269e-12 1.0521786e-12 1.6675346e-12 1.5134003e-12 2.0252467e-12 1.202942e-12
00000000: 0c64 702b a357 3c2b 04ea 982b 78dd 922b
00000010: 10cb 502b 35ed 312b b67f 572b ce4e 1b2b
00000020: 8288 3d2b 7a97 252b 908c c92b bbc7 b82b
00000030: 3aaf 8e2b 52fc 1b2b c098 252b 6ff5 3e2b
00000040: 4830 0c2b 3b73 b22b 3e90 9a2b 9db7 1f2b
00000050: 7bdd 162b 7d26 be2b 3436 4b2b 23d5 462c
00000060: 289f 672b d0ce 162b f76b 672b 4d17 712b
00000070: 3154 dd2a 96a8 652b 1141 b02b 17c2 a22b
00000080: 2fd8 7e2b 0bc3 172b d3ab 3c2b 54c0 372b
00000090: e075 872b 0ea8 662b d135 be2b d785 db2a
000000a0: 9548 852a 5816 ae2a a48d ea2a 0026 822b
000000b0: b158 e32a ed9e a32b cd9d 102c 7982 042b
000000c0: 7942 a22a 2a9d de2b a4a0 d62b e53e 032c
000000d0: d1ca e02b f7a4 792b 3b92 bc2b 2eb5 062c
000000e0: f1fa cb2b a479 122c 2858 052c 7819 762c
000000f0: 0dfc ec2b 5714 cf2b 6add 9c2b e0c9 052c
00000100: 51c1 c12b 2936 a22c 1d38 f72b 03bb 6a2b
00000110: 5ee2 6f2c 37da 662b 095b fa2b 7ab1 0a2c
00000120: 44e8 0c2c e3c9 8f2b 789d 8e2c 0de1 012c
00000130: 9122 4d2b 0f67 c92b 99cc 232c d8c2 752b
00000140: 5499 c32b 21b3 0a2c ce11 212b 79e5 942b
00000150: 6f6d f12b 3529 eb2b 8e93 e72b aa68 392c
00000160: 1111 5e2b 98a9 b92b dadd 612b 6e8d 882b
00000170: 5bfa 072c a831 492b 74e0 9b2c 19da 842b
00000180: 40ee 672b e390 3d2b b1e6 922b 9c4a a82b
00000190: 73fc d62b 0177 f22b 9f93 a52b f8ca ff2b
000001a0: c9aa e72b 835f a82b 5b3d f62b c8d2 e12b
000001b0: add1 cf2b fb41 a92b b936 a72b 106d 892b
000001c0: 010b f22b f7ea c42b 3406 ab2b 0b41 a82b
000001d0: 2a84 662b 51af c92b a07e 942b 090e e02b
000001e0: 3e98 e92b c702 fc2b 2851 0d2c 97bc 092c
000001f0: c478 4d2b f412 0f2c 30f8 e22b ca26 e02b
00000200: 0ecb 302c abcd b12b cf4d 132c 5707 fb2b
00000210: 2239 6e2b 37a6 d72b 160f 9d2b 96c6 002c
00000220: c907 922b 38aa 592c 199e b62b 221b 2f2b
00000230: 31cc 392b 3f94 1e2c bc6d 7c2b 3003 bc2b
00000240: af43 c12b add2 b82b 3886 7f2b 571c 942b
00000250: 98ba b42b fd4b 772b 7833 c12b a0da c02b
00000260: ec33 842b d4dd 8a2b ebd6 9d2b d88e af2b
00000270: 39a9 162c 50e7 b42b d22c 782b 0dcd e82b
00000280: b90c 822b 378f 9d2b 3a1d c62b b85d 612c
00000290: dc36 062c 7409 052c f4d1 8e2b 01b6 cd2b
000002a0: bb4c a62b ea20 b02c f150 c72b 4c6a ff2b
000002b0: c38a 142c ecaa 8a2b a2de f82b ae96 212c
000002c0: 37b3 ef2b cc52 662c 4a22 962b 4ef6 cc2b
000002d0: 1246 262c 9f13 672b 3a44 562c f57d ff2b
000002e0: 841f 772b 2364 c32b 7c31 982b 812c 292b
000002f0: 06e1 bf2b fed4 002c aa87 8a2b 0d40 cb2b
00000300: f237 3e2b f168 fb2b f7d0 a02b feeb 4a2b
00000310: fc3c 032b 5ddf f92a 428c a32b ddbe 3e2b
00000320: 8f29 192b cc49 c02b af9d 552b 76ba 042b
00000330: 38a4 212b 9790 0c2b 566a 742b ca25 b52b
00000340: 4308 012c f631 b12b 2a67 622b ead5 2d2c
00000350: 1c85 032c dca6 062c 43cb 5d2b ffe6 862b
00000360: 10dd 162c 0e3f e62b 00fc 932b df95 412b
00000370: 9f7f 1c2c 7e0a 502b 6462 a92b 040e 362c
00000380: 84ae 342b ee83 692b 6cbd ae2b f01f bb2b
00000390: 8d47 242b ea6d cf2b 7792 002c 437e cb2b
000003a0: 01c1 9f2b b036 6b2b 3316 202c 749a 522b
000003b0: 9b33 412b 9bbf db2b ebde 0d2b 4e06 e02b
000003c0: f452 ee2a 8d39 902b 071f 392b b84c 9d2b
000003d0: 92a3 9e2b a31f 9f2b 46cf b72b a6e4 b72b
000003e0: a1b4 d82b 875d 8b2b 419e 402c bb14 942b
000003f0: 44af ea2b fefd d42b 9a83 0e2c 8e4c a92b
