trained_models/Sigma_25_t_2/checkpoints/checkpoint_10.pth (torch, 173091 bytes, 10 tensors)

conv_layer.conv_layers.0.parametrizations.weight.original f4 [8, 1, 7, 7]
0	0x3db70f7b	0.089384995
1	0x3de78b43	0.11305859
2	0x3c3fd38b	0.011708151
3	0x3e829679	0.25505427
4	0xbd1f708c	-0.038925692
5	0x3cf11301	0.029428007
6	0xbd657d14	-0.056027487
7	0x3d47e21f	0.04879963
8	0x3df3c27d	0.1190233
9	0xbdccc822	-0.0999911
10	0x3e5ecee3	0.21758609
11	0x3db70f0e	0.08938418
12	0x3e342ab9	0.17594422
13	0xbc910c65	-0.017706105
14	0x3d0b78fc	0.034050927
15	0x3c7edc30	0.0155554265
16	0x3e7a2bdf	0.24430798
17	0x3e2f208c	0.1710226
18	0xbc5b28a0	-0.013376385
19	0x3d2757ad	0.0408551
20	0xbdd0ea23	-0.10200908
21	0xb9d6708a	-0.0004090111
22	0xbde3a30a	-0.111150816
23	0x3e196079	0.14978208
24	0xbf0eebdd	-0.5582865
25	0xbde8c34d	-0.11365376
26	0xbdb02d28	-0.08602363
27	0xbdbc5655	-0.09196154
28	0xba203560	-0.0006111469
29	0xbe2184c9	-0.1577331
30	0x3e1eefac	0.15521115
31	0xbe58b314	-0.21162063
32	0x3e12ff38	0.1435517
33	0x3dc1c0fe	0.094606385
34	0xbd245a6e	-0.040125303
35	0x3d91e230	0.0712322
36	0x3d765408	0.060138732
37	0x3d01180c	0.031517074
38	0x3dceafc3	0.10092118
39	0xbcdd21ad	-0.026993597
40	0xbba3de33	-0.0050008534
41	0x3ca7820b	0.020447752
42	0xbcc3c957	-0.023899717
43	0x3d297ae3	0.04137696
44	0x3db477fc	0.08811948
45	0xbd132df3	-0.035932492
46	0x3db04ed5	0.08608786
47	0xbb5d9ed5	-0.0033816595
48	0x3d889062	0.06668164
49	0xbd8ec7bf	-0.06971692
50	0xbda8383f	-0.08213853
51	0xbad18a6a	-0.0015986685
52	0xbe4a729d	-0.19770284
53	0x3e059a93	0.13047247
54	0x3da8688a	0.08223064
55	0x3d43c8cb	0.047798913
56	0x3d9cd3da	0.07657595
57	0xbc074005	-0.00825501
58	0x3e1d817b	0.15381424
59	0xbe1b199d	-0.1514649
60	0xbd641d36	-0.05569192
61	0xbe029a10	-0.12754083
62	0x3d127f54	0.03576596
63	0xbdcea3d3	-0.10089841
64	0xbcde7ee8	-0.027160123
65	0xbd9b3b55	-0.07579676
66	0x3e7a305e	0.24432513
67	0xbccdae48	-0.025107518
68	0xbdbbb7a7	-0.09165888
69	0xbd9e7a50	-0.07738173
70	0x3e4da5c0	0.2008276
71	0x3dc7a3a8	0.09748012
72	0x3e534273	0.20630817
73	0xbef81bbd	-0.48458663
74	0xbea1d007	-0.31604025
75	0xbe25478c	-0.16140574
76	0xbdc27224	-0.09494427
77	0x3d5daa41	0.054117445
78	0x3d9e6a57	0.077351265
79	0x3e8a38cd	0.2699646
80	0xbd2d9ed9	-0.042387817
81	0x3c5a8998	0.013338469
82	0x3da9dc94	0.08294025
83	0xbc7e289b	-0.015512611
84	0x3cb6be44	0.022307523
85	0xbd83513f	-0.06411981
86	0x3dc6bb23	0.09703662
87	0xbd1cfc13	-0.038326334
88	0x3cf432e8	0.02980943
89	0x3d24c007	0.040222194
90	0x3d6625fa	0.05618856
91	0xbd99cad9	-0.07509393
92	0xbbb16b0e	-0.0054143732
93	0x3dbae2ac	0.091252655
94	0xbdaf5039	-0.08560223
95	0xbc08e7d7	-0.008356056
96	0x3dacaaa3	0.08430984
97	0x3c8a29a6	0.016865563
98	0xbcdac55d	-0.026705438
99	0xbdfc99f5	-0.123340525
100	0xbe15b5ea	-0.14620176
101	0x3cacc757	0.021091146
102	0xbd61dc19	-0.055141542
103	0xbe33325b	-0.17499678
104	0xbd93bd5b	-0.07213851
105	0xbdd70677	-0.1049928
106	0xbdfd5121	-0.1236899
107	0xbdc94df7	-0.09829324
108	0xbe5d8096	-0.21631083
109	0xbe0bcf05	-0.1365319
110	0x3e0140be	0.12622353
111	0x3d07139a	0.032977678
112	0x3c868496	0.016420644
113	0xbd06be69	-0.032896433
114	0xbe0f7b6b	-0.14011924
115	0xbdc220a8	-0.09478885
116	0x3d782a3d	0.060587157
117	0xbe8bb155	-0.2728373
118	0xbdb53031	-0.088470824
119	0xbd485a3c	-0.04891418
120	0x3de2719f	0.11056828
121	0xbe494356	-0.19654593
122	0xbcebd65b	-0.028788736
123	0x3d8bc1d7	0.068240814
124	0xbe3d20ce	-0.18469545
125	0xbdaa4bd1	-0.08315242
126	0xbcfbc42d	-0.030733192
127	0xbe8093c6	-0.25112742
128	0x3e692b8b	0.22770517
129	0x3db3d3be	0.08780621
130	0x3e956e8f	0.29185912
131	0x3db4806d	0.08813558
132	0xbd9daec8	-0.076993525
133	0x3d791090	0.06080681
134	0x3c59f86d	0.013303858
135	0xbcce2299	-0.025162982
136	0xbe315280	-0.17316628
137	0xbd50b9c7	-0.05095842
138	0x3d724367	0.05914631
139	0xbc21b383	-0.009869459
140	0x3b6434f2	0.0034821597
141	0xbd90a75e	-0.07063173
142	0x3e3e524a	0.18586078
143	0xbe0d2782	-0.13784602
144	0x3b31604e	0.0027065459
145	0xbba66ae9	-0.0050786627
146	0xbda3a94b	-0.079912744
147	0x3d79eae0	0.06101501
148	0x3dd46401	0.10370637
149	0xbe218512	-0.15773419
150	0x3d14653b	0.036229353
151	0xbd866603	-0.06562426
152	0x3a87dd00	0.0010365546
153	0xbddb7123	-0.107149385
154	0x3d9ef11d	0.077608325
155	0xbd7512a9	-0.05983225
156	0x3d783485	0.06059696
157	0x3dca24f3	0.09870329
158	0x3d84fa4e	0.06493054
159	0xbd086e54	-0.033308342
160	0x3dd047aa	0.10169919
161	0xbd194d9b	-0.037427526
162	0xbcfbf904	-0.030758388
163	0xbe3c1c3c	-0.18370146
164	0x3da7652d	0.081735946
165	0xbd9298d3	-0.07158055
166	0xbdc9a0f2	-0.09845151
167	0x3ea25071	0.31701997
168	0xbc40efe1	-0.011775942
169	0xbe03c338	-0.12867439
170	0xbdfce077	-0.12347501
171	0xbdf113f4	-0.11771384
172	0x3e0d48b0	0.1379726
173	0xbd49ae60	-0.049238563
174	0xbe12671a	-0.14297143
175	0x3ccf2442	0.025285844
176	0xbda93da0	-0.08263707
177	0x3dfbb7a3	0.12290885
178	0x3eb3d329	0.3512204
179	0xbe39dc28	-0.18150389
180	0x3d40e3f6	0.0470924
181	0x3da41634	0.080120474
182	0xbc99ffbd	-0.018798703
183	0xbda0de47	-0.07854896
184	0x3deb4ef4	0.114896685
185	0x3dd4d1e9	0.103916
186	0x3d73db19	0.05953512
187	0xbd13f972	-0.03612656
188	0xbcb60979	-0.022221314
189	0xbd29a27d	-0.041414727
190	0xb9212c20	-0.00015370594
191	0x3c0bf20c	0.008541595
192	0x3e00719b	0.12543337
193	0x3da2dfb6	0.07952826
194	0xbd0b8c4b	-0.03406934
195	0xbc903224	-0.017602034
196	0xbd23c3f1	-0.039981786
197	0xbc9e8f68	-0.01935549
198	0x3ced811e	0.028992232
199	0x3d413614	0.047170714
200	0xbdbc6c01	-0.092002876
201	0xbc39d6c6	-0.01134271
202	0x3d6f6964	0.058450118
203	0x3c688ab2	0.014193224
204	0x3d368144	0.04455687
205	0xbdd63ec1	-0.10461188
206	0xbd9f8ebb	-0.077908956
207	0xbd6b650f	-0.057469424
208	0xbd9c944d	-0.07645474
209	0x3c1f68e7	0.0097296005
210	0x3db67daa	0.08910687
211	0x3e1e88f4	0.15481931
212	0xbe1f8b6b	-0.15580527
213	0xbe51e5d0	-0.20497823
214	0x3d6c4e2c	0.057691738
215	0x3e69e7b8	0.228423
216	0x3d95c727	0.07313376
217	0xbd472074	-0.048614934
218	0x3e31c83b	0.17361538
219	0xbe49bf5c	-0.19701904
220	0xbf06f1f3	-0.52712935
221	0x3e5804ba	0.21095553
222	0xbaf49aa8	-0.0018661814
223	0x3d3e78f5	0.046502072
224	0xbe4de179	-0.20105542
225	0x3d8aaae0	0.06770873
226	0x3e512cf9	0.20427312
227	0x3d96b630	0.07358968
228	0xbe4106c0	-0.18850231
229	0xbdb3747b	-0.08762451
230	0xbd65533e	-0.05598759
231	0x3dbc3b51	0.09191001
232	0x3cef938b	0.029245159
233	0x3df1997e	0.117968544
234	0x3da3104d	0.079620935
235	0xbce787fe	-0.028263088
236	0xbcddcd32	-0.027075384
237	0xbd16fe21	-0.03686345
238	0xbdd12dad	-0.1021379
239	0xbdcd5974	-0.100268275
240	0x3d368d38	0.04456827
241	0xbddee8c0	-0.10884237
242	0xbc2ccb7a	-0.0105465595
243	0xbcfe6aaa	-0.03105672
244	0x3bae9b2c	0.0053285565
245	0xbddb374d	-0.10703907
246	0xbde07a76	-0.109608576
247	0x3da02ca0	0.078210115
248	0xbd8f16bc	-0.06986758
249	0x3dea6176	0.114443704
250	0xbd65c700	-0.056097984
251	0xbd47b85a	-0.048759796
252	0xbd578820	-0.052620053
253	0xbde0570f	-0.10954105
254	0xbd9e6312	-0.0773374
255	0xbe38000f	-0.17968772

conv_layer.conv_layers.1.parametrizations.weight.original f4 [32, 8, 7, 7]
0	0x3c7dc1e9	0.015488126
1	0x3d69159a	0.056905366
2	0x3c82fb7c	0.015989058
3	0xbd5cd84c	-0.053917214
4	0xbd892acf	-0.06697618
5	0x3c7dfcdc	0.015502181
6	0x3d4e0bd4	0.05030425
7	0xbd0bfb78	-0.034175366
8	0xbcf0fa57	-0.029416246
9	0x3d2480a6	0.04016175
10	0x3c8a6eaf	0.016898481
11	0x3c0c358e	0.00855769
12	0x3c9f5cef	0.019453494
13	0xbd39694e	-0.045266442
14	0xbd8972b1	-0.06711329
15	0xbbb19d18	-0.0054203384
16	0xbc617e8f	-0.013763084
17	0x3d410328	0.04712215
18	0xbc8d8819	-0.01727681
19	0xbce71879	-0.028209912
20	0x3cc95b3e	0.02457964
21	0x3d621188	0.0551925
22	0x3d3633cc	0.04448299
23	0xbd323b84	-0.04351379
24	0xbd4cd1a4	-0.050004616
25	0x3bc1ecc0	0.0059181154
26	0xbd0f5a79	-0.03499839
27	0xbd618a38	-0.055063456
28	0xbb3b4ad6	-0.0028578541
29	0xbccc434a	-0.02493443
30	0xbd239fda	-0.03994737
31	0x3d91b522	0.071146265
32	0x3df09188	0.11746508
33	0x3cb5e368	0.022203162
34	0xbc841c8b	-0.016126892
35	0xbd36db79	-0.0446429
36	0x3ca52304	0.020158298
37	0x3d6b2e59	0.057417247
38	0x3cd08b68	0.0254571
39	0xbcbe5b4a	-0.02323689
40	0xbcdb14d5	-0.026743332
41	0x3c9b41e4	0.018952318
42	0xbcc0819c	-0.023499303
43	0x3d2027b8	0.03910038
44	0xbcb5d5bc	-0.022196643
45	0xbc6da553	-0.014504748
46	0xbb3872bd	-0.0028144561
47	0x3c8054c7	0.015665425
48	0xbcf979e7	-0.030453635
49	0x3ce1d9ad	0.027569616
50	0x3bb7c042	0.0056076357
51	0x3d2f813d	0.04284786
52	0x3cfb1449	0.030649321
53	0xbd3387cf	-0.04383069
54	0xbd08b93a	-0.03337977
55	0x3d6a3b3b	0.057185393
56	0x3d2df4c6	0.042469762
57	0xbd21bb3c	-0.0394852
58	0xbab46eaa	-0.0013765891
59	0xbd5787e9	-0.05261985
60	0xbd5a6215	-0.053316195
61	0x3d0ed3dd	0.034870017
62	0x3b0f9e4a	0.0021914416
63	0x39a2dbac	0.00031062716
64	0x3b0399af	0.0020080616
65	0x3d82cac8	0.06386334
66	0x3d0033f9	0.031299565
67	0xbd015142	-0.031571634
68	0x3c197663	0.0093666045
69	0xbc6a12bb	-0.014286692
70	0x3ca54b61	0.020177545
71	0xbd3ff791	-0.046866957
72	0xbc40cac5	-0.011767094
73	0xbd9f8ccf	-0.07790529
74	0xbd6efb51	-0.058345143
75	0x3a8358a1	0.001002092
76	0x3d3dca1b	0.04633532
77	0x3a0240a4	0.00049687386
78	0x3d017534	0.031605914
79	0x3d2df0f1	0.042466108
80	0x3dad5f7b	0.08465477
81	0xbbd86ad0	-0.00660453
82	0xbd2d076c	-0.042243406
83	0x3b893367	0.004187036
84	0xbc828bec	-0.01593586
85	0xbcf6b816	-0.030117076
86	0xbc8c06ad	-0.017093027
87	0x3b58d8e5	0.0033088264
88	0x3cfdc8bb	0.030979505
89	0xbce903cf	-0.028444199
90	0xbd3d982c	-0.0462877
91	0xbc6b4b95	-0.014361282
92	0xbd4e8f0a	-0.05042938
93	0xbc9d93e7	-0.019235564
94	0x3c1fc919	0.009752535
95	0xbc675b34	-0.014120866
96	0x3d5331f3	0.051561307
97	0x3d58fd56	0.052975975
98	0xbd4671c6	-0.048448347
99	0x3ce923aa	0.028459389
100	0x3bbbd1f8	0.0057318173
101	0x3bcddd20	0.0062824637
102	0xbd3ec33b	-0.046572905
103	0xbd194133	-0.037415694
104	0x3cda4367	0.026643468
105	0x3d5af2ad	0.05345409
106	0xbc80bc66	-0.015714835
107	0xbd23785a	-0.039909698
108	0xbd7e9a2c	-0.06215875
109	0xbcc6c3e9	-0.02426334
110	0x3c919427	0.01777084
111	0x3d3e3027	0.04643264
112	0x3aba91ab	0.0014234086
113	0xbb44157d	-0.0029920035
114	0xbcf52819	-0.029926347
115	0x3d853155	0.0650355
116	0x3d0f4e0b	0.034986537
117	0xbc91e505	-0.0178094
118	0xbc90d1cc	-0.017678164
119	0xbd1057e6	-0.035240076
120	0x3d6d323d	0.05790924
121	0xbd15810d	-0.036500026
122	0xbd310415	-0.043216784
123	0xbd60c9d6	-0.054879986
124	0x3d42cbdd	0.0475577
125	0xbcad4ec3	-0.02115572
126	0x3b5ebc2c	0.003398667
127	0xbd2185f1	-0.039434377
128	0xbcb233de	-0.021753248
129	0x3d82c2fd	0.06384847
130	0x3b8dbab8	0.004325237
131	0x3c5c2246	0.013435906
132	0x3d00a98e	0.0314117
133	0xbd585913	-0.052819323
134	0x3d188057	0.03723177
135	0x3d035130	0.03205985
136	0x3c385b91	0.0112523
137	0x3ca4c68c	0.020114206
138	0x3cadeb90	0.021230489
139	0xbbeebcf1	-0.007285707
140	0xbb8f02f5	-0.004364366
141	0x3bd4c91c	0.0064937007
142	0x3d23a18e	0.039948992
143	0xb86cb101	-5.6431632e-05
144	0xbd8f19f2	-0.069873706
145	0xbcae26a2	-0.021258656
146	0xbc5c0dbb	-0.013431008
147	0x3c3d05b4	0.011537004
148	0xbd433942	-0.047662027
149	0xba33045e	-0.0006828959
150	0x3c41a2d5	0.011818607
151	0x3c2a0815	0.0103779035
152	0x3c045130	0.008075997
153	0x3c84239a	0.016130257
154	0x3d03d95d	0.032189716
155	0x3d320223	0.04345907
156	0x3c9c69fe	0.01909351
157	0xbbdd86ea	-0.006760468
158	0xbba408ba	-0.005005923
159	0x3bec4787	0.007210675
160	0xbc756ce4	-0.014979575
161	0x3c8d18a8	0.017223671
162	0x3c06f526	0.008237159
163	0xbd33be70	-0.043882787
164	0x3c58a1ba	0.013222152
165	0x3c8e2641	0.017352225
166	0x3caa8b67	0.020818425
167	0x3d54ef41	0.051985983
168	0x3c0a1c1c	0.008429553
169	0x3da50fde	0.08059667
170	0x3cfa39c5	0.030545125
171	0xbd5584a6	-0.052128457
172	0xbd09ca4a	-0.033640184
173	0xbc52367f	-0.012830376
174	0xbcd4878c	-0.02594354
175	0xbb50a7f3	-0.0031838387
176	0xbd432724	-0.04764475
177	0xbd4fc5ce	-0.05072575
178	0xbd123dee	-0.035703592
179	0xbd19efeb	-0.03758232
180	0xbcb9ea29	-0.022694664
181	0x3d39cf7a	0.04536388
182	0x3d398720	0.04529488
183	0xbcb8442e	-0.022493448
184	0xbd0e6ced	-0.03477185
185	0x3d5c968a	0.053854503
186	0x3bf04160	0.007332012
187	0xbd0680b1	-0.032837573
188	0x3cb4b9b1	0.0220612
189	0xbcbefdd4	-0.023314394
190	0x3c536588	0.012902625
191	0x3d862920	0.06550813
192	0xbc54493d	-0.0129569145
193	0x380e0214	3.3857374e-05
194	0xbcdcad56	-0.026938122
195	0x3bda1042	0.00665477
196	0x3d051966	0.032494925
197	0x3d1b7d99	0.037961576
198	0x3d4c0510	0.049809515
199	0x3d80e596	0.0629379
200	0xbd353fe4	-0.044250384
201	0x3c472ddd	0.012156931
202	0xbd3fcf9b	-0.046828847
203	0xbd4a9f2f	-0.049468216
204	0xbd41cdb8	-0.04731533
205	0xbd78ef51	-0.060775105
206	0x3d28ff2c	0.041258976
207	0xbd0425a6	-0.032262467
208	0xbd5fad7d	-0.05460881
209	0xbc415321	-0.011799605
210	0xbc884219	-0.01663308
211	0xbc0d947e	-0.00864136
212	0xbcc10c6c	-0.023565494
213	0xbc308601	-0.0107741365
214	0x3c0fd711	0.008779303
215	0xbb8f9bea	-0.0043826
216	0x3d37a579	0.04483554
217	0x3d36c4c9	0.044621263
218	0x3d8ac5e4	0.06776026
219	0xbcd2a17b	-0.025711766
220	0xbdb3d890	-0.087815404
221	0x3d2d6012	0.042327948
222	0x3d100c97	0.035168257
223	0xbbaf33f2	-0.0053467685
224	0x3c35b429	0.011090317
225	0xbccba341	-0.024858119
226	0xbb692ca6	-0.003557959
227	0x3cc8f34a	0.024530072
228	0xbc67d7ff	-0.014150619
229	0x3d13d671	0.03609318
230	0xbd0b8fbd	-0.034072626
231	0xbcbab0fc	-0.02278947
232	0xb8b05d2d	-8.409689e-05
233	0xbd46ab11	-0.048502985
234	0xbc8ae68e	-0.01695564
235	0x3cb4e31a	0.022080947
236	0xbd159199	-0.036515806
237	0x3cf6878c	0.03009393
238	0xbcb8f91c	-0.022579722
239	0xbac8a6e7	-0.001530853
240	0x3cff06be	0.031131145
241	0x3cd61570	0.02613327
242	0xbcdf62f2	-0.02726886
243	0xbb31fcdb	-0.002715877
244	0xbcd3fc13	-0.025877034
245	0xbce7d1dd	-0.028298313
246	0xbd2555bb	-0.040364962
247	0xbc457e53	-0.012054044
248	0x3c991f63	0.018691724
249	0xbcaa9c58	-0.020826504
250	0x3ce92a6b	0.02846261
251	0x3bbb925f	0.005724236
252	0xbd534caa	-0.051586784
253	0xbc6b3c4e	-0.0143576395
254	0x3ce6bc18	0.028165862
255	0x3ba19af2	0.004931801

activation.coefficients_vect f4 [672]
0	0x80000000	-0.0
1	0x3ad70065	0.0016403316
2	0x3a511b37	0.00079767726
3	0x3a4a5c3e	0.00077194336
4	0x3a2b69e6	0.00065389124
5	0x3a14dabe	0.0005678347
6	0x39b5d71e	0.00034683285
7	0x39658ee7	0.00021892377
8	0x3920d371	0.00015337557
9	0x38dbd0e6	0.00010481644
10	0xb75ad422	-1.3043204e-05
11	0xb81bf0d5	-3.7179172e-05
12	0xb90bdd4e	-0.00013338515
13	0xb98f9ac1	-0.00027390386
14	0xb9b4c4ea	-0.00034478988
15	0xb9fc4b47	-0.00048121272
16	0xba2096ad	-0.0006125968
17	0xba22f560	-0.00062163733
18	0xbadbf20b	-0.0016780508
19	0xbb1ecd6b	-0.0024231325
20	0x00000000	0.0
21	0x80000000	-0.0
22	0x3aa02ec3	0.0012220967
23	0x3a14c293	0.0005674746
24	0x39bebd01	0.00036380443
25	0x395d75b7	0.00021120055
26	0x38b531fa	8.6400614e-05
27	0x389c2281	7.4450865e-05
28	0xb6a1f922	-4.827177e-06
29	0xb7ebd50f	-2.8113396e-05
30	0xb9d76751	-0.00041084972
31	0xb903f107	-0.00012582923
32	0x391e85fa	0.00015117964
33	0x384c5d7d	4.8724458e-05
34	0xb87fc889	-6.09835e-05
35	0xb9875d50	-0.0002581873
36	0xb9d31c19	-0.0004026599
37	0xba20df47	-0.00061367865
38	0xba21c7bf	-0.0006171427
39	0xba8a3f9a	-0.0010547519
40	0xbafa0642	-0.0019075351
41	0x00000000	0.0
42	0x80000000	-0.0
43	0x39ddfa66	0.00042338966
44	0x39959fdf	0.00028538608
45	0x393c5fd9	0.00017964783
46	0x382d3cab	4.1302916e-05
47	0xb8b802ed	-8.774349e-05
48	0xb8e52776	-0.00010926921
49	0xb90ad724	-0.00013240852
50	0xb92c8c3d	-0.00016455441
51	0xba8282a4	-0.0009957147
52	0xba3652df	-0.0006955098
53	0xb9d54faf	-0.00040685895
54	0xba032821	-0.0005003233
55	0xba0cc7d5	-0.00053703535
56	0xba34d506	-0.0006898198
57	0xba857a8d	-0.0010183618
58	0xba9cb5a5	-0.001195599
59	0xbaae71a9	-0.001330902
60	0xbac28fb5	-0.0014843853
61	0xbace1ee1	-0.0015725755
62	0x00000000	0.0
63	0x80000000	-0.0
64	0x3a983a06	0.0011613972
65	0x39b0d30e	0.00033726584
66	0x3918be6f	0.00014566792
67	0x3903239b	0.00012506398
68	0xb88e1297	-6.77455e-05
69	0xb9371671	-0.000174606
70	0xb9439df4	-0.00018655491
71	0xb9a08625	-0.00030617524
72	0xba085b0d	-0.0005201556
73	0xb66761a3	-3.4478514e-06
74	0x3a05b578	0.00051005883
75	0x3916881b	0.00014355818
76	0x38b9248c	8.828295e-05
77	0xb7d726cb	-2.5648062e-05
78	0xb902deb8	-0.00012480735
79	0xb9cf54d8	-0.0003954533
80	0xba0b6548	-0.0005317521
81	0xba2a550d	-0.0006497659
82	0xba98e6a6	-0.0011665418
83	0x00000000	0.0
84	0x80000000	-0.0
85	0x3a926824	0.0011169952
86	0x399e8aa2	0.00030239398
87	0x39208bce	0.0001531087
88	0x3908af4c	0.00013035274
89	0x38b17aeb	8.462913e-05
90	0x38112dd7	3.4613386e-05
91	0xb84e8c3a	-4.9244823e-05
92	0xba59e08d	-0.0008311354
93	0xba100a69	-0.00054947153
94	0xb8c5ae49	-9.426155e-05
95	0x39bd1a60	0.0003606854
96	0x3a28fd6b	0.00064464536
97	0x3936dc9a	0.00017439053
98	0x389c86da	7.463778e-05
99	0xba0c96b0	-0.00053630304
100	0xba3d3eb3	-0.0007219121
101	0xba53c0de	-0.00080777507
102	0xba8ec46f	-0.0010892282
103	0xbae2eb9e	-0.0017312651
104	0x00000000	0.0
105	0x80000000	-0.0
106	0x39e32a51	0.00043328342
107	0x39a64f5f	0.00031721123
108	0x391cfa7e	0.00014970635
109	0x38de4d96	0.000106002364
110	0x3866e562	5.5049903e-05
111	0x35134d58	5.487432e-07
112	0xb83d9034	-4.519541e-05
113	0xb86c3abe	-5.6321493e-05
114	0xbada8741	-0.0016672389
115	0xba93c61d	-0.0011274252
116	0xba167915	-0.00057400885
117	0xba2301d3	-0.00062182284
118	0xba26fee3	-0.00063703785
119	0xba56357a	-0.0008171421
120	0xba75dccb	-0.0009378909
121	0xba8c91ee	-0.0010724643
122	0xba9addea	-0.0011815403
123	0xbadc2d06	-0.0016798086
124	0xbb004f40	-0.0019578487
125	0x00000000	0.0
126	0x80000000	-0.0
127	0x39f766bc	0.00047188054
128	0x39a25f3d	0.00030970006
129	0x395f3653	0.00021287175
130	0x3816e927	3.5979927e-05
131	0x36683ac4	3.46049e-06
132	0xb703b6a3	-7.850732e-06
133	0xb712e2b8	-8.755065e-06
134	0xb84e8e98	-4.9247028e-05
135	0xba6b201e	-0.00089693244
136	0xb9b05ef3	-0.0003364008
137	0x396b98f3	0.00022468324
138	0x3a32ad61	0.00068159966
139	0x370922df	8.173955e-06
140	0xb79a76e6	-1.8413597e-05
141	0xb7de5a55	-2.6506526e-05
142	0xb8853b5e	-6.352992e-05
143	0xb92cc9f6	-0.00016478435
144	0xb9563dcb	-0.0002043165
145	0xb9b7f037	-0.00035083454
146	0x00000000	0.0
147	0x80000000	-0.0
148	0x39b0b891	0.0003370685
149	0x391a4c23	0.00014714948
150	0x38e67835	0.00010989645
151	0x389f4092	7.593738e-05
152	0x3874e4ae	5.8387108e-05
153	0x3811b70d	3.4741173e-05
154	0x36c65545	5.9107865e-06
155	0xb927fdc9	-0.00016020903
156	0xba390456	-0.0007057836
157	0xb9c3797c	-0.0003728381
158	0xb81d48fe	-3.7499696e-05
159	0xb8957bbc	-7.127921e-05
160	0xb8a30dd1	-7.775019e-05
161	0xb93e8ecb	-0.00018173007
162	0xb9450dfc	-0.00018792594
163	0xb9609238	-0.00021416775
164	0xb98c5021	-0.00026762582
165	0xb9cdb93b	-0.00039238654
166	0xb9ff5794	-0.0004870264
167	0x00000000	0.0
168	0x80000000	-0.0
169	0x3b143d57	0.002261957
170	0x3abc6b6e	0.0014375278
171	0x3a4fffce	0.0007934541
172	0x3a1b48f7	0.00059236534
173	0x39d9d39e	0.00041547132
174	0x38a261b0	7.742958e-05
175	0x38494968	4.79905e-05
176	0x3739be88	1.1071221e-05
177	0xb88f8a88	-6.844575e-05
178	0x394e89f9	0.0001969709
179	0x3a054b17	0.00050847366
180	0x39d22bfe	0.00040087098
181	0x3967472a	0.00022056387
182	0x39348076	0.00017213993
183	0x38009654	3.0657582e-05
184	0xb8fafbba	-0.00011967817
185	0xb990857e	-0.0002756528
186	0xb9b5f03e	-0.00034702005
187	0xb9df6bf4	-0.00042614306
188	0x00000000	0.0
189	0x80000000	-0.0
190	0x3aaaa85d	0.0013020147
191	0x3a827f07	0.000995607
192	0x3a4a725c	0.00077227294
193	0x395bb454	0.00020952645
194	0x395353bf	0.00020153726
195	0x391b53c0	0.00014813151
196	0x38c0df6b	9.196888e-05
197	0x38a10444	7.677873e-05
198	0x3807cc5c	3.2376833e-05
199	0x3728554a	1.0033438e-05
200	0xb7a71405	-1.9917274e-05
201	0xb826d5d3	-3.9776623e-05
202	0xb91fdce4	-0.0001524571
203	0xb92979eb	-0.00016162514
204	0xb92cae7f	-0.00016468203
205	0xb950cbe1	-0.00019912377
206	0xba0883a3	-0.00052076037
207	0xba3596dd	-0.00069270824
208	0xba9283ca	-0.0011178192
209	0x00000000	0.0
210	0x80000000	-0.0
211	0x3ab3ee96	0.001372772
212	0x3998eb76	0.0002916713
213	0x398011ba	0.0002442727
214	0x39771805	0.00023564704
215	0x397310b3	0.00023180507
216	0x3748c984	1.1967848e-05
217	0xb859dacf	-5.1940613e-05
218	0xb9028f73	-0.00012451205
219	0xb9894225	-0.00026179958
220	0x381609f3	3.5772053e-05
221	0x39b3ec1e	0.00034317462
222	0x398c41d3	0.00026751924
223	0x38f28c1d	0.00011565557
224	0x35aec7c9	1.3022155e-06
225	0xb945239a	-0.00018800647
226	0xb96ccc90	-0.0002258292
227	0xb9e7fdde	-0.000442489
228	0xba32b26b	-0.00068167475
229	0xba90051d	-0.0010987852
230	0x00000000	0.0
231	0x80000000	-0.0
232	0x3aa71217	0.001274648
233	0x39a2de00	0.0003106445
234	0x3970dd94	0.00022970728
235	0x3939125d	0.00017649816
236	0x39196400	0.0001462847
237	0x38fb1f43	0.000119744356
238	0x38df2f48	0.000106422754
239	0xba74ce2a	-0.0009338582
240	0xba20d9fe	-0.0006135999
241	0xb90fb6ba	-0.00013705614
242	0x39b171fe	0.00033845002
243	0x3a29b484	0.00064737373
244	0x398b2501	0.00026539716
245	0x39827f75	0.00024890495
246	0x3968230b	0.00022138299
247	0x36be456c	5.670523e-06
248	0xb90b4516	-0.0001328181
249	0xb997f33d	-0.0002898219
250	0xbaaaf5c1	-0.0013043211
251	0x00000000	0.0
252	0x80000000	-0.0
253	0x39a85941	0.00032109956
254	0x391ca7ae	0.00014939785
255	0x38a99a83	8.087328e-05

u f4 [1, 1, 20, 20]
0	0x3b5db422	0.0033829291
1	0x3c5750de	0.013141839
2	0xbd0788d2	-0.033089466
3	0xbbcf7698	-0.006331276
4	0xbbf2ecb8	-0.007413473
5	0x3d6b2310	0.057406485
6	0x3b3c249c	0.0028708344
7	0xbc224cb4	-0.009905983
8	0x3a439ec0	0.0007462315
9	0x3b898100	0.004196286
10	0xbb177e70	-0.0023116134
11	0xbcc9b2c0	-0.024621367
12	0xbc7ffb3e	-0.015623866
13	0xbc37e1f4	-0.011223305
14	0x3cc7f4a6	0.02440865
15	0x3c66cf0c	0.01408745
16	0x3c17a952	0.009256678
17	0x3a8f7de0	0.0010947548
18	0xbbc3d15c	-0.0059758853
19	0xbb1c4da0	-0.002384998
20	0x3bac1912	0.005252012
21	0x3d0d2222	0.03445638
22	0xbd6b3f67	-0.057433512
23	0xbb46d49c	-0.0030339127
24	0xbc84e790	-0.016223699
25	0x3d82e0e4	0.06390551
26	0xbab360c0	-0.001368545
27	0xbcaf52a8	-0.021401718
28	0xbb841776	-0.004031117
29	0x3ca2ec73	0.019888138
30	0x3c42690d	0.011865866
31	0xbcbb797a	-0.022885073
32	0xbcee822d	-0.029114807
33	0xbc182cfc	-0.009288069
34	0x3d060624	0.0327207
35	0x3abcef50	0.0014414582
36	0x3ae931c0	0.0017791316
37	0x3aed30b0	0.0018096175
38	0xbbd87ff2	-0.006607049
39	0xbb3fba08	-0.002925517
40	0x3caca36b	0.021074018
41	0x3cc4c016	0.024017375
42	0xbd6a8ec3	-0.057265054
43	0xbc9ac7b1	-0.018894048
44	0xbb360500	-0.0027773976
45	0x3d5df380	0.054187298
46	0xbcf4e549	-0.029894488
47	0xbcd08d3f	-0.025457976
48	0x3cad06c0	0.021121383
49	0x3d0f8326	0.035037182
50	0x3cc94ecd	0.024573708
51	0xbc1b0a3a	-0.009462887
52	0xbce6270f	-0.028094796
53	0xbc80d553	-0.01572672
54	0x3c936149	0.017990725
55	0xbcaa3638	-0.020777807
56	0xbad908e0	-0.0016558431
57	0x3cb4bed5	0.022063652
58	0xbbac0078	-0.0052490793
59	0xbb9ef86c	-0.0048513915
60	0x3bd43ed4	0.0064772163
61	0x3cb7ef33	0.022452926
62	0xbcd1672a	-0.025561888
63	0x3d02cfc2	0.031936415
64	0x3a0c2580	0.0005346164
65	0xbcb6d42c	-0.022317968
66	0xbd8cc938	-0.06874317
67	0xbc82c850	-0.015964657
68	0x3c5267bd	0.012842116
69	0xbcce5808	-0.025188461
70	0xbc09a5a5	-0.008401309
71	0x3d2cefb8	0.0422208
72	0x3d77ac53	0.060467076
73	0x3d05a80a	0.032630958
74	0xbc3775d2	-0.011197524
75	0xbd91c266	-0.07117157
76	0xbc881a95	-0.016614238
77	0x3d1837b6	0.037162505
78	0x3b5e4a70	0.003391888
79	0xbc14a665	-0.009072875
80	0x3c2af866	0.010435199
81	0xbba92ab8	-0.005162563
82	0xbd78066a	-0.060552992
83	0x3dc000ea	0.09375174
84	0x3dabff72	0.08398332
85	0xbd73fb57	-0.05956587
86	0xbe111c78	-0.14171016
87	0x3cd5ea76	0.026112776
88	0x3d9e5f5e	0.077330336
89	0xbd4c1e34	-0.04983349
90	0xbd5b51dc	-0.053544864
91	0x3d20db56	0.039271675
92	0x3d9449c0	0.07240629
93	0x3d3f484e	0.046699814
94	0xbb223240	-0.002474919
95	0xbdb2f9ae	-0.08739029
96	0xbccaa084	-0.024734743
97	0x3d260c44	0.04053904
98	0x3c08d632	0.008351849
99	0xbc0a1221	-0.008427174
100	0xbcdefb74	-0.027219512
101	0xbd1203a1	-0.035647992
102	0xbdd4b91c	-0.10386869
103	0x3e0dccdf	0.13847683
104	0x3e2b6e2a	0.16741243
105	0xbce56e02	-0.028006557
106	0xbe023583	-0.12715726
107	0x3d4e7622	0.05040563
108	0x3db3af86	0.08773713
109	0xbd819002	-0.063262954
110	0xbd827612	-0.063701764
111	0x3ce04fae	0.027381744
112	0x3ce40cc6	0.027838122
113	0x3a52bb80	0.0008038804
114	0x3b70f0d8	0.0036764648
115	0xbd5820ca	-0.052765645
116	0xbcb8d11c	-0.022560649
117	0x3cd4f487	0.025995506
118	0x3cd39307	0.025826944
119	0xbbee7cfc	-0.007278083
120	0xbd2f6eaa	-0.042830147
121	0xbd6a1dbd	-0.057157267
122	0xbe11c2a2	-0.14234403
123	0x3e30d764	0.17269665
124	0x3e605f9c	0.21911472
125	0xbd6077f0	-0.05480188
126	0xbe27b4f6	-0.16377625
127	0x3d87f897	0.066392116
128	0x3db29dad	0.087214805
129	0xbda98390	-0.08277047
130	0xbd212c7e	-0.03934907
131	0x3d18c14a	0.03729371
132	0xbcbebe85	-0.023284206
133	0xbd3232f0	-0.04350561
134	0x3d3b3fa4	0.04571499
135	0x3cbb405a	0.022857834
136	0xbc16d338	-0.009205632
137	0xbcd78f31	-0.026313396
138	0x3c6b7b3d	0.014372644
139	0xbb2ed270	-0.0026675723
140	0xbd163812	-0.036674567
141	0xbb276704	-0.002554358
142	0xbdfa338b	-0.12216862
143	0x3e07863e	0.13234803
144	0x3e2d3ab2	0.16916922
145	0xbd0f44e4	-0.03497781
146	0xbe08ab05	-0.13346489
147	0x3ce06d76	0.027395945
148	0x3caf8ff6	0.02143095
149	0xbdb1adc9	-0.08675725
150	0x3c6c360c	0.014417183
151	0x3ddde603	0.10834887
152	0xbc183646	-0.009290284
153	0xbdbdf93a	-0.09276052
154	0x3cdcc662	0.026950065
155	0x3d85e849	0.065384455
156	0xbac2f84c	-0.0014875024
157	0xbd72fbee	-0.05932229
158	0x3d14097f	0.03614187
159	0xbbca4636	-0.0061729206
160	0xbd4ebfae	-0.05047577
161	0x3d1598b9	0.0365226
162	0xbd485a69	-0.048914347
163	0x3db28660	0.08717036
164	0x3d26e3da	0.04074464
165	0xbd9caa57	-0.07649677
166	0xbd0a29b0	-0.033731163
167	0x3dbf34d8	0.09336251
168	0xbc9bfd14	-0.019041575
169	0xbe01b99a	-0.12668458
170	0x3cf499c2	0.029858474
171	0x3e0f2cf2	0.13981989
172	0x36265800	2.478715e-06
173	0xbdf2cb40	-0.11855173
174	0x3c918a20	0.017766058
175	0x3dc7bf7d	0.0975332
176	0xbb8ca7d2	-0.0042924667
177	0xbdcb3796	-0.099227116
178	0x3d4a4d3d	0.049390066
179	0x3a228980	0.00062002987
180	0xbcd4af0e	-0.025962379
181	0x3d8b74ee	0.06809412
182	0xbc0677ed	-0.0082073035
183	0x3c590596	0.013245961
184	0xbd2dd2c5	-0.042437334
185	0xbd23c538	-0.039983004
186	0x3cd3bc51	0.025846632
187	0x3db7bf5c	0.08972046
188	0xbcbc24ea	-0.02296682
189	0xbe0c6718	-0.13711202
190	0xbc661d90	-0.014045134
191	0x3e0f775a	0.14010373
192	0x3ce236ae	0.027613964
193	0xbe134306	-0.14381036
194	0xbc62092a	-0.01379613
195	0x3de0a4fd	0.10968969
196	0xbb8b4241	-0.0042498414
197	0xbdeb9955	-0.11503855
198	0x3d924824	0.07142666
199	0xbafeff62	-0.0019454772
200	0xbd49568a	-0.049154796
201	0x3dcd074a	0.10011156
202	0x3d45a7e8	0.04825583
203	0xbd555eba	-0.05209229
204	0xbe106738	-0.14101875
205	0xbca7e888	-0.020496622
206	0x3dc3823a	0.09546323
207	0x3db07988	0.0861693
208	0xbc1aec74	-0.009455789
209	0xbda5264e	-0.08063947
210	0xbd0e2edc	-0.034712657
211	0x3d8c28d2	0.06843723
212	0x3cef309c	0.029197983
213	0xbdb4da25	-0.0883067
214	0x3cf77b72	0.03021023
215	0x3e013269	0.12616886
216	0xbd03ab18	-0.03214559
217	0xbe187f44	-0.14892298
218	0x3dafba2a	0.0858043
219	0xbc3f5f0c	-0.011680376
220	0xbcd205cf	-0.025637535
221	0x3dc447c0	0.09583998
222	0x3d2ea66a	0.042639174
223	0xbdcc7460	-0.09983134
224	0xbe170319	-0.14747275
225	0x3c879b94	0.016553678
226	0x3d76c55c	0.06024681
227	0x3d1a95f2	0.037740655
228	0x3d3173df	0.043323394
229	0xbc85aec5	-0.016318688
230	0xbd2c23fe	-0.042026512
231	0x3d365b9a	0.04452095
232	0x3c3ed80f	0.011648192
233	0xbdce741f	-0.10080742
234	0x3d1ed217	0.038774576
235	0x3e092486	0.13392839
236	0xbd435946	-0.04769256
237	0xbe21956a	-0.15779653
238	0x3dd219cc	0.102588266
239	0xbbfed318	-0.007776629
240	0xbca2d74e	-0.019878056
241	0x3e103456	0.14082465
242	0x3d592632	0.05301494
243	0xbe1d2e2c	-0.15349644
244	0xbe1e01c2	-0.15430358
245	0x3da187a2	0.07887198
246	0x3d554e5a	0.052076675
247	0xbcf5e0b8	-0.03001438
248	0x3d8e5426	0.06949644
249	0x3d60ced8	0.05488476
250	0xbda5e1cc	-0.08099708
251	0xbd23d9d6	-0.040002666
252	0x3c47f15f	0.012203543
253	0xbd6c4e38	-0.057691783
254	0x3d37220e	0.04471021
255	0x3dd4a640	0.10383272

exp_avg f4 [8, 1, 7, 7]
0	0xbc2095bf	-0.009801327
1	0xbced1c39	-0.028944122
2	0x3d0120e2	0.0315255
3	0xbc302144	-0.010750119
4	0xbd18ad37	-0.037274566
5	0xbb960ab5	-0.004578913
6	0x3d2c36b8	0.04204437
7	0x3c5a2b52	0.013315992
8	0x3c2eb034	0.010662127
9	0x3ddb753c	0.1071572
10	0xbc4f24fc	-0.012643095
11	0xbdd45770	-0.1036824
12	0xbcb0c72d	-0.02157935
13	0x3d82ca5d	0.06386254
14	0xbd2f90ab	-0.042862576
15	0x3d02a264	0.03189315
16	0x3e02ebac	0.12785214
17	0xbdac748a	-0.084206656
18	0xbd86d0b0	-0.06582773
19	0x3d624801	0.05524445
20	0x3dacde56	0.08440845
21	0xbd7492b8	-0.059710234
22	0x3d73ac70	0.05949062
23	0x3dd41889	0.10356242
24	0x3d1936f5	0.037405927
25	0xbcfe00b8	-0.031006202
26	0x3daba538	0.08381122
27	0x3d023e33	0.0317976
28	0xbc6429a8	-0.013925947
29	0x3dc7668a	0.09736355
30	0x3d2d67ea	0.04233543
31	0xbe065b86	-0.13120851
32	0xbce2991a	-0.027660895
33	0x3d9da170	0.076968074
34	0xbc6fc355	-0.014633973
35	0xbc774c12	-0.01509382
36	0x3d5392f8	0.051653832
37	0xbd344e21	-0.044019822
38	0xbe33ec01	-0.17570497
39	0x3cfcfa23	0.030880993
40	0x3d87f62f	0.06638753
41	0xbbc6b55a	-0.0060640993
42	0xbc4e5477	-0.01259338
43	0x3b244a71	0.0025068785
44	0xbd983231	-0.07431448
45	0xbe0b6c75	-0.13615592
46	0xbccdd489	-0.025125759
47	0xbc80bd86	-0.015715372
48	0xbd40b34e	-0.047046
49	0x3cfeef40	0.031119943
50	0x3cfb8b4f	0.030706076
51	0x3d81f096	0.06344716
52	0x3c5b7859	0.013395392
53	0xbd1c548c	-0.038166568
54	0xbcbd7232	-0.023125742
55	0xbc8ad7f5	-0.01694868
56	0x3d5beae5	0.05369081
57	0x3d748ed4	0.059706524
58	0x3da21315	0.07913796
59	0x3c69ef5f	0.014278262
60	0xbd7795e1	-0.06044567
61	0xbd8f786d	-0.07005391
62	0xbd0a1cee	-0.033718996
63	0x3a8bde0f	0.0010671037
64	0x3d813370	0.06308639
65	0x3da6bced	0.081415035
66	0xbddf915d	-0.10916398
67	0xbd7f124f	-0.06227332
68	0xbb9b7e8a	-0.0047453092
69	0x3cb0bbc5	0.02157391
70	0xbc71d9a0	-0.0147613585
71	0x3d725bc6	0.059169553
72	0x3d05d011	0.03266913
73	0x3cad75f4	0.021174408
74	0xbcfde8f2	-0.030994866
75	0x3c42aa45	0.011881416
76	0xbc499f0f	-0.012305989
77	0x3d264c52	0.04060013
78	0x3de5ad2b	0.1121467
79	0x3cd3d52d	0.025858486
80	0xbdd8482d	-0.105606414
81	0xbcdb5857	-0.026775522
82	0xbc2a7e0d	-0.010406029
83	0xbd593bfb	-0.053035717
84	0x3d480ca4	0.04884018
85	0x3d722c79	0.059124444
86	0xbd5d9f9d	-0.054107297
87	0xbdffbddd	-0.124873854
88	0xba6b0e8c	-0.0008966706
89	0xbbdeeb13	-0.0068029254
90	0xbd6aa925	-0.057290215
91	0x3d995af3	0.0748805
92	0x3d68b7e4	0.056815997
93	0xbcb57604	-0.022151
94	0xbd6085cf	-0.05481511
95	0x3b8141c2	0.0039446065
96	0xbccb0285	-0.024781475
97	0xbd29ea6d	-0.04148333
98	0xbbd0a9df	-0.0063679065
99	0x3cd075fa	0.02544688
100	0xbb652719	-0.003496593
101	0xbc9701aa	-0.01843341
102	0x3ccde981	0.025135757
103	0x3cbcf279	0.023064839
104	0x3be11d9a	0.006869984
105	0xbc29e2d0	-0.010369018
106	0xbb49aa2c	-0.0030771596
107	0xbccdeec2	-0.025138263
108	0xbbb2ed72	-0.0054604346
109	0x3d4f72d7	0.05064663
110	0x3d0f792b	0.035027664
111	0xbb3493b3	-0.0027553856
112	0xbc39bf14	-0.0113370605
113	0xbc088bd4	-0.008334119
114	0xbd9f0312	-0.077642575
115	0xb892800b	-6.9856724e-05
116	0x3da07280	0.07834339
117	0x3d18099e	0.037118547
118	0x3ba21b3c	0.0049470942
119	0xbca5ccde	-0.02023929
120	0xbd141cd5	-0.03616031
121	0xbcbd6b31	-0.023122402
122	0xbd0baa9f	-0.034098264
123	0x3d8ddddb	0.06927081
124	0x3d1e084f	0.038582142
125	0x3b49ce0b	0.0030792977
126	0xbd02a62c	-0.031896755
127	0xbcd6f302	-0.026238922
128	0xbd892267	-0.06696015
129	0xbbb56a8d	-0.0055363835
130	0x3d40ba09	0.047052417
131	0x3c73f8eb	0.01489089
132	0xbc4cd6dc	-0.012502398
133	0xbccd1bf7	-0.025037749
134	0xbcf3edb2	-0.029776428
135	0xbd72d6cb	-0.059286874
136	0xbad03587	-0.0015885093
137	0x3d2f302f	0.04277056
138	0x3bc788ea	0.0060893195
139	0xbc84785d	-0.016170675
140	0x3c80d78c	0.01572778
141	0xbc08acdb	-0.008341993
142	0xbcbeec75	-0.02330611
143	0x3c54887b	0.012971993
144	0x3d4a0080	0.049316883
145	0x3cad53da	0.021158148
146	0xbc71ee22	-0.014766248
147	0x3d051868	0.03249398
148	0x3c9354a9	0.017984705
149	0x3c0b7445	0.008511608
150	0x3c922627	0.017840458
151	0x3b30d8bf	0.002698466
152	0x3c5dec75	0.013545145
153	0xbc219a8a	-0.009863505
154	0x3d7843a3	0.06061138
155	0x3ce250f0	0.027626485
156	0xbc6411b6	-0.013920238
157	0x3c6f79bb	0.014616425
158	0x3bc34eb4	0.00596031
159	0xbc14fa70	-0.009092912
160	0xbd08b348	-0.0333741
161	0x3d01de2d	0.031706024
162	0x3bd38fb9	0.006456342
163	0xbbe30a01	-0.006928683
164	0x3c83e19e	0.016098794
165	0x3cfef773	0.031123852
166	0xbb77d16b	-0.0037814032
167	0xbcbc9155	-0.023018518
168	0x3c5cd77d	0.013479111
169	0xbccfd1ee	-0.025368657
170	0xbab9fbc6	-0.0014189414
171	0x3de7f830	0.11326635
172	0xbc947b0d	-0.018125081
173	0xbd8b1a7a	-0.067921594
174	0xbd1abdbc	-0.0377786
175	0x3d34a229	0.04409996
176	0xbd0d20b2	-0.03445501
177	0xbd28143c	-0.041034922
178	0x3cd75939	0.026287662
179	0x3be00e3d	0.006837635
180	0xbd72aefa	-0.059248902
181	0xbcc3c168	-0.023895934
182	0x3c079b49	0.008276769
183	0xbd398a61	-0.045297984
184	0xbc384f65	-0.011249398
185	0x3d6887ad	0.056770016
186	0xbd1ed6c2	-0.038779028
187	0xbceedea6	-0.029158901
188	0x3c695082	0.014240386
189	0x3bcfe3d2	0.006344297
190	0xbc7e4517	-0.015519402
191	0x3b6be406	0.0035994067
192	0x3cf5e4ca	0.030016322
193	0xbced08f7	-0.028934939
194	0xbd249327	-0.040179398
195	0x3c00ae36	0.007854035
196	0x3c38a589	0.011269935
197	0x3c0d578c	0.00862683
198	0x3ce91d11	0.028456243
199	0xbd751246	-0.05983188
200	0xbcac165a	-0.021006752
201	0x3ca6716a	0.020317752
202	0x3d57a742	0.052649744
203	0x3cd5529d	0.02604037
204	0x3d677e06	0.05651667
205	0x3d7c98b0	0.06166905
206	0xbde55870	-0.11198509
207	0xbcea3ef9	-0.02859448
208	0x3d11a3d5	0.035556633
209	0x3d43b8bc	0.0477836
210	0xbabcbd4d	-0.0014399678
211	0x3d76f0f2	0.060288377
212	0x3c52e6ef	0.012872442
213	0xbdf35dae	-0.11883102
214	0x3c1d1adc	0.009588923
215	0x3d5d8c15	0.05408867
216	0x3c1c471d	0.009538439
217	0x3cd07b85	0.025449524
218	0x3ce908fe	0.02844667
219	0xba43ae6f	-0.00074646523
220	0xbba82db0	-0.0051323995
221	0x3c0acdf5	0.008471956
222	0x3c97b3da	0.018518377
223	0xbcb2ce5d	-0.021826917
224	0x3d8f54d4	0.069986016
225	0x3d1316f6	0.03591057
226	0xbde13828	-0.10997039
227	0xbde1779c	-0.11009142
228	0x3ddca0a5	0.10772828
229	0x3d4032e1	0.046923522
230	0xbb959c18	-0.004565727
231	0x3cc3a297	0.02388124
232	0xbd180a7b	-0.03711937
233	0xbdca3be4	-0.098747045
234	0xbda219f2	-0.07915105
235	0x3d6244a1	0.05524123
236	0x3cd39af6	0.025830727
237	0x3d106255	0.035250027
238	0x39d3a5bf	0.00040368547
239	0xbcda3350	-0.026635796
240	0xbdb31126	-0.08743505
241	0xbd75bfc5	-0.05999734
242	0x3cc20cb4	0.023687698
243	0xbcb41cc5	-0.021986375
244	0x3b866507	0.004101399
245	0xbcf7792e	-0.03020915
246	0xbc82a28a	-0.015946645
247	0xbc72b093	-0.014812606
248	0xbd7db93f	-0.061944243
249	0x3cf6a56c	0.030108176
250	0x3d412644	0.047155634
251	0x3d33c224	0.04388632
252	0x3c1b063a	0.009461934
253	0x3cc97646	0.02459253
254	0xbb66c38a	-0.0035211765
255	0xbd43856c	-0.047734663

exp_avg_sq f4 [8, 1, 7, 7]
0	0x3e0cc45d	0.13746782
1	0x3dfab5b2	0.12241687
2	0x3de19435	0.110145964
3	0x3dee2f98	0.116301715
4	0x3ddcd95d	0.10783646
5	0x3e1dd5b7	0.15413557
6	0x3e7f8b85	0.24955566
7	0x3e034a48	0.12821305
8	0x3d903b30	0.07042539
9	0x3e3be32a	0.18348375
10	0x3e1b8abd	0.15189643
11	0x3e67cf43	0.22637658
12	0x3e093e43	0.13402657
13	0x3dadb6b2	0.08482112
14	0x3dc317e9	0.09526045
15	0x3e34e341	0.17664815
16	0x3e01b41b	0.12666361
17	0x3e75de89	0.24010672
18	0x3e2d26da	0.16909352
19	0x3df1c098	0.118043125
20	0x3d9ad1b3	0.07559528
21	0x3dd69f4b	0.104796015
22	0x3e57fac1	0.21091749
23	0x3ee27a53	0.4423395
24	0x3e5c9409	0.21540846
25	0x3eedf41f	0.46475312
26	0x3e8df47a	0.27725583
27	0x3e1a6e36	0.15081105
28	0x3dc0aba4	0.09407738
29	0x3e244dbe	0.16045281
30	0x3e13104d	0.14361687
31	0x3e981a96	0.29707783
32	0x3e504923	0.203404
33	0x3e1a4939	0.15066995
34	0x3e55e87f	0.20889471
35	0x3d637e20	0.055540204
36	0x3dd2b322	0.10288073
37	0x3e241530	0.16023707
38	0x3e8ccd79	0.27500513
39	0x3e2cbde3	0.16869311
40	0x3e10cf39	0.14141549
41	0x3d88b3c5	0.06674913
42	0x3e0e4ecb	0.13897245
43	0x3dd063b0	0.10175264
44	0x3dc3bae7	0.09557133
45	0x3dd4477d	0.10365198
46	0x3dabdae1	0.08391357
47	0x3df88c82	0.12136175
48	0x3dbda058	0.09259099
49	0x3d5e340e	0.054248862
50	0x3d97153c	0.07377097
51	0x3da8d1f2	0.08243169
52	0x3d7dd3ac	0.061969444
53	0x3d81804b	0.06323298
54	0x3d6fd34f	0.05855113
55	0x3d9d48d4	0.076799065
56	0x3dc23941	0.094835766
57	0x3d3cd26b	0.046099108
58	0x3d730d5a	0.059338905
59	0x3db8384e	0.08995114
60	0x3debe510	0.115182996
61	0x3dc0b4e4	0.09409502
62	0x3d936f48	0.071989596
63	0x3d5a280d	0.05326085
64	0x3e1c9946	0.15292844
65	0x3e0dfa57	0.13865028
66	0x3e48cc5e	0.1960921
67	0x3e15a25e	0.1461272
68	0x3da73280	0.08163929
69	0x3d5357a3	0.05159725
70	0x3d9a2e14	0.0752832
71	0x3ddfb079	0.10922331
72	0x3e31e4bd	0.17372413
73	0x3dc809e0	0.097675085
74	0x3e894641	0.26811412
75	0x3e1db647	0.15401565
76	0x3da9c97a	0.08290382
77	0x3d7d38f9	0.06182191
78	0x3d943626	0.072368905
79	0x3d9b230d	0.07575045
80	0x3e15f493	0.14644079
81	0x3dc69167	0.09695702
82	0x3d5b8c28	0.05360046
83	0x3de54e07	0.11196523
84	0x3d5ead31	0.054364387
85	0x3d50b4e1	0.05095375
86	0x3d9c4869	0.07630999
87	0x3e102a82	0.14078715
88	0x3de5cfbc	0.11221263
89	0x3dee51ef	0.11636721
90	0x3d35ba52	0.044367142
91	0x3dbb976d	0.091597416
92	0x3da6d041	0.0814519
93	0x3d579cdc	0.052639827
94	0x3d641074	0.055679753
95	0x3d4a5346	0.049395822
96	0x3d8353fe	0.064125046
97	0x3d82935c	0.06375763
98	0x3cc93ff4	0.024566628
99	0x3c7acad8	0.015307151
100	0x3c9c7fa1	0.019103827
101	0x3c4e322b	0.012585203
102	0x3c9ac9d0	0.01889506
103	0x3c76d268	0.015064813
104	0x3c8f70d5	0.017509857
105	0x3cbc5316	0.022988837
106	0x3c9f1c21	0.019422593
107	0x3d0a236d	0.03372519
108	0x3c4f6288	0.012657769
109	0x3cae8cac	0.021307312
110	0x3cae1ba1	0.021253409
111	0x3d33eaa2	0.043924935
112	0x3cb91df6	0.022597294
113	0x3c89fe73	0.016844964
114	0x3d06959a	0.032857515
115	0x3c514b36	0.012774279
116	0x3d416c50	0.047222435
117	0x3cae0017	0.021240277
118	0x3caf8015	0.021423379
119	0x3d038d8f	0.032117423
120	0x3cd4f3f4	0.025995232
121	0x3d159b70	0.03652519
122	0x3c86239d	0.016374404
123	0x3d4ffef6	0.05078026
124	0x3cf3a132	0.02973995
125	0x3d483255	0.048876125
126	0x3c93e42c	0.018053137
127	0x3c8af58e	0.016962793
128	0x3d441eda	0.047880985
129	0x3d054bf5	0.03254314
130	0x3d0ddd33	0.03463478
131	0x3c5ae84d	0.013361049
132	0x3d2aaec1	0.041670565
133	0x3ca8ffdc	0.020629816
134	0x3cb448bc	0.022007339
135	0x3cefe8e8	0.029285863
136	0x3c61a70a	0.013772735
137	0x3cd2defc	0.025741093
138	0x3c9f516f	0.01944801
139	0x3d063f05	0.032774944
140	0x3c66300e	0.014049543
141	0x3c9a37ce	0.018825438
142	0x3c3d7902	0.011564495
143	0x3ce50c3a	0.027959932
144	0x3cc34aea	0.023839433
145	0x3cad073f	0.02112162
146	0x3cd6b5d3	0.026209747
147	0x3c9079dd	0.017636234
148	0x3c544db4	0.012957979
149	0x3cc815aa	0.024424393
150	0x3c8db5ad	0.017298544
151	0x3c4509ac	0.012026232
152	0x3c59ab69	0.013285496
153	0x3ca50cda	0.02014773
154	0x3c9780df	0.018494068
155	0x3c6bb1d7	0.014385662
156	0x3d018046	0.03161647
157	0x3cbe406b	0.023224076
158	0x3cf27424	0.029596396
159	0x3cee788e	0.02911022
160	0x3cae3bfd	0.021268839
161	0x3ca29a7b	0.019849053
162	0x3ca2fcdf	0.019895969
163	0x3cc83f80	0.024444342
164	0x3cef79b1	0.029232832
165	0x3ca17277	0.019707901
166	0x3c5a6751	0.013330297
167	0x3c61dc35	0.013785412
168	0x3c9e3670	0.019313067
169	0x3d35c4a0	0.04437697
170	0x3d16498d	0.036691237
171	0x3d949fcb	0.072570406
172	0x3d3d03af	0.04614609
173	0x3c6cbce6	0.014449334
174	0x3c50bba4	0.0127400495
175	0x3c782cce	0.015147401
176	0x3ca9565c	0.020671062
177	0x3cdfed51	0.027334841
178	0x3ccba925	0.024860928
179	0x3d09088d	0.03345542
180	0x3cad1fa1	0.021133246
181	0x3cb3307d	0.021873707
182	0x3c7a459b	0.015275384
183	0x3ca187db	0.019718101
184	0x3cdfb987	0.027310146
185	0x3d168b66	0.036754034
186	0x3c67387b	0.014112587
187	0x3c9d1b20	0.019177973
188	0x3cde33eb	0.027124366
189	0x3ce79d9f	0.028273402
190	0x3c6a7aba	0.014311487
191	0x3c9e1a63	0.019299692
192	0x3cccc1a3	0.024994677
193	0x3cb546bd	0.022128457
194	0x3cdf0558	0.027224228
195	0x3c25c025	0.010116612
196	0x3d3e5bb5	0.046474177
197	0x3d6b7422	0.0574838
198	0x3d7f5db6	0.06234523
199	0x3da8810e	0.0822774
200	0x3dd4a7d2	0.10383572
201	0x3d952706	0.07282834
202	0x3e0c71f0	0.13715339
203	0x3d4d622e	0.05014246
204	0x3dbbea5e	0.09175561
205	0x3dc01ed6	0.093808815
206	0x3e3a4cbb	0.18193333
207	0x3e07865f	0.13234852
208	0x3d8fd1ed	0.07022462
209	0x3d3bddef	0.04586595
210	0x3df0a0f8	0.11749452
211	0x3dd4fcb6	0.10399763
212	0x3e22fa1c	0.15915722
213	0x3e7ded5d	0.24797578
214	0x3d93bc67	0.07213669
215	0x3db9ca85	0.09071831
216	0x3d68e4d9	0.05685887
217	0x3daea657	0.085278206
218	0x3e218288	0.1577245
219	0x3e18caa4	0.14921051
220	0x3e1620c3	0.14660935
221	0x3e6aee3e	0.22942445
222	0x3e0399a3	0.12851577
223	0x3da91d8f	0.08257591
224	0x3d2d1e83	0.042265426
225	0x3e0ef9c6	0.13962469
226	0x3de70a4a	0.11281259
227	0x3e8666f5	0.26250425
228	0x3da74bd9	0.08168764
229	0x3dd26db3	0.1027483
230	0x3d5bfd8d	0.0537086
231	0x3d847b0c	0.06468782
232	0x3d8d38f8	0.068956316
233	0x3e09a267	0.13440858
234	0x3e24bdc1	0.1608801
235	0x3db3df74	0.08782855
236	0x3d78f290	0.0607782
237	0x3db1f609	0.086895056
238	0x3e264f70	0.1624124
239	0x3d847bf3	0.06468954
240	0x3d8daadf	0.06917357
241	0x3d8e52d1	0.0694939
242	0x3d3dc38c	0.046329066
243	0x3d46a5c6	0.048497938
244	0x3d810e62	0.063015714
245	0x3c8e35b2	0.017359588
246	0x3d03e7a6	0.03220334
247	0x3cd00f70	0.025397986
248	0x3d113cac	0.03545825
249	0x3d883264	0.06650236
250	0x3ddb8ee6	0.10720615
251	0x3daa0b41	0.08302928
252	0x3ce84427	0.02835281
253	0x3d396205	0.045259494
254	0x3d14a827	0.036293175
255	0x3d92f447	0.071754985

exp_avg f4 [32, 8, 7, 7]
0	0x00000004	6e-45
1	0x00000004	6e-45
2	0x80000004	-6e-45
3	0x80000004	-6e-45
4	0x80000004	-6e-45
5	0x00000004	6e-45
6	0x00000004	6e-45
7	0x80000004	-6e-45
8	0x80000004	-6e-45
9	0x00000004	6e-45
10	0x00000004	6e-45
11	0x80000004	-6e-45
12	0x00000004	6e-45
13	0x00000004	6e-45
14	0x00000004	6e-45
15	0x00000004	6e-45
16	0x00000004	6e-45
17	0x00000004	6e-45
18	0x80000004	-6e-45
19	0x80000004	-6e-45
20	0x80000004	-6e-45
21	0x00000004	6e-45
22	0x00000004	6e-45
23	0x80000004	-6e-45
24	0x80000004	-6e-45
25	0x80000004	-6e-45
26	0x80000004	-6e-45
27	0x80000004	-6e-45
28	0x80000004	-6e-45
29	0x80000004	-6e-45
30	0x80000004	-6e-45
31	0x80000004	-6e-45
32	0x00000004	6e-45
33	0x00000004	6e-45
34	0x00000004	6e-45
35	0x80000004	-6e-45
36	0x00000004	6e-45
37	0x00000004	6e-45
38	0x00000004	6e-45
39	0x00000004	6e-45
40	0x00000004	6e-45
41	0x00000004	6e-45
42	0x00000004	6e-45
43	0x80000004	-6e-45
44	0x80000004	-6e-45
45	0x00000004	6e-45
46	0x80000004	-6e-45
47	0x80000004	-6e-45
48	0x80000004	-6e-45
49	0x80000004	-6e-45
50	0x80000004	-6e-45
51	0x80000004	-6e-45
52	0x00000004	6e-45
53	0x80000004	-6e-45
54	0x80000004	-6e-45
55	0x80000004	-6e-45
56	0x00000004	6e-45
57	0x00000004	6e-45
58	0x80000004	-6e-45
59	0x00000004	6e-45
60	0x00000004	6e-45
61	0x80000004	-6e-45
62	0x80000004	-6e-45
63	0x80000004	-6e-45
64	0x00000004	6e-45
65	0x80000004	-6e-45
66	0x80000004	-6e-45
67	0x80000004	-6e-45
68	0x80000004	-6e-45
69	0x80000004	-6e-45
70	0x80000004	-6e-45
71	0x80000004	-6e-45
72	0x80000004	-6e-45
73	0x80000004	-6e-45
74	0x80000004	-6e-45
75	0x00000004	6e-45
76	0x00000004	6e-45
77	0x80000004	-6e-45
78	0x80000004	-6e-45
79	0x00000004	6e-45
80	0x00000004	6e-45
81	0x80000004	-6e-45
82	0x80000004	-6e-45
83	0x80000004	-6e-45
84	0x00000004	6e-45
85	0x00000004	6e-45
86	0x80000004	-6e-45
87	0x00000004	6e-45
88	0x00000004	6e-45
89	0x80000004	-6e-45
90	0x80000004	-6e-45
91	0x00000004	6e-45
92	0x00000004	6e-45
93	0x80000004	-6e-45
94	0x80000004	-6e-45
95	0x80000004	-6e-45
96	0x00000004	6e-45
97	0x80000004	-6e-45
98	0x00000004	6e-45
99	0x80000004	-6e-45
100	0x80000004	-6e-45
101	0x80000004	-6e-45
102	0x80000004	-6e-45
103	0x80000004	-6e-45
104	0x80000004	-6e-45
105	0x00000004	6e-45
106	0x00000004	6e-45
107	0x80000004	-6e-45
108	0x80000004	-6e-45
109	0x80000004	-6e-45
110	0x00000004	6e-45
111	0x00000004	6e-45
112	0x80000004	-6e-45
113	0x00000004	6e-45
114	0x00000004	6e-45
115	0x00000004	6e-45
116	0x00000004	6e-45
117	0x80000004	-6e-45
118	0x80000004	-6e-45
119	0x80000004	-6e-45
120	0x80000004	-6e-45
121	0x80000004	-6e-45
122	0x00000004	6e-45
123	0x00000004	6e-45
124	0x80000004	-6e-45
125	0x80000004	-6e-45
126	0x00000004	6e-45
127	0x80000004	-6e-45
128	0x80000004	-6e-45
129	0x80000004	-6e-45
130	0x80000004	-6e-45
131	0x00000004	6e-45
132	0x00000004	6e-45
133	0x00000004	6e-45
134	0x00000004	6e-45
135	0x00000004	6e-45
136	0x00000004	6e-45
137	0x00000004	6e-45
138	0x00000004	6e-45
139	0x80000004	-6e-45
140	0x80000004	-6e-45
141	0x00000004	6e-45
142	0x00000004	6e-45
143	0x80000004	-6e-45
144	0x80000004	-6e-45
145	0x00000004	6e-45
146	0x80000004	-6e-45
147	0x80000004	-6e-45
148	0x80000004	-6e-45
149	0x00000004	6e-45
150	0x00000004	6e-45
151	0x80000004	-6e-45
152	0x80000004	-6e-45
153	0x00000004	6e-45
154	0x80000004	-6e-45
155	0x80000004	-6e-45
156	0x80000004	-6e-45
157	0x00000004	6e-45
158	0x00000004	6e-45
159	0x80000004	-6e-45
160	0x80000004	-6e-45
161	0x00000004	6e-45
162	0x00000004	6e-45
163	0x80000004	-6e-45
164	0x80000004	-6e-45
165	0x00000004	6e-45
166	0x00000004	6e-45
167	0x80000004	-6e-45
168	0x80000004	-6e-45
169	0x00000004	6e-45
170	0x00000004	6e-45
171	0x80000004	-6e-45
172	0x80000004	-6e-45
173	0x00000004	6e-45
174	0x00000004	6e-45
175	0x80000004	-6e-45
176	0x80000004	-6e-45
177	0x00000004	6e-45
178	0x00000004	6e-45
179	0x80000004	-6e-45
180	0x80000004	-6e-45
181	0x00000004	6e-45
182	0x00000004	6e-45
183	0x80000004	-6e-45
184	0x80000004	-6e-45
185	0x00000004	6e-45
186	0x00000004	6e-45
187	0x80000004	-6e-45
188	0x00000004	6e-45
189	0x80000004	-6e-45
190	0x00000004	6e-45
191	0x80000004	-6e-45
192	0x80000004	-6e-45
193	0x00000004	6e-45
194	0x00000004	6e-45
195	0x80000004	-6e-45
196	0x80000004	-6e-45
197	0x00000004	6e-45
198	0x00000004	6e-45
199	0x00000004	6e-45
200	0x80000004	-6e-45
201	0x80000004	-6e-45
202	0x00000004	6e-45
203	0x80000004	-6e-45
204	0x80000004	-6e-45
205	0x80000004	-6e-45
206	0x00000004	6e-45
207	0x00000004	6e-45
208	0x80000004	-6e-45
209	0x00000004	6e-45
210	0x00000004	6e-45
211	0x80000004	-6e-45
212	0x80000004	-6e-45
213	0x00000004	6e-45
214	0x00000004	6e-45
215	0x00000004	6e-45
216	0x80000004	-6e-45
217	0x00000004	6e-45
218	0x00000004	6e-45
219	0x80000004	-6e-45
220	0x80000004	-6e-45
221	0x00000004	6e-45
222	0x00000004	6e-45
223	0x80000004	-6e-45
224	0x80000004	-6e-45
225	0x00000004	6e-45
226	0x00000004	6e-45
227	0x80000004	-6e-45
228	0x80000004	-6e-45
229	0x80000004	-6e-45
230	0x00000004	6e-45
231	0x80000004	-6e-45
232	0x80000004	-6e-45
233	0x00000004	6e-45
234	0x00000004	6e-45
235	0x80000004	-6e-45
236	0x80000004	-6e-45
237	0x00000004	6e-45
238	0x00000004	6e-45
239	0x80000004	-6e-45
240	0x80000004	-6e-45
241	0x00000004	6e-45
242	0x00000004	6e-45
243	0x80000004	-6e-45
244	0x80000004	-6e-45
245	0x00000004	6e-45
246	0x80000004	-6e-45
247	0x80000004	-6e-45
248	0x00000004	6e-45
249	0x80000004	-6e-45
250	0x80000004	-6e-45
251	0x00000004	6e-45
252	0x00000004	6e-45
253	0x00000004	6e-45
254	0x80000004	-6e-45
255	0x00000004	6e-45
