trained_models/Sigma_25_t_2/checkpoints/checkpoint_5.pth (torch, 173091 bytes, 10 tensors)

conv_layer.conv_layers.0.parametrizations.weight.original f4 [8, 1, 7, 7]
0.086539984 0.11314615 0.0072224797 0.24578127 -0.041251823 0.027276024 -0.056195084 0.051865637
0.12189304 -0.104047544 0.20996273 0.08725146 0.17981006 -0.017883273 0.033039555 0.013139113
0.23605372 0.16175133 -0.018669574 0.042132337 -0.09014016 -0.0041587474 -0.11135372 0.15095025
-0.5350521 -0.11073738 -0.083160706 -0.08826819 -0.00082155364 -0.15224987 0.15364973 -0.21070567
0.14196268 0.0940384 -0.041894697 0.0743686 0.059227236 0.03573867 0.100026265 -0.028424768
-0.0019566412 0.022092195 -0.025311379 0.048482455 0.087384894 -0.037446808 0.080904596 -0.00062216085
0.070812605 -0.066490665 -0.08760783 -0.0012580882 -0.19247621 0.12534377 0.08137292 0.047917604
0.076824345 -0.0057834084 0.15143165 -0.15007113 -0.05637338 -0.12615952 0.033213235 -0.09501112
-0.023555856 -0.075351365 0.24113746 -0.021412777 -0.08825795 -0.08168729 0.18667498 0.091815874
0.20550059 -0.45403436 -0.30294478 -0.15473631 -0.09131315 0.05075132 0.075792804 0.26059878
-0.049047034 0.011280916 0.08869628 -0.01881231 0.025312848 -0.058267023 0.09335581 -0.04597187
0.02239026 0.042918805 0.058584034 -0.07937038 -0.0034196957 0.0850265 -0.089461304 -0.012124119
0.0848309 0.015945273 -0.026273537 -0.11966281 -0.1342509 0.01910965 -0.050940063 -0.17354707
-0.065953374 -0.10977413 -0.12148493 -0.09079029 -0.20971762 -0.13065165 0.12892056 0.03125241
0.021139858 -0.04369959 -0.13766575 -0.08838287 0.06483759 -0.26431763 -0.07710776 -0.03930273
0.10778709 -0.19177203 -0.026111921 0.058184497 -0.1816892 -0.08368666 -0.042640883 -0.25149664
0.22386749 0.08105572 0.2815465 0.08449957 -0.08951284 0.06479647 0.016952181 -0.028606527
-0.18264759 -0.057861317 0.060208827 -0.009294061 -0.0029428054 -0.072505854 0.17021073 -0.13759673
0.004756011 -0.0017656763 -0.071672894 0.06397719 0.107527226 -0.15067504 0.02935447 -0.066672675
0.00408181 -0.10943947 0.07677847 -0.06422349 0.06854313 0.09365516 0.0619548 -0.03829848
0.10594521 -0.027285885 -0.029679447 -0.18002641 0.08135386 -0.069387905 -0.09646995 0.30181208
-0.0097769685 -0.11892366 -0.11574611 -0.10870362 0.13669328 -0.04410522 -0.13246685 0.01586131
-0.080875956 0.11811527 0.32850012 -0.18078887 0.048084177 0.08221746 -0.015823126 -0.07720539
0.10894207 0.09431949 0.061843205 -0.03262963 -0.02666792 -0.043188766 0.0016916535 -0.00094735547
0.12138519 0.08415822 -0.03191312 -0.019320209 -0.045090906 -0.028752182 0.031641647 0.05790276
-0.088008046 -0.011693761 0.058324218 0.016694358 0.04005418 -0.105514176 -0.07189415 -0.06014168
-0.0753689 0.013340977 0.09249403 0.14827311 -0.15347901 -0.19942464 0.050293725 0.22543512
0.071777284 -0.05141672 0.16584527 -0.19677864 -0.5035088 0.20670961 -0.01048769 0.04196758
-0.19600302 0.067212164 0.20039658 0.071322866 -0.18731846 -0.08991112 -0.052172255 0.09361359
0.031768665 0.11513844 0.08202172 -0.02510031 -0.021730805 -0.034742065 -0.10460359 -0.10467848
0.037818007 -0.1113255 -0.009295986 -0.028970424 0.0024758729 -0.106811896 -0.09942157 0.07737693
-0.06703833 0.11118559 -0.052895065 -0.05360796 -0.047579102 -0.10250882 -0.07348762 -0.1816123
00000000: e03b b13d 2bb9 e73d 8daa ec3b 16ae 7b3e
00000010: acf7 28bd f871 df3c d12c 66bd 1071 543d
00000020: 0fa3 f93d e116 d5bd 7800 573e e5b0 b23d
00000030: 2120 383e f17f 92bc 7c54 073d 6f45 573c
00000040: 11b8 713e 24a2 253e eff0 98bc f592 2c3d
00000050: 679b b8bd 1a46 88bb 6b0d e4bd b492 1a3e
00000060: 2df9 08bf 48ca e2bd 2950 aabd f4c5 b4bd
00000070: 885d 57ba 64e7 1bbe 5b56 1d3e 3ac3 57be
00000080: aa5e 113e 3497 c03d c699 2bbd 914e 983d
00000090: 4298 723d b662 123d 92da cc3d 0fdb e8bc
000000a0: fe3a 00bb b1fa b43c cf59 cfbc 8a95 463d
000000b0: daf6 b23d d361 19bd 4fb1 a53d 8218 23ba
000000c0: 3306 913d 422c 88bd bc6b b3bd 6fe6 a4ba
000000d0: 7c18 45be 1e5a 003e d8a6 a63d 4045 443d
000000e0: 1556 9d3d bf82 bdbb e610 1b3e 3fac 19be
000000f0: c6e7 66bd f62f 01be 9a0a 083d 3195 c2bd
00000100: 36f8 c0bc d151 9abd bdec 763e d969 afbc
00000110: 96c0 b4bd aa4b a7bd ba27 3f3e f609 bc3d
00000120: bf6e 523e 3177 e8be 941b 9bbe 3273 1ebe
00000130: 6402 bbbd 9ee0 4f3d 4239 9b3d 346d 853e
00000140: 8be5 48bd 97d3 383c 65a6 b53d 461c 9abc
00000150: e45c cf3c 67a9 6ebd 5531 bf3d 004d 3cbd
00000160: c76b b73c a1cb 2f3d d0f5 6f3d f08c a2bd
00000170: f91c 60bb 6022 ae3d 7d37 b7bd 3ea4 46bc
00000180: d3bb ad3d a99f 823c 9a3b d7bc c611 f5bd
00000190: 1179 09be d78b 9c3c 87a6 50bd 53b6 31be
000001a0: 9012 87bd 42d1 e0bd 17cd f8bd 42f0 b9bd
000001b0: 37c0 56be 8cc9 05be c003 043e 8702 003d
000001c0: 7f2d ad3c 57fe 32bd 40f8 0cbe 1402 b5bd
000001d0: 92c9 843d a454 87be acea 9dbd e6fb 20bd
000001e0: 7abf dc3d e35f 44be abe8 d5bc de52 6e3d
000001f0: bc0c 3abe e963 abbd 35a8 2ebd 2bc4 80be
00000200: 853d 653e 8b00 a63d dd26 903e 1c0e ad3d
00000210: 8252 b7bd 03b4 843d 4ddf 8a3c 3c58 eabc
00000220: f807 3bbe fdff 6cbd 889d 763d 1e46 18bc
00000230: 15dc 40bb f37d 94bd b94b 2e3e 28e6 0cbe
00000240: 50d8 9b3b 446e e7ba 3dc9 92bd 7906 833d
00000250: 3c37 dc3d 8f4a 1abe c978 f03c af8b 88bd
00000260: b4c0 853b cd21 e0bd 083e 9d3d 9b87 83bd
00000270: 5760 8c3d 47ce bf3d 51c4 7d3d dede 1cbd
00000280: cdf9 d83d a686 dfbc 5022 f3bc d858 38be
00000290: da9c a63d 3f1b 8ebd 0a92 c5bd 1d87 9a3e
000002a0: 942f 20bc 3f8e f3bd 4c0c edbd 01a0 debd
000002b0: 53f9 0b3e ada7 34bd 64a5 07be 94ef 813c
000002c0: 4ba2 a5bd 6be6 f13d 2b31 a83e b820 39be
000002d0: eaf3 443d a161 a83d 809f 81bc dc1d 9ebd
000002e0: 051d df3d 942a c13d 4d4f 7d3d a6a6 05bd
000002f0: af76 dabc b4e6 30bd 79ba dd3a f357 78ba
00000300: cc98 f83d 255b ac3d 55b7 02bd 6a45 9ebc
00000310: 3eb1 38bd b289 ebbc ac9a 013d 722b 6d3d
00000320: 903d b4bd 3097 3fbc 60e5 6e3d 9bc2 883c
00000330: da0f 243d d117 d8bd 3d3d 93bd 1f57 76bd
00000340: 035b 9abd 1d94 5a3c 836d bd3d e8d4 173e
00000350: 9a29 1dbe f935 4cbe cb00 4e3d 77d8 663e
00000360: f8ff 923d 579a 52bd 58d3 293e 5780 49be
00000370: f4e5 00bf afab 533e 8fd4 2bbc 32e6 2b3d
00000380: 04b5 48be 88a6 893d c334 4d3e b911 923d
00000390: 69d0 3fbe 5223 b8bd 93b2 55bd 7bb8 bf3d
000003a0: dc1f 023d b4cd eb3d 01fb a73d 2a9f cdbc
000003b0: cd04 b2bc b24d 0ebd 683a d6bd ac61 d6bd
000003c0: 0ee7 1a3d a0fe e3bd 314e 18bc 6253 edbc
000003d0: 4142 223b 32c0 dabd 899d cbbd cc77 9e3d
000003e0: 644b 89bd 45b5 e33d 7fa8 58bd 0594 5bbd
000003f0: 4ee2 42bd 25f0 d1bd ad80 96bd 93f8 39be

conv_layer.conv_layers.1.parametrizations.weight.original f4 [32, 8, 7, 7]
0.015488126 0.056905366 0.015989058 -0.053917214 -0.06697618 0.015502181 0.05030425 -0.034175366
-0.029416246 0.04016175 0.016898481 0.00855769 0.019453494 -0.045266442 -0.06711329 -0.0054203384
-0.013763084 0.04712215 -0.01727681 -0.028209912 0.02457964 0.0551925 0.04448299 -0.04351379
-0.050004616 0.0059181154 -0.03499839 -0.055063456 -0.0028578541 -0.02493443 -0.03994737 0.071146265
0.11746508 0.022203162 -0.016126892 -0.0446429 0.020158298 0.057417247 0.0254571 -0.02323689
-0.026743332 0.018952318 -0.023499303 0.03910038 -0.022196643 -0.014504748 -0.0028144561 0.015665425
-0.030453635 0.027569616 0.0056076357 0.04284786 0.030649321 -0.04383069 -0.03337977 0.057185393
0.042469762 -0.0394852 -0.0013765891 -0.05261985 -0.053316195 0.034870017 0.0021914416 0.00031062716
0.0020080616 0.06386334 0.031299565 -0.031571634 0.0093666045 -0.014286692 0.020177545 -0.046866957
-0.011767094 -0.07790529 -0.058345143 0.001002092 0.04633532 0.00049687386 0.031605914 0.042466108
0.08465477 -0.00660453 -0.042243406 0.004187036 -0.01593586 -0.030117076 -0.017093027 0.0033088264
0.030979505 -0.028444199 -0.0462877 -0.014361282 -0.05042938 -0.019235564 0.009752535 -0.014120866
0.051561307 0.052975975 -0.048448347 0.028459389 0.0057318173 0.0062824637 -0.046572905 -0.037415694
0.026643468 0.05345409 -0.015714835 -0.039909698 -0.06215875 -0.02426334 0.01777084 0.04643264
0.0014234086 -0.0029920035 -0.029926347 0.0650355 0.034986537 -0.0178094 -0.017678164 -0.035240076
0.05790924 -0.036500026 -0.043216784 -0.054879986 0.0475577 -0.02115572 0.003398667 -0.039434377
-0.021753248 0.06384847 0.004325237 0.013435906 0.0314117 -0.052819323 0.03723177 0.03205985
0.0112523 0.020114206 0.021230489 -0.007285707 -0.004364366 0.0064937007 0.039948992 -5.6431632e-05
-0.069873706 -0.021258656 -0.013431008 0.011537004 -0.047662027 -0.0006828959 0.011818607 0.0103779035
0.008075997 0.016130257 0.032189716 0.04345907 0.01909351 -0.006760468 -0.005005923 0.007210675
-0.014979575 0.017223671 0.008237159 -0.043882787 0.013222152 0.017352225 0.020818425 0.051985983
0.008429553 0.08059667 0.030545125 -0.052128457 -0.033640184 -0.012830376 -0.02594354 -0.0031838387
-0.04764475 -0.05072575 -0.035703592 -0.03758232 -0.022694664 0.04536388 0.04529488 -0.022493448
-0.03477185 0.053854503 0.007332012 -0.032837573 0.0220612 -0.023314394 0.012902625 0.06550813
-0.0129569145 3.3857374e-05 -0.026938122 0.00665477 0.032494925 0.037961576 0.049809515 0.0629379
-0.044250384 0.012156931 -0.046828847 -0.049468216 -0.04731533 -0.060775105 0.041258976 -0.032262467
-0.05460881 -0.011799605 -0.01663308 -0.00864136 -0.023565494 -0.0107741365 0.008779303 -0.0043826
0.04483554 0.044621263 0.06776026 -0.025711766 -0.087815404 0.042327948 0.035168257 -0.0053467685
0.011090317 -0.024858119 -0.003557959 0.024530072 -0.014150619 0.03609318 -0.034072626 -0.02278947
-8.409689e-05 -0.048502985 -0.01695564 0.022080947 -0.036515806 0.03009393 -0.022579722 -0.001530853
0.031131145 0.02613327 -0.02726886 -0.002715877 -0.025877034 -0.028298313 -0.040364962 -0.012054044
0.018691724 -0.020826504 0.02846261 0.005724236 -0.051586784 -0.0143576395 0.028165862 0.004931801
00000000: e9c1 7d3c 9a15 693d 7cfb 823c 4cd8 5cbd
00000010: cf2a 89bd dcfc 7d3c d40b 4e3d 78fb 0bbd
00000020: 57fa f0bc a680 243d af6e 8a3c 8e35 0c3c
00000030: ef5c 9f3c 4e69 39bd b172 89bd 189d b1bb
00000040: 8f7e 61bc 2803 413d 1988 8dbc 7918 e7bc
00000050: 3e5b c93c 8811 623d cc33 363d 843b 32bd
00000060: a4d1 4cbd c0ec c13b 795a 0fbd 388a 61bd
00000070: d64a 3bbb 4a43 ccbc da9f 23bd 22b5 913d
00000080: 8891 f03d 68e3 b53c 8b1c 84bc 79db 36bd
00000090: 0423 a53c 592e 6b3d 688b d03c 4a5b bebc
000000a0: d514 dbbc e441 9b3c 9c81 c0bc b827 203d
000000b0: bcd5 b5bc 53a5 6dbc bd72 38bb c754 803c
000000c0: e779 f9bc add9 e13c 42c0 b73b 3d81 2f3d
000000d0: 4914 fb3c cf87 33bd 3ab9 08bd 3b3b 6a3d
000000e0: c6f4 2d3d 3cbb 21bd aa6e b4ba e987 57bd
000000f0: 1562 5abd ddd3 0e3d 4a9e 0f3b acdb a239
00000100: af99 033b c8ca 823d f933 003d 4251 01bd
00000110: 6376 193c bb12 6abc 614b a53c 91f7 3fbd
00000120: c5ca 40bc cf8c 9fbd 51fb 6ebd a158 833a
00000130: 1bca 3d3d a440 023a 3475 013d f1f0 2d3d
00000140: 7b5f ad3d d06a d8bb 6c07 2dbd 6733 893b
00000150: ec8b 82bc 16b8 f6bc ad06 8cbc e5d8 583b
00000160: bbc8 fd3c cf03 e9bc 2c98 3dbd 954b 6bbc
00000170: 0a8f 4ebd e793 9dbc 19c9 1f3c 345b 67bc
00000180: f331 533d 56fd 583d c671 46bd aa23 e93c
00000190: f8d1 bb3b 20dd cd3b 3bc3 3ebd 3341 19bd
000001a0: 6743 da3c adf2 5a3d 66bc 80bc 5a78 23bd
000001b0: 2c9a 7ebd e9c3 c6bc 2794 913c 2730 3e3d
000001c0: ab91 ba3a 7d15 44bb 1928 f5bc 5531 853d
000001d0: 0b4e 0f3d 05e5 91bc ccd1 90bc e657 10bd
000001e0: 3d32 6d3d 0d81 15bd 1504 31bd d6c9 60bd
000001f0: ddcb 423d c34e adbc 2cbc 5e3b f185 21bd
00000200: de33 b2bc fdc2 823d b8ba 8d3b 4622 5c3c
00000210: 8ea9 003d 1359 58bd 5780 183d 3051 033d
00000220: 915b 383c 8cc6 a43c 90eb ad3c f1bc eebb
00000230: f502 8fbb 1cc9 d43b 8ea1 233d 01b1 6cb8
00000240: f219 8fbd a226 aebc bb0d 5cbc b405 3d3c
00000250: 4239 43bd 5e04 33ba d5a2 413c 1508 2a3c
00000260: 3051 043c 9a23 843c 5dd9 033d 2302 323d
00000270: fe69 9c3c ea86 ddbb ba08 a4bb 8747 ec3b
00000280: e46c 75bc a818 8d3c 26f5 063c 70be 33bd
00000290: baa1 583c 4126 8e3c 678b aa3c 41ef 543d
000002a0: 1c1c 0a3c de0f a53d c539 fa3c a684 55bd
000002b0: 4aca 09bd 7f36 52bc 8c87 d4bc f3a7 50bb
000002c0: 2427 43bd cec5 4fbd ee3d 12bd ebef 19bd
000002d0: 29ea b9bc 7acf 393d 2087 393d 2e44 b8bc
000002e0: ed6c 0ebd 8a96 5c3d 6041 f03b b180 06bd
000002f0: b1b9 b43c d4fd bebc 8865 533c 2029 863d
00000300: 3d49 54bc 1402 0e38 56ad dcbc 4210 da3b
00000310: 6619 053d 997d 1b3d 1005 4c3d 96e5 803d
00000320: e43f 35bd dd2d 473c 9bcf 3fbd 2f9f 4abd
00000330: b8cd 41bd 51ef 78bd 2cff 283d a625 04bd
00000340: 7dad 5fbd 2153 41bc 1942 88bc 7e94 0dbc
00000350: 6c0c c1bc 0186 30bc 11d7 0f3c ea9b 8fbb
00000360: 79a5 373d c9c4 363d e4c5 8a3d 7ba1 d2bc
00000370: 90d8 b3bd 1260 2d3d 970c 103d f233 afbb
00000380: 29b4 353c 41a3 cbbc a62c 69bb 4af3 c83c
00000390: ffd7 67bc 71d6 133d bd8f 0bbd fcb0 babc
000003a0: 2d5d b0b8 11ab 46bd 8ee6 8abc 1ae3 b43c
000003b0: 9991 15bd 8c87 f63c 1cf9 b8bc e7a6 c8ba
000003c0: be06 ff3c 7015 d63c f262 dfbc dbfc 31bb
000003d0: 13fc d3bc ddd1 e7bc bb55 25bd 537e 45bc
000003e0: 631f 993c 589c aabc 6b2a e93c 5f92 bb3b
000003f0: aa4c 53bd 4e3c 6bbc 18bc e63c f29a a13b

activation.coefficients_vect f4 [672]
-0.0 0.0016403316 0.00079767726 0.00077194336 0.00065389124 0.0005678347 0.00034683285 0.00021892377
0.00015337557 0.00010481644 -1.3043204e-05 -3.7179172e-05 -0.00013338515 -0.00027390386 -0.00034478988 -0.00048121272
-0.0006125968 -0.00062163733 -0.0016780508 -0.0024231325 0.0 -0.0 0.0012220967 0.0005674746
0.00036380443 0.00021120055 8.6400614e-05 7.4450865e-05 -4.827177e-06 -2.8113396e-05 -0.0004955249 -0.00014299309
0.00025083852 0.0001439012 -6.09835e-05 -0.0002581873 -0.0004026599 -0.00061367865 -0.0006171427 -0.0010547519
-0.0019075351 0.0 -0.0 0.00042338966 0.00028538608 0.00017964783 4.1302916e-05 -8.774349e-05
-0.00010926921 -0.00013240852 -0.00016455441 -0.0011278283 -0.0007060411 -0.000276837 -0.00038953897 -0.00053703535
-0.0006898198 -0.0010183618 -0.001195599 -0.001330902 -0.0014843853 -0.0015725755 0.0 -0.0
0.0011613972 0.00033726584 0.00014566792 0.00012506398 -6.77455e-05 -0.000174606 -0.00018655491 -0.00030617524
-0.0006962788 -6.261171e-06 0.00068454794 0.00014355818 8.828295e-05 -2.5648062e-05 -0.00012480735 -0.0003954533
-0.0005317521 -0.0006497659 -0.0011665418 0.0 -0.0 0.0011169952 0.00030239398 0.0001531087
0.00013035274 8.462913e-05 3.4613386e-05 -4.9244823e-05 -0.0010322102 -0.00062199635 -9.7799144e-05 0.00043008622
0.00085298525 0.00017439053 7.463778e-05 -0.00053630304 -0.0007219121 -0.00080777507 -0.0010892282 -0.0017312651
0.0 -0.0 0.00043328342 0.00031721123 0.00014970635 0.000106002364 5.5049903e-05 5.487432e-07
-4.519541e-05 -5.6321493e-05 -0.0018425842 -0.0011256709 -0.00041066494 -0.0004840234 -0.00063703785 -0.0008171421
-0.0009378909 -0.0010724643 -0.0011815403 -0.0016798086 -0.0019578487 0.0 -0.0 0.00047188054
0.00030970006 0.00021287175 3.5979927e-05 3.46049e-06 -7.850732e-06 -8.755065e-06 -4.9247028e-05 -0.0011858639
-0.0004113817 0.0003654061 0.0010514557 8.173955e-06 -1.8413597e-05 -2.6506526e-05 -6.352992e-05 -0.00016478435
-0.0002043165 -0.00035083454 0.0 -0.0 0.0003370685 0.00014714948 0.00010989645 7.593738e-05
5.8387108e-05 3.4741173e-05 5.9107865e-06 -0.00016020903 -0.0008869801 -0.00038012318 0.00012500254 8.995784e-05
3.265691e-05 -1.2191738e-05 -7.436204e-05 -0.0001076992 -0.00015540683 -0.00021814824 -0.00027504543 0.0
-0.0 0.002261957 0.0014375278 0.0007934541 0.00059236534 0.00041547132 7.742958e-05 4.79905e-05
-7.8360266e-05 -0.00019032054 0.00020827177 0.00060671085 0.00049818476 0.00022056387 0.00017213993 3.0657582e-05
-0.00011967817 -0.0002756528 -0.00034702005 -0.00042614306 0.0 -0.0 0.0013020147 0.000995607
0.00077227294 0.00020952645 0.00020153726 0.00014813151 9.196888e-05 7.677873e-05 3.2376833e-05 1.0033438e-05
-1.9917274e-05 -3.9776623e-05 -0.0001524571 -0.00016162514 -0.00016468203 -0.00019912377 -0.00052076037 -0.00069270824
-0.0011178192 0.0 -0.0 0.001372772 0.0002916713 0.0002442727 0.00023564704 0.00023180507
1.1967848e-05 -5.1940613e-05 -0.0002835198 -0.0004018341 6.669016e-05 0.00043955274 0.00026751924 0.00011565557
1.3022155e-06 -0.00018800647 -0.0002258292 -0.000442489 -0.00068167475 -0.0010987852 0.0 -0.0
0.001274648 0.0003106445 0.00022970728 0.00017649816 0.0001462847 0.000119744356 0.000106422754 -0.0012424978
-0.00076782785 -0.00013468879 0.0004978846 0.0009574455 0.00026539716 0.00024890495 0.00022138299 5.670523e-06
-0.0001328181 -0.0002898219 -0.0013043211 0.0 -0.0 0.00032109956 0.00014939785 8.087328e-05
00000000: 0000 0080 6500 d73a 371b 513a 3e5c 4a3a
00000010: e669 2b3a beda 143a 1ed7 b539 e78e 6539
00000020: 71d3 2039 e6d0 db38 22d4 5ab7 d5f0 1bb8
00000030: 4edd 0bb9 c19a 8fb9 eac4 b4b9 474b fcb9
00000040: ad96 20ba 60f5 22ba 0bf2 dbba 6bcd 1ebb
00000050: 0000 0000 0000 0080 c32e a03a 93c2 143a
00000060: 01bd be39 b775 5d39 fa31 b538 8122 9c38
00000070: 22f9 a1b6 0fd5 ebb7 1de6 01ba 6af0 15b9
00000080: fa82 8339 2fe4 1639 89c8 7fb8 505d 87b9
00000090: 191c d3b9 47df 20ba bfc7 21ba 9a3f 8aba
000000a0: 4206 faba 0000 0000 0000 0080 66fa dd39
000000b0: df9f 9539 d95f 3c39 ab3c 2d38 ed02 b8b8
000000c0: 7627 e5b8 24d7 0ab9 3d8c 2cb9 a3d3 93ba
000000d0: 9e15 39ba 6f24 91b9 093b ccb9 d5c7 0cba
000000e0: 06d5 34ba 8d7a 85ba a5b5 9cba a971 aeba
000000f0: b58f c2ba e11e ceba 0000 0000 0000 0080
00000100: 063a 983a 0ed3 b039 6fbe 1839 9b23 0339
00000110: 9712 8eb8 7116 37b9 f49d 43b9 2586 a0b9
00000120: 7b86 36ba 0d17 d2b6 3c73 333a 1b88 1639
00000130: 8c24 b938 cb26 d7b7 b8de 02b9 d854 cfb9
00000140: 4865 0bba 0d55 2aba a6e6 98ba 0000 0000
00000150: 0000 0080 2468 923a a28a 9e39 ce8b 2039
00000160: 4caf 0839 eb7a b138 d72d 1138 3a8c 4eb8
00000170: 3a4b 87ba 780d 23ba 8419 cdb8 327d e139
00000180: df9a 5f3a 9adc 3639 da86 9c38 b096 0cba
00000190: b33e 3dba dec0 53ba 6fc4 8eba 9eeb e2ba
000001a0: 0000 0000 0000 0080 512a e339 5f4f a639
000001b0: 7efa 1c39 964d de38 62e5 6638 584d 1335
000001c0: 3490 3db8 be3a 6cb8 de82 f1ba 3f8b 93ba
000001d0: 844e d7b9 85c4 fdb9 e3fe 26ba 7a35 56ba
000001e0: cbdc 75ba ee91 8cba eadd 9aba 062d dcba
000001f0: 404f 00bb 0000 0000 0000 0080 bc66 f739
00000200: 3d5f a239 5336 5f39 27e9 1638 c43a 6836
00000210: a3b6 03b7 b8e2 12b7 988e 4eb8 fd6e 9bba
00000220: b8ae d7b9 fa93 bf39 00d1 893a df22 0937
00000230: e676 9ab7 555a deb7 5e3b 85b8 f6c9 2cb9
00000240: cb3d 56b9 37f0 b7b9 0000 0000 0000 0080
00000250: 91b8 b039 234c 1a39 3578 e638 9240 9f38
00000260: aee4 7438 0db7 1138 4555 c636 c9fd 27b9
00000270: 3a84 68ba 454b c7b9 1d13 0339 bfa7 bc38
00000280: 17f9 0838 1e8b 4cb7 d1f2 9bb8 91dc e1b8
00000290: b4f4 22b9 b9be 64b9 f933 90b9 0000 0000
000002a0: 0000 0080 573d 143b 6e6b bc3a ceff 4f3a
000002b0: f748 1b3a 9ed3 d939 b061 a238 6849 4938
000002c0: 5955 a4b8 c890 47b9 8763 5a39 ad0b 1f3a
000002d0: 9d98 023a 2a47 6739 7680 3439 5496 0038
000002e0: bafb fab8 7e85 90b9 3ef0 b5b9 f46b dfb9
000002f0: 0000 0000 0000 0080 5da8 aa3a 077f 823a
00000300: 5c72 4a3a 54b4 5b39 bf53 5339 c053 1b39
00000310: 6bdf c038 4404 a138 5ccc 0738 4a55 2837
00000320: 0514 a7b7 d3d5 26b8 e4dc 1fb9 eb79 29b9
00000330: 7fae 2cb9 e1cb 50b9 a383 08ba dd96 35ba
00000340: ca83 92ba 0000 0000 0000 0080 96ee b33a
00000350: 76eb 9839 ba11 8039 0518 7739 b310 7339
00000360: 84c9 4837 cfda 59b8 62a5 94b9 43ad d2b9
00000370: 02dc 8b38 c573 e639 d341 8c39 1d8c f238
00000380: c9c7 ae35 9a23 45b9 90cc 6cb9 defd e7b9
00000390: 6bb2 32ba 1d05 90ba 0000 0000 0000 0080
000003a0: 1712 a73a 00de a239 94dd 7039 5d12 3939
000003b0: 0064 1939 431f fb38 482f df38 4fdb a2ba
000003c0: 0e48 49ba 3f3b 0db9 7884 023a 14fd 7a3a
000003d0: 0125 8b39 757f 8239 0b23 6839 6c45 be36
000003e0: 1645 0bb9 3df3 97b9 c1f5 aaba 0000 0000
000003f0: 0000 0080 4159 a839 aea7 1c39 839a a938

u f4 [1, 1, 20, 20]
0.005702406 0.009304375 0.013177645 0.022672854 -0.013143111 -0.039973073 -0.07700402 -0.06660216
-0.027284468 0.025550593 0.07040121 0.081632175 0.053440616 0.0026336238 -0.04075688 -0.053412154
-0.027537718 0.0069215447 0.010559525 0.008451206 -0.0042887363 0.022336723 0.0053159557 -0.0013527181
-0.020222887 -0.021153335 -0.0036313832 0.025554925 0.01175224 0.007704824 0.028391868 0.058823887
0.054870725 0.002417624 -0.045855425 -0.04192865 -0.016026214 -0.0018286165 0.0056886813 -0.0051991334
-0.0009136866 0.013979953 0.0075899633 0.025607545 0.036110118 0.023900606 -0.015966788 -0.07120903
-0.12918003 -0.119593576 -0.040932637 0.03474813 0.05589167 0.037664924 0.03459995 0.05028566
0.05025294 0.018162211 -0.010742221 -0.014636226 -0.050010666 -0.053791214 -0.045544706 0.016933417
0.083947524 0.1125211 0.09918194 0.08330336 0.06921193 0.05305558 -0.028102014 -0.15580297
-0.22519433 -0.16422231 -0.025613796 0.066127226 0.060139276 0.02784517 0.011118153 6.5920874e-05
-0.013942607 -0.024990767 -0.058323786 0.0030615148 0.048693128 0.08257751 0.0973387 0.118154615
0.14287493 0.110653564 -0.014679991 -0.14193179 -0.15351644 -0.053530365 0.037756264 0.043097243
-0.005018632 -0.042091943 -0.022381045 -0.0031942741 0.021004993 0.0042264527 0.026576988 -0.032364056
-0.15494719 -0.20951237 -0.20390311 -0.11507332 -0.0087511875 0.048784565 0.07255628 0.115986064
0.16030961 0.14844105 0.068478316 -0.014963092 -0.0322325 -0.0077276607 0.007860312 -0.006481811
0.0263661 0.11983822 0.1286844 -0.009217393 -0.14371108 -0.1445167 -0.08383065 -0.020996898
-0.021782815 -0.035890006 -0.0005533346 0.072252855 0.09991513 0.045207623 -0.034461126 -0.05088623
-0.02373163 0.0012165131 0.0010077637 0.0112686725 0.032189175 0.07407667 0.031015007 -0.01287811
0.024959734 0.12552235 0.15662539 0.08073634 -0.047244772 -0.107784756 -0.07107707 -0.019000717
-0.023944905 -0.053040817 -0.042569306 -0.013836394 0.0069673434 0.0018227324 -0.004689996 0.0024326737
-0.055250898 -0.112167835 -0.110926904 -0.017828314 0.105089426 0.116635144 0.027338833 -0.047028184
-0.060614176 -0.017882245 0.003882087 -0.017462447 -0.028798105 0.014539678 0.07273215 0.08061066
0.028884877 -0.0007511894 0.004345095 -0.009755179 -0.020415511 -0.05696991 -0.079094075 0.027782094
0.087945536 0.06116727 0.0133184595 0.040856093 0.099680625 0.095038235 -0.0028434042 -0.10631005
-0.12307705 -0.07117087 -0.039851293 -0.039267182 -0.03180708 -0.0074972194 0.010789606 0.015625313
0.033734173 0.016557828 0.01804452 0.0189232 -0.049540017 -0.046720196 0.012072025 0.07184099
0.07261183 0.022955809 -0.021576583 0.001711173 0.04838158 0.03429886 -0.033227816 -0.07716057
-0.044945642 0.008544545 0.028116537 2.7269823e-05 0.0054462967 0.01640623 0.06765422 -0.022884343
-0.14517266 -0.14713624 -0.116434366 -0.101689234 -0.09892311 -0.045348756 0.07381286 0.18353862
0.18746921 0.10195099 0.013939902 -0.0025709048 0.010979323 0.009683817 -0.002840517 0.00957479
0.022727791 0.061339296 0.05719633 0.0292082 0.028620249 0.056631386 0.034415744 -0.03073747
-0.07832551 -0.05375253 0.0020441138 0.019050607 -0.028875817 -0.077477604 -0.05011666 0.00014121318
00000000: 40db ba3b 6171 183c 0de7 573c 6cbc b93c
00000010: 3456 57bc ceba 23bd 49b4 9dbd b766 88bd
00000020: ad83 dfbc 7a4f d13c 822e 903d c52e a73d
00000030: 8ce4 5a3d e098 2c3b b0f0 26bd b4c6 5abd
00000040: c896 e1bc 20ce e23b dc01 2d3c ed76 0a3c
00000050: 8788 8cbb 81fb b63c 7831 ae3b b04d b1ba
00000060: 78aa a5bc c249 adbc 80fc 6dbb 9058 d13c
00000070: 788c 403c c078 fc3b 1096 e83c 51f1 703d
00000080: 20c0 603d 0071 1e3b e6d2 3bbd 60bd 2bbd
00000090: 6849 83bc 30ae efba 1e68 ba3b 7e5d aabb
000000a0: 7884 6fba 2c0c 653c 3ab5 f83b eac6 d13c
000000b0: 34e8 133d 34cb c33c c8cc 82bc 0ad6 91bd
000000c0: c547 04be 7aed f4bd fba8 27bd 0e54 0e3d
000000d0: aaee 643d 8946 1a3d adb8 0d3d 56f8 4d3d
000000e0: 07d6 4d3d ebc8 943c 2400 30bc c8cc 6fbc
000000f0: fcd7 4cbd 2d54 5cbd 168d 3abd f3b7 8a3c
00000100: aeec ab3d 7671 e63d e71f cb3d f49a aa3d
00000110: fcbe 8d3d cf50 593d 3236 e6bc d08a 1fbe
00000120: 5899 66be e529 28be 06d4 d1bc b66d 873d
00000130: 9a54 763d 8e1b e43c ea28 363c 003f 8a38
00000140: 886f 64bc 70b9 ccbc ece4 6ebd b2a3 483b
00000150: 7272 473d 661e a93d 8359 c73d 0cfb f13d
00000160: ce4d 123e 569e e23d 5884 70bc 9156 11be
00000170: 6a33 1dbe a842 5bbd 50a6 1a3d bc86 303d
00000180: 5673 a4bb 9a68 2cbd 7458 b7bc 0757 51bb
00000190: aa12 ac3c 0e7e 8a3b fcb7 d93c 2c90 04bd
000001a0: 7aaa 1ebe 698a 56be facb 50be 90ab ebbd
000001b0: 2461 0fbc 53d2 473d 6398 943d 1a8a ed3d
000001c0: 3428 243e ee00 183e 5c3e 8c3d c227 75bc
000001d0: 3a06 04bd 5138 fdbb 8ac8 003c 5f65 d4bb
000001e0: b8fd d73c be6d f53d d8c5 033e 8c04 17bc
000001f0: ff28 13be 30fc 13be 67af abbd b001 acbc
00000200: e071 b2bc 6601 13bd a80d 11ba 4ef9 933d
00000210: 4ea0 cc3d a12b 393d 1c27 0dbd 146e 50bd
00000220: d668 c2bc 6873 9f3a f016 843a 3da0 383c
00000230: ccd8 033d 82b5 973d 2f13 fe3c b5fe 52bc
00000240: 5b78 cc3c ee88 003e 6862 203e 1859 a53d
00000250: bc83 41bd 41be dcbd db90 91bd 64a7 9bbc
00000260: 1b28 c4bc 5441 59bd 275d 2ebd 0bb2 62bc
00000270: 504e e43b c0e8 ee3a 8aae 99bb 7e6d 1f3b
00000280: c44e 62bd 40b8 e5bd a52d e3bd af0c 92bc
00000290: 2039 d73d 68de ee3d b0f5 df3c a0a0 40bd
000002a0: 9246 78bd c97d 92bc 9d6a 7e3b 680d 8fbc
000002b0: 01ea ebbc d437 6e3c 98f4 943d 3417 a53d
000002c0: fa9f ec3c 78eb 44ba 4c61 8e3b 30d4 1fbc
000002d0: 6e3e a7bc 4859 69bd 13fc a1bd 4697 e33c
000002e0: ca1c b43d 888a 7a3d ab35 5a3c b858 273d
000002f0: 5b25 cc3d 68a3 c23d 6858 3abb 15b9 d9bd
00000300: d20f fcbd 08c2 91bd 1c3b 23bd a0d6 20bd
00000310: 2448 02bd 3cab f5bb e3c6 303c a800 803c
00000320: d82c 0a3d 48a4 873c 1ad2 933c d404 9b3c
00000330: 79ea 4abd ad5d 3fbd bec9 453c 5e21 933d
00000340: 83b5 943d d20d bc3c 60c1 b0bc 7049 e03a
00000350: c32b 463d f67c 0c3d e419 08bd 5c06 9ebd
00000360: ec18 38bd 6bfe 0b3c a754 e63c 80c1 e437
00000370: d976 b23b 5c66 863c 4c8e 8a3d f277 bbbc
00000380: 24a8 14be e2aa 16be 2475 eebd 7242 d0bd
00000390: 3398 cabd 9ebf 39bd 322b 973d 8cf1 3b3e
000003a0: eef7 3f3e aecb d03d 3064 643c a07c 28bb
000003b0: 9ee2 333c dfa8 1e3c f827 3abb 94df 1c3c
000003c0: a22f ba3c ea3e 7b3d b346 6a3d 0946 ef3c
000003d0: 0375 ea3c 50f6 673d 86f7 0c3d 26cd fbbc
000003e0: 2069 a0bd 9d2b 5cbd 8af6 053b 0510 9c3c
000003f0: fa8c ecbc 94ac 9ebd 2047 4dbd a012 1439

exp_avg f4 [8, 1, 7, 7]
0.005954166 -0.03599989 -0.02035357 -0.026594646 -0.05285127 -0.03653681 -0.032204308 -0.053572956
-0.05699251 0.035925087 0.05632231 0.017705709 0.019964412 0.017533517 -0.1372463 -0.07637909
0.025346877 0.01462396 0.037080195 0.13562176 0.18173106 -0.009670892 -0.027099326 -0.08563389
-0.09863299 -0.15743487 -0.014706706 0.04021979 0.11812444 0.13536192 0.06323313 0.016487494
0.003498494 0.020966157 -0.020698108 -0.03502904 0.023032643 0.03312872 0.00421981 0.07141156
0.043160763 0.026470788 -0.05536945 -0.052663196 -0.05528707 -0.02133411 0.015292319 -0.008568327
0.008442373 -0.022025924 -0.06076253 -0.032522377 -0.017967403 -0.05203776 -0.026960487 -0.07540554
-0.040425852 -0.062583186 -0.02130826 0.028968278 -0.003417512 -0.03482155 -0.07406948 -0.074307784
-0.038090814 0.037648115 0.008062531 0.03487838 0.0604867 0.048975114 -0.010554786 -0.01861459
-0.050070483 -0.03694894 -0.087552354 -0.03917255 -0.00062382786 0.072914384 0.08623425 0.010319253
-0.011516511 0.03321835 0.022252211 -0.004966582 0.00021043007 0.013357294 0.018923612 0.009202975
0.07484694 0.06394282 0.032073904 0.019517632 0.007464684 -0.010880796 0.029686408 0.07533154
0.05119739 0.06789423 0.012872232 0.022036761 0.00923431 -0.01456334 0.0066803093 0.020578982
-0.0064885737 0.0318452 0.007846499 0.011467648 0.01958419 0.044074036 0.043816626 0.013457767
0.026789319 -0.015170539 -0.039298773 -0.035107795 0.00168336 -0.0043001072 -0.016019752 0.099217445
0.04893404 0.049346626 -0.01182369 -0.022872638 -0.052104395 -0.09187149 0.009248513 0.020972934
0.030958805 0.048642945 0.033197526 0.000394312 -0.03640428 -0.056516476 -0.03915973 -0.026066449
-0.0042750877 -0.003927327 -0.02300916 -0.027062083 0.005735296 -0.004969936 -0.013678248 -0.0059132245
-0.004987553 -0.02263751 -0.040387932 -0.0061630295 0.01366789 0.026276246 0.006612182 0.00050434703
-0.028558189 -0.038551632 -0.006603824 0.006167757 0.004452945 0.0152341835 0.050044235 0.00672055
-0.027632687 -0.020957679 -0.009585326 -0.017229917 -0.02244706 0.038574222 0.032252956 0.011208719
0.018037036 -0.009643565 -0.03639098 -0.012346312 -0.029662192 -0.047457293 -0.044776034 0.0555659
0.040848225 0.010765859 0.01345094 0.032670945 -0.026133738 -0.041195873 0.010713065 0.026918367
0.028818954 -0.00040163595 -0.026070533 -0.014608638 -0.010524673 0.016285498 0.016300047 0.019394824
0.009496596 -0.0046259873 -0.02398456 -0.0054311864 0.00079403725 -0.013855205 0.07415928 0.044676635
0.0046360004 -0.011468445 -0.05631227 -0.007699203 0.0056242826 0.07645336 0.044467155 0.03282535
0.034713995 -0.01734302 -0.018328147 -0.01029751 0.017542856 -0.0008461096 0.013015918 0.081883974
0.024572361 0.0061850846 -0.060779613 -0.06507596 -0.0016908363 -0.06957558 -0.02746967 -0.067813
0.07409236 0.04300642 0.024144603 0.04936721 0.040463056 -0.053873207 -0.10907762 -0.031926583
0.0026840898 0.053749744 0.06812509 0.03688026 -0.009015058 -0.032929547 -0.08980768 -0.076747045
-0.0328356 0.03241233 0.01936199 -0.018971348 -0.022099363 0.07442076 0.039192397 0.051329836
-0.0072593694 -0.029951956 0.0051927976 -0.017483387 0.044790324 0.016632402 0.049069382 0.03212684
00000000: 2a1b c33b 9f74 13bd 88bc a6bc 04dd d9bc
00000010: 937a 58bd 9fa7 15bd aae8 03bd 516f 5bbd
00000020: fa70 69bd 2f26 133d 39b2 663d 900b 913c
00000030: 688c a33c 73a2 8f3c 4b8a 0cbe a46c 9cbd
00000040: 41a4 cf3c 5599 6f3c 67e1 173d 6ee0 0a3e
00000050: b517 3a3e a972 1ebc 68ff ddbc d260 afbd
00000060: 1800 cabd 9b36 21be 65f4 70bc 82bd 243d
00000070: 3aeb f13d 519c 0a3e 5f80 813d c810 873c
00000080: fd46 653b 38c1 ab3c 148f a9bc 9c7a 0fbd
00000090: f4ae bc3c fbb1 073d 5546 8a3b 3940 923d
000000a0: 57c9 303d 44d9 d83c 14cb 62bd 5db5 57bd
000000b0: b274 62bd dfc4 aebc a28c 7a3c 2b62 0cbc
000000c0: e151 0a3c b66f b4bc 21e2 78bd 2f36 05bd
000000d0: 6030 93bc 8c25 55bd 3ddc dcbc 386e 9abd
000000e0: 9495 25bd 9d2b 80bd a98e aebc e24e ed3c
000000f0: 56f8 5fbb 0ba1 0ebd bdb1 97bd ae2e 98bd
00000100: 1d05 1cbd e934 1a3d b518 043c a2dc 0e3d
00000110: e7c0 773d 219a 483d fbed 2cbc a07d 98bc
00000120: b516 4dbd c657 17bd a64e b3bd 6573 20bd
00000130: 6188 23ba 2354 953d 959b b03d 1612 293c
00000140: c0af 3cbc f70f 083d 454a b63c b6be a2bb
00000150: e4a6 5c39 8dd8 5a3c b105 9b3c 13c8 163c
00000160: 5a49 993d 74f4 823d ed5f 033d 71e3 9f3c
00000170: 4f9a f43b 5e45 32bc e930 f33c 6c47 9a3d
00000180: 5bb4 513d 210c 8b3d 0ee6 523c 7086 b43c
00000190: 814b 173c 139b 6ebc 7fe6 da3b 4195 a83c
000001a0: 1a9e d4bb 1d70 023d 9a8e 003c cde2 3b3c
000001b0: 066f a03c fa86 343d 1079 333d f77d 5c3c
000001c0: 4675 db3c da8d 78bc c0f7 20bd 31cd 0fbd
000001d0: 30a4 dc3a eae7 8cbb db3b 83bc 8432 cb3d
000001e0: 0f6f 483d b01f 4a3d 26b8 41bc 665f bbbc
000001f0: 6b6b 55bd 1f27 bcbd 1387 173c 6ecf ab3c
00000200: 529d fd3c d33d 473d 21fa 073d a9bb ce39
00000210: a81c 15bd d27d 67bd f465 20bd 4e89 d5bc
00000220: 0916 8cbb cfb0 80bb b57d bcbc 4db1 ddbc
00000230: 26ef bb3b d8da a2bb bb1a 60bc b9c3 c1bb
00000240: a16e a3bb 4d72 b9bc d16d 25bd 3df3 c9bb
00000250: 49ef 5f3c 4841 d73c 01ab d83b 2836 043a
00000260: ddf2 e9bc 51e8 1dbd e464 d8bb e51a ca3b
00000270: 03ea 913b cc98 793c 2ffb 4c3d 0f38 dc3b
00000280: f25d e2bc 70af abbc c50b 1dbc c125 8dbc
00000290: e6e2 b7bc 0100 1e3d ad1b 043d c6a4 373c
000002a0: 68c2 933c 0b00 1ebc b50e 15bd 3048 4abc
000002b0: 20fe f2bc 9462 42bd 1367 37bd 1299 633d
000002c0: 7850 273d 4963 303c 5561 5c3c f8d1 053d
000002d0: 6c16 d6bc 01bd 28bd da85 2f3c e883 dc3c
000002e0: ba15 ec3c aa92 d2b9 df91 d5bc 1259 6fbc
000002f0: ae6f 2cbc 2a69 853c ad87 853c e5e1 9e3c
00000300: 9c97 1b3c 9895 97bb 457b c4bc 18f8 b1bb
00000310: f026 503a f100 63bc d2e0 973d d9fe 363d
00000320: 97e9 973b 25e6 3bbc b2a7 66bd 9949 fcbb
00000330: e74b b83b 9493 9c3d 3123 363d e073 063d
00000340: 4330 0e3d f312 8ebc e924 96bc e3b6 28bc
00000350: 09b6 8f3c 74cd 5dba b840 553c c9b2 a73d
00000360: fa4b c93c 40ac ca3b 0bf4 78bd 8b46 85bd
00000370: 0d9f ddba a47d 8ebd 1308 e1bc 8be1 8abd
00000380: bcbd 973d 8027 303d e7ca c53c 4635 4a3d
00000390: 97bc 253d 27aa 5cbd 1664 dfbd 73c5 02bd
000003a0: 8ee7 2f3b b128 5c3d 2b85 8b3d c10f 173d
000003b0: e5b3 13bc 22e1 06bd 17ed b7bd 8e2d 9dbd
000003c0: 9f7e 06bd cbc2 043d 099d 9e3c cd69 9bbc
000003d0: b909 b5bc e969 983d 3588 203d 3c3f 523d
000003e0: 01e0 edbb ce5d f5bc 5828 aa3b 5239 8fbc
000003f0: 0f76 373d ad40 883c fafc 483d 6f97 033d

exp_avg_sq f4 [8, 1, 7, 7]
0.35298905 0.44414595 0.6652402 0.78260285 0.5359301 0.6031013 0.62458616 0.4375841
0.36610186 0.87751186 0.5860208 0.9938994 0.6894511 0.37395948 0.5137495 0.93015045
1.131855 0.8928334 1.1329712 0.88205296 0.4846718 0.61083126 1.0073166 1.3900322
0.4725078 1.6129956 1.1062362 0.8169733 0.5816413 0.70058644 0.8094414 1.2005827
1.0066217 0.8024384 0.8996823 0.25455034 0.35298258 0.80218965 1.1629804 0.6602541
0.5085882 0.39283583 0.32189676 0.45538446 0.66183954 0.56390595 0.4352151 0.6672418
0.35495198 0.22027792 0.21628734 0.46813706 0.41169897 0.2993902 0.2465126 0.25076047
0.30277023 0.3192151 0.35553864 0.3815228 0.49816948 0.4179246 0.2738031 0.28089818
0.75857615 0.87964123 0.7788041 0.7007148 0.4850645 0.30773976 0.3729971 0.55685693
0.51977766 0.21970694 1.0127896 0.7241193 0.46195862 0.3814172 0.40227643 0.46410272
0.74785644 0.414719 0.3360636 0.52971745 0.27443993 0.16348943 0.5077512 0.71231323
0.43384856 0.43741953 0.23647897 0.18912794 0.3196697 0.4754842 0.3221691 0.25259402
0.38702673 0.2727129 0.04871144 0.05286748 0.049795963 0.072209165 0.06266527 0.0738083
0.050213132 0.06653027 0.0673643 0.10655891 0.09974626 0.075982615 0.11660095 0.11925479
0.06649606 0.051886436 0.10395987 0.07175392 0.16689587 0.086963326 0.05866242 0.07468778
0.0964421 0.13074252 0.036976002 0.18686861 0.08700492 0.117498584 0.06396581 0.06049272
0.19710112 0.12909174 0.12590721 0.069926634 0.14322838 0.0648297 0.08470795 0.10315346
0.08997073 0.09139695 0.11918325 0.08282466 0.04039191 0.06877842 0.04113597 0.11801994
0.069007374 0.09004269 0.067111626 0.07338713 0.04636658 0.089260824 0.11333147 0.06221708
0.059627086 0.058561675 0.07647218 0.0628009 0.16131455 0.1176653 0.0919504 0.08905305
0.06287687 0.06861336 0.1213751 0.102902636 0.112090595 0.113672845 0.08932766 0.047316127
0.09751404 0.21571805 0.1022501 0.30692127 0.20525521 0.09278241 0.052641965 0.08485779
0.13206933 0.09437588 0.10691799 0.2213667 0.11560493 0.09215997 0.0645707 0.07835
0.11584172 0.13455975 0.06786275 0.057728328 0.07769693 0.0727691 0.050506793 0.11219156
0.11026867 0.07858342 0.08534599 0.04764133 0.1915001 0.37236962 0.34906065 0.4082309
0.61333156 0.29059976 0.29731515 0.29865378 0.40346795 0.55920345 0.6301702 0.8500338
0.25645882 0.19973898 0.48857558 0.4675074 0.5561013 0.89993644 0.45086306 0.3782585
0.24269581 0.41830796 0.7644655 0.48187867 0.47127026 0.670541 0.46595746 0.39205894
0.2067348 0.5533616 0.78488106 0.98781633 0.6856023 0.49664488 0.28797907 0.32509857
0.25302356 0.7463466 0.5292585 0.38657334 0.3314364 0.20693594 0.37281176 0.3474958
0.3901012 0.3513314 0.31350815 0.26413164 0.15614867 0.073999144 0.14810143 0.15663652
0.18686238 0.29043472 0.26997963 0.13344595 0.12460096 0.16097422 0.14038767 0.24723235
00000000: fbba b43e 1967 e33e 2f4d 2a3f a958 483f
00000010: b732 093f d964 1a3f e1e4 1f3f 060b e03e
00000020: b471 bb3e 9ea4 603f 7605 163f 3170 7e3f
00000030: de7f 303f 9e77 bf3e 1685 033f 571e 6e3f
00000040: a0e0 903f bb90 643f 3305 913f 39ce 613f
00000050: e726 f83e 705f 1c3f c0ef 803f 93ec b13f
00000060: 8bec f13e a476 ce3f 2699 8d3f 2a25 513f
00000070: 72e6 143f a259 333f 8d37 4f3f b2ac 993f
00000080: fbd8 803f 9a6c 4d3f 9451 663f 6c54 823e
00000090: 22ba b43e 4d5c 4d3f 8bdc 943f 6a06 293f
000000a0: d632 023f c721 c93e a7cf a43e 2728 e93e
000000b0: 516e 293f 245c 103f 83d4 de3e 5cd0 2a3f
000000c0: 44bc b53e 8990 613e 6e7a 5d3e a9af ef3e
000000d0: 35ca d23e ac49 993e cd6d 7c3e ad63 803e
000000e0: b304 9b3e 2970 a33e 2909 b63e f556 c33e
000000f0: 1210 ff3e 37fa d53e ec2f 8c3e e3d1 8f3e
00000100: 0c32 423f 2b30 613f b55f 473f 0c62 333f
00000110: 605a f83e 1190 9d3e 7af9 be3e 2d8e 0e3f
00000120: 2610 053f dbfa 603e 17a3 813f e25f 393f
00000130: d785 ec3e 1e49 c33e 2df7 cd3e df9e ed3e
00000140: 8573 3f3f 0c56 d43e 8710 ac3e 909b 073f
00000150: 6483 8c3e c669 273e fcfb 013f 295a 363f
00000160: 6621 de3e 74f5 df3e 8b27 723e c1aa 413e
00000170: bfab a33e aa72 f33e 59f3 a43e 0154 813e
00000180: 5e28 c63e 06a1 8b3e a685 473d 928b 583d
00000190: daf6 4b3d 66e2 933d a656 803d ce28 973d
000001a0: 49ac 4d3d 0641 883d 4bf6 893d 8f3b da3d
000001b0: c447 cc3d c69c 9b3d 7bcc ee3d db3b f43d
000001c0: 162f 883d df86 543d eae8 d43d b8f3 923d
000001d0: c0e6 2a3e d419 b23d 0148 703d e8f5 983d
000001e0: 7083 c53d 5ee1 053e 2674 173d 7c5a 3f3e
000001f0: a32f b23d 19a3 f03d 8200 833d 37c7 773d
00000200: e0d4 493e a030 043e d2ed 003e b235 8f3d
00000210: 76aa 123e 6fc5 843d 5d7b ad3d 1f42 d33d
00000220: 9342 b83d 532e bb3d 5916 f43d fa9f a93d
00000230: fd71 253d b3db 8c3d 317e 283d 70b4 f13d
00000240: bd53 8d3d 4d68 b83d d271 893d fe4b 963d
00000250: e2ea 3d3d 61ce b63d 541a e83d 56d7 7e3d
00000260: 883b 743d 5ede 6f3d 729d 9c3d c29d 803d
00000270: a42f 253e 81fa f03d 7e50 bc3d 7261 b63d
00000280: 97c5 803d 2985 8c3d 8293 f83d 9ebe d23d
00000290: c18f e53d 4fcd e83d 6cf1 b63d 8ece 413d
000002a0: 71b5 c73d 31e5 5c3e 8068 d13d c924 9d3e
000002b0: 6c2e 523e b404 be3d 1a9f 573d ecc9 ad3d
000002c0: 2f3d 073e 2448 c13d d2f7 da3d f4ad 623e
000002d0: 47c2 ec3d 5ebe bc3d a53d 843d f775 a03d
000002e0: 6c3e ed3d 08ca 093e a0fb 8a3d 8a74 6c3d
000002f0: 911f 9f3d f707 953d 36e0 4e3d b0c4 e53d
00000300: 8ad4 e13d 58f0 a03d e1c9 ae3d 8e23 433d
00000310: 9a18 443e 3ba7 be3e 14b8 b23e a403 d13e
00000320: 4c03 1d3f 7ec9 943e b139 983e 26e9 983e
00000330: 5a93 ce3e f527 0f3f d652 213f d19b 593f
00000340: 924e 833e 6088 4c3e 9426 fa3e 215d ef3e
00000350: a85c 0e3f 3c62 663f 86d7 e63e 19ab c13e
00000360: 4085 783e 762c d63e 03b4 433f cdb8 f63e
00000370: 564a f13e 93a8 2b3f fa91 ee3e f3bb c83e
00000380: 4ab2 533e 1ba9 0d3f f7ed 483f 88e1 7c3f
00000390: a283 2f3f 3d48 fe3e fe71 933e 5273 a63e
000003a0: 4e8c 813e 9210 3f3f 7c7d 073f f1ec c53e
000003b0: 08b2 a93e 04e7 533e 2fe1 be3e f8ea b13e
000003c0: 58bb c73e b6e1 b33e 2484 a03e 433c 873e
000003d0: 70e5 1f3e dd8c 973d e7a7 173e 5365 203e
000003e0: da58 3f3e dcb3 943e c53a 8a3e 0ea6 083e
000003f0: ca2e ff3d 6dd6 243e c9c1 0f3e 7a2a 7d3e

exp_avg f4 [32, 8, 7, 7]
6e-45 6e-45 -6e-45 -6e-45 -6e-45 6e-45 6e-45 -6e-45
-6e-45 6e-45 6e-45 -6e-45 6e-45 6e-45 6e-45 6e-45
6e-45 6e-45 -6e-45 -6e-45 -6e-45 6e-45 6e-45 -6e-45
-6e-45 -6e-45 -6e-45 -6e-45 -6e-45 -6e-45 -6e-45 -6e-45
6e-45 6e-45 6e-45 -6e-45 6e-45 6e-45 6e-45 6e-45
6e-45 6e-45 6e-45 -6e-45 -6e-45 6e-45 -6e-45 -6e-45
-6e-45 -6e-45 -6e-45 -6e-45 6e-45 -6e-45 -6e-45 -6e-45
6e-45 6e-45 -6e-45 6e-45 6e-45 -6e-45 -6e-45 -6e-45
6e-45 -6e-45 -6e-45 -6e-45 -6e-45 -6e-45 -6e-45 -6e-45
-6e-45 -6e-45 -6e-45 6e-45 6e-45 -6e-45 -6e-45 6e-45
6e-45 -6e-45 -6e-45 -6e-45 6e-45 6e-45 -6e-45 6e-45
6e-45 -6e-45 -6e-45 6e-45 6e-45 -6e-45 -6e-45 -6e-45
6e-45 -6e-45 6e-45 -6e-45 -6e-45 -6e-45 -6e-45 -6e-45
-6e-45 6e-45 6e-45 -6e-45 -6e-45 -6e-45 6e-45 6e-45
-6e-45 6e-45 6e-45 6e-45 6e-45 -6e-45 -6e-45 -6e-45
-6e-45 -6e-45 6e-45 6e-45 -6e-45 -6e-45 6e-45 -6e-45
-6e-45 -6e-45 -6e-45 6e-45 6e-45 6e-45 6e-45 6e-45
6e-45 6e-45 6e-45 -6e-45 -6e-45 6e-45 6e-45 -6e-45
-6e-45 6e-45 -6e-45 -6e-45 -6e-45 6e-45 6e-45 -6e-45
-6e-45 6e-45 -6e-45 -6e-45 -6e-45 6e-45 6e-45 -6e-45
-6e-45 6e-45 6e-45 -6e-45 -6e-45 6e-45 6e-45 -6e-45
-6e-45 6e-45 6e-45 -6e-45 -6e-45 6e-45 6e-45 -6e-45
-6e-45 6e-45 6e-45 -6e-45 -6e-45 6e-45 6e-45 -6e-45
-6e-45 6e-45 6e-45 -6e-45 6e-45 -6e-45 6e-45 -6e-45
-6e-45 6e-45 6e-45 -6e-45 -6e-45 6e-45 6e-45 6e-45
-6e-45 -6e-45 6e-45 -6e-45 -6e-45 -6e-45 6e-45 6e-45
-6e-45 6e-45 6e-45 -6e-45 -6e-45 6e-45 6e-45 6e-45
-6e-45 6e-45 6e-45 -6e-45 -6e-45 6e-45 6e-45 -6e-45
-6e-45 6e-45 6e-45 -6e-45 -6e-45 -6e-45 6e-45 -6e-45
-6e-45 6e-45 6e-45 -6e-45 -6e-45 6e-45 6e-45 -6e-45
-6e-45 6e-45 6e-45 -6e-45 -6e-45 6e-45 -6e-45 -6e-45
6e-45 -6e-45 -6e-45 6e-45 6e-45 6e-45 -6e-45 6e-45
00000000: 0400 0000 0400 0000 0400 0080 0400 0080
00000010: 0400 0080 0400 0000 0400 0000 0400 0080
00000020: 0400 0080 0400 0000 0400 0000 0400 0080
00000030: 0400 0000 0400 0000 0400 0000 0400 0000
00000040: 0400 0000 0400 0000 0400 0080 0400 0080
00000050: 0400 0080 0400 0000 0400 0000 0400 0080
00000060: 0400 0080 0400 0080 0400 0080 0400 0080
00000070: 0400 0080 0400 0080 0400 0080 0400 0080
00000080: 0400 0000 0400 0000 0400 0000 0400 0080
00000090: 0400 0000 0400 0000 0400 0000 0400 0000
000000a0: 0400 0000 0400 0000 0400 0000 0400 0080
000000b0: 0400 0080 0400 0000 0400 0080 0400 0080
000000c0: 0400 0080 0400 0080 0400 0080 0400 0080
000000d0: 0400 0000 0400 0080 0400 0080 0400 0080
000000e0: 0400 0000 0400 0000 0400 0080 0400 0000
000000f0: 0400 0000 0400 0080 0400 0080 0400 0080
00000100: 0400 0000 0400 0080 0400 0080 0400 0080
00000110: 0400 0080 0400 0080 0400 0080 0400 0080
00000120: 0400 0080 0400 0080 0400 0080 0400 0000
00000130: 0400 0000 0400 0080 0400 0080 0400 0000
00000140: 0400 0000 0400 0080 0400 0080 0400 0080
00000150: 0400 0000 0400 0000 0400 0080 0400 0000
00000160: 0400 0000 0400 0080 0400 0080 0400 0000
00000170: 0400 0000 0400 0080 0400 0080 0400 0080
00000180: 0400 0000 0400 0080 0400 0000 0400 0080
00000190: 0400 0080 0400 0080 0400 0080 0400 0080
000001a0: 0400 0080 0400 0000 0400 0000 0400 0080
000001b0: 0400 0080 0400 0080 0400 0000 0400 0000
000001c0: 0400 0080 0400 0000 0400 0000 0400 0000
000001d0: 0400 0000 0400 0080 0400 0080 0400 0080
000001e0: 0400 0080 0400 0080 0400 0000 0400 0000
000001f0: 0400 0080 0400 0080 0400 0000 0400 0080
00000200: 0400 0080 0400 0080 0400 0080 0400 0000
00000210: 0400 0000 0400 0000 0400 0000 0400 0000
00000220: 0400 0000 0400 0000 0400 0000 0400 0080
00000230: 0400 0080 0400 0000 0400 0000 0400 0080
00000240: 0400 0080 0400 0000 0400 0080 0400 0080
00000250: 0400 0080 0400 0000 0400 0000 0400 0080
00000260: 0400 0080 0400 0000 0400 0080 0400 0080
00000270: 0400 0080 0400 0000 0400 0000 0400 0080
00000280: 0400 0080 0400 0000 0400 0000 0400 0080
00000290: 0400 0080 0400 0000 0400 0000 0400 0080
000002a0: 0400 0080 0400 0000 0400 0000 0400 0080
000002b0: 0400 0080 0400 0000 0400 0000 0400 0080
000002c0: 0400 0080 0400 0000 0400 0000 0400 0080
000002d0: 0400 0080 0400 0000 0400 0000 0400 0080
000002e0: 0400 0080 0400 0000 0400 0000 0400 0080
000002f0: 0400 0000 0400 0080 0400 0000 0400 0080
00000300: 0400 0080 0400 0000 0400 0000 0400 0080
00000310: 0400 0080 0400 0000 0400 0000 0400 0000
00000320: 0400 0080 0400 0080 0400 0000 0400 0080
00000330: 0400 0080 0400 0080 0400 0000 0400 0000
00000340: 0400 0080 0400 0000 0400 0000 0400 0080
00000350: 0400 0080 0400 0000 0400 0000 0400 0000
00000360: 0400 0080 0400 0000 0400 0000 0400 0080
00000370: 0400 0080 0400 0000 0400 0000 0400 0080
00000380: 0400 0080 0400 0000 0400 0000 0400 0080
00000390: 0400 0080 0400 0080 0400 0000 0400 0080
000003a0: 0400 0080 0400 0000 0400 0000 0400 0080
000003b0: 0400 0080 0400 0000 0400 0000 0400 0080
000003c0: 0400 0080 0400 0000 0400 0000 0400 0080
000003d0: 0400 0080 0400 0000 0400 0080 0400 0080
000003e0: 0400 0000 0400 0080 0400 0080 0400 0000
000003f0: 0400 0000 0400 0000 0400 0080 0400 0000

exp_avg_sq f4 [32, 8, 7, 7]
7.8718394e-08 9.280503e-08 8.370784e-08 5.819696e-08 4.9238054e-08 3.8752532e-08 6.061251e-08 7.0398585e-08
4.0664915e-08 4.6134517e-08 7.291092e-08 7.680399e-08 1.1152486e-07 1.1972313e-07 3.7179575e-08 7.0484475e-08
1.2004939e-07 1.906589e-07 1.6674146e-07 1.6393282e-07 1.1759085e-07 1.2321155e-07 1.8788444e-07 2.4341114e-07
1.6372393e-07 1.5597112e-07 7.628871e-08 6.451129e-08 1.4127085e-07 1.4694011e-07 9.660437e-08 7.5917036e-08
3.1480546e-08 9.73345e-08 1.2712111e-07 5.8523945e-08 9.121175e-08 5.8975495e-08 8.819366e-08 1.2550251e-07
1.7859577e-07 1.5965334e-07 5.2483532e-08 7.241556e-08 1.3363459e-07 1.4902146e-07 1.5787376e-07 1.1120105e-07
7.709408e-08 8.094196e-08 1.06102235e-07 1.4847423e-07 1.6987966e-07 1.696148e-07 1.2527097e-07 1.631013e-07
1.1603249e-07 1.3694505e-07 2.7733225e-07 1.997188e-07 1.5863063e-07 1.1645361e-07 9.876027e-08 2.0816385e-07
2.5302793e-07 2.52901e-07 1.6111103e-07 4.539198e-08 1.2938474e-07 1.8879155e-07 1.5330409e-07 1.1559017e-07
8.4144474e-08 5.388421e-08 1.7803545e-07 1.9329983e-07 2.1213019e-07 6.669931e-08 8.6320554e-08 1.3768795e-07
1.6500161e-07 2.3572798e-07 1.9668796e-07 1.1045206e-07 1.2308989e-07 1.9151994e-07 1.7871608e-07 2.3655615e-07
1.4531254e-07 1.02378856e-07 1.1923096e-07 1.542772e-07 1.3654153e-07 1.07547415e-07 1.5460968e-07 1.3524856e-07
1.7054161e-07 1.8134806e-07 5.5269986e-08 6.9942516e-08 6.9765775e-08 9.832056e-08 4.5230482e-08 6.933362e-08
6.115547e-08 7.3210856e-08 9.761168e-08 6.755115e-08 7.271209e-08 8.296433e-08 7.618249e-08 5.2270572e-08
5.4046406e-08 7.879606e-08 8.906111e-08 9.6613e-08 7.8210206e-08 1.0387451e-07 4.969942e-08 7.771289e-08
7.740549e-08 8.774564e-08 8.679232e-08 1.263443e-07 5.8750373e-08 1.3473085e-07 6.35406e-08 7.011324e-08
1.2796892e-07 5.806023e-08 1.2814711e-07 9.601909e-08 1.34689e-07 9.742547e-08 5.3421058e-08 9.280537e-08
1.03945446e-07 1.05297964e-07 1.0668702e-07 7.456644e-08 8.2474116e-08 1.08803334e-07 8.3254875e-08 1.0486713e-07
5.5953382e-08 9.780474e-08 3.6406487e-08 3.152289e-08 9.724261e-08 1.0314264e-07 1.3043282e-07 2.1575322e-07
7.5526884e-08 1.04602336e-07 1.1257694e-07 9.983849e-08 2.2987952e-07 1.14987245e-07 1.0095901e-07 1.3978575e-07
5.2680793e-08 1.2045606e-07 1.13052316e-07 1.12066886e-07 1.7583324e-07 6.1559376e-08 2.1867473e-07 1.6946353e-07
3.5253954e-08 1.6292535e-07 1.2831875e-07 1.341164e-07 2.2062758e-07 1.4833662e-07 1.3492077e-07 8.958395e-08
1.05297154e-07 2.4873123e-07 1.0323573e-07 1.4482922e-07 1.5376175e-07 2.5944082e-08 2.2097929e-07 1.0506724e-07
7.983486e-08 1.2131082e-07 2.9983728e-08 1.4261303e-07 1.4301719e-07 5.3588202e-08 8.461198e-08 5.590727e-08
1.0809018e-07 2.226749e-07 1.3399675e-07 2.3536133e-07 1.1500377e-07 1.19052444e-07 1.2433622e-07 6.665566e-08
6.596613e-08 1.2753249e-07 1.2719819e-07 1.03171246e-07 8.918454e-08 6.892951e-08 9.26078e-08 1.5694387e-07
1.8318792e-07 1.8335673e-07 6.789702e-08 8.7551946e-08 1.2707052e-07 1.5020653e-07 1.5022705e-07 1.1891597e-07
6.928392e-08 1.5834696e-07 1.14857876e-07 1.3054698e-07 1.0984265e-07 3.2744992e-08 8.8013756e-08 7.7183145e-08
1.1203587e-07 8.1374104e-08 9.016833e-08 5.589496e-08 1.2873252e-07 9.116786e-08 1.6204362e-07 3.9331585e-08
1.0826372e-07 7.593447e-08 2.1159042e-07 1.2760785e-07 1.480817e-07 1.0695029e-07 8.641289e-08 8.6993694e-08
1.3970107e-07 1.91335e-07 7.209172e-08 9.067763e-08 5.7614212e-08 2.076324e-07 2.0765334e-07 2.395399e-07
2.5193532e-07 6.3111834e-08 1.2752372e-07 1.5291032e-07 1.7436494e-07 1.9801543e-07 1.1967646e-07 1.665275e-07
00000000: e50b a933 1b4c c733 dfc2 b333 3cf4 7933
00000010: d079 5333 dc70 2633 142a 8233 082e 9733
00000020: 8ca7 2e33 7025 4633 3493 9c33 71ef a433
00000030: 717f ef33 3e8d 0034 60af 1f33 405d 9733
00000040: ede6 0034 ebb7 4c34 8b09 3334 8305 3034
00000050: 4186 fc33 224c 0434 48bd 4934 2cae 8234
00000060: 17cc 2f34 0479 2734 29d4 a333 7589 8a33
00000070: 3cb0 1734 97c6 1d34 d074 cf33 d507 a333
00000080: 3a35 0733 3506 d133 c97e 0834 c25b 7b33
00000090: 31e0 c333 3e4c 7d33 fa64 bd33 dec1 0634
000000a0: 08c4 3f34 2d6d 2b34 416a 6133 e082 9b33
000000b0: 327d 0f34 b502 2034 0284 2934 6ccd ee33
000000c0: eb8e a533 50d2 ad33 52da e333 496c 1f34
000000d0: 2a68 3634 5c1f 3634 3982 0634 f220 2f34
000000e0: 892d f933 2b0b 1334 41e4 9434 4972 5634
000000f0: 0e54 2a34 0d15 fa33 0816 d433 a583 5f34
00000100: e5d7 8734 73c6 8734 ddfd 2c34 03f5 4233
00000110: 02ed 0a34 a0b6 4a34 e89b 2434 5e3a f833
00000120: eab2 b433 516e 6733 032a 3f34 da8d 4f34
00000130: e7c5 6334 553c 8f33 3a5f b933 60d7 1334
00000140: 4c2b 3134 6a1c 7d34 2d31 5334 aa31 ed33
00000150: b12a 0434 9aa4 4d34 1ae5 3f34 0f00 7e34
00000160: 3507 1c34 5fdb db33 f505 0034 65a7 2534
00000170: 409c 1234 d1f4 e633 c902 2634 d738 1134
00000180: 1f1e 3734 93b8 4234 fe61 6d33 4e33 9633
00000190: 24d2 9533 4d24 d333 7143 4233 90e4 9433
000001a0: 9354 8333 1838 9d33 979e d133 a310 9133
000001b0: e525 9c33 1f2a b233 c499 a333 1a80 6033
000001c0: a720 6833 9836 a933 dd41 bf33 8f79 cf33
000001d0: 84f4 a733 9e11 df33 1775 5533 1de3 a633
000001e0: 1e3a a633 ad6e bc33 9562 ba33 42a9 0734
000001f0: b854 7c33 89aa 1034 d073 8833 2991 9633
00000200: d467 0934 e65d 7933 cf98 0934 0e33 ce33
00000210: 089f 1034 3838 d133 1371 6533 4b4c c733
00000220: 9d38 df33 2b20 e233 cf1b e533 5521 a033
00000230: a01c b133 44a7 e933 dac9 b233 5033 e133
00000240: 6551 7033 b908 d233 5b5d 1c33 c963 0733
00000250: b1d3 d033 447f dd33 1a0d 0c34 cba9 6734
00000260: 5831 a233 bea1 e033 d4c1 f133 ca66 d633
00000270: cdd4 7634 e8ee f633 cdce d833 0418 1634
00000280: 2543 6233 b656 0134 2bc7 f233 6ca9 f033
00000290: accc 3c34 a032 8433 dacc 6a34 c8f5 3534
000002a0: 226a 1733 94f0 2e34 fdc7 0934 a301 1034
000002b0: a6e5 6c34 7646 1f34 bdde 1034 4c61 c033
000002c0: b91f e233 5c89 8534 71b2 dd33 5a82 1b34
000002d0: b519 2534 a4db de32 5346 6d34 53a1 e133
000002e0: ae71 ab33 aa41 0234 75c7 0033 2c21 1934
000002f0: 4490 1934 da28 6633 eeb3 b533 b21e 7033
00000300: 341f e833 6918 6f34 bfe0 0f34 a1b7 7c34
00000310: fef7 f633 c6a9 ff33 4881 0534 5624 8f33
00000320: 43a9 8d33 ddef 0834 f993 0834 fe8e dd33
00000330: b885 bf33 6606 9433 addf c633 6784 2834
00000340: 50b2 4434 b7e0 4434 c8ce 9133 3104 bc33
00000350: e170 0834 7548 2134 194e 2134 bf5e ff33
00000360: 3dc9 9433 1506 2a34 c9a7 f633 7b2c 0c34
00000370: a3e2 eb33 80a3 0c33 1302 bd33 e2bf a533
00000380: 5f98 f033 e3bf ae33 90a2 c133 2911 7033
00000390: ba39 0a34 10c8 c333 36fe 2d34 89ed 2833
000003a0: 9c7e e833 6b11 a333 8831 6334 9404 0934
000003b0: 6300 1f34 8bac e533 fd91 b933 4ad1 ba33
000003c0: bd00 1634 c471 4d34 d8d0 9a33 8eba c233
000003d0: 7f73 7733 8ff1 5e34 51f7 5e34 1d9a 8034
000003e0: ba41 8734 1988 8733 74ed 0834 ab2f 2434
000003f0: 1239 3b34 119e 5434 6a80 0034 bbce 3234
