trained_models/Sigma_25_t_1/checkpoints/checkpoint_5.pth (torch, 172332 bytes, 10 tensors)

conv_layer.conv_layers.0.parametrizations.weight.original f4 [8, 1, 7, 7]
0	0x3d438d9c	0.04774247
1	0x3daf2c67	0.08553391
2	0xbcfcfb89	-0.03088166
3	0x3e27ef89	0.16399969
4	0xbd39c5b4	-0.04535456
5	0x3c4d8bc1	0.012545527
6	0xbc7dd4a0	-0.015492588
7	0x3d4b309f	0.049606916
8	0x3db979f5	0.090564646
9	0xbddefca4	-0.10888031
10	0x3e1f2063	0.15539698
11	0x3d8b219e	0.06793521
12	0x3dea7b10	0.114492536
13	0xbc4de359	-0.012566411
14	0x3d2e28fc	0.042519554
15	0x3c86f7ec	0.01647564
16	0x3e22033e	0.1582155
17	0x3da4f45d	0.08054421
18	0xbd03cece	-0.032179646
19	0x3d4de882	0.050270565
20	0xbd4f25b5	-0.05057307
21	0xbcb6520c	-0.02225592
22	0xbd67d1e5	-0.056596655
23	0x3dcb7a63	0.09935453
24	0xbe8e8a39	-0.2783983
25	0xbd87ed18	-0.06637019
26	0xbd5ace34	-0.053419307
27	0xbd8ac595	-0.06775967
28	0x3c66ef8b	0.014095197
29	0xbdd07682	-0.101788536
30	0x3e04581c	0.12924236
31	0xbe182baf	-0.14860414
32	0x3e0cd549	0.13753237
33	0x3d8c9740	0.06864786
34	0xbbe34513	-0.0069357245
35	0x3d91726b	0.071019016
36	0x3d06a3de	0.03287112
37	0x3dbcc21e	0.092167124
38	0x3d7149df	0.05890834
39	0xbc56b356	-0.01310428
40	0x3cb68bd3	0.02228347
41	0xbbb7a7e3	-0.0056047305
42	0x3c087bbf	0.008330285
43	0x3d993585	0.07480911
44	0x3d7dbe2b	0.061948936
45	0xbd13f744	-0.036124483
46	0x3d8e4352	0.06946434
47	0x3c63bf91	0.013900653
48	0x3d5fbc3c	0.054622874
49	0xbd15f955	-0.036614735
50	0xbd96339e	-0.07334064
51	0xbc80dcc7	-0.015730275
52	0xbe255780	-0.1614666
53	0x3dbbc864	0.09169081
54	0x3cc9e11f	0.024643479
55	0x3cb9629e	0.022630032
56	0x3cdd2f41	0.027000071
57	0x3b906f31	0.0044077863
58	0x3dd1fee6	0.10253696
59	0xbe0985fb	-0.13430016
60	0xbd3cc550	-0.04608661
61	0xbe03a418	-0.12855566
62	0x3d170dfa	0.036878563
63	0xbd31747d	-0.043323983
64	0xbba25215	-0.0049536326
65	0xbd7cd39c	-0.061725244
66	0x3e1be22a	0.15222993
67	0xbca913c7	-0.020639313
68	0xbdbe7960	-0.09300494
69	0xbd220eed	-0.039565016
70	0x3e0f99f1	0.14023568
71	0x3dac31e6	0.08407955
72	0x3e241a48	0.1602565
73	0xbea30a46	-0.31843776
74	0xbe388b7f	-0.18021964
75	0xbe0a4d58	-0.13506067
76	0xbda3f513	-0.080057286
77	0x3d212a5e	0.039347045
78	0x3d0e5c44	0.03475596
79	0x3e1761de	0.14783427
80	0xbd086b0d	-0.033305217
81	0xbd36c87d	-0.044624794
82	0x3d9afb75	0.07567493
83	0xbcbb0ae0	-0.022832334
84	0x3d0eef81	0.034896377
85	0xbd0064bc	-0.031346068
86	0x3d8c8aa6	0.068623826
87	0xbda38aa6	-0.079854295
88	0x3b400b14	0.0029303478
89	0x3d0566a7	0.0325686
90	0x3cab4745	0.020908007
91	0xbd611299	-0.054949377
92	0x3d1e2f4f	0.038619336
93	0x3db5ce92	0.08877291
94	0xbd96567f	-0.073407166
95	0x3c024639	0.007951313
96	0x3da09d89	0.078425474
97	0xbce3a8e5	-0.027790496
98	0xbd1da80d	-0.038490344
99	0xbdda7c1f	-0.106682055
100	0xbddd084c	-0.10792598
101	0x3d1b5d2d	0.037930656
102	0xbcf68967	-0.030094815
103	0xbdb26a03	-0.087116264
104	0xbd489eb4	-0.048979476
105	0xbdb4f07b	-0.088349305
106	0xbdecc50b	-0.115610205
107	0xbd56c4f2	-0.052433915
108	0xbe2f1afd	-0.17100139
109	0xbd394add	-0.04523741
110	0x3dde8540	0.10865259
111	0x3c9bc15e	0.019013103
112	0x3c88074d	0.016605044
113	0xbc8f7ddc	-0.01751607
114	0xbe028360	-0.12745428
115	0xbd7b5a1b	-0.06136523
116	0x3d13f962	0.0361265
117	0xbe1a1941	-0.15048696
118	0xbd8ca6c3	-0.06867745
119	0xbdb9d934	-0.09074631
120	0x3cf6afdb	0.030113151
121	0xbdc15f9f	-0.094420664
122	0xbd8d0bfb	-0.06887051
123	0xbbbffe86	-0.005859199
124	0xbddede04	-0.1088219
125	0xbdb55842	-0.088547245
126	0xbd7f07ec	-0.062263414
127	0xbe26b711	-0.16280772
128	0x3de79033	0.11306801
129	0x3bcf8f30	0.006334208
130	0x3e491a73	0.19638996
131	0x3dadc6d8	0.08485192
132	0xbd9ec356	-0.07752101
133	0x3ca76b1a	0.020436812
134	0x3bc62ea3	0.00604804
135	0xbd0885f8	-0.033330888
136	0xbe1836e3	-0.14864688
137	0xbdbd0aea	-0.09230597
138	0x3d71be5d	0.059019435
139	0xbc7fae5b	-0.015605534
140	0xbc16cfd7	-0.009204826
141	0xbd8231fc	-0.0635719
142	0x3d5c54a2	0.05379165
143	0xbdbbd73f	-0.09171914
144	0xbcad2f93	-0.02114085
145	0x3bbe62dd	0.0058101253
146	0xbcd0325c	-0.025414638
147	0x3d3e0d63	0.046399485
148	0x3d748839	0.059700225
149	0xbe006beb	-0.12541167
150	0x3d2281f4	0.039674714
151	0xbd26e31d	-0.040743936
152	0xbb08e6b8	-0.0020889472
153	0xbd85a13a	-0.06524892
154	0x3d8c8282	0.0686083
155	0xbd98a652	-0.07453598
156	0x3d703b88	0.058650523
157	0x3dbd20fb	0.09234806
158	0x3d5486e9	0.051886473
159	0xbd06d08f	-0.03291374
160	0x3ddd6419	0.10810108
161	0x3c575d81	0.013144852
162	0x3a4de8b1	0.0007854803
163	0xbdf7adda	-0.120937064
164	0x3d774498	0.06036815
165	0xbcfb8f91	-0.030708106
166	0xbda9850f	-0.08277332
167	0x3e0cc84f	0.13748287
168	0xbc12b1b1	-0.008953498
169	0xbd878c7f	-0.066185944
170	0xbdd6cc3b	-0.104881726
171	0xbd6f33aa	-0.05839888
172	0x3da1e3f2	0.07904805
173	0xbcad6fe6	-0.021171521
174	0xbdb5e670	-0.08881843
175	0xb87c2605	-6.011689e-05
176	0xbdb0516d	-0.08609281
177	0x3db4fca0	0.08837247
178	0x3e1848d1	0.14871527
179	0xbe1a781c	-0.1508488
180	0x3d31e39f	0.043429967
181	0x3d9ceaa3	0.07661941
182	0xbbb8cc52	-0.0056395913
183	0xbd4c5fbc	-0.049895987
184	0x3d85ca85	0.06532768
185	0x3db521c7	0.08844333
186	0x3d80af33	0.062834166
187	0xbd0f0a22	-0.034921773
188	0xbcb244a4	-0.021761246
189	0xbb11f299	-0.0022269844
190	0x3c951f20	0.018203318
191	0xbc1031a7	-0.008800901
192	0x3da18495	0.07886616
193	0x3dc5b777	0.09654134
194	0x3bae77a0	0.005324319
195	0xbc9832f5	-0.018578986
196	0xbcb93991	-0.022610458
197	0xbc454231	-0.012039707
198	0x3c5f4b21	0.013628752
199	0x3d727133	0.059189986
200	0xbd4d74a9	-0.050160084
201	0xbcddc246	-0.027070176
202	0x3cf0a9be	0.029377814
203	0x3ceb7ff6	0.02874754
204	0xbc19f259	-0.009396159
205	0xbdbc953d	-0.092081524
206	0xbd6b0967	-0.057382014
207	0xbd9c1bba	-0.07622476
208	0xbd078533	-0.033086013
209	0xbc19fe7a	-0.009399051
210	0x3d9a22cf	0.075261705
211	0x3dde65c6	0.108592555
212	0xbdfd852c	-0.12378916
213	0xbde313e0	-0.11087775
214	0x3c0a13fd	0.008427617
215	0x3e20b4ff	0.15694045
216	0x3c475a25	0.012167488
217	0xbd253e5b	-0.04034267
218	0x3de73cd1	0.11290897
219	0xbe2331c0	-0.15936947
220	0xbead00f0	-0.33789778
221	0x3dfab05a	0.12240668
222	0xbd3373a5	-0.04381146
223	0x3c726d43	0.014796558
224	0xbe13beec	-0.144283
225	0x3d8f75d8	0.07004899
226	0x3e130c1e	0.14360091
227	0x3d331c5d	0.04372822
228	0xbe12c4b9	-0.14332856
229	0xbe071e0c	-0.13195056
230	0xbcfb45b6	-0.03067289
231	0x3d7f9550	0.062398255
232	0x3cead2bf	0.028664945
233	0x3dd13fd5	0.10217253
234	0x3d85dbf2	0.06536092
235	0xbc3e516c	-0.011616092
236	0xbc4c82bf	-0.012482344
237	0xbd3d4408	-0.046207458
238	0xbdda0208	-0.10644919
239	0xbde338e4	-0.110948354
240	0x3d153ce7	0.036435034
241	0xbddb9e17	-0.107235126
242	0xbc888992	-0.016667161
243	0xbd2cb9b2	-0.04216928
244	0xbc455c03	-0.012045863
245	0xbda7349a	-0.0816433
246	0xbd76e0a2	-0.06027282
247	0x3d6ee2f1	0.058321897
248	0xbd408689	-0.047003303
249	0x3dd3eb54	0.1034762
250	0xbd38457c	-0.04498814
251	0xbd6ec141	-0.05828977
252	0xbc085f75	-0.00832354
253	0xbda91379	-0.08255667
254	0xbd40c77b	-0.04706524
255	0xbde6e55b	-0.11274215

conv_layer.conv_layers.1.parametrizations.weight.original f4 [32, 8, 7, 7]
0	0x3c5c19ba	0.013433868
1	0x3cf6c272	0.030122016
2	0xbb3e4b80	-0.00290367
3	0xbd8097e4	-0.06278971
4	0xbcd76896	-0.026294988
5	0xbc422fd4	-0.011852223
6	0x3d4d452b	0.05011479
7	0x3d0d0beb	0.034435194
8	0xbccea3f2	-0.02522466
9	0x3b199629	0.002343545
10	0x3d830467	0.06397324
11	0xbc332c34	-0.010935832
12	0xbd0fb5f9	-0.035085652
13	0xbdd114ad	-0.10209022
14	0xbd9607bd	-0.07325695
15	0xbbae4077	-0.0053177434
16	0xbc8bf026	-0.017082285
17	0xbc57c08d	-0.013168466
18	0xbd5d6d07	-0.054059055
19	0x3d3ce9a5	0.04612126
20	0x3d3dc062	0.04632605
21	0x3d355ad1	0.044276062
22	0xbcabc261	-0.02096671
23	0xbd66376a	-0.05620519
24	0xbd9d2fbf	-0.076751225
25	0x3dc9faaa	0.098622635
26	0xbd0f9d36	-0.035062037
27	0xbd22d086	-0.039749645
28	0x3c83a2c9	0.016068833
29	0x3d93f240	0.0722394
30	0x3cd4057d	0.025881523
31	0x3e05722c	0.13031834
32	0xbd1e6650	-0.03867179
33	0xbd07b782	-0.03313399
34	0x3b744e03	0.0037277944
35	0x3d113fbf	0.035461184
36	0xbccb4951	-0.024815233
37	0xbdb1ba4e	-0.08678113
38	0x3e109c8e	0.14122221
39	0xbc4f599c	-0.012655642
40	0xbcf5c1db	-0.029999664
41	0xbbfbb1a3	-0.007681088
42	0xbce0744a	-0.027399201
43	0x3d617ca7	0.05505052
44	0x3ca5a6da	0.020221163
45	0xbd285d61	-0.041104678
46	0x3bcac0f0	0.0061875507
47	0xbc82a4b3	-0.015947675
48	0x3b5908c8	0.0033116806
49	0xbc6df68d	-0.014524114
50	0x3c9769a6	0.018482994
51	0x3c8c8312	0.017152343
52	0x3cbb69f8	0.022877678
53	0xbd9c3b28	-0.07628471
54	0x3c4cd76d	0.012502533
55	0x3d099e52	0.03359825
56	0x3c0b7343	0.008511367
57	0xbd480584	-0.048833385
58	0x3c059a81	0.008154512
59	0x3d2258b9	0.039635394
60	0xbdff0767	-0.12452584
61	0x3d23c536	0.039982997
62	0x3c845190	0.016152173
63	0xbd1fbc47	-0.038997915
64	0x3cf0c38c	0.029390119
65	0x3d8a6102	0.06756784
66	0xbd1d9692	-0.038473673
67	0x3cb26cfc	0.021780483
68	0x3daa1b39	0.083059736
69	0xbc753d13	-0.0149681745
70	0x3cafb871	0.021450253
71	0xbd191d67	-0.037381556
72	0xb9bb819b	-0.00035763983
73	0xbd9926cf	-0.07478105
74	0xbd2f09de	-0.04273402
75	0x3acf3d5c	0.0015811133
76	0x3c14201e	0.00904086
77	0x3c3d683c	0.011560496
78	0xbd0cb0cf	-0.034348305
79	0x3c41e166	0.011833524
80	0x3daad292	0.08340944
81	0xbc21a162	-0.009865137
82	0x3bdb1620	0.006685987
83	0x3cfe9914	0.031078853
84	0xbce60cc1	-0.028082253
85	0x3d488181	0.04895163
86	0x3ace02c4	0.0015717377
87	0xbd257b92	-0.04040105
88	0x3d237628	0.039907604
89	0xbd341a9a	-0.04397068
90	0x3b3c737a	0.0028755353
91	0x3b1c72b1	0.0023872072
92	0xbdac1fc1	-0.08404494
93	0xbcbb6cd2	-0.022879038
94	0xbcc2a441	-0.023759963
95	0x3d323542	0.04350782
96	0x3bfa8238	0.007644918
97	0x3b4eb2d5	0.0031539698
98	0xbd0698b6	-0.03286048
99	0x3c39416a	0.0113071
100	0x3d66918d	0.05629115
101	0xbbcee38d	-0.0063137473
102	0xbbf5e6fb	-0.0075043417
103	0xbd47d31b	-0.04878531
104	0xb9e130e9	-0.00042951785
105	0x3dc67c26	0.09691648
106	0xbc804945	-0.015659938
107	0xbd9e8c72	-0.077416316
108	0xbd0e8fcf	-0.034805115
109	0xbd59e21d	-0.053194154
110	0x3d9b057a	0.07569404
111	0x3c56d48f	0.013112201
112	0x3c923f87	0.017852558
113	0x3be5a189	0.007007782
114	0xbd83f427	-0.06443053
115	0xbc861638	-0.016368017
116	0xbd620a0a	-0.055185355
117	0x3c239be7	0.0099859005
118	0x3c309636	0.010778001
119	0x39fe125f	0.00048460343
120	0xbca61c41	-0.020277144
121	0x3c424f53	0.011859733
122	0x3c3b7ec1	0.011443795
123	0xbd179cf7	-0.037014928
124	0xbc365b6f	-0.011130198
125	0x3d06f82e	0.032951526
126	0x3d1faf45	0.03898551
127	0xbd13b957	-0.036065426
128	0x3dba8ddf	0.09109091
129	0xbc29952f	-0.01035051
130	0xbccf086d	-0.025272572
131	0xbc01970c	-0.007909548
132	0x3d209c9e	0.03921186
133	0xbd3415f8	-0.043966264
134	0xbbc41be2	-0.005984769
135	0x3cf5cd75	0.030005196
136	0xbcd142ed	-0.025544608
137	0x3d55828c	0.052126452
138	0x3d5a6226	0.053316258
139	0xbd02ba23	-0.031915795
140	0x3c8ec12d	0.017426098
141	0x3c7e2447	0.015511579
142	0x3d542a2d	0.051798034
143	0xbcc33946	-0.023831021
144	0xbc0b2eda	-0.008495057
145	0xbcf1ed9d	-0.029532248
146	0x3d0ed731	0.03487319
147	0xbca9fa1d	-0.020749146
148	0xbcb72127	-0.022354675
149	0xbd3e4b62	-0.04645861
150	0x3d8f608f	0.07000839
151	0x3c0cfdea	0.00860546
152	0x3c5ee8a8	0.013605274
153	0xbbcb87e6	-0.0062112687
154	0xbd1e7905	-0.038689632
155	0x3c677b91	0.014128582
156	0x3d6bd8fd	0.057579983
157	0xbc22446c	-0.009904008
158	0xbc0e3414	-0.008679409
159	0x3caaf2e5	0.020867774
160	0x3ca98118	0.02069144
161	0x3d09c95c	0.033639297
162	0x3bafcc05	0.005364897
163	0xbc51161f	-0.012761622
164	0xbd145e51	-0.03622276
165	0x3be2d3ed	0.006922236
166	0x3cb638fa	0.022243965
167	0xbb6f2199	-0.0036488532
168	0x3c4a916a	0.012363771
169	0x3d21353b	0.039357405
170	0x3d8a8786	0.0676413
171	0xbe00e5e9	-0.12587704
172	0xbd7036c7	-0.05864599
173	0xbc8d1ed8	-0.017226622
174	0x3d0402d5	0.032229263
175	0x3c15cafa	0.009142632
176	0xbce7286e	-0.02821752
177	0xbdb130d6	-0.08651893
178	0x3cb8c4f0	0.022554845
179	0xbd34a67c	-0.044104084
180	0x3cd30bd8	0.025762483
181	0xbc5829a0	-0.013193518
182	0xbbc9414f	-0.0061418186
183	0xbce398e8	-0.027782872
184	0x3aa0f829	0.0012280989
185	0x3d57bb54	0.052668884
186	0xbd61ade7	-0.055097487
187	0xbbf21517	-0.007387768
188	0xbc8ca457	-0.017168207
189	0x3cba32a4	0.022729225
190	0x3c276b8e	0.010218514
191	0x3afe69f8	0.0019410243
192	0x3b9fac57	0.0048728394
193	0xbd4f5317	-0.05061635
194	0xbbb03b53	-0.0053781657
195	0x3c3233ce	0.010876609
196	0x3c492528	0.012276925
197	0xbcba4c62	-0.0227415
198	0x3c0fa056	0.008766254
199	0x3ce544ad	0.027986849
200	0xbceadda2	-0.028670136
201	0xbac62c39	-0.001511938
202	0x3ca21cb7	0.019789083
203	0xbd1bac56	-0.03800615
204	0x3c7d43f7	0.015458099
205	0x3ca6a67a	0.020343054
206	0x3c9cf11c	0.019157939
207	0xbcd9a2fa	-0.026566971
208	0xbb4aeac1	-0.0030962678
209	0xbc20c1f6	-0.009811869
210	0x3d0aa3e1	0.033847693
211	0x3bd1fbbe	0.006408184
212	0x3c0c9282	0.008579852
213	0xbd947ce7	-0.07250386
214	0xbca7f7d4	-0.020503916
215	0x3c9e5fe6	0.019332837
216	0x3d5dd804	0.054161087
217	0xbb82ca21	-0.003991381
218	0x3d60c452	0.054874726
219	0xbd07e85d	-0.033180583
220	0xbe44333c	-0.1916017
221	0x3e287631	0.16451336
222	0x3cef730d	0.029229665
223	0x3cb05f33	0.02152977
224	0x3bc09741	0.005877406
225	0xbd50caed	-0.050974775
226	0x3d38a528	0.04507938
227	0x3d9de1a1	0.07709051
228	0xbd836cb7	-0.0641722
229	0x3caef577	0.021357281
230	0xbb194f6a	-0.0023393282
231	0x3cb5930d	0.022164846
232	0xbb9a1d99	-0.0047032353
233	0xbcf9a1d2	-0.03047267
234	0x3d03af02	0.032149322
235	0x3c7578f5	0.014982452
236	0xbd4646e6	-0.048407458
237	0x3c11a429	0.0088892365
238	0xbc068a63	-0.008211705
239	0x3c1af59e	0.009457974
240	0x3a341728	0.00068699056
241	0x3c990b20	0.018682063
242	0xbd4e20fc	-0.050324425
243	0x3c913793	0.017726695
244	0x3ba8af6f	0.0051478664
245	0x3bee2037	0.007267024
246	0x3c8df476	0.017328482
247	0xbb912cdd	-0.004430397
248	0xbd07ede0	-0.03318584
249	0x3d14e694	0.03635271
250	0x3c36e91f	0.011163979
251	0xbb59e532	-0.0033248183
252	0xbc71cad1	-0.014757828
253	0xbd0f58af	-0.034996685
254	0xbd133c23	-0.035946023
255	0x3bf2bf7a	0.0074080797

activation.coefficients_vect f4 [672]
0	0x80000000	-0.0
1	0xb7d0d241	-2.489344e-05
2	0xb8332ae0	-4.2716856e-05
3	0xb8942486	-7.063993e-05
4	0xb8af903a	-8.3715146e-05
5	0xb8ca31ed	-9.64141e-05
6	0xb8cac75a	-9.669243e-05
7	0xb8d2610d	-0.000100316574
8	0xb8e0c04e	-0.00010716972
9	0xba03f84e	-0.00050342537
10	0x375024da	1.2406346e-05
11	0x3a0553f9	0.000508606
12	0x38efc030	0.00011432206
13	0x38e8f559	0.000111083216
14	0x38e7f304	0.000110602035
15	0x38d5eb66	0.00010200478
16	0x38d2bf23	0.00010049182
17	0x38cefe5c	9.8702236e-05
18	0x38c0ab33	9.187162e-05
19	0x38bf0b6f	9.1097194e-05
20	0x00000000	0.0
21	0x80000000	-0.0
22	0xb84f0bc7	-4.9363614e-05
23	0xb8a0dfe9	-7.671101e-05
24	0xb8c78f69	-9.515772e-05
25	0xb8f26ed2	-0.00011560101
26	0xb9102a7b	-0.00013748735
27	0xb9196a16	-0.00014630737
28	0xb933f05a	-0.00017160308
29	0xb9481406	-0.00019080946
30	0xb9ae3390	-0.00033226283
31	0xb8193568	-3.652778e-05
32	0x398f3e7d	0.00027321643
33	0x39765ef4	0.00023495761
34	0x3928903a	0.00016075457
35	0xb843a04d	-4.6640915e-05
36	0xb9379970	-0.000175094
37	0xb99d3879	-0.0002998745
38	0xb9d3b4b7	-0.000403797
39	0xb9dc44c6	-0.0004201291
40	0xba6c33be	-0.0009010396
41	0x00000000	0.0
42	0x80000000	-0.0
43	0x3ad5da0b	0.0016315592
44	0x3aa9e103	0.0012960735
45	0x39e12778	0.0004294475
46	0x39493d9e	0.00019191808
47	0x38b07279	8.413656e-05
48	0x37343b5a	1.0742655e-05
49	0xb70e8e38	-8.496972e-06
50	0xb8d73878	-0.00010262517
51	0xb941436e	-0.00018431034
52	0xb6b75c67	-5.464582e-06
53	0x392d203d	0.00016510575
54	0xb6cc54fc	-6.0895673e-06
55	0xb88a5eff	-6.598047e-05
56	0xb93e159f	-0.00018127866
57	0xba4b03f8	-0.0007744427
58	0xba6e86cd	-0.00090990664
59	0xba7ae76a	-0.00095712265
60	0xba7c763e	-0.00096306566
61	0xba929349	-0.001118281
62	0x00000000	0.0
63	0x80000000	-0.0
64	0x3a933d2c	0.0011233441
65	0x3a836c3e	0.0010026766
66	0x3a174abd	0.000577133
67	0x3a0568d4	0.0005089168
68	0x3937a911	0.00017515222
69	0x38fbd098	0.00012007466
70	0x3759cac0	1.2981414e-05
71	0xb9267f2c	-0.00015878369
72	0xb9853ce8	-0.00025413116
73	0xb86e0d12	-5.6755795e-05
74	0x395450a9	0.00020247944
75	0x386d2d28	5.654726e-05
76	0x37bd3032	2.2552998e-05
77	0xb6fde8a6	-7.5670714e-06
78	0xb772f5c8	-1.4481549e-05
79	0xb9b3c838	-0.00034290715
80	0xb9e31cbe	-0.0004331823
81	0xba1c8517	-0.00059707597
82	0xba847c8e	-0.0010107921
83	0x00000000	0.0
84	0x80000000	-0.0
85	0x3b12276f	0.0022301336
86	0x3ac9519d	0.0015359406
87	0x3abc0498	0.0014344631
88	0x3a6d7f28	0.000905978
89	0x3a584d07	0.0008251224
90	0x3a1963ca	0.00058513565
91	0x3984659b	0.00025252704
92	0x380f5b71	3.417902e-05
93	0xb8e94e79	-0.000111249225
94	0xb80d85a9	-3.37415e-05
95	0x3874643e	5.826749e-05
96	0xb954a892	-0.00020280693
97	0xb9867607	-0.0002564641
98	0xba356249	-0.00069192477
99	0xba60b632	-0.0008572071
100	0xba8b1ed8	-0.001061405
101	0xbaf9c2ab	-0.0019055208
102	0xbb09976b	-0.0020994793
103	0xbb51f551	-0.003203709
104	0x00000000	0.0
105	0x80000000	-0.0
106	0x392962eb	0.00016153946
107	0x390d5f8d	0.00013482403
108	0x38d32633	0.00010068379
109	0x38afdd2f	8.385849e-05
110	0x3888676f	6.504251e-05
111	0x381d6705	3.752766e-05
112	0x3691f96c	4.3503733e-06
113	0xb7ef431c	-2.852227e-05
114	0xb9647949	-0.00021788957
115	0x3896a69f	7.183593e-05
116	0x39bcdbca	0.0003602191
117	0x3869c7b4	5.5737517e-05
118	0x380d5cf9	3.3703607e-05
119	0x380b3e41	3.319816e-05
120	0x37c4b880	2.3450935e-05
121	0x3799318e	1.8262097e-05
122	0x376d3bee	1.4140254e-05
123	0x370c78fc	8.372819e-06
124	0x36f7f544	7.3897263e-06
125	0x00000000	0.0
126	0x80000000	-0.0
127	0xb86db8a9	-5.667718e-05
128	0xb8e5bf42	-0.000109551955
129	0xb8eb1124	-0.00011208866
130	0xb8fa99bd	-0.00011949565
131	0xb9016dcd	-0.00012343303
132	0xb99d6e49	-0.00030027542
133	0xb9c2689e	-0.0003708051
134	0xbb1c2708	-0.0023826975
135	0xba9fa148	-0.0012178803
136	0xb85d6e82	-5.2793424e-05
137	0x3a90ead9	0.0011056318
138	0x3b148dca	0.002266752
139	0x38effac4	0.00011443117
140	0x38ea363b	0.00011168091
141	0x38d9c174	0.000103834
142	0x38d569fc	0.000101763726
143	0x38d1894a	9.991469e-05
144	0x38ad6098	8.267275e-05
145	0x38a040aa	7.641439e-05
146	0x00000000	0.0
147	0x80000000	-0.0
148	0xb7ee783a	-2.8427796e-05
149	0xb8c1e916	-9.246373e-05
150	0xb8c5679b	-9.41299e-05
151	0xb8ca7f82	-9.655861e-05
152	0xb8cc9163	-9.7545584e-05
153	0xb8ce4c98	-9.837112e-05
154	0xb8d58304	-0.00010181035
155	0xb8db77aa	-0.00010465023
156	0xb920097e	-0.00015262325
157	0x38e22101	0.00010782667
158	0xb8ef2d8c	-0.00011404892
159	0xb9345024	-0.00017195992
160	0xb948a3b4	-0.0001913447
161	0xb9b1d092	-0.00033915468
162	0xba06b2af	-0.000513832
163	0xba0da351	-0.0005403059
164	0xba397fb9	-0.0007076222
165	0xba544daf	-0.0008098734
166	0xba8dfbad	-0.0010832452
167	0x00000000	0.0
168	0x80000000	-0.0
169	0xb831da15	-4.2403193e-05
170	0xb8b2ef1e	-8.5322405e-05
171	0xb8bf2b46	-9.11565e-05
172	0xb8c13507	-9.212834e-05
173	0xb8c736b8	-9.4992516e-05
174	0xb8e339c4	-0.00010834963
175	0xb8f6116e	-0.000117334406
176	0xb907d37d	-0.00012953389
177	0xba3307e2	-0.0006829483
178	0xb9c387f3	-0.00037294588
179	0x3835912b	4.328896e-05
180	0x3a1eff82	0.00060652953
181	0x397aae88	0.00023906876
182	0x39644163	0.00021768133
183	0x39488aa6	0.00019125137
184	0x3941e8e1	0.00018492668
185	0x3927f0b3	0.00016016029
186	0x38a4af27	7.852754e-05
187	0xb7feee79	-3.0390207e-05
188	0x00000000	0.0
189	0x80000000	-0.0
190	0x3a3cf336	0.0007207872
191	0x39e07020	0.0004280815
192	0x39bd2844	0.0003607889
193	0x39b4fcad	0.00034520534
194	0x39b25f17	0.00034021653
195	0x3910b64b	0.0001380082
196	0xb818668d	-3.6335132e-05
197	0xb847d23d	-4.7641097e-05
198	0xb91df83c	-0.00015065161
199	0x37f75d9c	2.9488285e-05
200	0x3956e19d	0.00020492678
201	0x388fd015	6.85753e-05
202	0x38621867	5.3905325e-05
203	0x384fc9fd	4.9540762e-05
204	0x38185f70	3.6328507e-05
205	0x38182c7c	3.6281053e-05
206	0x37ef9821	2.856186e-05
207	0xb79a50ae	-1.83958e-05
208	0xb7c0eb11	-2.2997645e-05
209	0x00000000	0.0
210	0x80000000	-0.0
211	0x39a937e3	0.0003227583
212	0x399bb51b	0.00029698838
213	0x3987516d	0.00025809873
214	0x397011d3	0.00022894824
215	0x39287ac7	0.00016067467
216	0x37b6a9ad	2.1775102e-05
217	0xb842f26b	-4.6478974e-05
218	0xb8bfe34b	-9.149926e-05
219	0xb9532654	-0.00020136806
220	0xb707b6c8	-8.089184e-06
221	0x3947b8c4	0.0001904695
222	0x392889b2	0.00016073024
223	0x389ba33d	7.4213815e-05
224	0xb939f58a	-0.00017734445
225	0xb97e2202	-0.00024235997
226	0xb9bfb709	-0.0003656673
227	0xb9cc3039	-0.0003894584
228	0xba0925fc	-0.00052317954
229	0xba139193	-0.0005629297
230	0x00000000	0.0
231	0x80000000	-0.0
232	0xb8d1b4e6	-9.9995916e-05
233	0xb9079086	-0.00012928442
234	0xb9120285	-0.00013924584
235	0xb918f6e2	-0.0001458782
236	0xb922db9f	-0.00015531339
237	0xb924d8a4	-0.00015720964
238	0xb9bacdfe	-0.0003563016
239	0xb9f16bcb	-0.00046047414
240	0xb8deb33f	-0.00010619172
241	0x394e6902	0.0001968481
242	0x3925fbe4	0.00015829463
243	0x38de04ac	0.00010586655
244	0x38d2dc47	0.0001005461
245	0x38c1d308	9.242265e-05
246	0x38b1b405	8.473549e-05
247	0x38673b18	5.5129727e-05
248	0x3839b476	4.4275504e-05
249	0x38104ac1	3.4401895e-05
250	0x3802cc2b	3.118456e-05
251	0x00000000	0.0
252	0x80000000	-0.0
253	0x38cf784b	9.8929355e-05
254	0x38b0c6d5	8.429369e-05
255	0x3871cd0a	5.7649835e-05

u f4 [1, 1, 20, 20]
0	0xbad711ec	-0.0016408539
1	0xbad28e4c	-0.0016064136
2	0x3b2cceab	0.00263683
3	0x3bc79ee9	0.0060919416
4	0xbacfbd70	-0.0015849303
5	0xbbab6c05	-0.005231383
6	0xbb74cf04	-0.0037354836
7	0x3b95cd0c	0.0045715626
8	0x3b39636e	0.0028288024
9	0xba808080	-0.0009803921
10	0xbba78a8e	-0.0051129526
11	0xba1d3300	-0.00059966743
12	0x3aab3b5c	0.0013063955
13	0x3b124e77	0.00223246
14	0xba16523c	-0.00057343
15	0xb96c1410	-0.00022514188
16	0xba0c0bbc	-0.0005342325
17	0x394ffd9c	0.00019835535
18	0xb8d958a0	-0.00010363874
19	0x38f70ff4	0.00011780849
20	0xba58bddc	-0.00082680373
21	0xbb51acd8	-0.0031993892
22	0x37a286c0	1.9374653e-05
23	0x3be1dc1c	0.006892694
24	0x397251f0	0.00023109443
25	0xbbc22b04	-0.005925538
26	0xbbc8df99	-0.0061301705
27	0x3bbb9dd4	0.0057256017
28	0x3bce0f8c	0.0062884744
29	0xb98fd56a	-0.0002743409
30	0xbc0c0a5e	-0.008547394
31	0xbb26d2fc	-0.0025455346
32	0x3b5fff3e	0.0034179236
33	0x3ba6ea48	0.0050938465
34	0xba83df90	-0.0010061134
35	0xbb1bfe38	-0.002380265
36	0xbabcf23a	-0.0014415451
37	0x3a603cec	0.0008554
38	0x39d19c98	0.00039980258
39	0x39002fe9	0.00012224879
40	0x3a44205c	0.00074816286
41	0xbb0feba8	-0.002196053
42	0xbb3424f2	-0.0027487841
43	0x3bbe3269	0.005804349
44	0x3a7a1fe4	0.0009541495
45	0xbb6702f2	-0.0035249558
46	0xbbe0dfa2	-0.0068625966
47	0x3bd906fc	0.006623147
48	0x3bf40685	0.0074470663
49	0x3abd9990	0.0014465321
50	0xbc2db5a7	-0.010602391
51	0xbb50af63	-0.003184282
52	0x3b9985c5	0.004685136
53	0x3c04e8d2	0.008112149
54	0xbad1d7a9	-0.0016009706
55	0xbb8d6e72	-0.0043161446
56	0xbb2ed814	-0.0026679086
57	0x3af9f3e3	0.0019069876
58	0x3a84fc93	0.0010146074
59	0x38276d70	3.9917824e-05
60	0x3b8d0cda	0.0043045105
61	0xb901b2e8	-0.00012369046
62	0xbc015cf7	-0.0078957
63	0x3a1586c8	0.0005703983
64	0x3b3a581d	0.0028433867
65	0x3b61d354	0.0034458237
66	0xbba6dba4	-0.005092101
67	0x3b429754	0.002969225
68	0x3b9a3df7	0.004707094
69	0x3b811c0f	0.0039401124
70	0xbc027182	-0.007961633
71	0xbb4989e2	-0.003075235
72	0x3b728ef8	0.0037011486
73	0x3c0efe21	0.008727581
74	0xbab59845	-0.0013854584
75	0xbbae4def	-0.005319349
76	0xbb6cf5b2	-0.0036157188
77	0x3b1d7546	0.00240262
78	0x3ad78637	0.0016443197
79	0x3820d046	3.8340942e-05
80	0x3bed0bb2	0.00723406
81	0x3b90fe67	0.0044248584
82	0xbc44bc8a	-0.012007842
83	0xbbf2d0b5	-0.0074101337
84	0x3ae9c754	0.0017835894
85	0x3c5160ca	0.012779424
86	0xba38c880	-0.000704892
87	0xbb34b236	-0.0027572042
88	0xbb725b8f	-0.0036980843
89	0x3bbe9014	0.0058155153
90	0xbabc7c58	-0.0014380319
91	0xba1cb60c	-0.0005978055
92	0xba2e4f74	-0.00066494127
93	0x3bc2791b	0.005934847
94	0xba6531e8	-0.00087430933
95	0xbb6b5e94	-0.0035914527
96	0xbb718968	-0.0036855582
97	0x3b0faf22	0.0021924456
98	0x3ac01212	0.0014653823
99	0x38b4ae47	8.6155305e-05
100	0x3c04092e	0.008058829
101	0x3c08530c	0.008320581
102	0xbc5a8b5c	-0.01333889
103	0xbc666ed8	-0.014064513
104	0xba83d3eb	-0.0010057663
105	0x3ca43742	0.02004588
106	0x3ba083f6	0.0048985435
107	0xbc046131	-0.008079813
108	0xbc64005a	-0.013916099
109	0x3bba3db1	0.0056836237
110	0x3be11b9c	0.0068697464
111	0x3b72ee40	0.0037068278
112	0xbbccafba	-0.006246534
113	0xb7db0980	-2.6111258e-05
114	0xb9f320da	-0.00046373048
115	0x39a8ab2c	0.0003217099
116	0xbb1942f2	-0.002338585
117	0x3ab081ba	0.0013466396
118	0x3a25bba8	0.00063222134
119	0x38d205dc	0.00010014672
120	0x3bbbb30c	0.005728131
121	0x3c2da14e	0.01059754
122	0xbc3269b0	-0.010889456
123	0xbc84b2c8	-0.01619853
124	0xbbb59bd6	-0.0055422587
125	0x3cbb29ea	0.022847135
126	0x3c2294d6	0.009923181
127	0xbc216f6d	-0.009853226
128	0xbcbc9fca	-0.023025412
129	0x3b6eb4d8	0.003642371
130	0x3c690078	0.014221303
131	0x3c202428	0.009774245
132	0xbc3b459a	-0.0114301685
133	0xbbfb11e5	-0.0076620453
134	0xba503a39	-0.0007943246
135	0x3bc7ca70	0.0060971305
136	0x39b86148	0.00035167695
137	0xb87a62c0	-5.9696613e-05
138	0xba8e7cc2	-0.0010870921
139	0x38ef9604	0.00011424351
140	0x3a4c5a30	0.00077954214
141	0x3c1d2c40	0.00959307
142	0xbbac7825	-0.005263346
143	0xbc3e7178	-0.011623733
144	0xbc179f38	-0.009254269
145	0x3c99d8d1	0.018780144
146	0x3c3eb0e2	0.011638852
147	0xbbe1f341	-0.006895453
148	0xbcd5d328	-0.026101664
149	0x39868c18	0.0002566285
150	0x3c8d2de5	0.017233798
151	0x3c785637	0.015157274
152	0xbc5b518c	-0.0133861415
153	0xbc668812	-0.014070528
154	0xbb03999a	-0.0020080567
155	0x3c3be1b1	0.011467383
156	0x3b7dc833	0.0038724064
157	0xbac2163a	-0.001480765
158	0xbb50dd5a	-0.0031870217
159	0x3834d450	4.3113076e-05
160	0xbbaa69c5	-0.005200597
161	0x3bcd8b15	0.0062726834
162	0x3a9dd513	0.001204165
163	0xbada15ae	-0.0016638541
164	0xbc2dec39	-0.010615402
165	0x3c1b8f10	0.009494558
166	0x3c098820	0.008394271
167	0xb93bc544	-0.00017907197
168	0xbcb03688	-0.021510378
169	0xbb1e09a4	-0.0024114633
170	0x3c6377b4	0.01388352
171	0x3c8e36ca	0.01736011
172	0xbc395242	-0.011311116
173	0xbc821258	-0.015877888
174	0xbb75642c	-0.003744374
175	0x3c67635c	0.01412281
176	0x3bd8950e	0.0066095656
177	0xbb0a49a6	-0.0021101027
178	0xbb9c1483	-0.0047631874
179	0xb8850b12	-6.343996e-05
180	0xbc2a76d2	-0.0104043055
181	0x3aea64bf	0.0017882808
182	0x3bd57d1c	0.0065151583
183	0x3c2b1942	0.010443034
184	0xbc11f016	-0.008907339
185	0xbb0a0fe4	-0.00210666
186	0x3a331360	0.0006831195
187	0x3bfa5706	0.0076397685
188	0xbc28be01	-0.010299207
189	0xbb50e2ba	-0.003187342
190	0x3b9fdbe2	0.004878507
191	0x3c724ec2	0.014789285
192	0xbbbe27ce	-0.005803085
193	0xbc443b4a	-0.011977026
194	0xbbad990c	-0.0052977856
195	0x3c4e37b8	0.012586527
196	0x3bf2fb0e	0.007415182
197	0xbad5faf4	-0.00163254
198	0xbba8a9c8	-0.0051471926
199	0xb932a5a7	-0.00017037113
200	0xbc588848	-0.013216086
201	0xbb06519e	-0.0020495425
202	0x3c117251	0.008877353
203	0x3ca6c89e	0.020359334
204	0xbba05896	-0.0048933728
205	0xbc41d5ec	-0.011830788
206	0xbc17638a	-0.009240041
207	0x3c59f454	0.013302881
208	0x3b63252c	0.0034659607
209	0xbaa6a8b4	-0.0012715072
210	0xbbdf3a32	-0.0068123573
211	0x3bf9c582	0.0076224217
212	0x3a244f0c	0.00062678824
213	0xbb57906e	-0.0032892483
214	0xbbbef325	-0.005827325
215	0x3be93c62	0.007117794
216	0x3bb368d0	0.005475141
217	0xb934fb20	-0.00017259689
218	0xbb83e390	-0.0040249303
219	0xb9445238	-0.00018722645
220	0xbc53a51a	-0.012917781
221	0xbb77d73a	-0.0037817494
222	0x3c04150a	0.008061657
223	0x3cc9ad08	0.02461864
224	0xba0a51a9	-0.00052764505
225	0xbc875826	-0.016521525
226	0xbc908314	-0.017640628
227	0x3c727838	0.01479917
228	0x3c709422	0.014683755
229	0x3b286a77	0.0025698224
230	0xbc8a27e6	-0.016864728
231	0xbae96824	-0.0017807526
232	0x3baf7160	0.0053540915
233	0x3be6d4d4	0.007044414
234	0xbb9dc7f9	-0.0048150984
235	0xb9bb434e	-0.00035717565
236	0x3a9d41df	0.001199778
237	0x3ad40724	0.0016176444
238	0xbadc0478	-0.0016786
239	0xb8070144	-3.2187687e-05
240	0xbc23749a	-0.00997653
241	0xbb4d0892	-0.0031285626
242	0x3b9dba26	0.0048134504
243	0x3cb699f0	0.0222902
244	0x3b2316b2	0.0024885354
245	0xbc781076	-0.015140643
246	0xbcb0e44c	-0.021593235
247	0x3c45da36	0.012075951
248	0x3ca1e47a	0.019762266
249	0x3be4083a	0.0069589885
250	0xbcb2b556	-0.021814983
251	0xbc2510ba	-0.010074789
252	0x3bddbe92	0.0067671025
253	0x3c7ea166	0.01554141
254	0xbb1a0d44	-0.0023506442
255	0xbbe821dc	-0.0070841145

exp_avg f4 [8, 1, 7, 7]
0	0xbe527074	-0.2055071
1	0xbe91d283	-0.2848092
2	0xbe7c4ce5	-0.24638708
3	0xbd8643dc	-0.06555912
4	0x3d2e4e56	0.042555176
5	0xbdb5a23d	-0.08868835
6	0xbe7c82a0	-0.24659204
7	0xbdf965e0	-0.12177634
8	0xbdf54abc	-0.11977145
9	0xbe651627	-0.22371732
10	0xbde7875c	-0.113051146
11	0x3d10092b	0.035164993
12	0x3d3df9a0	0.04638064
13	0xbe0f999c	-0.14023441
14	0xbdf8890c	-0.121355146
15	0x3d9e6894	0.077347904
16	0xbe05d303	-0.13068776
17	0xbe4f6cfa	-0.20256415
18	0x3e1317ff	0.14364623
19	0x3e0672ac	0.13129681
20	0x3dd54ee7	0.1041544
21	0x3d2cbf05	0.042174358
22	0x3e2e75a0	0.17037058
23	0xbc6a23a0	-0.01429072
24	0xbdafc295	-0.085820355
25	0x3d6dc5a6	0.05804982
26	0x3e381eb3	0.17980461
27	0x3e8bb6c7	0.27287886
28	0x3d71a1ab	0.05899207
29	0x3e1517bc	0.14559835
30	0x3e44d068	0.19220126
31	0xbe282e9a	-0.16424027
32	0xbbf2be7e	-0.0074079623
33	0x3e38a648	0.18032181
34	0x3e60893f	0.21927355
35	0xbda115ff	-0.078655235
36	0x3e2f3fb5	0.17114146
37	0x3e7084d2	0.23488167
38	0xbda52076	-0.08062832
39	0xbd13cf96	-0.03608664
40	0x3e21febb	0.15819828
41	0x3e64ca47	0.22342788
42	0xbe6379f6	-0.22214493
43	0x3d6198f0	0.055077493
44	0x3dd4cc0b	0.103904806
45	0xbd28130f	-0.0410338
46	0xbe2fcc28	-0.17167723
47	0x3d15dc2f	0.036586937
48	0x3e045b92	0.12925556
49	0x3ca692ca	0.020333666
50	0xbdbf25e2	-0.093333974
51	0xbd95450c	-0.0728856
52	0xbd297851	-0.04137451
53	0x3d5e04c9	0.054203782
54	0x3ce8a2b2	0.028397892
55	0xbcd419f6	-0.025891285
56	0x3d9b3b58	0.07579678
57	0x3d197df1	0.037473623
58	0xbe03ff05	-0.12890251
59	0xbd72f645	-0.059316892
60	0x3da0819f	0.07837223
61	0x3d9b509c	0.075837344
62	0x3d83b7a1	0.06431509
63	0xbd84ec36	-0.06490366
64	0x3d87c4d6	0.0662934
65	0x3c94fe8c	0.018187784
66	0xbe743671	-0.23848893
67	0x3d9abf6a	0.075560406
68	0x3e578fda	0.21050969
69	0x3df03d08	0.11730391
70	0x3d63f608	0.055654556
71	0x3db1dd0e	0.08684741
72	0xbd65e525	-0.056126732
73	0xbdb97f20	-0.0905745
74	0xbda59cc8	-0.08086544
75	0x3e0559d4	0.13022548
76	0x3e84d704	0.25945294
77	0xbd67acc8	-0.05656126
78	0x3d55c7ab	0.05219237
79	0x3d61124a	0.054949082
80	0xbe7cf74c	-0.24703711
81	0xbd4774c5	-0.048695344
82	0x3daa86a2	0.083264604
83	0x3e315097	0.17315899
84	0xbe037da9	-0.12840904
85	0x3d0754e7	0.033039954
86	0x3dd968e0	0.106157064
87	0xbe126414	-0.1429599
88	0xbe014301	-0.12623216
89	0x3d32738e	0.043567233
90	0x3e1b8b0d	0.15189762
91	0xbe2f7471	-0.17134263
92	0xbdb4de07	-0.08831411
93	0x3c7afee2	0.015319558
94	0xbd72d08e	-0.059280924
95	0xbe1df6d2	-0.15426186
96	0xbda61c87	-0.0811091
97	0x3db55c4e	0.08855496
98	0x3db2a312	0.087225094
99	0x3e09447a	0.13405028
100	0x3ddcd4a4	0.107827455
101	0x3b02ffd7	0.0019988918
102	0x3d89af3b	0.06722876
103	0x3cd50952	0.02600542
104	0xb9aa6ba8	-0.00032505137
105	0x3e27acde	0.16374537
106	0x3dfd9a31	0.12382925
107	0x3df7dcc2	0.12102653
108	0x3d4e593e	0.050378077
109	0x3d0eadde	0.03483378
110	0x3ce28ec1	0.027655961
111	0x3d569bfc	0.052394852
112	0x3d87b5c4	0.06626466
113	0x3de65553	0.11246743
114	0x3d94f7b6	0.072738096
115	0x3d311d17	0.043240633
116	0xbae31434	-0.0017324747
117	0xbd05f6c4	-0.032706037
118	0xbd87dc80	-0.06633854
119	0x3d2d71d1	0.042344872
120	0x3da65883	0.08122351
121	0x3d7b52d0	0.061358273
122	0xbb290fec	-0.0025796844
123	0x3c01d16c	0.007923465
124	0xbd161911	-0.036645
125	0xbdfeb526	-0.12436895
126	0x3d0e2477	0.034702744
127	0x3d5fe865	0.054664988
128	0xbd255c98	-0.040371507
129	0xbc6c9c83	-0.014441612
130	0xbbe7a083	-0.007068695
131	0xbdaedafe	-0.08537863
132	0xbdb55177	-0.08853429
133	0x3b270790	0.0025486685
134	0x3937a34d	0.00017513074
135	0xbd971be4	-0.073783666
136	0xbe0aefc0	-0.1356802
137	0xbcb1a7ac	-0.021686397
138	0xbdf734c5	-0.12070612
139	0xbe135618	-0.14388311
140	0x3c83c31c	0.016084246
141	0xbd5d91c4	-0.05409409
142	0xbce89ced	-0.02839514
143	0xbdfd4887	-0.12367349
144	0xbdc0bf52	-0.094114915
145	0xbe01593b	-0.12631695
146	0xbe2f37cd	-0.1711113
147	0x3df3d4a6	0.11905794
148	0x3d7389f9	0.059457753
149	0x3d7a6783	0.061133873
150	0x3d0b9fcd	0.034087945
151	0xbd1506de	-0.036383502
152	0x3bb66f8d	0.005567497
153	0xbce1302c	-0.02748879
154	0x3e09dbf6	0.13462815
155	0x3dad8cc5	0.08474115
156	0xbb92c742	-0.00447932
157	0x3d9ff620	0.078106165
158	0x3c11d614	0.008901138
159	0xbd0d0321	-0.034426812
160	0xbcef071b	-0.029178193
161	0x3dd13102	0.102144256
162	0x3d73cc1b	0.059520822
163	0x3dd1b116	0.102388546
164	0x3de487ea	0.11158736
165	0x3d0009fd	0.031259526
166	0x3d120e0c	0.035657927
167	0xbd97c989	-0.07411487
168	0x3e0b4836	0.13601765
169	0x3d2a91cc	0.04164295
170	0x3d5bad9b	0.05363236
171	0x3e41b8b4	0.18918115
172	0xbc182a3d	-0.009287414
173	0xbd2b9cf1	-0.041897718
174	0xbdccae1b	-0.099941455
175	0x3d25e263	0.040499102
176	0x3c41d565	0.011830662
177	0xbceb2e38	-0.028708562
178	0x3d5e3a57	0.054254856
179	0x3bc21bb9	0.005923715
180	0xbe0ea180	-0.13928795
181	0xbe24af99	-0.1608261
182	0x3d0d1189	0.03444055
183	0xbcb09ada	-0.021558214
184	0xbd4f155d	-0.050557483
185	0x3af314d4	0.0018545636
186	0xbd914af1	-0.07094372
187	0xbdcb7811	-0.0993501
188	0xbe20f0f5	-0.15716918
189	0x3d021d87	0.03176644
190	0xbcf2ccc5	-0.029638657
191	0xbe0b7a99	-0.13620986
192	0xbc81b844	-0.015834935
193	0xbd7db6e3	-0.061941992
194	0xbe1fc6d0	-0.15603185
195	0xbe137be3	-0.14402728
196	0x3c7a05e9	0.015260198
197	0x3c9538f2	0.01821563
198	0xbe0663d0	-0.13124013
199	0xbc35a9b0	-0.01108782
200	0x3e04e19f	0.12976693
201	0x3dbf6038	0.09344524
202	0xbe1600a8	-0.14648688
203	0x3d80eddf	0.0629537
204	0x3e363740	0.17794514
205	0xbe00b3c5	-0.12568577
206	0xbddbec68	-0.1073845
207	0x3e20016d	0.15625544
208	0x3e0f5a33	0.13999252
209	0x3bbf2877	0.005833681
210	0x3ddb9ada	0.10722895
211	0x3e914073	0.28369483
212	0xbd66e121	-0.056367043
213	0xbe567c41	-0.20945837
214	0x3e38ebd5	0.18058713
215	0x3e18f6c0	0.14937878
216	0x3e17aab1	0.14811207
217	0x3e4663db	0.1937403
218	0x3e1ae7f9	0.15127553
219	0x3d9a90f3	0.07547178
220	0xbdfc7922	-0.12327792
221	0xbdab9e67	-0.08379822
222	0x3e225cd3	0.15855722
223	0x3e2776f2	0.16353968
224	0xbc820e68	-0.01587601
225	0x3e2d1827	0.16903745
226	0x3df9da60	0.12199855
227	0xbe90933e	-0.28237337
228	0xbd8b0263	-0.067875646
229	0xbc2a9ade	-0.0104129
230	0x3cf5b359	0.029992746
231	0xbe44d231	-0.19220807
232	0x3d9fb5f2	0.07798375
233	0x3da6c31c	0.08142683
234	0xbe2a92a3	-0.166575
235	0xbe5903e1	-0.21192886
236	0xbd7e1ebd	-0.062041033
237	0x3c8043a1	0.015657248
238	0xbe9b7b75	-0.30367628
239	0xbd916dc4	-0.07101014
240	0x3a4dcf55	0.0007851024
241	0xbdc4ac12	-0.09603132
242	0xbe47cef5	-0.19512542
243	0xbe2f0026	-0.170899
244	0xbd89ddc4	-0.067317516
245	0xbdc1cc4a	-0.09462793
246	0xbd1b4e7b	-0.03791664
247	0xbd79933b	-0.060931426
248	0xbdb49c14	-0.08818832
249	0x3d48011b	0.04882918
250	0xbe08dfe1	-0.13366653
251	0xbe485db3	-0.19566993
252	0xbc63cdba	-0.0139040295
253	0x3bcee88e	0.006314344
254	0xbd8fda03	-0.07024004
255	0xbd8e1662	-0.06937863

exp_avg_sq f4 [8, 1, 7, 7]
0	0x40b1eefb	5.5604224
1	0x40cb5f16	6.355357
2	0x412e34e0	10.887909
3	0x4136cef1	11.425523
4	0x415a0124	13.625278
5	0x40b6b521	5.7096105
6	0x40a10375	5.031672
7	0x40c4689b	6.137769
8	0x40665d2f	3.5994375
9	0x40ad016d	5.406424
10	0x3fcdcdf0	1.6078472
11	0x40e5917c	7.1740093
12	0x4054c262	3.3243642
13	0x4072bae7	3.7926576
14	0x40bc665b	5.8874946
15	0x40507e76	3.2577186
16	0x40d602df	6.6878505
17	0x41a26768	20.300491
18	0x401de56b	2.4671276
19	0x405ed097	3.4814813
20	0x40029f06	2.040956
21	0x4087d8c0	4.2452087
22	0x40b1ec60	5.5601044
23	0x415ec427	13.922889
24	0x407b296b	3.924403
25	0x416d9637	14.849174
26	0x40a7ab97	5.239696
27	0x407f66c7	3.990648
28	0x3fd184e8	1.6368685
29	0x4082eff3	4.0917907
30	0x4118d85d	9.552823
31	0x4192bddc	18.342705
32	0x41b85fa9	23.04671
33	0x409c312d	4.881003
34	0x409a9c72	4.8315973
35	0x3ffef300	1.9917908
36	0x405c0249	3.4376395
37	0x4024c06c	2.5742445
38	0x40ba3555	5.8190103
39	0x4087cd90	4.243843
40	0x3fac082f	1.3439997
41	0x40d1c0b9	6.5547757
42	0x407e744f	3.975849
43	0x40910a41	4.5325017
44	0x40d94566	6.7897215
45	0x40547f5d	3.3202736
46	0x40a294f4	5.0806828
47	0x40948d05	4.6422143
48	0x411afc92	9.686663
49	0x3f4e86c7	0.80674404
50	0x3f1607f5	0.5860589
51	0x3fc25f14	1.5185266
52	0x3fec11eb	1.8442968
53	0x3fe5fe9e	1.7968328
54	0x3f34f8cd	0.7069214
55	0x3fa1c58d	1.2638413
56	0x3fb2072d	1.390844
57	0x3fa1ca92	1.2639945
58	0x403b66af	2.9281423
59	0x3fa35c16	1.2762477
60	0x3f709400	0.9397583
61	0x3f2a4ce7	0.66523594
62	0x3f2d9543	0.6780588
63	0x40230519	2.5471861
64	0x402d1d95	2.7049305
65	0x3fe4b7f0	1.7868633
66	0x4171e727	15.118934
67	0x403fcbc7	2.9968126
68	0x3fee625d	1.8623768
69	0x3f89b724	1.0759015
70	0x3feca63d	1.8488232
71	0x3ffc56ce	1.9713991
72	0x403ac2ae	2.9181323
73	0x3f329642	0.69760525
74	0x40923699	4.5691648
75	0x400dd745	2.216264
76	0x3ffc2399	1.9698364
77	0x3fa0debe	1.2567976
78	0x401f1fd3	2.4863174
79	0x3f4664fd	0.77497846
80	0x411d040b	9.813487
81	0x4083280c	4.0986385
82	0x3f6d1b63	0.92619914
83	0x3fe648d6	1.7990978
84	0x3fab7bcd	1.3397156
85	0x3ff8edb3	1.944754
86	0x401a4108	2.4102192
87	0x400744a6	2.113565
88	0x4008f833	2.1401489
89	0x3f2b2cab	0.6686503
90	0x405df960	3.4683456
91	0x3fb4523d	1.4087597
92	0x3f973d36	1.1815555
93	0x402026cf	2.5023687
94	0x401708eb	2.3599193
95	0x40094e1e	2.145393
96	0x401ab1c6	2.4171004
97	0x409cd654	4.901163
98	0x3e47e04f	0.1951916
99	0x3e05fe12	0.13085201
100	0x3eb1feed	0.34764805
101	0x3f01650d	0.50544816
102	0x3e139a18	0.14414251
103	0x3e173bb6	0.14768872
104	0x3e6f4ec9	0.23369898
105	0x3e8823f3	0.26589927
106	0x3f6d747d	0.9275587
107	0x3f5c7e29	0.86130005
108	0x3e5b99de	0.21445414
109	0x3f4a701b	0.7907731
110	0x3edab597	0.42716667
111	0x3e267f44	0.16259485
112	0x3f2c17d5	0.67223865
113	0x3e7d9d6a	0.2476708
114	0x3f1b6e3a	0.6071507
115	0x3ee39603	0.44450387
116	0x3f7fe0f3	0.9995262
117	0x3f1996d6	0.5999578
118	0x3ec6f0cd	0.3885559
119	0x3e6c0b53	0.23051195
120	0x40053ce8	2.0818424
121	0x3e0f951e	0.14021727
122	0x3f2b6188	0.66945696
123	0x3f6900f5	0.91017085
124	0x3eda26d6	0.42607754
125	0x3ed5f375	0.41787305
126	0x3ed3cc88	0.41366982
127	0x3eb1a902	0.34699255
128	0x3e255125	0.16144235
129	0x3f41ef15	0.75755435
130	0x3dcdb61f	0.100445025
131	0x3e31ff74	0.17382604
132	0x3e51e96f	0.20499204
133	0x3e8513e2	0.25991732
134	0x3f26d6d5	0.6517156
135	0x3f705a54	0.9388783
136	0x3fe9d588	1.826829
137	0x3f17587d	0.591194
138	0x3f17c8f6	0.5929102
139	0x3e93917c	0.28821933
140	0x3e4f0ab2	0.20218924
141	0x3e98394f	0.29731223
142	0x3ee6bcee	0.45066017
143	0x3f9c1d12	1.2196372
144	0x3ec24d52	0.37949616
145	0x3f63bc9d	0.88959676
146	0x3ec020e5	0.37525097
147	0x3fe54e7b	1.7914575
148	0x3f933a26	1.150212
149	0x3f3b68a9	0.73206574
150	0x3f4f7bb5	0.81048137
151	0x3f6b83e3	0.9199812
152	0x3fcd4c68	1.6038942
153	0x3fd2c376	1.64659
154	0x3f1af804	0.6053469
155	0x3e8e889b	0.27838597
156	0x3fe39af8	1.7781668
157	0x3f4b8cbc	0.7951162
158	0x3eddb378	0.43300986
159	0x3ed55ccf	0.4167237
160	0x3eb5ffc6	0.35546702
161	0x3fe4a177	1.7861775
162	0x4085cd94	4.181345
163	0x3ff82299	1.9385558
164	0x404c75d7	3.1946924
165	0x3f8c0d88	1.094163
166	0x3f2a9cfe	0.666458
167	0x3f20878c	0.6270683
168	0x4039aafc	2.901061
169	0x40914166	4.539233
170	0x3fb3c21f	1.4043616
171	0x3f9aa663	1.2082027
172	0x3fe63708	1.7985544
173	0x3ff2c341	1.8965837
174	0x3fcc580e	1.5964372
175	0x3fba79d9	1.4568435
176	0x4000bf2c	2.0116682
177	0x3fd22319	1.6416961
178	0x3f59b679	0.85044056
179	0x40307931	2.757397
180	0x3f90823b	1.1289743
181	0x3fbaa9ee	1.4583108
182	0x3fad2e99	1.3529845
183	0x3f2e4ebf	0.68088907
184	0x3fc1dda1	1.5145761
185	0x404a5373	3.1613433
186	0x40081284	2.12613
187	0x3fb45398	1.4088011
188	0x3f10fb84	0.5663378
189	0x3f7746e7	0.96592563
190	0x40177fc0	2.3671722
191	0x40430aef	3.0475423
192	0x409f40e1	4.97667
193	0x40590cb6	3.3914008
194	0x3fbd2a7d	1.4778591
195	0x3f620a82	0.88297284
196	0x40c049c6	6.0090055
197	0x4036402f	2.8476675
198	0x406aa587	3.666353
199	0x3fb42fa2	1.4077036
200	0x40b24b3b	5.5716834
201	0x4024a212	2.572392
202	0x403dafbe	2.9638515
203	0x409ef86e	4.967826
204	0x3f922519	1.1417571
205	0x40936256	4.605754
206	0x40a44929	5.1339307
207	0x40098277	2.148588
208	0x400680cf	2.1016119
209	0x3fb555e8	1.4166842
210	0x405c20e1	3.4395068
211	0x405510d0	3.3291512
212	0x4183979c	16.449028
213	0x416fe3aa	14.993082
214	0x407ac319	3.9181578
215	0x4035ad78	2.8387127
216	0x3fa8b301	1.3179628
217	0x3ffd855c	1.9806323
218	0x40a3a1c5	5.1134973
219	0x409ffc9e	4.999587
220	0x4019828a	2.3985925
221	0x41a8a7eb	21.081991
222	0x4089297b	4.2863135
223	0x404d1d2b	3.2049053
224	0x3f904897	1.1272153
225	0x4033f0ec	2.8115797
226	0x404f5c2d	3.240001
227	0x4127567c	10.458614
228	0x406ac5b5	3.668317
229	0x401d7a36	2.4605842
230	0x4087cab0	4.243492
231	0x403c95ea	2.94665
232	0x400eeeb7	2.23332
233	0x40d7217a	6.7228365
234	0x3fbc6b93	1.4720329
235	0x4087a721	4.2391515
236	0x4000efe2	2.0146413
237	0x40a23c03	5.0698256
238	0x406894f7	3.634092
239	0x4023610b	2.552798
240	0x4133d6ed	11.239972
241	0x410454ac	8.270672
242	0x40b0b6bd	5.522307
243	0x40590de4	3.3914728
244	0x408caa3f	4.395782
245	0x3fea269a	1.829303
246	0x401cbc67	2.4489992
247	0x4024ad49	2.5730765
248	0x4050e5da	3.264029
249	0x404de06f	3.2168233
250	0x3fce3c62	1.6112177
251	0x3fda97c9	1.7077571
252	0x402ae848	2.6704273
253	0x3fa6936c	1.301374
254	0x3fe54e57	1.7914532
255	0x3f69bead	0.91306573

exp_avg f4 [32, 8, 7, 7]
0	0x3bbcf67c	0.005766688
1	0x3c5473f7	0.012967101
2	0xbcc04900	-0.02347231
3	0xbb972d3e	-0.0046135476
4	0x3abf9826	0.0014617487
5	0xbb256087	-0.0025234537
6	0x39fb88ff	0.0004797652
7	0xbc1e1498	-0.009648465
8	0x3c80c792	0.015720163
9	0xba960063	-0.0011444207
10	0xbc74dd68	-0.0149453655
11	0xbc076aa2	-0.008265169
12	0x3c2f87bf	0.010713517
13	0xbb8adfa3	-0.0042380854
14	0xbb2353f1	-0.002492186
15	0x3b0a18dc	0.0021071946
16	0xbb04d15d	-0.0020266392
17	0x3bd24f55	0.0064181485
18	0xbc4de5da	-0.012567008
19	0x3b8fa389	0.0043835086
20	0x3c84af79	0.016196953
21	0xbb8ba50c	-0.0042616185
22	0xbb38f80f	-0.0028224026
23	0xbbe438ae	-0.0069647646
24	0xbc1803f1	-0.009278283
25	0x3ab8947a	0.0014082335
26	0xba9a269e	-0.0011760776
27	0x3bebce5c	0.007196231
28	0xbafed293	-0.0019441418
29	0xbbab3090	-0.005224295
30	0x3b98e200	0.004665613
31	0xbc2a9ecc	-0.010413837
32	0xbb96b42e	-0.004599116
33	0xbba4e109	-0.005031709
34	0x3a6c35f7	0.0009010727
35	0xb8c9dbbf	-9.625358e-05
36	0x3c49f691	0.012326852
37	0xbb42579b	-0.0029654268
38	0xb88c038b	-6.67638e-05
39	0x3b7db6c1	0.0038713666
40	0xbc5e645b	-0.013573731
41	0x3c8e0f81	0.017341377
42	0xbc4bd8ea	-0.012441853
43	0x3b4c7d41	0.0031202587
44	0x3b9e7a59	0.0048363623
45	0xbbf682fe	-0.0075229397
46	0x3c1934f3	0.009351003
47	0xbc2c5a8c	-0.010519635
48	0xbc01aa80	-0.0079141855
49	0x3bd70873	0.0065622865
50	0x3981fbb7	0.0002479234
51	0xbb2fdfcc	-0.0026836274
52	0x3c904084	0.017608888
53	0xbc8c6750	-0.017139107
54	0xbc3a68a6	-0.011377489
55	0xb95d5610	-0.00021108263
56	0x3c1c0968	0.009523727
57	0x3c0cebff	0.008601188
58	0xbc5e3946	-0.01356346
59	0xbc220238	-0.009888224
60	0x3c6db73d	0.014509019
61	0x3aa55c90	0.0012616087
62	0xbcb903ba	-0.022584785
63	0x3bf3d914	0.007441649
64	0x3b59956a	0.003320063
65	0x3ad0e5b6	0.00159376
66	0xbc2a778b	-0.010404478
67	0xbb7bbcc2	-0.003841207
68	0x3cd513e7	0.026010467
69	0x3b490079	0.0030670448
70	0x3b6880f2	0.0035477248
71	0x3c3dce54	0.011584837
72	0xbce58611	-0.02801803
73	0x3c149ec1	0.009071053
74	0x3add2794	0.0016872757
75	0x3c0aeafc	0.008478876
76	0x3c1b7a29	0.0094895745
77	0xbca0ba50	-0.01962009
78	0x3cca742b	0.024713596
79	0xbc4d4078	-0.012527578
80	0xbcd09c27	-0.025465084
81	0x3c3f8585	0.011689548
82	0x3bce6e0d	0.00629974
83	0xb9b08ee7	-0.00033675806
84	0xbb1a5bb2	-0.002355319
85	0xbac63611	-0.0015122314
86	0x3b23351b	0.002490348
87	0xbb5837ce	-0.0032992247
88	0xbc9740e4	-0.01846356
89	0x3c918c9f	0.017767249
90	0x3cad2955	0.021137873
91	0x3be43362	0.006964133
92	0x3b1f6261	0.0024320113
93	0xbc1b2bb5	-0.00947087
94	0x3b83a185	0.0040170574
95	0xbc19d1dc	-0.009388413
96	0xbcbacedd	-0.022803718
97	0x3c9ff96f	0.019528119
98	0x3c9417ed	0.018077815
99	0x3c82f81f	0.015987454
100	0xbc39957c	-0.011327144
101	0xbb09881e	-0.0020985673
102	0xbb78b92f	-0.0037952175
103	0x3c9a2773	0.018817639
104	0x3c502189	0.012703308
105	0xbbbb2222	-0.005710856
106	0x3cbc8981	0.023014786
107	0x3bad2b72	0.00528472
108	0xbc7072c6	-0.014675802
109	0xbb799c7e	-0.0038087661
110	0x3a7c771a	0.00096307846
111	0x3b925ab5	0.0044663795
112	0xbc1e39fd	-0.00965738
113	0x3bb4ed26	0.0055214344
114	0x3c752e53	0.014964658
115	0x3c8e92e3	0.017404025
116	0xbcbb9488	-0.022897974
117	0xbba9cb08	-0.005181674
118	0x3c0e3fd2	0.008682208
119	0xbc36e235	-0.01116233
120	0x3c1520d2	0.009102063
121	0xbbb3012a	-0.0054627853
122	0x3c7a6121	0.015281946
123	0x3c5cb975	0.013471951
124	0xbc2f1323	-0.010685715
125	0x3b65d465	0.0035069224
126	0xbc988cee	-0.018621888
127	0x3b6e3ef5	0.0036353443
128	0x3b9eccc6	0.0048461882
129	0xbbdcb6d0	-0.00673566
130	0xbb8ddd98	-0.0043293945
131	0xbbba977a	-0.005694327
132	0xbbb3fdba	-0.005492893
133	0xbb07af81	-0.0020703974
134	0xbc34b25e	-0.011028854
135	0x3c45c2cc	0.012070369
136	0x3c6aa0ee	0.014320595
137	0xbc6217df	-0.013799637
138	0xbbba2377	-0.0056804973
139	0x3caa5f23	0.020797318
140	0xbc4bff31	-0.012450979
141	0xbb14bd67	-0.00226959
142	0x3b24836b	0.0025102745
143	0x3c08a865	0.00834093
144	0x3c421028	0.011844672
145	0xbce4e4d6	-0.027941149
146	0xbaa151d8	-0.0012307717
147	0xba37f667	-0.0007017613
148	0xbb47d9f4	-0.00304949
149	0x3b8868ac	0.0041628685
150	0x3ca75130	0.020424455
151	0xbaa5cdfe	-0.0012649891
152	0xbc716d80	-0.0147355795
153	0xbb900d65	-0.004396128
154	0xbc77093e	-0.015077887
155	0x3bcafd95	0.00619478
156	0x3b883aac	0.004157385
157	0xbb0c5a7a	-0.0021416233
158	0x3c345f9b	0.011009122
159	0xbaa1eb2b	-0.0012353411
160	0xbc871f6b	-0.016494473
161	0xbc0f9e00	-0.0087656975
162	0xbc722427	-0.014779127
163	0x3c43a472	0.011941062
164	0x3bba294b	0.005681192
165	0xbb7a9b4b	-0.0038239534
166	0x3c28d460	0.01030454
167	0xbbd34f9a	-0.006448698
168	0x3c83718c	0.016045354
169	0xbb82fc3f	-0.0039973552
170	0xbcb2033a	-0.021730054
171	0x3caa89f1	0.020817729
172	0x3b234313	0.0024911806
173	0xbc6ef237	-0.014584116
174	0x3bb4056e	0.0054938113
175	0xbb9e847a	-0.00483757
176	0x3beecc30	0.0072875246
177	0xbbf8a064	-0.0075874794
178	0xbca7bbe5	-0.020475337
179	0x3c58b74d	0.013227296
180	0xbb875bdb	-0.004130823
181	0xbcbc4b2a	-0.02298506
182	0x3c293ef7	0.010329953
183	0xbbf92908	-0.0076037683
184	0x3bf58a93	0.007493326
185	0x3b3e2dfb	0.0029019106
186	0xbbe0826a	-0.006851484
187	0x3c408732	0.011750983
188	0x3ba77d96	0.0051114066
189	0x3c1faf82	0.009746434
190	0x3c16a044	0.009193484
191	0xbc2cd04f	-0.0105477115
192	0xbbb6c2e1	-0.0055774306
193	0x3a9d1ede	0.0011987349
194	0xbbcdb409	-0.0062775654
195	0x3c7624de	0.015023438
196	0x3bc798cf	0.0060912143
197	0x3c07383f	0.008253156
198	0xbc9bf238	-0.019036397
199	0x3b7846c9	0.0037883988
200	0x3c53db14	0.01293065
201	0xbbc4f7f0	-0.0060110018
202	0xbc85eaab	-0.01634725
203	0xbc163eed	-0.009170276
204	0x3ad1e39f	0.0016013271
205	0xbbfa234d	-0.0076336027
206	0xbc252090	-0.010078564
207	0x3cbd9892	0.02314404
208	0x3c23703b	0.009975488
209	0xbcc7965e	-0.024363693
210	0x3ca002b5	0.01953254
211	0xbc13da4d	-0.009024215
212	0xbc315ea9	-0.010825791
213	0xbb09b0e7	-0.0021009983
214	0x3bc80726	0.006104368
215	0x3cce029b	0.025147727
216	0x3c63354e	0.013867689
217	0x3cfcdb08	0.030866161
218	0x3c51785b	0.012785043
219	0xbcf4fa8c	-0.029904626
220	0xbc9eac2d	-0.01936921
221	0xbbd8bc26	-0.006614226
222	0x3a375ae7	0.00069944415
223	0x3cfd1d5d	0.03089779
224	0x3b5e6bd1	0.0033938775
225	0x3cdb5ec8	0.026778594
226	0x3c3d4879	0.011552923
227	0xbd28a787	-0.04117539
228	0xbba8fdb6	-0.005157198
229	0x3c3852ef	0.011250242
230	0x3c85673d	0.01628458
231	0xbc6ee54b	-0.014581035
232	0x3c866fc5	0.016410718
233	0x3c94169e	0.018077191
234	0xbc80ed87	-0.015738262
235	0xbcbdd9eb	-0.0231752
236	0xbaff5152	-0.0019479191
237	0x3c11143e	0.008854924
238	0xbc89251e	-0.016741332
239	0x3c1b1f77	0.009467951
240	0x3cb42342	0.021989468
241	0xbc450ac3	-0.012026492
242	0xbc9864c1	-0.01860273
243	0xbc220007	-0.009887702
244	0x3bf66914	0.0075198505
245	0x3b3e0bd8	0.0028998759
246	0x3c6cc564	0.0144513585
247	0xbcaac80c	-0.020847343
248	0x3b7b2e7c	0.0038327267
249	0x3beb35ab	0.0071780286
250	0x3c4aaf5a	0.012370909
251	0x3b68cdbb	0.0035523016
252	0xbbef9c95	-0.007312367
253	0x3b947201	0.004530192
254	0x3bf79ca7	0.007556516
255	0xbc68b662	-0.01420364
