trained_models/Sigma_5_t_5/checkpoints/checkpoint_5.pth (torch, 173091 bytes, 10 tensors)

conv_layer.conv_layers.0.parametrizations.weight.original f4 [8, 1, 7, 7]
0.03275191 0.06195034 -0.051995866 0.121539816 -0.06162621 0.03663715 -0.020736462 0.014228614
0.0911585 -0.13003966 0.17832252 0.018163608 0.08506594 0.005005166 -0.005618458 -0.07553449
0.15724263 0.188914 -0.04293168 -0.0029775482 -0.060673207 0.004270558 -0.0237957 0.2225075
-0.5394862 0.046157267 -0.039167687 -0.01857384 0.03570323 -0.11117614 0.19641659 -0.16399
0.18620318 0.10455717 -0.0001490023 0.04577458 0.06733532 0.023536459 0.0982496 0.010562769
-0.0013670869 0.052888274 0.00066429324 0.0278141 0.05752401 -0.041237302 0.05549528 0.00077350996
0.029613188 -0.034679346 -0.06834405 -0.0075763487 -0.12682077 0.07992049 0.050645545 0.0058803754
0.009676192 -0.0061065913 0.15578209 -0.17471704 -0.014152122 -0.09174085 -0.0010600237 -0.063840576
-0.012584697 -0.074130535 0.31381693 -0.02447602 -0.04521065 -0.0645847 0.13265151 0.07461393
0.21541044 -0.61107427 -0.2326344 -0.0675843 -0.027883673 -0.0006209379 0.06739186 0.19736816
-0.034248114 -0.026629467 0.072938144 -0.0020750952 -0.00090642873 -0.02816352 0.082727194 -0.04888502
-0.020914953 -0.019152476 0.016079223 -0.050606117 0.0008667614 0.062266637 -0.10184381 -0.007699429
0.03267724 -0.010951916 -0.02890506 -0.055310704 -0.056556564 0.07104437 -0.022863481 -0.109246105
-0.018677628 -0.07041539 -0.11421329 -0.03751639 -0.17756349 -0.091297634 0.104373164 0.027476367
0.026974129 -0.06686695 -0.11262135 -0.056265526 0.08048452 -0.15523537 -0.053479936 -0.050683577
0.06379367 -0.11207252 -0.09606154 -0.03553585 -0.16872457 -0.111235924 -0.05516163 -0.14642522
0.20156111 0.06365779 0.19601677 0.079484366 -0.099449776 -0.021344513 -0.054479767 -0.030807491
-0.17925839 -0.12803559 0.043294635 -0.010997901 -0.034792546 -0.07556089 0.07178009 -0.079935424
-0.009692077 -0.039423656 -0.020000378 0.017958527 0.11464504 -0.12718308 0.0032051317 -0.03092565
0.03778492 -0.015645659 0.020606274 -0.038621474 0.07992048 0.09790739 -0.025175858 -0.07894501
0.054434 -0.030501088 0.0032716342 -0.13080211 0.10458651 -0.051491223 -0.054786395 0.17352824
-0.021219488 -0.06945723 -0.081969745 -0.10831816 0.0944624 -0.024250621 -0.108921155 0.04329561
-0.07820134 0.10127211 0.25441396 -0.11789351 0.07095163 0.06804597 0.014689026 -0.037679847
0.0826014 0.048655648 0.044994783 0.026201742 -0.06474113 -0.007160204 0.01086962 -0.010176417
0.078689925 0.020085253 -0.0008720481 -0.010684366 -0.046011876 -0.032270487 0.068357594 0.07785114
-0.059424378 -0.059346173 -0.00237675 0.015105843 -0.07417483 -0.06083261 -0.056426704 -0.10603528
-0.02998741 -0.019308424 0.07079189 0.066213824 -0.12797876 -0.083965115 0.02621522 0.15040421
-0.025738625 -0.053270202 0.13309965 -0.11959156 -0.5801874 0.19999453 0.009125691 0.023571625
-0.10149382 0.020742012 0.12953843 0.0974785 -0.17035517 -0.09999291 -0.029273145 0.04917313
-0.020303 0.090191856 0.09117588 0.020024143 -0.022429883 -0.061759662 -0.043896753 -0.08775715
0.072583266 -0.051239632 -0.046071775 -0.030482473 -0.020739654 -0.0296459 -0.05975903 0.08620464
-0.04160563 0.05249971 -0.03497021 -0.041963425 -0.0076262304 -0.094577335 -0.046617903 -0.08025991
00000000: de26 063d a4bf 7d3d 9ef9 54bd dee9 f83d
00000010: c46b 7cbd d610 163d 83df a9bc 221f 693c
00000020: 4fb1 ba3d 1e29 05be 2e9a 363e d9cb 943c
00000030: 0d37 ae3d 6002 a43b 0b1b b8bb d4b1 9abd
00000040: 3604 213e ac72 413e 21d9 2fbd f822 43bb
00000050: 7884 78bd 09f0 8b3b 33ef c2bc 02d9 633e
00000060: c51b 0abf 670f 3d3d 4c6e 20bd 2a28 98bc
00000070: 8d3d 123d 51b0 e3bd 6e21 493e ffec 27be
00000080: 0cac 3e3e 1222 d63d 803d 1cb9 207e 3b3d
00000090: 1ae7 893d 88cf c03c 1637 c93d 770f 2d3c
000000a0: d32f b3ba 60a1 583d f723 2e3a 65da e33c
000000b0: 4c9e 6b3d 72e8 28bd 054f 633d 60c5 4a3a
000000c0: 5b97 f23c ee0b 0ebd f7f7 8bbd 0543 f8bb
000000d0: 4edd 01be 5bad a33d b471 4f3d 2ab0 c03b
000000e0: e488 1e3c cd19 c8bb 5785 1f3e 06e9 32be
000000f0: 4dde 67bc a0e2 bbbd 7ef0 8aba d9be 82bd
00000100: 0c30 4ebc c0d1 97bd 9dac a03e ef81 c8bc
00000110: cd2e 39bd fc44 84bd ccd5 073e 30cf 983d
00000120: 8e94 5c3e 5d6f 1cbf b637 6ebe a369 8abd
00000130: 4d6c e4bc 70c6 22ba be04 8a3d e11a 4a3e
00000140: c047 0cbd 0a26 dabc 9860 953d 52fe 07bb
00000150: 679d 6dba 2fb7 e6bc e06c a93d a93b 48bd
00000160: d655 abbc a7e5 9cbc 93b8 833c 5c48 4fbd
00000170: 5f37 633a 4d0b 7f3d 7d93 d0bd 7e4b fcbb
00000180: 92d8 053d aa6f 33bc 4eca ecbc 7a8d 62bd
00000190: dba7 67bd b67f 913d 324c bbbc 6cbc dfbd
000001a0: d301 99bc f235 90bd a8e8 e9bd c9aa 19bd
000001b0: 34d3 35be 41fa babd 99c1 d53d 1e16 e13c
000001c0: d9f8 dc3c 8af1 88bd 06a6 e6bd ae76 66bd
000001d0: 11d5 a43d 05f6 1ebe c70d 5bbd 9599 4fbd
000001e0: 41a6 823d 4786 e5bd eabb c4bd 0a8e 11bd
000001f0: 22c6 2cbe a9cf e3bd 29f1 61bd 7ef0 15be
00000200: 0966 4e3e 045f 823d 9fb8 483e b3c8 a23d
00000210: 53ac cbbd b0da aebc 2d26 5fbd fe5f fcbc
00000220: 838f 37be c31b 03be b755 313d 8a30 34bc
00000230: a182 0ebd abbf 9abd 7101 933d 2fb5 a3bd
00000240: 84cb 1ebc b37a 21bd d5d7 a3bc c31d 933c
00000250: 05cb ea3d 483c 02be 300d 523b ca57 fdbc
00000260: 5cc4 1a3d 532b 80bc 7dce a83c 8d31 1ebd
00000270: 59ad a33d ab83 c83d 9a3d cebc ecad a1bd
00000280: 30f6 5e3d 6bdd f9bc ea68 563b fdf0 05be
00000290: 7431 d63d 76e8 52bd b367 60bd 63b1 313e
000002a0: 7ed4 adbc 983f 8ebd c1df a7bd e9d5 ddbd
000002b0: 8175 c13d 3da9 c6bc 0e12 dfbd bd56 313d
000002c0: 0628 a0bd c167 cf3d 8c42 823e 2772 f1bd
000002d0: 174f 913d af5b 8b3d 3eaa 703c 2f56 1abd
000002e0: ec2a a93d 254b 473d 734c 383d 09a5 d63c
000002f0: ff96 84bd 25a0 eabb 7e16 323c fdba 26bc
00000300: 2f28 a13d d489 a43c 289a 64ba 7b0d 2fbc
00000310: f376 3cbd 0f2e 04bd 11ff 8b3d 6b70 9f3d
00000320: fa66 73bd f914 73bd 40c3 1bbb 7f7e 773c
00000330: f9e8 97bd 9d2b 79bd b01f 67bd 0629 d9bd
00000340: 28a8 f5bc b32c 9ebc 57fb 903d 1d9b 873d
00000350: dd0c 03be e7f5 abbd 4dc1 d63c 9003 1a3e
00000360: cfd9 d2bc db31 5abd 464b 083e 6bec f4bd
00000370: 2987 14bf 5ecb 4c3e ec83 153c 4819 c13c
00000380: fedb cfbd 27eb a93c b9a5 043e cfa2 c73d
00000390: 9671 2ebe 15c9 ccbd 3cce efbc c469 493d
000003a0: 7a52 a6bc 82b6 b83d 6bba ba3d ac09 a43c
000003b0: e0be b7bc b3f7 7cbd 15cd 33bd 05ba b3bd
000003c0: 89a6 943d a6e0 51bd c2b5 3cbd 61b6 f9bc
000003d0: 35e6 a9bc f5db f2bc e2c5 74bd 0f8c b03d
000003e0: aa6a 2abd f009 573d ec3c 0fbd d7e1 2bbd
000003f0: 75e5 f9bb c3b1 c1bd 6af2 3ebd 4f5f a4bd

conv_layer.conv_layers.1.parametrizations.weight.original f4 [32, 8, 7, 7]
0.007126026 -0.025919214 0.027867438 0.008709399 -0.030597253 0.026524397 0.02338698 -0.0074221725
-0.036482316 0.03473126 0.019549763 -0.036387034 0.0204568 -0.009293989 0.01576831 -0.06631092
-0.058036823 0.12400617 -0.1237713 0.0072716824 0.07917532 0.09475002 -0.01701848 -0.060352225
0.17906919 -0.12008031 -0.06673774 0.013488228 0.10416028 0.037318356 -0.11318575 0.16658711
0.050103497 -0.06853882 -0.057047375 0.06289495 0.06840249 -0.07069538 0.085235864 0.01602988
0.024615748 -0.014350691 -0.0365238 0.059695955 -0.06874993 -0.07431058 0.03712866 0.06770885
-0.01214281 0.007620264 0.024743546 0.05600816 -0.01241629 -0.029446565 0.01910475 -0.0018636495
-0.010886675 0.018986924 0.02137868 -0.0748955 -0.11482234 0.05248085 0.018462565 -0.040889885
0.015246891 0.051395204 0.02903422 -0.1927215 0.023870017 0.010332665 -0.008758352 0.013813054
0.0911351 0.17379895 -0.24642172 -0.14619799 0.021618968 0.017986324 0.0002546597 0.044947997
0.19467898 -0.13199286 -0.12849341 -0.0020337952 -0.01899597 -0.039433375 -0.08526371 0.17024843
0.06904465 -0.050404172 -0.053923994 -0.008785854 -0.07649149 -0.10841487 0.05604602 0.050173268
0.014431653 -0.022095926 -0.009928823 0.022571228 0.0152855385 0.0036519442 0.043604627 -0.061309647
-0.006279389 0.056267794 -5.8715155e-05 0.012072965 -0.012535025 0.035644427 0.025886774 0.002818467
0.07992803 0.016405623 -0.104637735 0.057738334 -0.031514645 0.004435749 -0.022378309 0.05188264
0.0605487 -0.15842603 0.08284314 -0.0013766068 0.06677527 -0.05065576 0.015121982 0.020856775
-0.04025331 0.035547588 -0.03297875 0.040561285 0.036368135 0.020478426 -0.012099242 -0.024931392
-0.10207546 -0.055314697 0.020375274 0.05633035 0.033529524 -0.012965475 -0.007440139 -0.018783512
-0.013584888 -0.035261508 -0.020105468 -0.0373521 0.00684328 0.009954651 0.027561177 -0.006107088
-0.03453291 0.0044077067 -0.0146737825 0.044492986 0.03154695 0.096883886 0.01345559 -0.039269775
0.015170633 -0.01754158 0.05666046 -0.031101115 0.12772253 0.04985049 -0.014123291 0.035576474
-0.033291925 0.10299661 0.0074539124 -0.016606322 0.02791792 0.0072796866 0.0038682448 -0.03474265
0.0668386 -0.012059813 0.022624511 -0.08718431 -0.03088501 -0.036989503 -0.015201258 0.03757706
0.038507584 0.049371585 -0.061981123 -0.024493014 -0.018961165 0.012598539 0.0559944 0.00562378
0.049685102 -0.024062242 -0.004153063 -0.02261401 -0.004426102 -0.0054708463 -0.025270786 0.029965153
-0.081032954 -0.03322999 -0.00883039 -0.029677965 -0.007495039 -0.048739523 0.08369962 -0.018817894
0.007889057 -0.024554644 -0.020711457 -0.015842488 0.039808385 0.079073615 -0.20143461 -0.04782585
-0.017982827 0.01557892 -0.050320316 0.059037656 0.2338419 -0.18954806 -0.10220166 0.024866732
0.03956267 -0.06298732 -0.08343891 0.14840312 -0.11135297 -0.055281933 -0.0044569806 0.022292698
0.04453427 -0.097600594 -0.08278181 0.067104995 -0.008806384 0.047411516 0.013055709 0.04720711
0.013772014 -0.009441033 -0.01993429 -0.06906056 -0.0064163413 -0.03304117 -0.03310282 0.009709153
0.0030437482 0.040324908 0.03116408 0.021851147 -0.024148375 -0.0522055 -0.022721818 0.0337673
00000000: 7081 e93b 8854 d4bc 414a e43c deb1 0e3c
00000010: 17a7 fabc b149 d93c 0d96 bf3c b235 f3bb
00000020: 7b6e 15bd 5e42 0e3d d326 a03c 920a 15bd
00000030: 0595 a73c d145 18bc 8b2c 813c 05ce 87bd
00000040: 05b8 6dbd f2f6 fd3d cf7b fdbd 4b47 ee3b
00000050: ac26 a23d 4c0c c23d 576a 8bbc e533 77bd
00000060: ea5d 373e aaec f5bd ccad 88bd bbfd 5c3c
00000070: fc51 d53d 22db 183d eecd e7bd d095 2a3e
00000080: 5339 4d3d 155e 8cbd 82aa 69bd 11cf 803d
00000090: 9b16 8c3d bdc8 90bd 2490 ae3d 1851 833c
000000a0: f7a6 c93c 291f 6bbc fb99 15bd bf83 743d
000000b0: c3cc 8cbd 2530 98bd 3914 183d f0aa 8a3d
000000c0: a3f2 46bc 68b3 f93b fab2 ca3c d068 653d
000000d0: b26d 4bbc ec39 f1bc 9181 9c3c b345 f4ba
000000e0: 065e 32bc 778a 9b3c 5722 af3c d062 99bd
000000f0: fa27 ebbd 29f6 563d ce3e 973c 277c 27bd
00000100: 19ce 793c c783 523d 2cd9 ed3c c958 45be
00000110: 0e8b c33c 574a 293c 317f 0fbc 2650 623c
00000120: 0aa5 ba3d 5af8 313e fa55 7cbe edb4 15be
00000130: 431a b13c 0e58 933c d983 8539 641b 383d
00000140: ed59 473e 2329 07be c793 03be 6c49 05bb
00000150: 709d 9bbc e484 21bd bd9e aebd 9b55 2e3e
00000160: 4867 8d3d 9b74 4ebd 68df 5cbd 8bf2 0fbc
00000170: 92a7 9cbd 9e08 debd 8390 653d 7c82 4d3d
00000180: bd72 6c3c 8402 b5bc 81ac 22bc 4ce7 b83c
00000190: 3270 7a3c 7555 6f3b c49a 323d d31f 7bbd
000001a0: 55c3 cdbb 0f79 663d eb44 76b8 afcd 453c
000001b0: b55f 4dbc e4ff 113d 8010 d43c 08b6 383b
000001c0: 4fb1 a33d 1665 863c 4f4c d6bd 087f 6c3d
000001d0: 8015 01bd c259 913b b752 b7bc e482 543d
000001e0: ea01 783d 6f3a 22be aaa9 a93d 426f b4ba
000001f0: 79c1 883d 6a7c 4fbd 31c2 773c d4db aa3c
00000200: a8e0 24bd 599a 113d ba14 07bd 9723 263d
00000210: c1f6 143d 5fc2 a73c e63b 46bc eb3c ccbc
00000220: f00c d1bd aa91 62bd 0cea a63c a7ba 663d
00000230: 4156 093d 256d 54bc 69cc f3bb e1df 99bc
00000240: 2693 5ebc 5f6e 10bd 39b4 a4bc 84fe 18bd
00000250: 983d e03b d518 233c fac7 e13c f81d c8bb
00000260: 6172 0dbd 866e 903b 4e6a 70bc 473e 363d
00000270: 6037 013d 0f6b c63d d674 5c3c 58d9 20bd
00000280: 3f8e 783c 5cb3 8fbc cc14 683d c4c7 febc
00000290: b2c9 023e 0730 4c3d 6065 67bc a3b8 113d
000002a0: 1d5d 08bd e3ef d23d f33f f43b fb09 88bc
000002b0: 1fb4 e43c 708a ee3b 6182 7d3b 4f4e 0ebd
000002c0: ade2 883d 8696 45bc 0a57 b93c b08d b2bd
000002d0: 8f02 fdbc 4e82 17bd b20e 79bc 67ea 193d
000002e0: 21ba 1d3d dc39 4a3d ebdf 7dbd 93a5 c8bc
000002f0: 7254 9bbc 1a6a 4e3c 625a 653d b047 b83b
00000300: 9b82 4b3d 2e1e c5bc 6b16 88bb 0441 b9bc
00000310: d608 91bb c944 b3bb ae04 cfbc 7b79 f53c
00000320: 9bf4 a5bd 2c1c 08bd 57ad 10bc 341f f3bc
00000330: f298 f5bb 18a3 47bd b56a ab3d fc27 9abc
00000340: 1a41 013c d226 c9bc 13ab a9bc 1bc8 81bc
00000350: 1e0e 233d 59f1 a13d e044 4ebe 0ae5 43bd
00000360: b950 93bc ba3e 7f3c ad1c 4ebd 78d1 713d
00000370: 4074 6f3e e318 42be 1b4f d1bd 51b5 cb3c
00000380: 770c 223d 7fff 80bd 05e2 aabd fdf6 173e
00000390: 070d e4bd 4f6f 62bd dd0b 92bb 2d9f b63c
000003a0: 9169 363d d2e2 c7bd 8289 a9bd 586e 893d
000003b0: a748 10bc 9432 423d 9de7 553c 3e5c 413d
000003c0: 03a4 613c 90ae 1abc 3c4d a3bc 9f6f 8dbd
000003d0: 2c40 d2bb 2e56 07bd d396 07bd 2413 1f3c
000003e0: 9f79 473b bb2b 253d d04b ff3c 2d01 b33c
000003f0: d0d2 c5bc 6fd5 55bd 1b23 babc 954f 0a3d

activation.coefficients_vect f4 [672]
-0.0 0.0022320917 0.001585433 0.001383368 0.0011660992 0.0004448961 0.00034908007 -5.8531746e-06
-0.00012839536 -0.00017771474 -0.00024549675 0.00015940776 2.2908474e-05 -5.9985996e-05 -0.00052680174 -0.0008811125
-0.0011036957 -0.0013864089 -0.0019250355 -0.0030572447 0.0 -0.0 0.0025502956 0.0021791726
0.0015656105 0.0012393029 0.00072425115 0.00022384175 0.00013066616 -0.00019417796 -0.00033113905 1.6144977e-05
0.00013886516 6.8746136e-05 3.4604138e-06 -0.00022588225 -0.00076657574 -0.0007913646 -0.000798063 -0.0012696296
-0.0019387193 0.0 -0.0 0.0016941766 0.0015199655 0.0012201392 0.0010837904 0.00070053496
0.00023779341 0.00017199237 -0.00026728516 -0.00035299963 -4.191145e-05 0.0002994676 0.00016022324 0.00010098609
-0.00017138258 -0.0006097823 -0.0007728929 -0.001414528 -0.0019964385 -0.0022091065 0.0 -0.0
0.001603453 0.00074563327 0.0006654548 0.00057053735 0.0001038083 -5.4259985e-05 -0.000103160644 -0.00043650556
-0.00057166535 -4.8644984e-06 0.00050268223 0.00029952914 0.00019449336 6.4843225e-06 -0.00040178082 -0.0006303285
-0.00094645994 -0.0010941421 -0.001259532 0.0 -0.0 0.00048012243 0.0003627174 0.00030893512
0.00013361414 0.00012597926 6.850558e-05 4.982583e-05 1.5338546e-05 -1.7944271e-06 -1.8633127e-05 -5.31682e-05
-6.2610896e-05 -7.60654e-05 -7.817279e-05 -0.00016920407 -0.00020880255 -0.0003443143 -0.0007374977 -0.0007811255
0.0 -0.0 0.0011008743 0.0007258863 0.0006384335 0.00055603293 0.0002467247 0.0002286941
0.00013739664 0.00011849041 3.2651133e-05 -2.1607348e-05 -2.9303412e-05 -0.00012293138 -0.0001959447 -0.00025499138
-0.00026726758 -0.0003732059 -0.00038928122 -0.00051229016 -0.00055185944 0.0 -0.0 0.0009245562
0.00067223504 0.0005359641 0.00036193768 0.00033173236 0.0002762729 8.492605e-05 5.606912e-05 -6.1807874e-08
-2.997976e-05 -3.3282013e-05 -7.66059e-05 -8.3714214e-05 -0.00015227313 -0.0003203951 -0.00032226954 -0.00042352616
-0.00048507124 -0.00065703987 0.0 -0.0 0.0017275547 0.001158561 0.000802061 0.00070778653
0.0005427607 0.0003837833 0.00016769438 0.00013525446 -3.0844498e-05 -3.7863265e-05 -6.143403e-05 -6.858954e-05
-0.000101944366 -0.0002892141 -0.00046296456 -0.0006781265 -0.0008353538 -0.0008966038 -0.0011104485 0.0
-0.0 0.00050430075 0.00032809938 -3.896361e-05 -0.00014980025 -0.00021969143 -0.0002819601 -0.00040405538
-0.0006144672 -0.00075597473 0.00017294653 0.00094515446 0.00040044382 0.00026089055 0.00019893776 5.652746e-05
2.1588998e-05 1.2904753e-05 -0.0001779766 -0.00029794878 0.0 -0.0 0.001107471 0.0010635147
0.0006139451 0.0004033644 0.0002328322 -1.879981e-05 -5.5162494e-05 -0.0003461835 -0.0003939238 8.541491e-05
0.00058559765 0.00041188087 0.00041070516 8.987085e-05 -0.0001634264 -0.00045011708 -0.0005121868 -0.0016513761
-0.0023349337 0.0 -0.0 0.0010976352 0.0007037906 0.00052311004 0.00040982512 0.00022155399
0.00022004919 0.00021652666 0.00019039087 0.00012961567 0.00011106815 4.3485703e-05 -1.8499353e-05 -0.00014391012
-0.00033857225 -0.00043797254 -0.0004766022 -0.0006625837 -0.00092545844 -0.001660347 0.0 -0.0
0.0007052913 0.00051709235 0.0004429592 0.0004240701 0.00041212284 0.00035395377 0.00022994648 0.00013661903
3.7711623e-05 -3.6776804e-05 -7.711592e-05 -0.00020068223 -0.000226015 -0.00025255696 -0.0003616854 -0.0003658467
-0.00042585866 -0.00051409827 -0.0006432849 0.0 -0.0 0.0011709672 0.00073396845 0.00050076796
00000000: 0000 0080 4948 123b 4ece cf3a 2152 b53a
00000010: ccd7 983a f240 e939 bc04 b739 6366 c4b6
00000020: dea1 06b9 f058 3ab9 04b6 80b9 b226 2739
00000030: 932b c037 7999 7bb8 1119 0aba 75fa 66ba
00000040: e2a9 90ba 2ab8 b5ba 7951 fcba 0e5c 48bb
00000050: 0000 0000 0000 0080 dc22 273b 73d0 0e3b
00000060: 2c35 cd3a 1b70 a23a acdb 3d3a 10b7 6a39
00000070: 6e03 0939 409c 4bb9 bb9c adb9 136f 8737
00000080: 559c 1139 cd2b 9038 7539 6836 ceda 6cb9
00000090: 07f4 48ba 9473 4fba 1a35 51ba b369 a6ba
000000a0: a01c feba 0000 0000 0000 0080 220f de3a
000000b0: 9439 c73a 14ed 9f3a f90d 8e3a 1ba4 373a
000000c0: 2f58 7939 da58 3439 6822 8cb9 cf12 b9b9
000000d0: 14ca 2fb8 dc01 9d39 9901 2839 7fc8 d338
000000e0: 29b5 33b9 ccd9 1fba f79b 4aba af67 b9ba
000000f0: aed6 02bb a8c6 10bb 0000 0000 0000 0080
00000100: f42a d23a 9a76 433a ea71 2e3a 1d90 153a
00000110: a8b3 d938 3795 63b8 f357 d8b8 c9da e4b9
00000120: d0db 15ba b939 a3b6 6fc6 033a 1f0a 9d39
00000130: eaf0 4b39 e893 d936 1ca6 d2b9 a13c 25ba
00000140: da1b 78ba 5169 8fba e116 a5ba 0000 0000
00000150: 0000 0080 f1b8 fb39 1b2b be39 92f8 a139
00000160: c61a 0c39 4d19 0439 a7aa 8f38 14fc 5038
00000170: 47ab 8037 0cd8 f0b5 564e 9cb7 ec00 5fb8
00000180: f84d 83b8 4d85 9fb8 b2f0 a3b8 5f6c 31b9
00000190: 02f2 5ab9 1585 b4b9 a254 41ba 72c4 4cba
000001a0: 0000 0000 0000 0080 364b 903a 6849 3e3a
000001b0: 8c5c 273a bdc2 113a d45a 8139 9bcd 6f39
000001c0: 2112 1039 0e7e f838 e3f2 0838 6d41 b5b7
000001d0: 99d0 f5b7 24e7 00b9 8176 4db9 5db0 85b9
000001e0: 0c20 8cb9 d9aa c3b9 7118 ccb9 364b 06ba
000001f0: a9aa 10ba 0000 0000 0000 0080 eb5d 723a
00000200: ee38 303a f17f 0c3a 74c2 bd39 5dec ad39
00000210: b9d8 9039 531a b238 c22b 6b38 3dbb 84b3
00000220: 0b7d fbb7 4a98 0bb8 7ba7 a0b8 ba8f afb8
00000230: 82ab 1fb9 b4fa a7b9 49f6 a8b9 b80c deb9
00000240: 2951 feb9 333d 2cba 0000 0000 0000 0080
00000250: 1e6f e23a dbda 973a 6741 523a c08a 393a
00000260: 0e48 0e3a 8636 c939 1ed7 2f39 18d3 0d39
00000270: 075f 01b8 5fcf 1eb8 25d6 80b8 bbd7 8fb8
00000280: f7ca d5b8 a9a1 97b9 0dba f2b9 4dc4 31ba
00000290: a5fb 5aba 100a 6bba 788c 91ba 0000 0000
000002a0: 0000 0080 0d33 043a c104 ac39 dc6c 23b8
000002b0: b313 1db9 f85c 66b9 0bd4 93b9 65d7 d3b9
000002c0: 3214 21ba 9b2c 46ba fb58 3539 3ec4 773a
000002d0: a9f2 d139 23c8 8839 f399 5039 e617 6d38
000002e0: 051a b537 7e81 5837 3b9f 3ab9 0236 9cb9
000002f0: 0000 0000 0000 0080 8f28 913a a265 8b3a
00000300: 29f1 203a a77a d339 6b24 7439 49b4 9db7
00000310: 475e 67b8 f67f b5b9 8f87 ceb9 c820 b338
00000320: cb82 193a b7f1 d739 ea53 d739 0c79 bc38
00000330: 715d 2bb9 b1fd ebb9 4644 06ba fd72 d8ba
00000340: b005 19bb 0000 0000 0000 0080 87de 8f3a
00000350: 967e 383a 5221 093a ccdd d639 f250 6839
00000360: 01bd 6639 6f0b 6339 a9a3 4739 71e9 0739
00000370: 42ed e838 6b64 3638 0f2f 9bb7 94e6 16b9
00000380: 6682 b1b9 ae9f e5b9 77e0 f9b9 3db1 2dba
00000390: 779a 72ba 00a0 d9ba 0000 0000 0000 0080
000003a0: 4ce3 383a 7b8d 073a fa3c e839 ba55 de39
000003b0: 3112 d839 df92 b939 ca1d 7139 6441 0f39
000003c0: 8c2c 1e38 cb40 1ab8 4bb9 a1b8 3a6e 52b9
000003d0: 71fe 6cb9 9f69 84b9 98a0 bdb9 1dcf bfb9
000003e0: c845 dfb9 8dc4 06ba 1ea2 28ba 0000 0000
000003f0: 0000 0080 247b 993a ca67 403a f845 033a

u f4 [1, 1, 20, 20]
0.0018832851 -0.006899681 0.00272372 -0.009166252 0.014599582 -0.012452181 0.0053857835 0.0019575404
-0.01068813 0.010955025 -0.015392569 0.016913012 -0.0040659197 -0.0062763193 0.011812495 -0.010208363
-0.0032346593 0.002998665 -0.002036986 0.0019324115 -0.010094655 0.033894982 -0.012793483 0.02833489
-0.04461554 0.03461951 -0.014339848 -0.020475332 0.054769553 -0.062112644 0.074845664 -0.07816355
0.039068904 0.017837552 -0.061074242 0.0693448 -0.023674564 -0.012089366 0.022108596 -0.008376126
0.018272765 -0.059214175 0.008334177 -0.0138096865 0.0192057 -0.013773609 0.008039986 0.026470356
-0.04330667 0.04782116 -0.051502924 0.05276137 -0.05243849 -0.0014342302 0.05676467 -0.0836607
0.059133545 0.00498605 -0.04150489 0.0145038515 -0.022280943 0.064383805 0.023446014 -0.022518428
0.03646459 -0.029613558 0.0037837718 -0.02026809 -0.0077150282 0.006445979 -0.011401971 0.01608407
0.05176048 -0.028330758 -0.015311933 0.050620697 -0.073382884 0.0029807948 0.04940936 -0.014837023
0.029742002 -0.08095426 -0.033407483 0.024056846 -0.0644348 0.059260458 -0.0042744824 0.023946665
0.017254155 -0.004576962 -0.00014202297 -0.016687438 -0.08676103 0.07731739 -0.022773348 -0.034207866
0.08894311 -0.00501943 -0.059707616 0.019277293 -0.039300814 0.10645427 0.027117193 -0.0045367787
0.08052177 -0.0870644 -0.0014206981 -0.010039136 -0.053394336 0.042147066 -0.03557556 0.06785173
0.07447624 -0.11437535 0.087318316 -0.01938425 -0.07823993 0.010892038 0.052128766 -0.019206397
0.050695516 -0.14686678 0.007941827 -0.045427784 -0.062288016 0.08102284 0.023410663 -0.012710571
0.0775315 -0.041943166 0.03182481 -0.07661307 -0.08359087 0.13920265 -0.13511705 0.05855061
0.07079786 -0.017261248 -0.0341194 0.014765199 -0.06136708 0.19408225 -0.058070637 0.10607422
0.036821038 -0.07896119 -0.02571753 0.01548909 -0.07944671 0.027430626 -0.028783228 0.09287906
0.06338854 -0.12116751 0.14776155 -0.07502277 -0.064174525 0.021325774 0.012577267 -0.009441592
0.06802867 -0.22893748 0.09265685 -0.1487341 -0.023253104 0.083198115 0.01909 -0.0018531199
0.064870015 -0.0041551637 0.016296443 -0.10668771 -0.030600786 0.082822464 -0.13353059 0.07829127
0.050776184 -0.022628922 0.007440094 0.0036265636 -0.069641456 0.24876545 -0.112213135 0.17023921
0.023547728 -0.09099379 -0.0049541164 -0.021897845 -0.04005501 -0.034706637 0.017973352 0.0991927
0.00793563 -0.030086331 0.082184985 -0.04949054 -0.051894404 0.023917357 -0.016044213 -0.00055335206
0.065195814 -0.24623811 0.10340978 -0.15721633 -0.040505383 0.10553084 -0.015953269 0.04161729
0.026738428 0.04720366 -0.017966395 -0.11574833 0.034870483 -0.03802239 -0.020720886 0.014826303
0.053107746 -0.020198088 0.014480753 0.0003047611 -0.05688988 0.22668748 -0.073183686 0.11996083
0.0646604 -0.11713104 0.021752281 -0.04244773 -0.02177427 -0.05310387 0.031893473 0.0999179
-0.048649 0.07638533 -0.025274035 0.01559701 -0.048832968 0.010638743 -0.0033614393 -0.0037534116
0.046935704 -0.19665891 0.03616927 -0.07574097 -0.08973352 0.12907436 -0.029578377 0.043789648
0.023647737 0.044035766 -0.03675167 -0.08316649 0.049814 -0.093762256 0.05674938 -0.036681652
00000000: 90d8 f63a b816 e2bb 7080 323b 0c2e 16bc
00000010: 1633 6f3c 3c04 4cbc 3a7b b03b 144a 003b
00000020: 441d 2fbc b57c 333c 1d31 7cbc 288d 8a3c
00000030: 683b 85bb 95a9 cdbb 3289 413c fa40 27bc
00000040: 94fc 53bb 4085 443b f47e 05bb f848 fd3a
00000050: 0d64 25bc 77d5 0a3d c29b 51bc 921e e83c
00000060: c9be 36bd 30cd 0d3d aff1 6abc e2bb a7bc
00000070: 0a56 603d d469 7ebd af48 993d 3614 a0bd
00000080: b706 203d 0f20 923c fc28 7abd a604 8e3d
00000090: 29f1 c1bc 7a12 46bc 161d b53c 053c 09bc
000000a0: c4b0 953c 908a 72bd 128c 083c 0642 62bc
000000b0: 4655 9d3c b4aa 61bc 25ba 033c 5cd8 d83c
000000c0: 5662 31bd 1fe0 433d bbf4 52bd 4e1c 583d
000000d0: bec9 56bd c8fc bbba 1282 683d 4d56 abbd
000000e0: 0436 723d 0562 a33b 0801 2abd 90a1 6d3c
000000f0: 8686 b6bc a8db 833d db11 c03c 9178 b8bc
00000100: e55b 153d 2298 f2bc 28f9 773b 4409 a6bc
00000110: 59ce fcbb ca38 d33b 55cf 3abc bdc2 833c
00000120: cc02 543d e815 e8bc e7de 7abc a657 4f3d
00000130: c449 96bd 7059 433b 7861 4a3d fc16 73bc
00000140: 80a5 f33c 59cb a5bd 49d6 08bd dd12 c53c
00000150: 64f6 83bd 18bb 723d f510 8cbb cc2b c43c
00000160: 9658 8d3c 57fa 95bb 00ec 14b9 18b4 88bc
00000170: c4af b1bd 9458 9e3d 2c8f babc 8c1d 0cbd
00000180: ce27 b63d 087a a4bb f98f 74bd 6aeb 9d3c
00000190: e4f9 20bd b204 da3d e024 de3c 42a9 94bb
000001a0: 99e8 a43d d24e b2bd b836 baba 307b 24bc
000001b0: 05b4 5abd 67a2 2c3d aeb7 11bd d9f5 8a3d
000001c0: 0087 983d a03d eabd f2d3 b23d b8cb 9ebc
000001d0: 423c a0bd 8574 323c f984 553d bc56 9dbc
000001e0: 1aa6 4f3d 3f64 16be 701e 023c 7c12 3abd
000001f0: b821 7fbd 4eef a53d b8c7 bf3c 0040 50bc
00000200: d6c8 9e3d 99cc 2bbd bb5a 023d 50e7 9cbd
00000210: b131 abbd 248b 0e3e 205c 0abe c4d2 6f3d
00000220: 78fe 903d 7667 8dbc c9c0 0bbd bce9 713c
00000230: 0c5c 7bbd 7fbd 463e 7adb 6dbd 713d d93d
00000240: a8d1 163d 68b6 a1bd 92ad d2bc f4c5 7d3c
00000250: f5b4 a2bd 31b6 e03c ceca ebbc 6037 be3d
00000260: dad1 813d ac26 f8bd ce4e 173e 8aa5 99bd
00000270: ef6d 83bd 64b3 ae3c e210 4e3c e8b0 1abc
00000280: 9e52 8b3d 966e 6abe e0c2 bd3d c04d 18be
00000290: 4b7d bebc c663 aa3d a262 9c3c 63e4 f2ba
000002a0: 92da 843d 0a28 88bb 1e80 853c 167f dabd
000002b0: 80ae fabc d39e a93d 3ebc 08be 2c57 a03d
000002c0: b0fa 4f3d 4a60 b9bc 08cc f33b a4ab 6d3b
000002d0: 2ea0 8ebd 5fbc 7e3e 00d0 e5bd 3053 2e3e
000002e0: 2ae7 c03c f45a babd 2456 a2bb 1c63 b3bc
000002f0: b910 24bd 8c28 0ebd da3c 933c 8b25 cb3d
00000300: 7204 023c 9c77 f6bc 9a50 a83d 98b6 4abd
00000310: 3a8f 54bd 55ee c33c 276f 83bc d40e 11ba
00000320: 6285 853d d825 7cbe 82c8 d33d 51fd 20be
00000330: f9e8 25bd 8e20 d83d 6eb0 82bc e476 2a3d
00000340: 8c0a db3c a058 413d 432e 93bc 760d edbd
00000350: 5ad4 0e3d 5ebd 1bbd d9be a9bc 06ea 723c
00000360: 8287 593d 7676 a5bc ae40 6d3c 58c8 9f39
00000370: 5d05 69bd c320 683e 54e1 95bd 06ae f53d
00000380: ac6c 843d 66e2 efbd d731 b23c acdd 2dbd
00000390: f45f b2bc 7283 59bd bba2 023d c2a1 cc3d
000003a0: 2c44 47bd e96f 9c3d 7e0b cfbc 9a8a 7f3c
000003b0: 1405 48bd 1f4e 2e3c 984b 5cbb ccfb 75bb
000003c0: a73f 403d f460 49be 3a26 143d 151e 9bbd
000003d0: 35c6 b7bd 122c 043e 5a4e f2bc c65c 333d
000003e0: e6b8 c13c d95e 343d eb88 16bd 3153 aabd
000003f0: c409 4c3d 6d06 c0bd 0a72 683d 803f 16bd

exp_avg f4 [8, 1, 7, 7]
0.0002979687 -0.018468034 0.0016503836 -0.03440108 0.00029772136 0.010542593 0.0015459596 -0.01896726
-0.014598153 -0.008948038 0.035235047 -0.0064532887 0.011244281 -0.013552905 -0.0055070776 -0.02131575
-0.0046952306 -0.022807537 -0.0010483832 -0.009311483 -0.0029539152 -0.018284902 -0.0035275389 -0.017825924
0.003272347 -0.015700718 0.004988776 0.0023726914 0.005386251 -0.008270987 0.01500462 -0.018853286
0.008215478 0.01686911 0.028399888 -0.015888974 -0.0015397179 0.018943373 0.04447051 0.02007817
0.021994509 0.01226953 -0.013012728 0.010421358 -0.0019027202 -0.009416795 0.0062266747 0.020768011
0.0067570955 -0.0011532799 -0.001015855 0.019576233 -0.016572382 0.018294116 0.049071737 0.04102207
-0.025474988 -0.012220307 0.0034757198 0.042518515 0.015852103 0.042629167 0.02568115 -0.00026338364
-0.0038233486 0.008737963 -0.02251227 0.011533106 0.021291947 0.020951895 -0.018442525 0.0008984807
-0.0041896068 0.009884134 -0.0014270716 0.01784287 0.015694853 -0.011717292 -0.015396463 0.0050181434
-0.03629572 0.0029437458 0.022623453 0.030410215 -0.054334164 -0.04622947 -0.018221367 0.015833048
0.008183133 0.017272316 -0.0039574225 -0.056034602 -0.029422903 -0.030502127 -0.04577434 -0.01904806
0.00834182 -0.0015531445 0.021639597 0.024514578 0.009092577 0.0050110393 0.013666976 -0.004735605
0.005648819 0.005485105 0.012628417 0.012438486 0.015818011 0.013448899 -0.0040394133 0.0028464575
0.014296747 0.013350347 -0.005469396 -0.010208952 -0.003655598 -0.013531062 -0.008269701 0.0025064058
0.004685142 0.002569717 0.009538243 0.00589153 -0.0026440423 -0.002095358 0.004665987 0.00709359
-0.012865886 0.0022164988 0.004467087 -0.0067434725 -0.006435395 -0.009462466 -0.011829787 -0.008526847
-0.0028033128 -0.0020920138 -0.023627002 -0.012300325 0.007938234 0.0010745439 -0.013735734 -0.014855712
-0.018623585 -0.016186597 -0.00779586 0.027943045 0.032445718 0.017824795 0.009221712 0.010268352
0.0012429138 -0.010537816 0.0030073696 0.01158221 0.014995825 0.02331744 -0.0020617633 -0.009819878
-0.014748569 0.012007121 0.009474211 -0.0073010544 -0.016545076 -0.010433181 -0.014858131 -0.015092023
-0.0075238147 0.00226482 0.0062891664 0.014805058 -0.0070835385 -0.0073428303 -0.0121778315 -0.0024097422
-0.00069196045 -0.0042554354 -0.0061673364 -0.003692579 -0.009255353 -0.010766872 -0.0035197819 -0.0014623489
0.0050940444 0.013637265 -0.0074480325 -0.011959595 -0.015990714 0.015821762 0.015226469 -0.0039131544
-0.0106603205 -0.0049803676 -0.0045168446 -0.009253337 -0.00482945 0.006350434 0.010497235 0.001606469
0.04665732 0.048873123 0.02679521 -0.027455287 -0.010799993 0.012503108 0.030950416 0.01452966
0.023156315 0.010194875 -0.015578537 -0.0020142493 -0.009987808 -0.03058942 0.013039597 0.0076923002
0.015685782 -0.026942875 -0.018409425 -0.014542325 -0.005443301 0.0007879318 0.020603225 0.019474706
-0.027998187 -0.0057694083 -0.004417005 -0.019645793 0.030110808 0.019204691 0.02591729 -0.052074537
-0.022967849 -0.008401487 0.019228032 0.010874741 0.0055234456 -0.0015558602 -0.038511656 -0.011444873
-0.033133656 -0.037850212 0.010200704 -0.00036688303 0.00027272635 -0.015498588 -0.004077409 0.005456961
-0.019075997 0.011745149 -0.0050758794 -0.018905276 -0.024924349 -0.008358037 -0.0019666937 0.018135753
00000000: af38 9c39 464a 97bc af51 d83a 26e8 0cbd
00000010: 7c17 9c39 d7ba 2c3c cca1 ca3a 3a61 9bbc
00000020: 172d 6fbc cb9a 12bc a052 103d 1c76 d3bb
00000030: ef39 383c 010d 5ebc b774 b4bb 5e9e aebc
00000040: 73da 99bb dfd6 babc e769 89ba 318f 18bc
00000050: 7996 41bb 38ca 95bc 482e 67bb ac07 92bc
00000060: df74 563b cb9e 80bc e378 a33b 287f 1b3b
00000070: 267f b03b 0983 07bc f0d5 753c 3572 9abc
00000080: 369a 063c 1631 8a3c e2a6 e83c 9829 82bc
00000090: 5cd0 c9ba 222f 9b3c b626 363d f97a a43c
000000a0: d42d b43c 2406 493c 5633 55bc 58be 2a3c
000000b0: b264 f9ba e748 1abc 2209 cc3b ad21 aa3c
000000c0: a06a dd3b a729 97ba 7026 85ba 565e a03c
000000d0: cec2 87bc 8bdd 953c 72ff 483d c206 283d
000000e0: ecb0 d0bc af37 48bc e7c8 633b e527 2e3d
000000f0: 45dc 813c ec9b 2e3d 4661 d23c c116 8ab9
00000100: 2591 7abb ac29 0f3c a76b b8bc 5af5 3c3c
00000110: 736c ae3c 4fa3 ab3c c714 97bc 0588 6b3a
00000120: f848 89bb 10f1 213c 940c bbba 362b 923c
00000130: 7e92 803c e2f9 3fbc 7241 7cbc 3d6f a43b
00000140: d2aa 14bd dceb 403b d254 b93c d81e f93c
00000150: 808d 5ebd 1d5b 3dbd fa44 95bc 4fb4 813c
00000160: 8c12 063c ac7e 8d3c 44ad 81bb 8a84 65bd
00000170: 4d08 f1bc 99df f9bc e07d 3bbd ad0a 9cbc
00000180: 21ac 083c e292 cbba 8645 b13c ccd2 c83c
00000190: 08f9 143c a533 a43b 74eb 5f3c 222d 9bbb
000001a0: ba19 b93b 65bc b33b 6ce7 4e3c cbca 4b3c
000001b0: c694 813c c558 5c3c 0e5d 84bb a28b 3a3b
000001c0: e73c 6a3c 6abb 5a3c 9e38 b3bb 7343 27bc
000001d0: c292 6fbb 63b1 5dbc a47d 07bc 8342 243b
000001e0: d285 993b b268 283b 4a46 1c3c bc0d c13b
000001f0: ab47 2dbb 4652 09bb 23e5 983b 5971 e83b
00000200: 70cb 52bc ae42 113b a460 923b 59f8 dcbb
00000210: 02e0 d2bb 7608 1bbc b9d1 41bc 30b4 0bbc
00000220: c9b7 37bb 2b1a 09bb 6a8d c1bc 4d87 49bc
00000230: 5e0f 023c b6d7 8c3a d80b 61bc 5f65 73bc
00000240: 7d90 98bc c199 84bc 6a74 ffbb d0e8 e43c
00000250: cde5 043d 4e05 923c aa16 173c 973c 283c
00000260: 44e9 a23a cea6 2cbc 4a17 453b 4fc3 3d3c
00000270: 0cb1 753c 3704 bf3c a61e 07bb 8ee3 20bc
00000280: fba3 71bc 84b9 443c b939 1b3c af3d efbb
00000290: 8a89 87bc efef 2abc 856f 73bc 8844 77bc
000002a0: 558a f6bb 606d 143b 5a15 ce3b ea90 723c
000002b0: 071d e8bb 209c f0bb 8785 47bc c4ec 1dbb
000002c0: ae64 35ba 2e71 8bbb 5e17 cabb 32ff 71bb
000002d0: c4a3 17bc 8967 30bc 24ac 66bb 49ac bfba
000002e0: f1eb a63b d66e 5f3c a00e f4bb 2df2 43bc
000002f0: f5fe 82bc a49c 813c 7178 793c eb39 80bb
00000300: a0a8 2ebc 5a32 a3bb 0a02 94bb 4f9b 17bc
00000310: 5d40 9ebb 4d17 d03b 98fc 2b3c 2890 d23a
00000320: bf1b 3f3d 2f2f 483d a181 db3c e9e9 e0bc
00000330: 74f2 30bc d6d9 4c3c ba8b fd3c d00d 6e3c
00000340: 50b2 bd3c 6808 273c 1f3d 7fbc 7f01 04bb
00000350: e7a3 23bc aa96 fabc 09a4 553c b10f fc3b
00000360: 787f 803c 4eb7 dcbc 5dcf 96bc ef42 6ebc
00000370: b85d b2bb 358d 4e3a 18c8 a83c 6b89 9f3c
00000380: 745c e5bc 4e0d bdbb 86bc 90bb 37f0 a0bc
00000390: f1aa f63c 2853 9d3c 7f50 d43c 1c4c 55bd
000003a0: 1227 bcbc 64a6 09bc 1b84 9d3c f82b 323c
000003b0: 05fe b43b 01ee cbba 66be 1dbd 4783 3bbc
000003c0: 28b7 07bd d308 1bbd db20 273c 355a c0b9
000003d0: b6fc 8e39 caed 7dbc c99b 85bb 4fd0 b23b
000003e0: 4445 9cbc ba6e 403c 9053 a6bb 3ddf 9abc
000003f0: 262e ccbc 26f0 08bc a5e3 00bb 6e91 943c

exp_avg_sq f4 [8, 1, 7, 7]
0.013834762 0.01528937 0.018064225 0.024840355 0.017258901 0.014864224 0.010368749 0.017410837
0.019254059 0.024478467 0.0504133 0.023700994 0.01637684 0.014075219 0.017677272 0.03150402
0.04385725 0.037063763 0.033535566 0.026652344 0.017179312 0.027208716 0.04711166 0.057811156
0.021626914 0.07652408 0.05211457 0.026103089 0.01787057 0.027894353 0.03010314 0.044771355
0.025219329 0.022340704 0.019920632 0.014577028 0.018041337 0.015401567 0.03708143 0.020129088
0.01707263 0.013033937 0.012904845 0.01684574 0.015461001 0.01875432 0.015112547 0.013622493
0.011187064 0.018375639 0.017373102 0.019527176 0.03078694 0.017505081 0.02117629 0.017693672
0.020926012 0.020242114 0.020810686 0.044896636 0.020122737 0.021577073 0.017155342 0.021307558
0.028804291 0.036470518 0.038182236 0.03020321 0.023380928 0.019339865 0.026224444 0.040742747
0.03592426 0.01808965 0.06413219 0.032462303 0.020461448 0.019689463 0.024168085 0.02348368
0.041730765 0.021173095 0.020154228 0.019165087 0.019635012 0.01973376 0.014813064 0.034861676
0.02185064 0.017920343 0.016092183 0.019680811 0.019099683 0.016264897 0.026086053 0.016901935
0.016326735 0.016764345 0.0054408573 0.004917553 0.0051028808 0.006702974 0.006566993 0.005472182
0.005319175 0.005378024 0.005414419 0.005921192 0.009351405 0.0068519893 0.0057484526 0.005308201
0.005271882 0.0051407097 0.004878761 0.0069904453 0.005910958 0.005306304 0.004796734 0.004671828
0.004560399 0.004118809 0.007893222 0.005668855 0.0047750175 0.0043341285 0.0039900863 0.004171062
0.004046431 0.0051991288 0.0047408747 0.0047389483 0.0037820726 0.0054681273 0.0053449287 0.006358466
0.008027301 0.008549288 0.0063989423 0.006108402 0.005619769 0.0048058317 0.0068023554 0.007579935
0.007518045 0.0062903296 0.0062800795 0.00990406 0.007942161 0.007632609 0.008419554 0.0068747103
0.0069707786 0.007128618 0.007826247 0.0066637555 0.007901138 0.010513086 0.006336067 0.0059637954
0.00664875 0.007698028 0.006461818 0.0069552916 0.011666286 0.007249496 0.0067981137 0.005445096
0.005680063 0.005502908 0.006877312 0.0073986715 0.00664224 0.0058602155 0.006047057 0.0053144316
0.0046835854 0.005533624 0.004782659 0.0070016184 0.005521927 0.005407189 0.005879334 0.0061757453
0.005440041 0.010739952 0.006955331 0.006818033 0.007280863 0.006832431 0.0064512435 0.0069557442
0.009805607 0.0068292874 0.007278603 0.0080683855 0.0108641945 0.013697486 0.011885446 0.016152745
0.015441173 0.015084048 0.012269366 0.011139993 0.013258319 0.013404297 0.026504792 0.014811416
0.015353919 0.013008908 0.011116465 0.017595781 0.012370008 0.029401345 0.024011832 0.019732673
0.01355215 0.01309183 0.023002613 0.033040613 0.008943128 0.041307975 0.033216514 0.018807072
0.009707797 0.018591834 0.012192206 0.023467688 0.017724818 0.016095133 0.01346616 0.009892266
0.013237606 0.0111441845 0.021987945 0.014839708 0.012452539 0.01059912 0.009402231 0.0130388
0.013920673 0.016704416 0.010751513 0.012017366 0.0107552055 0.007141082 0.007413329 0.0060776775
0.012837233 0.0075864834 0.008584352 0.0059671397 0.0077645443 0.008114353 0.007130963 0.016017634
00000000: 33ab 623c 4480 7a3c 6dfb 933c 007e cb3c
00000010: 8a62 8d3c 1389 733c afe1 293c 2ca1 8e3c
00000020: b0ba 9d3c 1187 c83c 2d7e 4e3d 9628 c23c
00000030: b928 863c bf9b 663c edcf 903c 5c0a 013d
00000040: a9a3 333d 2cd0 173d 975c 093d 0456 da3c
00000050: a1bb 8c3c d0e4 de3c 28f8 403d 64cb 6c3d
00000060: ed2a b13c a8b8 9c3d 1676 553d 25d6 d53c
00000070: 4d65 923c b382 e43c dc9a f63c 2b62 373d
00000080: c498 ce3c da03 b73c 9830 a33c 7dd4 6e3c
00000090: 6dcb 933c db56 7c3c b3e2 173d c2e5 a43c
000000a0: e6db 8b3c 4b8c 553c d86e 533c 1400 8a3c
000000b0: 2350 7d3c a9a2 993c 9e9a 773c e030 5f3c
000000c0: f349 373c 8288 963c 0952 8e3c 75f7 9f3c
000000d0: e534 fc3c d166 8f3c e679 ad3c 52f2 903c
000000e0: 076d ab3c cad2 a53c 2c7b aa3c 89e5 373d
000000f0: 70d8 a43c 67c2 b03c 5c89 8c3c 308d ae3c
00000100: faf6 eb3c 1c62 153d fa64 1c3d b96c f73c
00000110: 5c89 bf3c a36e 9e3c a5d4 d63c dee1 263d
00000120: 5125 133d bf30 943c bd57 833d 31f7 043d
00000130: c49e a73c cc4b a13c 26fc c53c d960 c03c
00000140: e1ed 2a3d 3373 ad3c 7b1a a53c 1a00 9d3c
00000150: 9bd9 a03c b2a8 a13c 7eb2 723c 1ecb 0e3d
00000160: 1d00 b33c afcd 923c c1d3 833c a739 a13c
00000170: f076 9c3c f63d 853c 6bb2 d53c ed75 8a3c
00000180: a5bf 853c 6155 893c 3849 b23b 6d23 a13b
00000190: 1136 a73b 9fa4 db3b ee2f d73b fd4f b33b
000001a0: 794c ae3b 233a b03b 706b b13b 8f06 c23b
000001b0: a336 193c a786 e03b 845d bc3b 6bf0 ad3b
000001c0: c0bf ac3b 6673 a83b 03de 9f3b 1b10 e53b
000001d0: b6b0 c13b 81e0 ad3b ec2d 9d3b 2216 993b
000001e0: 666f 953b 13f7 863b 9352 013c cdc1 b93b
000001f0: c077 9c3b 4e05 8e3b 45bf 823b 67ad 883b
00000200: ec97 843b 745d aa3b 5759 9b3b 2e49 9b3b
00000210: a6dc 773b fa2d b33b 8324 af3b ae5a d03b
00000220: f184 033c 5012 0c3c 38ae d13b fd28 c83b
00000230: 0a26 b83b 3d7a 9d3b 4be6 de3b 1a61 f83b
00000240: ef59 f63b 1c1f ce3b 20c9 cd3b a344 223c
00000250: d61f 023c f71a fa3b 2bf2 093c 4045 e13b
00000260: 216b e43b 2f97 e93b a939 003c a25b da3b
00000270: c673 013c 143f 2c3c c89e cf3b f16b c33b
00000280: c2dd d93b bd3f fc3b a8bd d33b 37e9 e33b
00000290: f323 3f3c 2e8d ed3b b6c2 de3b c76c b23b
000002a0: d21f ba3b bd51 b43b 135b e13b 8e70 f23b
000002b0: 26a7 d93b 0d07 c03b 6426 c63b af24 ae3b
000002c0: c378 993b 6753 b53b dab7 9c3b d56d e53b
000002d0: 48f1 b43b ca2e b13b 6ea7 c03b e85d ca3b
000002e0: 5f42 b23b a0f6 2f3c 8ce9 e33b ce69 df3b
000002f0: 4e94 ee3b 96e2 df3b f464 d33b 03ed e33b
00000300: b2a7 203c 37c8 df3b 5981 ee3b 4331 043c
00000310: bcff 313c 6c6b 603c 2cbb 423c c352 843c
00000320: f9fc 7c3c 1523 773c 7305 493c 8484 363c
00000330: 6c39 593c b29d 5b3c 9420 d93c 95ab 723c
00000340: 018f 7b3c 5123 553c d521 363c 0725 903c
00000350: 93ab 4a3c 17db f03c 76b4 c43c 6aa6 a13c
00000360: d609 5e3c 1d7f 563c fa6f bc3c 9855 073d
00000370: 3386 123c 8d32 293d 0a0e 083d 4a11 9a3c
00000380: 740d 1f3c e74d 983c d2c1 473c 4f3f c03c
00000390: a333 913c f1d9 833c 2ba1 5c3c 2c13 223c
000003a0: 8be2 583c 1996 363c 1020 b43c 3f22 733c
000003b0: bc05 4c3c eea7 2d3c d10b 1a3c b1a0 553c
000003c0: 8913 643c b3d7 883c 1d27 303c 7ce4 443c
000003d0: 9a36 303c bdff e93b 83eb f23b 4127 c73b
000003e0: 4253 523c 0998 f83b 62a5 0c3c ff87 c33b
000003f0: b86d fe3b 10f2 043c daaa e93b 6a37 833c

exp_avg f4 [32, 8, 7, 7]
0.0014078587 -0.0017131909 -0.0003821976 0.0018728009 0.0004361394 -5.7889363e-05 0.00077563437 0.00014960594
-0.0025039024 -0.00025064792 -0.00011748836 -0.0015401199 -0.0019176513 -0.00047193316 0.0009508621 -0.0020792808
0.0005602542 -0.0015023383 -0.0008251395 -0.002090951 -0.00057602 0.0013965417 -0.0021771854 0.0017829473
-0.0006242127 0.0012333461 -0.001283339 -0.00015056995 0.0006262586 -0.0035315873 0.0008021578 -0.00031564292
0.0006342316 0.00021098315 -0.00084892 0.00017456649 -0.0027333638 0.00016577615 -0.0005700578 -0.0013800702
-0.0005174026 -0.0032138864 0.0006681978 -0.00038253152 2.3027585e-05 0.0013783243 0.00048248583 0.00010148218
0.0002495319 0.0050061136 -0.0017609517 -0.0006228084 0.00037414956 -0.00017015309 0.00077453244 0.00026855586
0.0033997253 -0.0020209197 -0.00028662052 -0.0013875989 -0.0008522088 0.00091468834 -0.00017139953 0.0033850903
-0.0029313054 -0.0011764666 -0.002729311 -0.001624264 0.0017741628 0.00025689098 0.0034150633 -0.0027153837
-0.000515268 -0.0017233482 -0.0002669102 0.000434243 -0.000346919 0.003812767 -0.002849361 -0.0005968872
-0.00024813373 0.0019845269 0.0029038072 0.0004998603 0.0035243658 -0.0025327879 -0.0006543358 -0.0024325596
-0.00088433584 0.00021746191 -0.0025391264 0.00299902 -0.0020295363 -0.00017455227 0.00050242123 0.000972141
0.0014594597 0.0010979315 0.00016408994 9.0002875e-05 0.00088991073 0.0021575245 0.0005108482 0.0012678634
0.0016012829 -1.47626215e-05 0.00054583227 0.0016474597 0.0019031988 0.0012907924 0.0024984682 0.0024542059
-0.0013795176 -0.0016997562 0.00019621493 0.0008925616 -0.00010614653 -0.00069759664 0.00018272967 -0.00040862014
-0.00089255616 0.0012484292 0.00077417126 -0.00043612678 -0.0016865586 -0.0016948701 0.0012699363 0.00030881475
0.0025586523 0.0026994029 0.0016573535 0.0014443272 0.001809806 -0.00058837875 -0.0013335011 0.00032622766
0.0012488365 -0.0016065276 -0.0021751572 -0.0012108581 0.00026744686 -0.00094562996 0.00069820305 0.0016906738
-0.00114282 -0.0012111469 -0.00020384455 -0.00095205224 0.0015559582 0.0009261964 0.00054202037 0.0017787755
0.0009542241 0.001063862 -0.0014616934 0.0012108223 0.000467161 -0.00032838614 0.0016150618 -7.517859e-05
-0.0008317304 -0.0010859295 0.002127041 0.0015528394 -0.00016921337 0.0005879229 -0.00023040934 -0.0008414553
0.00035902503 0.002827964 0.0020653077 -0.00025078078 0.0016879558 -0.00034553467 -0.0005783011 -0.00020895028
0.0025087013 0.0013818432 4.3709868e-05 0.0025411372 0.0005050931 -0.00017700976 -0.0018242601 0.0008307969
-1.0340162e-05 -0.0012983738 -0.0011193091 -0.00049410085 -0.00076154695 -0.0008399618 0.0016287321 0.0016953062
0.0003150709 -1.6237485e-05 0.001194363 0.00074377976 0.0022781058 3.8747086e-05 -0.002167674 -0.001450823
-0.00096196926 0.00025138483 0.0009286245 0.001312031 0.00013654606 -0.00079063245 -0.0004846645 0.00041141637
-0.00026297214 -0.00022664925 0.0007931362 4.751568e-05 0.0011122457 0.00029884264 -9.9228295e-05 -0.00022586553
0.00037328264 0.0012128812 -0.0009449585 0.0015043707 0.00072596467 3.5171488e-06 -0.0009139714 0.0009385774
0.0016968024 -0.0019058067 -0.0006528999 0.00076178275 -0.00036682008 -0.00057151646 2.7867973e-05 0.00141725
-0.001661732 -0.00021604697 -3.7879097e-05 -0.0013216563 0.0012114913 -0.00057836575 0.0013612133 -0.0005023996
0.0006033758 -0.00036930977 -0.0003131524 0.0024019848 0.0026174271 -0.000776314 -0.00026389398 -0.003453616
0.0013847827 -0.0015566607 -0.0012416802 -0.00028175954 -0.0020238096 -0.00040685205 -0.0017297793 0.0009553875
00000000: e687 b83a 268d e0ba b261 c8b9 c578 f53a
00000010: a4a9 e439 3bce 72b8 f153 4b3a 8adf 1c39
00000020: 8318 24bb 6569 83b9 1564 f6b8 d9dd c9ba
00000030: b359 fbba cc6d f7b9 4643 793a 8b44 08bb
00000040: 06de 123a 1cea c4ba 2d4e 58ba 5608 09bb
00000050: 0c00 17ba 2a0c b73a 1caf 0ebb c9b1 e93a
00000060: 35a2 23ba 3aa8 a13a b635 a8ba 50e2 1db9
00000070: 812b 243a 3472 67bb e647 523a e07c a5b9
00000080: 9042 263a 5c3b 5d39 0f8a 5eba d60b 3739
00000090: 3c22 33bb 32d4 2d39 ee6f 15ba 79e3 b4ba
000000a0: 4da2 07ba 11a0 52bb ff29 2f3a 838e c8b9
000000b0: 5d2b c137 e4a8 b43a 27f6 fc39 d5d2 d438
000000c0: 9bd3 8239 530a a43b bccf e6ba f743 23ba
000000d0: 8129 c439 1f6b 32b9 fe09 4b3a f5cc 8c39
000000e0: edcd 5e3b 6871 04bb 8e45 96b9 18e0 b5ba
000000f0: c466 5fba b2c7 6f3a b6b9 33b9 64d8 5d3b
00000100: 251b 40bb ab33 9aba 3dde 32bb 42e5 d4ba
00000110: 068b e83a 53af 8639 41cf 5f3b 94f4 31bb
00000120: 0d13 07ba f8e1 e1ba 15f0 8bb9 1cab e339
00000130: aee2 b5b9 9edf 793b 58bc 3abb 6c78 1cba
00000140: f217 82b9 d60e 023b cd4d 3e3b 0f09 033a
00000150: 0cf9 663b 21fd 25bb bb87 2bba 946b 1fbb
00000160: c6d2 67ba 7d06 6439 7967 26bb 358b 443b
00000170: f801 05bb 0508 37b9 ebb4 033a 47d7 7e3a
00000180: 574b bf3a 78e8 8f3a 8f0f 2c39 edbf bc38
00000190: e648 693a 4165 0d3b 71ea 053a 702e a63a
000001a0: 23e2 d13a faac 77b7 2f16 0f3a 93ef d73a
000001b0: c174 f93a ce2f a93a 57bd 233b bed6 203b
000001c0: eed0 b4ba 5bca deba 0bbf 4d39 ccfa 693a
000001d0: fc9a deb8 ebde 36ba 1f9b 3f39 113c d6b9
000001e0: 6efa 69ba 55a2 a33a c1f1 4a3a f2a7 e4b9
000001f0: 840f ddba 6726 deba fe73 a63a 6ae8 a139
00000200: 10af 273b 77e8 303b 8e3b d93a 944f bd3a
00000210: 0337 ed3a 6e3d 1aba dfc8 aeba 8909 ab39
00000220: 00b0 a33a 1f92 d2ba 158d 0ebb a8b5 9eba
00000230: 1c38 8c39 27e4 77ba 9d07 373a 9999 dd3a
00000240: adca 95ba 59bf 9eba 1bbf 55b9 2593 79ba
00000250: 4bf1 cb3a fdcb 723a 5f16 0e3a cd25 e93a
00000260: e524 7a3a 4971 8b3a 4b96 bfba 74b4 9e3a
00000270: 4aed f439 3e2b acb9 7bb0 d33a 33a9 9db8
00000280: 7b08 5aba bf55 8eba d465 0b3b a588 cb3a
00000290: de6e 31b9 d71e 1a3a 099a 71b9 1c95 5cba
000002a0: 863b bc39 5d55 393b 1d5a 073b 3a7b 83b9
000002b0: 663e dd3a e128 b5b9 2199 17ba aa19 5bb9
000002c0: 0669 243b f71e b53a 1d55 3738 3589 263b
000002d0: 3968 043a b29b 39b9 031c efba d6c9 593a
000002e0: a87a 2db7 322e aaba c8b5 92ba 8c86 01ba
000002f0: 8da2 47ba e230 5cba 2e7b d53a 0935 de3a
00000300: 1a30 a539 bc35 88b7 2c8c 9c3a 37fa 423a
00000310: 464c 153b 5e84 2238 890f 0ebb 8b29 beba
00000320: aa2c 7cba 4dcc 8339 ef6e 733a 74f8 ab3a
00000330: ce2d 0f39 7242 4fba 911a feb9 5fb3 d739
00000340: 86df 89b9 b2a8 6db9 78ea 4f3a 934b 4738
00000350: c6c8 913a fbad 9c39 c918 d0b8 51d6 6cb9
00000360: 26b5 c339 8af9 9e3a 17b7 77ba 4e2e c53a
00000370: aa4e 3e3a 2808 6c36 9597 6fba dd0a 763a
00000380: 3e67 de3a 43cc f9ba 5f27 2bba 60b2 473a
00000390: c251 c0b9 d2d1 15ba 04c6 e937 05c3 b93a
000003a0: 79ce d9ba ab8a 62b9 5fe0 1eb8 6d3b adba
000003b0: e7ca 9e3a 789d 17ba bd6a b23a 77b3 03ba
000003c0: dd2b 1e3a eb9f c1b9 9b2e a4b9 9e6a 1d3b
000003d0: 2489 2b3b 8d81 4bba 405b 8ab9 1056 62bb
000003e0: 9981 b53a de08 ccba e0bf a2ba 20b9 93b9
000003f0: e4a1 04bb c24e d5b9 c3b9 e2ba f872 7a3a
