trained_models/Sigma_5_t_5/checkpoints/checkpoint_10.pth (torch, 173091 bytes, 10 tensors)

conv_layer.conv_layers.0.parametrizations.weight.original f4 [8, 1, 7, 7]
0.029470762 0.061724626 -0.05323005 0.124099694 -0.05799866 0.037310917 -0.020300064 0.012280709
0.09187958 -0.12877423 0.17840052 0.020829901 0.08212048 0.0038544524 -0.0040654 -0.07659006
0.15504073 0.1902413 -0.041499555 -0.004740317 -0.06374697 0.0053607593 -0.025173964 0.22752953
-0.5481372 0.049507033 -0.037925463 -0.022719745 0.033006195 -0.11222914 0.20005909 -0.16169858
0.18833269 0.10653156 -0.0043200427 0.04488827 0.070266575 0.017705115 0.09730263 0.012544113
-0.003505708 0.05384618 1.7894414e-05 0.026316963 0.057525646 -0.038362965 0.053379424 0.00094069476
0.027078437 -0.032705184 -0.06720801 -0.012042645 -0.12264953 0.080606736 0.05081165 0.0031004008
0.012148217 -0.0027467858 0.16199934 -0.17648415 -0.011338326 -0.09478172 0.00021255505 -0.06596754
-0.013949546 -0.07624628 0.31470808 -0.0261915 -0.04577231 -0.06475013 0.13160674 0.07697821
0.22071542 -0.6195912 -0.23465821 -0.06801845 -0.028704925 -0.0058169235 0.06997328 0.20126927
-0.0278515 -0.027142894 0.06806729 -0.004972134 -0.0015209718 -0.025364436 0.08702344 -0.05180552
-0.022121469 -0.02242138 0.021282347 -0.045807943 -0.0058623934 0.058752287 -0.1017928 -0.008085611
0.030392861 -0.009539017 -0.028309302 -0.05665761 -0.05318592 0.070543654 -0.021320727 -0.108958155
-0.017810354 -0.07237871 -0.11227639 -0.046530306 -0.18110837 -0.09092198 0.101591066 0.02460551
0.02398447 -0.06591511 -0.10915157 -0.062264122 0.08559429 -0.15554525 -0.050386768 -0.048508734
0.07049781 -0.10437617 -0.09905703 -0.02993306 -0.17738645 -0.114749365 -0.054745693 -0.15100737
0.20710683 0.062495813 0.20027891 0.08294841 -0.09380322 -0.02738874 -0.060846213 -0.02684162
-0.17921433 -0.128778 0.051279962 -0.013852243 -0.032244314 -0.07318276 0.06607938 -0.07815631
-0.011403217 -0.036516953 -0.022442253 0.013350875 0.11152774 -0.12768796 0.007644744 -0.029791247
0.037535455 -0.013950312 0.020278394 -0.03400508 0.08491351 0.10118189 -0.024250844 -0.07645691
0.047979817 -0.031471353 -0.0069758636 -0.13342859 0.106017105 -0.054604683 -0.057681073 0.17853402
-0.018545752 -0.07149006 -0.08589133 -0.11199685 0.0927399 -0.033577926 -0.10742807 0.046693884
-0.08017287 0.0999113 0.26264322 -0.11715682 0.07277616 0.063557684 0.015549965 -0.03903921
0.083191276 0.04827567 0.048486937 0.027161106 -0.05921662 -0.0073584244 0.013538028 -0.008978918
0.080750704 0.014040854 0.0021872467 -0.009447171 -0.04350333 -0.030101603 0.070918396 0.07235616
-0.057816207 -0.057197284 -0.0062729474 0.013318638 -0.07498999 -0.06324677 -0.059120268 -0.10955155
-0.029681634 -0.020630835 0.069754854 0.06962315 -0.12853034 -0.08277212 0.027575789 0.15458389
-0.023000961 -0.05134692 0.13682191 -0.11824243 -0.5999549 0.20037185 0.014869784 0.021320565
-0.09972459 0.018837104 0.13038713 0.10407954 -0.16807875 -0.09860411 -0.03305175 0.04782059
-0.022115812 0.08962144 0.0893932 0.018299622 -0.02552553 -0.06256937 -0.0408699 -0.087547556
0.071604244 -0.051177833 -0.048338648 -0.030789034 -0.019530972 -0.026507974 -0.059842855 0.08209435
-0.043128613 0.048905768 -0.03159725 -0.03929283 -0.008705092 -0.09884207 -0.04903431 -0.077559374
00000000: ab6c f13c f6d2 7c3d c107 5abd fb27 fe3d
00000010: 0190 6dbd 55d3 183d 524c a6bc 0735 493c
00000020: 5c2b bc3d 64dd 03be a0ae 363e 78a3 aa3c
00000030: c82e a83d fb9a 7c3b 0c37 85bb 40db 9cbd
00000040: ffc2 1e3e 9ece 423e 70fb 29bd a954 9bbb
00000050: c58d 82bd 4fa9 af3b a139 cebc 80fd 683e
00000060: b852 0cbf e3c7 4a3d bb57 1bbd c21e babc
00000070: 8131 073d 64d8 e5bd 4adc 4c3e 5094 25be
00000080: 49da 403e 382d da3d 258f 8dbb c3dc 373d
00000090: ece7 8f3d 510a 913c 9a46 c73d d385 4d3c
000000a0: 05c0 65bb d08d 5c3d f61b 9637 ac96 d73c
000000b0: 03a0 6b3d 7c22 1dbd 62a4 5a3d f598 763a
000000c0: 99d3 dd3c dff5 05bd 5aa4 89bd 844e 45bc
000000d0: ad2f fbbd 2515 a53d e01f 503d 1830 4b3b
000000e0: 5109 473c 6b03 34bb 28e3 253e 43b8 34be
000000f0: 63c4 39bc eb1c c2bd 50e1 5e39 fd19 87bd
00000100: a38c 64bc 0227 9cbd 6b21 a13e 8e8f d6bc
00000110: bf7b 3bbd b79b 84bd ebc3 063e c0a6 9d3d
00000120: 3903 623e 879d 1ebf 3e4a 70be 424d 8bbd
00000130: 9726 ebbc e49b bebb 274e 8f3d 8819 4e3e
00000140: d428 e4bc c65a debc dd66 8b3d 48ed a2bb
00000150: 585b c7ba 14c9 cfbc 5839 b23d 0632 54bd
00000160: 1538 b5bc 0bad b7bc 5158 ae3c 1ca1 3bbd
00000170: 5219 c0bb 3da6 703d be78 d0bd 8379 04bc
00000180: 73fa f83c 8a49 1cbc e9e8 e7bc cf11 68bd
00000190: 7bd9 59bd 3179 903d cea8 aebc 7425 dfbd
000001a0: 05e7 91bc 4a3b 94bd 2af1 e5bd 9096 3ebd
000001b0: 7974 39be 4e35 babd fa0e d03d 7f91 c93c
000001c0: 147b c43c 80fe 86bd dc8a dfbd aa08 7fbd
000001d0: 0f4c af3d 4147 1fbe 5b62 4ebd 18b1 46bd
000001e0: 2861 903d 2cc3 d5bd 6ade cabd 2d36 f5bc
000001f0: cba4 35be b701 ebbd 053d 60bd ada1 1abe
00000200: d013 543e 9cfb 7f3d ea15 4d3e dbe0 a93d
00000210: e71b c0bd 5a5e e0bc e139 79bd f5e2 dbbc
00000220: f683 37be 61de 03be f00a 523d 85f4 62bc
00000230: 9d12 04bd d8e0 95bd a054 873d 6a10 a0bd
00000240: 8fd4 3abc cd92 15bd d1d8 b7bc a1bd 5a3c
00000250: a868 e43d a2c0 02be c380 fa3b c60c f4bc
00000260: c7be 193d d98f 64bc e01e a63c e948 0bbd
00000270: 22e7 ad3d 7338 cf3d b5a9 c6bc 7195 9cbd
00000280: 7c86 443d 1be8 00bd c995 e4bb 81a1 08be
00000290: 7f1f d93d 29a9 5fbd fd42 6cbd 9fd1 363e
000002a0: 43ed 97bc 6169 92bd cbe7 afbd 9b5e e5bd
000002b0: 6bee bd3d 0289 09bd 3f03 dcbd 1642 3f3d
000002c0: ac31 a4bd 4c9e cc3d 2c79 863e eaef efbd
000002d0: ab0b 953d 882a 823d 48c5 7e3c 94e7 1fbd
000002e0: 3060 aa3d b5bc 453d 3d9a 463d f880 de3c
000002f0: 208d 72bd f01e f1bb 9bce 5d3c 501c 13bc
00000300: a060 a53d 9c0b 663c e957 0f3b 4fc8 1abc
00000310: 8c30 32bd a397 f6bc aa3d 913d 772f 943d
00000320: b0d0 6cbd b347 6abd 4c8d cdbb 6b36 5a3c
00000330: 5a94 99bd 8687 81bd 1828 72bd 905c e0bd
00000340: e626 f3bc ff01 a9bc a2db 8e3d 9596 8e3d
00000350: 759d 03be 6e84 a9bd 9fe6 e13c 3d4b 1e3e
00000360: 836c bcbc 2651 52bd 0b1b 0c3e 1629 f2bd
00000370: a596 19bf 472e 4d3e 65a0 733c 77a8 ae3c
00000380: 683c ccbd 4550 9a3c 3484 053e a727 d53d
00000390: d61c 2cbe f4f0 c9bd 4661 07bd 86df 433d
000003a0: 382c b5bc 728b b73d c813 b73d 17e9 953c
000003b0: eb1a d1bc 5f24 80bd 3267 27bd 224c b3bd
000003c0: 3fa5 923d d99f 51bd bffe 45bd 4939 fcbc
000003d0: 6bff 9fbc 4027 d9bc c81d 75bd 1521 a83d
000003e0: a1a7 30bd 6a51 483d 1e6c 01bd 85f1 20bd
000003f0: cd9f 0ebc b66d cabd 33d8 48bd 73d7 9ebd

conv_layer.conv_layers.1.parametrizations.weight.original f4 [32, 8, 7, 7]
0.012615114 -0.023358906 0.025352377 0.014514576 -0.02518944 0.02623947 0.01963278 -0.003680241
-0.03961789 0.021475216 0.02215605 -0.037992053 0.027159333 -0.011393302 0.020359086 -0.06561619
-0.06607099 0.12972431 -0.12469164 0.019712634 0.07378498 0.09975723 -0.013388476 -0.077113785
0.19612898 -0.13481449 -0.059195217 0.009888672 0.1041483 0.062000457 -0.12751047 0.1767594
0.041298036 -0.07217092 -0.050271355 0.054231655 0.08951037 -0.07058897 0.07177768 0.017802296
0.014704772 -0.011091959 -0.026368948 0.056735132 -0.066279955 -0.08401626 0.045228817 0.06033094
-0.009048903 0.007561868 0.025150465 0.05104491 -0.021924783 -0.021760114 0.015236358 -0.0015671229
-0.012912929 0.020598497 0.016937163 -0.073359504 -0.10957739 0.06486809 0.015889507 -0.045172047
0.011349168 0.05045578 0.043978985 -0.20458832 0.03656828 0.009019924 -0.013513197 0.008928195
0.09183336 0.19237006 -0.26609105 -0.13744661 0.024088655 0.019834645 0.007420819 0.039264366
0.20984116 -0.14999567 -0.12747951 0.00015649947 -0.0068136365 -0.041607764 -0.08846793 0.18450755
0.06855946 -0.050456583 -0.057142574 -0.0063794716 -0.09245512 -0.09713209 0.0516546 0.05626233
0.016280677 -0.02323481 -0.0072158296 0.026558794 0.010480557 0.0055268346 0.0344365 -0.05176992
-0.007434865 0.052202404 0.0060418225 0.0012475342 -0.0091913855 0.022575863 0.019796247 4.3724438e-05
0.08179982 0.02571261 -0.12294516 0.051199675 -0.03801127 0.011495991 -0.031329956 0.05270284
0.068916656 -0.1815292 0.087815344 -0.0054005575 0.0707753 -0.051117275 0.008763042 0.052307267
-0.04163658 0.027269138 -0.04822864 0.040559366 0.036258243 0.008412604 0.0008894888 -0.033483468
-0.119492345 -0.047318652 0.015157985 0.05825136 0.021942267 -0.016594458 -0.019000659 -0.022438541
-0.0010945636 -0.032220595 -0.01959874 -0.039236236 0.009489833 0.012631754 0.028989738 -0.008125288
-0.031356048 0.005019275 -0.018755183 0.0380315 0.030116701 0.10539017 0.014256767 -0.038725685
0.015711492 -0.021175854 0.05794108 -0.03145329 0.14348756 0.040662885 -0.00970282 0.03357314
-0.036382277 0.10573042 0.004296947 -0.0033287848 0.022633553 0.0036312588 0.0031908716 -0.034293346
0.07938642 -0.0012703434 0.027901215 -0.097688735 -0.04059279 -0.044492852 -0.028434874 0.046196744
0.036312934 0.040293593 -0.05263897 -0.030410808 -0.019792901 0.008593822 0.055002954 -0.011198541
0.06994929 -0.010657498 -0.008171541 -0.02131459 0.0035954248 -0.003511428 -0.031149158 0.024456
-0.08000998 -0.016020255 -0.012374671 -0.026229328 -0.011477783 -0.057283536 0.08572708 -0.02444801
0.011261811 -0.02470873 -0.014651581 -0.023156898 0.030342326 0.08829166 -0.19949684 -0.038759038
-0.028094364 0.020999247 -0.053226776 0.047300585 0.24175017 -0.19617648 -0.0968138 0.025286723
0.04544516 -0.062688336 -0.09865934 0.13085067 -0.12723589 -0.058019713 0.0016035663 0.026523683
0.050491095 -0.09049598 -0.10272327 0.068641745 -0.018245485 0.04452415 0.0146087585 0.049456187
0.01316099 -0.021424755 -0.0143758785 -0.0750166 -0.014840573 -0.036612194 -0.04679882 0.009258542
0.0058281687 0.04003654 0.029539155 0.027922964 -0.024609447 -0.059104484 -0.031769045 0.031291675
00000000: a0af 4e3c 2d5b bfbc caaf cf3c 8bce 6d3c
00000010: 165a cebc 28f4 d63c edd4 a03c 3330 71bb
00000020: 5e46 22bd cbec af3c 9b80 b53c 8e9d 1bbd
00000030: 407d de3c f9aa 3abc 19c8 a63c c861 86bd
00000040: 3a50 87bd 73d6 043e 555e ffbd 647c a13c
00000050: 941c 973d 854d cc3d 575b 5bbc d5ed 9dbd
00000060: 09d6 483e cf0c 0abe af76 72bd 1904 223c
00000070: b44b d53d 31f4 7d3d 1b92 02be 6b00 353e
00000080: 2128 293d 59ce 93bd 56e9 4dbd 0322 5e3d
00000090: 3651 b73d f390 90bd 2d00 933d 1fd6 913c
000000a0: 49ec 703c 0cbb 35bc b103 d8bc 1963 683d
000000b0: c9bd 87bd b810 acbd da41 393d 931d 773d
000000c0: da41 14bc 8cc9 f73b 5908 ce3c 7814 513d
000000d0: 9a9b b3bc 4442 b2bc eba1 793c eb67 cdba
000000e0: c090 53bc 2ebe a83c cebf 8a3c 823d 96bd
000000f0: 1c6a e0bd 90d9 843d b62a 823c 5306 39bd
00000100: dcf1 393c b8aa 4e3d 4f23 343d 9a7f 51be
00000110: 9fc8 153d 4ec8 133c 7566 5dbc 9047 123c
00000120: 2113 bc3d a8fc 443e 163d 88be cebe 0cbe
00000130: 9255 c53c 447c a23c 572a f33b acd3 203d
00000140: 9ae0 563e 7798 19be fd89 02be 021a 2439
00000150: ed44 dfbb e76c 2abd ad2e b5bd 8cef 3c3e
00000160: e768 8c3d 90ab 4ebd 550e 6abd e30a d1bb
00000170: 1c59 bdbd 30ed c6bd c693 533d 5473 663d
00000180: 0e5f 853c ee56 bebc c472 ecbb d491 d93c
00000190: a4b6 2b3c 731a b53b 4a0d 0d3d b20c 54bd
000001a0: 2ba0 f3bb 30d2 553d 7bfa c53b 4d84 a33a
000001b0: 7797 16bc 04f1 b83c bd2b a23c c264 3738
000001c0: aa86 a73d 40a3 d23c acca fbbd c0b6 513d
000001d0: b5b1 1bbd ae59 3c3c d753 00bd efde 573d
000001e0: 2d24 8d3d cae2 39be 88d8 b33d 29f7 b0bb
000001f0: a4f2 903d 5960 51bd dd92 0f3c 2540 563d
00000200: 1e8b 2abd 8763 df3c 658b 45bd 9421 263d
00000210: 8683 143d 05d5 093c 952c 693a f625 09bd
00000220: 67b8 f4bd 34d1 41bd 3259 783c fa98 6e3d
00000230: 45c0 b33c 1af1 87bc 45a7 9bbc 08d1 b7bc
00000240: 7677 8fba bef9 03bd 898d a0bc 2db6 20bd
00000250: 3f7b 1b3c 6bf5 4e3c e37b ed3c ee1f 05bc
00000260: 336f 00bd bb78 a43b 78a4 99bc ebc6 1b3d
00000270: 4db7 f63c cdd6 d73d 3795 693c d39e 1ebd
00000280: 63b5 803c fc78 adbc a053 6d3d 2ad5 00bd
00000290: 67ee 123e 208e 263d 94f8 1ebc fd83 093d
000002a0: 9505 15bd 3189 d83d 67cd 8c3b be27 5abb
000002b0: 006a b93c 6afa 6d3b f11d 513b 2e77 0cbd
000002c0: 5995 a23d a781 a6ba 1791 e43c 0811 c8bd
000002d0: a044 26bd 233e 36bd 41f0 e8bc cc38 3d3d
000002e0: dfbc 143d e50a 253d f69b 57bd 1620 f9bc
000002f0: b924 a2bc 1acd 0c3c c74a 613d 167a 37bc
00000300: 9341 8f3d c99c 2ebc ede1 05bc ef9b aebc
00000310: 38a1 6b3b fc1f 66bb 852c ffbc f357 c83c
00000320: 46dc a3bd e93c 83bc 22bf 4abc e3de d6bc
00000330: 500d 3cbc 24a2 6abd ae91 af3d 3147 c8bc
00000340: 7583 383c f669 cabc 2f0d 70bc 89b3 bdbc
00000350: 7890 f83c 42d2 b43d e648 4cbe ccc1 1ebd
00000360: 2726 e6bc 9d06 ac3c 5204 5abd 42be 413d
00000370: 5b8d 773e 7de2 48be 5046 c6bd 1a26 cf3c
00000380: b424 3a3d be62 80bd e80d cabd b8fd 053e
00000390: 204a 02be 14a6 6dbd c22e d23a 3248 d93c
000003a0: c0cf 4e3d f555 b9bd 9460 d2bd 0b94 8c3d
000003b0: 8e77 95bc f55e 363d 9359 6f3c 9292 4a3d
000003c0: 31a1 573c f882 afbc ce88 6bbc 4ea2 99bd
000003d0: e025 73bc abf6 15bd 1fb0 3fbd 24b1 173c
000003e0: 39fa be3b 5bfd 233d 19fc f13c b3be e43c
000003f0: c099 c9bc 8b17 72bd 4220 02bd b32b 003d

activation.coefficients_vect f4 [672]
-0.0 0.0022320917 0.001585433 0.001383368 0.0011660992 0.0004448961 0.00034908007 -5.8531746e-06
-0.00012839536 -0.00027159136 -0.0001283073 3.2072596e-05 -1.1213976e-06 -0.00018999889 -0.00052680174 -0.0008811125
-0.0011036957 -0.0013864089 -0.0019250355 -0.0030572447 0.0 -0.0 0.0025502956 0.0021791726
0.0015656105 0.0012393029 0.00072425115 0.00022384175 0.00013066616 -0.00019417796 -0.00023569741 -8.165204e-05
7.4418225e-05 6.8746136e-05 3.4604138e-06 -0.00022588225 -0.00076657574 -0.0007913646 -0.000798063 -0.0012696296
-0.0019387193 0.0 -0.0 0.0016941766 0.0015199655 0.0012201392 0.0010837904 0.00070053496
0.00023779341 0.00017199237 -7.8588564e-05 -0.00026252092 -2.141098e-05 0.00017139287 0.00010514218 -1.5861313e-05
-0.00017138258 -0.0006097823 -0.0007728929 -0.001414528 -0.0019964385 -0.0022091065 0.0 -0.0
0.001603453 0.00074563327 0.0006654548 0.00057053735 0.0001038083 -5.4259985e-05 -0.000103160644 -0.00039637336
-0.00042681594 -2.1045627e-05 0.00033966856 0.00029952914 0.00019449336 6.4843225e-06 -0.00040178082 -0.0006303285
-0.00094645994 -0.0010941421 -0.001259532 0.0 -0.0 0.00048012243 0.0003627174 0.00030893512
0.00013361414 0.00012597926 6.850558e-05 4.982583e-05 1.5338546e-05 -1.7944271e-06 -1.8633127e-05 -5.31682e-05
-6.2610896e-05 -7.60654e-05 -7.817279e-05 -0.00016920407 -0.00020880255 -0.0003443143 -0.0007374977 -0.0007811255
0.0 -0.0 0.0011008743 0.0007258863 0.0006384335 0.00055603293 0.0002467247 0.0002286941
0.00013739664 0.00011849041 3.2651133e-05 -2.1607348e-05 -2.9303412e-05 -0.00012293138 -0.0001959447 -0.00025499138
-0.00026726758 -0.0003732059 -0.00038928122 -0.00051229016 -0.00055185944 0.0 -0.0 0.0009245562
0.00067223504 0.0005359641 0.00036193768 0.00033173236 0.0002762729 8.492605e-05 5.606912e-05 -6.1807874e-08
-2.997976e-05 -3.3282013e-05 -7.66059e-05 -8.3714214e-05 -0.00015227313 -0.0003203951 -0.00032226954 -0.00042352616
-0.00048507124 -0.00065703987 0.0 -0.0 0.0017275547 0.001158561 0.000802061 0.00070778653
0.0005427607 0.0003837833 0.00016769438 0.00013525446 -3.0844498e-05 -3.7863265e-05 -6.143403e-05 -6.858954e-05
-0.000101944366 -0.0002892141 -0.00046296456 -0.0006781265 -0.0008353538 -0.0008966038 -0.0011104485 0.0
-0.0 0.00050430075 0.00032809938 0.00017304732 -5.5587065e-05 -0.00016363233 -0.00027748462 -0.00034767995
-0.00042960065 -0.00049674965 0.00012659041 0.0007462964 0.00040044382 0.00026089055 0.00019893776 5.652746e-05
2.1588998e-05 1.2904753e-05 -0.0001779766 -0.00029794878 0.0 -0.0 0.001107471 0.0010635147
0.0006139451 0.0004033644 0.0002328322 -1.879981e-05 -5.5162494e-05 -0.00019420208 -0.00026661227 8.039934e-05
0.00043476216 0.00038686706 0.00032126295 8.987085e-05 -0.0001634264 -0.00045011708 -0.0005121868 -0.0016513761
-0.0023349337 0.0 -0.0 0.0010976352 0.0007037906 0.00052311004 0.00040982512 0.00022155399
0.00022004919 0.00021652666 0.00019039087 0.00012961567 0.00011106815 4.3485703e-05 -1.8499353e-05 -0.00014391012
-0.00033857225 -0.00043797254 -0.0004766022 -0.0006625837 -0.00092545844 -0.001660347 0.0 -0.0
0.0007052913 0.00051709235 0.0004429592 0.0004240701 0.00041212284 0.00035395377 0.00022994648 0.00013661903
3.7711623e-05 -3.6776804e-05 -7.711592e-05 -0.00020068223 -0.000226015 -0.00025255696 -0.0003616854 -0.0003658467
-0.00042585866 -0.00051409827 -0.0006432849 0.0 -0.0 0.0011709672 0.00073396845 0.00050076796
00000000: 0000 0080 4948 123b 4ece cf3a 2152 b53a
00000010: ccd7 983a f240 e939 bc04 b739 6366 c4b6
00000020: dea1 06b9 6064 8eb9 3b8a 06b9 b085 0638
00000030: ee82 96b5 703a 47b9 1119 0aba 75fa 66ba
00000040: e2a9 90ba 2ab8 b5ba 7951 fcba 0e5c 48bb
00000050: 0000 0000 0000 0080 dc22 273b 73d0 0e3b
00000060: 2c35 cd3a 1b70 a23a acdb 3d3a 10b7 6a39
00000070: 6e03 0939 409c 4bb9 8b25 77b9 9b3c abb8
00000080: fb10 9c38 cd2b 9038 7539 6836 ceda 6cb9
00000090: 07f4 48ba 9473 4fba 1a35 51ba b369 a6ba
000000a0: a01c feba 0000 0000 0000 0080 220f de3a
000000b0: 9439 c73a 14ed 9f3a f90d 8e3a 1ba4 373a
000000c0: 2f58 7939 da58 3439 eacf a4b8 f6a2 89b9
000000d0: bb9b b3b7 ecb7 3339 c77f dc38 e90d 85b7
000000e0: 29b5 33b9 ccd9 1fba f79b 4aba af67 b9ba
000000f0: aed6 02bb a8c6 10bb 0000 0000 0000 0080
00000100: f42a d23a 9a76 433a ea71 2e3a 1d90 153a
00000110: a8b3 d938 3795 63b8 f357 d8b8 55d0 cfb9
00000120: 44c6 dfb9 248b b0b7 8b15 b239 1f0a 9d39
00000130: eaf0 4b39 e893 d936 1ca6 d2b9 a13c 25ba
00000140: da1b 78ba 5169 8fba e116 a5ba 0000 0000
00000150: 0000 0080 f1b8 fb39 1b2b be39 92f8 a139
00000160: c61a 0c39 4d19 0439 a7aa 8f38 14fc 5038
00000170: 47ab 8037 0cd8 f0b5 564e 9cb7 ec00 5fb8
00000180: f84d 83b8 4d85 9fb8 b2f0 a3b8 5f6c 31b9
00000190: 02f2 5ab9 1585 b4b9 a254 41ba 72c4 4cba
000001a0: 0000 0000 0000 0080 364b 903a 6849 3e3a
000001b0: 8c5c 273a bdc2 113a d45a 8139 9bcd 6f39
000001c0: 2112 1039 0e7e f838 e3f2 0838 6d41 b5b7
000001d0: 99d0 f5b7 24e7 00b9 8176 4db9 5db0 85b9
000001e0: 0c20 8cb9 d9aa c3b9 7118 ccb9 364b 06ba
000001f0: a9aa 10ba 0000 0000 0000 0080 eb5d 723a
00000200: ee38 303a f17f 0c3a 74c2 bd39 5dec ad39
00000210: b9d8 9039 531a b238 c22b 6b38 3dbb 84b3
00000220: 0b7d fbb7 4a98 0bb8 7ba7 a0b8 ba8f afb8
00000230: 82ab 1fb9 b4fa a7b9 49f6 a8b9 b80c deb9
00000240: 2951 feb9 333d 2cba 0000 0000 0000 0080
00000250: 1e6f e23a dbda 973a 6741 523a c08a 393a
00000260: 0e48 0e3a 8636 c939 1ed7 2f39 18d3 0d39
00000270: 075f 01b8 5fcf 1eb8 25d6 80b8 bbd7 8fb8
00000280: f7ca d5b8 a9a1 97b9 0dba f2b9 4dc4 31ba
00000290: a5fb 5aba 100a 6bba 788c 91ba 0000 0000
000002a0: 0000 0080 0d33 043a c104 ac39 0974 3539
000002b0: 2826 69b8 b894 2bb9 5b7b 91b9 d048 b6b9
000002c0: 063c e1b9 4e38 02ba 5bbd 0439 1ba3 433a
000002d0: a9f2 d139 23c8 8839 f399 5039 e617 6d38
000002e0: 051a b537 7e81 5837 3b9f 3ab9 0236 9cb9
000002f0: 0000 0000 0000 0080 8f28 913a a265 8b3a
00000300: 29f1 203a a77a d339 6b24 7439 49b4 9db7
00000310: 475e 67b8 b9a2 4bb9 18c8 8bb9 119c a838
00000320: caf0 e339 6bd4 ca39 2f6f a839 0c79 bc38
00000330: 715d 2bb9 b1fd ebb9 4644 06ba fd72 d8ba
00000340: b005 19bb 0000 0000 0000 0080 87de 8f3a
00000350: 967e 383a 5221 093a ccdd d639 f250 6839
00000360: 01bd 6639 6f0b 6339 a9a3 4739 71e9 0739
00000370: 42ed e838 6b64 3638 0f2f 9bb7 94e6 16b9
00000380: 6682 b1b9 ae9f e5b9 77e0 f9b9 3db1 2dba
00000390: 779a 72ba 00a0 d9ba 0000 0000 0000 0080
000003a0: 4ce3 383a 7b8d 073a fa3c e839 ba55 de39
000003b0: 3112 d839 df92 b939 ca1d 7139 6441 0f39
000003c0: 8c2c 1e38 cb40 1ab8 4bb9 a1b8 3a6e 52b9
000003d0: 71fe 6cb9 9f69 84b9 98a0 bdb9 1dcf bfb9
000003e0: c845 dfb9 8dc4 06ba 1ea2 28ba 0000 0000
000003f0: 0000 0080 247b 993a ca67 403a f845 033a

u f4 [1, 1, 20, 20]
-0.0009440965 0.007267703 -0.023131518 0.036740057 -0.027507816 0.008393794 0.012983788 -0.026102379
0.020735964 -0.004125707 -0.015351474 0.02947538 -0.030497294 0.020375583 -0.0061219744 -0.006337339
0.0120435925 -0.010330111 0.0094000315 -0.0038467962 0.0060911993 -0.045447543 0.10247211 -0.13260114
0.10015006 -0.026218362 -0.052113973 0.08661349 -0.059246045 -0.014923066 0.099359356 -0.14640804
0.1371078 -0.08134341 0.0070459945 0.050794303 -0.0695272 0.05427409 -0.03271071 0.008125242
-0.010699712 0.056522287 -0.07238079 0.06367645 -0.045277357 0.009418171 0.023166712 -0.041487616
0.037320726 0.0045269253 -0.0573284 0.09217467 -0.09813328 0.063785404 -0.009580962 -0.036824897
0.05403182 -0.04690206 0.036615856 -0.011473961 0.0047187395 -0.011716111 -0.021233171 0.063440874
-0.072546825 0.039591298 0.01722594 -0.048285753 0.046125237 -0.016499711 -0.03387601 0.06458041
-0.06868543 0.05870828 -0.031591967 0.009603535 0.0064771613 -0.0019288957 -0.019992266 0.012012499
0.0007563725 0.006612595 -0.012273837 -0.012915425 0.027244091 -0.004715828 -0.030430812 0.07688582
-0.11638439 0.11173721 -0.0720336 0.019851578 0.033929586 -0.059873134 0.04972114 -0.02534023
-0.009511372 0.011461103 0.009061814 -0.007294176 -0.0126670245 0.033820115 -0.042800575 0.035531223
0.008996218 -0.040082656 0.048376188 -0.060495857 0.06360835 -0.06633136 0.06666976 -0.044327296
0.012829963 0.013634417 -0.029220663 0.023772772 -0.0008087624 0.0029895783 -0.007889396 0.002296484
0.013952446 -0.06390357 0.09956962 -0.08107065 0.008826748 0.055939734 -0.09424421 0.07616327
-0.020813107 -0.022619419 0.05580579 -0.0620141 0.04063393 -0.023569416 0.005801766 0.010042683
-0.01480016 -0.0047851475 0.012148461 -0.0035284294 -0.0031462058 0.022877762 -0.02694804 0.03837415
-0.017052542 -0.033957176 0.06909925 -0.06654608 0.042714454 0.00597326 -0.060395874 0.079272866
-0.07756377 0.060631014 -0.021345288 -0.009447345 0.026027013 -0.008273896 -0.00951344 0.004459867
0.002691397 -0.00028465185 -0.017076926 0.0044630286 -0.013527055 0.010940336 0.008664402 -0.004198329
-0.00514821 0.0047398433 -0.007547699 -0.0010729246 0.024761587 -0.039038047 0.03810388 -0.023269616
-0.0065496936 0.0044093635 0.0068827327 -0.0024348267 -0.00671757 0.021417461 -0.013055648 -0.0059830192
0.031637654 -0.008950573 -0.023555534 0.047807485 -0.06353778 0.03810793 0.0020553637 -0.026968548
0.036827896 -0.016739542 -0.014288283 0.025741283 -0.0153588755 0.013933672 -0.012062803 0.0021506276
0.0021691532 -0.01713873 0.0066430382 0.0031760018 -0.01176212 0.016564049 -0.012896696 -0.015403509
0.031862594 -0.023972692 0.012261168 0.018927857 -0.043619372 0.03305447 -0.0167353 -0.0027564922
0.014259223 -0.023129458 0.02653407 -0.008226716 0.000582497 -0.0040693344 0.015509259 0.004142998
-0.0036822492 -0.009881174 0.012058917 -0.02178638 0.039105985 -0.040716283 0.04177898 -0.049174555
0.037485447 -0.018473595 0.008787163 0.0036923105 -0.0010067746 0.011752946 -0.030504111 0.012643389
0.0046457117 -0.008810867 0.0077987546 -0.018093396 0.007844219 -0.01879998 0.024094373 -0.0033186134
-0.011486606 0.028502557 -0.0464665 0.04066454 -0.015327526 -0.01954833 0.048663445 -0.05211719
00000000: 3e7d 77ba e925 ee3b 4f7e bdbc be7c 163d
00000010: 1258 e1bc 2086 093c f4b9 543c a8d4 d5bc
00000020: 78de a93c f030 87bb c084 7bbc 5a76 f13c
00000030: 76d5 f9bc b2ea a63c d89a c8bb 74a9 cfbb
00000040: 7d52 453c a03f 29bc 9702 1a3c 881a 7cbb
00000050: af98 c73b 3427 3abd e6dc d13d 98c8 07be
00000060: 7a1b cd3d e4c7 d6bc 7675 55bd 6a62 b13d
00000070: fbab 72bd e07f 74bc eb7c cb3d fdeb 15be
00000080: fd65 0c3e 6097 a6bd 16e2 e63b b00d 503d
00000090: 4764 8ebd 824e 5e3d aafb 05bd bc1f 053c
000000a0: d84d 2fbc ea83 673d 613c 94bd cc68 823d
000000b0: c074 39bd ac4e 1a3c 1ec8 bd3c ebee 29bd
000000c0: 9edd 183d 9a56 943b 2fd1 6abd 13c6 bc3d
000000d0: 1afa c8bd eca1 823d 78f9 1cbc b4d5 16bd
000000e0: 7850 5d3d 601c 40bd 82fa 153d 48fd 3bbc
000000f0: a89f 9a3b eef4 3fbc 30f1 adbc 4aed 813d
00000100: 6e93 94bd 7c2a 223d 6a1d 8d3c 48c7 45bd
00000110: d1ed 3c3d 672a 87bc 92c1 0abd bc42 843d
00000120: f2aa 8cbd 1878 703d 9466 01bd 2558 1d3c
00000130: 5e3e d43b 00d3 fcba d2c6 a3bc 13d0 443c
00000140: 4d47 463a 78ae d83b 3418 49bc 389b 53bc
00000150: 002f df3c 3c87 9abb 0a4a f9bc 5076 9d3d
00000160: f05a eebd 7ad6 e43d 5a86 93bd c79f a23c
00000170: c0f9 0a3d 883d 75bd 65a8 4b3d 5096 cfbc
00000180: 96d5 1bbc 5ac7 3b3c 0178 143c fc03 efbb
00000190: 5a89 4fbc f686 0a3d a84f 2fbd 3089 113d
000001a0: e064 133c b62d 24bd 1c26 463d 81ca 77bd
000001b0: 1845 823d bcd8 87bd 288a 883d 8a90 35bd
000001c0: c434 523c e462 5f3c 2c60 efbc 1ebf c23c
000001d0: 2003 54ba cdec 433b 8642 01bc 9c80 163b
000001e0: cd98 643c e0df 82bd 28eb cb3d 5e08 a6bd
000001f0: 109e 103c 1021 653d 1c03 c1bd 7dfb 9b3d
00000200: 4080 aabc 5c4c b9bc 9d94 643d 7f02 7ebd
00000210: c46f 263d a614 c1bc be1c be3b 118a 243c
00000220: 5f7c 72bc bacc 9cbb 570a 473c 393d 67bb
00000230: 9330 4ebb 256a bb3c 23c2 dcbc 362e 1d3d
00000240: c6b1 8bbc ae16 0bbd e883 8d3d 5049 88bd
00000250: 5af5 2e3d 56bb c33b aa61 77bd d059 a23d
00000260: c1d9 9ebd 3a58 783d 50dc aebc 09c9 1abc
00000270: 9a36 d53c 3c8f 07bc 42de 1bbc 1324 923b
00000280: 2662 303b 533d 95b9 e9e4 8bbc 993e 923b
00000290: 95a0 5dbc 183f 333c 23f5 0d3c 2392 89bb
000002a0: 51b2 a8bb b050 9b3b b052 f7bb 60a1 8cba
000002b0: d0d8 ca3c 5ce6 1fbd d012 1c3d ec9f bebc
000002c0: d09e d6bb 6c7c 903b 8c88 e13b 9d91 1fbb
000002d0: 101f dcbb ac73 af3c 5be7 55bc 340d c4bb
000002e0: 7c96 013d 6da5 12bc 89f7 c0bc c8d1 433d
000002f0: 1820 82bd 1017 1c3d 48b3 063b 25ed dcbc
00000300: d9d8 163d 5d21 89bc 6719 6abc 62df d23c
00000310: cba3 7bbc 0e4a 643c 10a3 45bc 8bf1 0c3b
00000320: 5a28 0e3b 8666 8cbc d8ad d93b 7824 503b
00000330: e8b5 40bc 54b1 873c aa4c 53bc 005f 7cbc
00000340: 5a82 023d 6162 c4bc 11e3 483c 980e 9b3c
00000350: 3aaa 32bd 2064 073d 7818 89bc 44a6 34bb
00000360: 849f 693c fd79 bdbc fa5d d93c 59c9 06bc
00000370: b6b2 183a 0d58 85bb 8c1a 7e3c fcc1 873b
00000380: e451 71bb a6e4 21bc c492 453c 5a79 b2bc
00000390: 992d 203d 1ec6 26bd 7020 2b3d 426b 49bd
000003a0: 578a 193d f055 97bc 08f8 0f3c b1fa 713b
000003b0: c0f5 83ba 6e8f 403c c2e3 f9bc 3826 4f3c
000003c0: 0e3b 983b 745b 10bc b28c ff3b 9a38 94bc
000003d0: 0a85 003c 6a02 9abc 9061 c53c 187d 59bb
000003e0: 5132 3cbc 327e e93c a853 3ebd dc8f 263d
000003f0: 4e20 7bbc d223 a0bc 5253 473d d678 55bd

exp_avg f4 [8, 1, 7, 7]
0.001202778 -0.012129368 -0.004199847 0.0056050094 0.019660156 -0.01947839 0.022045812 0.007153419
-0.006295911 -0.009545192 0.0044970745 0.008058323 -0.0028262732 0.0035268455 -0.0065184 -0.017290782
0.014040272 -0.029352548 0.02755489 -0.038115993 0.01931546 -0.02237406 0.018935975 -0.02740914
0.0126813445 -0.01865606 0.0012406268 -0.0075400444 0.018851556 -0.007874253 0.0074347397 -0.0063216654
0.014378992 0.0018749424 -0.013015527 0.01587513 -0.008138569 0.009576283 -0.0017470856 0.021447452
0.0005385646 0.011129953 0.009393834 -0.012808124 -0.0069069234 0.0071615456 -0.0026492784 0.0047739525
-0.0067614093 0.010327782 -0.0008852387 -0.0071838447 0.004114882 0.031384055 0.016100459 0.031898573
0.022920622 0.0069880565 -0.0026007572 -0.0013042842 0.022183876 0.027435664 0.012542376 0.015598107
-0.014535579 0.0060491534 -0.034150966 0.02779747 -0.0134529695 0.010552978 -0.005611336 0.010085279
-0.024930486 0.0023915675 -0.012836715 0.005766368 -0.008731636 0.013570621 -0.011357944 -0.0015046549
-0.017615367 0.006888036 0.007567462 -0.009915498 -0.0037319735 -0.017093219 -0.0044135284 -0.023048429
0.00045163883 -0.0052233115 -0.0048793084 -0.009410913 -0.027573261 -0.022280762 -0.014949078 -0.0067985505
0.014558008 -0.0011531876 0.007918212 -0.005445372 0.0020314099 -0.0072931815 -0.0028792697 -0.014628112
0.0026759955 0.010455015 0.0059316247 0.0040121838 0.010468784 -0.0043710363 -0.00059625064 0.006673293
0.0076327166 0.0031945857 0.0012035978 -0.0018396073 -0.009206781 -0.010500658 -0.0035864224 0.005739961
0.00043731986 0.0032957762 0.006352564 -0.0029165782 -0.004835077 0.0007188373 0.005559044 0.005055226
-0.00227975 0.004520875 -0.004955366 -0.004619695 -0.0042545 0.009374773 -0.0012894577 -0.008957787
0.0020727755 -0.006384559 -0.015026564 -0.0029314407 0.0066951034 0.0026013986 0.0013109297 0.0017288722
0.002712246 -0.007925651 0.0063498807 0.011397831 0.0065175532 -0.010125666 0.0025096107 -0.009109488
-0.00062244595 -0.00028495886 0.017948039 0.007443121 0.0020738984 0.0023884634 -0.0036354521 0.005874886
-0.0015458748 0.009871064 -0.0037667654 -0.0033567112 -0.011599249 -0.0035396828 -0.01976786 -0.013726237
0.008987858 0.007038113 -0.00914545 0.0010207647 -0.013740481 -0.008821425 -0.016125135 0.01678462
-0.0006070267 0.0046267747 0.0039119455 0.0010162237 -0.005991851 -0.007416878 0.010586095 0.0063195974
0.0005183178 0.009362008 -0.00078201154 -0.0032116785 -0.005845998 0.008376688 0.0045963465 -0.0040988484
0.010052136 -0.00309002 0.002539895 -0.0018046916 0.012552481 0.014365825 0.0045744823 0.016132547
0.024547454 0.012296797 0.04662343 0.007185484 0.0057842126 0.003821206 0.0016603459 0.016377684
0.008073305 0.024465943 -0.0075948504 0.00023755673 -0.00187805 -0.01226975 0.013209193 -0.010126465
0.028208813 -0.008576146 -0.003972981 -0.021620976 -0.0047949 -0.019899793 0.0050824746 -0.010163183
0.005312117 -0.017091377 0.0073124673 -0.01855467 0.012663378 -0.0019951453 -0.00039359974 -0.008718992
-0.014781103 0.0018403346 -0.016174886 -0.0025719798 -0.0063918713 0.0071754497 -0.011560825 -0.030242218
-0.007556691 -0.020028194 -0.015016956 -0.0081666075 0.0006391334 0.010314896 -0.006336889 -0.0068200976
-0.008523737 0.008008019 -0.025929704 -0.0011266625 0.007259433 -0.002082144 -0.0076726126 -0.003921075
00000000: 88a6 9d3a 42ba 46bc df9e 89bb 3aaa b73b
00000010: 560e a13c 2591 9fbc 6b99 b43c 3a67 ea3b
00000020: ee4d cebb 7063 1cbc 325c 933b 0e07 043c
00000030: ff38 39bb a622 673b 4d98 d5bb 66a5 8dbc
00000040: 2b09 663c c174 f0bc cbba e13c 841f 1cbd
00000050: 753b 9e3c ce49 b7bc 9e1f 9b3c 2289 e0bc
00000060: 6ac5 4f3c 98d4 98bc 879c a23a 7a12 f7bb
00000070: 946e 9a3c 0303 01bc 1e9f f33b f925 cfbb
00000080: dd95 6b3c a1c0 f53a 143f 55bc 900c 823c
00000090: a257 05bc d8e5 1c3c 77fe e4ba 91b2 af3c
000000a0: 752e 0d3a 685a 363c 98e8 193c 2ad9 51bc
000000b0: 7953 e2bb 66ab ea3b 849f 2dbb d16e 9c3b
000000c0: d08e ddbb db35 293c 5d0f 68ba 7566 ebbb
000000d0: 22d6 863b 918c 003d 1ce5 833c 14a8 023d
000000e0: 07c4 bb3c 11fc e43b 7771 2abb 84f4 aaba
000000f0: f6ba b53c c2c0 e03c 8a7e 4d3c 348f 7f3c
00000100: a326 6ebc fa37 c63b e2e1 0bbd 85b7 e33c
00000110: d869 5cbc 66e6 2c3c 4cdf b7bb ba3c 253c
00000120: 053b ccbc d8bb 1c3b 1651 52bc cdf3 bc3b
00000130: 230f 0fbc 4f57 5e3c ac16 3abc d737 c5ba
00000140: 1a4e 90bc 09b5 e13b 79f8 f73b 9d74 22bc
00000150: 2094 74bb 1407 8cbc 5c9f 90bb 0fd0 bcbc
00000160: f0c9 ec39 5028 abbb 9be2 9fbb 3b30 1abc
00000170: 52e1 e1bc 2586 b6bc faec 74bc 60c6 debb
00000180: b684 6e3c 8e26 97ba 63bb 013c 176f b2bb
00000190: 6721 053b a4fb eebb 21b2 3cbb c0aa 6fbc
000001a0: c15f 2f3b 834b 2b3c 135e c23b a378 833b
000001b0: 4385 2b3c e93a 8fbb b44d 1cba a4ab da3b
000001c0: de1b fa3b 415c 513b 0ac2 9d3a fa1e f1ba
000001d0: 0ad8 16bc f40a 2cbc 2f0a 6bbb 4816 bc3b
000001e0: 1448 e539 f3fd 573b 2b29 d03b 1024 3fbb
000001f0: 916f 9ebb 5b70 3c3a a428 b63b 4fa6 a53b
00000200: dc67 15bb d923 943b 9f60 a2bb cf60 97bb
00000210: 5569 8bbb a698 193c 0503 a9ba afc3 12bc
00000220: 67d7 073b 9035 d1bb fa31 76bc 6a1d 40bb
00000230: 9962 db3b 3a7c 2a3b 80d3 ab3a 539b e23a
00000240: f0bf 313b 97da 01bc a912 d03b f8bd 3a3c
00000250: 3391 d53b 1fe6 25bc 4878 243b f63f 15bc
00000260: a42b 23ba 8866 95b9 c407 933c 6de5 f33b
00000270: 3eea 073b c487 1c3b c440 6ebb 1e82 c03b
00000280: f39e caba 3eba 213c d6db 76bb 45fc 5bbb
00000290: c70a 3ebc 06fa 67bb 35f0 a1bc 03e4 60bc
000002a0: cf41 133c f99f e63b ccd6 15bc 2ecb 853a
000002b0: c11f 61bc bd87 10bc dc18 84bc e67f 893c
000002c0: df20 1fba 339c 973b c72f 803b cf32 853a
000002d0: 4a57 c4bb 4809 f3bb 4d71 2d3c a014 cf3b
000002e0: b8df 073a 1c63 193c e8ff 4cba 067b 52bb
000002f0: c98f bfbb 603e 093c f39c 963b a24f 86bb
00000300: b7b1 243c ef81 4abb 5e74 263b 678b ecba
00000310: eca8 4d3c a35e 6b3c 8ae5 953b 6728 843c
00000320: be17 c93c 8178 493c 36f8 3e3d 3574 eb3b
00000330: 7e89 bd3b 336d 7a3b f79f d93a 7e2a 863c
00000340: e545 043c cd6c c83c 39de f8bb a618 7939
00000350: e728 f6ba 1007 49bc 5f6b 583c 79e9 25bc
00000360: 2b16 e73c f782 0cbc c82f 82bb 791e b1bc
00000370: 891e 9dbb e404 a3bc e38a a63b 7b83 26bc
00000380: 4411 ae3b 3703 8cbc 6c9d ef3b f7ff 97bc
00000390: 0f7a 4f3c fcc0 02bb 105c ceb9 1ada 0ebc
000003a0: 702c 72bc 6237 f13a 3281 84bc a98e 28bb
000003b0: e772 d1bb 0920 eb3b 9d69 3dbc 87be f7bc
000003c0: 1e9e f7bb 2b12 a4bc ae09 76bc 3ccd 05bc
000003d0: 848b 273a cfff 283c aea5 cfbb 207b dfbb
000003e0: 25a7 0bbc 1134 033c 886a d4bc 85ac 93ba
000003f0: 8ae0 ed3b 9474 08bb 8a6a fbbb 5c7c 80bb

exp_avg_sq f4 [8, 1, 7, 7]
0.005811677 0.006321014 0.007949404 0.015633767 0.008099084 0.0061753686 0.005241568 0.009145236
0.009791869 0.010017183 0.02633772 0.008965487 0.007803504 0.0066524805 0.0076282136 0.012180763
0.0191021 0.02347609 0.01905375 0.015052317 0.009190292 0.02044001 0.033468183 0.036613017
0.012570275 0.0379657 0.028758084 0.014163119 0.00978116 0.01202706 0.010972046 0.023376232
0.011337785 0.013457635 0.009876057 0.0049767247 0.00598351 0.0068368297 0.020111118 0.009852743
0.009182167 0.007484631 0.0053187073 0.005919887 0.0063624163 0.009802913 0.0074919895 0.008249806
0.0055677523 0.008722644 0.008565494 0.009150672 0.020519283 0.0084304 0.00965663 0.00981418
0.009527944 0.009609233 0.009021045 0.02410492 0.009378453 0.009383935 0.010028032 0.009116731
0.01265015 0.015840426 0.024687085 0.015390927 0.0121592935 0.010086137 0.015094374 0.024532665
0.020050146 0.010951902 0.032798227 0.018238174 0.011923781 0.010261969 0.009523124 0.009551118
0.023769617 0.010093073 0.011681706 0.009339157 0.006959829 0.008348035 0.007032773 0.020882541
0.010161022 0.009582734 0.009647961 0.009175572 0.008165709 0.007988968 0.014374611 0.00866383
0.00951991 0.009718 0.0028200406 0.0025320854 0.0029899417 0.004660295 0.003589424 0.0032775712
0.0029647187 0.00263693 0.0027505574 0.0035328143 0.0062262528 0.0038694036 0.003614103 0.0030286738
0.0025903026 0.0022246803 0.0028823747 0.0047258264 0.0031675086 0.0030482768 0.0028031573 0.002334805
0.0018958723 0.0021750662 0.004151261 0.0025305732 0.002712969 0.002180404 0.0021648624 0.0019127917
0.0024437043 0.0030178335 0.0025453202 0.0024284236 0.00212861 0.0027210845 0.0025537675 0.0031841306
0.0046882858 0.0044415165 0.0031501276 0.003292738 0.0029383365 0.0026370755 0.0036857992 0.0046138656
0.0040506674 0.0034651172 0.0037859392 0.0053331554 0.004559676 0.0050227046 0.0057915994 0.0043165456
0.0039830473 0.00436634 0.0039092274 0.003550538 0.0047378098 0.006869114 0.0034745552 0.0034199038
0.0038429862 0.0040806183 0.0032855822 0.0044496153 0.007986874 0.0034633935 0.0034121184 0.0032548397
0.0028312402 0.0028267864 0.0036880814 0.004686783 0.0033091444 0.0029434457 0.003304167 0.003021937
0.0023986201 0.0032691692 0.003361449 0.0036349846 0.0028414172 0.0028778682 0.003202095 0.0028360614
0.0037196416 0.0069278874 0.0034819865 0.0035317715 0.0037483799 0.0037451284 0.0032652176 0.0041571287
0.0059623984 0.003805535 0.0037908535 0.00442603 0.005475118 0.0068863244 0.005974815 0.009141543
0.008259795 0.0062600225 0.0071596443 0.006266939 0.007328648 0.0073664794 0.014689599 0.005975575
0.005931439 0.006295096 0.0056897826 0.008714014 0.0064153713 0.016508268 0.0093130255 0.007610003
0.007291204 0.0077969646 0.015089205 0.018967949 0.004683538 0.023598233 0.021391133 0.0134460945
0.0047785644 0.0078065284 0.005275983 0.013972452 0.006737417 0.00675055 0.006010849 0.0045259856
0.006672189 0.006499259 0.011143382 0.005494008 0.0063833613 0.0067105517 0.005547147 0.0059680925
0.005986846 0.010990208 0.004933401 0.0058425968 0.0057532573 0.0035755287 0.0033957502 0.002808396
0.007558685 0.0038107645 0.0039625186 0.0032744573 0.0045257015 0.004413381 0.0036795454 0.008071949
00000000: e16f be3b 8220 cf3b 383e 023c 6312 803c
00000010: 05b2 043c bf5a ca3b 76c1 ab3b e6d5 153c
00000020: 136e 203c 1c1f 243c 34c2 d73c fae3 123c
00000030: 89b4 ff3b 0dfd d93b 18f6 f93b d391 473c
00000040: 027c 9c3c ee50 c03c 9c16 9c3c fe9d 763c
00000050: e192 163c cf71 a73c ef15 093d 88f7 153d
00000060: 8ef3 4d3c ec81 1b3d 1396 eb3c 6d0c 683c
00000070: 2941 203c 250d 453c 19c4 333c 837f bf3c
00000080: 1ec2 393c 6a7d 5c3c 2fcf 213c cb13 a33b
00000090: 5211 c43b 7c07 e03b 12c0 a43c 666d 213c
000000a0: cd70 163c a341 f53b 8d48 ae3b 9dfb c13b
000000b0: d17b d03b 669c 203c 5d7f f53b 322a 073c
000000c0: b171 b63b 6ce9 0e3c 4956 0c3c b3ec 153c
000000d0: 0e18 a83c a91f 0a3c d836 1e3c a8cb 203c
000000e0: 181b 1c3c 0b70 1d3c 01cd 133c ae77 c53c
000000f0: 15a8 193c 13bf 193c 9d4c 243c 575e 153c
00000100: 9342 4f3c c8c3 813c 923c ca3c 3a2a 7c3c
00000110: c637 473c 5340 253c 654e 773c baf8 c83c
00000120: 3440 a43c 9b6f 333c 6f57 063d 3968 953c
00000130: f65b 433c d121 283c e106 1c3c 4b7c 1c3c
00000140: 80b8 c23c 6b5d 253c a064 3f3c 4303 193c
00000150: 470f e43b 32c6 083c 2d73 e63b dd11 ab3c
00000160: 6a7a 263c e600 1d3c 7b12 1e3c 2355 163c
00000170: 77c9 053c 29e4 023c 7d83 6b3c bdf2 0d3c
00000180: 66f9 1b3c 3f38 1f3c 6ed0 383b 58f1 253b
00000190: e6f2 433b 63b5 983b 8b3c 6b3b 85cc 563b
000001a0: ba4b 423b 58d0 2c3b b242 343b ca86 673b
000001b0: 9805 cc3b d295 7d3b 96da 6c3b b77c 463b
000001c0: 11c2 293b f1cb 113b 39e6 3c3b 1bdb 9a3b
000001d0: fa95 4f3b 99c5 473b 2db5 373b 8703 193b
000001e0: eb7e f83a 8e8b 0e3b 4d07 883b f9d7 253b
000001f0: 11cc 313b 1ce5 0e3b 5de0 0d3b a4b6 fa3a
00000200: 8e26 203b d8c6 453b 63cf 263b 3026 1f3b
00000210: 2680 0b3b 3954 323b 1c5d 273b d9ac 503b
00000220: 31a0 993b 248a 913b 5f72 4e3b faca 573b
00000230: 1b91 403b c9d2 2c3b 738d 713b e92f 973b
00000240: 76bb 843b 0517 633b 851d 783b c0c1 ae3b
00000250: 5669 953b 8095 a43b 75c7 bd3b cf71 8d3b
00000260: 3984 823b 8413 8f3b fa18 803b 25b0 683b
00000270: a13f 9b3b 4e16 e13b 5db5 633b 7720 603b
00000280: 9cda 7b3b b5b6 853b ec52 573b 14ce 913b
00000290: 61db 023c 1afa 623b d99d 5f3b 264f 553b
000002a0: 548c 393b 9b41 393b bdb3 713b 9693 993b
000002b0: 3bde 583b d3e6 403b b98a 583b b10b 463b
000002c0: 2b32 1d3b 8f3f 563b c24b 5c3b ec38 6e3b
000002d0: 1237 3a3b 9e9a 3c3b 3dda 513b 37dd 393b
000002e0: 3bc5 733b 5503 e33b 0a32 643b 4b75 673b
000002f0: 61a7 753b d470 753b 43fd 553b 8638 883b
00000300: 3960 c33b 4866 793b f86f 783b 3b08 913b
00000310: 9e68 b33b ada6 e13b 62c8 c33b 69c6 153c
00000320: 1754 073c e020 cd3b 739b ea3b e55a cd3b
00000330: 2825 f03b 8262 f13b a5ac 703c c2ce c33b
00000340: 845c c23b 1847 ce3b 5b71 ba3b 39c5 0e3c
00000350: 0938 d23b 593c 873c a995 183c 555d f93b
00000360: 0deb ee3b ae7d ff3b b638 773c ac62 9b3c
00000370: 5d78 993b 1551 c13c 753c af3c 024d 5c3c
00000380: 8195 9c3b e8cd ff3b 27e2 ac3b b6ec 643c
00000390: 8dc5 dc3b b833 dd3b a8f6 c43b b84e 943b
000003a0: 61a2 da3b bcf7 d43b bb92 363c 1407 b43b
000003b0: 842b d13b 30e4 db3b d7c4 b53b fd8f c33b
000003c0: 4e2d c43b 4610 343c 5ea8 a13b 4173 bf3b
000003d0: d285 bc3b 6b53 6a3b 3c8b 5e3b 110d 383b
000003e0: d8ae f73b 05be 793b 04d8 813b 4798 563b
000003f0: 564c 943b 209e 903b 8724 713b 3540 043c

exp_avg f4 [32, 8, 7, 7]
-0.0010008767 0.0020820133 -0.0018960094 0.0008614744 0.00043056984 0.0009741447 -0.00063662394 -0.00047583572
0.0009946787 -0.00059131254 0.0012076679 0.0006202054 0.00034195755 0.0014901543 -0.00045508635 0.0012440879
-0.00073322275 0.0008518281 0.0013280185 0.00045444033 0.0038245332 -0.0016321283 0.0013641493 8.008872e-05
0.0022975896 0.0031826717 0.0013588709 0.0026892493 -0.00053915335 0.0023587488 0.00066425203 0.0023204193
0.0007316904 0.0011795392 0.0005098737 -0.0005555366 0.0019936732 -0.0018858181 0.0024587733 0.00055329857
0.0022427456 0.0016393143 -0.0017156656 0.002834806 -0.0010172602 0.0021035501 0.0007350232 0.0014112258
0.0009653512 -0.0054540727 0.0042881323 -0.0026703482 -0.0005778427 -0.0007732775 0.00055741076 0.0013041777
-0.0061680335 0.0037435826 -0.0021290008 -0.0001407673 -0.0007223733 0.0003033277 0.001275699 -0.004637079
0.0046397224 -0.0022310172 -0.00016940055 -0.00029082186 0.0012270424 0.003776738 -0.006328599 0.0048376606
-0.00047530376 0.0022129533 0.0011526768 0.0010961387 0.0017884781 -0.0066888314 0.004745652 0.0010765627
0.0018892933 0.0007535696 0.00042739345 0.0004995975 -0.0067245523 0.0033963257 -0.0017384564 0.002164334
0.0018520758 0.0024307368 0.0015369559 -0.006374859 0.0050008544 -0.0013691495 0.0010663789 0.0013223715
0.0023794323 0.0014651525 0.0005633995 0.0010047659 -0.0021131174 0.00088885165 -0.0015505344 0.0005576623
-0.0008594147 0.00016929168 0.0006627485 -0.0014014996 0.0023343805 -0.0010188848 -0.00022375013 -0.0006406367
0.0012835833 0.0014422416 -0.0013445286 0.0022329642 -0.0005936544 -0.00072880724 -0.0005687827 0.0015692245
0.00088091235 -0.0014909215 0.0016175561 0.0002547032 0.00051619875 -0.00019623952 0.0027259889 0.003318712
2.284119e-05 0.001878589 -0.0015119526 -0.00022620456 -0.0007448693 0.0007646902 0.0021697746 -0.000539613
0.0032775055 -0.0002875328 -1.3856445e-06 -0.0005785227 0.00086862163 0.0028496257 -0.00023745374 0.0029714662
0.0012079554 0.00095000496 -0.00069648225 0.001964001 -0.0010499331 -0.00047395087 0.00015846285 0.0007416899
0.00025039475 0.0007411384 0.0022402084 -0.0011591233 4.174677e-05 -0.0001277077 -1.51718e-05 0.0008583638
0.000497529 0.0025071683 -0.0005061484 0.00025051768 -0.00053461443 -0.0003624068 -0.0005288179 0.0012393624
0.002766283 0.0003027273 0.00048055564 -0.00076059863 0.00081763853 0.00035544505 0.0011890545 0.0030856808
-0.0002894592 0.0012472087 0.000119971766 0.0011360173 0.0013658955 0.00052472786 0.003751528 4.31266e-05
0.000718205 0.0006052304 0.0009925504 0.0016534306 0.0009957328 0.0024837586 0.0005409543 0.00051866897
1.2356015e-05 0.0012540998 0.00089595595 0.0012250214 -0.0034256473 0.0010474861 0.0002952604 -9.992836e-05
-0.0006841329 -0.0003234714 -0.00043853009 -0.0028466478 0.00050222105 -0.00018549962 -0.000100948484 -0.00060235447
-0.001090256 -0.0016168668 -0.00044970174 0.0020066686 0.00050107815 -0.00022897101 -0.0011474019 -0.0013812063
0.0005039412 -0.0009810856 0.002307793 0.00027083125 0.00026542874 -0.0005291891 -0.001258987 -0.00053311
-0.00281901 0.0013007348 0.0015474102 0.0019279186 0.0005879488 -0.00027061862 -0.0009437347 -0.0041351803
-5.215215e-05 -0.0006908164 0.002308779 0.0019766076 0.0014693416 0.00043233452 -0.0045435936 0.00019687809
-0.00046397038 0.00029738905 0.000512259 0.00093057525 0.0012731432 0.00074456277 0.00086084846 -1.1573319e-05
0.0018948469 -0.0020018024 0.00040277734 -0.0026816514 -0.00032571374 -3.9175407e-05 -0.0009291034 0.0019709005
00000000: d92f 83ba 6372 083b 8583 f8ba 91d4 613a
00000010: 1bbe e139 bf5d 7f3a 1ce3 26ba 9779 f9b9
00000020: e15f 823a 5002 1bba 9c4a 9e3a 4895 223a
00000030: c448 b339 4851 c33a a898 eeb9 aa10 a33a
00000040: bf35 40ba 374d 5f3a e810 ae3a f341 ee39
00000050: 05a5 7a3b 23ed d5ba 41cd b23a 4ef5 a738
00000060: 2893 163b 5f94 503b 241c b23a 1e3e 303b
00000070: f855 0dba 3d95 1a3b 3321 2e3a 2d12 183b
00000080: e9ce 3f3a c59a 9a3a 0ba9 053a 6ea1 11ba
00000090: 49a8 023b 8e2d f7ba 5f23 213b 3d0b 113a
000000a0: 07fb 123b 43de d63a 2fe0 e0ba 27c8 393b
000000b0: 9755 85ba b7db 093b 92ae 403a e1f8 b83a
000000c0: 9f0f 7d3a 14b8 b2bb 7683 8c3b 0201 2fbb
000000d0: 5e7a 17ba c6b5 4aba 341f 123a f1f0 aa3a
000000e0: 371d cabb e556 753b b586 0bbb ef9a 13b9
000000f0: a75d 3dba f407 9f39 5b35 a73a a3f2 97bb
00000100: d008 983b 4236 12bb 1da1 31b9 7379 98b9
00000110: b6d4 a03a 2683 773b 2360 cfbb 3d85 9e3b
00000120: 3132 f9b9 3207 113b 6a15 973a 50ac 8f3a
00000130: 5e6b ea3a fc2d dbbb 6a81 9b3b 731b 8d3a
00000140: 2aa2 f73a 338b 453a c713 e039 6cf7 023a
00000150: a259 dcbb e494 5e3b ebdc e3ba 80d7 0d3b
00000160: 5ac1 f23a ff4c 1f3b af73 c93a 31e4 d0bb
00000170: 35de a33b 0975 b3ba bdc5 8b3a 6d53 ad3a
00000180: 40f0 1b3b 5c0a c03a 1ab1 133a 59b2 833a
00000190: 3a7c 0abb d301 693a 4d3b cbba 1530 123a
000001a0: 584a 61ba e483 3139 4dbc 2d3a 86b2 b7ba
000001b0: 68fc 183b 1a8c 85ba 789e 6ab9 67f0 27ba
000001c0: e93d a83a 9909 bd3a e53a b0ba ec56 123b
000001d0: 799f 1bba 6d0d 3fba 5c1a 15ba 70ae cd3a
000001e0: 07ed 663a 066b c3ba 2d04 d43a af89 8539
000001f0: 8351 073a a5c5 4db9 81a6 323b c07e 593b
00000200: 159b bf37 fd3a f63a b62c c6ba 5331 6db9
00000210: 5543 43ba 7e75 483a c732 0e3b d174 0dba
00000220: 6bcb 563b 00c0 96b9 62fa b9b5 00a8 17ba
00000230: 36b4 633a c9c0 3a3b 01fd 78b9 eebc 423b
00000240: 4254 9e3a c109 793a 2294 36ba 78b6 003b
00000250: e99d 89ba 9c7c f8b9 0c29 2639 f76d 423a
00000260: 6a47 8339 f548 423a 76d0 123b b9ed 97ba
00000270: 4119 2f38 46e9 05b9 638a 7eb7 d203 613a
00000280: 9b6c 023a 4e4f 243b 0baf 04ba ea57 8339
00000290: 5e25 0cba 6b01 beb9 5ea0 0aba 1a72 a23a
000002a0: 874a 353b 5fb7 9e39 16f3 fb39 e962 47ba
000002b0: cb56 563a 075b ba39 0cda 9b3a 2239 4a3b
000002c0: 8ec2 97b9 6179 a33a 5a99 fb38 6ae6 943a
000002d0: d907 b33a e48d 093a 32dc 753b d6e2 3438
000002e0: ec45 3c3a 53a8 1e3a 7718 823a edb7 d83a
000002f0: 4083 823a 8ec6 223b d4ce 0d3a 49f7 073a
00000300: ae4c 4f37 9b60 a43a 96de 6a3a e690 a03a
00000310: d380 60bb cd4b 893a 2ecd 9a39 a190 d1b8
00000320: 6257 33ba 9997 a9b9 83ea e5b9 d38e 3abb
00000330: 7ca7 033a ad82 42b9 4eb4 d3b8 53e7 1dba
00000340: ece6 8eba 0ced d3ba f2c5 ebb9 5082 033b
00000350: c95a 033a f017 70b9 6b64 96ba 9809 b5ba
00000360: ec1a 043a c597 80ba 573e 173b 5bfe 8d39
00000370: 3e29 8b39 48b9 0aba 9804 a5ba 68c0 0bba
00000380: 24bf 38bb 6b7d aa3a 78d2 ca3a 37b2 fc3a
00000390: 9320 1a3a d1e1 8db9 f764 77ba 6880 87bb
000003a0: f2bd 5ab8 e717 35ba e24e 173b f989 013b
000003b0: ec96 c03a f5aa e239 6de2 94bb 0f71 4e39
000003c0: 0d41 f3b9 e2ea 9b39 1f49 063a d9f1 733a
000003d0: 99df a63a c32e 433a 90aa 613a 072b 42b7
000003e0: 835c f83a ac30 03bb dc2b d339 a5be 2fbb
000003f0: 8fc4 aab9 4650 24b8 138f 73ba 392a 013b
