trained_models/MRI_Sigma_5_t_10_K11/checkpoints/checkpoint_10.pth (torch, 401587 bytes, 10 tensors)

conv_layer.conv_layers.0.parametrizations.weight.original f4 [8, 1, 11, 11]
000000 8f 28 1d bc 84 ae f6 3c f3 18 ba bc 75 02 48 3d
       -0.009592189 0.030112512 -0.022716975 0.04883047
000010 4a 95 db bc bb 37 4f bd d1 6d 8c bd 05 3b d4 3d
       -0.026804585 -0.050590258 -0.06856883 0.103628196
000020 b4 aa b9 3c dc 24 15 bd 46 da aa 3c a0 2e c0 bc
       0.022664405 -0.036412105 0.020856034 -0.023459733
000030 78 94 72 3b 35 f8 2d bd 79 a1 80 3c 04 01 2e 3c
       0.0037014764 -0.042473037 0.015701996 0.010620359
000040 d9 d7 ac 3d ca 50 1c 3d 54 37 7e bd 63 f2 40 bc
       0.08439607 0.038162984 -0.062064484 -0.0117765395
000050 18 f3 2e 3c 5c 44 fd bc 39 53 b7 39 78 68 ab 3d
       0.010678075 -0.030916385 0.00034966486 0.08369535
000060 b3 f4 bb bd a1 61 50 bd 98 cd c4 bc c9 ef f6 bd
       -0.09177532 -0.050874356 -0.024023816 -0.12057454
000070 bf c7 59 3b 58 b2 72 bd 45 0d df 3d 03 9e a3 bd
       0.003323063 -0.059252113 0.10891203 -0.07989123
000080 a8 24 25 3d d1 ec d9 bc 38 47 5e bd ec c1 6b 3d
       0.04031816 -0.02660218 -0.05426714 0.057557985
000090 c1 30 8b 3c d5 8c c6 3d 13 52 57 3d 35 ab cd bc
       0.016991021 0.0969483 0.052568506 -0.025106052
0000a0 d9 f4 c8 3d 99 ec 2f bd 06 d8 ed bc 9e a5 04 3d
       0.09812326 -0.042950246 -0.029033672 0.032384507
0000b0 ed b5 51 3d d4 ae 78 bd eb 21 96 3d 5a 0f a7 bc
       0.05119889 -0.060713604 0.07330688 -0.020393062
0000c0 8f c5 e1 3d 4a a6 1d be 69 b1 42 be a9 bf b6 3b
       0.110240094 -0.15395465 -0.19012989 0.005577047
0000d0 8b 33 ce bd 47 12 a6 3d bf 35 fc bc 21 0a fb bc
       -0.10068425 0.08108955 -0.030787347 -0.030644478
0000e0 96 d3 8e 3d 04 2e 93 3b bd 4a 2d 3e f6 ce 02 be
       0.069739506 0.0044915695 0.16923042 -0.12774262
0000f0 bc fe eb 3d 9e 04 85 be 01 7a 66 3c ce b7 7b bc
       0.11523196 -0.25980085 0.014067174 -0.015363647
000100 d5 ab 2c 3d b2 c5 2d bd 65 35 22 3d 2a ef 78 bd
       0.04215606 -0.042424865 0.039601702 -0.06077496
000110 5c 27 cb bd 77 94 39 bd f0 4a 3f 3e 8c 34 04 3e
       -0.099196166 -0.045307603 0.1868093 0.1291067
000120 19 db 03 3e b4 94 f2 bd 81 1e 69 bd 40 19 59 bd
       0.12876548 -0.11844769 -0.056913856 -0.053002596
000130 22 81 d8 bc fe a4 e4 bb f3 b4 da 3c ac eb d8 3d
       -0.026428763 -0.0069776764 0.026697611 0.10591826
000140 82 c6 af bd 5d e2 06 be 74 14 dd 3d db f6 22 bd
       -0.08582784 -0.13172288 0.10794917 -0.0397862
000150 55 45 1b 3d 81 02 a6 bc 16 81 8e 3d 3e 01 92 bb
       0.037907917 -0.020264866 0.06958215 -0.0044557145
000160 4e d9 04 bc 92 c0 f4 bc 33 4f 92 bc 39 5a 5e bd
       -0.00810845 -0.02987698 -0.01786003 -0.05428526
000170 79 33 98 3d 7e 3b c2 3d ba 59 bf bd c4 02 1e bd
       0.07431693 0.094840035 -0.09343286 -0.038576856
000180 a0 28 c7 3d b4 75 63 bd 00 65 95 bb 92 8f 6a bd
       0.097245455 -0.055532172 -0.0045591593 -0.057265826
000190 6b ea 8f bc 22 41 fa 3c 03 21 bc 3c 64 92 8f bd
       -0.017567834 0.030548636 0.02296496 -0.07010344
0001a0 15 72 84 bc 5d 61 21 3d 44 a4 a6 bc b1 26 a0 bb
       -0.01616768 0.039399493 -0.020342 -0.004887425
0001b0 c3 c2 dc bc 2f 9c 10 3c 8f 17 25 3d e3 64 f7 bb
       -0.026948338 0.0088263 0.04030567 -0.0075498684
0001c0 6d 65 ef ba 2b 63 3d bd 05 f5 61 bc 2f c3 b6 bb
       -0.001826448 -0.046237152 -0.013791327 -0.005577467
0001d0 80 e0 0a 3d e7 4e 13 bd a9 fe 32 3c 94 c5 89 bc
       0.033905506 -0.03596392 0.0109249735 -0.016817845
0001e0 23 d8 5b 3c 18 fa 0d 3b ae 36 2f bb 8d 30 53 bc
       0.01341823 0.002166396 -0.0026735472 -0.012889993
0001f0 48 5c 19 3a fd c5 f5 bb 71 76 fc bc 12 9d 79 bd
       0.0005850238 -0.0075004087 -0.030818196 -0.06094081
000200 20 04 83 3d 9c a8 18 bd 06 92 75 3d 20 25 11 bd
       0.06397271 -0.037270173 0.059953712 -0.035435796
000210 40 5d 62 bd 77 41 99 3d de 06 1b bd 6c 76 24 ba
       -0.05526471 0.074831896 -0.037848346 -0.000627375
000220 a3 df 59 bd 6b 5e 21 be 41 61 54 3d f5 5b 00 bd
       -0.053191792 -0.15758674 0.05185056 -0.031337697
000230 f9 c0 30 3d e6 8b b8 bd 10 22 92 3d 8f 3d b6 bc
       0.043152783 -0.090110585 0.07135403 -0.02224615
000240 53 33 70 bc 7d 58 70 bd 49 71 1d 3d 7e 1f 03 3e
       -0.014660674 -0.05867814 0.038438115 0.12804982
000250 32 06 bf 3d a1 bb 15 be 53 38 f8 3c bd 57 1c bd
       0.093273535 -0.14622356 0.030300295 -0.03816961
000260 ab dc 20 3d 07 22 81 bd bd ab c4 3d 66 4e 94 bd
       0.039272945 -0.06305318 0.09603069 -0.07241516
000270 92 c7 e4 3c f4 a9 89 3a 72 24 33 3d c4 d1 37 be
       0.027927194 0.001050292 0.04373593 -0.17951113
000280 7e 61 f2 3d 64 5f c6 3b 6a 4d 46 3b bc 2d 80 bd
       0.118350014 0.006053852 0.0030258545 -0.06258723
000290 a6 f1 c5 3c 98 cc 60 bc c2 23 fc bc 20 90 b2 3d
       0.024163079 -0.013720654 -0.03077877 0.08718896
0002a0 98 55 a4 3c aa dc d9 bd 0b a6 94 be 3d 49 5d bc
       0.020060346 -0.106377915 -0.2903293 -0.013506231
0002b0 3d f2 e1 3c a1 7d b8 bc 30 f1 f1 bc bd 8e a4 3c
       0.027581329 -0.022520842 -0.029533952 0.020087594
0002c0 23 27 a5 3b f7 87 0b bd eb 74 a9 3d 2b f8 3c be
       0.005040066 -0.034065213 0.082742535 -0.18454044
0002d0 e7 b8 3c 3e 77 bc 2c 3e 57 fa bf 3d b3 cb 20 bd
       0.1842991 0.16868769 0.093739204 -0.039256763
0002e0 05 6c f8 3d 16 31 dd 3c a2 ab a9 3c fa be 03 bd
       0.12129978 0.027000945 0.020711724 -0.03216455
0002f0 cb 48 6e bc 1f bc b9 39 89 b0 d6 bb ef 79 9f bd
       -0.014543722 0.0003542611 -0.0065518063 -0.07786929
000300 dc ab 33 3e 23 d6 f1 3d ec 95 5a bd 0a be 43 bd
       0.17546028 0.118084215 -0.053365633 -0.047788657
000310 5c 14 0c 3c 6f d2 1a bd 65 6c ba ba d6 e5 e1 3a
       0.008549776 -0.03779834 -0.0014222978 0.0017234634
000320 61 76 ae bd 1f a7 90 3b c2 fd c0 3d 41 2f 1f 3d
       -0.08518673 0.0044144536 0.094234005 0.038863424
000330 52 d0 7c bc 95 e7 14 bd 19 68 21 bd 52 c2 f4 bc
       -0.015430527 -0.036353666 -0.039405916 -0.029877815
000340 9e 57 9f 3b c1 90 d8 3c 1f bc 22 3d 21 35 9d 3d
       0.0048627397 0.026436212 0.039730188 0.07676149
000350 76 e0 26 bd 49 d8 a2 bd cf d2 f8 bd 40 55 78 3d
       -0.040741406 -0.07951409 -0.121495835 0.060628176
000360 d8 76 4c bd 57 f7 9a 3c f2 86 25 3d 82 99 84 3b
       -0.049918026 0.018916769 0.040411897 0.00404662
000370 d4 61 67 bd e2 f4 29 3d 07 a0 a3 bd f0 fe f8 3c
       -0.05648978 0.041493304 -0.07989507 0.030395001
000380 97 00 05 be f1 e1 4c 3d 97 41 8c 3c ba ea 6b 3d
       -0.12988506 0.050020162 0.01712112 0.0575969
000390 88 ec 4f 3c 02 97 8b bd 19 ba 46 bb 0e e6 42 3c
       0.012690671 -0.06815912 -0.0030323325 0.01189567
0003a0 cb 80 8d bc f7 14 2a bc 1c 7d 54 3d 09 ff 21 3c
       -0.017273327 -0.010380975 0.051877126 0.009887465
0003b0 6f c7 34 3c 58 ff b7 bd 09 fb 41 bd 48 92 35 bd
       0.011033877 -0.0898425 -0.047358546 -0.044328958
0003c0 1e 12 73 3d 21 f0 be bc 73 0e 73 bc 1b 17 a4 bb
       0.05934345 -0.023307862 -0.014834988 -0.005007637
0003d0 42 c5 d3 3b 8b 09 30 bd e5 e6 72 bd 55 27 44 3d
       0.006462724 -0.04297785 -0.05930223 0.047889072
0003e0 07 58 4b bd 86 c9 2c 3d ff 48 1a bc 0e 49 33 bd
       -0.049644496 0.042184375 -0.009416818 -0.043770842
0003f0 7d 72 8b 3c f0 1b a9 bc d6 64 66 bc a1 10 c3 bd
       0.017022366 -0.020643204 -0.014062127 -0.09524656

conv_layer.conv_layers.1.parametrizations.weight.original f4 [32, 8, 11, 11]
000000 a2 8f 01 39 61 85 5e 3c 89 e2 28 3c 81 f9 33 3c
       0.00012355906 0.013581605 0.010307916 0.010984779
000010 4e 5d c6 bc d8 67 b8 bb 2e 50 b0 3c 1e e2 17 3c
       -0.024214413 -0.0056276135 0.021522608 0.009270219
000020 ae c4 7f 3c d6 36 b1 bc bb 7e 08 3c 0a 37 82 3c
       0.015610857 -0.021632593 0.008330996 0.015895385
000030 1f 6f 3f bc 46 b4 50 bb 13 bd ff ba a4 2c b6 3c
       -0.011684208 -0.0031845733 -0.0019511305 0.022238083
000040 85 0e 07 bd 4e be 0b 3c 41 79 88 bc 04 d9 8f bc
       -0.03297283 0.008529259 -0.01665938 -0.017559536
000050 12 b3 64 3c a1 85 85 3b a9 94 29 ba 46 05 6e bc
       0.013958709 0.0040747677 -0.00064689905 -0.0145276245
000060 72 08 37 bb 55 98 11 bc 93 a6 e0 3c 10 fe 2c bd
       -0.0027928618 -0.008886416 0.027423179 -0.04223448
000070 f0 02 aa 3c c1 3f a8 3c 9a 3a fa bc 33 d6 b2 3c
       0.020753354 0.020538213 -0.030545522 0.021830654
000080 42 0b 03 bd fe 0d b7 3c 7f ba 4d bd ac 26 55 3d
       -0.03199316 0.02234554 -0.050226685 0.052038833
000090 68 b4 36 bc 9c e6 3c bd 32 72 63 3d a0 77 39 3d
       -0.011151411 -0.046118364 0.055528827 0.0452801
0000a0 87 36 96 bd 97 b2 f0 ba 27 c2 1e bb 56 c2 5b bb
       -0.07334619 -0.0018363771 -0.002422461 -0.0033532581
0000b0 c7 d5 9b bc 48 2f 4d 3d 21 e2 70 bd 3d f8 a2 3d
       -0.019022835 0.05009392 -0.058809403 0.07957504
0000c0 66 4b a4 bc d6 2c 89 3d 9f ae 77 bd bd 34 bb 3c
       -0.020055484 0.06698005 -0.060469266 0.022852296
0000d0 c9 c4 cd 3c 2c 33 19 bc 9f 6f 45 bc 13 ee ae bc
       0.025118249 -0.009350579 -0.012050538 -0.021353757
0000e0 48 cb 88 3d 9e da 69 bc 21 3f a5 3c f6 19 80 bd
       0.06679398 -0.014273314 0.020171704 -0.06254952
0000f0 40 f2 c6 3d 18 b0 42 be 58 eb 00 3e 54 37 66 bd
       0.09714174 -0.19012487 0.12589777 -0.05620511
000100 75 1f 1f 3b d3 93 14 3d eb 9e f1 3b 76 6d ca 3c
       0.0024280224 0.03627379 0.007373681 0.024710398
000110 54 d2 20 bd cb ef 98 3b 37 5c 42 3c 81 18 38 bd
       -0.039263085 0.0046672574 0.011862806 -0.044945244
000120 d7 68 28 bc b1 17 36 3b 9a fa bf bb 29 59 59 3b
       -0.010278902 0.0027785117 -0.0058587315 0.0033164716
000130 c0 e1 b8 3c 84 be a2 bc fc 20 3a bd 9f 72 a0 3c
       0.022568583 -0.019866236 -0.045441613 0.019585906
000140 cd b2 81 3d d6 9e b6 bc d1 9f b0 bc 64 fd 76 bc
       0.06332932 -0.022292536 -0.021560581 -0.0150750615
000150 bf e6 b2 bc e6 d1 9a 3c 59 93 8b bb df dc 9d bc
       -0.021838544 0.018898915 -0.0042595086 -0.019270359
000160 4d 5c 06 bd 18 eb 80 3a 5e c2 01 bc 7f df 45 bd
       -0.03280287 0.0009835688 -0.007919876 -0.048308846
000170 22 b1 b8 3c d9 a8 a6 bd 44 29 18 3d 05 e4 ec 3c
       0.022545401 -0.08137674 0.03714873 0.028917322
000180 ab a8 ac bc 8d 40 b1 3d 6e 39 89 bd 06 86 7d 3a
       -0.02107652 0.0865489 -0.06700407 0.0009671155
000190 01 be cc 3c 27 ce 8a bc b9 a9 c4 bb 66 74 13 3c
       0.024992945 -0.016944004 -0.006001678 0.0089999195
0001a0 d3 69 99 bc ca 1b 33 3d 3b 3b 06 bb 85 ac 71 bc
       -0.018727219 0.043727674 -0.0020482081 -0.0147506045
0001b0 ff 42 e0 bb c7 b6 67 3c 97 cb ca 3c 42 89 7d bc
       -0.006843924 0.014142699 0.024755282 -0.015474619
0001c0 2d bf 7e bb 03 d8 cd 3c 01 52 98 bd f5 0e a2 bb
       -0.0038871274 0.025127416 -0.07437516 -0.0049456307
0001d0 a9 69 e5 3c ce 9c 4e bb f4 38 e8 3c f0 48 4c bc
       0.028004484 -0.0031526568 0.02834747 -0.0124685615
0001e0 93 8c 24 bc 2d 72 a6 3c bf c4 da bc a9 48 3b 3d
       -0.010043281 0.020318115 -0.026705144 0.04572359
0001f0 e8 02 8d bd 9c 1a 1e 3d 5f 96 99 bc 11 ac db 3a
       -0.0688532 0.038599595 -0.01874846 0.0016759654
000200 ba 34 2a 3c 1c 82 05 bc c3 a8 89 3c ec 1c 87 bc
       0.010388548 -0.008148696 0.016804105 -0.016493283
000210 2a 34 0e bd 36 eb e9 3c 54 cf 0d bc 13 b2 b9 bc
       -0.034717716 0.02855454 -0.008655388 -0.02266792
000220 ef 70 13 bd 29 c5 2a 3d ac 75 d3 3c 07 cb 18 bc
       -0.035996374 0.041691933 0.025812946 -0.009325749
000230 5f 33 40 3c 0e 6b 2f bc 7e 95 a9 3b af be 24 bd
       0.011730998 -0.010706676 0.0051752916 -0.040220913
000240 33 af 93 3d c9 7e 83 bd 77 a1 e9 3b 37 cd 5b bc
       0.07211151 -0.06420667 0.007129844 -0.013415626
000250 0f 18 e6 3c ab 5f ea 3c 1a b3 e6 bc ee 81 4d 3b
       0.028087644 0.028610071 -0.028161574 0.0031357962
000260 36 b6 96 bc 14 a7 80 3b 47 c3 f3 3b 49 d5 11 3c
       -0.018397432 0.0039261673 0.0074390504 0.008900949
000270 6a cc c5 bc d6 42 c1 3b 91 30 06 3d af 6d 0d bd
       -0.024145324 0.00589786 0.03276116 -0.03452843
000280 58 48 07 3d 62 f7 9b 3b 26 6d 8c 3c 03 3f bc 39
       0.033027977 0.004759715 0.01714189 0.00035905102
000290 3f 15 89 bc a1 88 f1 3c 2a bf 8d bc 86 d7 ab 3c
       -0.016733764 0.029484095 -0.017303068 0.020976793
0002a0 0e 39 13 bd be da 3b 3c 3f 04 61 3c a6 c3 02 3d
       -0.035943083 0.011465726 0.0137339225 0.031924866
0002b0 26 e6 80 bd a0 3b c1 3a df 29 91 ba 29 94 a6 3c
       -0.06293897 0.0014742501 -0.0011075101 0.02033432
0002c0 80 2d 47 3c d9 51 88 bc 03 1e 03 3d 55 32 67 bd
       0.012156844 -0.01664059 0.032011043 -0.056444485
0002d0 18 99 af 3d 38 0a c2 3c 67 17 0e bd e9 2f e1 bc
       0.08574122 0.023686513 -0.034690287 -0.027488666
0002e0 eb 0c 83 3c a5 58 9f bb 12 40 ca bc 34 83 0b 3d
       0.01599737 -0.004862862 -0.024688754 0.034060672
0002f0 bb 7c 69 bd 50 ac c0 3c e1 c5 9a bc ce ae cd 3d
       -0.057003718 0.023519665 -0.018893184 0.10043107
000300 46 c2 cb 3c 8f 27 57 bd 99 76 de 3c cf 4a ce 3b
       0.02487291 -0.05252796 0.027156161 0.006295539
000310 4f ea 4a bd 4c 68 5e 3d 62 4c 2e bd c1 06 80 3c
       -0.04953986 0.054298684 -0.042553313 0.01562822
000320 6e 33 b8 3b 45 f3 3e bc b8 8f 32 3d 39 03 d4 bc
       0.0056213653 -0.01165468 0.043594092 -0.025880443
000330 13 63 0c bd 1c fe c9 3c 4f 27 fb bc 5f 61 32 3d
       -0.034274172 0.024657302 -0.030658392 0.04354989
000340 75 59 ac bc 26 e7 81 bc 29 26 1c 3d 40 86 63 bc
       -0.02103875 -0.01585729 0.03812233 -0.013886988
000350 df 10 db 3c bc 6c ef bc c0 d5 bb 3d d1 83 c8 bd
       0.026741443 -0.029226653 0.09171629 -0.09790767
000360 d5 53 08 3d 98 fb 5b bd d3 bb 59 3d 58 ba a3 bc
       0.033283073 -0.053706735 0.05315764 -0.019986317
000370 ee 5a 08 bd 97 65 b6 3c 0b af 61 bb a9 c7 09 3c
       -0.033289842 0.022265239 -0.003443661 0.008409419
000380 ed 00 01 3d ff 61 3f bd 18 5b 02 bd 08 ee ca 3c
       0.031495024 -0.046724316 -0.031825155 0.024771705
000390 aa 10 7e 3d b0 83 b3 bc 83 43 cb bc 4d f2 11 3d
       0.06202761 -0.02191338 -0.024812466 0.035631467
0003a0 a0 b9 f9 bc 0e 32 97 bb 0c 21 16 3d 1b 83 52 3b
       -0.03048402 -0.0046141213 0.03665261 0.0032121602
0003b0 77 6b 44 3c ce 36 82 bc 91 03 f0 3c e7 06 51 3c
       0.011988512 -0.015895274 0.029298576 0.012757993
0003c0 ed 81 75 bd 81 20 1a 3d 62 1d 77 3c df 14 b8 bc
       -0.05993836 0.037628654 0.015082689 -0.02247089
0003d0 9f 80 7b 3d 38 5b 1d bd 86 3c c6 3c 42 67 6c bb
       0.06140196 -0.03841707 0.024198782 -0.0036072289
0003e0 73 f1 6a ba a4 5d 8b bc ef 1a cd 3c ef 2d de bc
       -0.00089623703 -0.017012425 0.025037257 -0.027121512
0003f0 a8 de b7 3b 6a 64 3f bd 36 c1 53 3d d9 a9 5c bc
       0.0056112595 -0.04672662 0.051697932 -0.013468229

activation.coefficients_vect f4 [672]
000000 00 00 00 80 1a 05 13 3b 9b 7e 01 3b 76 c6 83 3a
       -0.0 0.002243346 0.00197593 0.0010053653
000010 4d 9d 81 3a ee af 69 3a c8 c8 4c 3a 56 c5 00 39
       0.0009888798 0.000891446 0.0007811901 0.00012280545
000020 f2 21 fa 38 27 d2 28 b9 6b 29 7f b7 27 d4 ef 38
       0.00011927252 -0.00016100016 -1.5208828e-05 0.000114359245
000030 f8 98 a1 38 12 6a 0f 37 74 51 ba b7 34 ce 92 b9
       7.705571e-05 8.548161e-06 -2.2210857e-05 -0.00028000923
000040 93 f5 2b ba 09 16 64 ba df f3 76 ba 8c 0c a2 ba
       -0.0006559726 -0.0008700793 -0.0009420495 -0.0012363358
000050 00 00 00 00 00 00 00 80 08 5c 31 3b 59 ab 0e 3b
       0.0 -0.0 0.0027062912 0.0021769612
000060 61 b7 90 3a 5f 21 33 3a fd 4f 12 3a 84 10 bb 39
       0.0011040979 0.0006833281 0.0005581377 0.00035679725
000070 b5 c1 8b 39 91 91 a9 38 a9 33 f8 b8 23 df e7 37
       0.0002665647 8.085662e-05 -0.00011835184 2.7641252e-05
000080 48 fa 1a 39 e3 98 07 39 cf c8 df 38 a8 ca 4a b9
       0.00014779822 0.00012931558 0.00010670872 -0.00019339717
000090 08 f4 d9 b9 7e 9e 00 ba e4 cd b1 ba a3 8f 15 bb
       -0.00041571283 -0.00049064297 -0.0013565389 -0.002282121
0000a0 d5 dc 4b bb 00 00 00 00 00 00 00 80 36 22 ca 3a
       -0.0031106968 0.0 -0.0 0.0015421573
0000b0 4e 42 6a 3a 59 aa 51 3a 25 c6 d9 39 6f 69 cf 39
       0.0008936272 0.0007998101 0.00041537095 0.0003956067
0000c0 dd 73 b1 39 d1 ee 04 39 08 78 26 b7 fa bc 90 b8
       0.00033846396 0.00012677467 -9.922318e-06 -6.901655e-05
0000d0 4d f3 c4 38 be 89 6f 39 2e 34 83 38 56 42 3f 38
       9.3913266e-05 0.00022844129 6.256286e-05 4.559973e-05
0000e0 25 76 b2 b8 c6 fe 89 b9 37 9a c8 b9 fb 45 11 ba
       -8.5097075e-05 -0.00026320497 -0.00038261872 -0.0005541739
0000f0 7e ec 9b ba 18 fd b7 ba 00 00 00 00 00 00 00 80
       -0.0011896042 -0.001403722 0.0 -0.0
000100 d8 75 53 3b e2 e9 2f 3b 56 32 ea 3a e7 46 68 3a
       0.0032266285 0.0026842286 0.0017867784 0.0008860663
000110 b2 af 4d 3a 67 67 5a 39 1d 59 52 39 bc ea 04 b9
       0.000784631 0.0002082862 0.00020060358 -0.00012675946
000120 06 29 2f b9 4d 91 87 b8 3f 8d c0 38 a5 7e 47 38
       -0.00016704583 -6.464366e-05 9.1815826e-05 4.7563244e-05
000130 bd 55 99 37 40 dc c8 b9 e3 e9 2f ba 37 67 52 ba
       1.8278946e-05 -0.00038311072 -0.0006710572 -0.00080262445
000140 a0 cb a8 ba 40 c9 f8 ba 99 46 20 bb 00 00 00 00
       -0.0012878068 -0.0018980876 -0.0024456142 0.0
000150 00 00 00 80 aa eb 54 3b 8b ee 1f 3b 97 fb bf 3a
       -0.0 0.00324891 0.0024403657 0.0014647123
000160 b0 f4 9a 3a da 20 30 3a 1a 5d 5c 39 08 a8 9e 38
       0.001182219 0.00067187625 0.00021015518 7.565325e-05
000170 3b bd 5c b8 a1 16 0b b9 b4 8d 4a 37 15 d6 32 39
       -5.2628322e-05 -0.00013264503 1.2073131e-05 0.00017055155
000180 f7 38 11 39 3d 34 16 37 3a 48 ca b8 c6 d4 6f b9
       0.00013849499 8.952859e-06 -9.645564e-05 -0.0002287208
000190 47 f6 3a ba 7e cc 75 ba 2c ce c1 ba 38 3b e2 ba
       -0.0007132035 -0.000937648 -0.0014786175 -0.001726008
0001a0 00 00 00 00 00 00 00 80 f2 5e 11 3b 25 43 08 3b
       0.0 -0.0 0.0022181836 0.0020791974
0001b0 51 c8 b5 3a e7 c7 43 3a 72 71 ca 39 25 e3 99 39
       0.0013868903 0.00074684474 0.00038612966 0.0002935167
0001c0 cb 3a 0c 39 95 3c 58 b8 41 83 29 b9 b1 96 e1 b7
       0.00013373343 -5.1554834e-05 -0.00016165992 -2.6892261e-05
0001d0 e4 71 b2 38 f9 6d 76 38 a8 fd 4a 38 41 74 9f b9
       8.508915e-05 5.875339e-05 4.839679e-05 -0.0003041346
0001e0 7d 9b 1c ba c6 05 6a ba cf 07 99 ba 29 9f c3 ba
       -0.00059740973 -0.0008927252 -0.0011675301 -0.0014924753
0001f0 07 6c 12 bb 00 00 00 00 00 00 00 80 02 2e f4 3a
       -0.0022342221 0.0 -0.0 0.0018629434
000200 af 52 a5 3a 8f c7 3f 3a 7e 8b 31 3a 78 56 ce 39
       0.0012613143 0.00073158083 0.00067728 0.00039355806
000210 31 3b bd 39 7c bb 01 39 95 6a 6c 38 ce 0d fc 37
       0.0003609299 0.00012372242 5.6366047e-05 3.004717e-05
000220 e4 09 1b 39 7f c4 b1 38 c3 c2 23 38 1f e5 d8 b8
       0.00014785636 8.476618e-05 3.9043614e-05 -0.0001034236
000230 98 e9 33 ba 32 2f 4e ba c7 a1 83 ba 10 c3 90 ba
       -0.0006863116 -0.0007865309 -0.001004272 -0.0011044461
000240 db ad d1 ba 8f a9 23 bb 00 00 00 00 00 00 00 80
       -0.0015997248 -0.002497289 0.0 -0.0
000250 75 95 0d 3b d3 f6 9a 3a 9c 2e 81 3a 2d c2 11 3a
       0.0021603976 0.0011822827 0.000985581 0.00055602455
000260 9e 39 b4 39 0f 44 80 38 7a 5e 6a 38 6b c0 f9 37
       0.00034375204 6.1161925e-05 5.5877936e-05 2.9772715e-05
000270 89 87 3f 37 b1 c4 b9 38 e2 3c 48 39 86 f8 23 38
       1.1416044e-05 8.858124e-05 0.00019096167 3.9093684e-05
000280 12 52 66 37 08 72 40 b8 21 87 e7 b9 78 33 6a ba
       1.3728177e-05 -4.5882567e-05 -0.00044160432 -0.0008934061
000290 46 a4 cf ba e3 1a de ba a0 93 02 bb 00 00 00 00
       -0.0015841804 -0.0016945269 -0.0019924417 0.0
0002a0 00 00 00 80 ec 26 1f 3b 93 7e a9 3a c6 85 9a 3a
       -0.0 0.0024284674 0.0012931399 0.0011789135
0002b0 66 18 97 3a f0 60 1d 3a 9b 70 a2 39 2c 4c 5d 39
       0.0011527657 0.00060035195 0.00030982945 0.00021104579
0002c0 d8 21 78 b8 15 d8 f0 b8 4f 6f 11 b5 b7 10 0a 39
       -5.9159327e-05 -0.0001148434 -5.4178685e-07 0.00013166932
0002d0 a5 a0 b2 38 bb 21 00 b9 f9 29 22 b9 07 8a 4d b9
       8.517624e-05 -0.00012219597 -0.0001546516 -0.00019601743
0002e0 a8 ed 9e b9 39 58 2b ba 87 81 b3 ba 66 aa de ba
       -0.00030313176 -0.00065362785 -0.0013695218 -0.0016988039
0002f0 00 00 00 00 00 00 00 80 79 63 f7 3a ac 65 f6 3a
       0.0 -0.0 0.001887425 0.0018798611
000300 39 37 1b 3a e3 d1 c7 39 92 ae 4e 39 2a 2e 45 39
       0.00059210096 0.00038112616 0.00019710723 0.00018804581
000310 37 85 cd 37 a4 87 67 b6 c0 7e 49 b8 fc b1 98 38
       2.4499937e-05 -3.4500636e-06 -4.804018e-05 7.281077e-05
000320 b8 3e 44 39 24 6e 39 39 95 e6 49 38 b3 f7 3c ba
       0.00018715381 0.00017684005 4.813688e-05 -0.0007208541
000330 e3 f8 69 ba 26 ae b7 ba 9d d5 ef ba b9 24 12 bb
       -0.00089253316 -0.0014013692 -0.0018297915 -0.002229972
000340 78 4a 21 bb 00 00 00 00 00 00 00 80 c9 29 04 3b
       -0.0024611037 0.0 -0.0 0.0020166507
000350 b1 5c e7 3a 8f 17 9a 3a ea cc 64 3a 1c 80 4b 3a
       0.0017651526 0.0011756289 0.00087280443 0.0007762925
000360 8b f0 87 39 d3 22 ec 38 e8 a5 ce b8 cf 8f 2f b9
       0.00025928425 0.000112598434 -9.853748e-05 -0.00016742873
000370 aa 11 93 b8 c1 b6 11 38 bc f0 01 b8 00 a9 5e b8
       -7.0127964e-05 3.4740897e-05 -3.0980198e-05 -5.3086318e-05
000380 26 e1 f8 b8 de 07 8c b9 e6 ee fc b9 e9 61 39 ba
       -0.00011867499 -0.00026708742 -0.0004824318 -0.00070717797
000390 da 94 86 ba 93 8a ac ba 00 00 00 00 00 00 00 80
       -0.001026775 -0.0013163857 0.0 -0.0
0003a0 c2 65 3d 3b 89 68 eb 3a 28 f1 ad 3a eb 3d 27 3a
       0.0028899764 0.0017960231 0.0013270723 0.0006379771
0003b0 6c 61 00 3a 1d 29 16 38 0b 9f a8 b6 54 f1 1f b8
       0.00048973295 3.5801077e-05 -5.025305e-06 -3.813331e-05
0003c0 30 cb a5 b8 8a d8 e1 37 15 b5 16 39 1e d9 4f b7
       -7.90566e-05 2.6922924e-05 0.00014372573 -1.2388713e-05
0003d0 14 7d 52 b9 69 1d b2 b9 8a 5b 46 ba cd 31 4e ba
       -0.00020073756 -0.00033972718 -0.0007566741 -0.0007865697
0003e0 94 95 52 ba 1b b5 e4 ba 29 49 26 bb 00 00 00 00
       -0.0008033153 -0.0017448993 -0.0025373197 0.0
0003f0 00 00 00 80 8f bb 0a 3b e0 85 f1 3a 49 65 91 3a
       -0.0 0.0021168923 0.0018426739 0.0011092807

u f4 [1, 1, 20, 20]
000000 30 17 09 3c f9 b9 9e 3b ad 56 c4 3c f0 85 9a bd
       0.008367345 0.004843947 0.023967111 -0.07545078
000010 0d d2 f7 bc e6 d7 1a 3d 82 78 fd 3c 0d b1 5a bd
       -0.030251527 0.037803553 0.030941252 -0.053391505
000020 b7 ef a7 3c 14 1e 70 b9 ef 75 c1 3c 6e 90 34 bd
       0.020500047 -0.00022899389 0.023615805 -0.04408305
000030 20 5a 2d 3d 7c 76 4d bc 56 3f c5 b9 95 3d 04 3c
       0.042322278 -0.012540456 -0.00037621957 0.008071323
000040 4e 9d 86 3a 0c 08 2e bb 38 58 de bb 8e 0b 64 3c
       0.0010270269 -0.002655509 -0.006785419 0.0139187705
000050 e7 f1 27 3c 94 0d 94 bc 7c b4 c8 bd 32 2b 34 3e
       0.010250545 -0.01807288 -0.0980005 0.17594603
000060 29 e9 b0 3d 61 b7 81 bd 0b d3 e5 bc 9f 2d 3f 3d
       0.08638222 -0.06333805 -0.028054735 0.046674367
000070 d1 e0 3e 3a 2b b3 93 3c f2 ec ce bd ee 19 98 3d
       0.0007281425 0.01802977 -0.101037875 0.07426821
000080 07 7f 68 bd 10 9f 02 39 72 7a 37 3c 74 4e 01 bd
       -0.056761768 0.00012457022 0.011198627 -0.03156896
000090 ec 66 f7 3c 66 60 bf bb d9 69 d5 bb 46 bb b3 bb
       0.030200444 -0.005840349 -0.006512862 -0.005484971
0000a0 19 2f ce bc 32 6d 3a bb 24 ec 13 3e e2 b2 5a be
       -0.025168942 -0.0028446433 0.14445549 -0.21357301
0000b0 3e 30 08 bd 8c ad e2 bc 09 07 9f 3c 82 f1 08 3d
       -0.033249132 -0.027670644 0.019412534 0.033433445
0000c0 11 3b 23 bd be ed 9a bc 14 02 03 3e 33 7c ac bd
       -0.039851252 -0.018912192 0.12793761 -0.084221266
0000d0 9b c9 94 3d 1b ef 0e bd d6 de 27 3d 17 2f c1 bb
       0.07265016 -0.034895997 0.040983997 -0.005895506
0000e0 a9 15 a4 bc 9f b0 01 3d 1b c4 63 bc 6f 66 ed bb
       -0.02002986 0.03166258 -0.013901736 -0.007244877
0000f0 59 8c a2 3c 38 44 6d 3c 5c d8 22 bd c4 1c c3 3d
       0.019842314 0.014481597 -0.039757118 0.09526971
000100 87 60 ee bc 8f 5c 63 3d d7 6a e5 3c 9c 0a b4 bd
       -0.029098762 0.055508193 0.028005047 -0.08791086
000110 d6 cc 45 3d 1c 6b 4a bd e9 5e f2 3c 76 02 ad 3a
       0.04829105 -0.049418554 0.029586272 0.0013199586
000120 df 04 fc bc ab 8f 14 3c b8 5b c3 bb 47 b4 f7 bc
       -0.030764041 0.009067456 -0.0059618615 -0.03023733
000130 57 6a fe 3c 6e ac 1f bd 79 6c 03 3d aa 6c 45 bc
       0.031056566 -0.0389828 0.03208587 -0.012049833
000140 d3 bb 29 3d b0 b3 f4 bd 17 5a 55 bc 8c 24 b3 bc
       0.04143889 -0.11948335 -0.013021967 -0.021868013
000150 2e 9d 9a 3d f6 86 54 bd 3f bb 7c bc fc d4 f3 3c
       0.07549511 -0.05188652 -0.015425502 0.029764645
000160 3e 04 d8 3c 80 15 3c bd 4f 72 89 3a b7 4a 37 bb
       0.02636921 -0.04591894 0.0010486337 -0.0027968118
000170 53 57 2e 3d d0 46 29 bd e9 2a f4 3c c1 39 2b 3c
       0.042563748 -0.041327298 0.029805617 0.010450781
000180 6c d8 91 bc ce 59 9b 3c ef 75 ab 3b 2c a8 25 3b
       -0.017803393 0.01896372 0.0052325646 0.002527724
000190 c4 9a 43 bd 15 07 f1 3d 4a b9 c1 3d d0 23 81 bc
       -0.047755018 0.11768929 0.09459169 -0.015764147
0001a0 36 4b 47 bc d2 8e 33 bd 9c b4 42 3d 7a 03 4e bd
       -0.012163928 -0.043837376 0.047535524 -0.050296284
0001b0 7e 23 7b 3d 6e 38 a6 bc 18 88 12 3c 20 80 e4 bc
       0.061313145 -0.02029058 0.00894358 -0.027893126
0001c0 ea fd 31 3d 55 84 13 bd a8 fb 62 3c 5b 29 dc bc
       0.043455042 -0.036014874 0.013853945 -0.026875189
0001d0 18 99 c8 3c 88 a3 a8 bd cc 86 7d 3d ed 28 a6 bc
       0.024487063 -0.08234316 0.06189613 -0.020283187
0001e0 14 7d 59 3d 46 97 f7 bd 3e 08 5b bd 94 9b f9 bc
       0.0530978 -0.120894 -0.053474657 -0.030469693
0001f0 45 a7 00 3d eb 2f ce bc fd f4 46 3d 63 b4 2e bd
       0.03140952 -0.025169333 0.048573483 -0.0426525
000200 14 bd e2 3c cf 31 c5 bc cf 4d 3c 3c 77 d5 6a bd
       0.02767805 -0.024071602 0.01149316 -0.057332482
000210 cc 76 22 3d 9c e9 0d bc e9 49 d6 3c 8a 36 94 bc
       0.039664075 -0.008661654 0.02615829 -0.018092413
000220 9b b0 4c 3d 02 5e 96 bc db b9 b3 3c 3a 96 b9 3b
       0.04997311 -0.018355373 0.021939209 0.0056636604
000230 59 07 ef bc 1f 27 45 3d 52 a0 5c 3d b0 1f ba 3c
       -0.029178308 0.048133012 0.05386383 0.022720188
000240 1f f9 f4 3c ec 58 47 bc 09 11 16 bd 86 9f 13 3d
       0.029903946 -0.012167197 -0.03663734 0.036040805
000250 05 f1 34 bd fb 64 5d 3d 96 70 bd 3c 27 9e 4c bc
       -0.044175167 0.05405138 0.023124974 -0.012488878
000260 1b 3e 16 bc e8 03 43 3a 4c a4 04 bc bd 56 96 3b
       -0.009170081 0.0007439242 -0.008095812 0.0045879767
000270 a0 e3 3f bc 06 a8 e1 bb 30 ea 0e bd 9c 11 9a bc
       -0.011711985 -0.006886485 -0.034891307 -0.018807225
000280 63 72 00 3d e5 43 49 bc 2d 2c 5b bd 05 13 83 bd
       0.031359088 -0.012284254 -0.053508926 -0.06400112
000290 a6 d2 8a bc e7 7c 40 3d ba 3d 13 bc 1e e8 87 bc
       -0.016946148 0.046994116 -0.008986885 -0.016590174
0002a0 bf 71 3b 3c 14 6a f7 bc 14 04 aa 3c d0 89 39 3a
       0.011440693 -0.03020195 0.020753898 0.00070777256
0002b0 fb 85 f4 bc e0 ac 30 3c ba 50 bd bb 56 a0 96 3b
       -0.029849043 0.010783404 -0.0057774456 0.0045967503
0002c0 d8 0a 36 3d e4 b2 36 3c 1b 22 04 bd a7 af 45 3c
       0.044443935 0.011151049 -0.032259088 0.012065805
0002d0 e2 e8 2c bd 94 c9 62 3c ef c3 d3 3c a7 be de 3d
       -0.04221428 0.013842005 0.025850264 0.10876208
0002e0 f0 c7 ee 3b 94 65 97 bb 2b 91 ca bb f2 d7 26 3c
       0.007287018 -0.0046202634 -0.006181856 0.010183321
0002f0 8d 2c e2 bc 8b d3 19 3c 30 34 a4 39 ca 0f 1c 3d
       -0.027609134 0.009388815 0.000313194 0.038100995
000300 6c 6a a1 bc a0 6a 14 b9 17 1a 65 3b 5b ab 0f bd
       -0.019704066 -0.00014154101 0.0034958178 -0.035075527
000310 33 ed b6 bc 7f 4d 3f 3d 2b 6f 2d bb 7d 44 99 ba
       -0.022329902 0.046704765 -0.0026463966 -0.0011693385
000320 4a a3 58 3c 59 55 6c 3d 56 7c 9c bd d0 3c b6 bd
       0.013222525 0.05769858 -0.07640903 -0.08898318
000330 3a 31 86 bd dc ba 0c 3d 28 23 8c bc d9 6b 1d 3d
       -0.06552358 0.03435789 -0.017106608 0.03843293
000340 df f0 80 bc ff b8 07 bb 9e af 2a bd 0c 7c 6f 3d
       -0.015739856 -0.0020709631 -0.041671388 0.05846791
000350 d4 91 af bc 75 a5 ca 3c 9e c5 e9 bc e7 d1 35 3d
       -0.021431841 0.0247371 -0.028536614 0.04438963
000360 eb 60 76 bd 58 5d 29 3d 2a e2 0e 3d 99 73 c9 ba
       -0.060151022 0.041348785 0.034883656 -0.0015369534
000370 ec 72 cb bc 6a d6 db bc bd c0 25 3d 0a 9e cd 3d
       -0.024835072 -0.026835639 0.040467013 0.10039909
000380 96 78 2f bc 88 9e 2c 3d 82 ee ab bc a2 41 db 3c
       -0.010709902 0.042143375 -0.020987753 0.026764695
000390 d0 06 bb bc 54 bb 0f 3d cf a5 96 bd 2e fc 20 3d
       -0.022830397 0.03509076 -0.07355844 0.039302997
0003a0 fe 0e 3c bb f8 35 9b 3c c9 c2 1c bd 1b bf 92 3c
       -0.002869546 0.018946633 -0.0382717 0.017913392
0003b0 76 eb 6f bd 9e 61 48 bb ce 14 b5 bc e1 45 09 3d
       -0.058574162 -0.0030575763 -0.022104647 0.033513907
0003c0 ca fa 44 bc 44 6e 23 3d 65 41 1c bd 14 e2 81 bc
       -0.012022683 0.03990008 -0.038148303 -0.015854873
0003d0 41 48 52 bc d8 64 21 bd de fe 8a 3b e4 f4 9c bb
       -0.0128346095 -0.039402813 0.0042418083 -0.0047899354
0003e0 65 bc c9 bb 30 f9 2a 3d 40 bd fb bc 0b 14 9b bc
       -0.0061564916 0.04174155 -0.03072989 -0.018930456
0003f0 48 5b 6a 3c d5 4a 64 3c 87 c8 8b 3c 49 17 0a 3d
       0.01430399 0.013933857 0.017063392 0.033713613

exp_avg f4 [8, 1, 11, 11]
000000 77 2a 56 3c 79 08 5a 3b 24 60 d3 3a 80 12 e6 3b
       0.013071648 0.003326921 0.0016126675 0.0070212483
000010 55 f1 e5 bb 10 ae dc 3b f4 67 8d 3b 1a 74 42 3c
       -0.0070172944 0.006734617 0.0043153707 0.011868501
000020 51 e6 23 3c 31 a0 48 3c ef 79 61 3c 78 20 9d 3b
       0.010003642 0.012245224 0.013761981 0.0047951303
000030 6a 65 06 ba 3f 1e 5c bb df 08 bc 3b 25 86 4e bc
       -0.0005126806 -0.0033587364 0.005738362 -0.012605225
000040 8c 93 98 3b cd 25 8e 3b 98 c0 4a 3b af 27 92 3b
       0.004656261 0.0043380023 0.0030937549 0.004460297
000050 f0 54 1d 3c 8a bc 57 3c 1b 81 53 39 bd 24 c2 bb
       0.00960277 0.01316751 0.00020170624 -0.0059247897
000060 5c 76 28 bc ca 0e 8c bb 43 ec 93 bc 51 d1 07 3b
       -0.010282125 -0.004274224 -0.018056994 0.0020724128
000070 d0 1f 06 bb c7 ee a3 3a 0e eb 59 37 ea 5d 9d 3b
       -0.002046574 0.0012507074 1.2988936e-05 0.004802455
000080 4f d0 d8 3b be 38 ca ba e9 9a 70 bc 08 11 93 bc
       0.006616629 -0.0015428287 -0.014685371 -0.017952457
000090 8e 91 80 bc 21 26 90 bc f2 9d 4d ba fb a0 e6 ba
       -0.015694406 -0.017596306 -0.0007843665 -0.0017595583
0000a0 80 f6 9a bb bc 99 05 3b 3c 48 04 3a 95 67 cf ba
       -0.004729092 0.0020385822 0.0005046164 -0.0015823717
0000b0 ec 87 73 3b d1 8d 30 bc c6 a0 57 bc 43 1f 2d bc
       0.0037159873 -0.010775999 -0.01316089 -0.010566535
0000c0 3f 27 a5 bc 03 02 63 bb e9 4c ef bb 05 b8 10 bc
       -0.020160316 -0.003463865 -0.0073028696 -0.008832936
0000d0 54 06 cd ba aa 91 95 3b 82 72 24 3c 57 4b 80 3c
       -0.0015642145 0.0045644837 0.010037066 0.015660925
0000e0 5f 31 fb bb 9c c7 51 bb 86 cf 7c bc dc 5e 47 bc
       -0.0076657976 -0.0032009846 -0.015430337 -0.012168612
0000f0 9d 72 ca bb 84 a1 a3 3b 48 16 5d bb 05 67 18 3c
       -0.0061782137 0.0049936194 -0.0033735204 0.0093019055
000100 f1 46 7c 3b aa bb 7a 3c bd 0b 34 3c a9 20 d0 ba
       0.0038494433 0.015303532 0.010989127 -0.0015878874
000110 a7 8a 5e bb 23 d7 ba ba f5 81 70 bc 65 9e cf b8
       -0.0033957155 -0.001425479 -0.014679422 -9.9000325e-05
000120 bf 72 ce ba 3b f4 73 ba 55 4b 86 3b d1 72 69 3b
       -0.001575075 -0.00093061075 0.0040983357 0.0035621414
000130 03 fb 48 3c 40 5c 1c 3c 42 87 9b bb 22 4d a2 bb
       0.012266877 0.0095434785 -0.0047463486 -0.0049530426
000140 cb 79 c6 bb 2b 8c 0b bc ad 02 a5 ba 5a 5a 6d bb
       -0.0060569993 -0.008517305 -0.0012589298 -0.0036217184
000150 21 cd 94 bb c3 df a8 3b ed 50 a1 3b 6d 6c 43 3c
       -0.004541055 0.0051536276 0.004922977 0.011927706
000160 31 f6 45 3c 6e d1 21 3b 4a d8 f4 bb c8 64 66 bb
       0.012082622 0.002469148 -0.0074720727 -0.0035155285
000170 79 6a ee bb f2 53 35 3a 01 d7 0d bb 5a eb 2c 3a
       -0.007275876 0.0006917111 -0.0021643045 0.00065963494
000180 b4 87 1e 3c 8c 11 25 3c 5c bc 8f 3c e9 c9 34 3c
       0.009675909 0.010074984 0.017545871 0.011034467
000190 17 bd dc 3a fc f5 ec bb 37 29 d2 bb 0d 00 da bb
       0.0016841021 -0.007231472 -0.0064136046 -0.006652838
0001a0 0d 0a 9f ba 2e 41 58 bb 68 7d 36 bb ef 0a 9a 3b
       -0.0012133733 -0.0032997834 -0.0027845744 0.0047010104
0001b0 98 f9 31 3c 85 f5 9a 3c 23 c0 ce 3b 3f c1 45 39
       0.01086273 0.018915901 0.0063095256 0.00018859374
0001c0 a0 0b 63 bc ce 5b 98 bb c6 30 61 bc 0f d7 83 bb
       -0.013857752 -0.004649616 -0.013744539 -0.0040234397
0001d0 c4 47 9b bb 8b e9 9a bb 89 0d 52 3b 11 97 07 3c
       -0.0047387797 -0.0047275475 0.0032051525 0.008275763
0001e0 5f 9c 81 3c 97 02 fb 3a 76 39 81 3b 66 bb 15 3c
       0.015821634 0.0019150552 0.0039436175 0.009138918
0001f0 cb 41 d8 3b b8 29 1e 3c 23 25 02 bb 70 75 ec 3b
       0.00659964 0.009653501 -0.001985856 0.007216148
000200 5b 6c 05 3c 5d 64 34 3b 70 6e d4 b9 e2 d7 31 bb
       0.00814351 0.0027525641 -0.00040518073 -0.0027136733
000210 ef ae d3 3b 87 2f 1e 3c 33 27 8b 3c 39 4b a7 3b
       0.0064600627 0.009654886 0.016986465 0.005105403
000220 de e2 d3 3b a0 9f 32 3b d6 50 d6 3b 04 95 30 3c
       0.0064662537 0.0027255788 0.006540398 0.010777716
000230 46 01 4d 3b 70 80 c1 3b 7a 86 c0 ba d5 d3 63 bb
       0.0031281277 0.0059052035 -0.0014688515 -0.0034763713
000240 c5 f5 6d bb c7 78 8f 3b 1c 7c 69 ba 98 f1 d4 3b
       -0.003630982 0.0043784115 -0.00089067384 0.006498527
000250 21 4f 6d 3a 2a 35 1f 3c 02 b4 04 3c bf fa 9b 3b
       0.00090526236 0.009717265 0.008099558 0.004760116
000260 9f 32 43 3b b7 ec a1 bb ea 72 40 bc be b0 d1 ba
       0.0029784811 -0.0049415487 -0.011746148 -0.0015998108
000270 1b 9e 19 39 99 42 17 bb 54 fa 50 ba 89 82 29 bb
       0.00014650116 -0.0023080467 -0.0007971872 -0.0025865159
000280 de cb a0 bb e9 f7 dc 3a 34 a3 cb bb cf 7a 74 3b
       -0.0049071154 0.0016858551 -0.0062145237 0.0037304645
000290 59 60 7f bb ea 85 d6 b9 d2 f0 c7 3b f3 4c 14 3c
       -0.003896734 -0.00040917034 0.006101706 0.009051549
0002a0 da ea 84 3b 4c 72 50 ba 10 7a fe 3b e5 57 c9 3b
       0.004056317 -0.0007951602 0.007766016 0.006144511
0002b0 68 f8 0a 3c c1 7d 5d 3b c8 93 3a 3c 32 76 21 3a
       0.008482076 0.003379688 0.011387773 0.0006159275
0002c0 a7 e7 b6 bb 0f e5 4e 3c 2a 96 5d 3c c4 5a 83 3c
       -0.0055818143 0.012627854 0.013524571 0.016034491
0002d0 b1 32 e1 3b e8 1f 3b 3c 43 3c 46 3c cc 7c 5a 3c
       0.006872498 0.011421181 0.012099328 0.013335418
0002e0 4e 16 93 3b 81 92 1d 3c 6a 34 94 3a f2 70 1b 3b
       0.004488743 0.009617449 0.0011307125 0.0023718444
0002f0 f0 3d f9 3b e4 dc 47 3c 71 48 1a 3c 08 d8 3c 3c
       0.0076062605 0.0121986605 0.009416685 0.011526115
000300 e4 e2 28 3c d6 48 9d 3b 2c 00 34 3c d0 20 b7 3b
       0.010308001 0.0047999425 0.010986369 0.0055886284
000310 67 5f f9 3b a6 93 d1 3b e1 26 fc bb 33 56 73 3b
       0.00761025 0.006395775 -0.0076950644 0.0037130236
000320 00 a9 29 3b 5f f1 77 b9 a6 0d 84 bb a1 6c 88 bb
       0.0025888085 -0.00023645673 -0.0040299473 -0.00416334
000330 50 28 c4 bb 11 33 1b ba ba 90 89 3b 9c 92 46 3b
       -0.005986251 -0.000592039 0.004198161 0.0030299788
000340 c2 2c d8 39 a7 14 11 bc 05 5e 89 bb f9 ca 28 ba
       0.00041232078 -0.008855022 -0.004192116 -0.00064389367
000350 a6 ec 00 bc 4f 52 b4 bb 04 6b 2f bc b0 c1 e1 bb
       -0.007868921 -0.005502976 -0.010706667 -0.0068895444
000360 38 db c8 bb d3 d0 08 bc 76 3a d0 bb 09 73 c7 bb
       -0.0061296485 -0.008350569 -0.0063546253 -0.0060867113
000370 2d 6c 2f bc 2a 8d 27 bc e1 ab e5 bb 45 0e 7e bc
       -0.010706943 -0.010226527 -0.007009015 -0.015506332
000380 12 23 8b bc d6 bc a9 bc dc 19 ac bc 12 5f 83 bc
       -0.016984496 -0.020719927 -0.021008424 -0.016036544
000390 4b 57 75 bc 52 d4 41 bc 01 31 1b bc d1 50 c2 bb
       -0.014974426 -0.011830406 -0.009472133 -0.005930044
0003a0 ce ed 05 bc 15 ba b3 ba 85 71 49 bc a2 79 4d bc
       -0.008174373 -0.0013712073 -0.012295132 -0.012541207
0003b0 1b a3 69 bc b2 3f 17 bc c4 15 84 bc 04 b4 84 bc
       -0.014260079 -0.009231495 -0.01612366 -0.01619912
0003c0 8a 76 4d bc 98 6f 15 bc 84 28 cf bb f4 2e e8 bb
       -0.012540469 -0.009120844 -0.0063219685 -0.0070856754
0003d0 64 10 7d bb 8c 67 01 3b c2 6a a8 3a ad 8c b0 3a
       -0.0038614506 0.0019745557 0.0012849199 0.0013469659
0003e0 49 45 23 3c c3 14 59 3c c2 37 7d 3c ed 7e 80 3b
       0.009965249 0.013249579 0.015455188 0.0039213807
0003f0 38 ff 8e 3c 12 42 5b bc 2a 30 52 bc 8f 4c dc bb
       0.017455682 -0.013382452 -0.012828866 -0.0067229937

exp_avg_sq f4 [8, 1, 11, 11]
000000 f2 be a2 3b 4a e6 76 3b 5d 05 4c 3b 9a a4 2d 3b
       0.00496661 0.0037673884 0.0031131126 0.0026495815
000010 65 2f 25 3b 13 79 22 3b f9 dd 23 3b 63 3d 2e 3b
       0.0025205251 0.0024791404 0.0025004132 0.0026586882
000020 ef b0 5a 3b b2 c4 88 3b bc c7 a7 3b f5 75 93 3b
       0.003336962 0.0041738385 0.0051202457 0.0045001456
000030 8a a5 67 3b 9f aa 33 3b de d2 14 3b 35 43 04 3b
       0.0035346472 0.002741493 0.0022708694 0.002018166
000040 78 aa fc 3a 23 b8 19 3b 33 86 16 3b 64 66 38 3b
       0.0019276878 0.0023455701 0.0022968173 0.0028137201
000050 76 48 7c 3b 05 ed 97 3b cd 7d 81 3b 77 51 46 3b
       0.0038495339 0.004636409 0.003951764 0.003026096
000060 70 24 22 3b 1a c3 ef 3a ce 61 d8 3a 9e a1 c9 3a
       0.0024740957 0.0018292398 0.001650864 0.0015383249
000070 c7 46 0c 3b 68 65 00 3b d4 46 24 3b 70 08 63 3b
       0.0021404491 0.0019591693 0.002506663 0.003464248
000080 af d9 8e 3b 9e 40 77 3b ef 84 40 3b 21 24 1a 3b
       0.004359446 0.0037727724 0.002937611 0.002352007
000090 c2 4d f0 3a 02 d4 c2 3a c2 cc d5 3a 5e 89 c1 3a
       0.001833372 0.0014864209 0.0016311633 0.001476567
0000a0 49 56 02 3b 1a ee 17 3b 53 a8 40 3b 77 ab 85 3b
       0.0019887856 0.002318269 0.0029397204 0.004079278
0000b0 24 98 78 3b 5a b0 42 3b e2 fb 1e 3b 0e b1 0d 3b
       0.003793248 0.0029707165 0.002425902 0.0021620425
0000c0 26 d0 d3 3a aa e6 c6 3a e2 3d e7 3a 20 c9 f5 3a
       0.0016160056 0.0015174944 0.0017642344 0.0018751957
0000d0 78 59 15 3b 04 6a 3c 3b 13 9a 83 3b e9 6d 9b 3b
       0.0022788923 0.0028749714 0.00401617 0.004743327
0000e0 95 a4 88 3b f1 17 74 3b 0b 90 4e 3b 53 de 1f 3b
       0.0041700103 0.0037245716 0.0031518962 0.002439399
0000f0 38 84 1f 3b 47 1b 2f 3b da ca 2f 3b e3 eb 77 3b
       0.0024340283 0.002671914 0.002682379 0.0037829808
000100 db c0 65 3b 9d 1a 9b 3b af 81 7e 3b 83 f4 46 3b
       0.0035057578 0.004733397 0.0038834622 0.0030358143
000110 fb 99 20 3b 93 a5 08 3b 43 2f f1 3a 53 08 e8 3a
       0.0024505842 0.0020850643 0.0018400926 0.0017702676
000120 6e e5 ca 3a d9 8a fe 3a 3c 0e 21 3b d8 af 40 3b
       0.0015479752 0.0019420042 0.0024575135 0.0029401686
000130 ec ab 81 3b aa 12 82 3b 17 7b 48 3b 1e 10 1f 3b
       0.0039572623 0.00396951 0.0030590945 0.0024271081
000140 fb f4 02 3b a9 94 e5 3a df 65 ce 3a 74 ba c2 3a
       0.0019982446 0.0017515618 0.0015746913 0.0014856593
000150 96 62 e4 3a 1b 8d 2d 3b 6a c8 3e 3b 8b a2 80 3b
       0.00174244 0.002648181 0.0029111155 0.0039256266
000160 4c 2d 89 3b ee a4 56 3b f0 83 23 3b 9f de 07 3b
       0.004186308 0.0032752114 0.0024950467 0.0020732058
000170 8e a8 0e 3b 44 60 cf 3a 00 9d d4 3a fb 1c e3 3a
       0.0021767947 0.0015821536 0.0016221106 0.0017327362
000180 7b a9 2b 3b a3 48 52 3b 6e f1 8d 3b ae 65 92 3b
       0.0026193548 0.0032086752 0.004331759 0.0044676876
000190 17 09 6e 3b 3a aa 34 3b 71 28 14 3b c0 43 09 3b
       0.0036321336 0.0027567283 0.0022607113 0.0020944923
0001a0 44 4b fb 3a 95 4d fd 3a 5a d6 07 3b 8c 2b 2b 3b
       0.0019172211 0.0019325489 0.0020727129 0.0026118485
0001b0 7d ca 60 3b 2d 9b 95 3b 4f ad 9f 3b e7 17 81 3b
       0.003430038 0.0045656175 0.004872955 0.003939617
0001c0 cd 71 55 3b c8 df 2a 3b 30 06 1d 3b 8c de 16 3b
       0.0032569051 0.0026073325 0.0023959987 0.0023020832
0001d0 b8 38 06 3b 45 d9 1f 3b 58 6d 41 3b 90 9c 73 3b
       0.0020480584 0.0024390977 0.0029514637 0.0037172176
0001e0 9d a2 9e 3b 08 2b 3c 3b 03 a7 27 3b 4e 5d 18 3b
       0.0048411624 0.0028712172 0.0025581724 0.0023248973
0001f0 e3 cd 0c 3b 8f 4b 00 3b b9 99 08 3b e4 9b f9 3a
       0.0021485023 0.0019576286 0.002084358 0.0019043651
000200 8f 2e 07 3b 4c 3e 14 3b 52 a5 24 3b e4 ef 36 3b
       0.0020627116 0.002262014 0.0025122953 0.0027913982
000210 55 8d 2e 3b 0b c2 19 3b a5 b0 0d 3b e6 4a f2 3a
       0.0026634533 0.0023461606 0.002162018 0.0018485456
000220 b3 1e 01 3b ba 47 dc 3a 52 f2 e1 3a de af fc 3a
       0.0019702136 0.0016806044 0.0017238355 0.0019278487
000230 49 a0 08 3b 3e c0 15 3b 34 0e 2a 3b fd 98 20 3b
       0.002084749 0.002285018 0.0025948407 0.002450525
000240 1f ee 0b 3b 47 51 f7 3a 12 91 df 3a 13 27 d2 3a
       0.0021351648 0.0018868827 0.0017056784 0.0016033374
000250 fe 22 ce 3a b5 9c c5 3a 7d 6d df 3a 80 47 f5 3a
       0.0015726981 0.001507661 0.001704618 0.0018713325
000260 af b7 07 3b 2f 06 20 3b e2 ad 10 3b 7b 43 03 3b
       0.002070885 0.0024417748 0.0022076298 0.0020029235
000270 05 00 0a 3b 37 4d ce 3a f1 ad d0 3a d9 21 c3 3a
       0.002105714 0.0015739565 0.0015920979 0.0014887407
000280 4c 71 ca 3a bb 77 c1 3a 9a 73 03 3b 1a ae f4 3a
       0.0015445142 0.0014760414 0.0020057918 0.0018667609
000290 ea ba 19 3b 75 41 0f 3b 47 58 08 3b 9d 36 00 3b
       0.0023457357 0.0021859084 0.002080457 0.0019563802
0002a0 10 46 dc 3a 20 57 3d 3b f2 62 a5 3a 12 07 d3 3a
       0.0016805548 0.0028891042 0.0012617989 0.001610013
0002b0 68 50 ce 3a 8e f0 fe 3a a7 5e f6 3a cf 02 2e 3b
       0.0015740516 0.0019450353 0.0018796519 0.0026551967
0002c0 4e 4e 10 3b 4a 2f 1b 3b 7f 5c e5 3a 99 f3 de 3a
       0.002201933 0.002367931 0.001749888 0.0017009854
0002d0 22 ea 9d 3a 2d 48 17 3b 73 65 a0 3a 60 6a 0f 3b
       0.0012047926 0.0023083792 0.0012237265 0.0021883473
0002e0 25 02 d1 3a 4b 7f 02 3b d3 fa 1e 3b d1 aa 09 3b
       0.0015946074 0.0019912298 0.002425839 0.0021006356
0002f0 13 5d f3 3a 4c c4 e8 3a c0 b3 c4 3a 1f 26 cc 3a
       0.0018567167 0.0017758696 0.0015007183 0.0015575326
000300 2e 80 ce 3a 3a ea bb 3a e5 94 cb 3a 71 ad e9 3a
       0.0015754753 0.0014336773 0.0015532045 0.0017828179
000310 6a 57 ff 3a f4 00 15 3b 88 e6 11 3b c5 2a fe 3a
       0.0019481007 0.0022736164 0.0022262651 0.0019391408
000320 50 7a e6 3a 14 41 cd 3a 2e f3 c2 3a 75 3d b9 3a
       0.0017584059 0.0015659654 0.0014873499 0.0014132696
000330 7a d9 be 3a 09 ef d2 3a 24 0d f2 3a 70 85 09 3b
       0.0014560663 0.0016092967 0.0018467051 0.0020984076
000340 2b b1 20 3b 0e 2b 22 3b d9 a3 18 3b f9 ab 0a 3b
       0.0024519663 0.00247449 0.002329102 0.0021159633
000350 de d8 ec 3a 9b 8c e6 3a 7a 0f cf 3a d8 6b dc 3a
       0.0018070003 0.0017589511 0.0015797459 0.0016816808
000360 dd 27 ee 3a 00 cd 03 3b c4 45 1d 3b e8 b6 33 3b
       0.0018169839 0.0020111203 0.0023997882 0.0027422253
000370 4b 04 2c 3b 42 60 1b 3b 1e d0 0c 3b 36 24 01 3b
       0.0026247676 0.0023708497 0.0021486352 0.0019705421
000380 ec b6 e7 3a cb b3 e0 3a 32 84 d3 3a d9 d1 07 3b
       0.0017678416 0.0017143426 0.001613742 0.0020724444
000390 5c 45 0f 3b 21 36 24 3b 52 c3 32 3b 04 f0 35 3b
       0.002186141 0.0025056677 0.0027277065 0.0027761469
0003a0 d3 ca 1c 3b 19 fa 0e 3b a7 5d 07 3b ce 81 ec 3a
       0.0023924604 0.002181655 0.0020655186 0.0018044056
0003b0 44 e9 e4 3a e6 da ef 3a 57 15 0d 3b 59 c5 17 3b
       0.0017464538 0.001829949 0.0021527612 0.00231584
0003c0 14 8c 35 3b c7 cd 3d 3b a6 71 97 3b 5a 22 7c 3b
       0.0027701901 0.0028961764 0.0046217022 0.0038472624
0003d0 d0 af 66 3b 5d 03 47 3b 8e 9f 45 3b 28 1c 38 3b
       0.0035200007 0.0030366995 0.0030154916 0.0028092954
0003e0 da 75 3a 3b 98 aa 34 3b 2e ae 4c 3b a1 4f 5b 3b
       0.0028451593 0.0027567502 0.003123175 0.003346421
0003f0 e8 8f 83 3b 67 a7 80 3b 2c 5e 55 3b 5e 53 3b 3b
       0.0040149577 0.003926206 0.0032557352 0.0028583626
