trained_models/MRI_Sigma_5_t_10_K11/checkpoints/checkpoint_5.pth (torch, 401563 bytes, 10 tensors)

conv_layer.conv_layers.0.parametrizations.weight.original f4 [8, 1, 11, 11]
-0.0094437655 0.03231426 -0.026946042 0.053162858 -0.028512636 -0.051863056 -0.07148768 0.10318259
0.025978822 -0.035118252 0.019533113 -0.025837434 0.0042350832 -0.041514505 0.017565837 0.007750004
0.08780445 0.03834818 -0.06213657 -0.009358433 0.0066702063 -0.03198195 0.0011278183 0.08397392
-0.09135202 -0.049589153 -0.027483772 -0.11696457 0.007692716 -0.06320817 0.10725203 -0.08053967
0.041789256 -0.026527178 -0.054786418 0.05550144 0.017761827 0.092440896 0.05084572 -0.02482515
0.09557726 -0.04395877 -0.029845493 0.03422835 0.052351546 -0.06084194 0.06944345 -0.017231455
0.10413598 -0.14909828 -0.18520012 0.0059474153 -0.10243812 0.084777914 -0.028872913 -0.029554242
0.06420099 0.0038887933 0.16297752 -0.12205478 0.10482997 -0.24609803 0.01723246 -0.012038005
0.044028554 -0.042068668 0.040376972 -0.06287364 -0.09707637 -0.04730932 0.18192853 0.119384594
0.12940022 -0.11572019 -0.058497947 -0.0517185 -0.029877095 -0.0057499073 0.026636606 0.10378947
-0.0847364 -0.12819296 0.10810902 -0.038652524 0.039093345 -0.019996416 0.06859077 -0.0075384113
-0.013043167 -0.027155202 -0.016620044 -0.051293667 0.07724742 0.09325903 -0.09133535 -0.039544344
0.09905213 -0.051583484 -0.0068366295 -0.057032216 -0.019194946 0.030716635 0.02295066 -0.0661677
-0.014789301 0.035647936 -0.02082717 -0.0034300317 -0.027872087 0.007756753 0.042462487 -0.006362122
-0.0026892272 -0.04768499 -0.014931785 -0.007123932 0.038494788 -0.03952045 0.01143096 -0.016336948
0.01393463 0.0015580896 0.0023847178 -0.015251388 0.000111538524 -0.009605962 -0.031159371 -0.06505661
0.0633637 -0.035227094 0.06256246 -0.03428411 -0.05690075 0.07609479 -0.03777984 0.001619007
-0.053199768 -0.15514867 0.049125984 -0.02893056 0.0436929 -0.08963007 0.07141867 -0.02111231
-0.015837068 -0.05538645 0.038116973 0.12481836 0.097126424 -0.14319254 0.029668732 -0.036969617
0.035221368 -0.062511094 0.098569475 -0.07423799 0.02557341 0.0017041247 0.04320893 -0.16878505
0.11753771 0.002446336 0.005706512 -0.062448453 0.025969012 -0.012429554 -0.030334448 0.0848055
0.02175897 -0.1039575 -0.26543665 -0.012622932 0.029841295 -0.02174474 -0.029413357 0.017337741
-0.0023663824 -0.034276184 0.07927268 -0.17858352 0.17155333 0.15722804 0.077512085 -0.038124215
0.11720567 0.03153212 0.020642346 -0.029672878 -0.019087393 -0.0038610904 -0.005496371 -0.07500745
0.16673794 0.114783674 -0.052328724 -0.04476253 0.00601375 -0.034987554 -0.0015699014 0.0024943491
-0.08583475 0.0017074626 0.09449305 0.03748571 -0.0126081165 -0.040553853 -0.039095763 -0.030218216
0.0005178792 0.027581967 0.039554656 0.075349554 -0.046087258 -0.07878684 -0.11506836 0.061745998
-0.04860457 0.013646245 0.040704403 0.0052186805 -0.059313513 0.043302327 -0.07924102 0.030094082
-0.12441193 0.05115324 0.022414578 0.05894166 0.007903475 -0.0667137 -0.0048153363 0.01397774
-0.019618852 -0.0060807164 0.053462934 0.011719706 0.012904238 -0.09116997 -0.046762872 -0.045480404
0.06152745 -0.021965424 -0.01464877 -0.005447444 0.007456148 -0.042369917 -0.0597565 0.04766984
-0.051228557 0.04289091 -0.007826552 -0.046179015 0.016792072 -0.022077277 -0.014308103 -0.09473295
00000000: 06ba 1abc f55b 043d f2bd dcbc 4cc1 593d
00000010: 5593 e9bc 5b6e 54bd 2268 92bd 6551 d33d
00000020: 8ad1 d43c 28d8 0fbd e803 a03c 07a9 d3bc
00000030: 74c6 8a3b 1d0b 2abd 3be6 8f3c bff3 fd3b
00000040: d2d2 b33d fb12 1d3d eb82 7ebd 1d54 19bc
00000050: bf91 da3b 81ff 02bd 4dd3 933a 85fa ab3d
00000060: c516 bbbd ff1d 4bbd a625 e1bc 1f8b efbd
00000070: 2e13 fc3b 4973 81bd f4a6 db3d fcf1 a4bd
00000080: 362b 2b3d 864f d9bc b967 60bd 7a55 633d
00000090: 4081 913c a751 bd3d 9a43 503d 1d5e cbbc
000000a0: 03be c33d 1c0e 34bd 897e f4bc 0733 0c3d
000000b0: 936e 563d 6635 79bd 5e38 8e3d fb28 8dbc
000000c0: 3f45 d53d 38ad 18be 1aa5 3dbe 89e2 c23b
000000d0: 14cb d1bd 0ba0 ad3d e386 ecbc bd1b f2bc
000000e0: cf7b 833d 20db 7e3b 94e3 263e dbf7 f9bd
000000f0: 18b1 d63d 1f01 7cbe 172b 8d3c 0d3b 45bc
00000100: 4957 343d 3250 2cbd 5362 253d e5c3 80bd
00000110: facf c6bd 6bc7 41bd 794b 3a3e e97f f43d
00000120: 7e81 043e b5fe ecbd 8b9b 6fbd c7d6 53bd
00000130: cfc0 f4bc b869 bcbb 0335 da3c 938f d43d
00000140: 478a adbd 0445 03be 4368 dd3d 1c52 1ebd
00000150: 5820 203d 86cf a3bc 5179 8c3d c704 f7bb
00000160: 02b3 55bc 9674 debc c226 88bc 4f19 52bd
00000170: e533 9e3d 97fe be3d 070e bbbd 40f9 21bd
00000180: d8db ca3d 3449 53bd ce05 e0bb 9d9a 69bd
00000190: b83e 9dbc 74a1 fb3c 0603 bc3c ee82 87bd
000001a0: d34e 72bc 9203 123d be9d aabc 62ca 60bb
000001b0: 0154 e4bc 5c2c fe3b 25ed 2d3d 5979 d0bb
000001c0: bf3d 30bb 5651 43bd 72a4 74bc df6f e9bb
000001d0: b6ac 1d3d 32e0 21bd ec48 3b3c 10d5 85bc
000001e0: 134e 643c d038 cc3a ed48 1c3b f5e0 79bc
000001f0: cae9 e938 5362 1dbc f041 ffbc 663c 85bd
00000200: d4c4 813d 494a 10bd bf20 803d 7f6d 0cbd
00000210: c310 69bd 96d7 9b3d 09bf 1abd dc34 d43a
00000220: 00e8 59bd 4bdf 1ebe 5438 493d c8ff ecbc
00000230: 54f7 323d f88f b7bd f443 923d b9f3 acbc
00000240: bdbc 81bc e7dc 62bd 8b20 1c3d c5a0 ff3d
00000250: 38ea c63d 11a1 12be d70b f33c 746d 17bd
00000260: 4844 103d d105 80bd cbde c93d 160a 98bd
00000270: 547f d13c f05c df3a d9fb 303d fdd5 2cbe
00000280: 9cb7 f03d b552 203b b1fd ba3b f3c9 7fbd
00000290: f7bc d43c 54a5 4bbc f37f f8bc 82ae ad3d
000002a0: de3f b23c abe7 d4bd 50e7 87be 6ad0 4ebc
000002b0: bb75 f43c 0622 b2bc 48f4 f0bc e107 8e3c
000002c0: 4f15 1bbb 2f65 0cbd b759 a23d 99de 36be
000002d0: adab 2f3e 6300 213e a8be 9e3d 2328 1cbd
000002e0: 8709 f03d d327 013d 231a a93c 8914 f3bc
000002f0: 2a5d 9cbc 590a 7dbb e71a b4bb 829d 99bd
00000300: 5abd 2a3e b413 eb3d a556 56bd ea58 37bd
00000310: fe0e c53b 1c4f 0fbd 26c5 cdba 3c78 233b
00000320: 21ca afbd f0cc df3a 9285 c13d 9e8a 193d
00000330: 4692 4ebc cc1b 26bd e122 20bd 318c f7bc
00000340: 49c2 073a 94f3 e13c 1004 223d de50 9a3d
00000350: fec5 3cbd ff5a a1bd f6a8 ebbd 5fe9 7c3d
00000360: 9615 47bd 8094 5f3c a9b9 263d 7701 ab3b
00000370: baf2 72bd c85d 313d 1e49 a2bd dd87 f63c
00000380: afcb febd 0f86 513d c79e b73c cf6c 713d
00000390: 947d 013c 31a1 88bd f8c9 9dbb e402 653c
000003a0: b7b7 a0bc bf40 c7bb f3fb 5a3d 0204 403c
000003b0: 4c6c 533c 52b7 babd 6d8a 3fbd a949 3abd
000003c0: 3504 7c3d d5f0 b3bc 6501 70bc 7980 b2bb
000003d0: b452 f43b 148c 2dbd 3bc3 74bd 7341 433d
000003e0: 09d5 51bd 61ae 2f3d f03a 00bc 3526 3dbd
000003f0: 878f 893c 68db b4bc 896c 6abc 5903 c2bd

conv_layer.conv_layers.1.parametrizations.weight.original f4 [32, 8, 11, 11]
-0.0010499421 0.01841854 0.006301832 0.01342161 -0.021463398 -0.0058898116 0.025396852 0.009340819
0.011034122 -0.020150125 0.006046509 0.0139245 -0.0062627015 -0.005646152 0.0020110891 0.022124672
-0.038286895 0.0024820045 -0.00999763 -0.015258493 0.0115005905 0.005010015 0.002760081 -0.013575288
-0.0034210996 -0.007008454 0.020878647 -0.041039143 0.020435818 0.026499657 -0.033989035 0.020707965
-0.027963761 0.016329713 -0.05019068 0.05279491 -0.0108599635 -0.052394494 0.057871554 0.037656765
-0.07640464 -0.0011832 -0.003894186 -0.0048196106 -0.020841606 0.049641427 -0.05812488 0.069161534
-0.02143862 0.0678996 -0.054006364 0.019564625 0.027807742 -0.010518416 -0.009413402 -0.015950356
0.059322834 -0.010057275 0.011959349 -0.05268719 0.08963172 -0.18196718 0.11602668 -0.05046154
0.0007492041 0.036473922 -0.00021711516 0.024664758 -0.037996348 -0.005466728 0.015556314 -0.05284602
-0.012113951 0.0080498075 -0.0021735358 -0.00057767483 0.018729469 -0.024363587 -0.03465783 0.011427781
0.06613022 -0.018910144 -0.020243002 -0.012072355 -0.023584832 0.016408456 0.00091591774 -0.020276833
-0.026568078 -0.0050749267 -0.008436709 -0.047885414 0.014246397 -0.06596284 0.033950914 0.028060196
-0.02328358 0.08710089 -0.06599513 0.0011901864 0.020056278 -0.008185022 -0.0026142707 0.003826853
-0.011625797 0.04074432 0.00085067993 -0.010020543 -0.006799248 0.014275246 0.02421743 -0.012145367
0.0007287864 0.028478151 -0.073530585 -0.017624844 0.02912459 -0.0028318577 0.02576631 -0.009229432
-0.013841903 0.01991324 -0.021787297 0.047340885 -0.06460229 0.03506473 -0.022682428 0.0061696633
0.008707311 -0.0005563007 0.012777469 -0.018260634 -0.028510023 0.026438627 -0.015298602 -0.017064862
-0.040316597 0.042905495 0.021697043 -0.008341092 0.012817513 -0.010945432 0.009442558 -0.045670394
0.07512327 -0.05516737 0.0031806806 -0.0058099097 0.027891416 0.023290051 -0.017872943 -0.005890311
-0.015312658 -0.0018111875 0.0050127585 0.0018407112 -0.018133584 0.0035273924 0.028866397 -0.034417156
0.027761169 0.011995718 0.0014368698 0.004386486 -0.009796662 0.01791601 -0.008919286 0.018225241
-0.038734127 0.0096625695 0.012082044 0.03315605 -0.05788232 -0.0031738563 0.00589051 0.009279668
0.009866333 -0.018561376 0.03276735 -0.05413072 0.07911 0.02146741 -0.034116328 -0.027833113
0.021211065 -0.006499268 -0.025102513 0.041346226 -0.06370262 0.02940094 -0.029964773 0.10361093
0.021318879 -0.051085137 0.022096695 0.012842974 -0.05343474 0.0546796 -0.03857698 0.017838523
0.0075716586 -0.017286075 0.04275408 -0.029768337 -0.028752781 0.012939686 -0.02654178 0.03556581
-0.013892045 -0.018270308 0.043573793 -0.017178211 0.027341077 -0.032550637 0.09101452 -0.09356537
0.031325664 -0.046953756 0.057698697 -0.019935668 -0.032861855 0.029356334 0.0047552264 0.0065204455
0.032232568 -0.04085985 -0.04213634 0.02798029 0.0484172 -0.02011375 -0.025960932 0.038077075
-0.027757453 0.001464347 0.027181674 0.005230086 0.012202089 -0.020962944 0.042034905 0.005098926
-0.05534008 0.034379035 0.01647102 -0.019820826 0.062647715 -0.03625144 0.021475261 -0.012439668
0.009010621 -0.011656483 0.030123182 -0.02460697 0.0027240417 -0.047174264 0.05198801 -0.017653128
00000000: 369e 89ba 7ae2 963c 997f ce3b 50e6 5b3c
00000010: 02d4 afbc 52ff c0bb 0f0d d03c 3c0a 193c
00000020: 76c8 343c e011 a5bc cb21 c63b 9623 643c
00000030: 5937 cdbb 5b03 b9bb 7acc 033b cd3e b53c
00000040: b8d2 1cbd 20a9 223b 19cd 23bc c2fe 79bc
00000050: f96c 3c3c 0d2b a43b 7ae2 343b e26a 5ebc
00000060: 8734 60bb 2ca7 e5bb b209 ab3c a918 28bd
00000070: 0469 a73c cf15 d93c 1638 0bbd c0a3 a93c
00000080: 4214 e5bc e4c5 853c be94 4dbd 7a3f 583d
00000090: fded 31bc 9c9b 56bd b90a 6d3d fb3d 1a3d
000000a0: 097a 9cbd 9b15 9bba 9a35 7fbb d3ed 9dbb
000000b0: 04bc aabc cf54 4b3d 5b14 6ebd 90a4 8d3d
000000c0: 0ba0 afbc f20e 8b3d c735 5dbd fe45 a03c
000000d0: 10cd e33c 6f55 2cbc ab3a 1abc 52aa 82bc
000000e0: 80fc 723d 45c7 24bc 25f1 433c 86ce 57bd
000000f0: d690 b73d 9b55 3abe 659f ed3d c3b0 4ebd
00000100: 3c66 443a ae65 153d 68a9 63b9 bf0d ca3c
00000110: 0fa2 1bbd 3d22 b3bb e9df 7e3c 1175 58bd
00000120: 9879 46bc 57e3 033c e171 0ebb 1a6f 17ba
00000130: 8b6e 993c 2596 c7bc 5ef5 0dbd 963b 3b3c
00000140: 486f 873d 72e9 9abc a7d4 a5bc 20cb 45bc
00000150: fa34 c1bc 076b 863c 331a 703a 9a1b a6bc
00000160: 4ca5 d9bc 924b a6bb 1f3a 0abc 7f23 44bd
00000170: b869 693c 8717 87bd 1d10 0b3d 7fde e53c
00000180: 35bd bebc f461 b23d 7428 87bd 0700 9c3a
00000190: 104d a43c 781a 06bc 2f54 2bbb f0cb 7a3b
000001a0: 207a 3ebc 84e3 263d 2a00 5f3a 342d 24bc
000001b0: 3acc debb b9e2 693c a263 c63c 5dfd 46bc
000001c0: 070c 3f3a 034b e93c 3497 96bd fa61 90bc
000001d0: b196 ee3c b096 39bb de13 d33c 0b37 17bc
000001e0: 26c9 62bc 1721 a33c 467b b2bc 84e8 413d
000001f0: 354e 84bd 09a0 0f3d 80d0 b9bc e32a ca3b
00000200: 1ca9 0e3c b5d4 11ba 9758 513c 5397 95bc
00000210: da8d e9bc d295 d83c fda6 7abc 9ccb 8bbc
00000220: 0423 25bd acbd 2f3d ffbd b13c 13a9 08bc
00000230: 8c00 523c 7854 33bc f5b4 1a3c e110 3bbd
00000240: 3bda 993d 2ef7 61bd f772 503b 0e61 bebb
00000250: 8a7c e43c c7ca be3c 476a 92bc 8303 c1bb
00000260: f1e1 7abc 5e65 edba 1142 a43b 0544 f13a
00000270: e28c 94bc d32b 673b 3979 ec3c 01f9 0cbd
00000280: 646b e33c b089 443c 5a55 bc3a 83bc 8f3b
00000290: 2e82 20bc 99c4 923c 3222 12bc 1a4d 953c
000002a0: ada7 1ebd c14f 1e3c c4f3 453c a3ce 073d
000002b0: 0316 6dbd 7900 50bb 2e05 c13b c009 183c
000002c0: 66a6 213c 070e 98bc 0f37 063d 2db8 5dbd
000002d0: 6c04 a23d 6cdc af3c 90bd 0bbd 4502 e4bc
000002e0: d4c2 ad3c d0f7 d4bb c9a3 cdbc a95a 293d
000002f0: 8576 82bd 3dda f03c af78 f5bc f831 d43d
00000300: eea4 ae3c a63e 51bd 2104 b53c 566b 523c
00000310: 63de 5abd b7f7 5f3d e502 1ebd 1822 923c
00000320: ad1b f83b 879b 8dbc e71e 2f3d badc f3bc
00000330: f48a ebbc fa00 543c 266e d9bc 74ad 113d
00000340: 769b 63bc 9dab 95bc 6f7a 323d 52b9 8cbc
00000350: 65fa df3c d153 05bd d265 ba3d 339f bfbd
00000360: 574f 003d 9552 40bd 7855 6c3d 2050 a3bc
00000370: 279a 06bd b27c f03c bbd1 9b3b 76a9 d53b
00000380: 4c06 043d a85c 27bd 2897 2cbd ec36 e53c
00000390: 1d51 463d 97c5 a4bc 05ac d4bc b5f6 1b3d
000003a0: 9963 e3bc 55ef bf3a 1aac de3c 2461 ab3b
000003b0: 45eb 473c 7bba abbc cb2c 2c3d e414 a73b
000003c0: 48ac 62bd 08d1 0c3d 3cee 863c 495f a2bc
000003d0: 724d 803d 647c 14bd e3ec af3c c0cf 4bbc
000003e0: 49a1 133c d5fa 3ebc e4c4 f63c 8e94 c9bc
000003f0: d685 323b cd39 41bd 61f1 543d 4b9d 90bc

activation.coefficients_vect f4 [672]
-0.0 0.002243346 0.00197593 0.0010053653 0.0009888798 0.000891446 0.0007811901 0.00012280545
0.00011927252 -0.00023049812 3.9385635e-05 0.00014417761 7.705571e-05 8.548161e-06 -2.2210857e-05 -0.00028000923
-0.0006559726 -0.0008700793 -0.0009420495 -0.0012363358 0.0 -0.0 0.0027062912 0.0021769612
0.0011040979 0.0006833281 0.0005581377 0.00035679725 0.0002665647 8.085662e-05 -0.00017341044 1.5910615e-05
0.00020524576 0.00012931558 0.00010670872 -0.00019339717 -0.00041571283 -0.00049064297 -0.0013565389 -0.002282121
-0.0031106968 0.0 -0.0 0.0015421573 0.0008936272 0.0007998101 0.00041537095 0.0003956067
0.00033846396 0.00012677467 -6.430835e-05 -9.981031e-05 0.00010339323 0.00028394395 6.256286e-05 4.559973e-05
-8.5097075e-05 -0.00026320497 -0.00038261872 -0.0005541739 -0.0011896042 -0.001403722 0.0 -0.0
0.0032266285 0.0026842286 0.0017867784 0.0008860663 0.000784631 0.0002082862 0.00020060358 -0.00012675946
-0.00024287174 -3.0442725e-05 0.00010641873 4.7563244e-05 1.8278946e-05 -0.00038311072 -0.0006710572 -0.00080262445
-0.0012878068 -0.0018980876 -0.0024456142 0.0 -0.0 0.00324891 0.0024403657 0.0014647123
0.001182219 0.00067187625 0.00021015518 7.565325e-05 -5.2628322e-05 -0.00017971029 4.341797e-05 0.00020815505
0.00013849499 8.952859e-06 -9.645564e-05 -0.0002287208 -0.0007132035 -0.000937648 -0.0014786175 -0.001726008
0.0 -0.0 0.0022181836 0.0020791974 0.0013868903 0.00074684474 0.00038612966 0.0002935167
-2.0306896e-05 -0.00014813023 -0.00018869336 -4.6321376e-05 0.00015234668 5.875339e-05 4.839679e-05 -0.0003041346
-0.00059740973 -0.0008927252 -0.0011675301 -0.0014924753 -0.0022342221 0.0 -0.0 0.0018629434
0.0012613143 0.00073158083 0.00067728 0.00039355806 0.0003609299 0.00012372242 5.6366047e-05 -5.055503e-06
0.00018295992 8.476618e-05 3.9043614e-05 -0.0001034236 -0.0006863116 -0.0007865309 -0.001004272 -0.0011044461
-0.0015997248 -0.002497289 0.0 -0.0 0.0021603976 0.0011822827 0.000985581 0.00055602455
0.00034375204 6.1161925e-05 5.5877936e-05 2.9772715e-05 -3.3020966e-05 8.189221e-05 0.00023790642 3.9093684e-05
1.3728177e-05 -4.5882567e-05 -0.00044160432 -0.0008934061 -0.0015841804 -0.0016945269 -0.0019924417 0.0
-0.0 0.0024284674 0.0012931399 0.0011789135 0.0011527657 0.00060035195 0.00030982945 0.00021104579
-5.9159327e-05 -0.00018656073 -2.180784e-06 0.00015215552 8.517624e-05 -0.00012219597 -0.0001546516 -0.00019601743
-0.00030313176 -0.00065362785 -0.0013695218 -0.0016988039 0.0 -0.0 0.001887425 0.0018798611
0.00059210096 0.000222118 0.0001288594 2.7075712e-05 -8.293948e-06 -3.3429173e-05 -0.000101031095 9.598879e-05
0.0002520698 0.00017684005 4.813688e-05 -0.0007208541 -0.00089253316 -0.0014013692 -0.0018297915 -0.002229972
-0.0024611037 0.0 -0.0 0.0020166507 0.0017651526 0.0011756289 0.00087280443 0.0007762925
0.00025928425 0.000112598434 -9.853748e-05 -0.00021706171 -5.668268e-05 7.6657074e-05 -3.0980198e-05 -5.3086318e-05
-0.00011867499 -0.00026708742 -0.0004824318 -0.00070717797 -0.001026775 -0.0013163857 0.0 -0.0
0.0028899764 0.0017960231 0.0013270723 0.0006379771 0.00048973295 3.5801077e-05 -5.025305e-06 -3.813331e-05
-0.00015733525 0.00011343708 8.903652e-05 -1.2388713e-05 -0.00020073756 -0.00033972718 -0.0007566741 -0.0007865697
-0.0008033153 -0.0017448993 -0.0025373197 0.0 -0.0 0.0021168923 0.0018426739 0.0011092807
00000000: 0000 0080 1a05 133b 9b7e 013b 76c6 833a
00000010: 4d9d 813a eeaf 693a c8c8 4c3a 56c5 0039
00000020: f221 fa38 deb1 71b9 0132 2538 622e 1739
00000030: f898 a138 126a 0f37 7451 bab7 34ce 92b9
00000040: 93f5 2bba 0916 64ba dff3 76ba 8c0c a2ba
00000050: 0000 0000 0000 0080 085c 313b 59ab 0e3b
00000060: 61b7 903a 5f21 333a fd4f 123a 8410 bb39
00000070: b5c1 8b39 9191 a938 83d5 35b9 c977 8537
00000080: 3d37 5739 e398 0739 cfc8 df38 a8ca 4ab9
00000090: 08f4 d9b9 7e9e 00ba e4cd b1ba a38f 15bb
000000a0: d5dc 4bbb 0000 0000 0000 0080 3622 ca3a
000000b0: 4e42 6a3a 59aa 513a 25c6 d939 6f69 cf39
000000c0: dd73 b139 d1ee 0439 48dd 86b8 4151 d1b8
000000d0: d1d4 d838 50de 9439 2e34 8338 5642 3f38
000000e0: 2576 b2b8 c6fe 89b9 379a c8b9 fb45 11ba
000000f0: 7eec 9bba 18fd b7ba 0000 0000 0000 0080
00000100: d875 533b e2e9 2f3b 5632 ea3a e746 683a
00000110: b2af 4d3a 6767 5a39 1d59 5239 bcea 04b9
00000120: 63ab 7eb9 415f ffb7 1f2d df38 a57e 4738
00000130: bd55 9937 40dc c8b9 e3e9 2fba 3767 52ba
00000140: a0cb a8ba 40c9 f8ba 9946 20bb 0000 0000
00000150: 0000 0080 aaeb 543b 8bee 1f3b 97fb bf3a
00000160: b0f4 9a3a da20 303a 1a5d 5c39 08a8 9e38
00000170: 3bbd 5cb8 9d70 3cb9 b11b 3638 3244 5a39
00000180: f738 1139 3d34 1637 3a48 cab8 c6d4 6fb9
00000190: 47f6 3aba 7ecc 75ba 2cce c1ba 383b e2ba
000001a0: 0000 0000 0000 0080 f25e 113b 2543 083b
000001b0: 51c8 b53a e7c7 433a 7271 ca39 25e3 9939
000001c0: ba58 aab7 6853 1bb9 fddb 45b9 3349 42b8
000001d0: 40bf 1f39 f96d 7638 a8fd 4a38 4174 9fb9
000001e0: 7d9b 1cba c605 6aba cf07 99ba 299f c3ba
000001f0: 076c 12bb 0000 0000 0000 0080 022e f43a
00000200: af52 a53a 8fc7 3f3a 7e8b 313a 7856 ce39
00000210: 313b bd39 7cbb 0139 956a 6c38 71a2 a9b6
00000220: eed8 3f39 7fc4 b138 c3c2 2338 1fe5 d8b8
00000230: 98e9 33ba 322f 4eba c7a1 83ba 10c3 90ba
00000240: dbad d1ba 8fa9 23bb 0000 0000 0000 0080
00000250: 7595 0d3b d3f6 9a3a 9c2e 813a 2dc2 113a
00000260: 9e39 b439 0f44 8038 7a5e 6a38 6bc0 f937
00000270: fe7f 0ab8 8cbd ab38 8576 7939 86f8 2338
00000280: 1252 6637 0872 40b8 2187 e7b9 7833 6aba
00000290: 46a4 cfba e31a deba a093 02bb 0000 0000
000002a0: 0000 0080 ec26 1f3b 937e a93a c685 9a3a
000002b0: 6618 973a f060 1d3a 9b70 a239 2c4c 5d39
000002c0: d821 78b8 849f 43b9 9559 12b6 f08b 1f39
000002d0: a5a0 b238 bb21 00b9 f929 22b9 078a 4db9
000002e0: a8ed 9eb9 3958 2bba 8781 b3ba 66aa deba
000002f0: 0000 0000 0000 0080 7963 f73a ac65 f63a
00000300: 3937 1b3a 59e8 6839 6f1e 0739 a620 e337
00000310: 3c26 0bb7 4d36 0cb8 a8e0 d3b8 974d c938
00000320: 3c28 8439 246e 3939 95e6 4938 b3f7 3cba
00000330: e3f8 69ba 26ae b7ba 9dd5 efba b924 12bb
00000340: 784a 21bb 0000 0000 0000 0080 c929 043b
00000350: b15c e73a 8f17 9a3a eacc 643a 1c80 4b3a
00000360: 8bf0 8739 d322 ec38 e8a5 ceb8 0f9b 63b9
00000370: 90be 6db8 f4c2 a038 bcf0 01b8 00a9 5eb8
00000380: 26e1 f8b8 de07 8cb9 e6ee fcb9 e961 39ba
00000390: da94 86ba 938a acba 0000 0000 0000 0080
000003a0: c265 3d3b 8968 eb3a 28f1 ad3a eb3d 273a
000003b0: 6c61 003a 1d29 1638 0b9f a8b6 54f1 1fb8
000003c0: 5cfa 24b9 12e5 ed38 1eb9 ba38 1ed9 4fb7
000003d0: 147d 52b9 691d b2b9 8a5b 46ba cd31 4eba
000003e0: 9495 52ba 1bb5 e4ba 2949 26bb 0000 0000
000003f0: 0000 0080 8fbb 0a3b e085 f13a 4965 913a

u f4 [1, 1, 20, 20]
0.0005025683 -0.0016011925 -0.037107944 0.06332103 -0.07996437 0.12157551 -0.1446994 0.13951491
-0.13458002 0.14077252 -0.15058605 0.14492777 -0.11956897 0.10086304 -0.090782546 0.07138803
-0.056429237 0.031945266 -0.02046157 0.021761589 -0.0041052415 0.009218968 0.002671629 0.050992273
-0.08564905 0.043381598 -0.048164405 0.10213451 -0.10499286 0.08510462 -0.08902938 0.098650515
-0.1437797 0.15704383 -0.11796009 0.0531969 0.0028970197 0.0148289455 -0.002913565 -0.020730326
-0.025286486 0.060027096 -0.06696283 -0.07434934 0.099014536 -0.069972485 0.08479517 -0.10320619
0.091028936 -0.05515614 0.083363295 -0.11820908 0.15578979 -0.13604474 0.10510808 -0.038419113
-0.044965714 0.05798257 -0.060614347 0.014666121 -0.0019140535 -0.034067146 0.054930337 0.053057857
0.01130418 0.008607477 -0.042063646 -0.0016489248 0.014953217 -0.03371279 0.01848193 -0.014584037
-0.019037137 0.0066493223 0.01457881 -0.02939856 0.03151819 -0.0109395925 -0.0048947674 0.020978233
0.012115851 0.0063170674 0.044182673 -0.04934668 -0.08939246 0.034698114 -0.023636896 0.049388357
-0.06826165 0.090419054 -0.04901767 0.059912268 -0.045912594 0.033421397 -0.017042208 0.049420487
-0.09016093 0.07773562 -0.028397009 0.0050719585 0.027442476 -0.037214804 -0.043313954 -0.012323658
0.076941706 -0.008249395 0.068170205 -0.07358445 0.062369186 -0.06353868 0.045301057 -0.0559699
0.036745228 -0.06903806 0.036365084 -0.007390728 0.02927776 -0.10920166 0.10696202 -0.039510287
-0.007501781 -0.04797324 0.1074885 0.018191403 -0.010214993 -0.058107622 0.017363269 -0.013369809
-0.025909334 -0.0049991445 0.015311482 0.005009769 0.03979722 -0.011290428 0.0041978722 -0.005942962
0.029998291 0.016498137 -0.027416054 0.03677897 0.016375624 0.026393251 -0.043793373 -0.035541456
-0.0058141993 -0.017705683 0.05835904 -0.0010695233 0.02066711 -0.005158895 0.013613008 0.0005434146
-0.02299675 -0.010786566 -0.036530375 0.023505764 0.033393443 -0.047312118 -0.011108098 -0.05500458
-0.008873917 -0.021645447 -0.00066534145 0.0053162402 0.09387783 -0.02870695 -0.04733473 0.034093972
-0.007972019 -0.07513967 0.05712682 -0.061808348 0.05950899 0.0008674017 0.0016797532 -0.0043972293
0.007207786 0.017595796 -0.005321648 0.027513444 0.0054323603 0.034239337 -0.009414177 -0.030281126
-0.039743416 -0.010422494 0.008625676 0.005702817 0.018010827 0.058612768 -0.089176826 0.08028098
-0.012604584 -0.016835572 0.037989378 -0.083419815 -0.025335956 0.13565613 -0.09147186 0.019728078
0.008757894 -0.02614871 -0.04118104 0.087598644 -0.036032766 0.107170515 -0.076417774 0.02201473
-0.003944289 -0.011687923 -0.026853373 0.024117675 -0.067463085 0.075652264 -0.06819412 0.09556713
-0.05852035 -0.06461302 0.12508811 -0.04975266 -0.044014793 0.044113412 0.07621393 -0.100012824
0.009357269 -0.0223227 -0.031237883 0.012996673 -0.01280086 0.048323907 -0.010573975 -0.013583487
0.026590006 -0.0035961743 0.057112966 -0.052710738 -0.074097544 0.112908036 -0.07647096 0.05259605
0.02771625 -0.0020072514 -0.07304917 0.06314248 -0.02085813 -0.014621953 0.12362097 -0.07642188
-0.0011524084 0.041603513 -0.004975865 -0.051744267 0.009197564 -0.014631117 -0.038421273 0.07423158
00000000: cabe 033a 1bdf d1ba 80fe 17bd 75ae 813d
00000010: 5cc4 a3bd 95fc f83d 142c 14be ffdc 0e3e
00000020: 58cf 09be ac26 103e 3b33 1abe f267 143e
00000030: 93e0 f4bd 4891 ce3d 33ec b9bd e333 923d
00000040: 5822 67bd 0ad9 023d 069f a7bc 5c45 b23c
00000050: 4385 86bb 280b 173c 7f16 2f3b 46dd 503d
00000060: c568 afbd e7b0 313d 0a48 45bd e62b d13d
00000070: 7f06 d7bd 554b ae3d 0955 b6bd 4809 ca3d
00000080: fc3a 13be 19d0 203e 0f95 f1bd fee4 593d
00000090: eddb 3d3b 1bf5 723c 82f1 3ebb a5d2 a9bc
000000a0: 9b25 cfbc f9de 753d cf23 89bd 7744 98bd
000000b0: 22c8 ca3d bc4d 8fbd 17a9 ad3d c45d d3bd
000000c0: 616d ba3d 68eb 61bd 60ba aa3d 9a17 f2bd
000000d0: 5c87 1f3e 504f 0bbe e842 d73d 5c5d 1dbd
000000e0: f82d 38bd 227f 6d3d c046 78bd 2c4a 703c
000000f0: fae0 faba fe89 0bbd a2fe 603d 3253 593d
00000100: 2b35 393c 6006 0d3c ee4a 2cbd bc20 d8ba
00000110: 56fe 743c 6c16 0abd 6b67 973c e2f1 6ebc
00000120: c5f3 9bbc 8fe2 d93b f6db 6e3c 40d5 f0bc
00000130: 3819 013d fa3b 33bc 4964 a0bb 8bda ab3c
00000140: 9081 463c 67ff ce3b e4f8 343d bf1f 4abd
00000150: 6513 b7bd 9c1f 0e3d 2aa2 c1bc 724b 4a3d
00000160: c4cc 8bbd a02d b93d c1c6 48bd 9166 753d
00000170: d80e 3cbd e0e4 083d 1a9c 8bbc 236d 4a3d
00000180: 4ba6 b8bd da33 9f3d d8a0 e8bc ac32 a63b
00000190: 0bcf e03c 8d6e 18bd f969 31bd 2be9 49bc
000001a0: 9d93 9d3d 7828 07bc d29c 8b3d 72b3 96bd
000001b0: d576 7f3d 9120 82bd 9a8d 393d b240 65bd
000001c0: 2a82 163d d463 8dbd 8ef3 143d ec2d f2bb
000001d0: ead7 ef3c 1fa5 dfbd e70e db3d 8ad5 21bd
000001e0: 80d1 f5bb 977f 44bd ee22 dc3d 2306 953c
000001f0: c95c 27bc 4202 6ebd 6a3d 8e3c 0b0d 5bbc
00000200: d03f d4bc ddcf a3bb 03dd 7a3c fd28 a43b
00000210: 6902 233d 7dfb 38bc 4e8e 893b 2ebd c2bb
00000220: fabe f53c 1a27 873c a297 e0bc 8ca5 163d
00000230: 2c26 863c a936 d83c ae60 33bd eb93 11bd
00000240: 0a85 bebb 820b 91bc e409 6f3d 3f2f 8cba
00000250: 124e a93c f30b a9bb 1809 5f3c f073 0e3a
00000260: ae63 bcbc 23ba 30bc e0a0 15bd 298f c03c
00000270: 90c7 083d 5aca 41bd bdfe 35bc 7c4c 61bd
00000280: e863 11bc cb51 b1bc 4f6a 2eba db33 ae3b
00000290: 0543 c03d d62a ebbc 10e2 41bd 1fa6 0b3d
000002a0: 129d 02bc d4e2 99bd d0fd 693d c02a 7dbd
000002b0: b3bf 733d 5862 633a 2a2b dc3a a216 90bb
000002c0: 4b2f ec3b 0f25 903c 3861 aebb e063 e13c
000002d0: f101 b23b 8c3e 0c3d ec3d 1abc 2010 f8bc
000002e0: fec9 22bd 1cc3 2abc b552 0d3c b2de ba3b
000002f0: 718b 933c f113 703d 57a2 b6bd 5b6a a43d
00000300: 7583 4ebc c1ea 89bc c09a 1b3d 02d8 aabd
00000310: 5a8d cfbc 71e9 0a3e 9955 bbbd c79c a13c
00000320: 457d 0f3c d235 d6bc 73ad 28bd eb66 b33d
00000330: 1897 13bd 377c db3d ec80 9cbd 3c58 b43c
00000340: 183f 81bb b47e 3fbc 9bfb dbbc 6e92 c53c
00000350: 162a 8abd 93ef 9a3d 5ca9 8bbd b3b8 c33d
00000360: 09b3 6fbd d553 84bd 1917 003e 72c9 4bbd
00000370: db48 34bd 44b0 343d 0d16 9c3d 86d3 ccbd
00000380: 3b4f 193c 18de b6bc 97e6 ffbc ffef 543c
00000390: b3ba 51bc 4aef 453d 773e 2dbc 468d 5ebc
000003a0: 49d3 d93c cbad 6bbb 49ef 693d 37e7 57bd
000003b0: 74c0 97bd 543c e73d cf9c 9cbd f56e 573d
000003c0: 300d e33c 178c 03bb ce9a 95bd d850 813d
000003d0: abde aabc ea90 6fbc fe2c fd3d 1383 9cbd
000003e0: 690c 97ba 7268 2a3d 950c a3bb ccf1 53bd
000003f0: 61b1 163c 5ab7 6fbc a05f 1dbd ba06 983d

exp_avg f4 [8, 1, 11, 11]
0.0028226036 0.005107841 0.010753348 0.0030698322 0.003071009 0.0032045231 -0.0033725344 -0.00844859
-0.004267984 -0.0064288154 -0.011300343 0.0068468526 0.012584968 0.012928773 0.0066666543 0.0029645215
0.00328926 -0.0035412048 -0.007135017 -0.002720018 -0.0051972507 -0.008301912 0.0072443746 0.012446932
0.014819713 0.009373529 0.005761844 -0.00035185422 -0.0034917619 -0.003067232 0.00035060773 -0.0015191631
-0.014388545 0.0137210805 0.010152324 0.01446711 0.010825897 0.01206268 -0.0023214028 -0.0009666136
-0.0007885461 0.00059181114 0.0036228574 -0.0076323184 0.011019525 0.0146228 0.010691724 0.01128374
-0.00021835546 0.0028826275 -0.0022939504 -0.0017559434 -0.0054035303 0.0070067346 -0.016298646 0.008324655
0.014849797 0.006528014 0.010105548 0.003857664 -0.0015916913 -0.006087852 -0.008438208 -0.0017631205
0.008049495 -0.016033815 0.015169058 0.011783422 0.013291921 0.007135459 6.323688e-05 -0.006471015
-0.004307997 -0.010578476 -0.0063014934 -0.002321981 -0.0190797 0.0094480505 0.008461389 0.00640349
-0.0076575596 0.0018531837 -0.007949716 -0.004617918 -0.017203476 -0.006465119 -0.004621723 -0.01990059
0.00826611 0.010238031 0.0049311398 -0.003856763 -0.0015154425 -0.0041556335 -0.009473501 -0.0118570905
-0.0063299364 -0.00850099 -0.022190912 0.0065563642 0.010691882 0.0040531084 -0.0035067836 -3.7323287e-05
-0.00823727 -0.0037773012 -0.008701841 -0.0076713976 -0.0122327 -0.022283157 0.009879098 0.005831569
0.011095743 -0.00039601157 0.00060640014 -0.0013975633 -0.00027324725 -0.0026618375 -0.0032922956 -0.0085597215
-0.020220181 -0.003637034 -0.0017249822 -0.0016352984 -0.00529445 -0.003825872 -0.013340512 -0.0059633735
0.0017242886 -0.0014339064 -0.0016661935 0.0068821213 0.004505291 0.0019028474 0.003472819 0.004369706
0.0022645534 -0.0040991106 0.003931026 0.008824392 0.007613323 0.005224024 0.013302232 -0.00019170715
-0.0033194504 -0.0014555783 0.0019153521 0.0037587206 -0.0047401967 0.004136093 0.00697871 0.008144814
0.00841531 0.01941191 0.0088620195 0.0043656384 0.010635052 0.008206423 0.0052299504 -0.003580403
0.009917169 0.0069046924 0.013450336 0.008990548 0.023238664 0.014579531 0.0028687145 0.010386394
0.0019226765 0.014091535 -0.0018345744 0.012599075 0.006564191 0.018334769 0.01295623 0.028794182
0.001969103 -0.003543847 0.0017780733 -0.0012355126 -0.0074527375 -0.012426776 -0.003528704 0.00047937705
0.0054674167 0.00041138433 0.016741805 -0.0010283482 -0.0068067936 -0.006212044 -0.00908428 -0.0060038753
-0.009105542 -0.008591253 -0.0033660044 -0.00095732784 -0.0011641902 0.010871844 -0.0042889784 -0.012448771
-0.013238567 -0.011106266 -0.0165425 -0.015710298 -0.012807339 -0.0059248377 -0.0025080377 -0.0032521393
0.010428519 -0.0004029134 -0.006382166 -0.009478605 -0.009331667 -0.0029620943 -0.013235874 -0.004374223
-0.0020095678 -0.0047226287 0.005243719 0.013643967 -0.012243129 -0.01219254 -0.01527879 -0.007091352
-0.011982913 -0.011303547 -0.004236492 0.0033141084 -0.0050872522 -0.0033549801 0.011791354 -0.011894171
-0.009266169 -0.010818007 -0.0063775666 -0.0031858156 -0.011223536 -0.0022751647 -0.003458251 0.0015461587
0.00020704203 0.0066779815 -0.027073825 -0.024938088 -0.022749908 -0.014554601 -0.019851789 -0.01744464
-0.020659126 -0.014752215 -0.011155439 -0.010884604 -0.0050331955 -0.025180617 -0.019803245 -0.01756743
00000000: 6efb 383b ad5f a73b cf2e 303c 3d2f 493b
00000010: fb42 493b fa02 523b bd05 5dbb f46b 0abc
00000020: 72da 8bbb d0a8 d2bb 1325 39bc 905b e03b
00000030: 2e31 4e3c 34d3 533c f373 da3b 6b48 423b
00000040: a090 573b 8f13 68bb dccc e9bb 5442 32bb
00000050: b34d aabb be04 08bc 3862 ed3b 37ee 4b3c
00000060: 62ce 723c 6e93 193c dacd bc3b 1379 b8b9
00000070: 0bd6 64bb 9d03 49bb c6d1 b739 a81e c7ba
00000080: efbd 6bbc 62ce 603c ef55 263c 7507 6d3c
00000090: 1a5f 313c 8ca2 453c ad22 18bb 5764 7dba
000000a0: 6fb6 4eba c623 1b3a 766d 6d3b 8718 fabb
000000b0: 3d8b 343c 7894 6f3c 572c 2f3c 70df 383c
000000c0: 59f6 64b9 77ea 3c3b 1a56 16bb af27 e6ba
000000d0: 1910 b1bb c098 e53b bd84 85bc 2264 083c
000000e0: 904c 733c f3e8 d53b be91 253c ddd0 7c3b
000000f0: 4ca0 d0ba 9b7c c7bb 6940 0abc 8218 e7ba
00000100: 07e2 033c 5959 83bc a487 783c 410f 413c
00000110: 5bc6 593c 92d0 e93b 0b9e 8438 cf0a d4bb
00000120: 192a 8dbb 5851 2dbc c27c cebb 602c 18bb
00000130: 084d 9cbc ffcb 1a3c a3a1 0a3c 5ed4 d13b
00000140: 44ec fabb 87e6 f23a 873f 02bc e751 97bb
00000150: 4eee 8cbc 59d9 d3bb d371 97bb 9006 a3bc
00000160: 946e 073c 6abd 273c 6695 a13b bfc1 7cbb
00000170: d0a1 c6ba fb2b 88bb be36 1bbc 3e44 42bc
00000180: 5b6b cfbb bd47 0bbc b7c9 b5bc c5d6 d63b
00000190: 012d 2f3c f0cf 843b 11d2 65bb 938b 1cb8
000001a0: 9df5 06bc 998c 77bb 2b92 0ebc 5960 fbbb
000001b0: aa6b 48bc 2b8b b6bc f1db 213c bf16 bf3b
000001c0: ebca 353c c69f cfb9 d3f6 1e3a 712e b7ba
000001d0: a042 8fb9 3972 2ebb 8ec3 57bb 133e 0cbc
000001e0: cba4 a5bc 4e5b 6ebb cc18 e2ba 8257 d6ba
000001f0: 117d adbb 7bbb 7abb 2a92 5abc 6768 c3bb
00000200: 8601 e23a eaf1 bbba 2d64 daba 6b83 e13b
00000210: 1fa1 933b f768 f93a 3c98 633b c02f 8f3b
00000220: e768 143b d551 86bb d6cf 803b 2f94 103c
00000230: 2f79 f93b 4a2e ab3b 9bf1 593c ff04 49b9
00000240: 238b 59bb 1ac9 beba 8d0c fb3a de54 763b
00000250: a753 9bbb 1088 873b aaad e43b d371 053c
00000260: 5ee0 093c ba05 9f3c 0132 113c a10d 8f3b
00000270: a43e 2e3c 3c74 063c 0160 ab3b 32a5 6abb
00000280: 9f7b 223c c240 e23b cc5e 5c3c 174d 133c
00000290: 035f be3c fcde 6e3c 0b01 3c3b b22b 2a3c
000002a0: 5102 fc3a 2ee0 663c 1a76 f0ba 5a6c 4e3c
000002b0: 6d18 d73b cc32 963c 5e46 543c c7e1 eb3c
000002c0: 110c 013b e33f 68bb 3d0e e93a ecf0 a1ba
000002d0: 1836 f4bb ad99 4bbc d441 67bb e654 fb39
000002e0: 0428 b33b 12af d739 1c26 893c a4c9 86ba
000002f0: 860b dfbb 678e cbbb 3bd6 14bc 28bc c4bb
00000300: 692f 15bc 54c2 0cbc 2f98 5cbb 2ff5 7aba
00000310: be97 98ba d21f 323c 8f8a 8cbb eef5 4bbc
00000320: 93e6 58bc 0ef7 35bc 2384 87bc e2b2 80bc
00000330: e0d5 51bc 2425 c2bb e45d 24bb d821 55bb
00000340: 61dc 2a3c 1f3e d3b9 7d21 d1bb 274c 1bbc
00000350: d9e3 18bc b21f 42bb 47db 58bc a455 8fbb
00000360: f4b2 03bb 48c0 9abb 81d3 ab3b f28a 5f3c
00000370: 6897 48bc 38c3 47bc e453 7abc 925e e8bb
00000380: fb53 44bc 8332 39bc 45d2 8abb 8331 593b
00000390: f7b2 a6bb 3adf 5bbb 8630 413c c5df 42bc
000003a0: 21d1 17bc 033e 31bc e8fa d0bb 1ec9 50bb
000003b0: ece2 37bc ee1a 15bb d3a3 62bb 7aa8 ca3a
000003c0: 6c19 5939 f8d2 da3b edc9 ddbc f64a ccbc
000003d0: 045e babc 6c76 6ebc 38a0 a2bc 10e8 8ebc
000003e0: 543d a9bc 46b3 71bc 4dc5 36bc 5755 32bc
000003f0: 81ed a4bb 9547 cebc 6a3a a2bc 92e9 8fbc

exp_avg_sq f4 [8, 1, 11, 11]
0.007983479 0.0067182644 0.005189585 0.0043675224 0.0035327617 0.0038955035 0.0035532657 0.004484122
0.0057279295 0.0070267194 0.008817975 0.007448368 0.0061274455 0.0046270215 0.0035523835 0.0033714555
0.0028863004 0.0035331426 0.003812274 0.0049975775 0.0068268953 0.00837456 0.0067845755 0.005348447
0.0045098863 0.0030432772 0.0029034622 0.0025631164 0.0032908663 0.003627478 0.004297644 0.006876852
0.00803242 0.00659794 0.005660206 0.0041202484 0.0037013264 0.0029712606 0.0032203025 0.0025840416
0.0040136133 0.004292723 0.0058460063 0.008573685 0.006917729 0.006122395 0.004237572 0.0046356465
0.0035546394 0.0034384222 0.0035695222 0.004077779 0.004952353 0.006124699 0.009118325 0.008234268
0.010670293 0.007796117 0.007230206 0.00560067 0.0065350737 0.006861065 0.0062546832 0.009546354
0.0073251673 0.012106394 0.007479014 0.0060601807 0.004854923 0.0038679226 0.00391447 0.003572512
0.0031540382 0.0043106987 0.0048718126 0.006475771 0.008110898 0.007422475 0.007026632 0.0046446854
0.0037997088 0.003508035 0.0034606385 0.0026823783 0.0035407315 0.005675966 0.0059012794 0.007839789
0.0077203074 0.00693141 0.0046939654 0.0038478367 0.004725863 0.0027079443 0.0030530307 0.0034495243
0.005382427 0.0060028275 0.008474668 0.008278967 0.0074021467 0.0053334646 0.0041021192 0.004092311
0.0033646133 0.0029022146 0.003878461 0.004773083 0.006621205 0.008616102 0.008504139 0.007280772
0.0057283724 0.004770393 0.0036925913 0.0037217503 0.0032426536 0.0041733524 0.0047023245 0.007113567
0.008598115 0.0040237824 0.0036185388 0.0032075753 0.0030877786 0.0027089834 0.00290581 0.0026576999
0.0027988239 0.0029928805 0.0032574567 0.003617859 0.0037527527 0.003554696 0.0031093585 0.0028962598
0.0030229602 0.00250227 0.0026124516 0.0027064846 0.0028829451 0.0031622935 0.0033730303 0.0035460843
0.003114321 0.002809587 0.0025680566 0.0024361503 0.003367384 0.00241726 0.0025031015 0.002637979
0.002880257 0.0032826157 0.003175073 0.0036166084 0.0034289607 0.0028044563 0.0029740355 0.003139108
0.002529367 0.0028460033 0.0039708815 0.0031333254 0.0037294386 0.0035278467 0.0038763955 0.0029675872
0.0033796055 0.0067316336 0.0019076988 0.0035913924 0.0032773502 0.0044422373 0.003172737 0.0041927784
0.0035450049 0.0041375323 0.0028230613 0.0031375873 0.0020720344 0.006089034 0.0024394614 0.0043322896
0.0028197276 0.0033885709 0.0036015997 0.002988764 0.0025543391 0.002626951 0.0025782008 0.0025590442
0.003435783 0.00231547 0.0027467145 0.0025902707 0.0027744053 0.0029678773 0.0031068579 0.002833981
0.0025892986 0.0025415104 0.0028059736 0.0024412293 0.0025520637 0.002454455 0.0027536948 0.002917838
0.0031764735 0.003310998 0.0031231844 0.002937723 0.0026250468 0.002624686 0.0023769857 0.002761493
0.0026858975 0.003117336 0.003192083 0.003510441 0.0035174387 0.002995953 0.0028285324 0.002751379
0.0025612037 0.0026889557 0.0022595704 0.0032295934 0.003059128 0.0034696434 0.0035220094 0.0036435104
0.0030357945 0.0029875985 0.002753754 0.002358553 0.0025285822 0.0027490014 0.0032669178 0.0031115173
0.0037673279 0.003654202 0.008895456 0.0068763844 0.0065413127 0.005539321 0.0059978794 0.005382613
0.0056905323 0.005768856 0.0064234682 0.0072332826 0.0079709105 0.00783796 0.005931965 0.005822451
00000000: 23cd 023c e324 dc3b 650d aa3b 6f1d 8f3b
00000010: e885 673b b44b 7f3b e8dd 683b 8bef 923b
00000020: 5bb1 bb3b 6540 e63b 4579 103c 7011 f43b
00000030: bdc8 c83b 459e 973b 1bcf 683b a3f3 5c3b
00000040: 1628 3d3b 4c8c 673b 58d7 793b b8c2 a33b
00000050: 26b4 df3b 7335 093c 2551 de3b 0642 af3b
00000060: abc7 933b b871 473b 0348 3e3b f5f9 273b
00000070: 93ab 573b fbba 6d3b 40d3 8c3b 3757 e13b
00000080: 699a 033c 8833 d83b 4079 b93b 2603 873b
00000090: f491 723b 7bb9 423b b60b 533b 0659 293b
000000a0: a184 833b f8a9 8c3b db8f bf3b a478 0c3c
000000b0: 1eae e23b 5f9e c83b 55db 8a3b 9fe6 973b
000000c0: f4f4 683b 2757 613b a5ee 693b e49e 853b
000000d0: 5947 a23b b3b1 c83b 0765 153c 06e9 063c
000000e0: 74d2 2e3c 9276 ff3b 5deb ec3b d385 b73b
000000f0: 2c24 d63b c9d2 e03b 16f4 cc3b 5068 1c3c
00000100: f507 f03b e659 463c 8412 f53b 7b94 c63b
00000110: 0c16 9f3b f97c 7d3b f444 803b ce20 6a3b
00000120: fbb3 4e3b c340 8d3b baa3 9f3b b432 d43b
00000130: 92e3 043c 3c38 f33b a93f e63b 7232 983b
00000140: 8904 793b 10e7 653b e1cb 623b d7ca 2f3b
00000150: 9e0b 683b 74fd b93b 855f c13b 7572 003c
00000160: a2fa fc3b e220 e33b d6cf 993b fd2b 7c3b
00000170: 6adb 9a3b c477 313b 5b15 483b 6a11 623b
00000180: 125f b03b 5eb3 c43b 55d9 0a3c 81a4 073c
00000190: b58d f23b 58c4 ae3b 126b 863b cb18 863b
000001a0: d880 5c3b 1533 3e3b c72d 7e3b 8667 9c3b
000001b0: b1f6 d83b 8d2a 0d3c f254 0b3c 8b93 ee3b
000001c0: 12b5 bb3b f550 9c3b 67ff 713b 9ce8 733b
000001d0: b382 543b 9ec0 883b f515 9a3b ed18 e93b
000001e0: 1cdf 0c3c efd9 833b 0225 6d3b 2f36 523b
000001f0: 545c 4a3b 3389 313b 676f 3e3b ce2c 2e3b
00000200: 796c 373b 3424 443b 0e7b 553b 9a19 6d3b
00000210: bef0 753b e7f5 683b 61c6 4b3b 2dcf 3d3b
00000220: db1c 463b 20fd 233b aa35 2b3b 475f 313b
00000230: cbef 3c3b 7b3e 4f3b 0f0e 5d3b 6c65 683b
00000240: a319 4c3b 0c21 383b d74c 283b d2a7 1f3b
00000250: 54af 5c3b e56a 1e3b 130b 243b f2e1 2c3b
00000260: b2c2 3c3b 2721 573b e314 503b 9f04 6d3b
00000270: 6ab8 603b f8ca 373b 09e8 423b 7eb9 4d3b
00000280: bdc3 253b 0384 3a3b 2b1e 823b 7a58 4d3b
00000290: 9969 743b 7233 673b 200b 7e3b da7b 423b
000002a0: 5f7c 5d3b 0995 dc3b c00b fa3a 915d 6b3b
000002b0: d0c8 563b 3090 913b b2ed 4f3b 9363 893b
000002c0: 5053 683b 2394 873b 1c03 393b fb9f 4d3b
000002d0: f8ca 073b 8586 c73b 5fdf 1f3b e1f5 8d3b
000002e0: 2ecb 383b c912 5e3b d108 6c3b 24df 433b
000002f0: b366 273b ed28 2c3b 08f7 283b a3b5 273b
00000300: e02a 613b 24bf 173b 3902 343b 88c1 293b
00000310: ccd2 353b b880 423b 6d9c 4b3b 50ba 393b
00000320: 39b1 293b 788f 263b 6de4 373b 08fd 1f3b
00000330: 8640 273b ecda 203b 5577 343b 3339 3f3b
00000340: 622c 503b 54fd 583b 57ae 4c3b d086 403b
00000350: fa08 2c3b ed02 2c3b 34c7 1b3b 2afa 343b
00000360: e205 303b 384c 4c3b 4432 513b 6d0f 663b
00000370: d484 663b c057 443b e65e 393b 7b50 343b
00000380: ded9 273b 3139 303b 4d15 143b 96a7 533b
00000390: a77b 483b f562 633b 83d1 663b f6c7 6e3b
000003a0: 2ef4 463b 96cb 433b 5378 343b f491 1a3b
000003b0: 92b6 253b 9728 343b c919 563b 99ea 4b3b
000003c0: 46e5 763b 567b 6f3b 3fbe 113c 4b53 e13b
000003d0: 8258 d63b 3183 b53b dc89 c43b a160 b03b
000003e0: a577 ba3b ac08 bd3b f57b d23b 2c05 ed3b
000003f0: 6c98 023c c96a 003c ee60 c23b 42ca be3b

exp_avg f4 [32, 8, 11, 11]
-0.00084887067 -0.00021956216 -4.5647066e-05 0.00066433375 -0.00029214978 -0.0010419759 0.00064179354 6.4366344e-05
-0.00042300628 -0.0017442541 0.00026693798 -0.00023510729 -0.00029235566 -0.00010085877 0.0006195648 0.0003912753
0.00025654506 0.0016221933 0.0013408444 0.00032455678 2.5520458e-05 0.00079046696 -0.0005498468 -0.0010837152
-0.0004879831 -0.001142887 -0.0012072608 -8.074018e-05 8.712963e-05 -0.00046456934 -1.3813251e-05 9.9034405e-06
0.0008879006 0.0005570714 -6.508518e-05 0.0009059131 -4.789619e-05 -0.0013120612 0.0007914771 -0.0004878057
-0.00025418113 0.001092966 -0.00059812726 0.0007297095 -0.0007341279 -0.00030262413 0.00044148526 -0.0002060083
-0.00017695385 0.00041850103 -0.0004141242 -0.00048913935 0.0008032002 -0.0011042814 0.0006354383 -0.00042771138
0.000656544 -0.0006339743 -0.00034084983 -0.00057999935 0.00017522392 -0.0010644252 -0.00062248687 -0.0008854541
-0.0015048292 -0.00029657496 9.280232e-05 0.0017222848 0.0013087124 0.00051750033 0.0007821877 0.0006472201
0.0007899181 0.00030517217 0.0006424771 -0.0019195282 0.0012353896 0.00055727165 -0.00038548306 -0.00016490584
-0.00025899406 0.00036318472 -0.0009548161 0.00081518927 0.000542314 -0.00096659095 -0.0017227184 3.802138e-05
0.00122683 -0.0001991334 0.0005656975 0.00095125946 0.00046441736 3.1954303e-05 0.00049548846 0.0003695448
7.69058e-05 9.067166e-05 0.0010332 0.0008598082 0.00010399554 -0.00019494479 0.00039049197 0.00027044213
0.00018246197 0.00041160992 0.00020657691 -0.00047817908 -0.00035737187 0.00077392213 -0.00040716527 0.0006550058
0.0007537238 -0.00010579566 -0.00076213805 -0.00017875513 0.0003656363 -0.000747512 -0.0010678717 -0.0002995116
0.0003383472 0.0013108433 0.00090395444 0.0007105923 0.00067070575 0.000940895 0.000516554 0.00096178264
0.0013005497 0.00014865554 0.0010574511 0.0005545017 0.000968701 0.0013633383 0.0008617426 0.0022062035
0.0020089843 0.00093633065 0.00069189817 0.0018843458 0.001004569 0.0009588748 -0.0004093603 0.0004161543
-0.00018135013 0.0003024333 0.00047003105 0.00047404243 0.0005002904 0.00025850398 0.00035599948 0.00038621275
0.0003358153 0.00014745496 -0.00022700756 0.00011432053 -0.00033060493 0.0006883346 -0.00022153616 -0.0008045526
0.00053874904 0.00045894049 -0.0001952555 0.0005946923 -0.0001511057 0.00071567734 0.00063663826 -0.00041392833
0.0009171775 0.0011965444 0.0011341446 0.00038081675 0.00087234593 0.0007795849 0.00074065424 0.00019506279
-0.0010648281 -0.0015702399 -7.590742e-05 -0.0018542343 -0.0011511637 -0.0008986363 -0.0015223732 -0.00211525
-0.00032817936 -0.0013615754 -0.0019438347 -0.00024166016 -0.00020654974 0.00096588617 -0.0009265551 -0.0003250616
-0.0010626508 9.021133e-05 -0.0009267621 -8.387725e-05 -0.0011059906 -0.00045241058 -5.329799e-05 -1.5165395e-05
-0.00042980548 0.00011064805 -0.00022458723 -0.0007800002 4.7594367e-06 -0.00020816582 0.00013838372 -0.0009494679
9.119834e-05 0.00011871877 -0.0002750855 -0.0012390753 0.0007592362 -0.00014908848 -0.00022432528 -0.0007569723
0.00026746647 -0.001302658 -0.00037209448 7.995141e-07 0.00075997267 0.0009458878 0.00058686646 0.0006775685
6.17803e-05 -0.00010126794 0.00045474805 -0.00072444417 -0.0016239549 0.0005685517 0.00042739365 0.0012279229
0.0006127237 -0.000112147834 0.0011215818 -0.0005253075 0.00036115773 0.00012943152 -0.0005981217 -0.0010730562
0.0010801109 7.5327735e-05 -0.00018231086 -0.0002489893 -0.0013105357 0.00076298084 -0.00083678955 -0.0006660441
-0.00046486803 -0.00014568063 -0.0007807024 -0.00011886987 -0.0012633593 0.0001051202 -0.000811245 0.00031371944
00000000: bf86 5eba 453a 66b9 2a75 3fb8 af26 2e3a
00000010: ae2b 99b9 e992 88ba 093e 283a 6bfc 8638
00000020: f1c6 ddb9 759f e4ba cff3 8b39 2287 76b9
00000030: 5047 99b9 2484 d3b8 4a6a 223a 1524 cd39
00000040: e580 8639 c69f d43a 46bf af3a 4629 aa39
00000050: c414 d637 5737 4f3a 9823 10ba 730b 8eba
00000060: fcd7 ffb9 edcc 95ba f33c 9eba 0e53 a9b8
00000070: 5db9 b638 7191 f3b9 76bf 67b7 f426 2637
00000080: 00c2 683a 6e08 123a 577e 88b8 cd7a 6d3a
00000090: 24e4 48b8 78f9 abba 217b 4f3a 2cc0 ffb9
000000a0: 9d43 85b9 da41 8f3a a4cb 1cba fa49 3f3a
000000b0: 7d72 40ba 86a9 9eb9 2677 e739 ef03 58b9
000000c0: b08c 39b9 426a db39 cf1e d9b9 9639 00ba
000000d0: da8d 523a 89bd 90ba 8b93 263a 733e e0b9
000000e0: ec1b 2c3a 4c31 26ba 17b4 b2b9 190b 18ba
000000f0: 50bc 3739 2f84 8bba 632e 23ba d21d 68ba
00000100: b03d c5ba 9e7d 9bb9 de9e c238 4abe e13a
00000110: 1a89 ab3a dca8 073a ba0b 4d3a 35aa 293a
00000120: 8212 4f3a 84ff 9f39 e96b 283a ae98 fbba
00000130: ccec a13a de15 123a a91a cab9 93ea 2cb9
00000140: 98c9 87b9 d469 be39 a04c 7aba 6db2 553a
00000150: 142a 0e3a d262 7dba d6cc e1ba 2579 1f38
00000160: 95cd a03a 77ce 50b9 514b 143a f15d 793a
00000170: 0b7d f339 ac06 0638 abe3 013a 77bf c139
00000180: 7d48 a138 fa26 be38 706c 873a c064 613a
00000190: 2e18 da38 186a 4cb9 f2ba cc39 21ca 8d39
000001a0: 4353 3f39 59cd d739 919c 5839 1cb4 fab9
000001b0: a45d bbb9 09e1 4a3a cc78 d5b9 b2b4 2b3a
000001c0: 8c95 453a 9dde ddb8 38ca 47ba 3770 3bb9
000001d0: e0b2 bf39 aef4 43ba d4f7 8bba c407 9db9
000001e0: 3164 b139 9ad0 ab3a 5bf7 6c3a 0b47 3a3a
000001f0: 4dd2 2f3a 65a6 763a 5a69 073a 2420 7c3a
00000200: 3577 aa3a 6be0 1b39 2c9a 8a3a fb5b 113a
00000210: 6cf0 7d3a 0bb2 b23a 91e6 613a f495 103b
00000220: 2aa9 033b 1674 753a 8060 353a 27fc f63a
00000230: beab 833a 005d 7b3a 699f d6b9 492f da39
00000240: ce28 3eb9 e98f 9e39 806e f639 e688 f839
00000250: ec25 033a d187 8739 71a5 ba39 997c ca39
00000260: 5e10 b039 249e 1a39 e108 6eb9 5ebf ef38
00000270: 0b55 adb9 5a71 343a 294c 68b9 9ce8 52ba
00000280: d63a 0d3a f39d f039 80bd 4cb9 20e5 1b3a
00000290: 2172 1eb9 4b9c 3b3a 12e4 263a 8504 d9b9
000002a0: bd6e 703a 5ed5 9c3a 94a7 943a 5ca8 c739
000002b0: 25ae 643a 0f5d 4c3a 7728 423a c589 4c39
000002c0: b491 8bba 82d0 cdba 7c30 9fb8 c709 f3ba
000002d0: a5e2 96ba 7692 6bba 5e8a c7ba 02a0 0abb
000002e0: 7d0f acb9 e476 b2ba 45c8 feba 2866 7db9
000002f0: 4695 58b9 8633 7d3a 0fe4 72ba 086d aab9
00000300: a548 8bba d72f bd38 f4f1 72ba 41e7 afb8
00000310: e3f6 90ba 8531 edb9 488c 5fb8 e06e 7eb7
00000320: 8457 e1b9 b80b e838 2d7f 6bb9 ed78 4cba
00000330: 40b3 9f36 1647 5ab9 191b 1139 b6e5 78ba
00000340: bc41 bf38 a8f8 f838 5a39 90b9 7868 a2ba
00000350: 7b07 473a a254 1cb9 dc38 6bb9 8d6f 46ba
00000360: be3a 8c39 f3bd aaba ad15 c3b9 319e 5635
00000370: e738 473a 75f5 773a f1d7 193a da9e 313a
00000380: 0c90 8138 d05f d4b8 406b ee39 a0e8 3dba
00000390: e2da d4ba dc0a 153a ce13 e039 41f2 a03a
000003a0: 319f 203a e930 ebb8 0a02 933a cab4 09ba
000003b0: c559 bd39 02b8 0739 45cb 1cba cba5 8cba
000003c0: 8292 8d3a 45f9 9d38 b32a 3fb9 c78a 82b9
000003d0: 48c6 abba c702 483a ff5b 5bba 7799 2eba
000003e0: 88b9 f3b9 d9c1 18b9 0da8 4cba c749 f9b8
000003f0: 4e97 a5ba fa73 dc38 bba9 54ba b67a a439
