trained_models/Sigma_5_t_50/checkpoints/checkpoint_5.pth (torch, 173091 bytes, 10 tensors)

conv_layer.conv_layers.0.parametrizations.weight.original f4 [8, 1, 7, 7]
000000 c2 69 27 3d d5 34 a0 3d 96 d9 53 bd bc b7 46 3e
       0.040872343 0.07822577 -0.051721178 0.19406027
000010 9d 7a d1 bd c9 04 36 3d 92 c1 81 bb ba 84 4f bc
       -0.10228465 0.044438157 -0.003959843 -0.012665922
000020 d1 3a 10 3e 42 9d 3b be cb 58 6f 3e a2 4e 15 bc
       0.14084937 -0.18321708 0.23373716 -0.009112986
000030 2b 26 02 3e 1f 3d 7c 3c 8f 7b 42 3c be f9 89 bd
       0.12709872 0.015395432 0.011870279 -0.06737088
000040 c7 45 76 3e 51 19 98 3e 3c 1f 0b bd 66 27 06 3d
       0.24050055 0.29706815 -0.033965334 0.032752417
000050 74 c4 77 bd 2d d5 27 3d ee e4 96 bd 66 fb 8f 3e
       -0.060490087 0.040974785 -0.073678836 0.2812149
000060 c0 2c 20 bf 99 95 9a 3d 0a 31 c0 bd 2d ea 9e 3c
       -0.62568283 0.07548065 -0.093843535 0.019398773
000070 51 78 b2 3c 82 c2 ce bd a3 2f 71 3e 56 46 66 be
       0.021785887 -0.10095693 0.23553328 -0.22487769
000080 52 67 73 3e e8 f7 05 3e 51 5b b2 bb 37 ad 8c 3d
       0.23769882 0.1308285 -0.0054430147 0.068689756
000090 d1 bd 8a 3d ab 1c 37 bd a3 56 12 3e 49 09 14 bd
       0.06774486 -0.044705074 0.14290862 -0.036141668
0000a0 be 72 81 bc b4 82 40 3d bf 12 40 3c 67 41 3f 3d
       -0.015801784 0.04699965 0.011723219 0.046693232
0000b0 14 5f 34 3d 84 7e 4a bd 62 4a 46 3d 33 33 4e 3c
       0.044035986 -0.04943706 0.04841078 0.012585449
0000c0 8b 65 20 3d 02 d0 5c bd af 0c c0 bd a3 be 1c 3b
       0.03915934 -0.05390931 -0.09377419 0.002391734
0000d0 b0 a1 1e be 16 b5 0f 3e 48 cc b5 3c 2d 2b 13 3b
       -0.15491366 0.14033923 0.022192135 0.0022456155
0000e0 e3 0d 8e 3c 77 4c 9b bc db 25 18 3e 87 6d 1b be
       0.017340606 -0.01895736 0.1485819 -0.151785
0000f0 ab 10 f8 bc 94 69 e5 bd 1f cd c4 bc 32 a4 d7 bd
       -0.030281385 -0.11201778 -0.02402359 -0.10529365
000100 5c 66 c8 bb 8b f6 9d bd 1e 3c cc 3e 1f b7 4c bb
       -0.006115718 -0.0771304 0.39889616 -0.0031237078
000110 4d 12 83 bd 21 12 9d bd ce ec 16 3e fc 6d 9e 3d
       -0.06399975 -0.076694734 0.14738771 0.077358216
000120 47 40 8d 3e 5f 2c 42 bf 33 44 35 be 96 a8 8c bd
       0.27588102 -0.75848955 -0.17701797 -0.06868093
000130 d9 e2 2d bd a6 74 a4 bb 61 27 03 3d e1 3e 5a 3e
       -0.042452667 -0.0050187884 0.032019977 0.21313049
000140 d2 37 e9 bc 8d 3f 07 3d c2 a3 5c 3d 08 91 84 bb
       -0.028469 0.03301959 0.05386711 -0.0040456094
000150 c0 f8 af 3c 1e bd 0e bd 8a 7c e6 3c b3 41 a7 bc
       0.021480918 -0.034848325 0.028135557 -0.02041707
000160 3f ed 07 bd f2 52 b2 bc 04 74 01 3c 03 d5 3b bd
       -0.03318524 -0.021768067 0.007901195 -0.04585744
000170 de 79 c7 bc 85 0a b2 3d 95 ef ea bd b0 ce 59 bc
       -0.024350103 0.08693413 -0.11471478 -0.013293907
000180 3b 81 ef 3c fd ca 75 bc 44 13 1d bd b9 09 f5 bc
       0.029236427 -0.015002009 -0.03834845 -0.029911863
000190 db 36 bd bd cc 24 c4 3d 48 32 48 bd 45 51 ef bd
       -0.092389785 0.09577331 -0.048876077 -0.11685423
0001a0 66 9f 91 bc 61 29 96 bd e3 34 ee bd 94 5e c3 bb
       -0.017776202 -0.07332111 -0.11631181 -0.0059622023
0001b0 f0 a5 52 be ac 82 9c bd c7 b1 fd 3d cb 57 1a 3d
       -0.20571113 -0.07642111 0.12387424 0.037681382
0001c0 9d 21 b5 3c 38 a5 7f bd f9 86 bc bd 22 64 e4 bc
       0.022110755 -0.062413424 -0.092054315 -0.027879778
0001d0 f2 44 bc 3d 12 fc 34 be f3 5a 8e bd bc 54 86 bd
       0.09192838 -0.17674282 -0.06950941 -0.065591305
0001e0 38 d4 6a 3d 84 c8 18 be 8a 0f 7c bd 0c 73 81 bc
       0.057331294 -0.1492024 -0.061538257 -0.015801929
0001f0 a3 36 0e be 95 92 4f bd cb b2 9f bd f7 31 27 be
       -0.1388803 -0.0506769 -0.07797774 -0.16327654
000200 61 af 48 3e b3 77 58 3d e5 0c 44 3e 0d 80 99 3d
       0.19598152 0.05284853 0.19145544 0.07495127
000210 04 67 f7 bd bf 97 df 3c f1 b8 04 bd a2 21 7c bd
       -0.120801955 0.027294038 -0.032402936 -0.061555512
000220 e8 46 57 be 10 f9 03 be fa 96 2e 3d 27 1d 19 bc
       -0.21023142 -0.12887979 0.04262445 -0.009345329
000230 fb 61 f2 bc ff 35 c8 bd 57 2e ff 3d 4d eb e1 bd
       -0.029587736 -0.09775924 0.124600105 -0.11031208
000240 0c f3 b9 bc af 68 2b bd 33 30 00 bd 6a 50 a2 3c
       -0.022698902 -0.04184788 -0.031295966 0.019813735
000250 74 5f e7 3d 3f 99 12 be 33 9e 33 3d 8e 9f 45 bd
       0.11297503 -0.14316271 0.043852042 -0.048247866
000260 b9 09 f6 3c 50 03 1a bd 23 0c eb 3c ef 02 a9 bd
       0.030033933 -0.037600815 0.02869231 -0.08252513
000270 97 4b 8e 3d f3 e7 bd 3d f0 e7 1e 3c e2 6c 9b bd
       0.06948011 0.092727564 0.009698853 -0.07589127
000280 0f 62 b0 3d 3a 8c 97 bc ec 40 90 3c 4a b0 35 be
       0.08612453 -0.018499482 0.017609082 -0.1774303
000290 78 d0 cb 3d 47 1c 41 bd 34 2f a6 bd 25 6e 1e 3e
       0.09951872 -0.047146108 -0.08114472 0.15471704
0002a0 0c ee 0f bd 22 30 84 bd b7 9b 56 bd b3 3e df bd
       -0.03513913 -0.06454493 -0.052394595 -0.10900631
0002b0 08 ab 04 3e 3c 90 6b 3b be 76 e8 bd ab 52 34 3d
       0.12955868 0.0035944125 -0.11350773 0.04402415
0002c0 44 2a 1b bd 28 3b cc 3d 15 8a 7f 3e 90 96 0b be
       -0.037882105 0.09972221 0.24955018 -0.13631654
0002d0 1c ae 29 3d 47 51 a3 3d 9e f3 d7 3b 05 f4 9b bc
       0.04142581 0.07974487 0.0065903207 -0.019037256
0002e0 4d c1 96 3d 78 3b 53 3d c6 fc 4e 3d cc f2 5a 3c
       0.07361088 0.051570386 0.050534032 0.013363551
0002f0 ec 53 8e bd c2 a7 b7 bb 11 6f 50 bc c0 a9 01 bb
       -0.069496006 -0.005604715 -0.012721793 -0.0019785017
000300 79 1c c0 3d c7 c3 0c 3d 7b 53 7a bc f4 9f eb bb
       0.09380431 0.034366395 -0.015278692 -0.0071906988
000310 ba d9 6c bc 77 d6 54 bd c3 94 90 3d 66 da 27 3d
       -0.014456207 -0.051962342 0.07059624 0.040979765
000320 df 5e 96 bd 47 0a 84 bd 2e e6 90 3a 7e 0e 1d bc
       -0.07342314 -0.06447273 0.0011054927 -0.009585975
000330 5c f0 0b bc 29 0d bf bd f9 b0 7b bd ab 74 ba bd
       -0.008541193 -0.09328682 -0.06144807 -0.09104284
000340 98 52 ce bc 0a 61 e8 3a e3 72 22 3d 03 53 12 3d
       -0.025185868 0.0017729115 0.039660346 0.035723697
000350 6a 32 dd bd 6a f9 c2 bd c1 48 85 3d 45 55 1a 3e
       -0.10800631 -0.09520228 0.06508017 0.1507159
000360 38 be d0 bb 92 01 87 bd ff 06 07 3e 20 6e 28 be
       -0.006370332 -0.065920964 0.13186263 -0.1644826
000370 36 4c 4f bf 04 56 a3 3e 49 da c2 bc 1c 7f e8 3c
       -0.80975664 0.31901562 -0.023785727 0.028380923
000380 05 f1 b1 bd 3d ad 2b 3d 84 e1 1f 3e 69 fe 3f 3e
       -0.08688549 0.04191326 0.15613371 0.18749394
000390 68 4d 53 be e3 b9 e7 bd 7d 7f 60 bd b5 08 25 3d
       -0.20634997 -0.11314752 -0.054809082 0.040291507
0003a0 7c 1a b3 bc ff 3e 12 3d c3 d6 ae 3d ab 12 86 bb
       -0.021863215 0.03570461 0.08537056 -0.004091581
0003b0 b4 00 71 bc fd 7b 43 bd 32 3b 5e bd 18 fc ac bd
       -0.01470964 -0.047725666 -0.05425567 -0.084465206
0003c0 24 b5 94 3d 0c 82 42 bd f7 69 4a bd 3d 1e 13 bd
       0.07261112 -0.047487304 -0.049417462 -0.03591751
0003d0 ec 42 6f bc f3 2e e6 bc 14 9d a8 bd d1 61 d6 3d
       -0.014603358 -0.028098559 -0.08233085 0.10467876
0003e0 d0 19 43 bd 10 f0 b4 3d ff 70 3e bd 66 d4 38 bd
       -0.04763204 0.08834851 -0.04649448 -0.045124434
0003f0 d1 3a 55 bc f5 c9 a0 bd cf df a5 bd 39 a4 b4 bd
       -0.013014511 -0.0785102 -0.08099329 -0.088203855

conv_layer.conv_layers.1.parametrizations.weight.original f4 [32, 8, 7, 7]
000000 40 44 86 bc f5 66 2e 3d 38 54 ee 3b c8 b4 3e bd
       -0.016389966 0.042578656 0.0072732233 -0.046559125
000010 b8 86 02 3d d9 d7 e3 bc bf 43 18 bb 38 e7 fd bb
       0.03186676 -0.027812885 -0.002323374 -0.0077485107
000020 fe a1 8f bc a3 b1 6e 3d 1d f5 c1 3c 93 09 7e 3c
       -0.017533299 0.058274876 0.02367645 0.015505212
000030 14 3f 24 bc 47 5e 0f bd b3 42 f8 bc c4 dd 35 bc
       -0.010024805 -0.03500202 -0.030305242 -0.011100236
000040 2e b9 c1 3b 94 89 26 bd 4b a7 1f 3c 2e 7c f8 b9
       0.0059119677 -0.04065855 0.009744476 -0.00047394767
000050 3b 10 1b bb b1 c0 95 3c 6c 0c c3 bd dd 14 66 3e
       -0.0023660797 0.018280359 -0.09523854 0.22468896
000060 e2 f7 43 be e2 9a 9e 3d 6f 0d 74 3c e5 47 d3 bb
       -0.19137529 0.07744385 0.014895781 -0.0064477795
000070 64 3c 2b 3b 75 fd 46 bd a8 a0 9d 3c f0 f3 7d 3e
       0.0026128525 -0.04858156 0.019241646 0.24800086
000080 c9 df 84 be f4 da 9e 3d 27 bf 84 3d 63 34 2f 3d
       -0.25951985 0.07756606 0.06481772 0.04277457
000090 5c 49 3f bd 7c 6c 38 bd dd 98 63 3e ca 6a 7c 3c
       -0.04670082 -0.045025334 0.22226281 0.01540632
0000a0 00 2d 38 be 11 ab 64 bc 1b 06 37 bb ee 44 9b 3c
       -0.17985916 -0.013956801 -0.0027927223 0.018953767
0000b0 dd 94 ab bd 58 3f c7 3b 99 26 9b 3d 7a b9 49 ba
       -0.08378003 0.006080549 0.07575721 -0.00076951797
0000c0 92 7e 10 bd af e1 4c 3b 1a 9d 83 bc f0 c8 be 3c
       -0.035276957 0.0031262448 -0.016066123 0.023289174
0000d0 ee c9 91 3b b4 61 b3 bc 00 e5 77 bb f7 d8 2b 3c
       0.0044491207 -0.021897174 -0.0037825704 0.01048874
0000e0 0d 80 37 bb b3 cd a8 3b 96 7f 00 3d fd c6 ec bc
       -0.0027999908 0.0051514744 0.031371675 -0.028903479
0000f0 1c 0e 84 bc b8 00 b6 3c 06 12 48 bc aa ae 50 bb
       -0.01612001 0.02221714 -0.012211328 -0.003184239
000100 40 31 e5 3b df 9d c2 3c 55 97 bf bc a4 b9 9f 3d
       0.0069943964 0.02375692 -0.02338759 0.0779908
000110 84 6e 4e bd a8 01 ff 3a 55 64 48 bc d2 9d c6 3c
       -0.050398365 0.001945545 -0.012230952 0.024245176
000120 0a 26 84 3d ee 51 55 be bc 61 96 bd 24 6d dd 3d
       0.06452568 -0.20832035 -0.0734286 0.108118325
000130 e5 24 bc 3c ce ae b6 3c 92 89 b8 3c c2 73 e9 bc
       0.022966811 0.02230015 0.022526536 -0.02849758
000140 8a e2 40 3e 41 bd e4 bd e5 e7 62 bd 21 c3 21 3d
       0.18836418 -0.1116891 -0.055396933 0.03949273
000150 0d a7 73 3b 05 cd 0b 3e 4d 1e 12 be 4b 55 d4 3d
       0.0037178427 0.13652427 -0.14269371 0.10367831
000160 f4 81 02 bd a4 b1 82 3c d9 bf 88 bd 30 b1 03 bc
       -0.031862214 0.015953846 -0.06677217 -0.00803785
000170 1d d2 3e bd 8f de 44 3c 63 c0 e8 bb 40 a9 bb 3d
       -0.0465871 0.012015953 -0.0071030124 0.09163141
000180 83 92 c9 bc 2d c5 f2 3c 4e 21 11 b9 ae ff 48 bc
       -0.024605995 0.029635036 -0.00013840685 -0.01226799
000190 0f 61 79 3c d6 c5 e9 3c 0f 6f 77 bd 54 05 65 bb
       0.0152208945 0.028536718 -0.060408648 -0.0034945803
0001a0 c6 13 86 3b b1 ee 9a bb fd 26 83 bc 3d 20 97 bc
       0.0040917126 -0.0047281613 -0.016009802 -0.01844799
0001b0 ea 61 41 3c 7b 0e 47 bc 84 94 0c 3d 46 3e 80 bb
       0.01180313 -0.0121494485 0.034321323 -0.0039136736
0001c0 63 fe 7f 3d 1b 59 40 bd 44 97 94 3c 5c d1 67 bc
       0.06249846 -0.046959978 0.018138535 -0.014149036
0001d0 42 21 90 bd 08 bd 6e 3d 06 a3 34 bc 2f da 81 bc
       -0.070375934 0.058285743 -0.011025196 -0.015851108
0001e0 58 7f 46 bd 78 dc 05 bb 4f f1 ba 3d 9a b6 ff bc
       -0.04846129 -0.00204256 0.09128057 -0.031215
0001f0 35 74 25 3b d1 28 c0 3b d7 58 81 bc d8 2d 01 3e
       0.0025246267 0.0058642407 -0.015789432 0.12615144
000200 b7 31 95 3d f4 6a d0 3d a8 cc 67 bd bc ff db bd
       0.07284873 0.1017665 -0.05659166 -0.10742137
000210 b7 d7 07 bd c3 04 c2 bd 42 d5 28 3d 79 d3 e1 3d
       -0.033164706 -0.094735645 0.041219003 0.11026663
000220 17 3f 80 bd 07 c9 5c 3d 42 3f 55 3d 42 9c 8f 3c
       -0.062620334 0.053902652 0.05206228 0.017530564
000230 4a 68 1f 3d f4 c2 1c bd 6c 39 16 bd c4 a3 d7 bc
       0.038917817 -0.03827186 -0.036675856 -0.026323207
000240 c7 c8 bf 3d 0b 73 11 bd 25 91 42 3a e8 93 a5 bc
       0.09364467 -0.035510104 0.0007422141 -0.020212129
000250 de e9 ce bc c1 fa 7e bb ee 43 3b 3d cb f4 71 bc
       -0.025258001 -0.0038906785 0.04571908 -0.014767836
000260 84 25 34 3c 2d 1b 0f bc 11 5a dd 3c 5d f7 88 bc
       0.010995273 -0.008734507 0.027020486 -0.016719515
000270 e5 60 3b 3d f5 20 d9 3c e0 e9 4c bd 51 88 8e 3c
       0.045746703 0.026504973 -0.050027728 0.017398985
000280 ac 83 85 bc e3 b7 67 3c 4a f4 36 ba 4a 48 c5 ba
       -0.016298138 0.014142963 -0.0006979151 -0.0015051451
000290 10 d8 18 bd e3 c6 0e 3d 4f f0 3c bd bf 90 6a bc
       -0.03731543 0.034857642 -0.046127614 -0.014316737
0002a0 29 41 be 3c 7e d6 bf 3d d8 12 b8 3d c3 9c 88 be
       0.02322443 0.09367083 0.08987969 -0.266821
0002b0 80 98 95 bd ff 57 85 3d 3c db 0f 3d 82 7b d0 bd
       -0.07304478 0.065109245 0.035121188 -0.10179807
0002c0 4e 43 56 bd ba 05 d5 3d ff 26 48 3d 55 de de 3b
       -0.05231028 0.10401483 0.048865315 0.0068014064
0002d0 27 8c fd bd ef 6e 88 3c 9d 47 c5 bc 17 f8 28 bd
       -0.123802476 0.01665446 -0.024082 -0.041252222
0002e0 fe 12 02 bd ed 6e 2d 3d aa a6 9f bd 77 09 b5 3d
       -0.031756394 0.042342115 -0.077954605 0.08839696
0002f0 60 a0 f5 bc 48 d5 2f 3d 7c 02 a2 3c 1b 41 69 3c
       -0.0299837 0.04292801 0.019776575 0.014236714
000300 85 32 e3 bb 77 17 5c bd 21 b4 3a bd 71 31 b7 3b
       -0.0069335126 -0.053733315 -0.04558194 0.0055906107
000310 14 d5 58 3b 1b 21 4b 3c 05 fb 1b 3c e4 93 89 bc
       0.0033085989 0.01239803 0.009520297 -0.016794153
000320 72 07 af bc d5 cb f4 3c 8f 77 6b bc 04 c1 9b bb
       -0.021365855 0.029882351 -0.014371767 -0.004753234
000330 7a e2 cc 3c 40 c3 97 bc 97 fe de bc 97 49 a6 3c
       0.025010336 -0.01852572 -0.027221007 0.020298762
000340 42 9b 7b bc 07 4a 1d bc 74 86 dc bc 20 2c 0f 3d
       -0.015356841 -0.009600169 -0.026919581 0.03495419
000350 e9 9e f3 bb b4 cb 27 be 49 2d 89 3d 5c cd 8b 3c
       -0.007434715 -0.163863 0.066980906 0.017065696
000360 57 a9 13 3d 07 72 07 b9 88 2e 2a 3d 32 11 2a 3e
       0.036050167 -0.00012917082 0.041548282 0.16608122
000370 35 76 f5 be 02 5e f3 bc 19 bf 1f 3e 7c e6 0c 3b
       -0.47941747 -0.029707912 0.15600242 0.0021499684
000380 c9 a7 f8 3b b9 69 2c be ec e9 18 3e 55 c4 29 3e
       0.007588361 -0.16837205 0.14932984 0.16578801
000390 bf 05 7b be be a0 2f bd 3c 09 09 3b b0 20 7f 3c
       -0.2451391 -0.042877905 0.0020910045 0.015571758
0003a0 e6 00 8c bd 7c 73 c7 3c 26 ae 43 3d 39 97 dd 3d
       -0.06836109 0.02434706 0.047773503 0.10819859
0003b0 e1 c0 c4 bd e7 d8 28 bd a1 d2 8a bc 3f 4f 01 bc
       -0.09607101 -0.04122248 -0.016946139 -0.007892429
0003c0 0c ed 23 bc a5 83 86 3d 5b 4a 1e bd b0 fa f1 3c
       -0.010005247 0.06568078 -0.03864513 0.029538482
0003d0 40 0a b5 bc cd 3f 7c bc 71 18 1f 3d 51 44 b4 ba
       -0.022099614 -0.015396071 0.03884167 -0.001375327
0003e0 5e 15 09 bd 33 8d d1 37 a8 2b 0b 3c 58 08 da bb
       -0.033467643 2.4980493e-05 0.008494295 -0.0066538267
0003f0 8f bf f7 3b 10 53 b1 3c 19 04 c7 bc 80 af 46 bd
       0.0075606774 0.021646053 -0.024293946 -0.048507214

activation.coefficients_vect f4 [672]
000000 00 00 00 80 29 27 48 3b 05 e3 fa 3a e4 5c 94 3a
       -0.0 0.003054092 0.0019141143 0.0011319187
000010 21 5e 2d 3a 8f 53 95 39 7c e2 1c 39 8e 4f 30 b9
       0.00066134526 0.0002848175 0.00014961691 -0.00016814304
000020 6d e7 8a b9 8e 07 55 b9 ea 7f 18 38 24 57 92 39
       -0.00026493837 -0.00020316077 3.6358753e-05 0.00027912215
000030 47 85 14 39 ae cf 98 37 0a 8d 13 b9 e7 74 a7 b9
       0.0001416403 1.821652e-05 -0.00014071554 -0.0003193982
000040 82 13 53 ba 4d 7c 73 ba b8 fb db ba 23 b3 fb ba
       -0.0008051918 -0.00092882366 -0.0016783392 -0.0019203167
000050 00 00 00 00 00 00 00 80 ff 6c a1 3a f8 be 29 3a
       0.0 -0.0 0.0012315809 0.0006475295
000060 a7 b3 e9 39 aa af 4e 39 c3 cc 2f 39 eb 06 85 38
       0.00044575075 0.00019711131 0.0001676558 6.343223e-05
000070 d6 45 84 b6 f1 d1 a1 b8 7e f6 6e b9 ea 77 e7 37
       -3.9420365e-06 -7.716183e-05 -0.00022789274 2.7593185e-05
000080 7b 91 8e 39 1b 6a 36 39 e1 f5 1f 39 71 0e d5 38
       0.00027192742 0.000173964 0.00015255019 0.000101593214
000090 10 7e a0 38 e5 e9 85 b9 7b 2f 47 ba 50 8c 93 ba
       7.6528755e-05 -0.00025542002 -0.00075983227 -0.0011257026
0000a0 54 5f 0b bb 00 00 00 00 00 00 00 80 e5 64 06 3a
       -0.0021266537 0.0 -0.0 0.0005126729
0000b0 ca a5 3d 39 54 02 8f 38 8f f2 31 38 54 98 a5 b7
       0.00018086206 6.819205e-05 4.242599e-05 -1.9740466e-05
0000c0 50 63 43 b9 39 30 4f b9 77 fc ab b9 0e 37 d1 b9
       -0.00018633646 -0.00019759023 -0.00032803763 -0.00039904605
0000d0 f7 a5 2d b9 2a 49 12 39 23 81 c0 39 20 6d 9d 39
       -0.00016560392 0.00013950901 0.00036717308 0.00030026678
0000e0 c2 3b 4d 39 40 e5 13 39 1c f8 df 37 fa 94 d3 b7
       0.00019572585 0.00014104415 2.6699207e-05 -2.5222533e-05
0000f0 d7 77 ed b8 fe b2 00 ba 00 00 00 00 00 00 00 80
       -0.000113233626 -0.00049094844 0.0 -0.0
000100 7a 5d e3 3a 72 32 ac 3a 73 63 a3 3a a2 b1 06 3a
       0.0017346584 0.0013137592 0.0012465551 0.00051381637
000110 6a fa 9a 39 8e 7f 0f 39 e6 60 59 37 49 a9 21 b9
       0.00029559742 0.0001368506 1.2956769e-05 -0.0001541722
000120 c1 b2 b1 b9 0a 0a 35 b9 3f 39 c7 37 2f 32 60 39
       -0.00033893253 -0.00017265245 2.3749306e-05 0.00021381
000130 b1 a7 24 39 e9 aa d4 38 14 79 8f b9 cd 4d 52 ba
       0.00015702729 0.00010140782 -0.00027365296 -0.00080224575
000140 33 5d 91 ba 2e 38 a5 ba c3 9c e0 ba 00 00 00 00
       -0.0011090398 -0.0012605244 -0.0017136562 0.0
000150 00 00 00 80 12 a5 34 3a ae cf 14 3a c1 ab fc 39
       -0.0 0.00068910525 0.00056766986 0.00048193152
000160 88 3f e6 39 e1 97 dd 39 ba 9d a0 39 1a 07 2c 39
       0.00043916353 0.00042265563 0.00030635094 0.00016405844
000170 1b ce e1 38 54 31 de b7 20 fd 34 b9 62 6a 47 b9
       0.00010767226 -2.6487432e-05 -0.00017260434 -0.0001901775
000180 c5 e7 50 b9 5d 5f 72 b9 44 c6 9b b9 aa 75 cd b9
       -0.00019922767 -0.00023114444 -0.00029711623 -0.00039188314
000190 4b 82 00 ba 21 b6 1a ba 03 1d 31 ba 2b 79 47 ba
       -0.00049022277 -0.0005901773 -0.0006756337 -0.0007609303
0001a0 00 00 00 00 00 00 00 80 10 2e 74 3a ac a5 6d 3a
       0.0 -0.0 0.0009314725 0.00090655196
0001b0 1a fc 1a 3a 69 d3 09 3a 97 75 b3 39 14 37 ab 39
       0.00059122 0.0005257638 0.00034229152 0.00032656698
0001c0 ad 04 a2 39 db 00 3b 38 e8 7b a0 36 ef dc bc b5
       0.00030902532 4.458507e-05 4.782796e-06 -1.4071392e-06
0001d0 06 a7 e6 b8 20 e4 06 b9 a1 2b 19 b9 e5 aa 5a b9
       -0.00010998365 -0.00012864219 -0.0001460747 -0.00020853763
0001e0 60 8b 85 b9 19 70 c6 b9 5d 7f 09 ba ad eb 31 ba
       -0.0002547158 -0.00037849022 -0.0005245114 -0.00067871326
0001f0 2c cf 6d ba 00 00 00 00 00 00 00 80 7a cc 25 3a
       -0.00090717035 0.0 -0.0 0.000632472
000200 ca a9 17 3a f9 4a f0 39 5b 7b e1 39 2d 00 bd 39
       0.00057854934 0.00045832226 0.0004300725 0.0003604902
000210 b8 1e b3 39 e9 b9 5a 39 09 13 07 39 0e 31 9a 38
       0.00034164428 0.00020859357 0.00012881694 7.3524294e-05
000220 1f 7b 56 38 56 de 00 38 86 68 13 b9 b7 dd 28 b9
       5.113624e-05 3.0724645e-05 -0.0001405795 -0.00016104324
000230 43 b0 77 b9 36 cb 8f b9 27 19 db b9 d3 88 44 ba
       -0.00023621418 -0.0002742649 -0.00041789675 -0.0007497195
000240 2d 97 49 ba ae ba 4c ba 00 00 00 00 00 00 00 80
       -0.00076900685 -0.00078098 0.0 -0.0
000250 de 67 80 3a 83 37 20 3a ec 5b 1b 3a 18 09 e4 39
       0.000979658 0.00061117875 0.0005926478 0.00043494324
000260 b7 6b a1 39 ac c4 9a 39 c2 2a 7f 38 b8 dc d1 37
       0.00030788567 0.000295197 6.083656e-05 2.5017522e-05
000270 03 e6 95 37 07 be fb 36 d0 e8 44 b8 e2 8f c9 b8
       1.7869292e-05 7.502505e-06 -4.6946865e-05 -9.611227e-05
000280 2c 7c 48 b9 74 2b 5c b9 a0 f1 84 b9 9e 1f f0 b9
       -0.00019119744 -0.00020997023 -0.00025357027 -0.00045799924
000290 b9 c5 17 ba 27 fe 1b ba f8 97 3b ba 00 00 00 00
       -0.0005789656 -0.00059506524 -0.0007156129 0.0
0002a0 00 00 00 80 82 68 07 3b ad 21 bc 3a 0e 08 8c 3a
       -0.0 0.0020661657 0.0014353298 0.0010683553
0002b0 d4 22 24 3a 6e 08 16 3a 3c f3 7b 39 03 62 da 38
       0.00062612933 0.0005723302 0.00024027837 0.00010413306
0002c0 4b bf 98 b7 df a0 a3 b9 d1 76 d3 b8 4b 51 0e 39
       -1.820889e-05 -0.0003120964 -0.00010083395 0.0001357246
0002d0 59 02 66 b9 bb 67 01 ba 85 4b 0d ba 76 2a 22 ba
       -0.00021935384 -0.00049364165 -0.00053899764 -0.0006186137
0002e0 6d 38 c0 ba 6c 5b cf ba 45 af e0 ba 3f 9e f1 ba
       -0.0014665254 -0.0015820093 -0.0017142078 -0.0018434002
0002f0 00 00 00 00 00 00 00 80 8a 34 e6 3a 4f b0 ca 3a
       0.0 -0.0 0.0017563265 0.0015463921
000300 a3 32 91 3a 6a 55 2f 39 de 37 1c 39 b4 ce bc b9
       0.0011077713 0.0001672112 0.00014898131 -0.0003601216
000310 44 ec ed b9 40 f9 fd b9 4d 51 77 b9 f3 cf cd 38
       -0.00045380194 -0.00048441626 -0.00023586043 9.813895e-05
000320 20 f6 d3 39 76 6a ac 39 b6 15 e1 38 46 1c 90 38
       0.00040428434 0.00032885716 0.0001073288 6.8717214e-05
000330 a8 b7 22 38 b4 9f 06 38 5f 45 d4 b7 1c 60 32 b8
       3.8794853e-05 3.2096825e-05 -2.5304673e-05 -4.2528016e-05
000340 b5 33 9a b9 00 00 00 00 00 00 00 80 14 9e a8 3a
       -0.00029411694 0.0 -0.0 0.0012864494
000350 48 f4 02 3a a1 88 f5 39 9f 76 e9 39 18 fa e8 39
       0.0004995507 0.00046831838 0.00044529603 0.00044436823
000360 9a ef e7 39 e4 ba 5a 39 76 ac d5 38 b6 31 c4 38
       0.0004423827 0.00020859722 0.00010188755 9.355268e-05
000370 2e a8 29 38 8e f7 90 b8 43 1c fb b8 94 dc 2b b9
       4.044937e-05 -6.912566e-05 -0.00011973877 -0.00016390003
000380 2f 8d 47 b9 25 5f 53 b9 c5 58 83 b9 88 b5 e3 b9
       -0.00019030714 -0.00020157972 -0.00025052406 -0.00043432065
000390 45 26 75 ba 35 cf 7f ba 00 00 00 00 00 00 00 80
       -0.0009351711 -0.0009758354 0.0 -0.0
0003a0 ab 48 1b 3b b8 3d da 3a 80 4e b0 3a b2 03 90 3a
       0.0023694437 0.0016650474 0.0013451129 0.0010987429
0003b0 75 02 de 38 83 9a a8 38 71 2d 9d 38 d3 e7 14 b9
       0.000105862426 8.039644e-05 7.4948075e-05 -0.00014200741
0003c0 3f ad 2e 37 61 fb 67 39 cc 75 08 39 e6 94 1b 38
       1.0411545e-05 0.00022123523 0.00013013853 3.7093552e-05
0003d0 9c 9e 8e b9 ba 1b 98 b9 c4 16 39 ba 9c f3 4a ba
       -0.00027202524 -0.00029012357 -0.0007060582 -0.0007741989
0003e0 03 de 83 ba a3 51 ac ba 32 bd ec ba 00 00 00 00
       -0.0010060671 -0.0013146888 -0.0018061756 0.0
0003f0 00 00 00 80 a0 80 68 3a 25 87 4b 3a 7b 8b 0f 3a
       -0.0 0.0008869264 0.00077639736 0.00054758013

u f4 [1, 1, 20, 20]
000000 3e 23 8c 3b cc fc a1 bb c8 ca 7f 3b 70 2c 79 bb
       0.004276662 -0.004943466 0.003903078 -0.0038020872
000010 80 e2 36 3b c0 4e b1 ba 00 a0 45 b9 80 61 f4 3a
       0.0027906 -0.0013527498 -0.00018846989 0.001864478
000020 20 e7 62 bb 40 66 a1 3b e0 25 c9 bb 50 c6 e5 3b
       -0.0034622625 0.004925519 -0.0061385483 0.007012166
000030 30 fb f4 bb a0 8a f5 3b 40 9f e5 bb d0 6f c9 3b
       -0.007476233 0.007493332 -0.0070075095 0.0061473623
000040 b0 27 a4 bb f0 92 5f 3b 48 fb 1d bb 98 3c c5 3a
       -0.005009614 0.0034114681 -0.0024106074 0.0015047966
000050 b8 f4 ef bb 2c fe df 3b 20 8f 3d bb e0 93 a2 3a
       -0.007322874 0.0068357196 -0.002892442 0.0012403689
000060 20 71 16 3b 80 40 d1 bb 68 47 28 3c 28 5a 66 bc
       0.0022955611 -0.006385863 0.010270931 -0.014059581
000070 04 d3 8d 3c f4 34 a3 bc c8 89 b1 3c c8 b2 b7 bc
       0.017312534 -0.019922711 0.021672145 -0.022424117
000080 cc ff b4 3c 34 74 a9 bc 84 37 95 3c 80 9a 75 bc
       0.02209463 -0.020685293 0.018214948 -0.014990449
000090 2c 8c 3a 3c 18 5e e8 bb 50 ff 7d 3b 68 af f8 ba
       0.011385959 -0.007091295 0.0038756914 -0.0018973174
0000a0 16 2b da 3b 20 14 29 ba c2 ac 2e bc aa bc 90 3c
       0.0066579683 -0.0006449837 -0.010661306 0.017668087
0000b0 71 bd d8 bc 08 d0 0f 3d 56 a1 2d bd ed 29 46 3d
       -0.02645752 0.035110503 -0.04239019 0.048379827
0000c0 a2 4a 57 bd f1 cf 60 3d 29 15 62 bd 0c fa 5a 3d
       -0.05256141 0.05488581 -0.05519596 0.05346112
0000d0 1a c9 4b bd 04 50 35 3d 6f 8f 18 bd 88 ba ef 3c
       -0.049752332 0.044265762 -0.037246164 0.02926375
0000e0 ab 92 ac bc d2 2e 4a 3c 68 66 be bb 8d cc 07 3b
       -0.02106603 0.012340264 -0.0058105476 0.0020721287
0000f0 70 1c 14 39 4e 4c 97 bc 94 85 32 3d c8 a1 7f bd
       0.00014124974 -0.018469002 0.04358442 -0.062410146
000100 ab 0a a7 3d 01 3e ca bd 6c 57 e5 3d ee 66 f8 bd
       0.08156332 -0.098751076 0.11198315 -0.12129007
000110 98 34 01 3e 6a c4 01 be ba f8 fb 3d 97 4c ec bd
       0.12617719 -0.12672582 0.123033 -0.11538046
000120 9c 76 d5 3d a8 ca b8 bd 7a c1 97 3d 22 20 69 bd
       0.104230136 -0.090230286 0.074099496 -0.05691541
000130 39 fa 23 3d 24 52 bd bc ce 6b 2f 3c 2e 19 65 bb
       0.040033553 -0.023110457 0.010706855 -0.0034957635
000140 4b b4 38 bc 6e 7d 3f 3d c0 df b8 bd 10 bc 01 3e
       -0.011273454 0.04675048 -0.09027052 0.12669396
000150 81 18 25 be 04 fe 43 3e a9 77 5b be 79 31 6b 3e
       -0.16122629 0.19139868 -0.21432365 0.22968091
000160 77 a5 72 be 55 f5 71 3e 32 7e 69 be e5 e8 59 3e
       -0.23695932 0.23628743 -0.22802046 0.21280248
000170 36 2c 44 be 13 8f 29 3e b8 72 0b be 48 5b d7 3d
       -0.1915749 0.16558485 -0.1361798 0.105154574
000180 77 e5 98 bd 28 9d 35 3d 51 df b4 bc 49 6c fa 3b
       -0.07465642 0.04433933 -0.022079142 0.007642303
000190 6d b7 ca 3c f8 6e a2 bd 88 51 12 3e bc 4b 4d be
       0.024745667 -0.07931322 0.14288914 -0.20048422
0001a0 ba fe 81 3e 62 fb 99 be 25 9e ac 3e ec 5d b9 be
       0.25389653 -0.30074602 0.33714405 -0.3620447
0001b0 6c e2 bf 3e 0a 21 c0 be f6 54 ba 3e c0 f1 ae be
       0.37477434 -0.37525207 0.36392945 -0.34168816
0001c0 c8 a5 9e 3e 08 62 8a be 02 56 66 3e 1e af 34 be
       0.30985856 -0.27027917 0.22493747 -0.17644927
0001d0 55 e9 02 3e 64 3f a1 bd 3c 43 2c 3d 58 80 80 bc
       0.12784322 -0.07873419 0.042056307 -0.0156862
0001e0 de 1f 15 bd 9b 93 da 3d 64 0b 3f be fa ee 86 3e
       -0.036407344 0.10672685 -0.18656689 0.263542
0001f0 0b 7b ab be 8d 12 cc 3e 4a 44 e6 be 16 08 f9 3e
       -0.33492312 0.39857903 -0.44973975 0.48638982
000200 5c ea 01 bf de 2e 03 3f 74 62 00 bf a9 77 f3 3e
       -0.5074823 0.5124339 -0.5015023 0.4755223
000210 14 32 df be ea 14 c5 3e 5a 5c a6 be bf b9 84 3e
       -0.43592894 0.3849252 -0.32492334 0.25922963
000220 cb 3c 44 be 1b 1f f9 3d 1d a2 8b bd 64 1d db 3c
       -0.19163816 0.12164136 -0.0681803 0.026747413
000230 98 f2 2a 3d 21 4b f3 bd 54 39 52 3e 5c 34 96 be
       0.04173526 -0.11879564 0.20529681 -0.29336822
000240 1c 81 c0 3e 1a 12 e7 be 36 9d 03 3f b4 ba 0f bf
       0.37598503 -0.45130998 0.5141176 -0.5614426
000250 0c 7c 17 3f 78 8e 1a bf 83 e3 18 3f 8e 99 12 bf
       0.59173656 -0.6037364 0.59722155 -0.57265556
000260 86 fc 07 3f 3e 35 f3 be da 26 d0 3e 12 a6 a8 be
       0.53119695 -0.47501558 0.4065464 -0.32939202
000270 2c b0 7d 3e 35 c9 24 be a5 7a be 3d d6 e5 19 bd
       0.24774235 -0.1609238 0.09300736 -0.037572704
000280 4c 5b 1d bd 2c ad e1 3d ca 1d 43 be 30 b8 8d 3e
       -0.038417146 0.11019358 -0.19054332 0.27679586
000290 ea f5 b7 be 8e 75 df 3e 42 d1 00 bf 08 55 0e 3f
       -0.35929805 0.43644375 -0.503193 0.555985
0002a0 96 c4 17 bf 2c a5 1c 3f c3 c1 1c bf 70 13 18 3f
       -0.5928434 0.6118953 -0.61233157 0.5940466
0002b0 7c c0 0e bf 16 3a 01 3f a7 09 e0 be 09 f9 b7 3e
       -0.5576246 0.5047926 -0.43757364 0.35932186
0002c0 7c 56 8c be 98 79 39 3e 1e 5a da bd 52 e2 32 3d
       -0.27409732 0.1811279 -0.1066172 0.043672867
0002d0 6e e5 e4 3c fe 20 ac bd b7 78 16 3e 3b be 5f be
       0.027941432 -0.0840473 0.14694487 -0.21849911
0002e0 bf db 93 3e 9e 73 b6 be 32 81 d5 3e 3a 31 ef be
       0.2887859 -0.35635084 0.4170013 -0.46717244
0002f0 ba 37 01 3f 50 11 07 bf e3 d3 08 3f aa 56 06 bf
       0.50475657 -0.5276079 0.53448313 -0.5247599
000300 29 2d ff 3e f4 b0 e9 be 08 e8 cc 3e 0a 2b aa be
       0.49839142 -0.45642817 0.40020776 -0.3323596
000310 10 3b 83 3e 9a 84 2f be c8 2d d0 3d 5e 36 2a bd
       0.25631 -0.17140427 0.10164982 -0.041555755
000320 3f 40 76 bc e0 c9 50 3d f0 a3 ba bd 04 a6 0f 3e
       -0.015029966 0.050973773 -0.091133 0.14028174
000330 00 d8 42 be 03 88 75 3e 62 5b 92 be 06 ad a6 3e
       -0.1902771 0.23977666 -0.28585345 0.3255388
000340 a2 c8 b6 be 42 af c1 3e 0f b5 c6 be 08 6b c5 3e
       -0.35699946 0.37829024 -0.38810012 0.3855822
000350 82 95 bd be 1a 6c af 3e b6 45 9b be 54 01 82 3e
       -0.37028128 0.34262162 -0.30326623 0.25391638
000360 20 cd 49 be 9c ad 07 3e 63 c0 9f bd 12 b7 fd 3c
       -0.19707155 0.1324982 -0.07800367 0.030971084
000370 a4 0d a3 3b b4 b1 bf bc d7 e1 30 3d a6 8b 8f bd
       0.0049759913 -0.023400165 0.043184128 -0.07009058
000380 34 2c ca 3d 60 ec 02 be 7b 99 1f 3e f7 0d 39 be
       0.09871712 -0.12785482 0.15585892 -0.18071733
000390 6a 06 4e 3e ab 20 5d be 2d 5c 65 3e d1 04 66 be
       0.20119634 -0.21594493 0.22398444 -0.22462775
0003a0 b7 9c 5e 3e 36 3a 4f be f8 1f 38 3e d8 3b 1a be
       0.2173947 -0.2023705 0.17980945 -0.15061891
0003b0 ba 5a ee 3d 93 cb 9e bd 0e e2 32 3d 72 ec 7c bc
       0.116383985 -0.077536725 0.043672614 -0.015437232
0003c0 b4 f5 48 ba 3a 9c 14 3c f3 f7 85 bc 9b ae e3 3c
       -0.0007666007 0.00907045 -0.016353583 0.02779322
0003d0 f4 c0 25 bd 7a 85 5a 3d 46 9b 86 bd bc bf 9c 3d
       -0.040467218 0.05334995 -0.06572585 0.07653758
0003e0 90 92 ae bd 7e cf ba 3d dc 9e c0 bd 29 7d bf 3d
       -0.08524048 0.09121607 -0.094053 0.09350044
0003f0 88 12 b7 bd 79 92 a7 3d 44 66 91 bd e3 0b 6b 3d
       -0.089390814 0.08182234 -0.07099584 0.057384383

exp_avg f4 [8, 1, 7, 7]
000000 9f af 27 3b 1a 11 c4 ba 4b 64 09 bc b6 e8 c0 bc
       0.0025586856 -0.001495871 -0.008385728 -0.023548465
000010 99 84 54 3c 6c 00 d1 ba 46 41 d5 bb b3 2d 0f bc
       0.012971067 -0.001594556 -0.0065080253 -0.008738923
000020 6e 8e 1c bb fb 9c c3 bc de 93 2d bc b5 c1 8d bc
       -0.0023888606 -0.023878565 -0.010594336 -0.01730428
000030 4e 8a 03 bc 37 50 8e bc 9a 91 1b 3c ec 74 da bb
       -0.00802858 -0.017372234 0.009495163 -0.00666677
000040 d6 ef 11 3b 58 15 53 bc 64 1a 12 3b 64 0c f7 bb
       0.0022268197 -0.012883507 0.0022293562 -0.007539319
000050 5e a0 a3 3b 8a fd ce ba 88 28 de ba 30 16 d4 bc
       0.0049934825 -0.0015792113 -0.0016949335 -0.025889486
000060 8d db 6e bc ac 3f f5 bc 43 e4 8a ba a0 65 09 bb
       -0.014578712 -0.029937588 -0.0010596592 -0.0020965114
000070 81 17 96 3c 10 f9 d8 3b 32 e8 9c ba ff fd 84 bc
       0.018321754 0.0066214874 -0.0011971055 -0.016234396
000080 6c 96 12 bc 23 1b b8 bb f2 fc 16 3c 9e 01 5f 3c
       -0.008946996 -0.0056184693 0.00921558 0.013611225
000090 b3 dc 64 3c 07 9a f7 ba db 9a 9e 3c 10 47 80 3c
       0.013968634 -0.0018890508 0.01936095 0.015658885
0000a0 1e 81 45 3c 14 d3 6b 3c a8 1f 86 3c 04 82 89 3c
       0.01205471 0.014393587 0.016372517 0.01678563
0000b0 72 6a 6f 3c 3e 7c 1b 3c 29 84 ae 3c e9 ae 68 3c
       0.014612781 0.009490071 0.021303253 0.014201858
0000c0 06 ed 8c 3c 4e 3b e2 39 f5 2c 30 bc 5e cb 9d 3b
       0.017202865 0.00043150265 -0.010752906 0.004815503
0000d0 6e 6a 94 bc b4 50 d2 3c 87 21 52 3c 4c a4 0f 3d
       -0.018117156 0.025673248 0.012825376 0.035068795
0000e0 46 f0 63 bc af af 60 3b f7 6a 5a bc a6 2f 53 3c
       -0.013912266 0.0034284403 -0.0133311665 0.012889778
0000f0 d0 b4 72 3a be 1b b9 3c 97 f7 af 3c 9c 60 80 3b
       0.00092585105 0.022596236 0.021480365 0.0039177667
000100 d2 d5 68 bc b8 f9 34 3c 1d 5c 33 bc 45 0a b6 3c
       -0.014211135 0.011045866 -0.0109472545 0.022221694
000110 8d 8d da 3b 99 ae 37 3d 5d 9a df bc f3 a6 9f bb
       0.006669706 0.044844244 -0.027295286 -0.004872197
000120 28 4a c8 bc ac b9 ea ba 51 85 c9 bc cc d9 06 3c
       -0.024449423 -0.0017908118 -0.024599703 0.008230638
000130 b6 39 6c 3c 64 4d 76 bb 43 54 6c bc 50 5e 6b 3b
       0.014418056 -0.003758275 -0.014424386 0.003591437
000140 26 dc f6 bc 6a ad 4f bb d8 38 50 bc 70 8a da 3c
       -0.030134272 -0.0031689056 -0.012708865 0.02667734
000150 08 d2 b7 bc 84 e9 b6 bb e2 8a a1 bc 0f 3e fe 3b
       -0.022439018 -0.0055820365 -0.019719545 0.007758863
000160 83 a6 a8 3a b8 e3 24 3c f1 ac 92 3c d4 8e bf bc
       0.0012867007 0.010064058 0.01790473 -0.023383535
000170 37 cf ca bc 17 7f 6a bb 82 c5 89 bc 26 cf 3b 3c
       -0.02475701 -0.0035781318 -0.016817812 0.011462962
000180 e3 a5 71 bb 32 2b 95 3c dd 7c b1 3c 62 88 70 3c
       -0.0036872558 0.018209074 0.021665985 0.014680954
000190 eb f0 06 3c 0a af 36 3c c5 4f 82 3b 89 79 6c 3b
       0.00823615 0.011150131 0.0039767944 0.0036083183
0001a0 30 3c 95 bb 08 66 ba 3c 36 7b 72 3c 39 1c 16 3c
       -0.004554294 0.02275373 0.014799884 0.009162002
0001b0 b7 ff 08 3c bd b5 a8 3b 34 c3 87 3b d3 71 13 3b
       0.008361748 0.005148618 0.004143143 0.0022498264
0001c0 a0 ef 97 3c 63 9b 63 3c a8 ab c2 3b a9 ee b1 3b
       0.01854688 0.013892028 0.005940873 0.005430062
0001d0 2b 29 9b 3a 68 62 de 3b b0 d9 88 bb 49 98 47 3c
       0.001183783 0.0067866333 -0.004176341 0.012182304
0001e0 9b 76 c8 bb f9 58 b5 bb d5 19 65 bc 5c f3 fc bb
       -0.0061176545 -0.005534288 -0.01398321 -0.0077194404
0001f0 06 c4 dd bb 8c 61 85 bc d1 91 fa 3b 38 53 ad 39
       -0.0067677526 -0.016281866 0.007646777 0.00033059134
000200 c7 6c 1e bc d2 d6 f1 bb dd fd 1c bc 38 65 b4 bb
       -0.009669489 -0.007380345 -0.00958201 -0.0055052303
000210 85 f4 b9 bc 85 38 65 3c fc 4c 9c bb 03 b0 1b bb
       -0.022699604 0.013990526 -0.0047699194 -0.0023756034
000220 11 46 57 bc d1 a3 6c bc 5c 80 77 bc e9 29 a5 bc
       -0.013139264 -0.014443354 -0.015106287 -0.020161586
000230 8a 96 51 3c 29 0a 48 3c 7a 29 58 bb ab 9a c1 bb
       0.012792239 0.012209454 -0.0032983706 -0.0059083304
000240 a4 15 9d bc 2f f3 e2 bb d8 7c 7f bc 0d 33 1d 3c
       -0.019175358 -0.0069259624 -0.01559373 0.009594691
000250 89 90 c2 ba 5a 24 53 3b 1b 3e 07 bc c5 0b 5a 39
       -0.00148441 0.0032217712 -0.008254553 0.00020794485
000260 a3 fa aa bb 98 8c f6 3a 8c 5e 85 3c 65 26 af 3c
       -0.0052178665 0.0018810211 0.016280435 0.021380613
000270 f5 01 26 3c f4 20 ba 3c 06 0e cc b9 0f 9a 85 3c
       0.0101323025 0.022720791 -0.0003892036 0.016308812
000280 36 b7 28 3c a4 ff 43 3c e7 e6 7a 39 1e e0 07 3c
       0.010297587 0.011962805 0.00023927876 0.00829318
000290 2e 12 a1 bb c0 43 20 3c 5e 57 91 3a 7d f5 f7 3b
       -0.0049154973 0.009781778 0.001108866 0.0075671063
0002a0 4e e6 77 bc 80 8e c2 bb 9c 90 b8 bc ec 64 72 bb
       -0.0151305925 -0.0059373975 -0.022529893 -0.0036986424
0002b0 89 f4 51 bc 7f e5 9f ba e4 5d 8a bc 3c 18 5a 3b
       -0.012814649 -0.0012199132 -0.016890474 0.0033278605
0002c0 5b 81 68 bc ac 80 a6 bb 66 da 40 bc 78 d2 b6 3b
       -0.014190997 -0.005081257 -0.01177082 0.005579289
0002d0 59 d1 e6 bb 16 90 8d ba e0 56 94 bb 5e 30 b4 3b
       -0.007043999 -0.0010800387 -0.004526958 0.00549893
0002e0 df d5 18 bc c4 bb e3 3b 06 c9 c4 bb 1c 95 ea 3a
       -0.009328335 0.0069498736 -0.006005409 0.0017897221
0002f0 5a a3 02 bc fc 2a bd 3b 67 72 42 3b 2d db 04 3b
       -0.007973516 0.0057729464 0.002967024 0.002027224
000300 ca ad 08 bc 68 d8 4c ba f3 45 e7 bb 70 69 53 bb
       -0.008342216 -0.00078142295 -0.007057899 -0.003225889
000310 6f 0b f0 3b 45 69 d9 bb 44 8e 97 bb dd 70 a4 bc
       0.0073255817 -0.0066348636 -0.0046251137 -0.020073349
000320 e3 55 08 3c 62 96 e5 bb 2e 3b 9d 3b 5f b7 8e 3c
       0.008321258 -0.0070064524 0.0047983145 0.017421423
000330 5b 1c 21 3c 6e c1 e0 3a fd 8d 91 3c a9 49 c3 bb
       0.009833421 0.001714749 0.0177679 -0.0059597087
000340 f3 83 63 3c df de b1 3b a2 db ce 3c 07 70 48 ba
       0.01388644 0.0054281796 0.025251213 -0.0007646088
000350 9c 1d 47 3c f3 7e f9 bb 5d 4b 2e 3c 8d d2 e5 3b
       0.0121530555 -0.0076140105 0.010638085 0.007013625
000360 a0 a5 0a 3d 23 b1 3b bc 7f 2e 28 bb d6 a9 fb bc
       0.03384936 -0.011455807 -0.002566248 -0.030720633
000370 b0 9d 93 bc 3b 04 2f bd af 5e 0c 3b 00 12 c0 3b
       -0.018019527 -0.042728644 0.002141874 0.005861521
000380 95 ca d9 3b 71 a1 11 bc 19 5c 0b bb 48 0c 02 bd
       0.006646464 -0.008888588 -0.0021264611 -0.031749994
000390 6e ba 18 bc 48 a1 a8 bc 89 cd 84 3c 3d d8 ff bb
       -0.009321792 -0.020584717 0.016211288 -0.00780776
0003a0 d0 fc 5b 3c 90 3d 61 bb bc 80 5e 3c 13 04 ef bb
       0.013426974 -0.003436897 0.013580497 -0.007294187
0003b0 91 56 f2 3b 13 e3 53 3c af a5 a8 3b a6 4c 01 3c
       0.0073955734 0.012932557 0.005146704 0.00789181
0003c0 25 f2 2d 3c 43 c3 b0 bc bc fd 13 b9 be 75 7d bc
       0.010616814 -0.021577483 -0.00014113536 -0.015469966
0003d0 a6 96 18 3c cd 0d 74 3c d7 9a 5f bb 44 9e 1a bb
       0.009313261 0.0148958685 -0.0034119391 -0.0023592869
0003e0 2d 97 5a bc dc b7 a2 3b 38 17 8a bc 1f 02 77 bc
       -0.013341707 0.0049657654 -0.016856775 -0.015076189
0003f0 7c 58 f4 3b ee 38 9f 3b bf 84 88 bc 58 f2 74 bb
       0.007456837 0.0048590815 -0.01666486 -0.0037375893

exp_avg_sq f4 [8, 1, 7, 7]
000000 57 86 68 3c f3 27 68 3c 4f 30 4c 3c 44 ac 1a 3c
       0.014192185 0.014169681 0.01246269 0.009440485
000010 9f 63 20 3c ad c9 31 3c dd d1 11 3c b8 8e 87 3c
       0.0097893765 0.010851306 0.008900133 0.016547546
000020 49 b5 51 3c 4a 3c 64 3c fb 34 a2 3c 7a 8f 4e 3c
       0.012799569 0.01393039 0.019800654 0.01260745
000030 ed 10 09 3c 9c 57 53 3c 4d 27 70 3c 78 42 68 3c
       0.008365852 0.012899306 0.014657808 0.014176004
000040 2f 53 81 3c 87 03 ff 3b 98 91 82 3c 93 c0 57 3c
       0.015786735 0.007782403 0.015938565 0.013168472
000050 79 f5 52 3c 97 73 34 3c 30 de 37 3c 5f 4c 1e 3c
       0.012875908 0.011013887 0.011222407 0.009661763
000060 40 58 81 3b 1d a3 74 3c 9f bc 78 3c 5b af 34 3c
       0.003947288 0.014931467 0.0151816895 0.011028136
000070 4e 9f fd 3b 9a 79 ce 3b 00 bc 24 3c cb 2c 5a 3c
       0.007739938 0.006301117 0.010054588 0.013316344
000080 1c ad 24 3c 50 23 13 3c ab c4 20 3c 42 1f 09 3c
       0.010051038 0.008980587 0.009812514 0.008369269
000090 e4 11 d1 3b ac 40 af 3b c0 c9 0f 3c 88 93 b0 3b
       0.0063803066 0.0053482857 0.008776128 0.005388681
0000a0 ee 42 f2 3b a3 d0 14 3c 29 55 24 3c 5c 33 03 3c
       0.0073932325 0.009082946 0.010030069 0.0080078505
0000b0 a6 04 db 3b c0 67 d9 3b 4a 22 ea 3b a7 ed 00 3c
       0.0066839037 0.0066346824 0.007145201 0.007869161
0000c0 83 3d 16 3c b2 15 b1 3c b8 52 c2 3c b2 f6 a6 3c
       0.009169939 0.02161679 0.023721084 0.020381305
0000d0 92 be ac 3c 9d d2 96 3c c7 d5 7b 3c 6d b5 8a 3c
       0.021086965 0.018410975 0.015370793 0.016932214
0000e0 e7 e7 03 3d ef 6b e6 3c dd 1b cb 3c e9 ff cc 3c
       0.03220358 0.028127639 0.02479356 0.025024371
0000f0 fc a3 b1 3c ee 2b e0 3c 8e fe 93 3c 66 94 ea 3c
       0.02168464 0.027364697 0.018065717 0.028635215
000100 aa a1 13 3d 95 4b 26 3d f5 16 be 3c 55 23 0d 3d
       0.036042847 0.040599424 0.023204306 0.034457523
000110 cd b6 e6 3c 3c 09 d5 3c 90 9d d3 3c 97 59 0b 3d
       0.028163338 0.02600538 0.025831968 0.034020986
000120 bc ab cd 3c e6 53 8d 3b 98 fe 3f 3d 40 c0 0c 3d
       0.025106303 0.00431298 0.04687366 0.03436303
000130 f2 ab da 3c 6e 29 8b 3c 4a a5 b3 3c c4 d5 06 3d
       0.026693318 0.016987529 0.021929402 0.032918707
000140 9d 90 ef 3c fd f6 ee 3c 45 bc b2 3c e5 a4 d6 3c
       0.029243762 0.029170508 0.02181829 0.026201675
000150 df fa 85 3c 74 6f 2f 3c 00 8a 4b 3c 8a e4 98 3c
       0.016354976 0.010707725 0.0124230385 0.018663663
000160 50 a0 62 3c b6 90 94 3c 38 a1 99 3c c3 b5 3f 3c
       0.013832167 0.01813541 0.018753633 0.01170105
000170 b3 8a 36 3c 86 86 19 3c 9d d4 34 3c 88 da 34 3c
       0.011141467 0.009370452 0.011037019 0.01103843
000180 81 12 43 3c 7c 31 71 3c 69 b0 01 3c 92 e5 bb 3b
       0.011906267 0.014721271 0.007915595 0.005734154
000190 dc eb 9c 3b cd e9 8f 3b 4a 26 9c 3b 81 2c ad 3b
       0.004788859 0.004391885 0.0047653066 0.0052848463
0001a0 c9 59 d3 3b 9e 99 e5 3b df 00 91 3b 03 5e 4d 3b
       0.006449912 0.007006838 0.0044251527 0.0031336553
0001b0 72 32 4a 3b 89 68 3a 3b fe d4 70 3b 08 da 9d 3b
       0.0030852822 0.0028443655 0.0036748047 0.004817251
0001c0 9f 27 a9 3b b7 a9 81 3b a1 85 68 3b 7e c9 35 3b
       0.005162194 0.003956999 0.003548004 0.0027738507
0001d0 b4 03 25 3b 51 ca 3b 3b 1d ed 81 3b 6a 17 d2 3b
       0.002517921 0.0028654526 0.0039650337 0.0064114826
0001e0 f3 c2 67 3b 40 11 da 3a 85 69 31 3b f7 ea 14 3b
       0.0035364002 0.0016637221 0.0027070951 0.0022723058
0001f0 b2 3a 97 3b 36 c9 8a 3b 91 81 bb 3b 0c 58 b1 3b
       0.0046151513 0.004235412 0.0057222326 0.0054121073
000200 ea 34 53 3b 4c 62 ec 3b ae 03 07 3b c4 ce 8e 3b
       0.0032227584 0.0072138663 0.0020601558 0.0043581445
000210 59 6b ac 3b 85 11 df 3b ae 56 b8 3b 12 35 74 3b
       0.0052618203 0.0068075084 0.0056255674 0.0037263078
000220 cc 96 9c 3b 4c 71 ad 3b c5 8e f1 3b 0c 96 e1 3b
       0.0047787186 0.005293047 0.007371756 0.006884342
000230 a2 65 cf 3b 78 82 c4 3b 62 2e b4 3b 11 5b a3 3b
       0.0063292542 0.0059969984 0.0054986933 0.004985221
000240 95 ad b8 3b 0a 9f cb 3b 83 4a 06 3c 62 50 54 3c
       0.005635927 0.0062140273 0.008196476 0.012958618
000250 c7 3e 21 3c 79 7a 1a 3c 5a 59 12 3c b0 49 f3 3b
       0.009841627 0.009428614 0.008932436 0.0074245557
000260 02 44 fb 3b 40 85 df 3b a3 3a 43 3c 97 d4 5c 3c
       0.0076680193 0.0068213046 0.011915836 0.01347842
000270 12 0e 36 3c cb b2 34 3c 4c 69 11 3c ac 05 26 3c
       0.011111753 0.011028956 0.008875202 0.010133188
000280 dd 80 0b 3c 2e 7b 52 3c 7c e9 43 3c 0c 6d f6 3b
       0.00851461 0.012846751 0.0119575225 0.0075203236
000290 0f d1 15 3c 8f 90 1b 3c 6b c2 3c 3c 97 c3 dc 3b
       0.009144082 0.009494915 0.011520962 0.0067371833
0002a0 f1 1a 0f 3c 2a 80 0f 3c ca c7 91 3c 0e c4 cc 3b
       0.008734451 0.008758584 0.017795462 0.0062489575
0002b0 49 b1 1f 3c e2 ec 48 3c a8 58 35 3c d1 64 04 3c
       0.009746858 0.0122635085 0.011068501 0.008080677
0002c0 a6 9a 04 3c 5c b2 0e 3c ad 72 5c 3b db 81 2a 3c
       0.008093512 0.008709516 0.0033637688 0.0104069365
0002d0 5d 29 16 3c b8 d9 25 3c 34 f3 b9 3b 9e 9a bb 3b
       0.009165135 0.010122709 0.005674744 0.005725219
0002e0 31 1e d4 3b d8 ea ea 3b 45 89 1c 3c 9f 22 e9 3b
       0.0064733257 0.007169109 0.009554212 0.007114723
0002f0 23 68 0a 3c 52 24 b1 3b 2f 96 96 3b 29 66 9d 3b
       0.00844768 0.005405941 0.00459554 0.004803438
000300 91 ee ca 3b 6e 2d bb 3b b3 18 ed 3b 30 ff ee 3b
       0.00619299 0.0057122028 0.0072356104 0.0072936043
000310 bf 61 6f 3c eb f7 60 3c 33 c1 4c 3c 44 77 26 3c
       0.014610707 0.013730983 0.012497234 0.010160271
000320 f5 69 4c 3c 67 38 49 3c 5e 3d 2f 3c 80 b7 8e 3c
       0.012476434 0.012281514 0.010695783 0.017421484
000330 eb 29 a9 3c 0d a2 84 3c 9f cd 91 3c 82 b5 5c 3c
       0.02064987 0.016190553 0.017798243 0.013471009
000340 3e fb 6b 3c ee f5 86 3c 41 de 9e 3c 69 6e 8a 3c
       0.0144031625 0.01647469 0.019393088 0.01689835
000350 10 6b b3 3c 04 5d eb 3c a8 bb d5 3c d1 74 a2 3c
       0.021901637 0.028730877 0.026090458 0.019831093
000360 dd 60 a1 3c af 06 82 3c 7c 12 e7 3c 95 6b 08 3d
       0.019699508 0.015872328 0.028207056 0.033305723
000370 61 14 28 3b 96 b5 95 3c 66 1f e9 3c 0f 63 a8 3c
       0.0025646912 0.018275063 0.028457355 0.020555047
000380 de f3 53 3c 3e f8 48 3c d1 69 bf 3c 55 cb 94 3c
       0.01293656 0.012266217 0.023365887 0.018163363
000390 5e e0 a8 3c a5 fd b2 3c 08 6f ad 3c a4 d9 2a 3c
       0.0206148 0.021849463 0.021171108 0.010427866
0003a0 f7 0a 30 3c ba 44 2a 3c 60 43 8a 3c 75 40 7a 3c
       0.010744802 0.010392362 0.01687783 0.015274157
0003b0 b9 76 82 3c a0 78 8d 3c 3e 16 fa 3b e4 fc 04 3c
       0.015925752 0.017269433 0.007632046 0.008116934
0003c0 fe 58 f8 3b 3b 7a 30 3c e5 3c 1e 3c 6c 3d 4c 3c
       0.007578968 0.0107713295 0.009658073 0.012465816
0003d0 5f 9e 42 3c 22 5e 7c 3c cc b2 50 3c fa 33 4d 3c
       0.011878579 0.015403302 0.012737941 0.012524599
0003e0 c5 8d 67 3c 44 60 35 3c b4 9a 55 3c 1c 14 40 3c
       0.014132922 0.011070315 0.013037372 0.011723544
0003f0 ba 7e 62 3c 20 66 71 3c ed 25 53 3c cb 49 33 3c
       0.013824159 0.014733821 0.01288746 0.010942887
