trained_models/Sigma_5_t_1/checkpoints/checkpoint_5.pth (torch, 172332 bytes, 10 tensors)

conv_layer.conv_layers.0.parametrizations.weight.original f4 [8, 1, 7, 7]
000000 2d 2b 00 3d 0b e9 96 3d c1 ea 41 bc 8f 01 18 3e
       0.031291176 0.07368668 -0.011835755 0.14844345
000010 bc 7f 50 bd 18 86 15 3d f7 c8 99 bb 23 9c 68 3c
       -0.050903067 0.036504835 -0.0046931463 0.014197382
000020 5a dd b1 3d b4 a4 95 bd ae a6 37 3e 7e 5e 4e 3d
       0.086847976 -0.07306805 0.17934677 0.050383084
000030 b8 61 d9 3d 56 4d 9e 3c af 7b 90 3c 3a fe 95 bd
       0.106143415 0.019323986 0.017637102 -0.073238805
000040 6c 67 1b 3e 37 4c 01 3e 47 13 2e bc 8d d5 82 3c
       0.15176171 0.1262673 -0.010624713 0.01597097
000050 03 c1 20 bd a2 f4 0d 3c ce 2e 3a bd 11 ea 29 3e
       -0.03924657 0.008664282 -0.045454793 0.16593195
000060 38 c9 c7 be c8 6d 27 bd 7d f3 15 bd ec 73 14 bd
       -0.39020705 -0.04087618 -0.03660916 -0.036243364
000070 b5 b5 1e 3d 40 5a c7 bd 74 a0 27 3e ff 3f 2c be
       0.038747508 -0.09734011 0.16369802 -0.16821288
000080 ef 06 37 3e 04 1e 36 3d c4 6e 00 bc 46 35 a5 3c
       0.17873739 0.04446222 -0.007838909 0.020167004
000090 aa 3b 33 3d 9c 80 f5 3c 31 d2 a8 3d ff c4 ba bb
       0.043758072 0.029968552 0.08243216 -0.0056997533
0000a0 75 64 87 bc 13 a4 63 3d 8d c0 20 3c ff ee 05 3d
       -0.016527394 0.055576395 0.009811533 0.032698628
0000b0 ae 94 45 3d 0f 5e 65 bd 25 de 8e 3d 71 8c 97 3c
       0.048237495 -0.055997904 0.069759645 0.018499585
0000c0 97 53 29 3d ee ee 0d bd ec 77 81 bd 63 0a bb bc
       0.041339483 -0.03465169 -0.063217014 -0.022832101
0000d0 9d 56 06 be d5 11 93 3d 63 b1 3b 3d 22 57 06 bc
       -0.13118978 0.071811356 0.045823466 -0.008199485
0000e0 2b 8c fb 3c 4d 8c 9f bb 3d 63 f6 3d 28 bd 07 be
       0.030706486 -0.00486902 0.12030647 -0.13255751
0000f0 a4 35 47 3b 2f 53 a5 bd 01 f5 86 3c 21 fb 78 bd
       0.0030396963 -0.08072507 0.016474249 -0.06078637
000100 7d 25 d2 bc 33 e3 b6 bd 55 01 66 3e 12 0e e9 bc
       -0.025652641 -0.089300536 0.22461446 -0.028449092
000110 97 ef 28 bd 5c c7 46 bd 53 8c cb 3d 7c e4 c8 3d
       -0.041244116 -0.048529968 0.09938874 0.09809205
000120 c3 30 5f 3e 35 df d5 be 76 38 52 be b5 74 8e bd
       0.21795945 -0.41771856 -0.2052935 -0.06955854
000130 e7 a2 b4 bc ba 90 34 3c 9a 79 34 3d da 51 28 3e
       -0.022050334 0.011020834 0.04406128 0.16437474
000140 46 8e 1b bc 40 19 1a bd f8 c3 68 3d 77 da 09 bc
       -0.00949437 -0.037621737 0.056827515 -0.0084139025
000150 c4 60 79 3c fb c0 33 bd 3b a1 3a 3d e5 97 8c bd
       0.015220825 -0.043885212 0.045563918 -0.06864909
000160 ab 57 63 bc e0 0b af bc f5 80 04 3d 45 4d 13 bd
       -0.013875882 -0.021367967 0.032349546 -0.03596236
000170 44 13 41 3c a4 f7 44 3d 46 7e 9b bd 85 05 80 3b
       0.011784378 0.04808773 -0.07592444 0.003906908
000180 cb 88 fe 3c d0 9c 51 bc 13 9b a8 bc ae 64 91 bd
       0.031071087 -0.012793735 -0.020581758 -0.07099281
000190 a9 6a ac bd 2d b6 29 3c 58 b8 0b bd cb 7d e6 bd
       -0.08418781 0.0103583755 -0.03411135 -0.11254462
0001a0 6a fe 0f bd 29 b5 82 bd 2a 2f ab bd af 8b 8b bd
       -0.035154738 -0.0638221 -0.08358605 -0.06813752
0001b0 30 85 2e be 6d fa 8d bd b0 87 9e 3d 63 5e 98 3b
       -0.17042994 -0.069325306 0.07740724 0.0046499236
0001c0 44 b7 98 bc 29 fc 9b bd 93 1b a6 bd 23 c8 79 bd
       -0.018642075 -0.07616455 -0.08110728 -0.06098188
0001d0 28 ed 92 3d 75 fe 16 be d2 02 6e bd cb 54 1b bd
       0.0717414 -0.14745505 -0.05810816 -0.03792266
0001e0 8f 23 22 3c 0b e1 8c bd ff 30 c2 bd 5b fb 36 bd
       0.009896173 -0.06878861 -0.094820015 -0.044673305
0001f0 d5 08 c1 bd b0 7f 27 bd ef f3 13 bd 91 f0 08 be
       -0.09425513 -0.040893257 -0.036121305 -0.13373019
000200 53 d9 18 3e 29 bd 2d 3d c4 a1 42 3e d6 7f 17 3d
       0.14926653 0.042416725 0.19007021 0.03698715
000210 b9 0e aa bd 86 05 18 bc b1 6d 4d bc 65 bb 17 bd
       -0.083035894 -0.009278661 -0.0125383595 -0.037043948
000220 f3 45 0d be 20 f9 dd bd 92 8c 58 3d 2d c2 cd bc
       -0.13796215 -0.108385324 0.052868433 -0.025117004
000230 e5 95 47 bd e4 5a 60 bd d0 9b 83 3c 3c 30 c0 bd
       -0.048726935 -0.05477418 0.016065508 -0.093842
000240 bd 15 64 bc fa 7e 4b bd 39 82 c2 bc f4 59 12 3c
       -0.013921198 -0.04968164 -0.023743736 0.008932579
000250 43 40 e0 3d 87 99 ff bd 2c bd 5a 3c d5 e3 0c bd
       0.10949757 -0.12480455 0.013350766 -0.034396965
000260 46 45 20 3b e5 77 af bc 79 c4 07 3d d2 22 41 bd
       0.0024455353 -0.021419475 0.033146355 -0.047152348
000270 dc 18 f8 3d 8e 2c 8a 3d 49 c1 0e 3c 81 b9 07 bd
       0.121141165 0.067467794 0.008713075 -0.033135895
000280 07 e6 58 3d f7 cc 89 bb 14 50 c5 3c cb 52 de bd
       0.052953746 -0.004205342 0.024086036 -0.10855635
000290 35 e2 89 3d 7f e6 93 bc 49 2b 2e bd 41 9c 0b 3e
       0.06732599 -0.018054245 -0.04252175 0.13633825
0002a0 c1 e1 a7 bb de 8f 33 bd 87 ac 99 bd 38 70 7a bd
       -0.0051233475 -0.043838374 -0.0750361 -0.061142176
0002b0 bf 38 cc 3d 91 f0 33 bd 5e b8 d5 bd 6d 06 af 3b
       0.09971761 -0.043930594 -0.10435556 0.005341342
0002c0 d9 a4 86 bd ab 8e bc 3d 8b 54 67 3e 3c 35 07 be
       -0.06574411 0.09206899 0.22590844 -0.13203901
0002d0 22 9f 05 3d 2c 05 5b 3d 71 2f 60 bc 3d 58 0e bd
       0.032622464 0.05347173 -0.013683186 -0.03475212
0002e0 fd 58 58 3d 25 fd 20 3d a7 4a 70 3d 18 db 06 3b
       0.05281924 0.039303917 0.058664944 0.0020577367
0002f0 43 ce 5e bd 97 68 5c 3c 10 a9 da 3a 26 64 d3 38
       -0.054395925 0.013452671 0.0016682465 0.00010079918
000300 eb 8f 6b 3d 56 c2 68 3c 7a 0a d4 b9 2d 2c f5 bb
       0.057510298 0.01420649 -0.00040443597 -0.007482073
000310 ab bf 04 bd 25 33 d3 bc 21 d5 73 3d 5c c1 4e 3d
       -0.03240935 -0.025781224 0.059529427 0.05047737
000320 93 b0 22 bd 24 13 0b bd 5a 69 09 bc 19 2a 58 bb
       -0.039719176 -0.0339538 -0.008386934 -0.0032984077
000330 50 62 df bc e2 e7 ef bc 93 ba 8c bd 1c 9e b1 bd
       -0.027268559 -0.029285375 -0.06871524 -0.08672735
000340 e7 e4 89 bc be 49 f6 bc d9 56 12 3d b7 ab 45 3d
       -0.016832782 -0.03006446 0.035727356 0.048259463
000350 0b 7f b7 bd 37 65 a7 bd 9a 0c 82 3d 3c c0 18 3e
       -0.089597784 -0.08173602 0.0635006 0.14917082
000360 a8 8c 57 bc 88 fd 35 bd 46 6c af 3d b9 a9 db bd
       -0.013156094 -0.04443124 0.085655734 -0.107257314
000370 70 15 e9 be e1 23 32 3e d3 d0 78 3c a3 ad bc 3c
       -0.45524168 0.17396499 0.015186506 0.023032015
000380 51 84 f7 bd 92 52 e8 3c a5 60 04 3e 73 ed db 3d
       -0.12085784 0.028359685 0.12927492 0.10738649
000390 3d 49 1c be 96 3d bc bd fc ca 26 bd d7 b0 45 3d
       -0.15262313 -0.09191434 -0.040720925 0.04826435
0003a0 c0 1f 35 bc 44 3d c6 3d 2d 0a 8b 3d d7 aa b5 bc
       -0.011054933 0.09679654 0.0678905 -0.02217619
0003b0 a2 cb 9d bb 7b a3 04 bd 9b 48 2e bd db 49 ee bd
       -0.0048155347 -0.03238247 -0.04254971 -0.116351806
0003c0 5f 4a 94 3c 72 2e 90 bd a0 1f 19 bd d9 90 2b bd
       0.01810187 -0.07040109 -0.037383676 -0.041886184
0003d0 0a d0 50 bc 51 c4 07 bd 84 2b 77 bd 05 a8 5b 3d
       -0.012744913 -0.033146206 -0.060344234 0.053627033
0003e0 16 ed 0d bd b1 dd 68 3d 51 e4 41 bd 26 3e 3f bd
       -0.03464993 0.056852046 -0.04733688 -0.04669013
0003f0 2d a2 e2 bc 8e 59 aa bd b3 6f af bd 01 90 e2 bd
       -0.027665222 -0.083178625 -0.08566227 -0.11062623

conv_layer.conv_layers.1.parametrizations.weight.original f4 [32, 8, 7, 7]
000000 32 bb ff 3b bc e5 1e bb 35 64 cf b9 64 b1 2e 3b
       0.007804298 -0.002424582 -0.00039556777 0.0026656026
000010 88 dd b7 bc 49 3c a1 bc 6c 17 10 3c 19 b2 c5 bc
       -0.022444502 -0.019682067 0.008794647 -0.024132775
000020 f6 59 22 bc 6f fd 5f 3c e5 53 94 3b 67 de 8a 3c
       -0.009909144 0.013671263 0.0045266026 0.016951753
000030 f7 17 2d bd 22 75 0f bd 1f 3f 19 bb 02 1e 40 bc
       -0.042259183 -0.035023816 -0.002338357 -0.011725904
000040 1c f8 d8 bc a8 5c b2 3d 20 83 a5 3c 07 48 b2 bb
       -0.026485495 0.08709079 0.020204127 -0.0054407152
000050 ee 2a b6 3c 00 c3 9a 3d 3c 78 0c 3d aa 64 e5 bd
       0.022237267 0.075567245 0.034294352 -0.11200841
000060 79 85 f1 3d a6 e8 e4 3d 27 76 23 bd bf 3d 6f bc
       0.11793036 0.11177187 -0.0399076 -0.014602124
000070 95 62 a3 3d 7b ef 0e 3c ff a7 f0 bd 35 cc ce 3d
       0.079777874 0.008724089 -0.11750793 0.10097543
000080 a5 82 42 3e d6 76 cf bc 40 a8 8f bd dc c8 8c 3d
       0.1899515 -0.02532522 -0.07014513 0.068742484
000090 d9 68 b3 3d 18 9e 61 bd 07 fd 49 3d e3 d4 b2 bc
       0.087602325 -0.05508241 0.04931357 -0.021830028
0000a0 7f ac a9 bd bc 69 30 bd 43 76 49 bd 79 b7 83 3d
       -0.08284854 -0.043069586 -0.04918505 0.06431479
0000b0 5e 89 ad bc 07 96 03 bc 39 b2 5f bc 69 8f 51 bd
       -0.021183666 -0.008031375 -0.013653331 -0.051162157
0000c0 93 c2 a5 bc 5c ac 0f 3c 11 e9 17 bc df 22 60 3d
       -0.020234382 0.008769121 -0.009271876 0.054720756
0000d0 2e a5 1f bd 1f d4 95 bc 7d 7d 06 3c 49 40 33 3d
       -0.038975887 -0.018289624 0.00820863 0.04376248
0000e0 63 a9 95 3c 50 85 82 3c 32 48 13 3d f2 61 bb bc
       0.018269246 0.015932709 0.035957523 -0.022873852
0000f0 da 50 8f 3c 40 6f 03 3d bc ac 4b 3b 25 be 7b 3c
       0.017494608 0.03208852 0.00310783 0.015365158
000100 28 f0 2c 3c 23 31 10 3d e3 f4 ba 3d e4 12 b3 3d
       0.010555305 0.03520311 0.0912874 0.087438375
000110 65 1d d8 3c 05 53 8e bc ae c1 d8 b9 c1 ec 94 3c
       0.026381204 -0.017373571 -0.00041343033 0.0181793
000120 87 9b ca bb 27 15 6b 3e c7 32 72 3e 47 51 6c 3d
       -0.006183091 0.22957288 0.23652183 0.0576947
000130 97 42 f9 3c 98 4c 81 3b 50 ad 4f 3d d2 68 83 bc
       0.03042726 0.0039458983 0.050702393 -0.016041193
000140 9e 6a 85 3e a0 0e 92 3e d4 0a d9 3d ff 89 af 3d
       0.26057905 0.28526783 0.105977684 0.085712425
000150 0c 3c c6 3c 44 5e 3b 3d 52 94 98 3b bc 9e fe 3c
       0.024198554 0.045744196 0.004656353 0.03108155
000160 4f 17 34 3e 0c 63 5e 3d 4d d0 50 3d 87 c4 f7 3c
       0.17587017 0.054293677 0.0509799 0.030245079
000170 00 81 3a bd a7 e4 20 3d de b3 8b bc 82 16 f4 3c
       -0.04553318 0.03928056 -0.01705354 0.029795889
000180 e3 7e e4 3c 1e 27 42 bc 58 1e 13 bd 69 d1 b7 3c
       0.027892536 -0.011850147 -0.03591761 0.022438722
000190 f2 66 ac 3c 3c c7 3c bc ae 09 4b bd dc 59 a2 bc
       0.021045182 -0.011522111 -0.04956978 -0.019818239
0001a0 ea 40 9b bb e7 04 4d 3c be a3 ea bb a6 16 c5 bc
       -0.004737963 0.012513376 -0.007160633 -0.024058651
0001b0 32 e5 2d bc b1 c3 65 bd e2 9e b9 bc 7a e5 ef 3c
       -0.010613726 -0.05609483 -0.022658769 0.029284228
0001c0 a3 18 f4 3b 15 b6 b8 bd 90 b8 05 be 1c 97 b5 3a
       0.007449226 -0.090191044 -0.13058686 0.0013854238
0001d0 12 d3 95 bc f8 5d b5 bb 9f 3a a0 3a 31 9f 20 bd
       -0.018289123 -0.0055348836 0.0012224502 -0.039214317
0001e0 f3 bf 81 bd 3a 37 cc bd 3c 82 be 3c e2 9f 2a bd
       -0.063354395 -0.09971471 0.02325546 -0.041656382
0001f0 c4 e8 b6 3c 98 75 ea bc 62 12 3e 3d 40 b7 d7 bd
       0.022327788 -0.028620526 0.04640425 -0.10532999
000200 05 e9 83 bd 06 19 0a 3d b2 c7 65 bd bf 79 77 bd
       -0.06440929 0.03371527 -0.056098647 -0.06041884
000210 e3 2e 3a 3d 2d 68 9a 3c 20 a1 2a bd 0c b9 51 3b
       0.04545487 0.018848503 -0.041657567 0.0032001166
000220 a4 73 92 bb 05 ee 9e bd 27 cb 4b bd c4 99 8b 3b
       -0.004469352 -0.077602424 -0.049754288 0.0042602737
000230 3c 76 84 3d 4d 67 e3 bd 48 84 d5 bc ed 5c 69 3c
       0.06467864 -0.111036874 -0.026064053 0.014243347
000240 ab f4 59 bd 79 1f 93 bd 24 8e 17 bc 4b 50 b1 bc
       -0.05321185 -0.07183737 -0.009250198 -0.021644732
000250 1f ef 35 bd ac ae da bc d3 07 fa bc 39 58 1a bc
       -0.044417497 -0.026694618 -0.030521309 -0.009420448
000260 48 66 26 3c 24 70 c0 3b 84 45 c9 3b e6 75 a3 bb
       0.010156222 0.005872743 0.00614232 -0.00498842
000270 11 04 33 3c f2 2b 06 bd bb 4c 65 bb 0f 93 6c bc
       0.0109262625 -0.032756753 -0.0034988362 -0.014439358
000280 7b 99 5d bb 1d 96 15 bb 8d 3e 4b 3d 67 c5 15 3d
       -0.0033813405 -0.002282507 0.0496202 0.03656521
000290 ff be 8c bd b0 4e fb bd 8e ef 12 bd 37 5b 02 bc
       -0.06872367 -0.12270868 -0.03587299 -0.007956318
0002a0 b6 18 b2 bb 20 5c af 3d ea ec d8 3d f0 61 d6 bd
       -0.0054350747 0.08562493 0.10592063 -0.10467899
0002b0 88 cb 77 be ef 26 f0 bd ef 16 38 bd ea 9c ef 3b
       -0.24198735 -0.11726176 -0.044943746 0.007312407
0002c0 98 b9 c7 bc 50 55 04 bc 4e 8d f2 bd c7 b9 6e be
       -0.02438049 -0.008076981 -0.11843358 -0.23313056
0002d0 46 9b d3 bd 34 2a 06 bc 8d 5c aa 3c 9f 85 5e bd
       -0.103323504 -0.008188773 0.020796085 -0.05432665
0002e0 20 8a 74 bd 45 10 c2 bc c1 67 b6 bd 70 2a a0 bd
       -0.05970204 -0.023689399 -0.08906508 -0.07820594
0002f0 4a bd 9a 3c 27 6f 65 3d f8 06 d6 3c 4f da b6 bb
       0.018889088 0.056014206 0.02612637 -0.0055802236
000300 fa 8f 57 3d c1 39 e3 ba b7 ce e5 bc 5b d6 0e 3c
       0.05262754 -0.0017335938 -0.02805267 0.0087180985
000310 a4 74 34 bc 0d 1a ca bc 2c bf 4d bd d3 57 38 bd
       -0.011014137 -0.024670625 -0.050231144 -0.04500563
000320 25 b0 c9 bc 27 81 cf 3c cd 7a 6b bc fe 2a 1b bd
       -0.024620125 0.02533014 -0.01437254 -0.037882797
000330 65 00 29 bc d6 65 a4 bd b2 a3 33 bd 4f b9 b0 bc
       -0.0103150355 -0.08027236 -0.043857284 -0.021572737
000340 f4 a0 d0 bc 39 0b 26 bd fe 75 26 bd a9 84 19 bd
       -0.025467373 -0.040538047 -0.04063987 -0.03748003
000350 2a e6 04 3d 5a f8 8a bc 34 fe d2 bc f6 fc 48 bc
       0.032446064 -0.016964126 -0.02575598 -0.012267342
000360 67 43 65 bc 95 98 99 bc 6b 2c ad bc d2 e7 2c bd
       -0.013993121 -0.018749515 -0.021139344 -0.04221327
000370 bd 77 e3 3d ae 48 1c 3e 62 30 7f bd 24 71 45 bd
       0.11106823 0.152621 -0.062302 -0.048203602
000380 e1 ad 3a bd ea be 8f bd af b5 2e bd 19 99 19 3d
       -0.04557598 -0.07018836 -0.042653736 0.03749952
000390 67 29 ea 3d 67 d2 52 3d 16 0c 86 bb 22 96 0c bd
       0.11433678 0.051470187 -0.004090796 -0.034322865
0003a0 ee b2 b3 3b 27 43 8d bd 7e 1e 42 3a 4d 92 b1 3d
       0.0054839766 -0.06897574 0.00074050564 0.08670483
0003b0 d8 77 63 3c 72 2e 22 3d 5e c9 0d bd 67 3c 78 3c
       0.013883553 0.039595075 -0.034615867 0.01515112
0003c0 63 6e a0 3c e6 05 22 3d 11 30 2d bd 0a 1a 0a bd
       0.019583886 0.039556406 -0.042282168 -0.03371624
0003d0 a0 c9 29 3c 49 c9 d9 bb 8a 01 cb bb 89 f4 88 bd
       0.010363013 -0.0066463095 -0.006195252 -0.066872664
0003e0 f7 59 8c bc 3f 91 8a 3c 3c c1 32 3d d3 aa bf 3a
       -0.017132742 0.016914962 0.043641314 0.0014623053
0003f0 e5 56 7a bb 42 db 5d 3b 1a 70 86 bd e7 c6 10 bd
       -0.0038198766 0.0033852612 -0.065643504 -0.035345938

activation.coefficients_vect f4 [672]
000000 00 00 00 80 0b 68 8b 3a e7 ba 2d 3a 42 aa 02 3a
       -0.0 0.0010635866 0.0006627277 0.0004984477
000010 26 72 de 39 e2 4c 98 39 df ce 99 b8 bf 7f e4 b8
       0.00042428187 0.0002904898 -7.334141e-05 -0.00010895682
000020 a8 81 02 b9 a0 ec 84 b9 70 c3 80 b6 88 8c 5b 39
       -0.00012446067 -0.000253533 -3.837449e-06 0.0002093782
000030 35 14 29 39 5c 7f fd b7 6e 80 3a b9 92 88 7f b9
       0.00016124624 -3.0219257e-05 -0.00017786186 -0.00024369571
000040 1b 7d 94 b9 08 78 b1 b9 7f 40 12 ba ae 9e 4a ba
       -0.0002832197 -0.000338495 -0.00055790687 -0.00077293336
000050 00 00 00 00 00 00 00 80 93 23 19 3a 4d 93 d2 39
       0.0 -0.0 0.0005841788 0.0004016407
000060 06 9b ac 39 84 53 60 39 09 b7 2c 39 4c df e3 b7
       0.00032921898 0.00021393417 0.00016471384 -2.716449e-05
000070 2e 33 3e b8 81 8d e1 b8 3b ff cc b9 a6 4e 9c b8
       -4.5347195e-05 -0.00010755193 -0.00039100074 -7.453309e-05
000080 f8 1e 8a 39 46 e0 14 39 7e 6c 92 38 78 1b 6f 37
       0.00026344485 0.00014197928 6.982031e-05 1.4251906e-05
000090 f2 a4 41 b9 34 9b b7 b9 3f 94 d7 b9 fe e6 00 ba
       -0.00018467361 -0.00035020115 -0.00041118448 -0.0004917233
0000a0 27 8a 80 ba 00 00 00 00 00 00 00 80 91 7c 8e 39
       -0.0009806798 0.0 -0.0 0.0002717716
0000b0 ce e8 0e 39 4c ab cf 38 24 fc aa 38 0a f4 37 38
       0.00013628902 9.902436e-05 8.1531965e-05 4.385788e-05
0000c0 ce 9e f4 37 48 c7 43 b8 6c e6 2f b9 1c 88 c2 b9
       2.9161016e-05 -4.6677218e-05 -0.0001677514 -0.00037103973
0000d0 e5 e7 46 b7 30 1e a7 39 87 ab 77 39 42 be 7a 38
       -1.1855712e-05 0.00031875214 0.00023619655 5.9781836e-05
0000e0 d5 5c 35 b8 0d 0b 8c b8 4c 93 d6 b8 94 04 79 b9
       -4.324022e-05 -6.6777786e-05 -0.000102317514 -0.00023748196
0000f0 3e bf 83 b9 1f a1 cc b9 00 00 00 00 00 00 00 80
       -0.00025128754 -0.00039029957 0.0 -0.0
000100 2a 6b 80 3a 58 a4 5f 3a f8 04 0d 3a dd fd e2 39
       0.0009797562 0.0008531264 0.00053794635 0.00043295222
000110 8c fb b7 39 36 b5 b2 39 ce a8 7a 39 e0 ce b0 38
       0.00035091897 0.00034085818 0.00023904743 8.4308675e-05
000120 70 4f 76 38 e3 d1 0c 38 5e ab b3 b7 09 d4 86 b8
       5.8724952e-05 3.3574073e-05 -2.1418262e-05 -6.4291125e-05
000130 b4 9b f8 b8 b4 4d 2c b9 df c6 ae b9 c3 17 ea b9
       -0.000118545635 -0.00016432145 -0.00033336037 -0.00044649662
000140 14 07 26 ba d8 7f 3d ba b5 5b 83 ba 00 00 00 00
       -0.0006333452 -0.0007228828 -0.0010021838 0.0
000150 00 00 00 80 a8 36 80 39 3b 4c 55 39 35 f4 50 39
       -0.0 0.00024454785 0.00020341661 0.000199274
000160 30 62 40 39 34 b2 1f 39 41 a4 d7 37 07 5d 9f b6
       0.00018347125 0.00015229807 2.5706484e-05 -4.749399e-06
000170 ff 63 2c b7 12 46 71 b7 a5 a2 d9 b7 d7 b3 ec b7
       -1.0275281e-05 -1.4381034e-05 -2.5944153e-05 -2.8217137e-05
000180 5e cf 0f b8 1a 1b 10 b8 1c 19 82 b8 b3 c4 c0 b8
       -3.4286983e-05 -3.4357516e-05 -6.20356e-05 -9.1919115e-05
000190 05 72 cc b8 92 86 fc b8 50 56 29 b9 58 94 42 b9
       -9.748716e-05 -0.00012041362 -0.0001614925 -0.00018556544
0001a0 00 00 00 00 00 00 00 80 30 e3 53 39 6c ee 37 39
       0.0 -0.0 0.00020207162 0.00017541059
0001b0 cc 01 11 39 f7 97 04 39 fb 9b d6 38 5a 42 b5 38
       0.00013828947 0.00012645112 0.00010233369 8.6431115e-05
0001c0 53 a1 99 38 fe db 8e 38 ad 3b 0a 38 1a a8 ac 37
       7.3256575e-05 6.8120644e-05 3.295734e-05 2.0582276e-05
0001d0 c0 88 09 b8 b0 56 8e b8 4f e6 92 b8 32 1d 1a b9
       -3.2790704e-05 -6.7872345e-05 -7.004721e-05 -0.0001469746
0001e0 e5 b7 47 b9 58 f1 5b b9 c5 18 77 b9 e9 fe 8f b9
       -0.00019046625 -0.00020975375 -0.00023564983 -0.00027465008
0001f0 54 7b 0d ba 00 00 00 00 00 00 00 80 f9 71 27 3a
       -0.00053971005 0.0 -0.0 0.00063875277
000200 94 00 c0 39 d8 68 b4 39 06 81 96 39 df f1 74 39
       0.00036621524 0.0003441039 0.0002870636 0.00023359757
000210 30 14 58 39 0e 01 78 38 8d 9a 21 35 9d 37 80 b6
       0.00020606886 5.912879e-05 6.0202075e-07 -3.8211715e-06
000220 10 51 38 b7 0d 39 1e b8 75 49 8d b8 29 00 8f b8
       -1.09861285e-05 -3.7723268e-05 -6.7370864e-05 -6.818801e-05
000230 0c 90 c9 b8 8b ae d9 b8 2b 28 39 b9 9b cf 05 ba
       -9.611258e-05 -0.000103798775 -0.00017657939 -0.0005104483
000240 64 4e 48 ba de fe 92 ba 00 00 00 00 00 00 00 80
       -0.00076410756 -0.0011214872 0.0 -0.0
000250 d4 00 0b 3a 48 e2 bd 39 85 db 81 39 25 ec 13 39
       0.00053025526 0.00036217482 0.00024768352 0.00014106983
000260 98 72 11 39 92 98 07 39 0d f3 da 38 13 85 84 38
       0.00013870967 0.0001293144 0.00010440322 6.3190375e-05
000270 f5 73 2d 38 fa 42 96 36 0d f9 e2 35 99 aa 59 b8
       4.1354408e-05 4.4781455e-06 1.6910795e-06 -5.1895713e-05
000280 6d 00 9d b8 47 6a 09 b9 09 ae 1a b9 21 8b 6d b9
       -7.486423e-05 -0.0001310493 -0.00014751418 -0.00022653911
000290 a3 2d 72 b9 72 65 e1 b9 b8 20 24 ba 00 00 00 00
       -0.0002309592 -0.00042990927 -0.0006260979 0.0
0002a0 00 00 00 80 ae d4 be 39 b6 cb 52 39 e3 3d 42 39
       -0.0 0.00036398083 0.00020103049 0.00018524336
0002b0 97 e3 89 38 d1 3f 2c b8 fa 5b e7 b8 12 93 70 b9
       6.575061e-05 -4.106743e-05 -0.0001103207 -0.00022942972
0002c0 ba c0 7a ba a5 9b fe b9 d6 24 bd b8 04 da b2 39
       -0.00095654617 -0.0004856262 -9.0190835e-05 0.0003411324
0002d0 8d 68 4c 3a b0 d1 32 39 25 0b a6 38 15 33 7c 37
       0.00077975617 0.00017053518 7.917573e-05 1.5032264e-05
0002e0 92 ee 8b b8 89 2f e2 b8 c1 19 0b b9 83 1c 9d b9
       -6.672474e-05 -0.00010785374 -0.00013265667 -0.00029966616
0002f0 00 00 00 00 00 00 00 80 56 65 07 3b 52 6a 92 3a
       0.0 -0.0 0.0020659766 0.0011170602
000300 4c d3 89 3a 45 ec 27 3a 79 6d b5 39 3c eb 80 39
       0.0010515242 0.00064057513 0.00034604574 0.00024589326
000310 df 4e 3d 39 40 89 25 b8 06 55 45 b9 28 1d 2c b8
       0.00018053826 -3.946689e-05 -0.00018819058 -4.103515e-05
000320 fc 05 00 39 37 95 17 b9 aa 1a a8 b9 30 6a 1a ba
       0.0001220926 -0.00014456069 -0.00032063323 -0.0005890457
000330 8d 32 2b ba 2b f1 6e ba b4 c9 7c ba 78 de cd ba
       -0.0006530665 -0.00091149163 -0.0009643093 -0.001570656
000340 7c 3f 12 bb 00 00 00 00 00 00 00 80 bf f9 14 3a
       -0.0022315672 0.0 -0.0 0.0005682967
000350 c4 8d f1 39 63 3e be 39 ab 6c 9d 39 4b 66 25 39
       0.00046072726 0.00036286106 0.00030026337 0.00015773733
000360 a8 e1 22 39 65 c3 df 38 70 5a 01 38 4f ff 00 b7
       0.00015533587 0.00010669864 3.0840223e-05 -7.688838e-06
000370 1c a1 10 b8 e9 2d 1b b8 d8 b9 8f b8 98 3d ba b8
       -3.448232e-05 -3.6997637e-05 -6.8533875e-05 -8.880644e-05
000380 39 5f ec b8 ba f1 09 b9 db 69 3b b9 62 c0 4e b9
       -0.000112710935 -0.00013155388 -0.00017873144 -0.00019717359
000390 f1 9d 61 b9 a4 50 9f b9 00 00 00 00 00 00 00 80
       -0.0002151651 -0.00030386925 0.0 -0.0
0003a0 8f d0 55 3a fa 18 15 3a 78 eb fa 39 6f c7 7e 39
       0.0008156383 0.0005687621 0.00047859154 0.00024297622
0003b0 58 8a 10 39 86 ea ab 38 35 53 80 38 41 60 1e 37
       0.00013784447 8.197599e-05 6.119014e-05 9.439945e-06
0003c0 a1 12 90 b6 85 b7 0b b8 03 a4 57 b8 a2 0e a8 b8
       -4.293703e-06 -3.33111e-05 -5.1412742e-05 -8.01359e-05
0003d0 5e df b4 b8 d0 d7 f1 b8 17 83 15 b9 b5 34 19 b9
       -8.624674e-05 -0.00011531974 -0.00014258582 -0.00014610852
0003e0 24 45 2d b9 93 4f 48 b9 1a b3 6a b9 00 00 00 00
       -0.00016524323 -0.0001910313 -0.000223827 0.0
0003f0 00 00 00 80 b0 b9 8c 39 fd 23 85 39 8e d8 5f 39
       -0.0 0.0002684123 0.0002539455 0.0002134761

u f4 [1, 1, 20, 20]
000000 60 f6 65 b8 e0 1b 86 3a c0 d1 5b b8 38 48 46 ba
       -5.482731e-05 0.0010231696 -5.2409014e-05 -0.0007563862
000010 80 4e f8 38 45 34 9c 3a 60 11 a6 ba 48 3b 70 3a
       0.00011840183 0.0011917433 -0.0012669973 0.0009164107
000020 f0 f2 ae 3a 78 5d 05 bb b0 02 81 bb e2 ec 03 3a
       0.0013347548 -0.0020349901 -0.003937088 0.00050325517
000030 00 e4 a8 3b f8 91 31 3b 00 0a 96 38 61 4c 9c bb
       0.005154133 0.002709506 7.15442e-05 -0.0047698473
000040 00 7e 43 bb 54 04 c1 3a 90 7c e6 3a 80 5f 1a b9
       -0.002982974 0.0014726021 0.001758473 -0.00014722161
000050 40 d1 3d b8 c0 89 ee ba 20 57 c7 ba a0 4a 90 3a
       -4.525599e-05 -0.0018199012 -0.001520846 0.0011008568
000060 20 47 90 3b b2 ef d9 bb 40 63 16 39 9c 5a ea 3b
       0.00440301 -0.0066508884 0.00014342088 0.0071519148
000070 30 01 0d bc f8 ae 9c ba 4b f3 86 3c 7a 90 d2 3b
       -0.00860624 -0.0011954 0.016473433 0.0064259144
000080 e2 d7 83 bc d4 bd 6c bc 20 c2 f8 ba ac c1 02 3c
       -0.016094152 -0.014449555 -0.0018978752 0.007980745
000090 54 da 5a 3c 00 b8 1f b7 46 32 8d bb 2c b6 12 39
       0.013357718 -9.519979e-06 -0.0043089716 0.0001399151
0000a0 28 0f fb 39 70 dc 58 39 76 ab 02 3c e6 0b 05 bc
       0.00047885743 0.00020681485 0.00797545 -0.008120513
0000b0 b1 a7 cb bb 88 6c 61 3c 3f 50 2b bb 06 1c 45 bc
       -0.0062150587 0.013758786 -0.002614036 -0.012030607
0000c0 bc fd 3c 3c 6e f8 6b 3c 98 6a ef bc 10 46 d5 bc
       0.011535104 0.014402492 -0.029225633 -0.026034385
0000d0 24 4d 00 3d 8e b0 d8 3c 40 86 0f bb 30 a4 b8 bb
       0.031323567 0.026451375 -0.0021900088 -0.005634807
0000e0 fe d3 48 bc e2 34 b2 bb 68 c5 f0 3a de 0d 6f 3a
       -0.012257574 -0.005438433 0.0018369379 0.0009119193
0000f0 3b 53 1a ba de 54 b6 ba ca 4c fc ba f0 52 35 ba
       -0.0005887036 -0.001391079 -0.0019248959 -0.00069169607
000100 a0 6a 66 3c ef 9c 5a bc bc 19 be 3a 9e e3 80 3b
       0.014063507 -0.01334308 0.0014503519 0.003933384
000110 54 a6 5d bb 0a 50 94 bb 78 97 cb bb 1f ce 21 3d
       -0.0033821063 -0.004526143 -0.006213125 0.039503213
000120 11 b5 21 bc b2 48 e0 bc 6d c1 81 3b be d6 c8 bb
       -0.00986983 -0.027378414 0.0039598257 -0.006129115
000130 2d 80 a2 3b 28 b9 f9 3b 50 c9 fc b9 38 88 3d 39
       0.0049591274 0.0076209493 -0.00048215175 0.0001807519
000140 d2 e2 bf 39 4a aa 78 3a 04 38 4a 3a 70 27 f5 3a
       0.00036599353 0.0009485824 0.00077140355 0.001870377
000150 2a f0 79 bc 11 26 10 3c 9e 33 48 3c 9d a9 fa bc
       -0.0152550135 0.008798138 0.012219338 -0.030598456
000160 9d 31 ca 3c 70 9c 42 3c 48 e2 a4 bc f0 7f 00 3c
       0.02468186 0.011878118 -0.02012743 0.007843003
000170 bc 57 f0 bb 04 48 26 bc 00 22 c3 37 72 0e bf 3c
       -0.0073346775 -0.010149006 2.3261644e-05 0.023322318
000180 56 d2 87 bb 40 f5 07 bc 9c 9e 86 3b 10 45 00 bb
       -0.004144947 -0.008298218 0.004108263 -0.0019572414
000190 10 57 f8 ba 86 c3 2b 3b 7c 98 91 bb 62 92 c2 3b
       -0.0018946845 0.002620907 -0.0044432264 0.0059378603
0001a0 9c 8f f3 3b 2b 43 8f bc 00 65 88 3c 57 c7 ce 3b
       0.007432891 -0.017488083 0.016649723 0.0063103843
0001b0 27 3a 68 bc 98 a0 ab bb 62 ad 9f ba 21 28 bc 3b
       -0.014174021 -0.00523765 -0.0012182409 0.0057420884
0001c0 60 d6 13 bc 41 8e 13 3c 50 06 b3 3c 3e 92 57 bc
       -0.009023279 0.009006084 0.021853596 -0.013157425
0001d0 e5 4d 4e bc 58 ad 48 3c f4 5e a7 bb 06 92 b0 3a
       -0.012591814 0.01224836 -0.005107755 0.0013471253
0001e0 e6 76 c0 ba ab 53 47 3c 20 84 a4 bc ab 5b 7b 3c
       -0.0014683872 0.012165944 -0.020082533 0.01534168
0001f0 99 96 06 bc 85 a3 ee bb 3a e9 da 3c 27 d2 3c bd
       -0.008214616 -0.0072826766 0.02672254 -0.046098854
000200 98 20 bc 3c c4 fb 80 3c e0 06 95 bc f8 47 2e 3c
       0.02296476 0.015745051 -0.018191755 0.010637276
000210 ba a4 b2 3b bf 4e cb 3b ac 20 b9 bc bc 05 54 ba
       0.005451766 0.0062044556 -0.022598587 -0.00080880127
000220 f8 f7 8c 3b 11 43 03 bc 48 db f5 3b 20 16 35 ba
       0.004302021 -0.008011595 0.007502947 -0.0006907899
000230 a7 08 2b bb 9c a2 9a 3b 22 d0 41 bc 92 c3 a2 3c
       -0.0026097686 0.0047190916 -0.011829408 0.019868646
000240 ee ff 4d bc 7e 7b 90 bb 92 58 22 3c ed f2 03 3c
       -0.012573225 -0.0044092527 0.009908812 0.0080535235
000250 64 ef 41 bc ac 3d 7e 3a b0 d6 a1 3c dd 8a 11 bd
       -0.01183686 0.0009698521 0.019755691 -0.03553282
000260 49 31 87 3c d5 fd e1 3b fa 23 04 bd 6c 97 c9 3c
       0.016502993 0.006896714 -0.032260872 0.024608336
000270 10 2b 7e 3c ed 3e ec bb fb 61 6e bb 18 a0 9a b9
       0.015513197 -0.00720965 -0.003637432 -0.00029492448
000280 24 c5 bd ba ed 50 74 3c bf 0b b1 bc f9 9c dd 3b
       -0.0014478308 0.014911872 -0.021612046 0.0067630974
000290 b4 03 05 3c c5 de 53 bc ce 6d 3a 3c d8 bc 80 bb
       0.008118559 -0.01293153 0.011378719 -0.003928762
0002a0 08 51 ee bb df 19 45 3c 6a 32 22 bc ee 76 32 bb
       -0.0072728433 0.012030094 -0.009899715 -0.0027231532
0002b0 f6 97 5c 3c ad 09 63 bc 97 05 aa 3b cb 97 ca 3c
       0.013463965 -0.013857287 0.0051886546 0.024730584
0002c0 6a 8d 01 bd 84 eb d8 ba bb 88 11 3c 0c 8a d3 39
       -0.031629004 -0.0016549681 0.008882697 0.0004034791
0002d0 f6 50 22 bb 38 61 22 3b b8 c0 45 bc 78 6c f7 3c
       -0.0024767495 0.0024777185 -0.0120698735 0.03020309
0002e0 5d 35 66 bc 7c 2d f7 bb 9f bd e9 3b f6 ba 29 3c
       -0.014050809 -0.007543264 0.0071332003 0.010359516
0002f0 f2 25 f5 bc 50 b5 37 3c 9d 98 fe 3c b7 b5 6c bd
       -0.02992532 0.011212662 0.031078631 -0.057790484
000300 ab 72 2d 3d 54 94 14 3c f0 52 e4 bc 32 38 41 3c
       0.042345684 0.009068567 -0.027871579 0.011793183
000310 3e a1 37 bb 62 3e 29 3c 4c c0 1f bc 44 69 61 b9
       -0.0028019692 0.010329815 -0.009750437 -0.00021496887
000320 ff 10 32 3a 8e e2 bc 3b 62 d4 06 bc 6b ce ab bb
       0.0006792694 0.005764312 -0.008229347 -0.005243113
000330 2c ed 38 3c b8 fd 88 bc 04 c7 c6 bb cf 5e 1c 3d
       0.011287015 -0.016722545 -0.006066205 0.038176354
000340 b6 27 20 bd 91 d8 b6 3c f0 20 af 39 30 27 32 ba
       -0.03910037 0.022320064 0.0003340314 -0.00067960005
000350 b4 64 66 3c d2 2b 30 bd 15 bd 1e 3d 80 41 b4 bc
       0.014062095 -0.04301054 0.03875454 -0.02200389
000360 e0 23 0c bc 35 fb 1a 3c 14 fe b7 3b 44 81 be b9
       -0.008553475 0.0094593065 0.0056150053 -0.00036335934
000370 c0 08 9e ba fb 45 46 3b e9 13 81 bb 36 06 83 3b
       -0.0012057051 0.0030254114 -0.003939141 0.003998543
000380 50 ec a6 bb d0 cb af 3b 71 bb 4f 3c 90 5a e5 bb
       -0.0050940886 0.0053648725 0.012678967 -0.0069993213
000390 76 93 af bc 70 22 0a 3d e4 4c 38 bc 42 57 fc bc
       -0.02143262 0.03372425 -0.011248801 -0.030803327
0003a0 ae 45 92 3c 7c db 8c 3c cd 2a e7 bc 6c c1 55 3c
       0.017855491 0.017194502 -0.028218651 0.013046604
0003b0 0a 56 06 3d 2f 43 9e bc 8c ff 0a bc 49 30 b5 3a
       0.032796897 -0.019319145 -0.008483779 0.0013823594
0003c0 54 a5 ec 39 38 0f e1 bb 10 c0 d8 3b 4e 9d 30 bc
       0.00045136607 -0.0068682693 0.0066146925 -0.010779692
0003d0 15 f9 f6 3c 58 b3 5b bc 30 3e 1c bd d6 f5 6e 3d
       0.030148068 -0.013409458 -0.038145244 0.058339916
0003e0 18 4e d7 bc 1e ee 7d bc be 69 16 3c 1e 55 a8 3c
       -0.026282355 -0.015498666 0.009180484 0.0205484
0003f0 ae a3 58 bc 9f 17 99 bc eb ea 29 3d 58 8d 3b bc
       -0.013222618 -0.018688021 0.0414838 -0.011447273

exp_avg f4 [8, 1, 7, 7]
000000 f7 59 bf bc 80 71 00 3c e5 45 b3 3c 47 c4 fc 3b
       -0.023358328 0.0078395605 0.021883914 0.007713828
000010 b4 43 8f 3c 7c ea 97 3c c9 ef 20 3c 79 e9 e5 bc
       0.017488338 0.018544428 0.009822794 -0.02806543
000020 00 b2 b1 bc e8 0f aa bc 7a 19 00 bd d4 8c 14 bd
       -0.021691322 -0.020759538 -0.031274296 -0.036267117
000030 30 33 ad bc 4a 80 16 bd ff 61 cc 3c 7e 5f 81 3c
       -0.021142572 -0.03674344 0.024949072 0.015792605
000040 2f f0 1c 3b 85 a5 7f 3b 3b 76 e0 b9 59 c8 04 3d
       0.0023946872 0.003900857 -0.00042812698 0.03241763
000050 45 5c 5b 3c 96 13 3c b8 c5 12 a6 bc 3a d3 71 3b
       0.013388698 -4.4840934e-05 -0.020272622 0.0036899582
000060 a9 8a d5 bb 5e 23 f9 3b cb 6d 8b bc 25 05 9f bc
       -0.0065167737 0.007603093 -0.017020127 -0.019411633
000070 03 50 79 3c 3a fa cf 3c 99 89 b0 3c b9 8c ad 3b
       0.01521683 0.025387872 0.021549987 0.0052963165
000080 d0 fc d9 3b 18 76 77 3c c0 9b 8b 3c 0e 42 3a bc
       0.006652452 0.015103839 0.01704204 -0.011368288
000090 26 01 ad 3b 57 31 01 bb f3 25 31 bb f4 24 80 bc
       0.005279678 -0.0019713247 -0.0027030676 -0.01564262
0000a0 6b 11 04 3c 04 51 1d 3d c6 b7 59 b8 f7 d2 65 bc
       0.008060793 0.03840734 -5.1907984e-05 -0.014027349
0000b0 81 e9 50 bc 74 e6 18 bc 81 fe 0e 3c db 94 1b 3c
       -0.012750984 -0.009332288 0.008727671 0.009495939
0000c0 17 d1 51 bc 71 03 b4 bb 36 06 6b 3c e3 3a dd 3c
       -0.012806199 -0.0054935743 0.0143447425 0.027005618
0000d0 eb f9 93 3c 10 a0 e5 3c 8e c2 47 3c 11 10 7f 3b
       0.018063506 0.028030425 0.012192382 0.0038919488
0000e0 57 31 36 ba 16 27 c1 3b 71 48 05 3c a4 d2 56 3a
       -0.0006950101 0.005894552 0.008134947 0.000819484
0000f0 57 e6 de bb 60 0e 26 ba a6 ff 8d bc f9 3d e2 3c
       -0.006802361 -0.00063345395 -0.017333817 0.027617441
000100 56 d9 05 3d f0 68 f4 3b 3b 8e 2e bb f2 4e 63 3c
       0.03267797 0.0074587986 -0.002663507 0.0138738025
000110 a8 0d 3f 3d df d5 1f 3d b8 9d 8c bc a4 97 f9 bc
       0.046643883 0.039022323 -0.01716505 -0.030467816
000120 6c b0 b6 ba a0 3d c4 bc 1f f1 a9 3b 72 19 9d bc
       -0.0013938076 -0.023955166 0.0051862146 -0.019177172
000130 1d f7 8f bc 12 8f f0 bb ac e1 81 3b 77 48 4c bb
       -0.017573887 -0.007341274 0.0039636698 -0.0031171122
000140 e4 9b 95 bc 0d c1 df bb c6 86 1f 3b c8 d0 0d 3c
       -0.018262811 -0.0068284334 0.0024341806 0.008655734
000150 da c5 f0 bc e0 50 a8 bb b0 89 75 bc d7 a6 9d bc
       -0.029391218 -0.005136594 -0.014986441 -0.019244594
000160 8c 29 b7 bc ec a0 cd bb 56 87 d5 3c 8e 20 f3 bb
       -0.022358678 -0.006275287 0.02606551 -0.0074196523
000170 86 af 74 bc 4e a3 82 bc d3 6d 93 bc da 3c a1 3b
       -0.014934426 -0.01594701 -0.017996704 0.004920584
000180 26 b3 0f 3c 63 31 56 bc b3 e5 d5 ba b7 77 8d 3c
       0.00877074 -0.013073298 -0.0016319066 0.017268999
000190 71 0d ff 3b a9 81 74 3c cd 5f 75 3c e1 44 40 3a
       0.0077835848 0.0149234915 0.014976454 0.00073344825
0001a0 42 0a 47 3c a8 45 ab 3b 71 cc 8f 3c f7 19 c0 3c
       0.012148442 0.0052268095 0.01755354 0.023449881
0001b0 5d dc 9a 3c cf ce a7 3c 34 b2 43 3c 78 dd af 3c
       0.018903906 0.020484356 0.011944342 0.02146791
0001c0 a3 2e 89 3c 49 ba ee 3c 29 e0 7b 3c 8f 04 25 3c
       0.016745871 0.029141562 0.015373268 0.010071888
0001d0 19 e5 70 3c 35 69 ac 3c 6b 88 d6 3c 04 22 09 bc
       0.014703059 0.02104626 0.026188096 -0.008369926
0001e0 1a 02 9d bb 39 57 92 ba 06 27 17 bc ee 36 95 bb
       -0.0047915103 -0.001116491 -0.0092256125 -0.0045536673
0001f0 b4 7e f6 bb d9 66 8b bc 96 5e 37 bc c5 dd 3d bc
       -0.0075224284 -0.017016815 -0.011191985 -0.0115885185
000200 4b 25 d8 bb 28 04 68 bc 30 eb d2 bb 40 7f 93 bc
       -0.0065962425 -0.014161147 -0.006436728 -0.018005013
000210 10 33 7d bc 6d b3 a2 bc 95 02 81 bc e1 db 73 bc
       -0.015454069 -0.019860948 -0.015748302 -0.014883966
000220 be dd bc bc 95 c6 bc bc 7e e7 f3 bc 66 de b3 bc
       -0.023054954 -0.02304391 -0.02977347 -0.021956634
000230 d3 64 bc 3b 19 b8 97 ba ae 71 35 bb 55 f2 88 bb
       0.005749324 -0.0011575251 -0.0027686167 -0.004179279
000240 9a b0 c0 bb df 75 1a bc bf 0f 87 bc 7b 66 b4 3b
       -0.0058804275 -0.009427517 -0.016487 0.0055053807
000250 73 67 0c 3c 84 ed 0d bb 8f d9 33 bb 1f 42 38 bb
       0.008569586 -0.0021656463 -0.0027442907 -0.0028115583
000260 72 79 ab 3b a7 9f 1a 3c ff f8 cd 3c 7b 42 00 3c
       0.0052329833 0.009437478 0.025143145 0.00782835
000270 26 34 2e 3c 55 69 89 3c a3 fd 4e 3c 9b 89 55 3c
       0.01063255 0.016773859 0.012633714 0.013033296
000280 77 7c 67 3c 70 b0 cb 3c 25 d7 64 3c 91 a4 09 3c
       0.014128796 0.024864405 0.01396731 0.008401052
000290 cd 6e 86 3c c8 b6 16 3c 1c d5 85 3c fc 08 5a 3c
       0.016410256 0.009198852 0.01633697 0.013307806
0002a0 7e 5c 33 bb 8d b9 cf ba a4 b6 0c 3c 7b ba 44 ba
       -0.0027368362 -0.0015848145 0.008588467 -0.00075045944
0002b0 e7 1b e8 bb 53 8c 12 bc 82 fe fc bb b6 0d 0f 3c
       -0.0070834043 -0.008944589 -0.0077207694 0.008731296
0002c0 ff bc c6 bb a4 25 32 bc 59 f6 15 bc 51 61 e6 bb
       -0.0060650106 -0.010873232 -0.009152972 -0.007030644
0002d0 c5 91 3d bc c3 36 67 bc 0a 91 6b bc 58 59 28 bc
       -0.011570399 -0.014112177 -0.014377842 -0.010275207
0002e0 bb 00 ed bb 30 9d 56 ba 77 97 80 bc b0 9d cc bc
       -0.007232753 -0.0008186875 -0.015697224 -0.024977535
0002f0 60 0f b5 bc 04 ef 5a ba 2d 6a 57 bc 4f 03 7a 3b
       -0.022102058 -0.0008351656 -0.013147873 0.0038148945
000300 a1 ef 2a bb c2 4b 38 bc 3c 97 90 bc ad e4 84 bc
       -0.0026082771 -0.011248531 -0.01765024 -0.016222322
000310 1a ef be bc 9a c4 5a 3c 7e 7e 75 3c fc 94 a0 ba
       -0.023307372 0.0133525375 0.014983771 -0.0012251432
000320 a7 de a9 3a fa 0e 27 bb d4 e2 58 38 70 ce dc 3a
       0.0012960032 -0.0025491104 5.1709663e-05 0.0016846191
000330 6d 80 49 bc 5f d2 25 bc ab 31 a4 bc 8e 41 fd bb
       -0.0122986855 -0.010120957 -0.020043215 -0.007728762
000340 19 47 2f bc 9b b4 c3 bc ad 95 03 3d 05 c2 c4 3c
       -0.010698103 -0.02388983 0.032125164 0.024018297
000350 d7 77 a3 3c 8d 56 0e 3c cb ba fd 3c d3 d0 35 3d
       0.019954605 0.0086876275 0.030972859 0.044388603
000360 cf 8a d2 3c dc 59 ec bc f3 88 72 bc 1c 4f 6c 3c
       0.025700955 -0.028851442 -0.014803159 0.014423158
000370 a7 62 62 bc ae 78 e6 3b d3 40 b9 bc 1e c4 c7 b9
       -0.013817466 0.007033429 -0.022613918 -0.00038102356
000380 06 6e d9 3b bb 2f 89 3c 37 f5 fd 3b 44 82 24 bc
       0.0066354303 0.016746392 0.007750179 -0.010040823
000390 fc 87 25 3c e0 e3 95 3c b3 5d c2 3c 5e 56 de bc
       0.010103222 0.018297136 0.02372632 -0.027140792
0003a0 9b 26 95 bb 3f 57 21 bc cb 4d 21 bc b3 f0 c1 bb
       -0.0045517213 -0.009847461 -0.009845207 -0.005918586
0003b0 93 14 87 3b c8 3f 10 3c f1 3a 99 bc d8 37 90 bc
       0.0041223257 0.008804269 -0.018704863 -0.017604753
0003c0 29 42 0a bc 61 f3 c5 bb 35 7e 11 3c e6 b6 17 bc
       -0.008438625 -0.006040976 0.008880188 -0.009259915
0003d0 50 bf c4 bc 67 cc aa bc e9 a9 45 3c e3 e7 88 3c
       -0.024017006 -0.02084942 0.0120644355 0.016712135
0003e0 74 28 97 3b f6 c2 3d 3c e5 54 43 ba a0 df 3e bb
       0.0046129767 0.011582127 -0.000745131 -0.002912499
0003f0 48 33 43 bc 41 12 64 bc 79 cf 9e b9 d7 c9 18 bc
       -0.011914082 -0.013920368 -0.00030290688 -0.009325466

exp_avg_sq f4 [8, 1, 7, 7]
000000 fc c0 0c 3d 74 b1 06 3d b4 fa 06 3d 47 d1 1f 3d
       0.03436373 0.032884076 0.032953933 0.03901794
000010 81 e2 11 3d fb 43 02 3d 9e 3d eb 3c f6 c6 c5 3c
       0.0356164 0.031803112 0.028715905 0.024142724
000020 6e d1 3b 3d c3 8a 23 3d 72 be 61 3d 68 0b 3d 3d
       0.045854025 0.039927255 0.055113263 0.046153456
000030 32 55 1d 3d ee b9 07 3d ef f5 0c 3d cc ba 2c 3d
       0.038411327 0.0331363 0.034414228 0.04217033
000040 67 5e a6 3d f2 e7 73 3d 16 3e ab 3d 1f 77 0f 3d
       0.081234746 0.059547372 0.08361451 0.035025712
000050 f2 b7 51 3d 10 66 3b 3d 3d b3 6f 3d f1 61 86 3d
       0.051200815 0.04575163 0.058520544 0.065616496
000060 59 e1 25 3d 71 33 97 3d 91 86 88 3d b9 70 f6 3c
       0.04049811 0.073828585 0.066662915 0.030083047
000070 3d f7 3e 3d c0 e8 27 3d 18 8c 99 3d c0 fb 83 3d
       0.046622504 0.040993452 0.07497424 0.06444502
000080 9e 3f 32 3d 45 8d 6a 3d ac 2f 3c 3d 22 e5 34 3d
       0.0435177 0.05726363 0.0459439 0.04416383
000090 2c ff 1c 3d 22 67 5a 3d fa ce 38 3d a9 1b 71 3d
       0.03832929 0.05332101 0.045119263 0.05886427
0000a0 df 32 3a 3d cf 58 0b 3d e7 4d f3 3c 90 b5 04 3d
       0.04545867 0.03402024 0.029700233 0.032399714
0000b0 a3 e0 fb 3c 9b 18 23 3d b4 78 3e 3d e0 c8 1c 3d
       0.030746764 0.039818387 0.04650183 0.038277507
0000c0 1c 02 a0 3c 5b 7f f4 3c 9e 92 fa 3c e5 80 de 3c
       0.019532256 0.029845884 0.03058749 0.027161071
0000d0 bc 82 16 3d fa a8 10 3d 04 bf dd 3c 3f 56 c1 3c
       0.03674577 0.0353174 0.027068622 0.023600696
0000e0 d1 5b fb 3c 71 d5 30 3d ba 2c 00 3d c5 ac 15 3d
       0.03068343 0.043172304 0.031292655 0.03654172
0000f0 99 48 18 3d 54 fd 0c 3d fd 8a 25 3d c7 13 16 3d
       0.03717861 0.03442128 0.040415753 0.036639955
000100 64 81 18 3d 50 5a 7c 3d 94 a0 8a 3d 68 07 4f 3d
       0.03723277 0.061609566 0.06768909 0.050544173
000110 98 18 2e 3d 2f ac 44 3d 8e c6 49 3d 2b b8 27 3d
       0.042503923 0.04801577 0.049261622 0.04094712
000120 f4 4a 67 3d 61 9e f2 3c a9 c8 86 3d 56 9c 6a 3d
       0.056467965 0.029616537 0.06581242 0.057278
000130 0e 54 ca 3c 2b 98 1a 3d 85 36 10 3d 63 3b 7d 3d
       0.024698284 0.037742775 0.035208244 0.061824214
000140 32 d5 44 3d ef 9a 19 3d 13 c1 56 3d 9c d4 f0 3c
       0.04805488 0.03750127 0.052430224 0.029398255
000150 43 e5 e7 3c 16 9f 0e 3d ea 28 2d 3d 1b cb 29 3d
       0.028307563 0.034819685 0.042275347 0.041453462
000160 f6 80 11 3d 56 e9 17 3d 27 1c e4 3c d8 d6 08 3d
       0.035523377 0.03708776 0.027845455 0.033408016
000170 a7 70 ca 3c c5 20 e3 3c 53 49 f9 3c 50 e2 21 3d
       0.02471192 0.027725587 0.030430472 0.03952247
000180 ce 75 e6 3c 6b 9c ab 3c b4 dc de 3b 23 f3 e1 3b
       0.028132346 0.02094861 0.006801212 0.0068954392
000190 57 28 ca 3b b8 30 f2 3b 10 eb c4 3b 8f e7 c5 3b
       0.0061693597 0.0073910616 0.006009467 0.006039567
0001a0 cd a0 e4 3b b2 8b cf 3b a9 c3 f3 3b 85 3d f4 3b
       0.0069771768 0.0063337917 0.007439096 0.0074536228
0001b0 91 bb dd 3b 8d 03 0f 3c de a5 f3 3b 11 58 05 3c
       0.0067667444 0.008728874 0.0074355444 0.008138672
0001c0 9e 35 f5 3b 52 27 e2 3b 64 10 fc 3b c0 84 09 3c
       0.0074831983 0.00690166 0.0076923836 0.0083934665
0001d0 87 41 4f 3c 21 0b 15 3c cd 58 14 3c 2d 00 df 3b
       0.0126499 0.009096892 0.009054375 0.006805441
0001e0 6f cb e1 3b 38 6b 02 3c 1f 8f 2c 3c b2 7d 46 3c
       0.0068907063 0.007960133 0.01053217 0.012114929
0001f0 08 71 21 3c b7 9e 1c 3c 95 fa c7 3b a1 db c5 3b
       0.009853609 0.009559325 0.0061028698 0.0060381447
000200 bc 7b 08 3c 83 0e 71 3c 83 ee 08 3c af 31 0a 3c
       0.008330282 0.0147129325 0.008357647 0.008434697
000210 ab bd 12 3c d7 8e 08 3c 93 dd 38 3c 3d 33 3d 3c
       0.008956353 0.008334837 0.011283296 0.011547861
000220 fa 5b 3b 3c 87 11 40 3c 57 cf 2a 3c 05 24 33 3c
       0.011435503 0.011722929 0.01042541 0.010933881
000230 c3 24 23 3c ee ac 1d 3c 32 ad 32 3c a2 de 08 3c
       0.009957495 0.009623749 0.010905551 0.008353861
000240 e9 ae 0b 3c 50 e5 27 3c 00 19 25 3c d0 3f 18 3c
       0.008525589 0.010247543 0.010076761 0.009292558
000250 f1 f0 2a 3c 5e 20 e3 3b c1 97 ff 3b ed a3 bb 3b
       0.0104334215 0.0069313487 0.007800073 0.0057263286
000260 e3 9b f2 3b 0b f3 0f 3c 6f ea 13 3c 09 79 0e 3c
       0.007403837 0.008785973 0.009028061 0.008695849
000270 16 0d 00 3c e7 8e 40 3c 14 ca cc 3b 88 79 e8 3b
       0.00781562 0.011752821 0.0062496755 0.007094566
000280 8e 43 03 3c b7 69 1a 3c ba 22 3c 3c cb b6 1c 3c
       0.008011712 0.009424618 0.011482889 0.009565066
000290 26 b7 34 3c 96 34 3a 3c 35 2b 15 3c 08 e6 04 3c
       0.011029994 0.0113650765 0.00910454 0.008111484
0002a0 c8 94 27 3c 38 0f 2a 3c f6 20 67 3c 42 46 40 3c
       0.010228343 0.010379605 0.01410698 0.011735501
0002b0 53 ab d6 3b 91 84 54 3c 4f 1c 22 3c 2f cc 02 3c
       0.006551185 0.012971059 0.009894445 0.0079832515
0002c0 7f e4 12 3c ae f1 2c 3c aa d3 41 3c fc 8d 1e 3c
       0.0089656105 0.010555668 0.01183025 0.009677406
0002d0 19 61 12 3c 71 f9 3a 3c e8 12 07 3c 70 02 2e 3c
       0.008934283 0.0114120105 0.008244254 0.010620698
0002e0 f9 33 24 3c 95 d8 46 3c f6 46 5d 3c f4 17 0f 3c
       0.010022157 0.012136598 0.013505688 0.008733738
0002f0 94 5a 22 3c 22 14 e6 3b c4 7b f7 3b 17 87 14 3c
       0.009909291 0.007021443 0.007552596 0.009065411
000300 1f 8f e9 3b c5 5d f7 3b 2c a4 2b 3c 73 92 1f 3c
       0.007127657 0.00754902 0.010476153 0.009739506
000310 b8 51 a6 3c 14 98 37 3d f7 9a 45 3d 26 7e 18 3d
       0.020302638 0.044822767 0.04824349 0.03722968
000320 10 3f 2d 3d e7 4a 14 3d 02 26 e1 3c 25 2f f3 3c
       0.04229647 0.036204245 0.027483944 0.029685566
000330 d4 40 79 3d 8f 0f 68 3d ec 48 41 3d c5 a8 83 3d
       0.06085284 0.056655463 0.047188684 0.064286746
000340 4c 9e 23 3d 91 e5 26 3d 14 bf 3e 3d 76 8b 98 3d
       0.039945886 0.040746275 0.046568945 0.07448475
000350 d6 f9 69 3d cb bd bf 3d 17 74 d0 3d 78 dc 2a 3d
       0.057123028 0.09362372 0.101783924 0.04171416
000360 db 18 67 3d eb b8 36 3d 9b fb a4 3d ec 69 a0 3d
       0.05642019 0.044609945 0.080558024 0.07832703
000370 94 2d 5a 3d 9b a9 a5 3d 45 2d 84 3d e1 de 71 3d
       0.053266123 0.0808899 0.06453947 0.059050445
000380 70 7f 8e 3d fb c8 41 3d ec 53 99 3d 80 a9 b4 3d
       0.069579005 0.04731081 0.0748671 0.08821392
000390 6c 6e 92 3d 20 d6 43 3d 4e c7 3b 3d 10 c3 42 3d
       0.071499676 0.047811627 0.04584437 0.047549307
0003a0 99 65 2c 3d 02 c7 84 3d ce 13 59 3d cf a1 33 3d
       0.04208908 0.0648327 0.052997403 0.043855485
0003b0 b1 4b 7b 3d bc 80 eb 3c f1 b5 e3 3c 93 b7 f6 3c
       0.06135148 0.028747909 0.027796717 0.030116832
0003c0 68 fc 41 3d 9f 51 29 3d 40 e2 09 3d 7b 20 2c 3d
       0.047359854 0.041337606 0.033663034 0.042023163
0003d0 32 82 e7 3c 43 05 29 3c 42 fb 88 3c 6b 0b 83 3c
       0.028260324 0.010316196 0.016721372 0.015996655
0003e0 4e ad 40 3c 78 2a a6 3c e4 e8 59 3c 3a 94 48 3c
       0.011760069 0.020283923 0.013300154 0.012242371
0003f0 28 99 20 3c ed 8a c8 3c 82 78 89 3c 3b e7 b2 3c
       0.00980214 0.024480307 0.016781095 0.021838775
