trained_models/Sigma_5_t_1/checkpoints/checkpoint_10.pth (torch, 172332 bytes, 10 tensors)

conv_layer.conv_layers.0.parametrizations.weight.original f4 [8, 1, 7, 7]
000000 77 74 dd 3c 50 76 93 3d df c0 34 bc c0 f2 1a 3e
       0.027033074 0.07200301 -0.011032312 0.15131664
000010 72 6e 49 bd e8 8e 19 3d 98 33 67 bb 01 90 4f 3c
       -0.049177594 0.0374898 -0.0035278555 0.012668611
000020 00 07 af 3d b9 e4 91 bd e0 c7 3b 3e c1 1f 55 3d
       0.08546257 -0.071237035 0.18337965 0.052032236
000030 6b 6e d2 3d a8 30 97 3c 8a e0 9b 3c f2 23 96 bd
       0.10274967 0.018455818 0.019027967 -0.07331075
000040 c7 01 1b 3e e4 ec 00 3e c7 7b ec bb 45 2b 5a 3c
       0.15137397 0.12590367 -0.007216904 0.01331598
000050 86 4d 21 bd 7d d8 f1 3b 01 41 3e bd 67 71 2d 3e
       -0.039380573 0.0073805437 -0.04644871 0.16937791
000060 e6 4e ca be 23 a1 2e bd 1e 52 09 bd 8a cc 17 bd
       -0.3951332 -0.04263414 -0.03352558 -0.037060298
000070 bb ca 1f 3d 27 16 c2 bd de 74 29 3e 56 04 2b be
       0.0390117 -0.094768815 0.16548488 -0.16700873
000080 ab 4b 35 3e 79 c7 25 3d ae ae e3 bb bc e5 8d 3c
       0.17704646 0.040473435 -0.0069483137 0.01732146
000090 47 50 37 3d db 71 e4 3c 09 60 aa 3d 5d d0 0a bb
       0.044754293 0.027886322 0.083190985 -0.0021181323
0000a0 f5 f4 77 bc 6a bf 65 3d 8c 66 32 3c f4 90 f4 3c
       -0.015134086 0.05609075 0.010888707 0.029854275
0000b0 e6 3d 36 3d 8e 3e 64 bd d8 ac 8b 3d aa 17 a7 3c
       0.044492625 -0.05572372 0.06820077 0.020397026
0000c0 7e 63 1f 3d 0c 6f 0b bd 4b 68 78 bd 03 0b c5 bc
       0.038913243 -0.03404145 -0.060646337 -0.024053102
0000d0 36 07 04 be 37 b2 91 3d 44 33 34 3d c4 62 1d bc
       -0.12893376 0.0711407 0.043994203 -0.009606067
0000e0 bc e1 02 3d 2e e6 c6 bb 1b 30 01 3e d2 14 06 be
       0.03195356 -0.00606992 0.12616007 -0.1309388
0000f0 64 3c 8f 3b ce ed a6 bd 58 52 90 3c 2c b1 78 bd
       0.004371213 -0.081508264 0.01761739 -0.06071584
000100 bc 48 00 bd e0 6b bf bd a1 71 64 3e 78 7f eb bc
       -0.031319365 -0.093467474 0.22308971 -0.028747305
000110 bf 1e 24 bd b5 8e 41 bd a9 6f cc 3d c5 d3 d2 3d
       -0.040068384 -0.047255237 0.09982235 0.10294298
000120 a1 3d 63 3e bb 79 d7 be 41 a9 58 be 32 e8 8d bd
       0.22191478 -0.4208506 -0.21158315 -0.06929053
000130 17 2c b7 bc 4d fe 23 3c 93 35 3f 3d bc 0d 2b 3e
       -0.02235989 0.0100093605 0.04668195 0.16704458
000140 41 2f e7 bb 7a e0 15 bd ff 67 55 3d 54 91 fd bb
       -0.0070551937 -0.03659103 0.05210113 -0.0077382717
000150 39 17 58 3c 13 85 2e bd 1c f9 37 3d ab 44 88 bd
       0.01318913 -0.04260738 0.044915304 -0.066537224
000160 04 22 55 bc 2c 40 b8 bc 9b 80 04 3d 79 8e 03 bd
       -0.013008598 -0.022491537 0.03234921 -0.032118294
000170 1d e8 1c 3c bd 63 36 3d d3 69 9a bd 4f 61 b4 3b
       0.0095768245 0.04452871 -0.075397156 0.005504764
000180 ac 60 eb 3c 56 7b 34 bc 31 c9 ab bc 1a 0e 8f bd
       0.02873262 -0.011015734 -0.020969959 -0.069851115
000190 15 39 af bd 22 93 42 3b 06 59 03 bd f3 ea e4 bd
       -0.085558094 0.0029689749 -0.03206732 -0.111776255
0001a0 50 90 15 bd d0 6b 80 bd 03 ff a7 bd 66 ce 91 bd
       -0.03651458 -0.062705636 -0.082029365 -0.071194455
0001b0 6f ff 37 be 0a 3f 80 bd b6 f1 98 3d 1c ad 5b 3b
       -0.17968534 -0.06262024 0.07467978 0.003351993
0001c0 03 c4 a7 bc a3 b1 95 bd c9 d1 95 bd 7b 3b 91 bd
       -0.020479208 -0.07309272 -0.07315404 -0.07091423
0001d0 15 ed a1 3d 83 7e 17 be 0f 4a 6d bd e1 c5 1c bd
       0.07906548 -0.14794354 -0.057931956 -0.03827465
0001e0 f7 61 35 3c 69 1b 8e bd 29 d5 c7 bd 65 c6 26 bd
       0.01107072 -0.06938822 -0.09757454 -0.040716548
0001f0 58 bc b7 bd 8d b5 1e bd bb 49 18 bd f0 fa 02 be
       -0.089714706 -0.03874736 -0.03717969 -0.12791038
000200 1f 48 19 3e 9d e2 37 3d ec b2 3f 3e c8 3b 1e 3d
       0.14968918 0.04489385 0.18720597 0.03863123
000210 9f a6 a3 bd f8 60 6b bc 73 94 79 bc f4 bc 1d bd
       -0.07990765 -0.014366381 -0.015233147 -0.038510278
000220 bd 40 0c be 3d 1e d1 bd 51 d1 59 3d 24 57 f7 bc
       -0.1369657 -0.102108456 0.053178135 -0.03019292
000230 7f 6b 44 bd 5a 06 58 bd b1 8c fe 3b f4 96 bc bd
       -0.04795408 -0.052740432 0.0077682366 -0.092084795
000240 be 10 96 bc 65 67 43 bd 3f 7a c2 bc d6 79 8f 3b
       -0.01831853 -0.047706027 -0.023739932 0.0043785376
000250 25 df db 3d 9a 9c f6 bd 72 9f 5e 3c 15 e6 0a bd
       0.10735921 -0.12041588 0.013587819 -0.03391083
000260 54 0a b6 39 d8 df 8e bc 5b 8a fd 3c 94 f0 26 bd
       0.0003472144 -0.017440721 0.030949762 -0.040756777
000270 fb 19 fb 3d 45 e9 93 3d d9 94 13 3c 38 3d f8 bc
       0.12260815 0.07222227 0.009007656 -0.030302629
000280 b8 8f 2e 3d 39 e8 c5 bb 33 aa b7 3c 76 10 e2 bd
       0.04261753 -0.006039646 0.022420024 -0.11038296
000290 59 1c 8d 3d c1 d0 a3 bc e2 a2 1b bd 3b c1 0f 3e
       0.068901725 -0.019997003 -0.037997134 0.14038555
0002a0 56 68 e4 bb 51 01 43 bd 27 da 98 bd 13 85 79 bd
       -0.0069704456 -0.047608677 -0.07463484 -0.060917925
0002b0 68 35 c0 3d 26 b6 4a bd 57 44 d3 bd b8 47 15 3c
       0.093851864 -0.049490117 -0.10315769 0.009111337
0002c0 08 e8 81 bd 61 cb b8 3d 53 a3 69 3e 24 99 09 be
       -0.063430846 0.090231664 0.2281621 -0.13437325
0002d0 0d 58 f2 3c fa c5 44 3d a6 ce 56 bc b5 76 1a bd
       0.029583002 0.048040368 -0.013110792 -0.037710864
0002e0 ba 05 64 3d f8 41 30 3d 3d b4 72 3d 85 48 91 3b
       0.055669524 0.043031663 0.05925392 0.004433694
0002f0 b5 a0 55 bd fe 98 79 3c 75 57 74 3a fa dc 01 3b
       -0.052155215 0.01523423 0.00093208934 0.001981555
000300 4e 6a 7c 3d 4c 81 0e 3c f5 88 a5 3a 8f b2 05 bc
       0.061624818 0.008697819 0.0012629317 -0.0081602475
000310 37 e3 ed bc db 93 cd bc 1e a3 77 3d 79 a5 3c 3d
       -0.029039009 -0.025094917 0.060458295 0.046056245
000320 fc 64 22 bd c5 8c 04 bd 0d c5 5b bc c2 19 e5 bb
       -0.039647087 -0.03236081 -0.01341368 -0.006991596
000330 25 c1 d5 bc d7 1a d0 bc fb 80 87 bd e6 a4 af bd
       -0.026093075 -0.025403423 -0.06616398 -0.08576374
000340 42 3a 93 bc 6a 23 f3 bc 04 f8 fd 3c 24 4e 41 3d
       -0.017972115 -0.029679973 0.031002052 0.04719366
000350 a2 92 b5 bd 6f bf a4 bd 67 c0 85 3d ee ba 15 3e
       -0.088658586 -0.080443256 0.065308385 0.1462209
000360 ea 0b 62 bc 41 b8 2f bd 0a 9e ad 3d 95 80 d6 bd
       -0.013796786 -0.042900328 0.08477409 -0.10473744
000370 16 e8 eb be 91 b5 34 3e 6b 37 b1 3c 44 3c c8 3c
       -0.46075505 0.17647387 0.02163287 0.0244428
000380 6f 94 f8 bd b7 dd e0 3c 86 2c 02 3e 9b 1e e0 3d
       -0.121376865 0.027449472 0.12712297 0.109433375
000390 a0 83 19 be 82 a5 b7 bd b4 1f 22 bd 14 af 44 3d
       -0.14991617 -0.08967115 -0.039581016 0.04801853
0003a0 58 3e 8b bc 57 ec c4 3d c6 ab 88 3d 11 44 c1 bc
       -0.016997501 0.09615391 0.06673388 -0.023592027
0003b0 98 63 ab bb 86 6a 02 bd 0d b0 2c bd 38 67 ee bd
       -0.0052303784 -0.03183987 -0.042160083 -0.11640781
0003c0 af c6 8b 3c 6c 2e 94 bd 20 0e 2d bd a5 63 27 bd
       0.017062513 -0.07235417 -0.0422498 -0.040866513
0003d0 84 5d 38 bc b7 12 e9 bc 4f 0f 71 bd 96 0f 4a 3d
       -0.011252765 -0.028451307 -0.05885249 0.04933127
0003e0 12 de 09 bd ff 05 5e 3d aa 2f 41 bd bc 22 34 bd
       -0.03365905 0.054204937 -0.047164597 -0.043978438
0003f0 3f 28 dd bc 7e 79 ad bd 3f 58 b4 bd a1 38 dd bd
       -0.02699673 -0.084704384 -0.08805894 -0.10801817

conv_layer.conv_layers.1.parametrizations.weight.original f4 [32, 8, 7, 7]
000000 d6 bc 11 3c 62 5b 8b bb 1b eb 0d bb d0 3f 7b 3b
       0.00889512 -0.004252837 -0.0021655026 0.0038337596
000010 60 21 af bc 9d 57 ae bc f2 72 9c 3b 85 f8 e4 bc
       -0.02137822 -0.021282012 0.0047744447 -0.027950535
000020 52 89 4e bc 97 63 36 3c 57 46 0a 39 73 90 54 3c
       -0.012605982 0.0111321425 0.00013186909 0.0129738925
000030 a9 4d 2c bd ae 60 15 bd b9 93 04 ba 17 68 5b bc
       -0.04206625 -0.036469154 -0.0005057413 -0.013391516
000040 a0 c2 ad bc 3b c6 b5 3d 4f 07 be 3c 2e 3b 9b bb
       -0.021210968 0.088757 0.023196844 -0.0047372794
000050 de 5d b8 3c 53 fa 92 3d 21 b9 bd 3c 31 4d f0 bd
       0.022505697 0.07176652 0.023159565 -0.11733473
000060 6c c4 fa 3d b2 46 fc 3d c3 ba 30 bd 4c 9b b0 bc
       0.12244496 0.123181716 -0.04314686 -0.021558426
000070 dc cf aa 3d 92 b6 8b 3c 5d f5 f7 bd eb 24 d3 3d
       0.08340427 0.01705483 -0.12107346 0.10309776
000080 5a 75 3d 3e a8 72 a6 bc 61 d7 93 bd 4a 8c 80 3d
       0.18501797 -0.020318344 -0.07218815 0.06276758
000090 4a 5b ab 3d 14 fc 62 bd d4 65 1d 3d 27 1b e2 bc
       0.083670214 -0.05541618 0.03842719 -0.027600838
0000a0 f4 a0 9e bd fa 50 12 bd 4d fb 5d bd 89 0d 73 3d
       -0.07745543 -0.035721757 -0.054194737 0.05933908
0000b0 22 ac f1 bc ea 79 b0 bc 57 b1 33 bb c8 1b 2f bd
       -0.029501025 -0.021542508 -0.0027418935 -0.042751104
0000c0 d3 e2 47 bc 9b a2 34 3c 49 cf 60 bc d1 22 66 3d
       -0.012200075 0.011025096 -0.013721296 0.056185547
0000d0 ec 12 3f bd 8c 5d 92 bc fd 84 11 3c 47 ff 33 3d
       -0.046648905 -0.017866872 0.0088818045 0.043944623
0000e0 0f d8 85 3c e0 cb 75 3c ff 92 21 3d b9 c7 eb bc
       0.016338376 0.015002221 0.039446827 -0.028781759
0000f0 aa 9e 93 3c af ad f5 3c bc 35 9a 3b 36 6a 64 3c
       0.018019993 0.029990045 0.0047061127 0.013941338
000100 c8 13 41 3c 2d c3 29 3d 76 80 b4 3d b1 56 cd 3d
       0.011784501 0.0414459 0.088135645 0.10026301
000110 1a b2 ce 3c b7 99 aa bc f2 7a e1 ba bd 8a de 3c
       0.02523141 -0.02082525 -0.0017202778 0.027165765
000120 7e 57 36 ba 0b 02 77 3e 3f ab 90 3e 0a b3 9b 3d
       -0.00069557864 0.24121873 0.2825565 0.07602508
000130 79 d4 0f 3d 4d 5d aa 3b 54 93 7b 3d 1e a5 96 bc
       0.03511474 0.0051991106 0.0614198 -0.01838928
000140 4c bf 83 3e 5f d8 9a 3e c0 7a f3 3d ae 17 be 3d
       0.25731885 0.30243203 0.11888647 0.0928186
000150 2b a4 da 3c 7a 51 3c 3d ad 70 ec 3b e2 4c 91 3c
       0.02668961 0.04597614 0.0072155804 0.017736856
000160 ba 71 29 3e 45 9e 6f 3d be ff 40 3d 35 a4 f8 3c
       0.1654729 0.058500547 0.047118895 0.030351738
000170 c5 03 3e bd 8f 9a 23 3d 13 cd af bc 32 99 06 3c
       -0.046390314 0.03994232 -0.021460092 0.008215236
000180 c8 13 f2 3c d5 5a 99 bc 0f 5a 01 bd 5c 35 b4 3c
       0.029550448 -0.01872007 -0.031580027 0.0219981
000190 21 76 8e 3c ba 9f 31 bc 66 9c 3f bd 79 4a 97 bc
       0.017390313 -0.010841304 -0.046780013 -0.018468129
0001a0 e0 c6 b5 ba f9 dc 7a 3c 0d b1 8c ba a4 81 eb bc
       -0.0013868473 0.015311473 -0.0010733918 -0.02874834
0001b0 65 d4 2b bc 66 bd 68 bd bc 7d c2 bc 39 90 e4 3c
       -0.0104876505 -0.05682125 -0.023741595 0.027900802
0001c0 a8 00 4c 39 5f 0d d5 bd bf 67 0d be 46 7c 58 3b
       0.000194552 -0.10402941 -0.13809107 0.0033033057
0001d0 ca 08 79 bc 7b 40 12 bc 0d fd c8 3a f6 f6 0f bd
       -0.015199849 -0.008926506 0.0015334204 -0.03514763
0001e0 dd 0a 9e bd 5f 92 d3 bd 12 9f de 3c a3 26 32 bd
       -0.07716916 -0.103306524 0.02717546 -0.043493878
0001f0 97 d5 a6 3c 8b cb ea bc aa 07 51 3d c6 bc e6 bd
       0.02036552 -0.02866151 0.0510327 -0.112664744
000200 67 7e 7f bd 12 4e 32 3d e2 a3 46 bd 7d f0 8a bd
       -0.062376406 0.043531485 -0.048496135 -0.06784151
000210 4f ab 1c 3d 83 41 84 3c 49 c8 5a bd 20 74 9b 3b
       0.03824931 0.01614452 -0.053413663 0.004744068
000220 0c 47 2c 3b 33 24 8d bd 1b 3d 41 bd 9d aa d7 ba
       0.0026287464 -0.0689167 -0.047177415 -0.0016454045
000230 56 46 77 3d 35 70 e3 bd 36 df 49 bc 46 39 af 3c
       0.060369812 -0.11105386 -0.012321284 0.021389615
000240 6c af 5a bd 6c 0c 86 bd 50 8b 93 bc 4c 40 b5 bc
       -0.05338995 -0.06545338 -0.018010765 -0.022125386
000250 b7 b1 31 bd 46 f5 c2 bc d0 86 fc bc 84 c3 08 bc
       -0.043382373 -0.023798596 -0.030826002 -0.008347396
000260 dd a2 c2 3b fd 5f f7 3b 44 9f 91 3b 4e 80 09 bc
       0.005939825 0.0075492845 0.004444035 -0.008392407
000270 9e bd 5a 3c 07 0e 1e bd c4 f9 88 bb b2 5c 9d bc
       0.013350872 -0.038587596 -0.004180165 -0.01920924
000280 ea 2c 98 39 d0 c8 1a bb e7 71 6c 3d 1a bb 2e 3d
       0.00029025163 -0.0023618229 0.057725813 0.042658903
000290 aa b2 95 bd 4e b4 02 be 6e 01 1f bd 53 c0 10 bc
       -0.07309468 -0.12764093 -0.038819723 -0.008834916
0002a0 49 2b 49 bc de 16 c3 3d 96 2e e3 3d b7 82 eb bd
       -0.012278386 0.09525846 0.1109287 -0.11499541
0002b0 ac 21 82 be a4 c9 e5 bd a1 19 4b bd 8e cc f3 3b
       -0.25416315 -0.112201005 -0.04958499 0.0074401563
0002c0 58 d5 c6 bc 18 34 37 ba 9d b1 eb bd 33 ff 6b be
       -0.024271652 -0.00069886586 -0.115084864 -0.2304657
0002d0 d7 18 cc bd 50 10 5f 3a 22 d2 71 3c af ee 51 bd
       -0.09965675 0.00085092057 0.014759572 -0.051253017
0002e0 e7 02 79 bd b1 76 fb bb 4d 3a ac bd 42 2a a5 bd
       -0.060793784 -0.007674061 -0.084095575 -0.08064701
0002f0 24 ce a6 3c f7 a4 40 3d eb d0 ed 3c 4c ce 8e bb
       0.020361967 0.047032323 0.029030284 -0.0043580886
000300 c8 90 7e 3d 28 08 22 3c 87 4e 85 bc 2c d5 17 3b
       0.062149793 0.00988964 -0.016272796 0.0023167832
000310 0e 01 19 bc 4a 64 d0 bc 93 fc 5c bd c9 e5 45 bd
       -0.00933863 -0.025438447 -0.05395181 -0.048314843
000320 ad 1c a7 bc 6d e2 be 3c 9b 15 53 bc f5 42 1d bd
       -0.020399416 0.023301328 -0.012883569 -0.038393933
000330 92 00 7f bc ff e6 a9 bd cd a5 31 bd 77 b7 72 bc
       -0.015564101 -0.08296012 -0.04337101 -0.014814249
000340 2f 55 db bc 2a d8 1c bd 0a e2 24 bd b9 38 16 bd
       -0.026774017 -0.038292088 -0.04025463 -0.03667519
000350 b3 46 cc 3c b3 ee 7c bc a6 ee 7b bc 9e 2c 55 bb
       0.024936056 -0.01543777 -0.015376722 -0.0032527815
000360 51 4d 21 bc 39 d0 84 bc c6 44 ec bc a3 1f 61 bd
       -0.009845094 -0.01621257 -0.028841387 -0.05496181
000370 64 bf e6 3d ed d1 23 3e 21 75 69 bd 42 fb 51 bd
       0.112669736 0.15998049 -0.05699647 -0.05126501
000380 91 99 47 bd e0 ba ad bd 9d 76 42 bd 01 0f 1f 3d
       -0.048730437 -0.08482909 -0.0474764 0.03883267
000390 54 5c ee 3d f4 64 61 3d 46 b5 08 bb 6f 57 f5 bc
       0.11638704 0.055027917 -0.002086 -0.029948918
0003a0 a3 c8 cf 3b 5b 38 75 bd 31 38 0a 3c 1e 58 9a 3d
       0.0063410564 -0.059868198 0.008436249 0.07536338
0003b0 29 85 30 3c 09 73 37 3d 45 3c 02 bd d2 43 a1 3c
       0.010773935 0.04478744 -0.03179576 0.01968566
0003c0 a5 9c 70 3c d9 e4 2d 3d e9 e1 30 bd 2b 25 15 bd
       0.0146857845 0.042454574 -0.043184195 -0.0364124
0003d0 a4 e5 3f 3c 68 f4 a6 bb ae b8 15 bc 8e 4b 96 bd
       0.011712465 -0.0050950535 -0.009138269 -0.0733863
0003e0 5f 09 a3 bc 3e 5d a1 3c 0b 13 33 3d 8c ee c3 b8
       -0.01990193 0.019697782 0.043719333 -9.3427574e-05
0003f0 c2 cb a1 bb 87 c7 6a 3b 32 c7 8b bd 0e 79 f8 bc
       -0.00493762 0.0035824494 -0.06825103 -0.03033116

activation.coefficients_vect f4 [672]
000000 00 00 00 80 0b 68 8b 3a e7 ba 2d 3a 42 aa 02 3a
       -0.0 0.0010635866 0.0006627277 0.0004984477
000010 26 72 de 39 e2 4c 98 39 df ce 99 b8 bf 7f e4 b8
       0.00042428187 0.0002904898 -7.334141e-05 -0.00010895682
000020 a8 81 02 b9 7a 52 22 b9 98 dc 23 b7 97 91 03 39
       -0.00012446067 -0.00015480249 -9.766918e-06 0.0001254737
000030 9d c8 4b 37 5c 7f fd b7 6e 80 3a b9 92 88 7f b9
       1.2146452e-05 -3.0219257e-05 -0.00017786186 -0.00024369571
000040 1b 7d 94 b9 08 78 b1 b9 7f 40 12 ba ae 9e 4a ba
       -0.0002832197 -0.000338495 -0.00055790687 -0.00077293336
000050 00 00 00 00 00 00 00 80 93 23 19 3a 4d 93 d2 39
       0.0 -0.0 0.0005841788 0.0004016407
000060 06 9b ac 39 84 53 60 39 09 b7 2c 39 4c df e3 b7
       0.00032921898 0.00021393417 0.00016471384 -2.716449e-05
000070 2e 33 3e b8 81 8d e1 b8 a9 5e 8a b9 a3 18 8f b8
       -4.5347195e-05 -0.00010755193 -0.00026391938 -6.82336e-05
000080 c0 2a 04 39 44 61 ad 38 c2 64 98 37 c9 35 dc b8
       0.00012604427 8.2674e-05 1.8166731e-05 -0.00010500436
000090 f2 a4 41 b9 34 9b b7 b9 3f 94 d7 b9 fe e6 00 ba
       -0.00018467361 -0.00035020115 -0.00041118448 -0.0004917233
0000a0 27 8a 80 ba 00 00 00 00 00 00 00 80 91 7c 8e 39
       -0.0009806798 0.0 -0.0 0.0002717716
0000b0 ce e8 0e 39 4c ab cf 38 24 fc aa 38 0a f4 37 38
       0.00013628902 9.902436e-05 8.1531965e-05 4.385788e-05
0000c0 ce 9e f4 37 48 c7 43 b8 6c e6 2f b9 8e 8d 65 b9
       2.9161016e-05 -4.6677218e-05 -0.0001677514 -0.00021891875
0000d0 f2 0b c3 b7 ed 5d 49 39 74 81 a0 38 2a a0 44 38
       -2.3251374e-05 0.00019203844 7.653507e-05 4.6879206e-05
0000e0 a9 c1 09 38 72 f6 36 b8 c1 f0 8a b9 6b af 90 b9
       3.2843705e-05 -4.36217e-05 -0.00026500787 -0.00027596517
0000f0 eb b4 9f b9 5c e4 1d ba 00 00 00 00 00 00 00 80
       -0.00030461638 -0.0006023103 0.0 -0.0
000100 2a 6b 80 3a 58 a4 5f 3a f8 04 0d 3a dd fd e2 39
       0.0009797562 0.0008531264 0.00053794635 0.00043295222
000110 8c fb b7 39 36 b5 b2 39 ce a8 7a 39 e0 ce b0 38
       0.00035091897 0.00034085818 0.00023904743 8.4308675e-05
000120 70 4f 76 38 e3 d1 0c 38 5e ab b3 b7 09 d4 86 b8
       5.8724952e-05 3.3574073e-05 -2.1418262e-05 -6.4291125e-05
000130 b4 9b f8 b8 b4 4d 2c b9 df c6 ae b9 c3 17 ea b9
       -0.000118545635 -0.00016432145 -0.00033336037 -0.00044649662
000140 14 07 26 ba d8 7f 3d ba b5 5b 83 ba 00 00 00 00
       -0.0006333452 -0.0007228828 -0.0010021838 0.0
000150 00 00 00 80 a8 36 80 39 3b 4c 55 39 35 f4 50 39
       -0.0 0.00024454785 0.00020341661 0.000199274
000160 30 62 40 39 34 b2 1f 39 41 a4 d7 37 07 5d 9f b6
       0.00018347125 0.00015229807 2.5706484e-05 -4.749399e-06
000170 ff 63 2c b7 12 46 71 b7 a5 a2 d9 b7 d7 b3 ec b7
       -1.0275281e-05 -1.4381034e-05 -2.5944153e-05 -2.8217137e-05
000180 5e cf 0f b8 1a 1b 10 b8 1c 19 82 b8 b3 c4 c0 b8
       -3.4286983e-05 -3.4357516e-05 -6.20356e-05 -9.1919115e-05
000190 05 72 cc b8 92 86 fc b8 50 56 29 b9 58 94 42 b9
       -9.748716e-05 -0.00012041362 -0.0001614925 -0.00018556544
0001a0 00 00 00 00 00 00 00 80 30 e3 53 39 6c ee 37 39
       0.0 -0.0 0.00020207162 0.00017541059
0001b0 cc 01 11 39 f7 97 04 39 fb 9b d6 38 5a 42 b5 38
       0.00013828947 0.00012645112 0.00010233369 8.6431115e-05
0001c0 53 a1 99 38 fe db 8e 38 ad 3b 0a 38 1a a8 ac 37
       7.3256575e-05 6.8120644e-05 3.295734e-05 2.0582276e-05
0001d0 c0 88 09 b8 b0 56 8e b8 4f e6 92 b8 32 1d 1a b9
       -3.2790704e-05 -6.7872345e-05 -7.004721e-05 -0.0001469746
0001e0 e5 b7 47 b9 58 f1 5b b9 c5 18 77 b9 e9 fe 8f b9
       -0.00019046625 -0.00020975375 -0.00023564983 -0.00027465008
0001f0 54 7b 0d ba 00 00 00 00 00 00 00 80 f9 71 27 3a
       -0.00053971005 0.0 -0.0 0.00063875277
000200 94 00 c0 39 d8 68 b4 39 06 81 96 39 df f1 74 39
       0.00036621524 0.0003441039 0.0002870636 0.00023359757
000210 30 14 58 39 0e 01 78 38 8d 9a 21 35 9d 37 80 b6
       0.00020606886 5.912879e-05 6.0202075e-07 -3.8211715e-06
000220 10 51 38 b7 0d 39 1e b8 75 49 8d b8 29 00 8f b8
       -1.09861285e-05 -3.7723268e-05 -6.7370864e-05 -6.818801e-05
000230 0c 90 c9 b8 8b ae d9 b8 2b 28 39 b9 9b cf 05 ba
       -9.611258e-05 -0.000103798775 -0.00017657939 -0.0005104483
000240 64 4e 48 ba de fe 92 ba 00 00 00 00 00 00 00 80
       -0.00076410756 -0.0011214872 0.0 -0.0
000250 d4 00 0b 3a 48 e2 bd 39 85 db 81 39 25 ec 13 39
       0.00053025526 0.00036217482 0.00024768352 0.00014106983
000260 98 72 11 39 92 98 07 39 0d f3 da 38 13 85 84 38
       0.00013870967 0.0001293144 0.00010440322 6.3190375e-05
000270 f5 73 2d 38 fa 42 96 36 0d f9 e2 35 99 aa 59 b8
       4.1354408e-05 4.4781455e-06 1.6910795e-06 -5.1895713e-05
000280 6d 00 9d b8 47 6a 09 b9 09 ae 1a b9 21 8b 6d b9
       -7.486423e-05 -0.0001310493 -0.00014751418 -0.00022653911
000290 a3 2d 72 b9 72 65 e1 b9 b8 20 24 ba 00 00 00 00
       -0.0002309592 -0.00042990927 -0.0006260979 0.0
0002a0 00 00 00 80 ae d4 be 39 b6 cb 52 39 e3 3d 42 39
       -0.0 0.00036398083 0.00020103049 0.00018524336
0002b0 97 e3 89 38 d1 3f 2c b8 fa 5b e7 b8 12 93 70 b9
       6.575061e-05 -4.106743e-05 -0.0001103207 -0.00022942972
0002c0 9d 90 1d ba 0d 4f b3 b9 05 9b aa b8 5e b6 3c 39
       -0.0006010624 -0.00034200438 -8.135106e-05 0.00017997014
0002d0 24 93 e6 39 b0 d1 32 39 25 0b a6 38 15 33 7c 37
       0.00043978647 0.00017053518 7.917573e-05 1.5032264e-05
0002e0 92 ee 8b b8 89 2f e2 b8 c1 19 0b b9 83 1c 9d b9
       -6.672474e-05 -0.00010785374 -0.00013265667 -0.00029966616
0002f0 00 00 00 00 00 00 00 80 56 65 07 3b 52 6a 92 3a
       0.0 -0.0 0.0020659766 0.0011170602
000300 4c d3 89 3a 45 ec 27 3a 79 6d b5 39 3c eb 80 39
       0.0010515242 0.00064057513 0.00034604574 0.00024589326
000310 df 4e 3d 39 40 89 25 b8 e6 8c 07 b9 03 c9 3b b8
       0.00018053826 -3.946689e-05 -0.00012927092 -4.477148e-05
000320 7b ba 6d 38 37 95 17 b9 aa 1a a8 b9 30 6a 1a ba
       5.6678877e-05 -0.00014456069 -0.00032063323 -0.0005890457
000330 8d 32 2b ba 2b f1 6e ba b4 c9 7c ba 78 de cd ba
       -0.0006530665 -0.00091149163 -0.0009643093 -0.001570656
000340 7c 3f 12 bb 00 00 00 00 00 00 00 80 bf f9 14 3a
       -0.0022315672 0.0 -0.0 0.0005682967
000350 c4 8d f1 39 63 3e be 39 ab 6c 9d 39 4b 66 25 39
       0.00046072726 0.00036286106 0.00030026337 0.00015773733
000360 a8 e1 22 39 65 c3 df 38 70 5a 01 38 4f ff 00 b7
       0.00015533587 0.00010669864 3.0840223e-05 -7.688838e-06
000370 1c a1 10 b8 e9 2d 1b b8 d8 b9 8f b8 98 3d ba b8
       -3.448232e-05 -3.6997637e-05 -6.8533875e-05 -8.880644e-05
000380 39 5f ec b8 ba f1 09 b9 db 69 3b b9 62 c0 4e b9
       -0.000112710935 -0.00013155388 -0.00017873144 -0.00019717359
000390 f1 9d 61 b9 a4 50 9f b9 00 00 00 00 00 00 00 80
       -0.0002151651 -0.00030386925 0.0 -0.0
0003a0 8f d0 55 3a fa 18 15 3a 78 eb fa 39 6f c7 7e 39
       0.0008156383 0.0005687621 0.00047859154 0.00024297622
0003b0 58 8a 10 39 86 ea ab 38 35 53 80 38 41 60 1e 37
       0.00013784447 8.197599e-05 6.119014e-05 9.439945e-06
0003c0 a1 12 90 b6 85 b7 0b b8 03 a4 57 b8 a2 0e a8 b8
       -4.293703e-06 -3.33111e-05 -5.1412742e-05 -8.01359e-05
0003d0 5e df b4 b8 d0 d7 f1 b8 17 83 15 b9 b5 34 19 b9
       -8.624674e-05 -0.00011531974 -0.00014258582 -0.00014610852
0003e0 24 45 2d b9 93 4f 48 b9 1a b3 6a b9 00 00 00 00
       -0.00016524323 -0.0001910313 -0.000223827 0.0
0003f0 00 00 00 80 b0 b9 8c 39 fd 23 85 39 8e d8 5f 39
       -0.0 0.0002684123 0.0002539455 0.0002134761

u f4 [1, 1, 20, 20]
000000 da 24 d9 ba 9a 01 30 bb 3c 85 02 ba 64 e9 3a 3b
       -0.0016566769 -0.0026856423 -0.000497896 0.002852046
000010 f0 7d 1d 3b 28 b3 40 39 ec 60 0e ba 90 83 46 ba
       0.0024031363 0.00018377288 -0.00054313126 -0.0007572705
000020 b0 d9 3a ba 68 cc 91 ba 98 37 58 ba 4a f9 94 3a
       -0.0007127775 -0.001112354 -0.000824803 0.0011365798
000030 8c 96 13 3b 68 eb 46 3a 19 04 80 ba ca fc b9 ba
       0.0022520153 0.0007588179 -0.0009766846 -0.0014189717
000040 10 98 32 ba f0 2c ba 39 60 33 ce 39 cc 3b 93 39
       -0.000681282 0.00035510166 0.0003932966 0.00028082577
000050 c6 50 53 3b e6 d9 f4 3b 83 e8 b8 3b ea fe 46 bc
       0.003224419 0.0074722646 0.005642952 -0.012145737
000060 f8 e4 84 bc 75 50 16 bc 94 84 60 bb c8 ce 19 3b
       -0.016222462 -0.009174456 -0.003425871 0.0023469198
000070 6a 88 cf 3b 75 11 22 3c 5f 52 40 3c d9 12 c2 3b
       0.0063334005 0.009891857 0.011738389 0.005922657
000080 c2 40 ac bb 56 61 10 bc f9 c3 4e bb e0 66 41 3a
       -0.005256743 -0.008812269 -0.0031549914 0.00073776953
000090 18 d4 2a 3a 00 78 cc 36 d2 a4 08 3a 6a c7 29 ba
       0.000651659 6.0936436e-06 0.00052125484 -0.00064765534
0000a0 dd 6f ec ba 5b e4 81 bc 27 0c db bb 8e 18 ab 3c
       -0.0018038709 -0.015855959 -0.0066847983 0.020885732
0000b0 be d8 f9 3c de 5a cb 3c 73 09 0d 3c b0 d7 80 bb
       0.030498859 0.024823602 0.00860821 -0.003931962
0000c0 f7 cf e0 bb ae b1 9f bc 0c fa ef bc 8f 07 7b bc
       -0.006860729 -0.019493904 -0.029294036 -0.015321626
0000d0 88 65 55 3b 5c d7 3f 3c a0 67 5d 3c cf 87 d2 3b
       0.0032561738 0.0117090605 0.013513476 0.006424881
0000e0 7c 16 97 ba b8 4b 49 bb 28 26 d2 ba ea c1 b1 39
       -0.0011527087 -0.0030715298 -0.00160331 0.00033904548
0000f0 2b 99 26 3a 50 ce 0b 3c 00 37 e4 b7 ab 31 55 bc
       0.0006355221 0.008533075 -2.720533e-05 -0.01301233
000100 f2 3a ad bc 06 e4 a3 bc 86 2c 50 bc 80 ed cc bb
       -0.021146271 -0.020006191 -0.012705928 -0.006253898
000110 ef 57 e9 3b 50 d8 52 3c 06 8f 2d 3c 28 66 96 3c
       0.007121078 0.012868956 0.0105931815 0.018359259
000120 bc c3 74 3c 8a a2 6a bb ef a6 15 bc ba b6 f2 bb
       0.014939245 -0.0035802447 -0.009134038 -0.0074070366
000130 7e 17 ed bb 4c 6a 7d 3b 2c df 73 3b 8b be b5 39
       -0.0072354665 0.0038668094 0.0037211878 0.00034664976
000140 aa 0d 80 3a 49 91 2c 3b 2b 73 d2 3b 87 be 83 bb
       0.0009769697 0.0026331714 0.0064224205 -0.0040205154
000150 d2 e3 0a bc 28 8f 0c 3c de 79 6e 3c 20 41 aa 3b
       -0.008477168 0.008579053 0.014555423 0.005195752
000160 e7 de 12 3c 02 63 16 3c 04 bc 95 ba ea eb 06 ba
       0.008964277 0.009178879 -0.0011423831 -0.0005146848
000170 ef 47 12 bc 38 18 cc bc 76 87 12 bc 72 58 2a 3c
       -0.008928283 -0.024913892 -0.008943429 0.010397064
000180 13 43 9a 3b f0 ba 45 b9 1e 41 1d ba 66 ae ae ba
       0.004707703 -0.00018857024 -0.0005998778 -0.0013327121
000190 18 a7 24 ba ca b9 03 bc 37 af 4e bb 26 35 89 3c
       -0.00062810024 -0.008039901 -0.0031537542 0.016748976
0001a0 6e a9 80 3c 40 81 22 3c 64 51 8b ba 87 25 b0 bc
       0.01570579 0.009918511 -0.0010629115 -0.02150227
0001b0 e6 e1 4d bc ba 76 b9 ba b3 b2 95 bc 30 fd 4a bc
       -0.012566065 -0.0014149763 -0.018273687 -0.012389466
0001c0 fd e1 23 3c 18 1f 23 3c e1 b8 65 3c fe 08 66 3c
       0.01000261 0.009956144 0.014021129 0.01404023
0001d0 ca de 37 bb 94 80 f1 bb d0 c4 88 39 3e f5 da b8
       -0.0028056377 -0.007370064 0.00026086578 -0.0001044073
0001e0 88 1d 4d ba da 1a 07 39 4f 5e c2 ba 58 2e eb bb
       -0.000782453 0.00012884606 -0.0014829132 -0.0071771555
0001f0 dc 30 87 bc 0e 0c 24 bc a8 27 20 3a 18 84 54 3a
       -0.01650279 -0.01001264 0.0006109425 0.00081068417
000200 90 af 55 3c 76 44 65 3c 66 e0 d7 bb 90 20 c8 3a
       0.013042346 0.013993373 -0.0065880297 0.0015268493
000210 a0 a3 91 3c 9d 93 86 ba 38 32 3f bc 9c c3 8e bb
       0.017778218 -0.0010267381 -0.011669688 -0.0043568145
000220 80 28 24 bc 80 68 12 3a 32 6b cb 3b f6 67 cf 3a
       -0.010019422 0.000558503 0.006207847 0.001582383
000230 22 8f 36 3b 3a d8 0c 3c 5b 51 01 3c 9e aa 41 bb
       0.002785631 0.008596474 0.007892932 -0.0029551159
000240 c5 e6 77 bc f4 d6 f1 3a 08 fe ac 3c 40 c0 46 bb
       -0.015130703 0.0018450902 0.021117225 -0.0030326992
000250 40 c4 2f bc b8 f0 3e 3c a5 26 49 3a e0 8c e0 ba
       -0.010727942 0.0116540715 0.00076733 -0.0017131828
000260 d0 c8 61 3c 51 01 11 bc b8 ac 91 bc 54 c0 04 3c
       0.013780788 -0.0088504115 -0.017782554 0.008102495
000270 91 9b 04 3c 36 b6 26 bb 43 69 0a bb 8e 25 1d bb
       0.008093731 -0.0025438196 -0.002111987 -0.0023978683
000280 cd e6 43 bb 96 c7 7f bc 52 1d 3e bc 2b 2f a1 3c
       -0.0029892207 -0.01561155 -0.01160367 0.019675812
000290 22 c5 a8 3c b2 80 1d 3c 7a f4 a5 3b 8e d2 5b bc
       0.020601813 0.009613203 0.0050645443 -0.013416899
0002a0 cb 6b 39 bc 82 f9 d5 3b 22 94 c0 bb 9e 01 9e bc
       -0.011317204 0.006529988 -0.005877034 -0.01928788
0002b0 e0 d7 d7 bb 2e 4f b0 bb a2 d4 40 ba b7 82 6d 3c
       -0.0065870136 -0.0053805327 -0.00073559035 0.014496497
0002c0 ed 2c c9 3b 40 77 f6 bb 1d e4 3e 3b be 83 9c 3a
       0.006139389 -0.00752154 0.0029127665 0.0011941118
0002d0 07 b9 76 3b 62 be 21 3c 54 e7 04 3c 3e c9 b1 bb
       0.0037646906 0.009872051 0.008111794 -0.0054256013
0002e0 67 3a b7 bc b8 bd bc bc 44 8c c6 bb 44 22 28 bc
       -0.022366716 -0.023039684 -0.0060592014 -0.010262076
0002f0 23 45 46 bb 37 76 d9 3c 28 67 8a 3b c0 2d 38 bc
       -0.003025361 0.026545627 0.004223723 -0.011241376
000300 08 48 e9 3c 78 1e c3 3c 96 2d 13 bc aa 0f 56 ba
       0.02847673 0.02381824 -0.0089830365 -0.0008165786
000310 5c bb 23 bb 92 d7 fa bb f7 31 49 3a a7 46 83 3a
       -0.00249835 -0.0076550925 0.0007674987 0.0010015563
000320 ba 81 59 bb 01 a9 d2 bb 3c 18 96 bb 40 81 45 3c
       -0.0033188895 -0.0064288382 -0.0045805257 0.012054741
000330 98 99 35 3a 80 1e 9c b9 d8 b7 0a 3d 02 a2 d0 3c
       0.00069274893 -0.00029777363 0.033866733 0.025467876
000340 c7 b9 1e bc 22 70 86 bb 64 cc 2e 3a f6 42 56 bc
       -0.009687847 -0.0041027227 0.000666803 -0.013077488
000350 a0 2f aa bb 1f 8a 44 bb 02 26 ab bc 56 8d 1c bc
       -0.0051936656 -0.0029989553 -0.020892147 -0.0095551815
000360 fc f5 d7 3b 88 7f 2c 3b 3c 4e 2e 3b 77 6b 9e 39
       0.006590603 0.0026321132 0.0026596924 0.00030216176
000370 b0 d8 5d 3b 11 05 ad 3b c4 72 c6 bb c2 d2 c4 bb
       0.003385108 0.005280145 -0.0060561616 -0.0060065696
000380 9c b5 b9 ba d0 4a 4c b9 60 76 bd 3a 1e 38 7d bc
       -0.0014168504 -0.00019482826 0.0014454834 -0.015455274
000390 80 14 cd bc 00 bb d5 3b 39 ff 23 3c a4 70 72 bc
       -0.02503419 0.0065225363 0.01000958 -0.014797363
0003a0 67 37 5d 3b dc ed 1c 3c c0 eb 53 ba dd c5 99 3c
       0.0033754946 0.0095781945 -0.0008084141 0.018771106
0003b0 31 18 96 3c 9d 27 52 bc 8c 37 d0 bb 2e c9 8e ba
       0.018322082 -0.012826827 -0.006354278 -0.0010893696
0003c0 77 c1 b1 ba bb 7f bb bb cf e2 5b ba 87 95 85 3c
       -0.0013561685 -0.005722014 -0.0008387984 0.016306652
0003d0 46 4d 32 3c b8 c2 73 bc 02 c5 32 ba 50 13 a9 3b
       0.010882681 -0.014877968 -0.00068195176 0.005159773
0003e0 39 07 27 bc 94 b9 47 3c 7e 6a a5 3c 40 b0 51 bc
       -0.010194593 0.012190241 0.020192381 -0.012798369
0003f0 ca 02 01 bc d8 ed 9f 3c 90 3a a2 bb 2a ca af bc
       -0.0078742 0.019522592 -0.004950829 -0.021458704

exp_avg f4 [8, 1, 7, 7]
000000 5b 09 3a bc df ee 6b bc 8d 8a 03 bc fd d1 ae 3c
       -0.01135477 -0.014400213 -0.008028639 0.021340365
000010 1a 28 92 bc 34 91 87 bc e1 28 3e 3b c4 eb 2b bc
       -0.017841388 -0.01654873 0.0029016065 -0.010493223
000020 70 75 f7 bb 62 af 20 3c 47 42 1f bb 24 9b 8f bc
       -0.0075518414 0.0098074395 -0.002430098 -0.017530032
000030 7c ff c8 bc 44 9c ed 3a b4 93 bf 3b 73 f1 ea ba
       -0.024535887 0.0018128236 0.005846465 -0.0017924741
000040 2c 3e b1 bb 35 21 c8 bc 2e 34 3b bc 3e 2b 99 bc
       -0.005409023 -0.024429897 -0.011426015 -0.018697377
000050 28 14 1c 3c 7a f7 ec bc a6 fd ad bc 71 da 6d bc
       0.00952629 -0.0289266 -0.021239113 -0.0145174125
000060 29 e2 9a 3c 44 e6 4f bc d8 6d 66 bc 37 c9 3a bc
       0.01890667 -0.012689177 -0.014064275 -0.011400512
000070 13 94 08 3c 1d 8c 90 3c d8 2e 7b 3c 60 d8 86 3c
       0.008336085 0.017644936 0.015330993 0.016460598
000080 5e a2 68 bc b1 09 26 ba a1 b4 a7 3c bc 0f 8d 3c
       -0.014198868 -0.00063338416 0.020471873 0.017219417
000090 7a 24 b4 3b bc bf e4 3c 22 6b e0 ba 59 b2 b2 3b
       0.0054975124 0.027923457 -0.0017121772 0.0054533896
0000a0 1a 1b 1a 3c 1b 4c d8 3c cb 72 18 3c 01 52 8d 3b
       0.009405876 0.026403477 0.0093047125 0.004312754
0000b0 fb 68 9f bb b2 6b cb 3c 1b 32 60 3c 80 3c 4a 3c
       -0.0048648096 0.024831627 0.013683821 0.012343526
0000c0 e3 ca 43 3c d3 88 9a 3b 82 c7 17 3c ca a6 b6 3b
       0.011950227 0.0047160177 0.009263875 0.005574082
0000d0 de fa bb 3c 16 68 cb bb c1 46 45 bb a6 11 92 bb
       0.022946771 -0.0062074764 -0.0030101987 -0.0044576703
0000e0 48 2b 03 3b d7 a2 1f 3c d9 12 8a 3c 87 27 47 b7
       0.0020014811 0.009743414 0.01685469 -1.18705275e-05
0000f0 37 81 25 bc 9d 57 d6 bb 30 cf 38 bb 38 9e ad 3c
       -0.010101608 -0.006541206 -0.0028199665 0.021193609
000100 0d 98 37 3c c3 47 0c 3a 96 68 3d bc 44 2b ca 3a
       0.011205685 0.00053512695 -0.01156058 0.0015424271
000110 6c 37 5b 3c 8b bb b1 3c 55 8e 72 3b 17 bd 6d 39
       0.013379913 0.021695873 0.0037011106 0.00022672523
000120 27 7c 54 bb 6f 31 fc 3c 7e 06 8b 3c e3 60 6d 3c
       -0.0032422633 0.03078529 0.01697087 0.014488432
000130 f8 7f 36 ba 48 0c 8f 3c 54 df 2d 3c fd 50 c4 bb
       -0.0006961818 0.01746191 0.010612328 -0.0059911
000140 59 3f 9d bb 00 59 e8 bc e0 fa 5b bc 3d db 1a 3b
       -0.0047988114 -0.028362751 -0.0134265125 0.0023629211
000150 57 f9 0a 3c 98 4a 85 bc 92 1e 91 3a 4b f2 9f bc
       0.008482299 -0.01627092 0.0011071733 -0.019524714
000160 03 66 93 bc 0c e6 83 bc 2e 9f 00 bc ef 40 78 3b
       -0.017992979 -0.016100906 -0.007850451 0.00378805
000170 97 72 8d bb cc 39 b7 bc 14 22 53 3a 99 96 6f bc
       -0.0043166387 -0.022366427 0.0008054089 -0.014623308
000180 56 43 07 bc f2 b7 bb bc c7 b9 6f bb 75 d8 0a bb
       -0.0082558 -0.02291486 -0.0036579238 -0.0021186147
000190 de 47 69 3c 61 1c a1 3c 85 bd 75 3c 8c 0b aa 3c
       0.014238326 0.019666852 0.014998798 0.02075746
0001a0 da ea 66 3c ff 16 36 bc d8 be aa bc 65 ea 56 bb
       0.014094079 -0.011113881 -0.020842955 -0.0032793519
0001b0 d8 aa 76 bb 61 18 ae 3a 63 6f 77 3b 96 fd 6e 3b
       -0.0037638452 0.0013282412 0.00377556 0.0036467067
0001c0 ff 6f 4c 3a 42 ab 0d bc 84 ee d6 3b c1 20 a6 3b
       0.0007798671 -0.008646788 0.006559195 0.0050698225
0001d0 d6 1f c3 3b 3b 37 b6 3b e8 57 43 3c 08 38 f4 bb
       0.005954723 0.005560783 0.011922814 -0.0074529685
0001e0 92 fb 76 bc 18 98 ef bb b1 f4 26 3b 5a fa 84 3c
       -0.0150746275 -0.007311832 0.0025475437 0.016232658
0001f0 38 9a ac 3b bb 0d f6 3b d5 a7 ac 3b 4e 3a 58 bc
       0.0052674077 0.007508961 0.0052690306 -0.013197495
000200 24 b0 14 bc dc bb 24 3b ab 38 3b bb e9 5d 3f 3b
       -0.009075198 0.0025136387 -0.0028567712 0.0029200262
000210 23 93 c5 3b 64 12 b1 bc ec a4 aa bc aa 33 19 bc
       0.006029503 -0.021615215 -0.020830594 -0.009350697
000220 27 81 f2 ba 75 19 1a 3c 81 43 05 bc 18 b7 46 3a
       -0.0018501625 0.0094054835 -0.00813377 0.00075803837
000230 1b a1 27 bc 8c e0 3f bc e4 0c fe ba 97 72 c5 bb
       -0.010231282 -0.011711251 -0.0019382504 -0.006025623
000240 c5 e7 b9 3b 7f ec 89 3b 75 3b 5e 3b d1 0c 1d bb
       0.005673381 0.0042091007 0.003390995 -0.0023963938
000250 2f 0c ea 3a f2 f1 ea bb 46 0e 74 bc dd fb 28 bc
       0.0017856414 -0.0071699554 -0.014895981 -0.010313955
000260 c6 4c 9b bb 82 ba 76 bc 27 9a dc bb 1a 3a ed bb
       -0.0047393767 -0.015059115 -0.0067322436 -0.0072395923
000270 cd ab 8c bc b3 c4 a0 bc 23 96 d1 bb f1 81 32 bc
       -0.017171765 -0.019625043 -0.0063960715 -0.010895238
000280 6b 8d 0c bc a5 b4 78 bc de ea da bb f7 80 52 bb
       -0.008578639 -0.015179788 -0.0066808304 -0.0032120326
000290 a0 f2 eb bb 76 ff b1 3b 5d fd 5d 3c 58 41 a1 3b
       -0.007200554 0.0054320646 0.013549176 0.0049211197
0002a0 fb 46 f2 bb f7 98 cc 3b af 2d 00 3c 93 18 1a 3b
       -0.0073937154 0.006243821 0.007823392 0.0023513183
0002b0 06 6b b6 b7 65 8a 21 b9 9d 60 5c 3b 90 61 93 3b
       -2.1745927e-05 -0.00015405712 0.0033626922 0.0044977143
0002c0 6d 3b 09 3b 70 56 91 bb 9a bf 1b bc 17 f4 59 3b
       0.0020939962 -0.004435353 -0.009506131 0.003325706
0002d0 78 69 b0 3c 6e d4 ad 3c 46 5d 73 bc d1 e3 25 bc
       0.021534666 0.021219458 -0.014853781 -0.010125116
0002e0 18 7e 8e 3b e8 e0 7d 3b c1 d5 8b 3c e7 16 85 3c
       0.0043485276 0.003873879 0.0170697 0.016246272
0002f0 51 e7 92 3c a4 08 88 3a b0 e9 22 bb c6 25 8b 3b
       0.017932566 0.0010378552 -0.0024858527 0.0042464463
000300 d7 42 11 3c 05 78 19 3b 09 49 9c 3c 77 f2 9d 3c
       0.0088660335 0.0023417484 0.019077795 0.019280655
000310 65 28 e6 3c 12 79 9f 3c ba 5c 9e 3c 5c 1c 40 3c
       0.028095433 0.01946691 0.019331325 0.011725511
000320 00 8c aa bc 89 a4 a0 39 99 e2 12 3b 0e 43 3f 3c
       -0.02081871 0.00030640166 0.0022412895 0.011673702
000330 78 1b 21 3b df 8f 89 3a 42 22 0f bd 63 f0 a3 bc
       0.0024583023 0.0010495147 -0.03494478 -0.020012086
000340 92 7c 97 bc 59 de 25 bc 4b 84 12 3c 8a da 86 3b
       -0.018492017 -0.010123813 0.008942674 0.0041154074
000350 ad 4e c8 bb f4 a5 80 bc c6 6c 27 bc cb fd 01 3c
       -0.0061128945 -0.015704133 -0.010218805 0.007934044
000360 3a 2d f4 3b 67 e0 99 bb b9 90 61 bb 4b e8 15 3c
       0.0074516805 -0.0046959403 -0.0034418537 0.009149621
000370 cf 53 43 3c a6 72 ad bc b8 cc b9 bb a3 e4 47 bc
       0.011921837 -0.021172833 -0.0056701563 -0.012200507
000380 8f 5c d4 3c cd 3a e7 3b 6a ed 11 3b c6 c2 b2 bc
       0.025923042 0.00705657 0.0022266754 -0.02182139
000390 8d ab bf bc 5f 97 12 3c f1 52 03 3d 32 97 02 3c
       -0.023397231 0.0089472225 0.03206152 0.007970618
0003a0 90 02 2c bc e8 06 f7 3b 7a 68 a5 bc b7 f0 0b b9
       -0.010498658 0.007538665 -0.02019142 -0.00013345746
0003b0 c7 4e 6e 3b 38 6b 74 3c b5 56 8f 3c 63 1f e4 bb
       0.0036362873 0.014918141 0.0174974 -0.0069617494
0003c0 5e 72 32 bc cc 83 eb 3b 9e b4 13 bc 20 4e de 3a
       -0.010891525 0.0071873423 -0.00901523 0.0016960539
0003d0 40 ef 82 3b 2c 8b 70 3c 90 88 03 bc 27 52 c1 39
       0.003995806 0.014681619 -0.0080281645 0.00036873037
0003e0 28 43 bf 3b 56 32 4c bc 76 03 ef 39 2d d2 e4 ba
       0.005836863 -0.012463173 0.0004558821 -0.0017457657
0003f0 66 d2 99 ba c8 e3 32 bc cc 8f bf 3b 9b 34 41 bc
       -0.0011735677 -0.010918565 0.0058459993 -0.011792327

exp_avg_sq f4 [8, 1, 7, 7]
000000 2c ad e8 3c 16 8f 80 3c 14 43 ad 3c 76 91 aa 3c
       0.028402887 0.015693229 0.02115015 0.020821314
000010 46 41 90 3c 06 0e 8d 3c ed 87 8d 3c 7e 86 51 3c
       0.01760925 0.017218601 0.017276729 0.012788413
000020 73 bb 9e 3c 42 42 9c 3c 2c c7 c6 3c cb 05 94 3c
       0.019376492 0.019074563 0.024264894 0.018069169
000030 71 37 78 3c 9f bc 62 3c 78 c0 ac 3c e4 c4 df 3c
       0.015149937 0.013838916 0.02108787 0.027315564
000040 fe ba 38 3d e9 67 04 3d 34 b2 45 3d ec 52 89 3c
       0.045100205 0.03232566 0.04826565 0.016763173
000050 e1 2f fa 3c 4c d1 a7 3c e0 26 b7 3c 34 f4 22 3d
       0.030540409 0.020485543 0.022357404 0.03978367
000060 fd 9a e9 3c e0 aa 3b 3d a1 19 f6 3c 8c 46 87 3c
       0.028516287 0.045817256 0.030041518 0.016513132
000070 07 e2 b1 3c 1d 21 96 3c ff f3 16 3d f2 90 f5 3c
       0.021714224 0.018326337 0.036853787 0.029976342
000080 a4 3a b4 3c a5 d2 da 3c 47 9d 9d 3c 45 eb e4 3c
       0.022000618 0.026711771 0.019240035 0.027944217
000090 fb af 92 3c 41 0a 03 3d 3d 87 d1 3c 1c 90 11 3d
       0.01790618 0.0319922 0.025577182 0.035537824
0000a0 d6 0c da 3c b0 ad be 3c 70 1d 9b 3c 95 83 82 3c
       0.026617449 0.02327618 0.018934935 0.015931884
0000b0 fb 34 84 3c 22 7e c4 3c 5e da 10 3d 08 14 92 3c
       0.016138544 0.023985926 0.0353645 0.017831817
0000c0 71 f4 52 3c fb 38 b3 3c 44 6b 63 3c 13 ab a3 3c
       0.012875662 0.021877756 0.013880555 0.019979035
0000d0 4a fa b2 3c af 1f a3 3c ba 43 89 3c dd cf 68 3c
       0.021847863 0.019912569 0.016755927 0.014209715
0000e0 31 e4 88 3c a6 d0 8c 3c 04 f9 43 3c cb d7 8d 3c
       0.016710373 0.017189335 0.011961225 0.017314812
0000f0 43 9f 88 3c 9c 62 82 3c 24 fe a3 3c 90 b9 9b 3c
       0.016677504 0.015916161 0.020018645 0.019009382
000100 33 25 aa 3c e8 9c 10 3d b7 f8 07 3d ce 5e fa 3c
       0.020769691 0.035305887 0.033196177 0.030562785
000110 f4 a4 82 3c ea bc da 3c cf 71 b9 3c d5 19 87 3c
       0.015947796 0.02670141 0.022637276 0.01649181
000120 ee cd 01 3d c0 e2 bc 3c a0 bf 1d 3d 84 bc d5 3c
       0.03169053 0.023057342 0.038512826 0.026090868
000130 32 92 54 3c 7c aa 92 3c fc d8 99 3c ad 91 c4 3c
       0.012974309 0.017903559 0.018780224 0.023995245
000140 1b 17 bd 3c 7d ca 98 3c d9 b0 d3 3c 9d e5 77 3c
       0.023082307 0.018651241 0.025841163 0.015130428
000150 5a c9 82 3c 35 9f 7a 3c a7 5f c2 3c ad a8 a2 3c
       0.015965153 0.015296747 0.023727251 0.019855822
000160 8f 24 a8 3c b4 ce 9d 3c d4 34 95 3c 6b aa bd 3c
       0.020525245 0.019263603 0.018213667 0.02315255
000170 b0 ca 4e 3c a5 76 4f 3c b3 8f 94 3c 13 7b f2 3c
       0.012621567 0.012662564 0.018134927 0.029599702
000180 37 ed 84 3c da c7 5b 3c d7 9a a4 3b f3 ce 87 3b
       0.016226394 0.013414348 0.005023341 0.0041445433
000190 68 0a 72 3b ed bc 9e 3b 29 a1 83 3b c5 e0 67 3b
       0.0036932472 0.004844299 0.0040170145 0.0035381776
0001a0 2f 62 97 3b a3 60 73 3b 04 0a 87 3b 7e 98 64 3b
       0.0046198587 0.0037136457 0.004121067 0.0034880931
0001b0 56 b8 54 3b 54 0e 60 3b 0d d3 81 3b f1 af 93 3b
       0.0032458506 0.0034188228 0.003961927 0.004507058
0001c0 25 9a bf 3b f8 68 70 3b 98 68 83 3b 3e ec 75 3b
       0.005847233 0.003668366 0.0040102713 0.0037524845
0001d0 7a e7 c6 3b 8a 0f a7 3b 61 f9 99 3b e8 ab 83 3b
       0.0060700746 0.005098288 0.0046989177 0.0040182956
0001e0 bd da 50 3b 95 dc 68 3b d7 1d a8 3b a3 fb 95 3b
       0.003186866 0.0035531868 0.0051305103 0.0045771166
0001f0 af f0 a3 3b 40 11 ab 3b 7f ac 78 3b 88 08 2a 3b
       0.005003057 0.005220562 0.0037944613 0.0025945026
000200 ed 48 85 3b 23 36 e9 3b f4 4c 70 3b f5 c0 82 3b
       0.0040675313 0.0071170493 0.0036666961 0.0039902874
000210 76 0d 9c 3b 68 e8 96 3b af 3c a5 3b 74 41 91 3b
       0.004762347 0.0046053417 0.0050426344 0.0044328514
000220 d9 34 a7 3b 42 f9 a8 3b 55 51 a9 3b 1d bf b8 3b
       0.0051027355 0.005156667 0.0051671662 0.005638017
000230 c6 36 ba 3b 52 6b bc 3b e2 93 c7 3b dc 7f 8d 3b
       0.005682799 0.0057500983 0.006090627 0.0043182205
000240 4e 83 9c 3b c2 31 c8 3b a4 97 ba 3b b5 6c ac 3b
       0.004776395 0.006109447 0.0056943465 0.0052619823
000250 7b d0 fa 3b b4 aa 9e 3b de 9a 8f 3b da 77 59 3b
       0.0076542473 0.0048421267 0.0043824753 0.003318301
000260 d4 ae 8d 3b 09 e3 f3 3b c8 d4 97 3b 39 96 89 3b
       0.0043238197 0.007442836 0.00463352 0.004198816
000270 ac 03 94 3b 60 93 df 3b 39 4c 58 3b 59 b9 6c 3b
       0.0045170393 0.0068229884 0.0033004417 0.0036121218
000280 94 70 93 3b d9 d2 c2 3b 1b a4 b3 3b dd 64 8e 3b
       0.0044995043 0.005945545 0.0054822094 0.00434552
000290 c0 78 b8 3b 80 b2 c0 3b 1f 19 d1 3b 5b 97 97 3b
       0.005629629 0.005880654 0.0063811685 0.0046261973
0002a0 f7 3c b0 3b 39 d9 a9 3b 36 cd 0e 3c 9d 6b bf 3b
       0.0053783613 0.0051833657 0.008715918 0.005841686
0002b0 31 b6 1a 3b 87 88 cc 3b 6d 28 d3 3b 95 19 74 3b
       0.002360713 0.0062418613 0.006444028 0.0037246693
0002c0 89 22 86 3b b5 bb c5 3b a4 3e f8 3b fb 5e ad 3b
       0.0040934724 0.0060343393 0.0075758267 0.0052908636
0002d0 a1 31 9b 3b 1d 90 b6 3b c8 ce a4 3b 97 dc bb 3b
       0.004736141 0.005571379 0.005029533 0.0057330835
0002e0 8d 46 9e 3b e8 5d e2 3b 26 18 e7 3b b4 7c b3 3b
       0.0048301877 0.006908167 0.0070524393 0.0054775123
0002f0 82 4c b3 3b 10 d5 71 3b 05 32 96 3b c3 77 a8 3b
       0.005471767 0.0036900677 0.0045835995 0.00514123
000300 ba 7d 7a 3b 6b 89 6f 3b a1 f3 a1 3b a3 db e4 3b
       0.0038221912 0.0036550413 0.004942373 0.0069841905
000310 32 da 7b 3c 45 1b 9b 3c 46 84 08 3d e8 c7 8f 3c
       0.015371846 0.018933902 0.03332927 0.017551377
000320 63 57 84 3c 93 4c 88 3c ff 81 a8 3c 95 6d 86 3c
       0.01615495 0.016638076 0.0205698 0.016409675
000330 b1 cf f4 3c 29 66 ce 3c a2 f7 b0 3c 2d a9 01 3d
       0.029884191 0.025195198 0.021602456 0.03165548
000340 c7 a2 79 3c 3f 9f ab 3c f9 fb a2 3c 74 96 07 3d
       0.015236563 0.020949958 0.01989554 0.033102468
000350 70 49 cc 3c 11 88 1f 3d 59 4d 2d 3d b2 84 91 3c
       0.024937361 0.038948122 0.042310093 0.01776347
000360 ec 28 df 3c c6 76 ab 3c 9e 46 fc 3c 4f 3f 3c 3d
       0.027241193 0.020930659 0.030795392 0.045958813
000370 f9 1f 17 3d 63 70 3e 3d bf d0 ba 3c 9b 88 da 3c
       0.036895726 0.0464939 0.022804616 0.026676467
000380 12 c0 0d 3d 65 18 94 3c 5d e8 27 3d 65 fb 2b 3d
       0.034607 0.018078038 0.040993083 0.041987795
000390 15 57 0a 3d 6c 29 cb 3c e2 6c a5 3c 56 56 b4 3c
       0.033774454 0.024800025 0.020193521 0.022013824
0003a0 82 30 85 3c df c9 cb 3c 3f 9e be 3c 1e 30 95 3c
       0.016258482 0.024876533 0.023268817 0.01821142
0003b0 6b 27 d7 3c aa 6e 8f 3c ba fc 3b 3c ea 26 87 3c
       0.026263913 0.017508823 0.011473829 0.016498048
0003c0 67 74 a7 3c c0 35 9c 3c 75 ff b4 3c 82 ed 7d 3c
       0.020441247 0.019068599 0.022094468 0.015498521
0003d0 6f 76 a8 3c a8 d6 04 3c 3e e4 fa 3b 28 db 15 3c
       0.020564286 0.008107819 0.007656603 0.009146489
0003e0 e8 24 b1 3b 74 34 05 3c 48 ca de 3b 99 e2 e2 3b
       0.005406011 0.008130182 0.006799016 0.006923985
0003f0 85 7d b0 3b fa f7 31 3c dd 61 00 3c 78 56 19 3c
       0.005386057 0.010862345 0.007835832 0.009358995
