trained_models/CT_Sigma_5_t_10/checkpoints/checkpoint_10.pth (torch, 401651 bytes, 10 tensors)

conv_layer.conv_layers.0.parametrizations.weight.original f4 [8, 1, 11, 11]
00000000: 2c6b d9ba 4f8e f83c 6974 22bd 7546 813d
00000010: ab19 03bd e449 fcbc f9a6 9dbd da0b 9a3d
00000020: 1894 3f3d 7214 97bd a4ce 523d 79bf dabc
00000030: e0ec 3e3d 438d 4bbc 6dfa e83c 895f 0cbd
00000040: 55ed e23d aff9 643d bfde 88bd 57d0 55bc
00000050: 147c e4bb be0f 37bd d2a0 12bc de9b a43d
00000060: 350d 9abd d70b a4bd 2236 fcbc 0cc0 a9bd
00000070: f437 043d 0586 abbd 577b 013e be7f 92bd
00000080: 9146 a03d 573f 51bd c29e aabd 464e 923d
00000090: bb68 3c3d 4465 023e bc57 cf3d 850d a4bd
000000a0: efe9 023e 2c98 91bd 26bd 83bc 4f37 843d
000000b0: 27ba e43c bfcf 93bd 4555 803d 7a3f 123c
000000c0: c07b c63d 7b15 1ebe c577 97be 01ed 1bbc
000000d0: 94eb 33be aeac c03d 35e0 8cbb 3d42 813c
000000e0: 334e 263d 4734 103d ef2c 173e d85d aabd
000000f0: b1b9 1f3e 61fc 89be 7ff7 833d b1bc bebc
00000100: 257e 943c e1a4 5ebd db46 963d 532f 9ebd
00000110: 165d 0dbe ad96 9dbd 867b 543e dbc8 6e3e
00000120: f784 fe3d f0fc 16be 10c2 0ebe 1b4d 86bd
00000130: 0588 85bd 36de 5b3c eeac 973d 10b9 ac3d
00000140: 0a0b eebd 2674 fabd c12e 0a3e 8c7b 96bd
00000150: 91f4 483d 1ee4 30bc b7d5 c83d 294a 2dbd
00000160: 84a7 69bd 2aa4 b33c 29ea 093d 91d9 79bd
00000170: 94af b53d 5144 0e3e cb43 dabd dcb6 a1bd
00000180: 03fc 1d3e ec66 f2bc bd5f 9bbc c8d2 8dbd
00000190: c215 4fbd 339b 4b3d 468e 9a3c 8902 f8bc
000001a0: 39a1 d43b 8fa3 66bc b1ca debc 05cc 023c
000001b0: e4a1 75bd 1f09 1b3c 7289 1e3d 0e56 433c
000001c0: cf6d c23c b93d 85bd 6515 83bc 40d9 3abc
000001d0: e2e1 863d 41b9 0fbd 2aae 72bb 9df4 12bc
000001e0: 15e5 9f3c fded 58bc c954 563c e2d5 bdbc
000001f0: 5099 90bb 4bd6 9abc 9045 febc 3167 8ebd
00000200: ba81 a13d 5dc6 10bd 7921 213d fb88 d0bc
00000210: f635 e9bc 697f 8b3d 976e 2ebd ac81 89bb
00000220: 1a71 a0bd 8bd6 29be 441f c73c 8a18 bfbc
00000230: 5b97 4f3d 4ea7 afbd f423 963d a965 0fbd
00000240: d761 2ebd 4e29 8cbd 45b6 643d 394c 013e
00000250: 0c6c e93d cab4 24be 6338 8d3d 76f7 10bd
00000260: b54e 913b 6dcb 1bbd dfa5 043e c252 c6bd
00000270: dde2 ab3d a4e5 233b e9af 6e3c 992f 32be
00000280: a593 f73d 5dec b73c c690 313d 202b ebbd
00000290: 690c 213d e263 3c3c 5520 7ebd 8361 173e
000002a0: 7812 25bd cf6b 1abe 76dd 83be ed8d 1bbd
000002b0: cbed bebc 0eaf 70bc b0e6 a1bd 8446 f73b
000002c0: c4e1 57bd 7496 49bc 40de 263e b418 15be
000002d0: 98ac 423e c61f a73e f98d ce3d 6435 80bd
000002e0: 924d 0c3e 3396 813d 2bf8 fc3b e6c3 143c
000002f0: 2a95 52bd d419 14bc 23f4 4dbd 3331 b6bd
00000300: a32c 563e 868a ca3d a4ef e7bd 5d0f 1ebd
00000310: 5e94 c03c 8d94 3bbd 5f7d 173c 6c85 22bc
00000320: 9f20 d1bd 9b3f 60bd 9328 fb3d 2ac6 fe3d
00000330: 2bea 3bbd fd66 eebd 0255 c9bd 5740 3fbd
00000340: 6125 88bc 5fe9 d33c 1017 803d de8d a73d
00000350: 2c1d 87bd 2ad1 aabd a90a 11be 10af c53d
00000360: e4be 2bbd 125f aa3c b2c9 6a3d 221e af3b
00000370: 6f43 99bd 04f0 b73c 80d0 a8bd 7a06 b03c
00000380: 7b53 05be 695e 6b3d 5390 6f3d 1d87 3b3d
00000390: 7cf4 c03c 76cf 7cbd 572c 503c c28a ed3c
000003a0: 8f6e 02bd 5a38 953c 755a 4f3d c7e6 c03b
000003b0: 3989 ae3c 8adc c6bd 6dd8 02bd 88c5 acbc
000003c0: 6eab 633d 800c aebc 786c 88bc 1eed 68bc
000003d0: 9bd7 083c 84af 04bd e8c1 8dbd 3024 3c3d
000003e0: 3feb 6fbd 02f1 6c3d de15 10bd 291c 94bd
000003f0: d1f1 f23c 9c1a 8dbc 1ee9 97bc d723 bdbd
-0.0016587726 0.030341296 -0.0396618 0.06312267 -0.0320069 -0.030796953 -0.07697863 0.07521792
0.046772093 -0.073769465 0.0514666 -0.02670263 0.04661262 -0.012423816 0.028439725 -0.034270797
0.11080424 0.05590218 -0.066831104 -0.01305016 -0.006972799 -0.044692747 -0.008949475 0.08037542
-0.0752205 -0.08010071 -0.030787531 -0.08288583 0.032279924 -0.083751716 0.12644707 -0.07153271
0.078259595 -0.051085796 -0.08331062 0.07143836 0.045998316 0.12733942 0.10124156 -0.08010391
0.12784551 -0.071091026 -0.016081404 0.06455862 0.027920796 -0.07217359 0.06266264 0.008926267
0.09691572 -0.15437882 -0.29583564 -0.009516955 -0.17570335 0.09407936 -0.0042991885 0.015778655
0.04060192 0.035206106 0.14763235 -0.083186805 0.1559818 -0.26950362 0.064436905 -0.023283334
0.018126557 -0.05435646 0.07337733 -0.0772387 -0.1380504 -0.07694755 0.20750245 0.23318808
0.12427705 -0.14744925 -0.13941216 -0.065576755 -0.06520084 0.013419678 0.074060306 0.08433735
-0.11623199 -0.12229185 0.13494398 -0.073477834 0.04906136 -0.010796575 0.09806388 -0.042307053
-0.05704452 0.021928865 0.03367058 -0.060998503 0.088713795 0.13893248 -0.10657462 -0.07896206
0.15428166 -0.029590093 -0.01896655 -0.06924969 -0.05055786 0.049708556 0.01886667 -0.030274646
0.006488946 -0.014077081 -0.02719626 0.007983212 -0.059968844 0.009462624 0.038705297 0.0119223725
0.023734001 -0.06505913 -0.016001413 -0.0114043355 0.065860525 -0.03508878 -0.003703008 -0.008969453
0.019518415 -0.013240335 0.013081738 -0.023173276 -0.0044128075 -0.018901011 -0.03103903 -0.06953276
0.078860715 -0.035345424 0.039338563 -0.025455942 -0.028468113 0.06811411 -0.042585935 -0.0041963663
-0.078340724 -0.16585748 0.0243069 -0.02332713 0.050681453 -0.08576833 0.07331076 -0.03500906
-0.042573776 -0.06843816 0.05583789 0.12626733 0.113975614 -0.1608459 0.068955205 -0.035392247
0.0044344314 -0.0380358 0.129539 -0.096837536 0.0839288 0.0025008703 0.014568307 -0.1740097
0.12088708 0.022451574 0.043350957 -0.11482835 0.039318476 0.011498423 -0.062042553 0.14783292
-0.040300816 -0.15080188 -0.257549 -0.037977148 -0.023306748 -0.014690174 -0.07905328 0.007546248
-0.05270554 -0.012303937 0.16295719 -0.14560205 0.19011152 0.3264143 0.10085673 -0.062601835
0.13701466 0.06327476 0.0077200136 0.009079909 -0.051411785 -0.009039361 -0.050281655 -0.08896103
0.20915465 0.098897025 -0.11325005 -0.03858887 0.023508247 -0.045795966 0.009246199 -0.009919506
-0.102113 -0.05474816 0.12263598 0.124401405 -0.045877617 -0.11640737 -0.09830667 -0.04669222
-0.016619386 0.025868116 0.06254399 0.08181356 -0.06597361 -0.08340676 -0.14164223 0.09652531
-0.041930094 0.020797286 0.057321258 0.0053441683 -0.07483565 0.022453316 -0.08242893 0.021487463
-0.13020127 0.057463083 0.058487248 0.04578315 0.02355408 -0.061721288 0.012705884 0.028996829
-0.03184372 0.018215347 0.050623376 0.005886886 0.021305667 -0.09710033 -0.03194468 -0.021090284
0.05558341 -0.021246195 -0.016653284 -0.014216689 0.008352186 -0.032393947 -0.0692175 0.04593295
-0.058573958 0.05784703 -0.035177104 -0.072319336 0.029656323 -0.017224602 -0.018543776 -0.092353515

conv_layer.conv_layers.1.parametrizations.weight.original f4 [32, 8, 11, 11]
00000000: eaf9 0b3a 193e 173c 393b 15bd e966 283d
00000010: 9f6f 26bd 5d1d a93c da49 6f3d bec9 ddbc
00000020: 4acc 34bc c51e 2ebc 204e 473a 2879 d3bc
00000030: 69bd 7a3d 54a7 293d b984 13bc 0524 763d
00000040: abbc fcbd 8738 55bd 7815 073c 6ee1 a33b
00000050: 0c70 303d 88ee 36bb 8a4b c13c d54f ccbc
00000060: d7e9 a7bd 6d35 52bc 238b 143e 3d0f 963a
00000070: 4c7a 253d c290 6a3d 0f9c e23c 8cdb 96bd
00000080: 6695 6639 0f39 9dbb 01e5 05bd 63bb c03d
00000090: 8f6b 433d 7807 35be a5c7 12bc bb6a a3bd
000000a0: acda 88bc e9b4 fa3c 76b1 043d 045d df3c
000000b0: c721 75bd 2e27 d93d 8f10 88bd 0771 553c
000000c0: 3fbc 72bc bbea b93d 3e6d 1fbd ba7d 8a3d
000000d0: f7f8 5ebd 9583 6c3d da60 c0bc e89c 653d
000000e0: ac3b d5bc ee0f 8ebd 3f8d 103e be11 85be
000000f0: 53ef a43d 6f2f 59bd d9a6 a73b 0820 d9bc
00000100: 734c 2dbd 687f 303c 26db 81bd 2f76 7f3d
00000110: 2b29 46bc 8246 edbc c96d 4d3d 3730 3dbe
00000120: c0e4 1b3d bbe2 e83c 6fc6 873c 78fd 823c
00000130: f0cf 89bc b4b2 5bbb c71c 9ebc 0182 053d
00000140: 52b3 cf3c 6add 32bd 55bd 123e 75dc 463d
00000150: 0fa5 04bd 558f 34bc 5ad7 173c c361 913b
00000160: eff5 cc3b e9ef 45bd dced e43c f601 1abd
00000170: ab6f 463c d0e5 89bd 4035 32bd c9ec 5c3d
00000180: 3295 0dbd aff0 813d f9ac 48bd efcb 31bc
00000190: ec72 6a3d f07d 12bb 5329 86bd 9b60 003c
000001a0: bf87 093d d7b7 2b3d 78ee 18bd 7546 853c
000001b0: e81f 26bc 73b1 a93b 53b1 2a3c 8770 eabc
000001c0: 4131 9f3b f900 083d d2a0 bdbc 4070 58bb
000001d0: ead7 fa3c f83b 06bd 956a 6b3c 536e 1ebd
000001e0: 42ed 853c cc5e 853c 23a7 c93c 529f bd3b
000001f0: d6f0 e1bc e20c 993d 8be4 9ebd fc12 5d3c
00000200: 8967 153c c004 3bbc 48ef 78bc b1d3 453b
00000210: 9f6b 4abd b5ad 503d ae46 97bd 3a9c cd3c
00000220: a29f 34bd 9036 bb3d 882b d03b 8e0d 65bd
00000230: 6088 333d 7b50 bebc 4188 b03c 0755 633c
00000240: 6480 1a3c c7ab 373d ad44 27bd d56f cf3d
00000250: ea0b b3bd f793 bfbd abe1 b83d cd1f 56bd
00000260: 7585 7bb8 78aa 71bc f7a9 d73b 2c0f aabd
00000270: 5023 123d 40e9 48bc 67fa 51b9 fb97 7f3c
00000280: 185d 0b3d fb82 283d 99c8 2dbd b6ad 293d
00000290: 35ca 5bbb 2764 c13d 0c93 58bd 0aff 2fbb
000002a0: 9ffc 9f3c 98a7 863c 1ed4 b7bc 02ff a23c
000002b0: f658 f1b9 acc0 afbb 0b76 a6ba 8771 9c3b
000002c0: 0f94 50bd 8d8e 15bd 1a30 6a3d 2ef8 7bbd
000002d0: a33f 633d dfad 5bbd c4e3 05bd 7dd2 0d3c
000002e0: 37e9 843c 45e9 adbd 8f81 45bc 9b83 283d
000002f0: ea7e 403d 465d 1c3d 69c3 cfbd 807e 823d
00000300: 29a3 1bbd e716 4fbd ecfd 6a3c 4032 a7bc
00000310: 9781 cabd 84db f43c f3cb e6bc 087f 2b3c
00000320: 2c32 403d 362b e0bc 5555 b93d 646b 90bd
00000330: 0ce2 b8bc 6f8f 383d f6d6 c9bb 4590 a93c
00000340: 840f 1b3c 4f87 693c cb3d a1bd 77dc 9c3b
00000350: 5742 053d 1248 49bd e950 0b3e 8560 bdbd
00000360: a6c8 1c3d d31a d6bd 4ab8 853d 28d9 94bc
00000370: 9760 8ebb 9429 833d 689f 123d 15e2 c2bd
00000380: f469 6f3d fdb0 92bd 1c85 893c 7bb4 863c
00000390: 8d8c cc3c 92b3 e1bc 7ae0 483b f378 39bc
000003a0: 5045 293c 34e6 36bd 6b87 2f3d 4ab2 923c
000003b0: 7c50 fa3b e43e 9fbc a513 28bb 28ec b8bb
000003c0: 8b48 0ebc 8011 903c 1faf 333d 72ca aabd
000003d0: 208d b53d bcef 8ebd 0d8b 5c3d 838c c0bc
000003e0: 7c3c b33a c0a8 1d3d eef5 503d ea29 ecbc
000003f0: b00e f537 f86f fdbc ca84 cf3d b032 03be
0.00053396693 0.009231114 -0.036433432 0.041113768 -0.040633794 0.020643884 0.05842004 -0.027073737
-0.011035034 -0.010627453 0.0007602889 -0.025814608 0.06121579 0.041419342 -0.0090038115 0.060092945
-0.12340673 -0.05205586 0.008244865 0.0050012385 0.043075606 -0.0027913172 0.02359559 -0.02494041
-0.08198898 -0.0128301205 0.14506201 0.0011448633 0.040399835 0.057266958 0.027662305 -0.07366094
0.00021990165 -0.0047980617 -0.0326891 0.09410741 0.047709998 -0.1767863 -0.008958732 -0.079793416
-0.016705833 0.030603843 0.032395802 0.027266033 -0.059846666 0.10603176 -0.06643783 0.013027436
-0.014815389 0.090779744 -0.03892254 0.06762262 -0.05443665 0.057742674 -0.023483682 0.05605784
-0.02602943 -0.06936632 0.14116381 -0.259901 0.0805346 -0.05302375 0.0051163253 -0.026504532
-0.042309236 0.0107725635 -0.06340627 0.062368568 -0.012094776 -0.028964285 0.050153527 -0.18475424
0.03805995 0.028428426 0.016574113 0.015990004 -0.016822785 -0.0033523263 -0.019300831 0.032594685
0.025354061 -0.04366819 0.14330037 0.048550088 -0.032383975 -0.011020501 0.009267652 0.004436703
0.0062549035 -0.0483245 0.027945451 -0.037599526 0.012111585 -0.067332864 -0.043507814 0.053936753
-0.034566112 0.06344735 -0.048993085 -0.010851844 0.057238504 -0.0022352897 -0.06550851 0.007835533
0.033576723 0.04192337 -0.037336797 0.016268948 -0.010139443 0.0051786243 0.010418254 -0.02861811
0.0048581664 0.033204053 -0.023147974 -0.003302589 0.030620534 -0.032772034 0.014368673 -0.038679432
0.016348485 0.016280554 0.02461583 0.0057868147 -0.02758066 0.0747316 -0.07758435 0.013493296
0.009118923 -0.011414707 -0.015193768 0.0030185992 -0.04941904 0.05094691 -0.07386528 0.025098909
-0.04409755 0.09141266 0.0063528456 -0.05592113 0.04383123 -0.023231735 0.021549346 0.013875253
0.009430025 0.044841554 -0.04083698 0.10128752 -0.08742507 -0.09354394 0.09027418 -0.05227642
-5.9967355e-05 -0.014750116 0.0065815407 -0.08303675 0.035678208 -0.012262642 -0.00020025075 0.0156002
0.034024328 0.041140538 -0.042427633 0.04142543 -0.0033537273 0.09442931 -0.05287461 -0.0026854896
0.019529639 0.016437337 -0.022440013 0.019896988 -0.00046033383 -0.0053635444 -0.0012699974 0.0047742757
-0.05092245 -0.0365129 0.05717478 -0.06151598 0.05548061 -0.053632613 -0.032687917 0.008656141
0.016224487 -0.08491758 -0.012054815 0.041141134 0.046996035 0.03817489 -0.101446934 0.06371784
-0.0379974 -0.05055895 0.014342766 -0.020409703 -0.098879986 0.02988983 -0.028173422 0.010467298
0.046922848 -0.027364355 0.09049479 -0.07051733 -0.022568725 0.045058664 -0.0061596585 0.020698676
0.009464148 0.0142534515 -0.07873114 0.0047870236 0.03253397 -0.049140997 0.13605084 -0.09246925
0.03827729 -0.10454335 0.06529291 -0.018169954 -0.0043450105 0.06404415 0.035796553 -0.09515778
0.058450654 -0.07162664 0.016787104 0.016443482 0.024969364 -0.027551446 0.0030651377 -0.01132034
0.010331467 -0.044653133 0.042853754 0.01790728 0.007638989 -0.019439168 -0.0025646475 -0.0056433864
-0.008684288 0.01758647 0.04386818 -0.08339395 0.08864808 -0.069793195 0.053843547 -0.023504501
0.0013674642 0.03849101 0.051015787 -0.02882858 2.9213115e-05 -0.03093718 0.101327494 -0.12812304

activation.coefficients_vect f4 [672]
00000000: 0000 0080 b30f 943a 98a0 4d3a 70bc 2e3a
00000010: a60f 8b39 c2f6 bab8 ff26 15b9 cc1d 5eb9
00000020: 6733 c3b9 72fb 4bb9 7c48 41b7 0405 3339
00000030: 21dd b439 31fc 0a39 b6f0 ec37 e037 a7b9
00000040: d62e 52ba 134c 9eba c3bf b5ba d93b 3bbb
00000050: 0000 0000 0000 0080 f804 cc3a fa8b bf3a
00000060: cb9c 5c3a 40bc 3f3a e7d2 7e39 ae3a 7e39
00000070: 1605 2839 f018 e238 76ae 9d38 3d4b e0b6
00000080: 403b 53b7 60a2 9db8 24aa bab9 8040 fab9
00000090: 909e 2eba bc68 40ba bf5a 46ba 0f8b 71ba
000000a0: 1c3a c1ba 0000 0000 0000 0080 a902 5b3a
000000b0: b696 323a 85a3 b339 385b 0339 d9ee ba38
000000c0: 8df4 9238 3ce1 19b8 3054 f1b8 a97d 2ab8
000000d0: f1e3 a738 c47b 5e39 c173 a639 e463 9239
000000e0: 722f c938 0c3e 54b9 7bc8 0fba 742a 4fba
000000f0: 2a2a c9ba 1bf8 d0ba 0000 0000 0000 0080
00000100: 7b39 373b 3038 d43a 1c2e b83a dd61 843a
00000110: 7e7c 653a d630 a739 8d8a 5b39 cd0f a937
00000120: ac43 72b8 f171 e3b8 9878 eab7 11c8 46b8
00000130: e3a6 70b8 408b 19b9 8e0d cdb9 8186 27ba
00000140: 5af0 60ba a06c b2ba 30d2 c1ba 0000 0000
00000150: 0000 0080 5b46 723a acc2 363a 16a9 333a
00000160: 52cf cb39 13c0 ba39 70d8 8139 0ca1 2539
00000170: af0a 0539 5de9 ee38 83d0 e138 e8bb 3d38
00000180: 1372 0cb8 5b29 40b9 f70b 7db9 1a0a 24ba
00000190: 8e72 9bba 4bab c2ba d632 03bb d7d9 04bb
000001a0: 0000 0000 0000 0080 e8de 4f3b 0491 1a3b
000001b0: 5fa9 a53a 6f2b 7b3a de6f 293a 52bf 2c39
000001c0: b574 d838 5869 3db9 30a6 65b9 3d4e f5b8
000001d0: c82b 85b7 28ca 85b8 a6bc 9fb8 36c9 6eb9
000001e0: 691d 4cba 9bec 5cba 340a a0ba d9ce a9ba
000001f0: ebea 35bb 0000 0000 0000 0080 7c92 db3a
00000200: 27f1 d03a d742 983a a4f1 613a 8ee9 613a
00000210: 7d34 033a 0106 cd39 6882 9039 9c61 67b9
00000220: 2d91 21b9 1c95 b5b8 cb09 7eb8 05af 06b9
00000230: f3a8 adb9 9222 e5b9 0de9 8fba 9abb e7ba
00000240: ffcb 09bb a51f 26bb 0000 0000 0000 0080
00000250: 85e8 f23a 52e3 ec3a 580d 383a 9fa3 253a
00000260: 04be 1b3a f768 173a dfda 8839 764c 6b39
00000270: 50d6 3c39 55f4 b137 75df c4b8 4e4e 96b9
00000280: 0d50 d4b9 df6e e7b9 9a0c feb9 32fd 55ba
00000290: 2251 57ba c410 d8ba 68b1 06bb 0000 0000
000002a0: 0000 0080 8b23 053b b3f7 013b 41c8 9b3a
000002b0: 90c4 5e3a 4f13 2c3a f1df c239 2392 a739
000002c0: ef35 5739 c551 1cb7 0e36 ab37 fe8b 7338
000002d0: 31d7 a9b8 6160 60b9 ff57 aeb9 fc53 51ba
000002e0: 05a1 95ba 1041 deba 1fb1 07bb c366 0dbb
000002f0: 0000 0000 0000 0080 bb0a 273b e445 253b
00000300: 368f 003b 383e 463a eb51 193a c295 9339
00000310: e0cd 8139 659c 2fb9 1f80 62b9 f1c5 97b8
00000320: 4203 9938 bbf4 e737 692e 7eb7 36b5 3db9
00000330: f162 08ba 946a 3fba 05e0 d7ba 3707 e9ba
00000340: e465 36bb 0000 0000 0000 0080 b886 ba3a
00000350: 606a af3a 1a23 963a 92f2 133a 6446 023a
00000360: ad14 9539 b313 8b39 4b79 6f39 e773 0339
00000370: 10c7 07b9 d429 d8b6 df8b 1fb8 64f0 e1b9
00000380: 99c6 feb9 f4e3 a5ba c421 b3ba b2a9 edba
00000390: 1b89 f6ba 425d 38bb 0000 0000 0000 0080
000003a0: a8f7 5e3b d18a 073b 9a2b ae3a 0509 653a
000003b0: 128d a639 6d49 6439 2263 1139 99ce 0a37
000003c0: ecf3 30b8 076d ab38 bcec 5539 8905 d0b9
000003d0: 6a08 f4b9 7800 07ba ba47 20ba 13c6 34ba
000003e0: 8c0e 67ba e21b f4ba c114 0fbb 0000 0000
000003f0: 0000 0080 def5 473b 257a 1c3b 1558 063b
-0.0 0.0011296183 0.000784406 0.00066656526 0.00026523805 -8.9151334e-05 -0.00014224274 -0.0002118267
-0.00037231596 -0.0001945326 -1.1520573e-05 0.00017072639 0.0003449703 0.00013254654 2.8245482e-05 -0.00031894352
-0.00080178434 -0.0012077115 -0.0013866354 -0.0028569608 0.0 -0.0 0.0015565446 0.001461386
0.0008415698 0.0007314123 0.00024301895 0.00024245188 0.00016023623 0.00010781165 7.518839e-05 -6.684479e-06
-1.2590375e-05 -7.516588e-05 -0.0003560345 -0.00047731772 -0.0006661201 -0.00073398254 -0.0007566623 -0.0009214142
-0.0014742049 0.0 -0.0 0.00083545834 0.0006812619 0.00034263372 0.00012527115 8.91366e-05
7.007374e-05 -3.668781e-05 -0.00011507457 -4.064819e-05 8.005638e-05 0.00021217676 0.0003174823 0.00027921714
9.593264e-05 -0.0002024101 -0.0005484891 -0.00079027493 -0.0015347649 -0.0015943082 0.0 -0.0
0.0027957845 0.0016191062 0.0014051828 0.0010099966 0.00087542075 0.00031889108 0.00020937082 2.0153728e-05
-5.776032e-05 -0.00010845427 -2.795113e-05 -4.7393205e-05 -5.7375884e-05 -0.00014643092 -0.00039110746 -0.0006390587
-0.0008580737 -0.0013612695 -0.0014787372 0.0 -0.0 0.0009242051 0.00069717574 0.0006853504
0.00038873643 0.0003561979 0.00024766056 0.00015795621 0.00012687848 0.00011392192 0.000107676744 4.5236113e-05
-3.348484e-05 -0.00018325953 -0.00024132417 -0.0006257609 -0.0011859701 -0.0014852075 -0.0020019314 -0.0020271444
0.0 -0.0 0.0031718556 0.0023584971 0.0012638977 0.0009581362 0.0006463508 0.0001647447
0.00010321421 -0.00018063688 -0.00021901052 -0.000116970834 -1.5875223e-05 -6.379589e-05 -7.616849e-05 -0.00022772406
-0.0007786365 -0.0008427591 -0.0012210072 -0.0012955322 -0.002775843 0.0 -0.0 0.001675203
0.001594101 0.00116166 0.0008619076 0.0008617871 0.0005005075 0.0003910512 0.0002756298 -0.00022066239
-0.00015408239 -8.658526e-05 -6.056744e-05 -0.00012844436 -0.00033123008 -0.0004370404 -0.0010979489 -0.0017679811
-0.0021026132 -0.0025348451 0.0 -0.0 0.0018532431 0.0018073118 0.00070210313 0.0006318632
0.00059410953 0.0005775834 0.00026103013 0.0002243983 0.00018008915 2.121382e-05 -9.3876304e-05 -0.0002866857
-0.00040495433 -0.0004414236 -0.00048456044 -0.0008163034 -0.0008213689 -0.0016484489 -0.002055252 0.0
-0.0 0.0020315375 0.0019831478 0.0011885242 0.0008497918 0.00065641565 0.00037169413 0.00031961603
0.0002052409 -9.317363e-06 2.040996e-05 5.8066093e-05 -8.0986305e-05 -0.00021398209 -0.00033253428 -0.0007985232
-0.0011415785 -0.0016956646 -0.0020704938 -0.0021576143 0.0 -0.0 0.0025488574 0.002521866
0.001961661 0.0007562372 0.00058486935 0.00028149603 0.00024758186 -0.00016747562 -0.00021600768 -7.2371105e-05
7.296215e-05 2.7651307e-05 -1.51503855e-05 -0.00018091951 -0.00052027317 -0.0007301953 -0.0016469961 -0.001777864
-0.0027831728 0.0 -0.0 0.0014230823 0.0013383143 0.0011454553 0.0005643751 0.00049695955
0.000284349 0.00026526823 0.00022838001 0.0001253631 -0.0001294876 -6.442171e-06 -3.803882e-05 -0.0004309445
-0.00048594622 -0.0012656436 -0.0013666679 -0.0018132238 -0.0018809171 -0.0028131758 0.0 -0.0
0.0034022126 0.0020682106 0.0013288141 0.0008737001 0.00031767093 0.00021771128 0.00013865207 8.273543e-06
-4.218884e-05 8.174223e-05 0.00020401453 -0.00039676976 -0.00046545576 -0.0005149911 -0.0006114204 -0.00068959704
-0.00088141183 -0.0018624032 -0.0021832439 0.0 -0.0 0.0030511538 0.0023876515 0.0020499278

u f4 [1, 1, 20, 20]
00000000: 1214 203b 6fb9 863a 270d 3439 1018 f53b
00000010: 061c a139 b8c6 bdbb d4dc 33bc f6c7 90bc
00000020: eade eeba e652 a6bb b83b 4fbb d8ce 97b8
00000030: 1833 123c 4cd3 a83a 8388 e9bb ae60 783b
00000040: 4be2 a43a 5d33 9d3a 75c1 2f3c b6fc 7fba
00000050: 34d2 2a3a 18b1 f5bb 8623 c2ba 19d5 4ebc
00000060: 7b91 623a c993 013c 6e73 0abb 248b ae3c
00000070: 1a78 a8bc 177b b23c 1665 b43c 4728 e73c
00000080: 3e20 86bc f4dd 2c3c 9c18 59bc 99cb 21bd
00000090: a2b1 f2bc 5418 cabc 77d8 513c f157 1a3c
000000a0: 0b6d 21bc a41d 58bb cc92 28bb 17db 993c
000000b0: 0d21 90bb e756 47bc 234e b73b f032 69bb
000000c0: 0e8d 243c f20c ad3c 3d9b 3dbd 6133 aa3b
000000d0: 358b 9bbb 5445 cbba c586 8a3c 0c9e 1d3d
000000e0: af7c 203d 1ed7 f7bc f2c0 69bc e8b0 aa3b
000000f0: 850b 973b 2ca8 d83c 9226 c83c 99a4 8c3b
00000100: 3da8 5fbc ad87 8abc d227 503c 1ca2 723d
00000110: e059 0c3d 94fb 673c d675 56bd b099 9dbd
00000120: 3893 ccbb 5968 273d fb28 033d e507 c93c
00000130: ca54 7e3d f410 aa3c 3023 e2bc 4b3d 06bc
00000140: e2d0 24bc 8ab4 c23c 282b 81bc fcc8 14bc
00000150: 6153 023b 0080 a134 7acf b43c a857 cbbb
00000160: 11c5 64bc 1d2f d7bc 9979 4cbc 484a 97b9
00000170: 13ff 1d3c 4280 243a 1929 463c e5bc 57bd
00000180: 3d52 7bbd 2e78 bf3b 7ff5 a83c 05ae c73b
00000190: d773 3abb dfe0 afbc 3276 b8bc 6d35 98bc
000001a0: f420 09ba e9ea 18bc 3bc0 38bd e4cf b5bc
000001b0: a7a1 2cbd 4612 923c 6029 a43d 9096 223d
000001c0: b6c1 cd3c 72ce 4dbc 0078 9bbc 593a 9fbc
000001d0: 3069 92bd 8ba8 9dbc 1595 cf3c cc50 34bb
000001e0: 645e 233c c698 01bc eca0 613c 7a2d f6bb
000001f0: 5e02 5f3b 2738 683c f674 a9bc 3202 853c
00000200: 4c1e 973c a93a 0fbd 6fe4 e3bc 6786 863a
00000210: 3ec9 adbc fd78 3fbd eccf 343d 4053 5b3d
00000220: 25bc 453d 1b3c 673c d066 8ebc e4cb b4bb
00000230: 786c 743b 8825 e7bb 86e5 0b3b 2b83 4b3c
00000240: a91e bf3c 6ff7 523c 1f4e 423d 203f 50bb
00000250: bb79 503d 8702 29bd 10fd 49bc 46af d1bc
00000260: 0858 e13c eedd 49bd 8ec6 d4bc 40c5 9ebc
00000270: 3c0f 063d 1065 223d b627 d9bc 27fe 843c
00000280: 9296 fe3a a9ec 00bd 0b42 dd3c b20e c43c
00000290: 65d7 ce3c 9048 e83c 0252 feba 6d75 48bd
000002a0: a6ed bbbc 7efc 443d 3667 883d 390f 4e3d
000002b0: 4f08 813d 0176 3a3d fb23 8fbd bc0c 2cbd
000002c0: 4f67 a7bc b4cf e53c 0789 9b3c 3fe4 e139
000002d0: b8c9 0b3c 584d 073c b759 32bc f337 efbc
000002e0: 9a3a 04bd cba3 813c ac98 1bbc f943 26bd
000002f0: 67e3 a8bd 1d64 cc3c b77a c63c ac09 e53c
00000300: 1ed3 47bd 3c7b 633d a2a8 27bc 1033 893c
00000310: d68d 06bc 7162 2f3c 5e10 25bc 25f8 1dbd
00000320: 98bd 38b9 56fc 863b c2de 44bd f650 51bc
00000330: aa0e a2bc 9980 36bd 8b77 0f3d 704f c93c
00000340: df7f 8cbc fe9d 6ebd 1696 9fbc 3444 2dbd
00000350: 69fd 3dbd 7782 a0bd c1e3 133d d264 103c
00000360: a1f9 543c 817c e1bb 0176 69bc a651 57bb
00000370: df60 913c c508 e43c 8c75 2dbc d1dc 953b
00000380: e127 0c3b 59ff 0e3c e097 963c 71e6 963d
00000390: 9a34 323d 82ae ecbc 15ac f9bc cd9f 503c
000003a0: 1878 2d3d 8318 0ebd 146b 2abb 327a 50ba
000003b0: 6403 d33c ea57 fbbb 4cbe de3b b6fa 923c
000003c0: 8ab0 a2b9 da74 4f3d 39be e0bb 2a46 27bc
000003d0: 8337 3a3d 93e3 183d b0d7 2cbb e45f 3ebb
000003e0: 48f4 413c 4e46 52bd 884e 99bc 1885 7d3c
000003f0: 055d 933d 9601 413d 9f9b 9abc 9b48 a73b
0.0024426025 0.0010278652 0.00017171037 0.007479675 0.00030729192 -0.0057915114 -0.0109779425 -0.017673474
-0.0018224393 -0.0050758 -0.0031621289 -7.238769e-05 0.0089233145 0.0012880354 -0.007126869 0.0037899422
0.0012579648 0.0011993457 0.010727276 -0.0009765135 0.0006516308 -0.007497918 -0.0014811612 -0.012624049
0.0008642894 0.00790877 -0.002112593 0.021306582 -0.020565081 0.02178721 0.022020858 0.028217448
-0.016372796 0.010550965 -0.013250496 -0.039500806 -0.029625718 -0.024669804 0.012807957 0.009420381
-0.009852658 -0.0032976652 -0.0025722263 0.018781228 -0.004398471 -0.012166715 0.0055940314 -0.003558334
0.010043396 0.021124337 -0.046290625 0.005194113 -0.0047468194 -0.0015508332 0.016909966 0.038480803
0.039181408 -0.030253943 -0.014267193 0.005209077 0.0046095275 0.026447378 0.024432454 0.0042920825
-0.013650951 -0.016910398 0.012704806 0.05923663 0.0342654 0.014159102 -0.05235847 -0.07695329
-0.006243136 0.040870998 0.032021504 0.024539897 0.06209258 0.020760037 -0.02760467 -0.008193324
-0.010059567 0.023767728 -0.015767649 -0.0090811215 0.0019886123 3.008172e-07 0.022071589 -0.006205518
-0.013963 -0.026267583 -0.012480163 -0.00028856308 0.009643334 0.00062752154 0.012094759 -0.05267038
-0.061357725 0.005843184 0.020624874 0.006093743 -0.0028450394 -0.021469532 -0.022517297 -0.018580163
-0.00052310457 -0.009333351 -0.0451052 -0.022193857 -0.04214635 0.01783098 0.08015704 0.03969437
0.025116783 -0.012561427 -0.018978119 -0.019437002 -0.07148969 -0.019245407 0.025339643 -0.002751398
0.009971235 -0.007909959 0.013771277 -0.0075127454 0.003402851 0.014173544 -0.020685654 0.016236398
0.018447064 -0.034968052 -0.027818887 0.0010263444 -0.021214124 -0.046746243 0.044143602 0.05354619
0.04827513 0.014113451 -0.01738301 -0.0055174697 0.0037296098 -0.0070540346 0.0021346523 0.01242141
0.02333005 0.012876376 0.047437783 -0.0031775907 0.05089734 -0.041262176 -0.012328401 -0.025596272
0.027507797 -0.049283914 -0.025973585 -0.019381166 0.032729372 0.039647162 -0.026508193 0.01623447
0.0019423536 -0.031475697 0.02700903 0.023932789 0.025249192 0.028354913 -0.0019403102 -0.04894011
-0.022940468 0.048092358 0.06660311 0.050307486 0.06300413 0.045522694 -0.069892846 -0.042004332
-0.020435004 0.028053142 0.018986238 0.000430854 0.00853198 0.008258186 -0.0108856475 -0.029201483
-0.03228245 0.015825173 -0.009496849 -0.040592168 -0.082464986 0.024950081 0.024228437 0.027958713
-0.04878532 0.055537447 -0.010233076 0.016747981 -0.008212527 0.010704623 -0.010074703 -0.038566727
-0.00017618237 0.0041194363 -0.048064 -0.01277565 -0.019782383 -0.044556234 0.035026114 0.024574012
-0.017150817 -0.05825614 -0.019480746 -0.04230137 -0.04638425 -0.07837384 0.036105875 0.0088131
0.012998969 -0.006881297 -0.014249326 -0.0032855063 0.017746387 0.027836213 -0.010587107 0.0045734425
0.0021386074 0.008727872 0.018382967 0.07368172 0.043507196 -0.028891806 -0.030477563 0.012733412
0.04235086 -0.034691345 -0.0026003765 -0.0007952779 0.025758453 -0.0076703923 0.0067975875 0.017941814
-0.0003103058 0.050648548 -0.006858614 -0.0102095995 0.045463096 0.037326407 -0.0026373677 -0.0029048854
0.011838026 -0.05133658 -0.018714204 0.015473627 0.071954764 0.047120653 -0.018873034 0.005105091

exp_avg f4 [8, 1, 11, 11]
00000000: a515 9239 c0c7 583b ebdb c2bb cb27 143c
00000010: 9dd6 853c 737e 3f3c 64df 3f3c 8197 083d
00000020: 7d6f 0c3d 4059 de3c 9d58 e83c 191f 32bc
00000030: 4589 bebb 9028 69bc d7f0 39bb 9f91 c43b
00000040: 260e f33b a128 7d3b 3859 913c 1bfb ae3c
00000050: 8447 a73c 2aac a93c 722c 02bd abf5 d3bc
00000060: ebb9 d9bc 3537 3dbc 9751 95bb aaf8 a6ba
00000070: 2a98 8eba c2aa d63b d3da cd3b f596 2d3c
00000080: fb5f a13c 904f 2dbd 2543 1fbd 40b3 01bd
00000090: 3c95 0bbc 39b6 00bb dcb6 28bb 3190 ef3a
000000a0: 2b62 433c 0f62 153c 74d3 663c 79ec de3c
000000b0: b594 31bd b18f 30bd 2d55 24bd 53ce 3ebc
000000c0: 14c6 023a bbb5 a4bb 8635 3bbb 8fa6 4e3c
000000d0: e133 523c f7da 443c 93c1 b93c 8a47 34bd
000000e0: 8483 25bd 0a99 33bd cd10 92bc e9eb 4abb
000000f0: 1fa2 0bbc 2fdc 44bc 2b67 6b3b 8c05 323c
00000100: 984d 553c cc94 aa3c e498 19bd 7cd2 f1bc
00000110: 5bfd 00bd 590e 8bbc 298b f1ba 7002 bcba
00000120: 28d8 84bb 5d85 d63b 4fe1 763c 6a5b ad3c
00000130: d184 ea3c 5881 f8bc 69e4 bfbc 0f04 93bc
00000140: 1e5d 0bbb 2048 823b 7b55 a53b 05bb fa3b
00000150: f88d 793c 8b02 973c 0985 d23c 8870 1d3d
00000160: 4b0a 27bd 18ec 12bd a438 efbc 2fee e4bb
00000170: eb19 4fbb 7af4 d9bb 046c 51bb 434b 103c
00000180: 5b6e 2a3c a429 723c cc4a fb3c 4595 dfbc
00000190: 6922 bebc 9930 c0bc c635 4c3a 353f f13b
000001a0: b502 a43a 8fdf 09ba 9b3a 653c 94bc aa3c
000001b0: d2d3 ba3c a893 073d dc31 5bbc 9e7f 8abb
000001c0: 3dce 0cbc a0a0 033c 2154 853c 0735 5d3c
000001d0: 9c8f 143c 0bec 9e3c dabf f43c e6d4 013d
000001e0: f913 223d a254 a9bb 8d03 f7bb 1a00 b0bb
000001f0: cd8b 89bb 0238 8d3b ffe3 d73b 1666 debb
00000200: 1341 29bb 8a83 b0ba a242 4ebc fa17 e7bc
00000210: 2c71 84bb 0ce5 b4bb c37a 8dbb ee62 8ebb
00000220: 2078 9c38 9d2b ef3b 40f7 8ebb 3eed afbb
00000230: f765 50bb 3337 18bc 6986 b8bc 4dc4 58bb
00000240: b928 c1bb 76d8 8cba 7b2a 1bbb 7a58 17bb
00000250: 462d e33b a2ed 9e3a 1914 8cbb a795 08bc
00000260: 9199 20bc f27d 8dbc 211f 513c 2187 cf3b
00000270: e20c 173c 38a6 4e3c 28a8 663c ef64 883c
00000280: 7544 683c f72b 543c 58fc 913b 1aff c6ba
00000290: 0029 1abb 428a d73c 08b5 453c d2c5 003c
000002a0: c679 823c 809b bd3c 88cd a83c b8a5 553c
000002b0: 3947 913c 2b5f 363c 166e ae39 9556 c8ba
000002c0: c358 b53c 2dc4 1e3c 8029 6c3a 9e08 a43b
000002d0: 4d50 903c e31c 913c ddc8 da3b 2c8d 373c
000002e0: 8082 233c ee74 8d3b e126 c139 82b6 e73c
000002f0: 268f a03c 73b3 933c 58af 9f3c d4f7 fb3c
00000300: 46a1 203d 7436 f13c 495b c13c 5567 b53c
00000310: 1887 a13c 3150 853c f6db f33b 511a beba
00000320: 5c52 f83b c3dc 2a3c f6a8 813c 1c31 c93c
00000330: a902 b53c 249d 473c 2dbe c63b e431 ea3b
00000340: b9ff 293c 000d 55bc ee82 c8bc 5774 3abc
00000350: 5fa0 8dbb 1546 4a3a 969f 863b 2a84 893b
00000360: b407 cb3a d654 e7bb 219c 12bc 480f 90bb
00000370: 4e00 2cbc 87b8 b8bc 6072 87bc 1607 1abc
00000380: 3f26 10bb 6419 6fbb 2358 09bc 74ea dabb
00000390: ff9b 0bbc c2de 62bc eb40 5ebc 5b31 0bbd
000003a0: 06a5 2dbd 731d 31bd cd0e 29bd 1ea7 ddbc
000003b0: 14d0 d9bc 6d09 15bd 9a62 1abd a2e9 14bd
000003c0: cbab 12bd 3d01 13bd e79b 5d3c 0f4e 373c
000003d0: 350c b83a 5971 d8bb 1613 77bb 4afa 1bbc
000003e0: bc93 6bbc a3f1 56bc 1228 e6bb 3644 28bc
000003f0: 47fe c9bc e9b2 483c 1d0e 603c f908 cb3b
0.00027863416 0.0033078045 -0.0059466264 0.0090426905 0.016337687 0.011687863 0.011710975 0.03334761
0.03428601 0.027142167 0.028362567 -0.010871672 -0.0058147036 -0.014230862 -0.0028372311 0.0059988047
0.007417458 0.0038628953 0.017742738 0.02135997 0.020419843 0.020711977 -0.031780668 -0.02587398
-0.02657791 -0.011548807 -0.0045568454 -0.0012738903 -0.0010879089 0.0065511176 0.0062821894 0.010595073
0.019699087 -0.042312205 -0.038882393 -0.031665087 -0.008519467 -0.0019639863 -0.0025743758 0.0018277225
0.011925261 0.009117617 0.0140885 0.027212368 -0.04335471 -0.043105785 -0.040120292 -0.011645871
0.00049886224 -0.005026547 -0.0028565838 0.012612953 0.012829752 0.012015096 0.022675311 -0.044013537
-0.040408626 -0.04384712 -0.017830277 -0.0030963367 -0.008522539 -0.0120153865 0.0035919647 0.01086558
0.013018988 0.020822905 -0.037499323 -0.029519312 -0.03149162 -0.016974615 -0.0018428314 -0.0014343988
-0.004054088 0.00654666 0.015068366 0.021161754 0.028627785 -0.030335113 -0.023424344 -0.017946271
-0.002126522 0.003975883 0.0050455905 0.007651689 0.015231602 0.01843383 0.025698202 0.038437396
-0.0407813 -0.035869688 -0.029201813 -0.0069864015 -0.0031601142 -0.0066514583 -0.0031955251 0.008807006
0.010402287 0.014780436 0.030675314 -0.027292857 -0.023209767 -0.023460673 0.0007789995 0.007362271
0.0012513014 -0.0005259448 0.013991023 0.020841874 0.022806082 0.0330998 -0.013378587 -0.004226639
-0.008594093 0.008033901 0.016275467 0.013501412 0.009067442 0.019399663 0.029876638 0.031697176
0.03956983 -0.0051675597 -0.007538265 -0.005371106 -0.0041975738 0.004309655 0.0065884585 -0.006787072
-0.002582614 -0.0013466936 -0.012589129 -0.028209675 -0.0040418115 -0.0055204686 -0.004317613 -0.0043452894
7.461035e-05 0.0072989003 -0.0043629706 -0.0053688576 -0.0031799057 -0.009290504 -0.02252503 -0.0033075989
-0.005894747 -0.0010745663 -0.0023676443 -0.0023093508 0.0069328872 0.0012125263 -0.0042748568 -0.008336461
-0.009802238 -0.01727197 0.012763769 0.0063332473 0.00921938 0.012612872 0.0140781775 0.016649691
0.014176478 0.012949935 0.0044551305 -0.0015182227 -0.0023522973 0.026311044 0.012067087 0.007859664
0.015927207 0.023145437 0.020605817 0.013039999 0.017734157 0.011131088 0.00033269887 -0.0015284593
0.022137051 0.009690327 0.00090088695 0.00500591 0.017616415 0.01771397 0.006676777 0.011203092
0.009979844 0.0043169176 0.00036840796 0.028285269 0.019599508 0.018029904 0.01949279 0.030757822
0.039216302 0.02944491 0.023603098 0.022144 0.019717738 0.01627359 0.007441993 -0.0014503693
0.0075781774 0.01042861 0.015827637 0.02455955 0.022095995 0.012183461 0.006065151 0.0071470607
0.01037591 -0.013003588 -0.024476495 -0.011380277 -0.0043220962 0.00077161315 0.0041083796 0.0041966634
0.0015489967 -0.007059674 -0.008948357 -0.004396353 -0.0104981195 -0.022548927 -0.01653403 -0.0094011035
-0.0021995453 -0.003648364 -0.00838283 -0.006680781 -0.008521079 -0.013847055 -0.013565282 -0.033982616
-0.042393707 -0.043240976 -0.04127388 -0.027057227 -0.026588477 -0.036385942 -0.03769169 -0.036355622
-0.035808366 -0.035889853 0.01352594 0.011188044 0.0014041724 -0.006605309 -0.0037700585 -0.009520123
-0.014378484 -0.013119134 -0.0070238197 -0.010270169 -0.024657382 0.012249687 0.01367524 0.006196138

exp_avg_sq f4 [8, 1, 11, 11]
00000000: c423 b43c 7f4b 9d3c 21a1 863c 937c 683c
00000010: ab03 593c 9bfd 543c dfcc 513c 8c53 563c
00000020: 0bf2 663c 4a5a 7c3c a045 8d3c 979c 993c
00000030: be97 803c 12c4 503c b53b 2d3c 7797 213c
00000040: 93ad 253c 2829 213c 2e33 263c a558 363c
00000050: 8fb4 493c 2f58 633c fcac 7f3c b948 4b3c
00000060: d92c 1b3c c41c f03b 32e7 dd3b 7e90 fa3b
00000070: cd30 ef3b d76c e73b 703b fe3b acaa 153c
00000080: 13f0 2e3c 3752 603c 282c 2f3c 0fcd 003c
00000090: 1530 c33b 6768 b13b 570b d83b fa25 c33b
000000a0: ac78 bd3b f225 cb3b c65b fb3b 6baf 153c
000000b0: 4e32 493c 7809 183c 27d1 d23b 3f72 a23b
000000c0: 1232 9c3b 5a63 b13b 2db2 993b c304 9b3b
000000d0: 278a ae3b a555 ec3b 8add 0c3c e39b 4a3c
000000e0: 6e91 1a3c 3cc7 d63b 69b7 a43b d639 a53b
000000f0: 1fd8 b73b 76b8 b13b dc71 cd3b c2b6 cc3b
00000100: 1061 fa3b 8470 113c 81d7 483c 08e7 1b3c
00000110: e322 e03b 82bc a73b 354e 993b 5f5b c03b
00000120: 9eee c63b 6ed6 d13b b5fb d43b d141 003c
00000130: cd28 163c 23d4 5d3c 68a1 353c 5c2a 073c
00000140: c565 cf3b 657c d23b 2c65 e83b 9f2a e43b
00000150: 3248 dc3b 62fa f03b c496 133c 3c84 2a3c
00000160: b2b2 763c c865 4d3c ef34 1b3c 97d7 f53b
00000170: 75fa f83b 701a 123c 5550 173c 763a 0b3c
00000180: 90a2 0e3c 30e4 263c 12ce 3e3c e806 903c
00000190: fa45 743c 7bd1 403c 05e6 203c 6aa4 1a3c
000001a0: b48e 2b3c dc1f 2d3c c215 2c3c 25cf 313c
000001b0: 605e 4b3c cafa 653c 8ada a73c 49db 923c
000001c0: 6349 743c 527f 4f3c e26f 433c f71a 503c
000001d0: 4963 533c 55c7 533c 959a 5b3c 74d4 723c
000001e0: 297c 863c 4b09 943c 4aa6 8a3c 5544 813c
000001f0: 28c2 713c cd04 723c 2e1c 813c cb3a 803c
00000200: 37f1 7e3c 001e 833c eca0 853c 306d 893c
00000210: 7c0b 643c 5ab6 503c aed7 3c3c 67ab 2f3c
00000220: cf03 343c 9143 483c 6a73 4a3c a438 403c
00000230: 3fe0 423c 2e6c 453c 4c1e 4c3c 3d80 353c
00000240: bcb0 1f3c 3d49 0d3c ed16 003c d980 013c
00000250: 8575 103c be26 0d3c 4852 0d3c 2822 133c
00000260: 4a38 193c 8133 263c dfb3 1e3c 29f9 073c
00000270: 7c12 e63b 4196 cd3b 8e3f cb3b 6427 013c
00000280: b206 fc3b c078 ff3b dbfb fe3b 22f9 023c
00000290: dab0 0f3c ae59 253c 0ece 0c3c 0e83 e83b
000002a0: 742d e33b 18ce fb3b 2fee 1d3c a3b7 053c
000002b0: 84a1 033c 5a45 043c 160a 073c 5e84 0d3c
000002c0: 0798 203c ac0d 093c 8b27 e43b 0b7d c73b
000002d0: 5f71 b03b bd37 c83b 7ee9 d53b 2432 ea3b
000002e0: a260 f03b e622 fb3b cffd 063c 7dc8 143c
000002f0: 09fc 003c fab2 c83b 5178 aa3b 6b12 8e3b
00000300: 8865 ac3b ee02 b93b 7844 d93b b2e6 d13b
00000310: 4d19 d33b 47e0 dc3b 70ce 353c 7dfb 213c
00000320: f0ed fc3b aa57 da3b 97c7 d43b 754c 053c
00000330: 688a 0a3c fcce 013c 6ba7 ea3b 2843 e73b
00000340: c3af 003c c39a 8a3c dd7b 7b3c 628e 553c
00000350: a485 413c 5046 3b3c f925 483c 5338 403c
00000360: 7d70 3c3c 2799 373c 38ea 353c ef77 413c
00000370: 5189 c23c cf6b b73c 89d6 a43c 5548 993c
00000380: c64e 903c d144 8f3c 9d64 8d3c d0bd 8c3c
00000390: 5d53 8a3c 4143 863c 04ff 873c 6628 e63c
000003a0: 271c de3c f231 ce3c b79f c43c b81b be3c
000003b0: 65ab bb3c e702 b53c ac1c b03c 85f7 ab3c
000003c0: 89e5 a63c 4dd7 a63c f788 eb3c 7d85 d23c
000003d0: f36f b03c cf4e 933c 2081 823c ea14 873c
000003e0: a0ff 833c 5033 813c e8b1 843c d304 8c3c
000003f0: de94 9e3c 7351 c53c 5235 ab3c fa36 883c
0.02198971 0.019201038 0.016434254 0.014189857 0.013245503 0.012999917 0.012805193 0.013081443
0.0140957935 0.015402386 0.017245114 0.018751426 0.015697356 0.012742059 0.010573317 0.009862772
0.010112184 0.009836473 0.010144038 0.011129533 0.012311115 0.013876005 0.0156052075 0.012407475
0.009471142 0.007327648 0.0067719454 0.0076466193 0.0072995187 0.0070625353 0.0077585503 0.00913493
0.010677355 0.013691477 0.01069168 0.00786139 0.0059566596 0.005414057 0.0065931487 0.005955455
0.0057822075 0.006199592 0.0076708524 0.009136061 0.01228006 0.009279601 0.0064336243 0.004957467
0.004766711 0.005413455 0.0046904297 0.0047307923 0.0053265276 0.007212358 0.008597741 0.012366268
0.009434087 0.0065545123 0.005026747 0.005042295 0.0056104804 0.005423601 0.0062696766 0.0062473724
0.0076409653 0.0088769235 0.012258411 0.009515531 0.0068400963 0.0051189074 0.0046785125 0.0058702673
0.006070926 0.006403736 0.0064997324 0.007828192 0.009165001 0.013539347 0.0110858455 0.008249845
0.0063292705 0.0064235204 0.0070921388 0.0069630886 0.0067224735 0.0073540667 0.009008113 0.010407504
0.015057253 0.012536474 0.00947307 0.007502507 0.007598216 0.008917436 0.009235461 0.008497825
0.00870575 0.01018624 0.011645811 0.017581418 0.014909262 0.011768694 0.009820466 0.009438613
0.010471035 0.010566678 0.010503234 0.01085261 0.0124126375 0.014036844 0.02048995 0.017926829
0.014910075 0.012664633 0.01192853 0.012701741 0.012902089 0.012925942 0.013403554 0.014821161
0.016416626 0.018070837 0.016924996 0.015779654 0.014755763 0.014771652 0.015760507 0.015653035
0.01556044 0.016005516 0.016312085 0.016775697 0.013918754 0.0127387885 0.011526031 0.010722018
0.010987236 0.01222314 0.012356618 0.011732254 0.011894285 0.012049718 0.012458395 0.011077938
0.009746727 0.008623418 0.007817966 0.007904255 0.008817081 0.008615194 0.008625574 0.008980311
0.009351799 0.010144115 0.009686439 0.0082991505 0.0070212465 0.006274015 0.0062026447 0.007882927
0.007691228 0.007796377 0.0077814884 0.007993968 0.008770192 0.010092182 0.008594049 0.007095701
0.0069329087 0.0076844804 0.009639307 0.008161458 0.008034114 0.008073175 0.008242151 0.008637516
0.009801871 0.008365076 0.0069627217 0.0060879043 0.0053846086 0.00611016 0.0065280786 0.0071470905
0.0073357383 0.0076640723 0.008239224 0.009081003 0.00787259 0.0061248513 0.005202331 0.0043356917
0.005261127 0.005646101 0.0066304766 0.006405675 0.006442225 0.006740603 0.011096582 0.00988662
0.007718794 0.0066632824 0.0064935195 0.008135905 0.00845585 0.007922884 0.007161071 0.007057566
0.007854405 0.0169195 0.0153493555 0.013034435 0.011811648 0.011430338 0.012216085 0.011732179
0.011501429 0.011205948 0.011103205 0.01180838 0.023747118 0.022390274 0.02012183 0.018711248
0.017615687 0.017488869 0.01725989 0.017180353 0.016885454 0.016389491 0.016601093 0.028095435
0.027113033 0.0251703 0.02400194 0.023206577 0.022908876 0.02209611 0.021498047 0.02099205
0.020373123 0.020366335 0.028751833 0.025698418 0.021537757 0.017981915 0.015930712 0.016489465
0.016113102 0.015771538 0.016198114 0.017092144 0.019358095 0.02408669 0.020899449 0.016627777

exp_avg f4 [32, 8, 11, 11]
00000000: ebb7 fc39 6406 8ab9 a213 2e3b 54a5 f239
00000010: 4ea5 0b3a aaf5 d3ba 885a c7ba ff9a a8ba
00000020: ae9a c4ba d7ff 56ba 1585 5839 c781 94ba
00000030: 80d8 14bb a202 3839 2367 b4ba c548 24ba
00000040: d4e0 53bb bf6e 2cbb 6732 05bb 5936 06bb
00000050: 7eab 09bb 1b62 f0b9 13c3 0e3a c783 edb8
00000060: 855a 503b 7690 6c3a b1a6 c43a a24d abba
00000070: 1878 c0ba 97bd feba 5537 1dbb 2419 08bb
00000080: a1e5 9539 3610 593a 858b 74ba 6bcd 253b
00000090: d085 b739 ef57 b23a 9fdb cdb9 8d03 e3ba
000000a0: 8be0 b0ba 27f8 06bb d1ae 01bb f92c 69b7
000000b0: eba6 263b c820 e938 cdbc 593b bf2d c43a
000000c0: 6bf1 393b e1c3 353a 23ca 93ba ee62 2e3a
000000d0: 9431 c3b9 0319 77ba 404e 4b39 66bb 3b3b
000000e0: ae51 fa39 3e58 593b e67a 9e3a 1416 3c3b
000000f0: 2fca 3d3a bda4 83ba 085e 4b3a 284b 6cba
00000100: 092b 26ba 812b 9939 9175 e13a 4acf 0eba
00000110: d69d 103b 3dfc 99b9 e158 a43a e490 69b9
00000120: d770 adba 5280 7d39 7ffd 95ba 241e a4b8
00000130: 0f4d 603a f1bc f73a 1d09 2bba 2083 ce3a
00000140: 6dc7 1bba a1e7 993a de82 1aba a1d2 f8ba
00000150: 81a5 823a 3bb2 dbba 0091 8035 539d aeb9
00000160: 9161 e93a 4710 ebb9 e955 e83a eb63 34b9
00000170: 7324 ae3a 57bf 72ba 9428 27bb 1863 343a
00000180: 610e 03bb 25dd 5839 1d0f 1dba b90b 953a
00000190: bb61 71b9 e666 173b 23ce 1639 a7d5 ac3a
000001a0: 58ed 5aba 044b 13bb e933 7a3a b49b c5ba
000001b0: 50a4 d939 ba7d 9a39 5302 a23a b1ce 2fb9
000001c0: bfed 063b 0c05 5bb9 c8a3 203a d864 afba
000001d0: 9692 3fbb e661 b7b8 6426 1dbb d716 c6b9
000001e0: 8e35 313a 0064 eb3a a840 283b 3af7 5a3b
000001f0: 47e8 d83a 3256 0f3b 786f 9839 2bc7 db3a
00000200: 65b1 153a fff2 603a f3bc 9f3a ac37 f93a
00000210: 217c 03ba 716c 34ba 4b33 bc39 bc8e 34ba
00000220: 01f9 d239 1370 a6ba 284d 543a 348f e8b9
00000230: e212 5fb9 b6c1 073a 8797 5f3a 420a 03ba
00000240: be79 d2b9 ba2b 103a 52a6 3aba f2f6 703a
00000250: 9594 f1ba a2fe 04ba 13b6 0cbb 4e9f b8ba
00000260: 8b42 82ba b0d5 abba 949e 96ba b579 86ba
00000270: 6da3 43b9 bb44 9dba b146 59ba 39ee 60bb
00000280: a1db 2ebb 7a39 3cbb df28 0ebb 1ce1 13bb
00000290: 6757 22bb 9af0 c4ba 7796 16bb 0265 ecba
000002a0: 3717 2ebb bb71 c4ba ad12 2fbb 008d 61ba
000002b0: 6573 b0ba d808 17ba cb7a 1dba d10e d7b9
000002c0: e03d 333a 8b23 42ba 43f1 6339 e35f 66ba
000002d0: b25d 3d3a 9d0c 56ba 4a1f 6c3a 9c6c 57ba
000002e0: 2e23 5dba ad28 beb9 147e 1aba b9cc 8f39
000002f0: e998 1839 235a df3a e9aa d839 82f4 e13a
00000300: 38a9 41b9 e479 973a 0e93 d337 fdaa a3b9
00000310: d723 17ba baf6 a3ba 65b8 b53a ec3c 163a
00000320: 45bb 153b f4e6 5e39 5ce1 ff3a e53c 8239
00000330: 11c0 f63a 9fa7 403a 839f 973a 5695 0b3a
00000340: a545 08b9 f138 0c3b 2dbb 4b3a 898d 013b
00000350: ae9f 22b9 bc4a cb3a 6074 75b9 b0b4 9e3a
00000360: 440c 4ab9 6b70 c23a 0654 7d3a f1fa 0d3a
00000370: 2f83 823a be38 26ba a7ee 9d3a a5ee 40ba
00000380: 3fa0 d43a 4c3f 69ba 39dc 503a 4ceb 32b9
00000390: f8c7 813a 9390 733a 08e9 143a 943f f539
000003a0: 830d a8ba 8619 8e3a d6c7 6eba 4a5a c63a
000003b0: 294c cfba 416e 2e3a 9631 17b9 391d f439
000003c0: 6bd6 143a f2e0 363a fb75 8db9 9403 fd38
000003d0: 2bb8 8aba a3e8 a63a 8b7b 8aba 8030 1c38
000003e0: ee53 36ba 1ae7 63b9 a7e4 c5b8 7a2c 5cba
000003f0: 7c88 6cba 1c5f 0ebb 2668 ceba 0a4e 72bb
0.00048202215 -0.00026326173 0.0026561995 0.00046281016 0.00053270615 -0.0016171236 -0.0015209476 -0.0012863575
-0.0014999711 -0.0008201575 0.00020648942 -0.001133018 -0.0022712052 0.00017548588 -0.0013763647 -0.0006266947
-0.0032330053 -0.0026311127 -0.0020324232 -0.002047917 -0.0021006758 -0.00045849461 0.00054459384 -0.00011325586
0.0031792235 0.0009024212 0.0015003291 -0.0013069401 -0.0014684228 -0.0019435164 -0.002398928 -0.0020766938
0.00028590581 0.00082803087 -0.00093286514 0.002529944 0.00035004178 0.0013606529 -0.00039264277 -0.0017319784
-0.0013494653 -0.0020594688 -0.0019788037 -1.3898353e-05 0.002542908 0.00011116412 0.0033224106 0.0014967247
0.0028372656 0.000693379 -0.0011275451 0.0006652315 -0.00037230237 -0.0009426029 0.00019388739 0.0028645634
0.00047744572 0.0033164169 0.001209107 0.0028699683 0.00072399055 -0.0010043603 0.0007757847 -0.00090138847
-0.000633881 0.00029214847 0.0017201175 -0.00054477586 0.0022066734 -0.00029370366 0.0012538695 -0.00022274588
-0.0013232481 0.00024175763 -0.0011443346 -7.8257435e-05 0.00085564045 0.0018900913 -0.00065244903 0.0015755631
-0.00059424975 0.0011742004 -0.00058941345 -0.0018983671 0.0009967537 -0.0016761491 9.578944e-07 -0.00033305082
0.0017805566 -0.0004483482 0.0017725799 -0.0001720336 0.0013286009 -0.0009260079 -0.0025506364 0.0006881221
-0.0019997584 0.00020681748 -0.0005991327 0.0011371291 -0.00023019958 0.0023102104 0.00014381907 0.0013186232
-0.0008351407 -0.0022475133 0.00095444784 -0.001507631 0.00041511888 0.00029466843 0.0012360312 -0.00016766299
0.0020588485 -0.00020887348 0.0006127921 -0.0013381494 -0.002923166 -8.744355e-05 -0.0023979181 -0.0003778252
0.00067599944 0.001795888 0.0025673304 0.0033411519 0.0016548716 0.0021871445 0.0002907475 0.0016767731
0.0005710333 0.0008581131 0.0012187049 0.0019013784 -0.000501575 -0.0006882614 0.0003589637 -0.0006887724
0.00040239844 -0.0012698196 0.00080986554 -0.00044357183 -0.00021273972 0.00051787065 0.0008529354 -0.0004998782
-0.00040145026 0.000549968 -0.00071201206 0.0009192071 -0.0018431122 -0.00050733436 -0.002147083 -0.0014085562
-0.0009938044 -0.0013109948 -0.0011491352 -0.001025966 -0.0001865753 -0.0011998633 -0.0008288427 -0.003432168
-0.0026681202 -0.0028720782 -0.0021691842 -0.0022564596 -0.0024771334 -0.0015025318 -0.0022977868 -0.0018035474
-0.002656413 -0.0014987508 -0.0026714012 -0.00086040795 -0.0013462125 -0.00057615107 -0.0006007372 -0.00041019035
0.0006837528 -0.0007405809 0.00021738284 -0.0008788092 0.00072237395 -0.00081653317 0.0009007348 -0.0008217783
-0.0008435723 -0.0003626993 -0.0005893421 0.00027427616 0.00014552813 0.0017040413 0.00041326068 0.0017239007
-0.00018468953 0.0011556712 2.5221638e-05 -0.0003121718 -0.00057655334 -0.0012509443 0.0013864158 0.0005731124
0.0022847217 0.00021257607 0.0019522118 0.00024840902 0.0018825551 0.0007349196 0.0011567924 0.0005324682
-0.00012995915 0.0021396244 0.0007771727 0.00197682 -0.00015509009 0.0015509943 -0.00023408374 0.0012108292
-0.0001926879 0.0014834529 0.00096637045 0.00054161163 0.0009957309 -0.00063408527 0.0012049273 -0.00073597796
0.0016222073 -0.00088976766 0.0007967386 -0.00017063058 0.0009901514 0.00092912576 0.00056804763 0.0004677741
-0.001282141 0.0010841347 -0.00091087574 0.0015133109 -0.0015815544 0.00066540024 -0.00014418954 0.0004656108
0.0005677703 0.00069762685 -0.00026981518 0.000120646466 -0.0010583451 0.0012734126 -0.0010565383 3.7238467e-05
-0.00069552555 -0.00021734499 -9.436282e-05 -0.00083989615 -0.00090230233 -0.002172417 -0.0015747591 -0.0036972784
