trained_models/MRI_Sigma_25_t_10_K11/checkpoints/checkpoint_5.pth (torch, 401563 bytes, 10 tensors)

conv_layer.conv_layers.0.parametrizations.weight.original f4 [8, 1, 11, 11]
0	0x3c24d550	0.010060623
1	0x3d89f32e	0.06735836
2	0xbd569b30	-0.052394092
3	0x3de064c7	0.10956722
4	0xbbea6236	-0.007152821
5	0x3c06a3e2	0.008217784
6	0xbd5c8c70	-0.05384487
7	0x3e33487b	0.17508118
8	0x3dc85b8d	0.09783087
9	0xbda6d064	-0.08145216
10	0x3d7cf607	0.061758067
11	0xbd8da2c2	-0.06915809
12	0x3d0a17c8	0.033714086
13	0xbdd319d6	-0.10307662
14	0xbcdc9e32	-0.026930902
15	0xbc07e38b	-0.008293997
16	0x3e71aece	0.23601839
17	0x3d16a939	0.036782477
18	0xbdaaffee	-0.08349596
19	0x3d170c25	0.036876816
20	0xbc338e0d	-0.0109591605
21	0xbd17fe76	-0.037107907
22	0xbca72247	-0.020402087
23	0x3d836118	0.064150035
24	0xbe065675	-0.13118918
25	0xbdccc078	-0.09997648
26	0xbd56bcae	-0.052426033
27	0xbd18571e	-0.037192456
28	0x3c394860	0.011308759
29	0xbdcb40ed	-0.09924493
30	0x3e297d64	0.16551739
31	0xbd9db12d	-0.07699809
32	0x3d9daf58	0.0769946
33	0xbd8aa3d2	-0.067695275
34	0xbdabf52c	-0.08396372
35	0x3dce66c9	0.100781985
36	0x3c8a65e3	0.016894286
37	0x3e09d1ef	0.1345899
38	0x3d8fdf43	0.07025006
39	0xbdf50204	-0.11963275
40	0x3d5729e8	0.0525302
41	0xbd514faa	-0.051101364
42	0xbd01eb6a	-0.03171865
43	0x3dd1ca15	0.10243622
44	0x3d1badbf	0.038007494
45	0xbda2ec3f	-0.079552166
46	0x3d827e4c	0.063717455
47	0x3ccf708a	0.025322217
48	0x3df96afc	0.12178609
49	0xbdc4612a	-0.09588845
50	0xbe84d285	-0.25941864
51	0xbd578625	-0.052618165
52	0xbe3116d6	-0.17293867
53	0x3df80b38	0.12111515
54	0xbd650cf1	-0.055920545
55	0x3d4520c5	0.048126955
56	0x3d253b77	0.040339913
57	0x3d6bc3ca	0.057559766
58	0x3e5f4019	0.21801795
59	0xbdf51f29	-0.11968834
60	0x3e799e01	0.2437668
61	0xbe8c09fe	-0.27351373
62	0x3b649c20	0.0034883097
63	0xbd3a88cd	-0.04554062
64	0x3b9d732a	0.0048049884
65	0xbd92985e	-0.07157968
66	0x3dacffa0	0.08447194
67	0xbde2c1a3	-0.110720895
68	0xbd91bdeb	-0.07116302
69	0xbd477d9d	-0.04870378
70	0x3e7ff05e	0.24994037
71	0x3e28f09e	0.16498038
72	0x3d8d53ba	0.06900735
73	0xbe657710	-0.224087
74	0xbe37d2a7	-0.17951451
75	0xbe09afff	-0.13446043
76	0xbdb2cce4	-0.08730486
77	0x3cd0644e	0.025438454
78	0x3d05c751	0.032660786
79	0x3e1d7dc3	0.15380006
80	0xbd983e0d	-0.0743371
81	0xbd36739b	-0.044543844
82	0x3e4f6f68	0.20257342
83	0xbdf02cea	-0.11727317
84	0xbb512ce9	-0.0031917638
85	0xbced2984	-0.02895046
86	0x3d268ce2	0.0406617
87	0xbd38a846	-0.045082353
88	0xbd01bc23	-0.03167356
89	0xbd44913b	-0.047990065
90	0x3d8a8950	0.067644715
91	0xbdc520d4	-0.09625402
92	0x3e13462a	0.14382234
93	0x3e3249e2	0.17410997
94	0xbdfc6084	-0.123230964
95	0xbde15c60	-0.11003947
96	0x3e185228	0.1487509
97	0xbc93099e	-0.017948922
98	0xbcd1a810	-0.025592834
99	0xbdf7fd8d	-0.12108908
100	0xbda69142	-0.081331745
101	0x3d7e964d	0.062155057
102	0xbd25288c	-0.04032187
103	0xbd9f0c91	-0.07766069
104	0x3d365fb8	0.04452488
105	0xbd567dd3	-0.05236609
106	0xbd97df95	-0.07415692
107	0xbce3110e	-0.027718093
108	0xbd9ae19c	-0.07562563
109	0x3cdbf406	0.026849758
110	0x3d90714a	0.07052858
111	0x3cbf9bd5	0.023389736
112	0x3ba2b3c8	0.0049652793
113	0xbdab119f	-0.0835297
114	0xbda2ee31	-0.07955588
115	0xbb52ca30	-0.003216397
116	0x3d535c5f	0.051601764
117	0xbdb4a048	-0.08819634
118	0xbcd95e16	-0.026534121
119	0x39a3e2c0	0.00031258725
120	0x3ccf9670	0.025340289
121	0xbc65269d	-0.013986257
122	0x3bd9e39f	0.006649449
123	0xbd8e56b1	-0.06950129
124	0xbdacfcb3	-0.08446636
125	0xbd88ee35	-0.066860594
126	0xbe33a626	-0.1754385
127	0xbe1174e6	-0.1420475
128	0x3d3314ad	0.04372089
129	0xbd3bf08a	-0.045883693
130	0x3d4ad41d	0.049518693
131	0xbcf722e3	-0.030168002
132	0xbd54364d	-0.051809598
133	0x3ddd2d3d	0.10799644
134	0xbd8e94fe	-0.06962012
135	0xbd3006e5	-0.042975325
136	0xbdc74b90	-0.09731209
137	0xbe85e579	-0.26151636
138	0x3d397850	0.045280755
139	0xbd24f5af	-0.040273365
140	0x3dcf7a70	0.10130775
141	0xbdf4890d	-0.11940203
142	0x3ddb9f9b	0.10723802
143	0xbd7d55c9	-0.06184939
144	0xbb43fbe9	-0.0029904789
145	0xbd43eeaf	-0.04783505
146	0x3c9bc885	0.019016514
147	0x3df559c9	0.11980016
148	0x3e164f6a	0.14678732
149	0xbe09b0ea	-0.13446394
150	0x3d464831	0.04840869
151	0xbcfaff9a	-0.030639458
152	0xba3639ce	-0.00069513626
153	0xbcc17a66	-0.023617934
154	0x3e0de1cc	0.13855666
155	0xbdf7e6a2	-0.121045366
156	0x3daac58b	0.083384596
157	0xbc518867	-0.0127888685
158	0x3d77d20d	0.060503054
159	0xbdf5b723	-0.11997821
160	0x3dfba8d9	0.122880645
161	0xbb66a30a	-0.0035192394
162	0x3c9deae2	0.01927704
163	0xbded3c93	-0.11583819
164	0x3da1d9ce	0.07902871
165	0xbc274c79	-0.010211104
166	0xbd99dfcb	-0.07513388
167	0x3e194d7d	0.14970966
168	0xbd4b8960	-0.049691558
169	0xbe1169ad	-0.14200468
170	0xbe64fb9e	-0.2236161
171	0xbc9e2cf0	-0.019308537
172	0x3c8a5083	0.016884094
173	0xbc8579a3	-0.016293352
174	0xbda17bc1	-0.07884932
175	0x3cfb5b50	0.03068319
176	0xbd156f09	-0.036482845
177	0xbb50a02f	-0.0031833758
178	0x3e433f75	0.19067176
179	0xbe0ca971	-0.13736512
180	0x3e867658	0.26262164
181	0x3ed9834f	0.42482993
182	0x3e361106	0.17779931
183	0xbd5b604c	-0.053558633
184	0x3d9f64f0	0.07782924
185	0x3daae224	0.08343914
186	0x3ca2f2fd	0.019891256
187	0xbcac346e	-0.021021094
188	0xbd9cbd66	-0.076533124
189	0xbc54e975	-0.012995114
190	0xbdce469f	-0.10072064
191	0xbd807a42	-0.06273319
192	0x3e886032	0.2663589
193	0x3e309857	0.17245613
194	0xbdc4c956	-0.09608714
195	0xbd72cd48	-0.059277803
196	0xbccba080	-0.024856806
197	0xbd99be0e	-0.07506953
198	0x3c47f834	0.012205172
199	0xbb0b8d34	-0.002129388
200	0xbda0d29a	-0.07852669
201	0xbdee5e8c	-0.11639127
202	0x3e0b1179	0.13580884
203	0x3de96321	0.113958605
204	0x3b435059	0.002980253
205	0xbde56f01	-0.11202813
206	0xbdf002c3	-0.11719277
207	0xbcbbb16f	-0.022911755
208	0xbcebc2b1	-0.02877936
209	0x3d382180	0.044953823
210	0x3da23774	0.07920733
211	0x3d82e418	0.06391162
212	0xbdfdf417	-0.12400072
213	0xbdd57ec5	-0.1042457
214	0xbde47e0c	-0.11156854
215	0x3e1fe6f9	0.15615453
216	0xbd79b5bf	-0.060964342
217	0x3c0844d9	0.008317196
218	0x3d6b7122	0.05748094
219	0xbd37c92b	-0.044869583
220	0xbd97f9be	-0.074206814
221	0x3d2beecc	0.04197578
222	0xbdf4efbf	-0.119597904
223	0x3cbea8d4	0.023273863
224	0xbe3168c6	-0.17325124
225	0x3d8c0029	0.06835968
226	0x3d4e6ed3	0.05039866
227	0x3b6b2e05	0.0035885584
228	0xbd0b311a	-0.033982374
229	0xbd5eb98c	-0.05437617
230	0xbd7bb8a2	-0.061455376
231	0x3c9fc883	0.019504791
232	0xbd31c6a0	-0.043402314
233	0x3d6b1e44	0.05740191
234	0x3e256b0b	0.16154115
235	0x3c3a5344	0.011372391
236	0x3da06932	0.078325644
237	0xbe22d862	-0.15902856
238	0xbdb97bed	-0.0905684
239	0xbd4a9fa3	-0.049468648
240	0x3dd9f5d8	0.10642594
241	0xbc2f3e90	-0.010696068
242	0xbd771dfd	-0.060331333
243	0xbdc3cf87	-0.09561067
244	0x3c3a64d2	0.0113765765
245	0xbcaa296a	-0.0207717
246	0xbdc778fe	-0.09739874
247	0x3dde1b5d	0.10845063
248	0xbcd7aa2f	-0.026326267
249	0x3e0c3232	0.13691023
250	0xbcf79c30	-0.030225843
251	0xbdc58d74	-0.09646121
252	0x3c9c3e7c	0.019072764
253	0xbcc244e7	-0.023714496
254	0xbd5d9411	-0.054096285
255	0xbd994479	-0.07483763

conv_layer.conv_layers.1.parametrizations.weight.original f4 [32, 8, 11, 11]
0	0xbc0d8230	-0.008636996
1	0x3c9ff9e9	0.019528346
2	0xbd21045a	-0.03931079
3	0xbc740dd5	-0.014895876
4	0xbb87fad9	-0.0041497764
5	0xbd65e469	-0.056126032
6	0x3b6eb97f	0.0036426482
7	0xbcec98a2	-0.028881375
8	0xbd946528	-0.072458565
9	0x3d0720cc	0.032990262
10	0x3d402e4f	0.046919163
11	0x3d059b81	0.032619003
12	0xbd3c28fa	-0.045937516
13	0xbd066dc1	-0.032819513
14	0xbba8d4f8	-0.005152341
15	0x3e11bccc	0.14232177
16	0xbdf8a6a3	-0.121411584
17	0xbd4aa7b4	-0.04947634
18	0x3d50bbeb	0.050960463
19	0xbddd766b	-0.10813602
20	0x3b51be5d	0.0032004334
21	0x3cc89c73	0.024488663
22	0x3cd59cbb	0.026075711
23	0xbcd678f7	-0.026180727
24	0xbd234684	-0.03986217
25	0xbbf65b20	-0.007518187
26	0x3d923564	0.0713909
27	0xbdbb947b	-0.0915918
28	0x3a6ffef9	0.00091551204
29	0x3e130c3d	0.14360137
30	0x3d3e4d53	0.04646046
31	0xbc2d5cf1	-0.010581241
32	0xbd8cc069	-0.06872637
33	0xbc82224d	-0.015885497
34	0xbc4b4dac	-0.012408655
35	0xbc841042	-0.016121034
36	0x3d50e011	0.050994936
37	0xbdcb4611	-0.099254735
38	0x3d035789	0.032065902
39	0x3d4db9fb	0.050226193
40	0xbdb2c9d9	-0.08729906
41	0x3d1b1db1	0.037870113
42	0x3da44523	0.08020999
43	0xbd2e91a0	-0.042619348
44	0xbc5dfef8	-0.013549559
45	0x3d2ddca5	0.04244675
46	0x3bddb350	0.0067657605
47	0x3dd9470a	0.10609253
48	0xbd0fdd3d	-0.0351231
49	0x3d6ad874	0.057335332
50	0xbd14645f	-0.036228534
51	0xbd8d6a75	-0.06905071
52	0x395f396f	0.00021288333
53	0x3d437e00	0.047727585
54	0xbd6c5e01	-0.057706837
55	0x3d165e43	0.03671099
56	0xbda44063	-0.08020093
57	0x3cf9a517	0.030474229
58	0x3c3633bc	0.011120733
59	0xbdcb8e4f	-0.099392526
60	0x3c6c702d	0.014431042
61	0xbd23b23f	-0.03996491
62	0xbca48233	-0.020081615
63	0x3d18e80f	0.037330683
64	0xbd0f2e68	-0.034956366
65	0x3c1a5991	0.009420768
66	0xbce25205	-0.027627
67	0xbc3434e3	-0.010998937
68	0x3b6eae6f	0.0036419888
69	0xbb8c931a	-0.004289997
70	0x3d5dfa3e	0.054193728
71	0xbe00212d	-0.12512656
72	0xbddd608f	-0.10809433
73	0x3daa8baa	0.0832742
74	0x3d036d8a	0.032086886
75	0xbd163b6a	-0.036677755
76	0xbc570f4b	-0.013126205
77	0x3a68da54	0.0008882631
78	0x3d7d95d3	0.06191046
79	0x3c083087	0.008312351
80	0xbcfd9df3	-0.030959105
81	0xbd1f0bf2	-0.03882975
82	0x3df586c4	0.11988595
83	0x3d706bf5	0.058696706
84	0xbdece561	-0.11567188
85	0x3cc49b7b	0.02399992
86	0x3d082383	0.03323699
87	0x3d46e52f	0.04855841
88	0xbd714c83	-0.058910858
89	0x3d37c8ac	0.04486911
90	0xbd17cef1	-0.03706259
91	0xbcbe7f07	-0.02325393
92	0xbd90d21c	-0.07071325
93	0x3dda1e8f	0.1065036
94	0x3c2b3423	0.010449442
95	0x3d27173f	0.040793654
96	0x3d039dda	0.03213296
97	0x3c8dddca	0.017317671
98	0xbd1bed76	-0.038068257
99	0xbc4b0625	-0.012391602
100	0xba7108c3	-0.0009194726
101	0xbc555928	-0.013021745
102	0x3ca090be	0.019600268
103	0xbd78a2a8	-0.060701996
104	0x3d68924f	0.056780156
105	0xbbf471d4	-0.0074598584
106	0xbc766f40	-0.0150411725
107	0xbb0c2fbf	-0.0021390764
108	0xbc1f8622	-0.00973657
109	0xbcede6aa	-0.029040653
110	0x3d45594e	0.04818087
111	0x3cfa17e7	0.030528976
112	0xbc8eb4d1	-0.017420204
113	0x3da6c887	0.08143716
114	0xbc121315	-0.008915682
115	0xbdfa1a57	-0.12212055
116	0x3c8b7f2b	0.017028412
117	0x3c85eba2	0.01634771
118	0x3cc51506	0.024057876
119	0xbc6c9a4d	-0.014441085
120	0x3acdd1cc	0.0015702783
121	0x3bbe621d	0.005810036
122	0x3ca0af1d	0.01961475
123	0x3bf932c1	0.0076049273
124	0xbdb7cb3e	-0.08974312
125	0x3c046321	0.008080275
126	0xbb892ebe	-0.0041864803
127	0xbc76d2bd	-0.015064892
128	0x3c62b87f	0.013837933
129	0xbd2f9352	-0.042865105
130	0xbd8724c0	-0.065988064
131	0x3d452257	0.048128452
132	0xbd989128	-0.07449561
133	0x3d0b0e45	0.033949155
134	0xbd4a4968	-0.049386412
135	0x3e0cde86	0.13756761
136	0xbd9d54ac	-0.076821655
137	0x3c1fbfea	0.009750346
138	0xbdbd9ac1	-0.092580326
139	0x3d67d288	0.056597263
140	0x3d2d8439	0.042362425
141	0xbd74f445	-0.059803266
142	0xbcaf1153	-0.021370566
143	0xbce773a3	-0.028253382
144	0x3c9778f3	0.01849029
145	0x3c2c983f	0.010534345
146	0x3d8abebe	0.067746624
147	0xbd0b1329	-0.03395382
148	0xbd5cd5e8	-0.053914934
149	0xbd591e34	-0.05300732
150	0x3e008c38	0.12553489
151	0x3cc3432e	0.023835745
152	0xbc843d91	-0.016142638
153	0x3b894be9	0.0041899574
154	0xbc66b5ed	-0.01408146
155	0xbdb36dde	-0.0876119
156	0x3dfe430c	0.12415132
157	0xbd20a6cb	-0.039221566
158	0xbd72d8aa	-0.05928866
159	0x3bbdac37	0.005788352
160	0x3d434af8	0.047678918
161	0x3d7b45b8	0.061345786
162	0xbdab7f4d	-0.0837389
163	0x3d76e0be	0.060272925
164	0x3d8ef094	0.069794804
165	0xbcba96cf	-0.02277699
166	0x3be346e5	0.0069359415
167	0x3bc372b4	0.0059646014
168	0xbce0a589	-0.027422683
169	0xbcd7cd58	-0.026343033
170	0xbd6a7b84	-0.0572467
171	0x3da19ab3	0.07890835
172	0xbd41de7d	-0.047331322
173	0xbd952906	-0.07283215
174	0x3dfe3894	0.12413135
175	0x3cf65370	0.030069083
176	0xbcef0121	-0.029175343
177	0xbd8cd4ce	-0.06876527
178	0x3cd9bbf0	0.026578873
179	0xbd97b55e	-0.0740764
180	0x3d995675	0.074871935
181	0xbc642e0c	-0.013926994
182	0xbc076d6b	-0.008265833
183	0xbdb774f9	-0.08957858
184	0x3c42aa77	0.011881462
185	0x3d6e1b73	0.058131646
186	0xbd516771	-0.05112404
187	0xbd87d950	-0.06633246
188	0xbd1eaec9	-0.038740907
189	0x3d3cbb01	0.04607678
190	0xbd3b2766	-0.04569187
191	0x3e081509	0.13289274
192	0x3ca06ebc	0.019584052
193	0x3b94e3e5	0.0045437687
194	0xbcd9dadc	-0.026593618
195	0x3cd6905d	0.026191885
196	0xbdb1cec3	-0.08682015
197	0x3d0b554c	0.034016892
198	0xbd093cfe	-0.033505432
199	0x3d386ac7	0.045023706
200	0xbc1fd384	-0.009755019
201	0xbc1ce086	-0.009575015
202	0xbd19f3b3	-0.037585925
203	0xbdcb43ec	-0.099250644
204	0xbd8d7b6b	-0.06908306
205	0x3d6afdae	0.057370834
206	0x3d21a34d	0.039462376
207	0x3cee2648	0.029070988
208	0xbb8c2ae3	-0.0042775734
209	0xbcb05204	-0.021523483
210	0x3d3001a9	0.042970333
211	0x3c8cc576	0.017184
212	0xbd5f8b68	-0.054576308
213	0xbd27ff02	-0.04101468
214	0x3c31c24a	0.010849545
215	0xbd2aa3c3	-0.04166008
216	0x3d4fd297	0.050737944
217	0xbcfb46bf	-0.030673383
218	0x3d789e3d	0.060697783
219	0xbd0be515	-0.034154017
220	0x3d37aec7	0.044844415
221	0x3bd2d224	0.006433742
222	0xbdc42c1e	-0.09578727
223	0xbd4b5a5a	-0.049646713
224	0x3db78f3e	0.08962868
225	0x3d081e07	0.03323176
226	0xbd438903	-0.047738086
227	0x3d3fe704	0.046851173
228	0xbd310a6f	-0.04322284
229	0x3bdc6739	0.0067261723
230	0xbb1b5965	-0.0023704406
231	0xbc40e506	-0.011773353
232	0x3ce905ba	0.028445113
233	0xbd48afb1	-0.048995677
234	0xbd6ce596	-0.057836138
235	0x3c9f34be	0.01943433
236	0x3d97bfb2	0.0740961
237	0xbddcba8d	-0.10777769
238	0x3dfdd1b3	0.123935126
239	0xbdd35534	-0.103189856
240	0x3de75a21	0.112964876
241	0xbd8548c0	-0.065080166
242	0x3c8a0de4	0.016852327
243	0xbdaaceb3	-0.08340206
244	0x3d358352	0.04431469
245	0x3b5224f6	0.0032065487
246	0xbc59c96b	-0.013292651
247	0x3d19531b	0.03743277
248	0xbdae13f3	-0.08499899
249	0x3d14d668	0.036337286
250	0x3d2b205a	0.0417789
251	0x3cb62802	0.022235874
252	0xbd6113ec	-0.05495064
253	0xbd6969f3	-0.056985807
254	0x3ddf7de4	0.109126836
255	0xbc97e45f	-0.018541513

activation.coefficients_vect f4 [672]
0	0x80000000	-0.0
1	0x3ac1f432	0.0014797507
2	0x3a8a9ac5	0.0010574689
3	0x3a2f31a9	0.000668312
4	0x39ff8231	0.0004873439
5	0x39bf91ab	0.0003653889
6	0x397ad3ee	0.00023920808
7	0x396667ce	0.0002197318
8	0x39315b59	0.00016914065
9	0x38d7a36e	0.0001028244
10	0xb8af9812	-8.3729756e-05
11	0x3923de52	0.00015627712
12	0x39c32b24	0.0003722544
13	0x39732ac1	0.00023190213
14	0x390d4dec	0.00013475836
15	0xb8d94744	-0.000103606406
16	0xb97e0039	-0.0002422341
17	0xb9a7ff30	-0.00032042852
18	0xba1e684b	-0.00060427625
19	0xba76c534	-0.0009413541
20	0x00000000	0.0
21	0x80000000	-0.0
22	0x3b123728	0.0022310708
23	0x3adf2663	0.001702499
24	0x3a67da58	0.00088444864
25	0x3a16a677	0.0005746851
26	0x3939b3b2	0.00017709917
27	0x3878dbec	5.9332626e-05
28	0x384b82d4	4.8520815e-05
29	0xb911aed1	-0.00013893402
30	0xb959ddf5	-0.00020777418
31	0x39211176	0.00015360661
32	0x3a052a4a	0.0005079849
33	0x390a26d3	0.00013175169
34	0x38511fd5	4.985913e-05
35	0xb88c8cf8	-6.701978e-05
36	0xb915aeea	-0.00014274908
37	0xba09649c	-0.0005241127
38	0xba28bfec	-0.000643729
39	0xba475e2f	-0.0007605282
40	0xbadd10a8	-0.0016865926
41	0x00000000	0.0
42	0x80000000	-0.0
43	0x38bab92b	8.9036614e-05
44	0xb7d5b796	-2.5477068e-05
45	0xb81db3ad	-3.7599053e-05
46	0xb8bbc722	-8.953946e-05
47	0xb8c78aea	-9.514934e-05
48	0xb926b197	-0.00015897151
49	0xb927eee2	-0.00016015352
50	0xba6dd6e9	-0.00090728566
51	0xb9f1c630	-0.00046114763
52	0xb773db9c	-1.45350605e-05
53	0x39e5dbd1	0.0004384206
54	0x3a4e757c	0.0007875783
55	0x393a5c3d	0.00017772704
56	0x39118747	0.00013878672
57	0x390ba4a2	0.00013317403
58	0x39059b1f	0.00012741656
59	0x389273f9	6.983424e-05
60	0xb828cb7f	-4.024384e-05
61	0xb8ae8706	-8.3221166e-05
62	0x00000000	0.0
63	0x80000000	-0.0
64	0x3abdd427	0.0014482782
65	0x3abcfb05	0.0014418071
66	0x3a506fd5	0.00079512346
67	0x3a054498	0.00050837686
68	0x396df5e5	0.00022693684
69	0x38dd2bc7	0.00010546255
70	0xb85edcbe	-5.3134507e-05
71	0xb90631e4	-0.00012797822
72	0xb928adcb	-0.00016086471
73	0x385c4de5	5.2524632e-05
74	0x398059c1	0.00024480934
75	0x39e259ae	0.00043172896
76	0x396ebc94	0.000227677
77	0xb902478c	-0.0001242442
78	0xb9b4a87c	-0.00034457806
79	0xb9d418b6	-0.00040454202
80	0xba09107d	-0.0005228592
81	0xba6bf039	-0.00090003345
82	0xbae0a826	-0.0017139956
83	0x00000000	0.0
84	0x80000000	-0.0
85	0x3ac79875	0.0015227931
86	0x3ac0abf8	0.0014699688
87	0x3a92d873	0.0011203423
88	0x3a7a2bf3	0.0009543292
89	0x3a2bd753	0.0006555218
90	0x396fa0f6	0.00022852779
91	0x39210921	0.00015357557
92	0x390a54bc	0.00013192272
93	0xb8a6c093	-7.9513666e-05
94	0x3830c475	4.2144635e-05
95	0x391dc48a	0.00015045903
96	0x38d8bb47	0.00010334566
97	0xb84798cc	-4.75876e-05
98	0xb9d0d176	-0.00039828912
99	0xba397815	-0.00070750836
100	0xba7c02ee	-0.00096134737
101	0xba9ca454	-0.0011950829
102	0xba9f84c3	-0.0012170303
103	0xbaa2f1c3	-0.001243167
104	0x00000000	0.0
105	0x80000000	-0.0
106	0xb8dd24a6	-0.000105449275
107	0xb8fb9a2e	-0.00011997331
108	0xb910d32a	-0.00013811575
109	0xb9539955	-0.00020179649
110	0xb95f4ee3	-0.00021296325
111	0xb972c43f	-0.00023152026
112	0xba5f781c	-0.00085246726
113	0xb9f90786	-0.00047498586
114	0xb8fe0042	-0.00012111712
115	0x3972d6c5	0.00023158926
116	0x3a196358	0.000585129
117	0x399d6e4a	0.00030027545
118	0x390b6494	0.00013293541
119	0x39034dad	0.0001252207
120	0x38ec8f56	0.00011280055
121	0x38c43551	9.355939e-05
122	0x38803594	6.113495e-05
123	0x3829bbbe	4.046759e-05
124	0x36a5f3ca	4.945764e-06
125	0x00000000	0.0
126	0x80000000	-0.0
127	0x3ab2593e	0.0013606919
128	0x3a76fb93	0.0009421643
129	0x3a1bebb5	0.0005947904
130	0x39c72fa8	0.00037991744
131	0x39bdf086	0.00036228093
132	0x398f66c0	0.0002735164
133	0x3825e131	3.954879e-05
134	0xb903589b	-0.00012526142
135	0xb9adf6ea	-0.00033181097
136	0xb807c567	-3.2370353e-05
137	0x3976c1f4	0.00023532641
138	0x3964a44b	0.00021804978
139	0x38b44466	8.595809e-05
140	0x3820ee7f	3.836909e-05
141	0x358dc840	1.0563599e-06
142	0xba0b35f7	-0.00053104706
143	0xba2aadcb	-0.00065108825
144	0xba7281d8	-0.00092509156
145	0xba90d3b1	-0.0011049417
146	0x00000000	0.0
147	0x80000000	-0.0
148	0x3b06ab60	0.0020548925
149	0x3b05fd69	0.0020445234
150	0x3ae7ff37	0.0017699961
151	0x3aae7dbf	0.0013312622
152	0x3a390991	0.00070586154
153	0x3a15adb4	0.00057097827
154	0x37d4558e	2.5312209e-05
155	0xb853e23e	-5.0517025e-05
156	0xb9115846	-0.00013861162
157	0xb84934f1	-4.797144e-05
158	0x38910050	6.914197e-05
159	0xb7067aed	-8.015643e-06
160	0xb892fbd1	-7.008727e-05
161	0xb9ca258e	-0.00038556423
162	0xba16001a	-0.0005722061
163	0xba4ab235	-0.00077322434
164	0xba82334f	-0.0009933504
165	0xbaaae1c4	-0.0013037254
166	0xbb55e6bb	-0.0032638747
167	0x00000000	0.0
168	0x80000000	-0.0
169	0x3af2a7a0	0.0018513091
170	0x3a8b5172	0.0010629131
171	0x3a4ef9ea	0.00078955165
172	0x39e837b7	0.00044292
173	0x39e77a94	0.0004415108
174	0x392a991d	0.00016269503
175	0x3927e376	0.00016011097
176	0xb7a8bac2	-2.0114127e-05
177	0xb9948556	-0.00028328103
178	0xb86e11fd	-5.6760375e-05
179	0x3929e012	0.00016200569
180	0x390df479	0.00013537881
181	0xb7fc4493	-3.0072673e-05
182	0xb8b2737c	-8.509212e-05
183	0xba82f959	-0.0009992524
184	0xba91ec28	-0.0011133002
185	0xba935a2f	-0.0011242087
186	0xbac38c26	-0.0014919087
187	0xbac43149	-0.0014968301
188	0x00000000	0.0
189	0x80000000	-0.0
190	0x3b140789	0.00225875
191	0x3acccfb4	0.0015625865
192	0x3a872bbc	0.0010312716
193	0x3a863e59	0.001024197
194	0x3a26325d	0.0006339902
195	0x393ba12b	0.0001789375
196	0x38f7273b	0.00011785185
197	0x38ca92d4	9.6594595e-05
198	0xb7e32d5a	-2.7081627e-05
199	0x39035a15	0.00012526692
200	0x398b8545	0.0002661144
201	0x386c1881	5.6289606e-05
202	0xb93806f6	-0.000175502
203	0xb9734db5	-0.00023203234
204	0xba3082c8	-0.0006733355
205	0xba8788c3	-0.0010340441
206	0xba94ae62	-0.0011343474
207	0xbb07e78a	-0.0020737373
208	0xbb0ba6fc	-0.0021309247
209	0x00000000	0.0
210	0x80000000	-0.0
211	0x3ac9a45c	0.0015384066
212	0x3a3ce86c	0.00072062644
213	0x3a2e7899	0.00066555437
214	0x39dd3823	0.0004219423
215	0x39b2d189	0.00034106922
216	0x39a13fe3	0.00030755912
217	0x3952ab64	0.00020091009
218	0x38cb6c32	9.699947e-05
219	0x38c7b169	9.522105e-05
220	0x3866dff9	5.5044864e-05
221	0xb91dd670	-0.00015052571
222	0xb93a09df	-0.0001774202
223	0xb96f3f39	-0.00022816368
224	0xb990c6b3	-0.00027613863
225	0xb99bc8a1	-0.00029713384
226	0xb9a05195	-0.00030578361
227	0xb9d81ddf	-0.00041220986
228	0xba22c365	-0.00062089256
229	0xba8b0d1b	-0.0010608764
230	0x00000000	0.0
231	0x80000000	-0.0
232	0x39b6c39a	0.0003485948
233	0x398a7209	0.00026406374
234	0x3932e616	0.00017061117
235	0x391f6ae8	0.00015203247
236	0x391e7bbc	0.00015114149
237	0x388a0617	6.581487e-05
238	0x383616fb	4.3413584e-05
239	0x37f08eb3	2.8676679e-05
240	0x377b0637	1.4962213e-05
241	0xb6f4d1b7	-7.2961807e-06
242	0xb86da953	-5.66629e-05
243	0xb8748ce9	-5.8305366e-05
244	0xb8a2d6ac	-7.764748e-05
245	0xb8aaa735	-8.1373764e-05
246	0xb907ece6	-0.00012962855
247	0xb911b4ab	-0.00013895582
248	0xb9215a1b	-0.00015387723
249	0xb9900209	-0.00027467337
250	0xba0f8368	-0.0005474598
251	0x00000000	0.0
252	0x80000000	-0.0
253	0x3a06c2fc	0.0005140749
254	0x39901696	0.00027482648
255	0x392298f3	0.00015506502

u f4 [1, 1, 20, 20]
0	0xbc576b6c	-0.01314817
1	0xbc835dcc	-0.016035937
2	0xbd049c1e	-0.032375447
3	0xbd16576b	-0.036704462
4	0x3cbf9e54	0.023390926
5	0x3cb74bfa	0.022375096
6	0x3ceab63e	0.028651353
7	0x3dc1562f	0.09440266
8	0xbd8dd38a	-0.069251135
9	0x3d81b8c6	0.06334071
10	0xbd704087	-0.058655288
11	0x3dc683d4	0.09693113
12	0x3d9c558c	0.07633504
13	0xbda7fbb1	-0.08202303
14	0xbcddfc6b	-0.027097901
15	0xbd6ff533	-0.05858345
16	0xbd30788f	-0.043083724
17	0x3d109a2f	0.03530329
18	0x3c85016c	0.01623603
19	0xbb8b013c	-0.0042420905
20	0xbbf12526	-0.0073591648
21	0xbc3a08ba	-0.01135462
22	0xbccd47a8	-0.025058582
23	0xbd6b7492	-0.057484217
24	0x3ce11a04	0.027478226
25	0x3dbfeafb	0.09370991
26	0x3e0d407a	0.13794127
27	0xbd48ffed	-0.049072195
28	0xbce77cd2	-0.028257761
29	0x3d439bc4	0.04775597
30	0xbdd80dfe	-0.10549544
31	0x3dfcf917	0.123521976
32	0x3dc99634	0.09843102
33	0xbe7dd59b	-0.24788515
34	0xbd2d40da	-0.042298175
35	0xbd5823db	-0.05276857
36	0xbc744325	-0.014908587
37	0x3d547a84	0.051874653
38	0xbb4e1b2d	-0.0031449303
39	0xbb245627	-0.0025075765
40	0x3c5e8edf	0.013583868
41	0xbce1dd53	-0.027571356
42	0x3c3f3802	0.011671068
43	0xbdbb4250	-0.091435075
44	0xbdbd7490	-0.09250748
45	0x3e4b44ae	0.19850418
46	0xbe0f5619	-0.13997687
47	0xbca112ef	-0.019662349
48	0xbcc66c49	-0.024221556
49	0xbdf84176	-0.12121861
50	0xbd2eec05	-0.042705555
51	0x3e0fe14f	0.14050792
52	0xbdb47ef8	-0.0881328
53	0x3bcf7e05	0.0063321614
54	0x3d3c1a07	0.04592326
55	0xbcef5d9f	-0.029219447
56	0x3a597a94	0.00082961586
57	0x3d4ec2e5	0.050478835
58	0xbcb5cbf0	-0.022191972
59	0x3c471c85	0.012152796
60	0x3ccc7117	0.02495627
61	0x3cfe4c7a	0.031042326
62	0xbc3d4fad	-0.011554641
63	0xbe07f513	-0.13277082
64	0xbe341cd1	-0.17589118
65	0x3dee1026	0.11624174
66	0xbc175064	-0.009235475
67	0xbd93e6f9	-0.07221789
68	0x3d38991b	0.045067888
69	0xbd839d57	-0.064264946
70	0x3dd61046	0.10452323
71	0x3e7bed6f	0.24602292
72	0x3be2d94e	0.0069228774
73	0x3dce241c	0.10065481
74	0xbb9b783e	-0.0047445586
75	0x3ca38c0c	0.01996424
76	0xbbf93311	-0.0076049645
77	0xbcd7bc2a	-0.02633484
78	0xbdb2b327	-0.08725577
79	0x3c1d7217	0.009609721
80	0x3d03e4bc	0.03220056
81	0x3d802b94	0.06258312
82	0x3d79aa3a	0.060953356
83	0xbdd59f06	-0.10430722
84	0xbe24f1aa	-0.16107813
85	0x3e209751	0.15682723
86	0xbd201534	-0.03908272
87	0x3cd59155	0.026070276
88	0x3d22e274	0.039766744
89	0xbd607e00	-0.054807663
90	0x3e6d2b2e	0.23161003
91	0x3cef4458	0.029207394
92	0xbd21c2ed	-0.039492536
93	0x3e29d963	0.16586833
94	0xbe148bf8	-0.14506519
95	0x3d1514d5	0.03639682
96	0x3d537b7c	0.051631436
97	0xbe00b130	-0.12567592
98	0xbe01d11a	-0.12677422
99	0xbce9fdd1	-0.028563412
100	0x3bf05c9c	0.0073352586
101	0x3d1ef4ae	0.038807563
102	0x3e81b226	0.2533123
103	0xbe01c97e	-0.1267452
104	0xbd2ffe47	-0.042967107
105	0x3d784c6a	0.06061975
106	0x3cbf51f1	0.023354502
107	0xbcc39d97	-0.023878856
108	0xbe10004d	-0.14062615
109	0xbddbd851	-0.107346185
110	0x3e1cef40	0.15325642
111	0xbde60fe8	-0.112335026
112	0xbc35c3d7	-0.011094055
113	0x3dcc4ce2	0.09975602
114	0xbe556f9d	-0.20843358
115	0xbc701c89	-0.014655241
116	0x3d381f80	0.044951916
117	0xbe34aa43	-0.17643075
118	0x3d23ec65	0.040020365
119	0xbd8fde1b	-0.07024785
120	0xbba3953a	-0.0049921544
121	0x3d806bdd	0.06270573
122	0x3e13c69e	0.14431235
123	0x3da9c2b8	0.08289093
124	0xbcabe604	-0.020983703
125	0x3cc14956	0.02359454
126	0xbd4fb6fc	-0.050711617
127	0x3d0fb476	0.03508421
128	0xbe8ecb96	-0.278897
129	0xbdb87688	-0.09006983
130	0x3e258327	0.16163312
131	0xbe8e9eae	-0.27855438
132	0x3d58384c	0.052788064
133	0x3d92c836	0.071670935
134	0xbe6892b7	-0.22712217
135	0x3e651c63	0.2237411
136	0x3e2315b6	0.15926251
137	0xbdfee96d	-0.12446866
138	0x3d1042d3	0.03521998
139	0xbc5998d7	-0.013281069
140	0xbcf9c530	-0.030489534
141	0x3c4318d4	0.011907775
142	0x3d1f4959	0.03888831
143	0x3e1f8c05	0.15580757
144	0x3ddba1ad	0.107241966
145	0xbda4b7d2	-0.080428734
146	0x3d7928ac	0.060829803
147	0xb8f4a740	-0.000116659794
148	0xbe76887b	-0.240755
149	0x3df15592	0.11783899
150	0x3e1c009a	0.15234604
151	0xbe6ada97	-0.22934948
152	0x3dce552d	0.1007484
153	0xbd2afd50	-0.041745484
154	0xbde2d727	-0.11076193
155	0x3ed15002	0.40881354
156	0x3e2db054	0.16961795
157	0xbdb351f3	-0.08755865
158	0x3e0a27a4	0.13491684
159	0xbd209e70	-0.039213598
160	0x3bb4dc28	0.0055194087
161	0xbdd06535	-0.10175554
162	0xbd8817af	-0.06645142
163	0x3c81afe3	0.01583094
164	0x3e246d61	0.1605735
165	0xbddca8a2	-0.10774352
166	0x3d89edc8	0.06734806
167	0x3d93f584	0.07224563
168	0xbded5335	-0.11588136
169	0x3e9083dc	0.282256
170	0xba8c1300	-0.0010686815
171	0xbe29c62a	-0.165795
172	0x3d2d9145	0.042374868
173	0xbe8c8414	-0.27444518
174	0x3ca0e798	0.019641683
175	0x3ebb57ed	0.3659052
176	0x3df4bbf3	0.11949911
177	0xbe3d5ca0	-0.18492365
178	0x3e82537e	0.25454324
179	0xbd8db645	-0.06919531
180	0xbd07d2cc	-0.033160016
181	0xbced3f77	-0.028960926
182	0xbe80dc9a	-0.25168306
183	0xbd8c98f2	-0.068651095
184	0x3e31683f	0.17324923
185	0xbe7d1a60	-0.24717093
186	0x3e83826a	0.25685436
187	0xbe719fbf	-0.23596095
188	0x3ea6a016	0.3254401
189	0xbd366944	-0.044533983
190	0x3e66a9e4	0.22525746
191	0xbedde2cc	-0.43337095
192	0x3e0673ee	0.13130161
193	0xbf1538a0	-0.5828953
194	0x3e6fda27	0.23423062
195	0x3da54b6e	0.08071028
196	0xbd5a20ad	-0.05325382
197	0xbe20e727	-0.15713178
198	0x3e632bd5	0.2218469
199	0x3dd3153d	0.10306785
200	0x3d830651	0.06397689
201	0xbe1e055a	-0.15431729
202	0xbdd319a6	-0.103076264
203	0xbe2d2190	-0.16907334
204	0x3dba5ded	0.09099946
205	0xbcdc7d4d	-0.026915217
206	0x3cb038c0	0.021511436
207	0xbb393054	-0.0028257566
208	0x3de8cb5d	0.113669135
209	0x3e873057	0.26404068
210	0xbe6e98e5	-0.23300512
211	0xbd18b0ef	-0.037278112
212	0xbe10b5ff	-0.14131926
213	0xbe2b0402	-0.16700748
214	0x3e2df0d0	0.16986394
215	0x3c8515f6	0.016245823
216	0xbe92ffad	-0.2871069
217	0xbdd2d471	-0.10294426
218	0x3e66a5cd	0.22524185
219	0x3e3b800e	0.18310568
220	0x3d508dbb	0.050916415
221	0xbd9896c9	-0.07450635
222	0xbd4af745	-0.04955222
223	0xbcb8fb9a	-0.02258091
224	0xbc4569f7	-0.01204919
225	0x3dd116eb	0.102094494
226	0xbd0de5dc	-0.03464304
227	0xbda69e50	-0.081356645
228	0x3e52f017	0.205994
229	0x3e3cbebd	0.18432136
230	0xbe34a814	-0.17642242
231	0x3cfb42c2	0.030671481
232	0xbdc3d889	-0.09562785
233	0x3e1c0497	0.15236126
234	0x3ea724d4	0.32645285
235	0xbdf27986	-0.11839585
236	0xbe9450ec	-0.28967988
237	0xbe3f3411	-0.18672206
238	0x3e53bc38	0.20677269
239	0x3e20c209	0.15699019
240	0xbb719ea0	-0.003686823
241	0xbce22ad5	-0.027608315
242	0x3d9d45e9	0.0767935
243	0xbcd9b1fa	-0.026574124
244	0x3d2103fd	0.039310444
245	0x3c359f34	0.01108532
246	0x3d20ed90	0.039289057
247	0xbe5a805c	-0.21338028
248	0x3e88a756	0.26690167
249	0x3bab11fd	0.00522065
250	0xbd5ccfe8	-0.053909212
251	0xbe10086b	-0.14065711
252	0x3d30fdbf	0.04321074
253	0x3e827649	0.2548087
254	0x3e9ff031	0.3123794
255	0xbe23fcd7	-0.1601442

exp_avg f4 [8, 1, 11, 11]
0	0xbd561a97	-0.05227145
1	0xbd37209d	-0.044708837
2	0xbd111e02	-0.03542901
3	0xbd340fc2	-0.04396034
4	0xbc9e65ab	-0.019335588
5	0xbc251e95	-0.010078092
6	0xbc9a19cd	-0.01881113
7	0xbc804ee4	-0.015662618
8	0xbcc44ee3	-0.023963397
9	0xbcd577db	-0.026058128
10	0xbc8cb58b	-0.01717641
11	0xbd6c5fa9	-0.057708416
12	0xbd39113c	-0.04518245
13	0xbd211001	-0.039321903
14	0xbd3260fb	-0.04354952
15	0xbc8535ff	-0.016261099
16	0xbc42f341	-0.011898817
17	0xbc8d4ddf	-0.017249046
18	0xbc1168c8	-0.008875079
19	0xbcd1c959	-0.025608705
20	0xbc98b3fa	-0.018640507
21	0xbc72cc6a	-0.014819244
22	0xbd44ad5e	-0.0480169
23	0xbd133b6c	-0.03594534
24	0xbd17e8ca	-0.03708724
25	0xbd2578a2	-0.040398248
26	0xbbce089a	-0.0062876465
27	0x3b64995f	0.0034881455
28	0xbb925b03	-0.004466416
29	0x3a3c6816	0.0007187141
30	0xbc9c5dfd	-0.019087786
31	0xbbdc217f	-0.0067178602
32	0xbc08c2dd	-0.00834724
33	0xbd268b39	-0.040660117
34	0xbcc2d3b5	-0.02378259
35	0xbd1479f7	-0.036249127
36	0xbd0508ba	-0.032479025
37	0x3b959af0	0.004565589
38	0x3c64132c	0.013920587
39	0x3c18ef2c	0.009334367
40	0x3b68aaba	0.0035502152
41	0xbc7bb972	-0.015364038
42	0x3ba3736d	0.004988125
43	0xbbb651b1	-0.0055639376
44	0xbca1d370	-0.019754142
45	0xbc046df0	-0.008082852
46	0xbcbec1b4	-0.023285724
47	0xbc5df9d5	-0.013548334
48	0x3c8dd21a	0.017312098
49	0x3d174b9d	0.036937345
50	0x3cf3c5b3	0.029757356
51	0x3c904c86	0.017614614
52	0x3b1027f3	0.0021996468
53	0x3caaaca1	0.020834269
54	0x3c1c1da7	0.009528554
55	0xbbb65612	-0.0055644596
56	0x3b2a3fd5	0.0025977988
57	0xbc17df00	-0.009269476
58	0x3b9c717b	0.00477427
59	0x3d102b61	0.03519762
60	0x3d1a1494	0.03761728
61	0x3d45930c	0.048235938
62	0x3cdeb62a	0.027186472
63	0x3c91ecd2	0.01781312
64	0x3cf7323c	0.03017532
65	0x3c8977fb	0.016780844
66	0xbc01b142	-0.007915797
67	0xbb93362a	-0.004492541
68	0xbbe98654	-0.007126609
69	0x3c7e0d01	0.01550603
70	0x3caf0660	0.021365345
71	0x3d25b565	0.040456194
72	0x3d1af89e	0.037834756
73	0x3cf23d89	0.029570358
74	0x3c858a1c	0.016301207
75	0x3c892547	0.016741408
76	0x3b9862bd	0.0046504424
77	0xbc63dffc	-0.0139083825
78	0xbc24661d	-0.010034111
79	0xbbbab49e	-0.005697801
80	0x3c8429ce	0.016133215
81	0x3cc957b3	0.024577951
82	0x3d034b9e	0.032054536
83	0x3d176121	0.036957864
84	0x3ce057a6	0.027385544
85	0x3c69642e	0.014245076
86	0x3c4a2073	0.012336838
87	0x3b4cac7f	0.0031230745
88	0xbc90b006	-0.01766206
89	0xbc4b4d2a	-0.012408534
90	0xbb3cd4e9	-0.0028813428
91	0x3c8aaea3	0.016928976
92	0x3cc26b7f	0.023732899
93	0x3d27cef0	0.040968835
94	0x3d186a91	0.037211005
95	0x3d02bcb4	0.031918243
96	0x3ca41f93	0.020034587
97	0x3c5e432a	0.013565818
98	0x3c46a5ca	0.012124488
99	0xbcb1ae7f	-0.021689652
100	0xbc6f2b2c	-0.014597695
101	0xbc030fd6	-0.007999381
102	0x3b7fb847	0.003901975
103	0x3cbd7271	0.023125859
104	0x3d394d36	0.04523965
105	0x3d1016c0	0.035177946
106	0x3cceca02	0.02524281
107	0x3c37e6ee	0.0112244915
108	0x3bf6f01e	0.0075359484
109	0x3c28b9ce	0.010298206
110	0xbca3d1eb	-0.019997558
111	0xbc89eda3	-0.016836947
112	0xbc4c6606	-0.012475496
113	0xbbc7ab45	-0.006093415
114	0x3cb14fc6	0.021644484
115	0x3d3aeef1	0.04563803
116	0x3d150f41	0.0363915
117	0x3c8ceb6b	0.0172021
118	0x3b9704fd	0.004608749
119	0xbb8b6c6b	-0.004254868
120	0x3b93fbf3	0.0045161187
121	0xbc474662	-0.012162777
122	0xbb58198b	-0.003297421
123	0x3c3c5b04	0.011496309
124	0xbc237409	-0.009976395
125	0x3a9e8c41	0.0012096242
126	0x3b675f57	0.003530463
127	0x3bbbbfc5	0.005729648
128	0xbc98474c	-0.018588684
129	0xbc54d52d	-0.012990278
130	0xbcc8577d	-0.02445578
131	0xbbfe7ff3	-0.0077667176
132	0xbb8b9519	-0.004259717
133	0x38f62bc4	0.00011738346
134	0x3c080989	0.008303055
135	0xbc539529	-0.0129139805
136	0x3b3990aa	0.0028314986
137	0x3c6661a7	0.014061368
138	0x3c322193	0.0108722625
139	0xbc8e868c	-0.017398141
140	0xbc732379	-0.01484
141	0xbcab4e71	-0.020911427
142	0xbb484001	-0.0030555727
143	0xba348f2f	-0.0006887791
144	0xbb1bc610	-0.0023769177
145	0xbaea96d0	-0.0017897729
146	0xbcb1564c	-0.021647595
147	0x3b0d7fd8	0.0021591093
148	0xb9b6df9c	-0.00034880347
149	0x3aad051c	0.0013200375
150	0xbd20694e	-0.039162926
151	0xbcfea906	-0.031086456
152	0xbd1ce2da	-0.03830228
153	0xbc999716	-0.018748801
154	0x3cb6b51c	0.022303157
155	0x3c811bdb	0.015760353
156	0x3c09298c	0.008371722
157	0xbb4a4e21	-0.0030869322
158	0x3c3fd472	0.011708366
159	0x3c6ceade	0.014460294
160	0x3bcb2ccf	0.00620041
161	0xbcaba1a6	-0.020951103
162	0xbc60dbca	-0.013724277
163	0xbcc8db39	-0.024518596
164	0xbc2645bf	-0.010148465
165	0x3d19614d	0.03744631
166	0x3ce0c02c	0.027435385
167	0x3c9d8522	0.019228522
168	0x3c59723d	0.013271865
169	0x3ccdd512	0.025126014
170	0x3cb51a24	0.022107191
171	0x3c878919	0.016544865
172	0xbb38bb0d	-0.0028187663
173	0x3b125e31	0.0022333974
174	0xbc4c27f4	-0.012460697
175	0xbc0129e2	-0.007883521
176	0x3c19b1a6	0.009380734
177	0xbb4fc5ce	-0.0031703594
178	0xbaef2fd3	-0.0018248506
179	0x39dee608	0.00042514526
180	0x3a2cc5a9	0.0006590733
181	0xbc1c8081	-0.009552122
182	0xba104afe	-0.0005504339
183	0xb7d8d6cd	-2.5849231e-05
184	0xbb5844ad	-0.0032999918
185	0xbcc018cf	-0.02344933
186	0xbc8036a0	-0.015651047
187	0xbc15276c	-0.009103637
188	0xbc837d25	-0.016050885
189	0xbbe88936	-0.007096435
190	0xbc14819f	-0.009064107
191	0xbaff0b67	-0.0019458354
192	0xbc1a8ee1	-0.009433479
193	0xbafa32c4	-0.0019088616
194	0x3c0e7b09	0.008696326
195	0x3aeee297	0.0018225488
196	0xbc6978b0	-0.014249966
197	0xbbe22830	-0.0069017634
198	0xbb815974	-0.003947431
199	0xbc08480b	-0.008317958
200	0x3b10b413	0.002207999
201	0x3af9a0aa	0.0019045074
202	0x3bda5f43	0.006664188
203	0x3c2e7565	0.010648106
204	0x3c8bbdfd	0.017058367
205	0x3cdc88e7	0.026920749
206	0x3cab06bb	0.020877233
207	0x3c1333cf	0.00898452
208	0x3c83f2a7	0.016106917
209	0xbc379fa2	-0.011207493
210	0xbc2c3c1b	-0.010512377
211	0xbb7d5118	-0.0038653072
212	0xbc298db9	-0.010348731
213	0x3bc3af71	0.005971842
214	0x3c882369	0.016618447
215	0x3c80c763	0.015720075
216	0x3cafdb1c	0.021466784
217	0x3c4b2af4	0.012400378
218	0x3bf7c679	0.0075615016
219	0x3c5c2283	0.013435963
220	0xbc54084e	-0.012941433
221	0xbba0c13e	-0.0049058488
222	0xbb62a13b	-0.0034580964
223	0xbc41f53b	-0.011838253
224	0x3b8e0838	0.004334476
225	0x3cb06da7	0.021536661
226	0x3caa7271	0.020806523
227	0x3ca9636b	0.020677289
228	0x3c21de92	0.009879725
229	0x3c0eba22	0.00871137
230	0x3c65653d	0.014001188
231	0xbc5e49a8	-0.013567366
232	0xbba90169	-0.005157639
233	0xbc5df530	-0.013547227
234	0xbc955790	-0.01823023
235	0xbc27d886	-0.010244494
236	0x3c551aef	0.01300691
237	0x3c02612b	0.007957737
238	0x3c401307	0.0117232865
239	0x3ae67477	0.0017582317
240	0x3c41eab6	0.011835745
241	0x3c46f219	0.0121426815
242	0xbcea5f72	-0.028609965
243	0xbcc9ea26	-0.024647783
244	0xbcca42a2	-0.024689976
245	0xbcef296e	-0.02919456
246	0xbcb037f8	-0.021511063
247	0xbce93db2	-0.028471801
248	0xbcfb20bd	-0.03065526
249	0xbc046df1	-0.008082853
250	0x3badbba4	0.0053019095
251	0x3cce83fe	0.025209423
252	0x3cbc807a	0.023010481
253	0xbcc0b964	-0.023525901
254	0xbc99c937	-0.018772705
255	0xbcb7a3ff	-0.022417067

exp_avg_sq f4 [8, 1, 11, 11]
0	0x3d0ffdbb	0.035154086
1	0x3ce53bf5	0.027982691
2	0x3cb4e03f	0.022079585
3	0x3cb1778d	0.021663452
4	0x3c8f6fea	0.01750942
5	0x3c756314	0.014977235
6	0x3c783f39	0.015151792
7	0x3c72dc99	0.014823102
8	0x3c8d1abe	0.017224666
9	0x3ca35eb2	0.019942615
10	0x3cd25598	0.02567558
11	0x3d030ec1	0.031996492
12	0x3cd17a63	0.025571054
13	0x3ca7aa19	0.020466851
14	0x3c994f3a	0.018714536
15	0x3c7bda85	0.015371923
16	0x3c5369b4	0.01290362
17	0x3c6472ed	0.013943416
18	0x3c5b90b7	0.013401202
19	0x3c77fdec	0.015136223
20	0x3c90274c	0.017596863
21	0x3cbc75ef	0.023005454
22	0x3cf32a13	0.029683148
23	0x3cc07dfa	0.02349757
24	0x3c987bbb	0.018613687
25	0x3c6790a4	0.014133606
26	0x3c5b5597	0.013387105
27	0x3c50bbe4	0.012740109
28	0x3c39f59c	0.011350062
29	0x3c4ae212	0.012383001
30	0x3c6bdafe	0.0143954735
31	0x3c82904e	0.01593795
32	0x3cb3729d	0.021905238
33	0x3ce5a260	0.028031528
34	0x3cb8d581	0.022562744
35	0x3c8b0ba9	0.016973333
36	0x3c64022f	0.013916536
37	0x3c55d62c	0.013051551
38	0x3c825b96	0.015912812
39	0x3c312945	0.010813062
40	0x3c53e5ec	0.012933236
41	0x3c806497	0.015672965
42	0x3c80361c	0.015650801
43	0x3cac5908	0.021038547
44	0x3ce96ac3	0.02849329
45	0x3cb4a53b	0.022051444
46	0x3c8b9e31	0.017043205
47	0x3c79b0be	0.0152398925
48	0x3c75a647	0.014993257
49	0x3ca94ad1	0.020665558
50	0x3c768ad2	0.015047746
51	0x3c75f40f	0.015011801
52	0x3c8adcb0	0.016950935
53	0x3c94d3cf	0.018167404
54	0x3cb24cae	0.02176508
55	0x3cf256a7	0.029582335
56	0x3cd105a1	0.02551538
57	0x3cbf7f8e	0.023376253
58	0x3ca0ae54	0.019614376
59	0x3cee72b4	0.02910743
60	0x3cdcf293	0.026971137
61	0x3c8ba854	0.017048039
62	0x3cc4513b	0.023964515
63	0x3c9a37eb	0.018825492
64	0x3cbb6baf	0.022878496
65	0x3cc02def	0.023459403
66	0x3ce4eed3	0.027945912
67	0x3cb6207a	0.022232283
68	0x3c9ff537	0.019526107
69	0x3c5bbd4c	0.013411831
70	0x3c8c956e	0.017161097
71	0x3cae1c56	0.021253746
72	0x3c89a80f	0.01680377
73	0x3c610105	0.013733153
74	0x3c8f3431	0.017480941
75	0x3c976dec	0.018485032
76	0x3cb9b67a	0.02267002
77	0x3cddad89	0.027060287
78	0x3ca93776	0.020656329
79	0x3c923c94	0.017851152
80	0x3c61e2b2	0.0137869585
81	0x3c4f6a70	0.012659654
82	0x3c837128	0.016045168
83	0x3c531221	0.01288274
84	0x3c642f5c	0.013927307
85	0x3c8a18bc	0.016857497
86	0x3c95fab8	0.018308029
87	0x3cbebee3	0.023284381
88	0x3cea92b6	0.02863441
89	0x3cb42d26	0.021994185
90	0x3c9210c2	0.017830256
91	0x3c823270	0.015893191
92	0x3c419117	0.011814377
93	0x3c71190f	0.014715447
94	0x3c500aad	0.012697858
95	0x3c63c27f	0.013901352
96	0x3c81da53	0.015851175
97	0x3c9eef02	0.019401077
98	0x3cca878f	0.024722842
99	0x3cfd26e1	0.030902328
100	0x3cc8306f	0.024437157
101	0x3c9a5637	0.018839939
102	0x3c811b0c	0.015759967
103	0x3c77ee98	0.015132569
104	0x3c59cf43	0.013294044
105	0x3c853644	0.016261227
106	0x3c892718	0.016742274
107	0x3c957d7b	0.01824831
108	0x3cb58047	0.022155894
109	0x3cde6013	0.027145421
110	0x3d0df9e0	0.034662127
111	0x3ce3234a	0.027726788
112	0x3cad3b41	0.021146419
113	0x3c938bd3	0.01801101
114	0x3c8220c5	0.015884766
115	0x3c9c51d0	0.01908198
116	0x3c9d677f	0.01921439
117	0x3c99bc0b	0.018766424
118	0x3cad7945	0.02117599
119	0x3cc54f46	0.024085652
120	0x3cf02b52	0.029317532
121	0x3cc8083e	0.024417993
122	0x3cc2d4cd	0.023783112
123	0x3ccc7eff	0.0249629
124	0x3cabc4bf	0.02096784
125	0x3ce2d692	0.027690206
126	0x3cb73356	0.022363346
127	0x3ca04cbf	0.019567845
128	0x3ca7ef25	0.020499775
129	0x3cafd674	0.021464564
130	0x3cc65c80	0.02421403
131	0x3ce86e09	0.028372781
132	0x3cd27c7b	0.025694123
133	0x3cc362dd	0.023850853
134	0x3cca0915	0.024662534
135	0x3cb3e96e	0.021961894
136	0x3cf1f358	0.02953498
137	0x3ccc3b9d	0.02493077
138	0x3cfa951a	0.030588675
139	0x3cd1de4c	0.025618695
140	0x3ce966db	0.028491428
141	0x3ccc791c	0.024960093
142	0x3cebe0c6	0.028793704
143	0x3ce0ec31	0.027456375
144	0x3cc6e52d	0.024279201
145	0x3cc1b903	0.02364779
146	0x3cd5e3bf	0.026109574
147	0x3ccb1345	0.024789462
148	0x3d0047de	0.031318538
149	0x3cbc20a1	0.022964777
150	0x3cc4ded1	0.024032028
151	0x3cdb8878	0.026798472
152	0x3cc4d99f	0.024029551
153	0x3ce2d62a	0.027690012
154	0x3cc5d0bd	0.024147386
155	0x3ca3d8a2	0.02000076
156	0x3cc90d60	0.02454251
157	0x3cc83b37	0.024442298
158	0x3d08e252	0.03341896
159	0x3d14b403	0.036304485
160	0x3cdb9f11	0.026809247
161	0x3ce97a32	0.02850065
162	0x3cbd87dd	0.023136074
163	0x3cb4b041	0.0220567
164	0x3cd40c68	0.025884822
165	0x3cddca0e	0.027073886
166	0x3cd9c055	0.026580969
167	0x3ccaa619	0.024737405
168	0x3cce05a5	0.025149176
169	0x3cd96075	0.026535252
170	0x3ccd7dd7	0.02508442
171	0x3cbab1cf	0.022789864
172	0x3ce5add4	0.02803699
173	0x3cb92f39	0.022605525
174	0x3cc42311	0.023942502
175	0x3cd3d7f8	0.025859818
176	0x3cc98d0e	0.024603393
177	0x3cb5732d	0.022149647
178	0x3cac6e54	0.021048702
179	0x3d11bfb4	0.035583213
180	0x3cf67fbe	0.03009021
181	0x3ccc6967	0.024952604
182	0x3cc297ae	0.023753967
183	0x3d0e7039	0.034774993
184	0x3cd09052	0.025459442
185	0x3cbad9b0	0.02280888
186	0x3cca40cb	0.024689099
187	0x3ce87e18	0.028380439
188	0x3ccdcb3b	0.025121322
189	0x3cc9ccf1	0.024633856
190	0x3d01f1d4	0.031724766
191	0x3cd51838	0.026012525
192	0x3cb230f4	0.021751858
193	0x3c998ed5	0.018744865
194	0x3d004947	0.031319883
195	0x3cc70dce	0.024298575
196	0x3ca955cf	0.0206708
197	0x3cd109d7	0.025517387
198	0x3cc694d8	0.024240896
199	0x3cb2b225	0.021813462
200	0x3cb6709c	0.022270493
201	0x3ce930c0	0.028465629
202	0x3cdf5506	0.027262222
203	0x3cf892e0	0.030343473
204	0x3d2ae01d	0.041717637
205	0x3d14649b	0.036228757
206	0x3cd3db04	0.02586127
207	0x3ca37290	0.019952089
208	0x3cb364ee	0.021898713
209	0x3cc8be8e	0.024504926
210	0x3caf05a7	0.021365
211	0x3c9b3cd5	0.018949905
212	0x3caad24d	0.020852232
213	0x3ccda530	0.025103182
214	0x3d05a9eb	0.03263275
215	0x3d200222	0.039064534
216	0x3ccd14b9	0.025034295
217	0x3ca33b3a	0.019925702
218	0x3c94890b	0.018131753
219	0x3cb31dbb	0.021864763
220	0x3cdbcd91	0.02683142
221	0x3ccfe715	0.025378743
222	0x3cc36818	0.023853347
223	0x3cbfe2bf	0.02342355
224	0x3cb13b8d	0.021634841
225	0x3cd5ef5f	0.026115118
226	0x3ce59cf6	0.028028946
227	0x3cc5c32a	0.024140913
228	0x3cc889c0	0.024479747
229	0x3cd7ec0b	0.026357671
230	0x3cf20a51	0.029545935
231	0x3d0dc5de	0.03461253
232	0x3cf9a220	0.030472815
233	0x3ced13b0	0.028940052
234	0x3ceeb9fc	0.029141419
235	0x3cd72e66	0.026267242
236	0x3ce788ef	0.028263537
237	0x3cf1ffeb	0.029540977
238	0x3d02f8dc	0.031975612
239	0x3cf87327	0.030328346
240	0x3d05acfb	0.03263567
241	0x3d10ae7c	0.03532265
242	0x3ce71767	0.028209401
243	0x3cb7cc53	0.022436297
244	0x3c9ccafe	0.019139763
245	0x3c86f79b	0.01647549
246	0x3c792ac0	0.015207946
247	0x3c828999	0.015934752
248	0x3c7e6ca5	0.015528833
249	0x3c756dcc	0.014979791
250	0x3c8d0c43	0.01721776
251	0x3c94a2a9	0.018143969
252	0x3caba1e2	0.020951215
253	0x3cd11a28	0.025525168
254	0x3ca343e3	0.019929832
255	0x3c8749a1	0.016514601

exp_avg f4 [32, 8, 11, 11]
0	0x3b51a41a	0.0031988681
1	0x3b7bdedf	0.0038432402
2	0xb90b740f	-0.00013299308
3	0xbb3e5218	-0.002904063
4	0xbacc76e7	-0.00155994
5	0xbb399772	-0.0028319028
6	0xba1ecbfa	-0.00060576166
7	0xbab98089	-0.0014152686
8	0xbb6171da	-0.0034400136
9	0xbad3f1eb	-0.001617012
10	0xba3b8f38	-0.0007154825
11	0x3b8f22a3	0.0043681427
12	0x3b8214a7	0.003969747
13	0xbaa17e8a	-0.0012321037
14	0xbaf67322	-0.0018802623
15	0xbb13c241	-0.0022546204
16	0xbb516590	-0.0031951405
17	0x3937cad6	0.00017527802
18	0xbb327190	-0.0027228333
19	0xbb364e23	-0.002781757
20	0xbab3e620	-0.0013725199
21	0xbad43783	-0.001619086
22	0x3ba43b38	0.0050119422
23	0x3b383a76	0.0028111017
24	0xbaf1b187	-0.0018439748
25	0xbaac167b	-0.0013129258
26	0xbb7ae3ea	-0.003828282
27	0xbb46fb1a	-0.003036207
28	0xb93891a5	-0.00017601864
29	0xbb85bb58	-0.004081171
30	0xbb096161	-0.0020962583
31	0xbb14e397	-0.0022718662
32	0xbb1a4e14	-0.0023545073
33	0x3ba70a13	0.0050976365
34	0x3a8a3ded	0.001054702
35	0xbae9e0e0	-0.0017843507
36	0xbaac1e9b	-0.001313168
37	0xbbac24c4	-0.0052534062
38	0xbad616cb	-0.0016333697
39	0xba9b2627	-0.0011836932
40	0xbb9b7d7a	-0.0047451826
41	0xbae3710c	-0.0017352416
42	0xbb59db79	-0.0033242388
43	0xbb20d3f4	-0.0024540396
44	0x3b8bd9ff	0.0042679305
45	0xb96f2b73	-0.00022809002
46	0xbab193d5	-0.0013548086
47	0xbb230921	-0.0024877267
48	0xbbc03c0e	-0.005866534
49	0xba707f28	-0.0009174221
50	0xbb2a61b0	-0.0025998168
51	0xbb9e5909	-0.004832391
52	0xbb003255	-0.001956125
53	0xbba5416c	-0.0050431993
54	0xbad35fa2	-0.0016126523
55	0x3b487178	0.003058521
56	0xb9d88fd1	-0.00041305882
57	0xb83a6460	-4.4439337e-05
58	0xbb709066	-0.0036707162
59	0xbbb1fabf	-0.0054315026
60	0xba6843ad	-0.0008860182
61	0xbb73acf9	-0.0037181957
62	0xbb87313e	-0.004125743
63	0xbb15bec9	-0.0022849313
64	0xbbb0e155	-0.0053979554
65	0x38cb03e7	9.680521e-05
66	0x3a7e389b	0.0009697766
67	0x394d8703	0.00019600619
68	0x395705a9	0.00020506106
69	0xbb8d5335	-0.0043128976
70	0xbb80b66f	-0.003927998
71	0xbaf23be1	-0.001848098
72	0xbba14911	-0.0049220403
73	0xbb390da4	-0.002823689
74	0xbb6db9a1	-0.0036273974
75	0xbbaed120	-0.0053349882
76	0xb9754fdd	-0.00023394772
77	0xb910827b	-0.00013781518
78	0x3a560184	0.0008163678
79	0xba895adf	-0.0010479352
80	0xbb861bf9	-0.00409269
81	0xbb30f503	-0.0027001507
82	0xbb3880de	-0.0028152983
83	0xbba7701a	-0.005109799
84	0xbaefff74	-0.0018310384
85	0xbb99c88b	-0.004693096
86	0xbb8f2bb8	-0.0043692254
87	0xb96a0a41	-0.00022319799
88	0x363c98d9	2.8103152e-06
89	0x3b1bd00e	0.0023775133
90	0xbaa995df	-0.0012938342
91	0xbb1614cc	-0.002290058
92	0xba98979b	-0.0011641862
93	0xbb5eb42a	-0.0033981898
94	0xbb5b626e	-0.0033475417
95	0xba5f276f	-0.0008512651
96	0xbb859874	-0.0040770117
97	0xbb0b9e2d	-0.0021303997
98	0x38203273	3.8193957e-05
99	0xb62baa35	-2.558006e-06
100	0x3b14414c	0.0022621928
101	0xbb0c3f57	-0.0021400058
102	0xbaca683d	-0.0015442442
103	0xbb086604	-0.002081276
104	0xbb969593	-0.0045954674
105	0xbb4cd8b0	-0.0031257086
106	0xbb18b30c	-0.002330008
107	0xbb9c7754	-0.004774967
108	0xbb08ca54	-0.002087255
109	0xbaa5dae5	-0.0012653737
110	0x3a96891c	0.0011484954
111	0x3b019329	0.0019771552
112	0xbad647bd	-0.0016348284
113	0xb994f227	-0.00028409177
114	0xbaf5cbe2	-0.0018752778
115	0xbb65e46c	-0.0035078777
116	0xbb0d31ac	-0.00215445
117	0xbb478b4b	-0.0030448015
118	0xbb773fdf	-0.003772728
119	0xba685f30	-0.00088642817
120	0xbabb564b	-0.0014292685
121	0x3a84051c	0.0010072323
122	0xba9e14e2	-0.0012060667
123	0xba403dd4	-0.0007333432
124	0xbae5e089	-0.001753823
125	0xbac7bb27	-0.0015238271
126	0x3b83fbb1	0.0040278067
127	0x39fc3eb1	0.00048111894
128	0xbb08b472	-0.0020859507
129	0xba74ab62	-0.00093333994
130	0xba4d83f8	-0.0007839794
131	0xba456dc5	-0.00075313105
132	0x3a90b29e	0.001103956
133	0x391ce51f	0.00014962674
134	0x39d0f551	0.00039855627
135	0xbade9d69	-0.0016984168
136	0x3a14b475	0.0005672642
137	0x3b961a25	0.0045807534
138	0xbaf5ba7a	-0.0018747591
139	0xbae83dfd	-0.0017718669
140	0xba0d2654	-0.00053844345
141	0x3847de32	4.7652233e-05
142	0x37c64997	2.3637707e-05
143	0x3a5a2288	0.00083211856
144	0x3ac7356b	0.0015198415
145	0x3a08c7cd	0.0005217761
146	0xbb162d9f	-0.0022915376
147	0x3b2efdde	0.002670161
148	0x3b80c786	0.003930035
149	0xbb425d24	-0.0029657567
150	0xb9cd62a6	-0.00039174146
151	0x3a0f8ff3	0.0005476467
152	0x3a9d5fda	0.0012006715
153	0x3a19a1ec	0.0005860615
154	0x3ac4140a	0.0014959585
155	0x3b48702f	0.0030584445
156	0xb98287ea	-0.00024896796
157	0xba68915a	-0.0008871757
158	0x3bb105e4	0.0054023135
159	0x3b64ea26	0.0034929602
160	0xbad8fc6c	-0.001655472
161	0x3b1132c0	0.0022155493
162	0x3af8889f	0.0018961615
163	0x3b1f7a82	0.0024334495
164	0x3abbc1da	0.001432474
165	0x3b0f96f4	0.0021910043
166	0x3b65d10a	0.0035067224
167	0xba8ee773	-0.0010902717
168	0x3a73ac42	0.0009295383
169	0x3bd2bfcd	0.006431556
170	0x3ac85e23	0.0015286844
171	0xba0570a6	-0.0005090333
172	0x3b4d2453	0.0031302168
173	0x3aecfff3	0.001808165
174	0x3b181bd3	0.0023209944
175	0x3a91a06d	0.0011110433
176	0x3b6ba4a5	0.003595629
177	0x3b64cd9e	0.0034912596
178	0xba0d31af	-0.00053861266
179	0x3b5e717b	0.0033942151
180	0x3bcbbabc	0.006217329
181	0x3ab2c3a9	0.0013638634
182	0x3b161f76	0.0022906936
183	0x3b88e8f2	0.00417816
184	0x3b63f974	0.0034786137
185	0x3b8242d7	0.003975253
186	0x3b1e74dd	0.0024178543
187	0x3b8ee202	0.0043604383
188	0x3b1556d7	0.0022787356
189	0xb92e90e4	-0.00016647909
190	0x3b971296	0.00461037
191	0x3b8c0cc3	0.0042739823
192	0x3ac3bc00	0.0014933348
193	0x3b7bc79d	0.003841854
194	0x3b588aa7	0.0033041628
195	0x3b6dd25b	0.0036288712
196	0x3b5b1ebb	0.0033435065
197	0x3b192793	0.0023369535
198	0x3b87ef70	0.004148416
199	0x3a0644c0	0.0005121939
200	0x3a2d7a30	0.00066176336
201	0x3b9a0a08	0.004700903
202	0x3b16da8c	0.0023018448
203	0x3af5c686	0.0018751181
204	0x3b7130d9	0.0036802797
205	0x3b21815a	0.002464375
206	0x3b7bc88b	0.0038419093
207	0x3b0c1011	0.002137188
208	0x3b06c988	0.00205669
209	0x3b68d644	0.0035528103
210	0xba103857	-0.00055015594
211	0x3b14e77d	0.0022720986
212	0x3b6b908a	0.0035944306
213	0x3a9532a4	0.001138289
214	0x3b1199ad	0.0022216842
215	0x3b402877	0.0029320994
216	0x3b1e2fe7	0.0024137439
217	0x3b7aac13	0.0038249537
218	0x3abb562c	0.0014292649
219	0x3b09aa14	0.0021005915
220	0x3b221a4c	0.0024734912
221	0xba3f2fb1	-0.00072931784
222	0x3b5d79ab	0.0033794444
223	0x3b119512	0.0022214097
224	0x3acebaec	0.001577226
225	0x3aff4b83	0.001947746
226	0x3ada381b	0.0016648801
227	0x3b035ec4	0.0020045498
228	0x3b430a84	0.0029760906
229	0x3a602201	0.0008549989
230	0x3b12313c	0.0022307178
231	0x3b0f13f7	0.0021831968
232	0x3a411a68	0.00073663006
233	0x3b8d2220	0.0043070465
234	0x3af1e938	0.0018456345
235	0x3b377b00	0.0027996898
236	0x3b0adcf0	0.0021188818
237	0x3ac750fa	0.0015206628
238	0x3b122368	0.0022298936
239	0x3b1dd1f7	0.0024081448
240	0x3acac824	0.0015471024
241	0x3b3b5995	0.002858733
242	0x3a206687	0.00061187934
243	0x3a6b613d	0.0008979028
244	0x3baaae69	0.0052087796
245	0x3b825997	0.003977965
246	0x3aa0b7ab	0.0012261769
247	0x3aea546c	0.0017877943
248	0xb9906c7e	-0.00027546653
249	0x3a587417	0.0008257045
250	0x3b07eb0e	0.0020739469
251	0x38416a71	4.6113917e-05
252	0x3b1e5f1f	0.0024165583
253	0xba8d99ff	-0.0010803341
254	0x3ad16771	0.0015976263
255	0x3bb1daaf	0.0054276804
