trained_models/MRI_Sigma_25_t_10_K11/checkpoints/checkpoint_10.pth (torch, 401587 bytes, 10 tensors)

conv_layer.conv_layers.0.parametrizations.weight.original f4 [8, 1, 11, 11]
000000 38 87 08 3c 09 ae 8b 3d ff 3e 5e bd e3 cb da 3d
       0.00833302 0.06820304 -0.054259297 0.106834196
000010 f8 52 c1 bb b6 87 38 3c 41 e3 4d bd 8f 34 39 3e
       -0.005899783 0.011262825 -0.050265554 0.18086456
000020 88 83 cd 3d 8e ec 9a bd ee 30 70 3d 7c 6e 8a bd
       0.10034853 -0.075646505 0.058640413 -0.067593545
000030 c3 58 19 3d 39 a6 dc bd 98 4c ea bc f4 23 e4 bb
       0.037438165 -0.10773892 -0.028600976 -0.0069622938
000040 02 f7 7a 3e 23 60 19 3d 6c 69 9b bd 9c 3c 27 3d
       0.24508289 0.0374452 -0.07588467 0.040829286
000050 88 87 b8 bb 7a ea 16 bd 24 43 bd bc 42 df 85 3d
       -0.005631391 -0.036844708 -0.023103304 0.06536724
000060 e7 f3 07 be 83 91 d2 bd b6 96 4a bd 3e 9a 00 bd
       -0.13276635 -0.102816604 -0.049460135 -0.031397097
000070 99 59 f8 3a 45 da c5 bd 60 4d 30 3e 2a c8 98 bd
       0.0018947601 -0.09660772 0.17217016 -0.07460053
000080 f1 f6 a1 3d 84 01 89 bd e9 81 ac bd a3 0e d0 3d
       0.079084285 -0.06689742 -0.08423216 0.10159042
000090 7d 8e 1c 3c 24 0d 0e 3e 5e 33 9c 3d 98 09 0a be
       0.009555456 0.138722 0.07626985 -0.13480222
0000a0 17 98 64 3d a7 8c 4a bd c3 b5 e1 bc d9 f5 ce 3d
       0.055809107 -0.049450543 -0.027552491 0.101054855
0000b0 31 e0 0b 3d b2 d3 a3 bd 50 79 89 3d 3b 20 c4 3c
       0.034149352 -0.07999362 0.06712592 0.02394115
0000c0 40 30 00 3e 50 f9 c1 bd 2d b1 8b be 88 8b 6d bd
       0.12518406 -0.09471381 -0.27283612 -0.057994395
0000d0 42 f8 35 be 7c d4 fc 3d a2 97 80 bd b4 d8 4c 3d
       -0.17770484 0.12345216 -0.06278922 0.05001135
0000e0 22 0f 31 3d 78 6d 81 3d 3b 3b 63 3e bb 9a f3 bd
       0.043227322 0.06319708 0.22190563 -0.11894747
0000f0 50 6a 85 3e bc 28 95 be 8f 70 0f bb 5a 5e 6c bd
       0.26057673 -0.2913264 -0.0021887159 -0.05770717
000100 7c 6f 11 bb c7 7b a1 bd 75 ca ae 3d 36 59 dc bd
       -0.0022191694 -0.07884937 0.08534709 -0.10759203
000110 52 c3 87 bd 40 8f 29 bd b9 fe 87 3e 03 55 30 3e
       -0.06629051 -0.04139638 0.26561525 0.1721993
000120 46 4b 77 3d 7f 4d 71 be 23 81 3b be dd fc 0e be
       0.06037452 -0.23564719 -0.1831098 -0.13963647
000130 50 3e ae bd 25 35 dc 3c aa b0 d8 3c 6f fe 1d 3e
       -0.08507979 0.02688081 0.026451427 0.1542909
000140 4e 7e 91 bd 9b ac 04 bd 92 18 5d 3e 9e 63 fc bd
       -0.07104169 -0.032391172 0.21591404 -0.12323688
000150 d6 39 b4 bb 20 6b e6 bc 57 59 19 3d 0f 81 2a bd
       -0.0055000586 -0.028127253 0.037438717 -0.041626986
000160 1d bf c7 bc f6 3d 63 bd 0d 9d 84 3d d7 73 d1 bd
       -0.024383122 -0.055479012 0.064752676 -0.10227173
000170 ca cb 13 3e b5 e2 39 3e 33 47 ff bd 68 3d e1 bd
       0.14433208 0.18152888 -0.12464752 -0.109980404
000180 2c 8b 1a 3e 13 ff bd bc a0 b9 bd bc 02 88 ee bd
       0.15092152 -0.023192918 -0.023159802 -0.11647035
000190 28 00 a1 bd 2a 33 82 3d 22 b5 37 bd c2 da a3 bd
       -0.07861358 0.06357415 -0.044850476 -0.08000709
0001a0 04 fe 29 3d de 9e 54 bd 5b 1a 9a bd 70 9d 03 bd
       0.041502014 -0.05190932 -0.07524558 -0.032132566
0001b0 08 48 a5 bd 16 17 d4 3c 6c ba 88 3d 16 95 c2 3c
       -0.080703795 0.025889914 0.06676182 0.02375273
0001c0 00 00 d6 3b 1d 3b a3 bd 5f e0 b1 bd 44 85 6b bb
       0.0065307617 -0.07970259 -0.086853735 -0.0035937587
0001d0 4d 60 4f 3d a0 ed b2 bd 4e 0e ff bc 34 2f 72 b9
       0.05062895 -0.087367296 -0.03113475 -0.00023096503
0001e0 9f d1 b4 3c e8 f1 82 bc 55 2f 14 ba c2 2b 93 bd
       0.022072611 -0.01598449 -0.0005652805 -0.071860805
0001f0 eb 37 b1 bd c2 1d 8f bd a1 90 3e be 3d b4 14 be
       -0.08653244 -0.06988098 -0.18609859 -0.1452188
000200 f5 7f 0e 3d 1e e3 57 bd ac de 2d 3d 21 f2 09 bd
       0.034789998 -0.05270683 0.042448685 -0.033678178
000210 25 b6 3b bd 3c 34 e1 3d c0 28 94 bd e5 27 2c bd
       -0.045828003 0.10996291 -0.07234335 -0.042030234
000220 0b 84 ca bd 1b d2 87 be 62 d3 40 3d a0 75 13 bd
       -0.098884664 -0.26527485 0.04707659 -0.036000848
000230 1b 28 d6 3d d2 93 f4 bd 6c d5 d4 3d 46 7d 78 bd
       0.10456868 -0.11942257 0.103922695 -0.060666345
000240 c4 a6 08 3b 25 5b 5f bd 11 a9 86 3c 56 ad ed 3d
       0.0020851353 -0.05453028 0.016438039 0.11605327
000250 99 f2 15 3e 04 32 07 be 76 74 59 3d 85 7e e1 bc
       0.14643325 -0.13202673 0.05308958 -0.02752615
000260 b6 37 8c 3b ea ef b4 bc 4b 16 0e 3e 71 2a f5 bd
       0.004279102 -0.022087056 0.13875692 -0.11970986
000270 fe 8f ad 3d 56 11 87 bc 18 d7 78 3d 18 e6 01 be
       0.0847473 -0.016487759 0.060752004 -0.1268543
000280 39 b9 02 3e 50 96 8a bb 7b a7 b1 3c 78 f7 e8 bd
       0.1276597 -0.0042293444 0.021686306 -0.11375326
000290 f8 0e 9b 3d 89 19 6e bc 6e d2 90 bd 57 92 1d 3e
       0.075712144 -0.014532455 -0.07071386 0.15387855
0002a0 e1 4b 4c bd 5f 72 10 be 28 4d 73 be 7b 5e 8d bc
       -0.04987705 -0.14106129 -0.23759902 -0.017256966
0002b0 13 5d 84 3c 45 d0 2b bc 88 de 9a bd e7 80 08 3d
       0.016157662 -0.010486667 -0.07561976 0.033326056
0002c0 f4 10 ee bc 56 60 34 bb 92 61 44 3e 4d 8b 09 be
       -0.029060818 -0.002752324 0.19177845 -0.13432045
0002d0 96 cd 8a 3e 60 0a e5 3e 61 46 40 3e 2d 0b 5e bd
       0.27109975 0.44734478 0.18776847 -0.054209877
0002e0 11 69 98 3d ec 8f a4 3d 70 5d 9f 3c c2 29 93 bc
       0.07441915 0.080352634 0.019453734 -0.017964248
0002f0 bb 3b 9f bd e8 9b 55 bc 6c f5 d3 bd 1b 5b 84 bd
       -0.077750646 -0.013037659 -0.10349545 -0.064626895
000300 c1 b0 8d 3e b2 55 38 3e 8b 73 c1 bd 1e 84 83 bd
       0.27673915 0.1800144 -0.09445866 -0.06421684
000310 aa 53 c8 bc 8d 5a a2 bd 68 c9 50 3c a9 4b d5 bb
       -0.024453957 -0.079274274 0.0127433315 -0.0065092635
000320 fb be a0 bd 43 94 f8 bd 44 37 07 3e 9d fa f1 3d
       -0.07848927 -0.12137654 0.13204676 0.11815379
000330 1f bf 09 3c 4d 00 e4 bd 8e fa fb bd 2d 28 cc bc
       0.008407383 -0.1113287 -0.12303649 -0.024921501
000340 1f 43 de bc 37 f2 25 3d c8 ba 97 3d c6 b0 7b 3d
       -0.027131615 0.040514197 0.074086726 0.06144788
000350 0e 0e ef bd 1b 83 d3 bd 7e 7d e6 bd 88 56 20 3e
       -0.116726026 -0.10327741 -0.112544045 0.15658009
000360 d4 3c 81 bd 29 c8 e4 3b b3 47 5c 3d c8 8c 27 bd
       -0.0631043 0.0069818688 0.053779315 -0.040905744
000370 ba fe 90 bd 0a 00 26 3d 56 0b fa bd 3c a1 f2 3c
       -0.07079835 0.04052738 -0.122091934 0.029617898
000380 cb e4 2d be 19 61 87 3d 01 b0 3e 3d 48 00 2d 39
       -0.16981809 0.06610317 0.04655457 0.0001649867
000390 e0 e5 ff bc 0a f8 53 bd eb 87 7a bd 3b c0 7b 3c
       -0.031237543 -0.05175022 -0.061164778 0.0153656555
0003a0 88 42 23 bd 98 9f 6b 3d 72 0f 2c 3e 28 98 42 3c
       -0.03985837 0.057525247 0.16802767 0.011877097
0003b0 4d 33 98 3d 09 54 24 be fe 03 bf bd 48 89 34 bd
       0.0743166 -0.16047682 -0.09326933 -0.044076234
0003c0 ad 83 d6 3d 35 74 5a bc 65 5e 7e bd 59 71 c9 bd
       0.10474334 -0.01333337 -0.06210174 -0.098360725
0003d0 65 19 fc 3b 72 53 a5 bc 4b bd bc bd 94 8b e8 3d
       0.007693457 -0.020181391 -0.09215792 0.113547474
0003e0 01 61 97 bc b0 5d 12 3e 97 58 b3 bc 21 52 bc bd
       -0.018478872 0.14293551 -0.021892829 -0.09195352
0003f0 e5 b0 92 3c 25 fb a0 bc 70 5b 56 bd 58 92 96 bd
       0.017906616 -0.019651005 -0.052333295 -0.073521316

conv_layer.conv_layers.1.parametrizations.weight.original f4 [32, 8, 11, 11]
000000 e7 c9 ec bb 19 9f d4 3c 51 46 29 bd e3 e3 85 bc
       -0.007226217 0.02595477 -0.041326825 -0.016344016
000010 06 1f c8 bb 58 9b 89 bd 17 56 3e 3c 90 6d 12 bd
       -0.006107214 -0.067190826 0.011617205 -0.03574902
000020 8e 1d 8a bd 35 2a f3 3c a0 8b 63 3d 97 3f 06 3d
       -0.06743918 0.029683212 0.05555308 0.032775488
000030 f1 7b 58 bd e2 1c f1 bc 05 3d 3f bb 79 9a 0c 3e
       -0.052852575 -0.029432718 -0.0029180658 0.13730802
000040 ca d5 fe bd a2 6f 2f bd 46 28 5d 3d 2f c9 f2 bd
       -0.12443121 -0.04283107 0.053993486 -0.11854779
000050 72 57 47 3c c8 f4 d3 3c 41 7f d7 3c 6e 37 01 bd
       0.012166845 0.025873557 0.026305797 -0.031547002
000060 c9 74 2a bd b0 41 d3 ba 2d e6 88 3d 19 bb ca bd
       -0.04161528 -0.0016117599 0.066845275 -0.09898967
000070 4e 0d c8 3a 81 c1 15 3e be cf 08 3d 27 4d 50 3c
       0.0015262754 0.14624597 0.033401243 0.012713707
000080 24 ba a8 bd 58 6b 8a bc 9d 99 b2 bc 51 c3 16 bc
       -0.082386285 -0.016896889 -0.021801764 -0.0092018405
000090 6b 8e 69 3d 96 fc e1 bd a2 f7 db 3b f6 18 6d 3d
       0.057020586 -0.11034505 0.0067128697 0.057885133
0000a0 65 a1 b1 bd be 08 f0 3c c2 ab b7 3d 60 1c 40 bd
       -0.08673362 0.029301044 0.08968307 -0.04690206
0000b0 fe f7 80 bc db 16 14 3d b7 c3 bb 3c bd 42 ea 3d
       -0.015743252 0.03615461 0.022920473 0.114385106
0000c0 3e c4 4b bd 43 b2 1e 3d 8b e7 7c bc df 63 8c bd
       -0.049747698 0.038744222 -0.0154360635 -0.068549864
0000d0 70 ba 1c 3c d1 ff 79 3d 00 e1 82 bd 96 3a 35 3d
       0.009565935 0.06103498 -0.063905716 0.044245325
0000e0 2c 44 99 bd b1 71 22 3d c3 4e 8b 3c c6 a7 cb bd
       -0.07483706 0.039659206 0.01700533 -0.099441096
0000f0 06 e1 3e 3b 29 50 f9 bc 4a 7b a0 bc 25 bb 2a 3d
       0.0029125824 -0.030433731 -0.019590039 0.04168238
000100 ad ec c8 bc d3 71 46 ba 8d 94 92 bc ee 27 dd bc
       -0.024526918 -0.0007570062 -0.0178931 -0.026996579
000110 3e 46 2c bb 41 18 69 3a 33 9e 62 3d cf b3 f8 bd
       -0.0026286985 0.0008891859 0.05532665 -0.12143671
000120 59 79 c4 bd d9 9a 81 3d 40 f1 2f 3d 93 42 2d bd
       -0.09593458 0.06328363 0.042954683 -0.04229982
000130 4e 1e 58 bc 80 55 fb bb 81 a9 4d 3d b2 32 87 3c
       -0.013190819 -0.0076701045 0.05021048 0.016503666
000140 c3 51 17 bd dc 11 13 bd e1 73 ca 3d f7 85 6d 3d
       -0.03694321 -0.035905704 0.098853834 0.057989087
000150 89 16 f1 bd 04 df 29 3d 7b 5b 03 3d 16 4b 34 3d
       -0.11771876 0.04147245 0.032069664 0.04401692
000160 09 bc 80 bd 67 4f 15 3d 1c dd 9f bc 84 bc ca bc
       -0.06285865 0.036452677 -0.019514613 -0.024748094
000170 45 49 82 bd 5c bd c9 3d ac c8 58 39 bb 79 f9 3c
       -0.06361631 0.098505706 0.00020674121 0.030453553
000180 11 dd 58 3d e5 09 e3 3b 08 05 23 bd 26 e9 fd ba
       0.0529452 0.0069286698 -0.03979972 -0.0019371852
000190 80 55 5a 3a e2 a3 05 bb d7 f9 6c 3b 65 9d 7c bd
       0.00083287805 -0.0020391871 0.0036159658 -0.06167354
0001a0 47 d9 2c 3d a0 38 a2 bc eb 7e 1f bc 8a aa 66 3c
       0.0421994 -0.019802392 -0.009734849 0.014078746
0001b0 8d 60 60 bc 5a 28 e4 bc 2e 28 42 3d 1d 08 32 3d
       -0.0136948945 -0.027851272 0.0474016 0.04346477
0001c0 e9 76 a3 bc cf b3 89 3d f7 d4 95 bb 5f 23 07 be
       -0.019954162 0.06723749 -0.0045725065 -0.13197087
0001d0 64 35 32 3c de cf a9 3c 31 74 ed 3c 47 76 96 bc
       0.010876987 0.020729002 0.028986068 -0.018366946
0001e0 5d b8 a9 3a 01 bc 85 3c ac 87 e9 3c 37 aa a8 3c
       0.0012948621 0.016324999 0.028507076 0.020588977
0001f0 c5 ec 95 bd 95 6e 78 3a 68 ea ab bc 1c 53 95 bc
       -0.07320551 0.0009476927 -0.020985797 -0.018228106
000200 e6 14 89 3c b0 e1 28 bd ec 17 55 bd 92 95 74 3d
       0.016733598 -0.041230857 -0.052024767 0.059712954
000210 73 fe a0 bd 3b 69 c5 3c 8c 97 37 bd ea 8e fe 3d
       -0.07861032 0.02409803 -0.04482226 0.124296024
000220 a6 59 c3 bd 7d e4 b1 3a 20 ed a4 bd fa 3c 37 3d
       -0.095385835 0.0013572123 -0.080530405 0.044735886
000230 d5 e8 06 3d 06 b6 6f bd b3 48 b8 bc b5 17 93 bc
       0.03293689 -0.0585232 -0.022495603 -0.01795564
000240 3f fd aa 3c e4 f5 e2 3b 40 59 8a 3d e8 55 59 bd
       0.02087271 0.006926285 0.06755304 -0.053060442
000250 3e d3 5f bd 25 47 07 bd 67 f6 fa 3d 31 c0 c5 3c
       -0.054644816 -0.033026833 0.12254029 0.024139496
000260 2d 95 58 bc 00 4d 89 3b b4 30 af bc 48 80 aa bd
       -0.01321916 0.0041900873 -0.021385528 -0.08325249
000270 a1 d5 fa 3d bd b0 14 bd f2 13 95 bd 08 d3 02 bc
       0.12247778 -0.036301363 -0.07279195 -0.007984884
000280 0c 20 4b 3d 75 14 58 3d ad bb b3 bd ed 17 8b 3d
       0.04959111 0.052753884 -0.08776031 0.06791673
000290 29 91 8d 3d e5 a0 d6 bc f4 6a 5a 3c 4e 33 02 3c
       0.06912453 -0.026199767 0.013331164 0.007946802
0002a0 fa a9 ff bc e0 74 31 bd bd 73 32 bd 68 01 bf 3d
       -0.03120898 -0.04332435 -0.043567408 0.0932644
0002b0 0e b5 8c bd df 7f 92 bd f1 e1 0b 3e 9a c0 20 3d
       -0.06870471 -0.07153296 0.13660409 0.03924618
0002c0 e2 2a 00 bd 9c b3 6d bd 1d d7 a9 3c 8f 2e b3 bd
       -0.031290896 -0.058032617 0.020732457 -0.08749115
0002d0 94 b2 49 3d 8b 77 93 3b 58 ab cb 3a 17 af e6 bd
       0.04924257 0.0045003346 0.0015538735 -0.112638645
0002e0 ed bd 1e 3c 48 e1 84 3d d8 8a 34 bd 30 77 8e bd
       0.0096888365 0.064882815 -0.044077724 -0.06956327
0002f0 c3 04 10 bd ec c2 fd 3c 70 c4 5b bd e7 f4 eb 3d
       -0.03516079 0.030976735 -0.053654134 0.11521321
000300 71 5d 12 3d b3 81 30 3c 42 2a 2a bd 5d 47 99 3c
       0.035733644 0.01077311 -0.041544206 0.018710786
000310 13 f9 b5 bd 97 ca 12 3d 70 8d 04 bd be 88 27 3d
       -0.08885398 0.035837736 -0.032361448 0.040901892
000320 3e f8 95 bc 9a f0 cd bc 04 5c 26 bd 62 8e ac bd
       -0.018306848 -0.025139142 -0.040615097 -0.08425595
000330 e7 fe 69 bd e9 5b 2f 3d 45 69 09 3d e5 ed 12 3d
       -0.05712786 0.04281226 0.03354766 0.035871405
000340 99 fb de 39 0b c2 a8 bc 6a ed 2d 3d 38 63 42 3a
       0.00042530595 -0.02060034 0.042462744 0.00074152974
000350 a3 94 69 bd ce fc 2b bd f1 b9 e8 3b d3 0b 2b bd
       -0.057026517 -0.04198914 0.007102244 -0.041759323
000360 2e c1 0a 3d 4d 64 af bc 2b 25 91 3d 2c 2e e9 bc
       0.033875637 -0.021410132 0.07087167 -0.0284644
000370 82 9c 0c 3d bd 41 2b 3c 37 67 d2 bd be 71 2d bd
       0.034328945 0.010452685 -0.10273593 -0.0423448
000380 6b 20 ae 3d 11 f4 21 3d c3 01 36 bd a9 f7 35 3d
       0.08502277 0.0395394 -0.044435274 0.04442564
000390 65 28 19 bd f3 11 37 3c 87 74 26 bc 2c a8 55 bc
       -0.03739204 0.011173713 -0.010159618 -0.013040584
0003a0 19 14 fa 3c cd b1 68 bd 22 50 6c bd 6e 5f 08 3c
       0.030527161 -0.05681019 -0.057693608 0.008323533
0003b0 2a 27 aa 3d 30 0d cd bd e7 4f f4 3d 47 4f ce bd
       0.08308251 -0.10012281 0.11929303 -0.10073715
0003c0 0c 63 e2 3d 63 06 7f bd 2e 6c c3 3c 7b 9b c9 bd
       0.11054048 -0.06226195 0.023855295 -0.09844109
0003d0 0c d5 27 3d 75 7c 70 bb 62 28 cc 3c 17 45 da 3c
       0.04097466 -0.0036695276 0.0249216 0.026644273
0003e0 17 75 b4 bd b9 de 0c 3d a1 5d 35 3d 59 73 9f 3c
       -0.088113956 0.034392092 0.044278745 0.019464182
0003f0 1a 84 37 bd eb 1c 54 bd 38 bb d6 3d c0 f9 b2 3a
       -0.044803716 -0.05178539 0.10484928 0.0013654754

activation.coefficients_vect f4 [672]
000000 00 00 00 80 32 f4 c1 3a c5 9a 8a 3a a9 31 2f 3a
       -0.0 0.0014797507 0.0010574689 0.000668312
000010 31 82 ff 39 ab 91 bf 39 ee d3 7a 39 ce 67 66 39
       0.0004873439 0.0003653889 0.00023920808 0.0002197318
000020 59 5b 31 39 6e a3 d7 38 c7 d3 fe b7 19 0e 18 39
       0.00016914065 0.0001028244 -3.0377776e-05 0.00014501101
000030 14 70 a3 39 c1 2a 73 39 ec 4d 0d 39 44 47 d9 b8
       0.00031173287 0.00023190213 0.00013475836 -0.000103606406
000040 39 00 7e b9 30 ff a7 b9 4b 68 1e ba 34 c5 76 ba
       -0.0002422341 -0.00032042852 -0.00060427625 -0.0009413541
000050 00 00 00 00 00 00 00 80 28 37 12 3b 63 26 df 3a
       0.0 -0.0 0.0022310708 0.001702499
000060 58 da 67 3a 77 a6 16 3a b2 b3 39 39 ec db 78 38
       0.00088444864 0.0005746851 0.00017709917 5.9332626e-05
000070 d4 82 4b 38 cb 89 fa b8 b9 56 08 b9 1b b7 16 39
       4.8520815e-05 -0.00011946595 -0.00013002277 0.00014373327
000080 43 2b e5 39 d3 26 0a 39 d5 1f 51 38 f8 8c 8c b8
       0.00043710516 0.00013175169 4.985913e-05 -6.701978e-05
000090 ea ae 15 b9 9c 64 09 ba ec bf 28 ba 2f 5e 47 ba
       -0.00014274908 -0.0005241127 -0.000643729 -0.0007605282
0000a0 a8 10 dd ba 00 00 00 00 00 00 00 80 2b b9 ba 38
       -0.0016865926 0.0 -0.0 8.9036614e-05
0000b0 96 b7 d5 b7 ad b3 1d b8 22 c7 bb b8 ea 8a c7 b8
       -2.5477068e-05 -3.7599053e-05 -8.953946e-05 -9.514934e-05
0000c0 97 b1 26 b9 e2 ee 27 b9 0d be 31 ba 28 68 b8 b9
       -0.00015897151 -0.00016015352 -0.0006780334 -0.00035172817
0000d0 62 f6 b9 b7 b2 5f 9f 39 2a 37 25 3a 3d 5c 3a 39
       -2.216845e-05 0.00030398142 0.00063024706 0.00017772704
0000e0 47 87 11 39 a2 a4 0b 39 1f 9b 05 39 f9 73 92 38
       0.00013878672 0.00013317403 0.00012741656 6.983424e-05
0000f0 7f cb 28 b8 06 87 ae b8 00 00 00 00 00 00 00 80
       -4.024384e-05 -8.3221166e-05 0.0 -0.0
000100 27 d4 bd 3a 05 fb bc 3a d5 6f 50 3a 40 44 4f 3a
       0.0014482782 0.0014418071 0.00079512346 0.00079065934
000110 bc 62 06 3a f3 9d a0 39 5f 03 06 39 7d 1a 04 37
       0.0005126407 0.0003063526 0.00012780492 7.87398e-06
000120 72 1d dc b8 0f 64 62 38 6f aa 53 39 62 ee b4 39
       -0.00010495902 5.3975786e-05 0.0002018602 0.00034509884
000130 94 bc 6e 39 8c 47 02 b9 7c a8 b4 b9 b6 18 d4 b9
       0.000227677 -0.0001242442 -0.00034457806 -0.00040454202
000140 7d 10 09 ba 39 f0 6b ba 26 a8 e0 ba 00 00 00 00
       -0.0005228592 -0.00090003345 -0.0017139956 0.0
000150 00 00 00 80 75 98 c7 3a f8 ab c0 3a 73 d8 92 3a
       -0.0 0.0015227931 0.0014699688 0.0011203423
000160 f3 2b 7a 3a 53 d7 2b 3a f6 a0 6f 39 21 09 21 39
       0.0009543292 0.0006555218 0.00022852779 0.00015357557
000170 bc 54 0a 39 e8 f3 32 b8 3f 0b 06 38 9e 60 e6 38
       0.00013192272 -4.2665662e-05 3.1958563e-05 0.00010985251
000180 47 bb d8 38 cc 98 47 b8 76 d1 d0 b9 15 78 39 ba
       0.00010334566 -4.75876e-05 -0.00039828912 -0.00070750836
000190 ee 02 7c ba 54 a4 9c ba c3 84 9f ba c3 f1 a2 ba
       -0.00096134737 -0.0011950829 -0.0012170303 -0.001243167
0001a0 00 00 00 00 00 00 00 80 a6 24 dd b8 2e 9a fb b8
       0.0 -0.0 -0.000105449275 -0.00011997331
0001b0 2a d3 10 b9 55 99 53 b9 e3 4e 5f b9 3f c4 72 b9
       -0.00013811575 -0.00020179649 -0.00021296325 -0.00023152026
0001c0 67 ac 30 ba b1 f9 ce b9 53 91 ef b8 d3 ad 35 39
       -0.0006739557 -0.00039477416 -0.00011423477 0.0001732626
0001d0 ae d4 e5 39 4a 6e 9d 39 94 64 0b 39 ad 4d 03 39
       0.00043836742 0.00030027545 0.00013293541 0.0001252207
0001e0 56 8f ec 38 51 35 c4 38 94 35 80 38 be bb 29 38
       0.00011280055 9.355939e-05 6.113495e-05 4.046759e-05
0001f0 ca f3 a5 36 00 00 00 00 00 00 00 80 3e 59 b2 3a
       4.945764e-06 0.0 -0.0 0.0013606919
000200 93 fb 76 3a b5 eb 1b 3a a8 2f c7 39 86 f0 bd 39
       0.0009421643 0.0005947904 0.00037991744 0.00036228093
000210 c0 66 8f 39 31 e1 25 38 9b 58 03 b9 8e 6a 89 b9
       0.0002735164 3.954879e-05 -0.00012526142 -0.00026210066
000220 89 b2 cf b7 db 5a 56 39 23 80 36 39 44 3a 9f 37
       -2.475946e-05 0.00020442477 0.00017404607 1.8981409e-05
000230 b2 43 5f 37 e1 e5 c9 b9 f7 35 0b ba cb ad 2a ba
       1.3307597e-05 -0.0003850898 -0.00053104706 -0.00065108825
000240 d8 81 72 ba b1 d3 90 ba 00 00 00 00 00 00 00 80
       -0.00092509156 -0.0011049417 0.0 -0.0
000250 60 ab 06 3b 69 fd 05 3b 37 ff e7 3a bf 7d ae 3a
       0.0020548925 0.0020445234 0.0017699961 0.0013312622
000260 91 09 39 3a b4 ad 15 3a 8e 55 d4 37 3e e2 53 b8
       0.00070586154 0.00057097827 2.5312209e-05 -5.0517025e-05
000270 57 f4 f0 b8 1d 48 2e b8 ba ae 1f 38 ed 7a 06 b7
       -0.00011489604 -4.1551993e-05 3.807128e-05 -8.015643e-06
000280 d1 fb 92 b8 8e 25 ca b9 1a 00 16 ba 35 b2 4a ba
       -7.008727e-05 -0.00038556423 -0.0005722061 -0.00077322434
000290 4f 33 82 ba c4 e1 aa ba bb e6 55 bb 00 00 00 00
       -0.0009933504 -0.0013037254 -0.0032638747 0.0
0002a0 00 00 00 80 a0 a7 f2 3a 72 51 8b 3a ea f9 4e 3a
       -0.0 0.0018513091 0.0010629131 0.00078955165
0002b0 b7 37 e8 39 94 7a e7 39 1d 99 2a 39 76 e3 27 39
       0.00044292 0.0004415108 0.00016269503 0.00016011097
0002c0 c2 ba a8 b7 13 35 62 b9 9b 83 65 b8 89 ec d8 38
       -2.0114127e-05 -0.00021572811 -5.472042e-05 0.00010343741
0002d0 53 2d f0 37 93 44 fc b7 7c 73 b2 b8 59 f9 82 ba
       2.8631335e-05 -3.0072673e-05 -8.509212e-05 -0.0009992524
0002e0 28 ec 91 ba 2f 5a 93 ba 26 8c c3 ba 49 31 c4 ba
       -0.0011133002 -0.0011242087 -0.0014919087 -0.0014968301
0002f0 00 00 00 00 00 00 00 80 89 07 14 3b b4 cf cc 3a
       0.0 -0.0 0.00225875 0.0015625865
000300 bc 2b 87 3a 59 3e 86 3a 5d 32 26 3a 2b a1 3b 39
       0.0010312716 0.001024197 0.0006339902 0.0001789375
000310 3b 27 f7 38 d4 92 ca 38 78 e2 58 37 f7 f5 f2 38
       0.00011785185 9.6594595e-05 1.2927332e-05 0.00011585274
000320 ff 03 80 39 81 18 6c 38 f6 06 38 b9 b5 4d 73 b9
       0.0002441704 5.6289606e-05 -0.000175502 -0.00023203234
000330 c8 82 30 ba c3 88 87 ba 62 ae 94 ba 8a e7 07 bb
       -0.0006733355 -0.0010340441 -0.0011343474 -0.0020737373
000340 fc a6 0b bb 00 00 00 00 00 00 00 80 5c a4 c9 3a
       -0.0021309247 0.0 -0.0 0.0015384066
000350 6c e8 3c 3a 99 78 2e 3a 23 38 dd 39 89 d1 b2 39
       0.00072062644 0.00066555437 0.0004219423 0.00034106922
000360 e3 3f a1 39 64 ab 52 39 32 6c cb 38 69 b1 c7 38
       0.00030755912 0.00020091009 9.699947e-05 9.522105e-05
000370 f9 df 66 38 70 d6 1d b9 df 09 3a b9 39 3f 6f b9
       5.5044864e-05 -0.00015052571 -0.0001774202 -0.00022816368
000380 b3 c6 90 b9 a1 c8 9b b9 95 51 a0 b9 df 1d d8 b9
       -0.00027613863 -0.00029713384 -0.00030578361 -0.00041220986
000390 65 c3 22 ba 1b 0d 8b ba 00 00 00 00 00 00 00 80
       -0.00062089256 -0.0010608764 0.0 -0.0
0003a0 9a c3 b6 39 09 72 8a 39 16 e6 32 39 e8 6a 1f 39
       0.0003485948 0.00026406374 0.00017061117 0.00015203247
0003b0 bc 7b 1e 39 17 06 8a 38 fb 16 36 38 b3 8e f0 37
       0.00015114149 6.581487e-05 4.3413584e-05 2.8676679e-05
0003c0 37 06 7b 37 b7 d1 f4 b6 53 a9 6d b8 e9 8c 74 b8
       1.4962213e-05 -7.2961807e-06 -5.66629e-05 -5.8305366e-05
0003d0 ac d6 a2 b8 35 a7 aa b8 e6 ec 07 b9 ab b4 11 b9
       -7.764748e-05 -8.1373764e-05 -0.00012962855 -0.00013895582
0003e0 1b 5a 21 b9 09 02 90 b9 68 83 0f ba 00 00 00 00
       -0.00015387723 -0.00027467337 -0.0005474598 0.0
0003f0 00 00 00 80 fc c2 06 3a 96 16 90 39 f3 98 22 39
       -0.0 0.0005140749 0.00027482648 0.00015506502

u f4 [1, 1, 20, 20]
000000 88 5d 38 bb 08 98 df bb 76 21 c9 3b 70 07 30 3d
       -0.002813192 -0.0068235435 0.006138022 0.042975843
000010 d3 e2 94 3d 83 76 ea 3d ac 3d 5d bd 5c 3a c0 bd
       0.07269826 0.114483856 -0.054013893 -0.09386131
000020 0a 07 22 be ea bb f4 bc 84 75 8f 3d dd 98 ff 3d
       -0.15822998 -0.02987476 0.07004836 0.12480328
000030 cf aa e8 3d ba b1 af bc e7 9c 90 bd b6 3a d7 bd
       0.11360704 -0.021447051 -0.07061177 -0.10509245
000040 a4 cc 8d bd 21 1e 1a bd 78 ca 57 bb e7 4b 45 3b
       -0.06923798 -0.03762639 -0.0032927077 0.0030105056
000050 8a 6d d9 bc 09 62 bd bc 8b a2 30 3c df a1 f3 3d
       -0.02654149 -0.023118036 0.010780941 0.11896109
000060 47 dd 56 3e f9 26 be 3d 45 69 a4 3d 72 3a 74 be
       0.20982848 0.09284777 0.08027891 -0.2385042
000070 67 3c 67 be c6 4f d8 bc 54 4c 1f 3e 30 28 3c 3c
       -0.22581635 -0.026405226 0.1555646 0.011484191
000080 6e 0b 82 3d 0f 0a f4 bd f5 64 3f be cb bc 77 bd
       0.06349836 -0.11915981 -0.18690856 -0.06048278
000090 98 bb ee 3c 2a 68 2e 3c ec 20 09 3c f0 0f a0 ba
       0.029142186 0.010644952 0.008369666 -0.0012211781
0000a0 6d 0a 20 bd 4b ea 3e bd 0f ad dd bd 1f f9 24 3d
       -0.039072443 -0.046610158 -0.10824024 0.040276643
0000b0 78 7b f2 3d 30 2b e2 3d 48 05 dd 3d 84 0e 5b be
       0.11839956 0.110433936 0.10792023 -0.21392256
0000c0 13 44 1e be 8d 3d 1a be f4 0c 56 3e 6e 07 98 3d
       -0.15455656 -0.15062542 0.20903379 0.07423292
0000d0 44 c5 83 3e 81 50 e0 3d 6b 8a aa 3c 40 4d 2e be
       0.2573644 0.10952855 0.020817956 -0.17021656
0000e0 da 7f 16 bc 98 29 a4 3c d6 19 1e 3d 6a 4e c2 3b
       -0.009185756 0.020039365 0.038598858 0.005929758
0000f0 0c fa 81 bb 43 c7 a0 3b 1d 2b 21 bd 18 37 14 bd
       -0.0039665755 0.0049065663 -0.039347757 -0.036185354
000100 d2 a8 cc bc 7f e1 09 bd 61 45 54 bd 79 f2 9c be
       -0.024982844 -0.033662315 -0.051823977 -0.30653742
000110 b5 34 84 be a2 b4 d6 3c f0 4e 9a 3e 40 b4 9e 3e
       -0.25821462 0.02620918 0.3013835 0.30996895
000120 d4 c3 9e 3e 76 17 06 3e 01 58 49 bd c6 80 fe bd
       0.3100878 0.13094887 -0.049156193 -0.12426905
000130 47 ad 98 bd 66 c0 27 bd 18 3f 86 3c 18 c7 bb 39
       -0.07454925 -0.04095497 0.016387507 0.00035815756
000140 a5 52 9d 3c 64 cf 18 3d 3a c1 38 be 2b 5e a2 bd
       0.019204447 0.037307158 -0.1804246 -0.07928117
000150 de db ab bd ce 46 1f 3d 49 ea fa 3d f2 e3 8f 3d
       -0.08391546 0.038885884 0.122517176 0.07025899
000160 b9 10 8e bd ab 1d 8d bc 5d f5 76 bd 38 58 1a be
       -0.06936783 -0.01722606 -0.06029259 -0.15072715
000170 55 5f 16 be e5 ab da 3d 49 80 ec 3b b6 db 59 3d
       -0.14684804 0.106773175 0.007217441 0.05318805
000180 d6 8c b7 3d 95 e1 0d bd 0b 52 85 bc 35 69 d2 bc
       0.08962409 -0.03463896 -0.016274473 -0.025684932
000190 59 a1 a5 3c 7e 7d 48 bc c6 e9 ca 3c 17 0d 9e 3d
       0.020218538 -0.012236951 0.024769675 0.077173404
0001a0 b8 1e aa 3c ee 35 d1 3d 37 71 11 3e e5 f9 0e 3e
       0.020766601 0.102153644 0.14203344 0.13962515
0001b0 50 3d b5 bd db c9 e5 3c 44 89 a3 bc 96 00 cd bd
       -0.08849585 0.028050354 -0.019962914 -0.100098774
0001c0 f6 0b 53 be 6a 3c 12 bc 2a 13 b9 bd 61 43 80 bd
       -0.20610031 -0.008925537 -0.090368584 -0.062628515
0001d0 74 57 92 bd 9d 2c 91 bb 99 cd 0b 3e 30 95 42 3c
       -0.071455866 -0.004430367 0.13652648 0.011876389
0001e0 de 70 43 3d 98 f0 56 bd af 73 ce bd 41 cf ac 3c
       0.04771506 -0.05247554 -0.10080659 0.02109492
0001f0 72 17 25 bd aa 47 d3 3d 7d 11 14 3e 8e 7d 75 3e
       -0.040305562 0.10316403 0.14459796 0.23973677
000200 7f bb 69 3d 07 ee d6 3d 38 f5 9d bc da cb fc bd
       0.057063576 0.10494619 -0.019281968 -0.12343569
000210 23 a4 4e be f4 a9 88 3b 6e e1 ed bb 04 5f e5 3d
       -0.201798 0.0041706506 -0.0072595393 0.111997634
000220 8f b0 05 bd 56 df df bd 2b 5c 01 3e 60 7c ba 3d
       -0.032639083 -0.1093127 0.12632816 0.09105754
000230 9d 30 bc 3c 2d df 28 3d 61 c0 5a be 0e 75 ac bc
       0.0229724 0.041228462 -0.21362449 -0.02105191
000240 f6 e4 f1 bc 64 6b e0 bd 68 1c 16 bd c2 4f 93 3d
       -0.029528122 -0.10957983 -0.036648184 0.07192947
000250 f2 da 20 bd e1 70 59 3d 10 6f a3 3d f3 d3 4a bc
       -0.039271303 0.053086165 0.07980168 -0.012379634
000260 f0 d8 11 be 2b 05 93 3d 8a 4b c4 3d 66 c6 af 3d
       -0.14242911 0.0717872 0.095847204 0.085827634
000270 47 d1 35 bd 4c 88 62 bd d6 da ae 3d e9 62 00 3e
       -0.044389036 -0.055305764 0.085378334 0.12537731
000280 a0 3a 76 3d b4 44 75 3b 1b 42 24 be 57 bd 33 be
       0.060114503 0.0037424983 -0.16040842 -0.17552696
000290 6a 14 22 bd 66 fb 24 be 77 39 9d bd aa e9 85 3d
       -0.03957025 -0.16111526 -0.07676976 0.065387085
0002a0 8a 3d 34 3c a7 65 02 be 75 ea 2f bd bf 9d 19 be
       0.011001 -0.1273409 -0.042948205 -0.15001582
0002b0 aa cd e0 bd b9 b2 6e 3d 9d e1 13 3e e5 90 ea 3d
       -0.10976727 0.058275912 0.14441533 0.11453418
0002c0 c6 f4 46 bd 41 8b 41 3c 71 74 9c 3d d4 6a d8 3d
       -0.048573278 0.011812986 0.07639397 0.10567251
0002d0 f2 90 32 3d 5e 9f 3c 3d ef aa 0d bd 12 20 c8 3c
       0.043595262 0.046050422 -0.034586843 0.024429355
0002e0 b0 fa 1a 3d 97 d7 35 bd a4 5c ab bd 23 f5 58 3e
       0.03783673 -0.044395056 -0.08367279 0.21187262
0002f0 95 68 86 3d 25 25 9b bd 11 f2 90 bd 09 55 52 be
       0.06562916 -0.07575444 -0.070774205 -0.20540251
000300 13 44 20 be 98 0f 31 3d 55 c7 c9 3d 2b 7a 8d 3d
       -0.15650968 0.043227762 0.09852473 0.06908067
000310 1d e1 3b bd 3c fc 54 bc fe f9 14 3e 64 c4 a1 3d
       -0.04586898 -0.0129995905 0.1454849 0.07898787
000320 12 1c 13 3d c4 08 0c 3e 53 f4 21 be 88 9e 9d 3d
       0.03591544 0.13675219 -0.15815859 0.07696253
000330 24 0f ec 3b 84 bc 6b bd e8 0d ec bc 32 6e f5 3e
       0.0072039533 -0.05755283 -0.028815225 0.47935635
000340 89 ae 40 3e 8a f1 06 3e 37 42 44 be 79 ec be bd
       0.1881658 0.13178077 -0.19165884 -0.09322447
000350 43 bb 3c be 2f 80 b1 3d 30 08 13 3d 16 2c 08 3d
       -0.1843081 0.08667027 0.03589648 0.03324517
000360 74 09 1a bd 40 59 22 ba 94 32 41 bd df 82 2f 3c
       -0.03760667 -0.0006193109 -0.047167376 0.010712354
000370 72 46 ab bb 40 69 b5 3d bb 56 16 3d 4a e6 73 3d
       -0.0052269036 0.088579655 0.036703806 0.059545793
000380 d8 e6 c8 3b a5 88 1b be be f1 0b be f5 ef 95 3e
       0.0061310343 -0.15188845 -0.13666436 0.29284635
000390 46 bf 3c 3e 0c e6 21 3e 2b 49 b5 bd 26 d3 67 bd
       0.1843234 0.15810412 -0.08851846 -0.05659785
0003a0 b5 aa a3 bd 2a ed 62 3e f0 76 77 3d cb 59 f3 bc
       -0.07991544 0.22160783 0.060416162 -0.029705903
0003b0 5c f9 2f be b2 3f 0f 3c 5d c3 5c be e0 15 26 bd
       -0.17184967 0.0087432135 -0.215589 -0.040548205
0003c0 5a c6 50 bc 74 0e d2 3d d0 15 8a 3d 8c eb 92 3d
       -0.012742603 0.10256663 0.06742442 0.07173833
0003d0 07 97 88 bd 33 d3 54 be 69 f8 6d be 58 c3 bc 3d
       -0.06669431 -0.20783691 -0.23239292 0.09216946
0003e0 1c 17 cd 3d f4 0b d5 3c fe 27 64 bd 88 56 ae bd
       0.100141734 0.026006676 -0.055702202 -0.08512598
0003f0 ea 49 0a 3c 33 b5 57 3e 57 68 0c 3e aa 24 45 bb
       0.008440474 0.21065216 0.13711677 -0.0030081668

exp_avg f4 [8, 1, 11, 11]
000000 dd 13 03 3d f0 4f 16 3d 4c 41 00 3d 6c 61 ca 3c
       0.032001365 0.036697328 0.031312272 0.024704657
000010 1f 36 fb bb 16 a1 a9 bc d4 61 d4 bc 0d b3 78 bc
       -0.007666364 -0.020706695 -0.025925554 -0.015179408
000020 3c 00 7f bc 42 bd 9a bc e2 18 c1 bc 02 03 8e 3c
       -0.015564021 -0.018889073 -0.023571435 0.017335419
000030 25 c0 d6 3c c7 61 8e 3c ff 5c 71 3c 86 21 41 bc
       0.026214669 0.017380608 0.014731645 -0.011787778
000040 b0 50 a7 bc eb c7 04 bd ac 00 d7 bc 44 e6 f9 bc
       -0.020424217 -0.03241722 -0.026245438 -0.030505307
000050 18 c7 f0 bc 1b fb 02 bd 07 00 b9 3c 9e b0 03 3d
       -0.02939181 -0.031977754 0.02258302 0.032150857
000060 88 6c 93 3c 2f 0f 5d 3c c6 61 3b bc 9c e7 8d bc
       0.017996088 0.01349239 -0.011436885 -0.017322354
000070 38 10 00 bd f9 ab d4 bc 3a 26 f0 bc d1 76 cf bc
       -0.031265467 -0.02596091 -0.029315103 -0.02532521
000080 29 ba d5 bc 48 cb d9 3c 28 67 fc 3c 3c 63 2f 3c
       -0.026089745 0.02658619 0.030810907 0.010704812
000090 90 6c 1f 3c ce 9f f8 ba 39 93 5e bc 69 3c 9c bc
       0.009730473 -0.0018968524 -0.013584905 -0.019071775
0000a0 a2 d1 da bc 19 f8 0b bd 99 c6 00 bd a8 63 d1 bc
       -0.026711289 -0.03417215 -0.031439397 -0.025560215
0000b0 9d 91 1b 3d 4b d2 27 3d 4f 06 8c 3c d2 3f b8 3c
       0.037980665 0.040972035 0.017092852 0.02249137
0000c0 91 57 30 3c 19 4b c3 bb 98 df a2 bc a9 ce d8 bc
       0.010763065 -0.00595988 -0.019882008 -0.02646573
0000d0 0d 63 1b bd bf 32 e4 bc 78 40 cc bc e6 2b 47 3d
       -0.03793626 -0.027856229 -0.024933085 0.04862585
0000e0 51 4c 3f 3d 73 dd 67 3c fb 7c bb 3c a0 85 7d 3c
       0.04670364 0.014151919 0.022886744 0.015473753
0000f0 66 e2 f4 bb 74 86 50 bc 1f 4f ac bc 93 f7 29 bd
       -0.007473278 -0.012727369 -0.021033822 -0.04149587
000100 11 ac e3 bc 4f 3b 17 bd 0d 8e 43 3d 40 a0 31 3d
       -0.027792009 -0.036921795 0.047742892 0.043365717
000110 82 93 8f 3c 53 ea bd 3c f2 60 40 3c ba 75 50 bc
       0.017526392 0.023183024 0.011741864 -0.012723381
000120 e2 97 86 bc 2a ab e1 bc 94 9c 2b bd 79 ec d4 bc
       -0.016429845 -0.027547438 -0.04189737 -0.025991665
000130 77 38 20 bd d3 84 59 3d f6 48 62 3d 33 57 a2 3c
       -0.03911635 0.053105187 0.055245362 0.01981697
000140 96 37 83 3c f5 53 b3 bb cf 17 cb bc 74 6c 94 bc
       0.016017716 -0.005472655 -0.024791626 -0.01811812
000150 d0 f6 a4 bc 80 73 06 bd fd 51 a2 bc 5c df 34 bd
       -0.02013722 -0.032824993 -0.019814486 -0.044158325
000160 90 f2 6a 3d 45 3d 6b 3d dd 08 0d 3d 28 dd ca 3c
       0.057360232 0.057431478 0.03443228 0.024763659
000170 0f 4b 9b bb 67 4f 96 bc 6d da 60 bc 4e 84 af bc
       -0.0047391723 -0.018348409 -0.013723952 -0.021425392
000180 e6 d3 e6 bc b4 d3 ab bc 09 86 3d bd e9 a5 90 3d
       -0.028177213 -0.020974971 -0.046270404 0.07062895
000190 8e 4b 80 3d d4 c0 42 3d 46 ac d0 3c 3d eb cd ba
       0.06264411 0.047547176 0.025472771 -0.0015710365
0001a0 5b 49 1b bc ce b6 96 bb 6b f1 23 bc 5f 32 65 bc
       -0.0094779385 -0.0045994287 -0.010006289 -0.01398906
0001b0 04 75 e1 bb 62 c7 1c bd 40 63 8e 3d 8e 25 68 3d
       -0.0068804044 -0.038276084 0.06952524 0.05667644
0001c0 e9 4f 43 3d f9 4b f9 3c ce 3f 8b 3b 9e 3f 88 3b
       0.04768363 0.030431734 0.0042495495 0.0041579744
0001d0 e2 8b fe 3a fd 4e 81 bb ca 78 d9 bb 20 17 73 3a
       0.001942035 -0.0039461837 -0.0066367136 0.000927316
0001e0 65 35 df bc bf e2 1f bd 42 66 c6 bc 88 e9 97 3c
       -0.02724714 -0.0390346 -0.024218682 0.018543974
0001f0 78 18 5d 3c e4 03 82 3c fb 34 bb 3b 39 8a 41 3b
       0.013494603 0.015870996 0.005713103 0.002953185
000200 30 8a 86 3a 1f 61 87 3c 0a 2a c6 3c 11 e0 ea 3c
       0.0010264572 0.016525803 0.024189968 0.028671296
000210 6d d7 3c bd 85 db f9 bc 5a f3 62 3b 82 5b 81 3b
       -0.046103884 -0.030500183 0.0034629912 0.003947676
000220 2f 2e a5 3c 38 33 ba 3c fe 82 53 3c 6e 88 9d bb
       0.020163624 0.022729501 0.012909649 -0.0048075235
000230 ec 21 75 3c 2b 27 83 3c b4 bd 0d 3d d1 b1 08 bd
       0.014961701 0.016009888 0.034604743 -0.033372704
000240 ee dd 02 bd 7c e6 71 bc f2 5e 29 bc db 86 ae 3c
       -0.03194993 -0.014764424 -0.010337578 0.021304538
000250 1e d6 1a 3d fa 9c e6 3c c7 2c c5 39 17 ff b8 3c
       0.037801854 0.028151024 0.0003760813 0.022582574
000260 e2 56 bb 3c 13 24 49 3d 43 c4 dd bc f3 6d f1 bc
       0.022868577 0.04910667 -0.027071124 -0.029471373
000270 f3 3a a4 bc 7f d0 36 ba f7 db d2 3c 88 a5 4b 3d
       -0.02004764 -0.00069738174 0.025739653 0.04971841
000280 fb 2f df 3c 72 9a a5 bb 92 d4 06 3c 1f d8 9e 3c
       0.027244559 -0.0050538117 0.008229392 0.019390164
000290 7e 15 2f 3d a9 ac 07 bc 80 73 68 bc 4e 24 41 bc
       0.042745106 -0.0082809115 -0.014187694 -0.011788441
0002a0 eb ca db 3a 54 e1 08 3d 33 fe 2f 3d f9 74 11 3d
       0.0016768848 0.033418015 0.042967033 0.035511944
0002b0 83 90 d2 ba 41 fe 00 3c fa 02 0f 3c 3f 5c e9 3c
       -0.0016064796 0.007873119 0.008728737 0.02848637
0002c0 d6 1d 43 bd 83 d5 2e bd c3 e8 1e bd b5 1e 74 bc
       -0.047635876 -0.04268409 -0.038796198 -0.014899899
0002d0 f7 92 90 3c 66 a7 ec 3c 05 40 fc 3c f4 9f 4b bc
       0.017648203 0.028888416 0.030792246 -0.0124282725
0002e0 27 0f 55 bc e4 8f 82 bc 84 eb 80 bb 5e 0d aa bc
       -0.013004101 -0.015937753 -0.0039343257 -0.020758327
0002f0 62 78 66 bc 95 d4 ba bc c5 cc 63 bc 55 60 a4 3b
       -0.014066787 -0.022806445 -0.013903801 0.0050163665
000300 88 78 8e 3c 92 bc 05 3d 2c fb 30 3c 51 7e 84 3b
       0.017391458 0.032650538 0.010802072 0.0040433784
000310 73 08 e6 3b 82 81 05 3c 45 b6 73 3b b9 e5 76 3b
       0.00702005 0.008148553 0.0037187499 0.0037673546
000320 82 6e e0 bb eb ce 48 bc 12 e5 df 3b e7 0c 80 3c
       -0.006849111 -0.012256364 0.006832727 0.015631152
000330 9f ff 04 3d ce 2a 1a 3c cc 48 21 3b bc 72 c9 3a
       0.03247034 0.0094096195 0.002461004 0.0015369277
000340 c0 25 c0 3b 44 a6 7e 3c 46 c9 8f 3c 58 7e 46 3b
       0.005863875 0.0155425705 0.01755203 0.003028771
000350 32 79 7f bc 28 c0 cc bb 87 7c 20 3c 15 9a 87 3c
       -0.01559286 -0.0062484927 0.009795315 0.016552964
000360 ac 19 4f bb 6d 49 97 bb a4 d3 f7 ba ab c1 fc ba
       -0.0031600995 -0.0046169073 -0.0018907678 -0.0019283792
000370 63 6a 24 bc 71 dc 9d bb 7b 54 77 bc 47 24 b1 bc
       -0.01003513 -0.0048175384 -0.015095825 -0.021623744
000380 19 6c 84 bc 7e 8e 19 3c 50 91 8f 3b f8 4d 70 bc
       -0.016164826 0.009372352 0.0043813363 -0.014667027
000390 21 a8 a8 bc 4a 6d 4b bc bc f4 d4 bc 96 1d 12 bd
       -0.020587983 -0.012416193 -0.025995605 -0.035672747
0003a0 cb a5 0a bd b6 a3 d6 bc fd f9 0b bd cd 85 db bc
       -0.03384952 -0.02620111 -0.034173954 -0.0267972
0003b0 9b 97 50 bc dd 57 2b bc d5 5e e1 bc ce 7b 87 bc
       -0.012731458 -0.01045796 -0.02751104 -0.016538527
0003c0 51 4e 85 bc 3d dc 2a bd 02 a2 8c bd 8c 60 8b bd
       -0.016272696 -0.04171394 -0.06866838 -0.06805524
0003d0 21 d7 ad bd f5 6b 60 bd 2a 7c f0 bc bb 53 d9 3b
       -0.08488298 -0.054790456 -0.029356081 0.006632296
0003e0 04 87 e1 ba 53 76 8b 3b 01 87 84 bb 19 69 e5 ba
       -0.0017206375 0.0042560487 -0.004044414 -0.0017502635
0003f0 27 aa 8b 3b 03 4e 7e bd 1b 43 80 bd 45 ff 8d bd
       0.004262227 -0.062086117 -0.06262799 -0.069334544

exp_avg_sq f4 [8, 1, 11, 11]
000000 e1 29 b7 3c d0 33 90 3c 23 d8 70 3c 42 8c 5e 3c
       0.022358837 0.017602831 0.0146999685 0.013583245
000010 e6 fe 28 3c a8 8a 1b 3c 3e 2e 12 3c f4 f4 13 3c
       0.010314679 0.009493507 0.008922158 0.009030569
000020 4b 74 20 3c 14 46 43 3c a2 5b 7a 3c 5c ba a3 3c
       0.009793351 0.011918563 0.015280636 0.019986324
000030 55 37 7e 3c 0f 9c 53 3c d8 7f 2d 3c 00 83 08 3c
       0.015516122 0.012915625 0.010589562 0.008332014
000040 a5 d3 f7 3b 8e 2b f4 3b 9e 06 f5 3b f0 3a 03 3c
       0.007563072 0.007451481 0.0074775955 0.008009657
000050 a4 3c 27 3c 74 08 5d 3c 4c c7 95 3c 54 22 65 3c
       0.010207329 0.013490785 0.018283509 0.013985235
000060 dd 57 33 3c 08 36 01 3c 55 db db 3b ae 89 d2 3b
       0.010946241 0.007886417 0.006709496 0.006425104
000070 9f be cc 3b 04 31 d3 3b ef 95 f0 3b 06 db 0f 3c
       0.0062483097 0.006445052 0.007342092 0.008780247
000080 40 24 53 3c a9 4d 8b 3c 02 24 53 3c 45 fb 19 3c
       0.012887061 0.017004805 0.012887003 0.009398286
000090 a1 37 e1 3b af 34 d4 3b 9f c0 e9 3b cf 64 be 3b
       0.0068730866 0.006476007 0.007133558 0.005810357
0000a0 d7 e0 dd 3b 41 99 fc 3b 21 f1 0e 3c c5 da 4f 3c
       0.0067711878 0.007708699 0.008724482 0.012686436
0000b0 f1 75 85 3c e2 2e 4e 3c 52 4f 10 3c 36 4d e0 3b
       0.01629159 0.01258442 0.008807974 0.0068451418
0000c0 46 96 ef 3b 38 ae 12 3c b0 dc d1 3b ac fe 03 3c
       0.007311615 0.00895267 0.006404482 0.008056324
0000d0 29 57 08 3c b2 0e 34 3c bc 97 50 3c 1e b7 8a 3c
       0.008321562 0.010989832 0.012731489 0.01693302
0000e0 a1 cf 56 3c 7e 44 2d 3c b2 6b 07 3c f3 6e 38 3c
       0.013111026 0.010575412 0.008265423 0.011256921
0000f0 e4 8f 41 3c 6f c5 ec 3b c8 e5 38 3c d4 4f 14 3c
       0.011814091 0.0072256844 0.011285253 0.009052236
000100 6e 73 59 3c 12 66 5d 3c 20 06 80 3c 8b 09 48 3c
       0.0132721495 0.013513105 0.01562792 0.0122093065
000110 80 85 0d 3c 72 9a df 3b 7a e2 c3 3b ff 51 0d 3c
       0.008637786 0.0068238312 0.005977926 0.008625506
000120 9e 00 fd 3b 9a 46 e6 3b e5 15 17 3c cd 08 38 3c
       0.007721021 0.0070274593 0.009221529 0.011232567
000130 1c 59 63 3c 3e 0b 81 3c ae cd 3e 3c 1c 7b 0f 3c
       0.013876226 0.015752431 0.011645718 0.008757379
000140 e0 1c f6 3b 4d 94 a3 3b 7b 92 02 3c 3d 17 d0 3b
       0.0075107664 0.004992044 0.007969494 0.0063504265
000150 64 c6 e8 3b f8 ad 0c 3c f8 cb 2e 3c 9b 6f 5d 3c
       0.007103728 0.008586399 0.010668747 0.013515378
000160 04 24 8b 3c cf 24 4f 3c cc 7f 1b 3c 8d c5 0e 3c
       0.016984947 0.012643053 0.009490918 0.008714092
000170 eb 66 bb 3b 64 fd ea 3b ea 48 ed 3b 8f 71 fc 3b
       0.005719056 0.00717132 0.007241358 0.007703967
000180 3a d3 13 3c 12 26 35 3c 50 e0 6a 3c 4b 95 9d 3c
       0.009022528 0.01105644 0.014335707 0.019236227
000190 29 be 6f 3c 08 ed 2f 3c ca 13 1b 3c f9 7a ea 3b
       0.01463274 0.010737665 0.009465167 0.0071557728
0001a0 a2 13 f3 3b d7 fe 19 3c 5d 50 16 3c 50 18 31 3c
       0.007418112 0.009399137 0.009174434 0.010809019
0001b0 48 6a 4c 3c 3c 63 82 3c 4f 78 b4 3c fb 21 8f 3c
       0.012476511 0.01591646 0.022030024 0.017472258
0001c0 03 8a 53 3c f2 3b 2e 3c f0 5b 11 3c ad b9 2e 3c
       0.0129113225 0.010634409 0.008872017 0.010664386
0001d0 e0 9e 3d 3c 93 d7 39 3c b5 50 54 3c d4 47 6a 3c
       0.011573523 0.011342901 0.012958695 0.014299352
0001e0 62 8f 91 3c e4 3d 86 3c d3 8e 6b 3c 12 1f 58 3c
       0.017768566 0.016386934 0.014377314 0.0131910015
0001f0 8f c0 4a 3c 31 65 73 3c d9 19 4b 3c 05 ec 45 3c
       0.012375011 0.014855669 0.012396299 0.012080197
000200 02 85 66 3c ab 9b 84 3c 68 88 81 3c ee 6e a7 3c
       0.0140697975 0.01618751 0.015812114 0.020438638
000210 e1 0a 8b 3c 1c e8 66 3c d6 85 65 3c 94 f5 4e 3c
       0.01697296 0.014093425 0.01400896 0.012631793
000220 39 0a 6d 3c a1 9f 4e 3c 9f 82 71 3c 55 9c 88 3c
       0.014467769 0.012611301 0.014740615 0.016676107
000230 1b b7 9b 3c 2a 45 78 3c 90 52 a6 3c 76 26 89 3c
       0.01900821 0.015153209 0.02030304 0.016741972
000240 1a 95 61 3c 0f 9e 55 3c b2 f7 52 3c 05 41 3a 3c
       0.013768459 0.013038172 0.012876438 0.011368041
000250 79 b1 59 3c d5 03 45 3c c5 31 73 3c 5d 00 7e 3c
       0.013286942 0.012024839 0.014843409 0.015503016
000260 10 b4 68 3c 00 1d 9a 3c b4 b8 78 3c 64 e9 3c 3c
       0.0142030865 0.018812656 0.015180755 0.011530254
000270 ef 20 41 3c 7e e9 24 3c d5 29 3c 3c d8 03 87 3c
       0.011787637 0.0100654345 0.011484583 0.016481325
000280 e9 0f 36 3c 27 2b 45 3c 48 ce 4c 3c 19 80 4b 3c
       0.011112192 0.012034214 0.012500353 0.012420678
000290 04 ce 8e 3c a4 70 81 3c d5 a0 59 3c ec bb 3b 3c
       0.01743222 0.015800782 0.013282974 0.011458378
0002a0 c9 5c 2b 3c 78 18 37 3c 62 25 36 3c f2 71 0f 3c
       0.010459133 0.011175267 0.011117311 0.008755194
0002b0 08 0c 4d 3c 7f 87 4a 3c 72 47 63 3c 91 39 8f 3c
       0.0125150755 0.012361406 0.013872014 0.017483504
0002c0 1e ff 77 3c 70 53 53 3c 7a 0f 3d 3c 11 55 71 3c
       0.015136508 0.012898311 0.011539334 0.014729754
0002d0 18 84 5c 3c 8c e7 20 3c ad 7d 09 3c f9 70 75 3c
       0.013459228 0.00982083 0.00839178 0.014980548
0002e0 bc ed 69 3c c9 97 60 3c 84 a9 80 3c 5c 12 91 3c
       0.014277872 0.013708063 0.015705831 0.01770895
0002f0 e9 f7 73 3c c3 c9 58 3c 0d a2 89 3c 2c a1 4b 3c
       0.014890649 0.0132316975 0.016800905 0.012428563
000300 23 8d f7 3b a7 d8 ff 3b ff ad 89 3c 87 bb 5b 3c
       0.0075546666 0.0078078094 0.0168066 0.013411409
000310 72 d2 4b 3c 29 c4 80 3c 4d 02 88 3c 45 8f 57 3c
       0.012440311 0.015718536 0.01660266 0.013156717
000320 0e f7 3c 3c fc 4e 81 3c 9e 79 48 3c 69 7c 4b 3c
       0.011533512 0.015784733 0.012236027 0.012419798
000330 86 66 84 3c 13 2a 96 3c e5 dc 3c 3c ab 14 31 3c
       0.016162168 0.01833061 0.011527275 0.01080815
000340 44 09 69 3c 59 97 89 3c ae 21 5a 3c 96 a8 25 3c
       0.0142234005 0.016795801 0.013313694 0.010110995
000350 c8 9d 2a 3c 33 ab 2b 3c 09 42 4e 3c 86 36 91 3c
       0.010413595 0.010477829 0.012588986 0.017726194
000360 89 13 49 3c 90 6e 15 3c 8d 94 28 3c 71 98 6d 3c
       0.012272724 0.009120598 0.0102893235 0.014501677
000370 68 a0 a2 3c cc f4 8e 3c f1 2e 5e 3c a1 76 46 3c
       0.019851878 0.017450713 0.013560996 0.012113244
000380 17 c1 3a 3c b1 42 50 3c 5e 2e 8c 3c 53 5e 4e 3c
       0.011398575 0.012711213 0.017111953 0.012595731
000390 84 d0 5f 3c 35 ff 7c 3c dd 70 99 3c 43 c8 d3 3c
       0.013660554 0.0154417055 0.018730575 0.025852328
0003a0 df f6 b2 3c 86 99 9a 3c 0c a8 90 3c 86 1f 87 3c
       0.021846233 0.018872034 0.017658256 0.016494524
0003b0 e4 10 90 3c 22 2f a3 3c 71 e4 98 3c f6 1e 9f 3c
       0.01758618 0.019919936 0.018663617 0.019423943
0003c0 1f 89 af 3c 82 84 cb 3c 99 11 8b 3c 52 59 60 3c
       0.02142769 0.024843458 0.016976165 0.013693171
0003d0 ae a2 3a 3c 22 26 20 3c 90 bd 00 3c 2e b7 11 3c
       0.011391325 0.009774717 0.007857695 0.008893771
0003e0 46 6d 01 3c 88 79 fe 3b f2 c0 0d 3c ed da 19 3c
       0.007899588 0.0077659525 0.008651959 0.009390575
0003f0 c4 4a 43 3c 8c 44 74 3c 40 04 44 3c b0 dc 13 3c
       0.011919681 0.014908921 0.011963904 0.009024784
