trained_models/Sigma_5_t_30/checkpoints/checkpoint_5.pth (torch, 173091 bytes, 10 tensors)

conv_layer.conv_layers.0.parametrizations.weight.original f4 [8, 1, 7, 7]
00000000: 28a8 2b3d e0ce 8c3d b8ec 83bd 3ff2 243e
00000010: 880c 84bd b822 6c3d c1dc 64bc 4925 813c
00000020: d63e 083e cd72 14be ec7c 393e 6d87 203d
00000030: 8950 c23d 7412 aa3c 89fe 66bc f695 c9bd
00000040: 2708 4e3e 7ff0 7e3e a05a 5abd bd65 e03c
00000050: 5770 04bd 3e03 4e3d 1a1f 28bd 381f 9b3e
00000060: 8170 0fbf 3df8 163d 31f6 ddbd 7495 c3bc
00000070: 09f3 a03c b0e1 95bd 4717 573e faff 8dbe
00000080: ffd8 823e 79ff e63d e9f7 8dbb 2554 763d
00000090: 1da6 743d a609 34bc 6ef0 2f3e 4da3 c2bd
000000a0: c593 cdbc 4d0b 823d e030 093c 71ff 143d
000000b0: c62c 503d 2fb4 23bd 197a 8f3d 4624 8c3c
000000c0: 0828 343d dff6 0cbd 939c d5bd 1798 1a3c
000000d0: 62f3 2bbe a20a 043e 958d 2d3d b4e4 fa3b
000000e0: 3124 943c dcee a6bc e4a7 383e 7ce4 2cbe
000000f0: 657a 57bc ba3d b4bd 194a a6bc 933d acbd
00000100: 1ff6 8a3c d50e a6bd 52cf ae3e b6f0 03bd
00000110: c73d 10bd 4249 82bd 7d28 133e 8bf1 963d
00000120: 0c46 813e 10b6 1cbf 9d93 3cbe c8ea c3bd
00000130: a584 24bd 0320 80bc 8fd2 07ba 70e2 493e
00000140: ccfc 18bc be5a 543b d731 6e3d 6639 13bb
00000150: b630 d83b c89d 54bd 4ccb 8a3d 244c bdbc
00000160: 7f4e 78bd 3b7b d7bc 7f28 673c 4ae3 81bd
00000170: 4191 81bc 5113 c13d c0c6 f2bd dcfb 3cb9
00000180: a673 053d 82e7 c2bb 9e5c 1bbd 78b3 cfbc
00000190: 2993 83bd eba7 8d3d 2770 f5bc 9d6b 08be
000001a0: f1c0 70bc 3299 8bbd edae f1bd a82e 25bd
000001b0: 8417 60be 5ea4 d7bd cc12 043e d651 b43c
000001c0: 0515 f03c 9386 78bd df0c b6bd b1ae 2dbd
000001d0: 6134 a93d de25 26be e8db 80bd 7a26 28bd
000001e0: e257 a33d f2be a7bd f2cd 2bbd 4a79 8abd
000001f0: f1d6 1fbe 2822 7ebd 4ecc b6bd 1312 2fbe
00000200: 84f6 593e 75ca 3d3d 2f54 703e 2ff8 6a3d
00000210: 79a8 f3bd f20a 2f3c 48b8 12bd 0285 53bd
00000220: 6817 2bbe f1ff 17be e584 453d f1a3 e8bc
00000230: f810 efbc af7c 9ebd 2098 9f3d 7d9a dcbd
00000240: f517 2bbc 0314 1ebd 7731 d4bc b415 e13c
00000250: 9af1 fc3d b797 0bbe 1fc5 113d a6e9 43bd
00000260: e676 283d 2f01 bebc 3da9 f73c daef a4bd
00000270: d207 973d b668 9e3d 5aa2 0b3d 74fa a3bd
00000280: de34 a33d bfaf d7bc 01bf bf3c 7f5a 19be
00000290: e869 c03d 15ae 8abd 5c31 51bd 8cbb 233e
000002a0: 2e4f 75bc c0ee 74bd dc8f 82bd 30a2 9dbd
000002b0: 2ffa d43d d3ce 31bc c2f3 d1bd 2f2a 183d
000002c0: 1c68 9ebd f77f ad3d cdf7 8e3e 34ef f2bd
000002d0: 4366 623d 95f1 b93d 2228 4a3c 76c9 28bd
000002e0: 840c 193d fe3b 3b3d 094c 633d 41f8 a1bc
000002f0: a0f3 87bd 3a52 933b 09cd 363c 1fdf b7bb
00000300: a231 973d b345 883d c25b eebc f5d3 88bc
00000310: 31bc 02bd 6b5a f3bc 5f47 813d c5a6 793d
00000320: da44 5fbd f683 92bd 0232 15bc 85b0 5ebc
00000330: 4e14 15bd dd9c dabd 1766 23bd fc9f 89bd
00000340: dbb1 35bd 24a2 86bb babb 663d f0b7 143d
00000350: 53ea 0bbe 0dc4 a5bd 7edd 733d 5f22 2e3e
00000360: 4760 02bc 05fd 64bd 4afd af3d 62ba 0fbe
00000370: 7d9b 3fbf cffa 893e fce3 babc f0fe 183d
00000380: d39d f2bd d374 633d b97b 433e 8414 4b3e
00000390: a1c1 62be 3539 f5bd 26e8 70bd e0bd 553d
000003a0: e1b9 00bd b0b5 9e3d 57a0 b13d b3b6 abbb
000003b0: 8862 93bb 9384 44bd 82d5 5ebd e59f dabd
000003c0: c3b0 d13d c176 80bd e289 13bd 98a6 1dbd
000003d0: b4bd 8bbc 64a3 ccbc 0823 8cbd c9dd ad3d
000003e0: 2cea 9bbd c0ed b93d 74ad 6bbd 6488 75bd
000003f0: 09ba c3bc 4968 76bd d985 71bd 1cf3 b4bd
0.041908413 0.06875396 -0.06441635 0.16108035 -0.06447703 0.057650298 -0.013968647 0.01576485
0.1330522 -0.14496918 0.1811406 0.039191652 0.09488017 0.020760752 -0.014098772 -0.09843056
0.20120297 0.2489643 -0.053309083 0.027392263 -0.032333698 0.05029606 -0.041045286 0.30297256
-0.5603104 0.036857832 -0.10837973 -0.023874976 0.019647138 -0.07318437 0.21004973 -0.27734357
0.2555618 0.11279196 -0.0043325317 0.06013884 0.05972873 -0.0109886285 0.1718156 -0.095038034
-0.025094876 0.06349812 0.008373469 0.03637642 0.05082395 -0.03996676 0.0700571 0.01710714
0.04398349 -0.034415122 -0.10430255 0.009435675 -0.16792062 0.12894681 0.04237135 0.007656658
0.018083664 -0.020377569 0.18032795 -0.16884035 -0.01315174 -0.08800836 -0.020299004 -0.08410182
0.016963063 -0.08108298 0.34142548 -0.03221198 -0.035215165 -0.06361629 0.14370914 0.073702894
0.25248754 -0.61215305 -0.18415685 -0.09566265 -0.040165562 -0.015640264 -0.0005181217 0.19715285
-0.009337615 0.003240272 0.058153 -0.0022464632 0.0065976037 -0.051908284 0.06777057 -0.023107596
-0.060621735 -0.026303878 0.014108776 -0.0634218 -0.015816333 0.094275124 -0.11854315 -0.00018022902
0.032580994 -0.005948008 -0.037930124 -0.025354132 -0.06424553 0.069167934 -0.029960705 -0.13322301
-0.014694438 -0.06816329 -0.118009426 -0.040327698 -0.2188397 -0.105293974 0.12897795 0.022011679
0.029306898 -0.060675215 -0.08889174 -0.042402927 0.082619436 -0.16225383 -0.06291944 -0.04105232
0.07975747 -0.08190717 -0.04194445 -0.06761415 -0.15609337 -0.062044293 -0.08925687 -0.17096739
0.21285444 0.046335656 0.23469613 0.057365593 -0.11897368 0.010683762 -0.035820276 -0.051640518
-0.16708148 -0.14843728 0.04822244 -0.028398486 -0.029182896 -0.07738625 0.077926874 -0.10771654
-0.0104427235 -0.038593303 -0.025902493 0.02747617 0.12350769 -0.13632093 0.03558838 -0.047830246
0.041129015 -0.023193924 0.030232066 -0.080535606 0.073745385 0.07734816 0.034090377 -0.080067545
0.07969068 -0.02632892 0.023406507 -0.14975928 0.093952 -0.06771485 -0.051072463 0.15989512
-0.014972491 -0.059798002 -0.06375095 -0.076969504 0.10399281 -0.010852533 -0.10251571 0.037149604
-0.07734701 0.08471673 0.27923432 -0.118620306 0.055273306 0.09079281 0.01233867 -0.041207753
0.03736545 0.04571151 0.055492435 -0.019771697 -0.06638265 0.004495886 0.011157283 -0.005611315
0.073825136 0.06653919 -0.029096488 -0.016702631 -0.031917755 -0.0297062 0.06312441 0.06095006
-0.05450902 -0.07154076 -0.009106161 -0.01359189 -0.036396317 -0.106744505 -0.039892282 -0.06719968
-0.04435907 -0.004108684 0.056331374 0.03630823 -0.13663606 -0.08094034 0.059537403 0.17005299
-0.007957525 -0.05590536 0.08593233 -0.14035943 -0.7484663 0.26949164 -0.02281379 0.037352502
-0.11846509 0.055531334 0.19090165 0.19832045 -0.22144176 -0.11973802 -0.058815144 0.052183032
-0.031427268 0.07749498 0.086731605 -0.0052402853 -0.00449783 -0.047977995 -0.054402836 -0.10675029
0.10238793 -0.062726505 -0.036020167 -0.038488954 -0.017058231 -0.024980254 -0.06842619 0.08489568
-0.07613024 0.0907855 -0.057538465 -0.059944525 -0.02389242 -0.060158048 -0.058965538 -0.08835432

conv_layer.conv_layers.1.parametrizations.weight.original f4 [32, 8, 7, 7]
00000000: 41ab 853a 57f9 86bc a52a 2d3d c8db adbc
00000010: fabf 57bc 12c1 3a3c 2ed9 da3b bf86 70bc
00000020: 0bab 1bbd 1081 133d f57b f33c 3251 1dbd
00000030: 78bd fd39 9d6c 52bb dcc8 0ebc 7e41 c8bc
00000040: 6373 dcbc 8d69 133e b12e 00be 831c 873c
00000050: 4e1d 523d 054d 4c3d cbbb 5abc 35e2 a1bd
00000060: 312d 873e b676 1fbe b849 75bd e38e ed3c
00000070: 4fc9 623d 0396 473c 8f70 e2bd 5e00 4f3e
00000080: 237e 203d 00d3 ccbd b714 29bd 53d1 f83c
00000090: 6a39 333d 4224 5ebd f799 b83d 9061 a63d
000000a0: 885e d7bc 4dca 3abd 4c66 2cbd e826 6a3d
000000b0: 9fdf efbb d560 46bb bde1 19bd e632 043d
000000c0: 3272 9b3a e26b 57bc 725d c13c ea3e 253d
000000d0: 8c97 11bd e01d d53a 2a47 a1bb 711f 273c
000000e0: 1eae ffbb 6a2f 163d c330 1a3d f2d0 83bd
000000f0: 3a53 8bbd fe1d a43c db32 003d 068d 98bc
00000100: 8edd b1bb cad3 6e3d d71f 983d 8b73 3cbe
00000110: d37d 233d 3d66 4dbb 7bb1 06bb 31a8 9fbb
00000120: 8017 6b3d 9ff4 883e c3cf acbe 01ed b2bd
00000130: 66c9 233d 8ad7 8b3c a83e d7bc b7a0 943c
00000140: aede a03e 1f21 5fbe d1f8 c1bd baf0 ce3b
00000150: 059b 54bc 6535 babd a863 f0bc f5eb 4f3e
00000160: 9dfe cd3c b573 a8bd 8055 30bd 6706 e33b
00000170: 2c1c f1bd 36ff 7abd facc 583b 1e4d ca3d
00000180: 903d 4ebc 5a38 d8bc 48e6 b5b9 abff 23bc
00000190: d77c e93b be8d c0bc e0c5 b03d d361 18bd
000001a0: b737 0bbc 4968 c43c f87e 45bc a43d 7cbc
000001b0: d6f0 68bd 338e 6f3d 3df3 b73c fbf0 2b3c
000001c0: 544d 983b 13a2 41bb 82bf b6bd c8c3 603d
000001d0: 5aba cd3c 643a 0eba 8b0c dfbb 5704 09bd
000001e0: bcc2 4d3d 6ff4 c7bd 2d6d 1f3d 8f21 fc3c
000001f0: 48ab 9d3d cdf1 07bd 4eb6 faba d34b 0fbc
00000200: a155 02bd 5cfc b1bc 4df4 bc3c 2aed aa3d
00000210: f4e7 b33b 88f2 6d3c 4abc b63b b146 79bc
00000220: ecb1 b9bd 05ba 803c beb4 013c e349 843d
00000230: d98d 1b3d 4cc4 183d 0af3 e1bc 3d55 fdbc
00000240: f2a6 883d ea4a 07bd a964 32bc e409 81bc
00000250: 08d4 bc3c 9c5d 093c ec08 963c 5d1c c53c
00000260: 65b9 2bbb 0e12 013b 80c3 7cbc 6c68 b73c
00000270: c8b9 0c3c 0f61 693d e6d2 373d 7c18 15bd
00000280: 428a 603c 391b a63c 1396 c93c f928 55bd
00000290: 6d0a b23d f290 d13d 519d 70bc afaf b63c
000002a0: 5fdd 81bc 0561 e13d 0c76 9a3d 6687 babd
000002b0: ed2f 523d 7f80 d63c 9bec 49bb 072d a7bb
000002c0: c05f 203d 5a9b 02bd b85d 033a ad62 c73c
000002d0: d834 c03b df39 5dbd 67ea ce3c 895d 36bb
000002e0: 6807 b5bc 598d a53d 34df 8dbd fd91 15bd
000002f0: a92d dabc f2a9 0e3c 0bf9 ad3c 2236 73bd
00000300: db58 d03d 05c1 17bd df17 01bd 572b 02bd
00000310: 8c17 1abc 069f e939 ad5f 45bc 34a0 273c
00000320: fa3a 93bc 8ff6 5fbc dec6 59bc 3a90 e3bc
00000330: a704 6c3b f54a a2bd ff48 563d 7e26 e63b
00000340: 85a0 e33c 6297 88bc 6b56 7db9 535c 53bd
00000350: 9921 673c 71a0 9e3d fd9f f8bd 0044 f4bb
00000360: cb4a a8bc c7cf 333d 6ca8 8bbd 3168 59bd
00000370: a6cf 8a3e e7ff 23be 2421 e5bd f00d eb3c
00000380: f4da 243d f6ae b73b 9917 c7bd 48a2 0e3e
00000390: 1e5f 7bbd 6a9c babd 4883 a6bb 7f9f d93c
000003a0: 59fe 753d a5bb 61bd 784f b0bd b906 9b3c
000003b0: 18ae 83bc 5eb5 1a3c 62b0 b33c 2c62 183d
000003c0: 3683 1b3d faee db3c 9175 a7bd b8f1 5fbc
000003d0: 761e 233a 001a babb 669c 81bd c45d 9f3c
000003e0: b703 1ebd 5e8d a43c bf81 253d 13d3 813c
000003f0: b6d1 5ebc ff72 9bbd 5b92 1fbd 3231 283b
0.0010198132 -0.016476316 0.042276997 -0.021222964 -0.013168329 0.011398571 0.006678722 -0.0146805635
-0.038004916 0.036011755 0.029722193 -0.038407512 0.00048397086 -0.0032108196 -0.008714881 -0.024445292
-0.02691049 0.14395733 -0.12517811 0.016493088 0.05129748 0.04987814 -0.013350437 -0.07904474
0.26401666 -0.15572628 -0.059884757 0.028998798 0.055367764 0.012181762 -0.11056625 0.20214984
0.039182793 -0.100011826 -0.04127952 0.030373251 0.043755926 -0.054233797 0.090137415 0.08124077
-0.026290193 -0.045603085 -0.042089745 0.05716601 -0.007320359 -0.0030270119 -0.037568796 0.032275103
0.0011859594 -0.01314828 0.023604129 0.040343203 -0.035544917 0.0016259514 -0.0049218135 0.010200367
-0.007802739 0.03666631 0.03764416 -0.064363375 -0.068029836 0.020033833 0.0312985 -0.018621933
-0.0054280227 0.058307447 0.07427948 -0.18403451 0.039914917 -0.0031341456 -0.0020552564 -0.004872345
0.05739546 0.2674913 -0.3375226 -0.08736611 0.03998699 0.01707055 -0.026274994 0.018143041
0.3141989 -0.21789978 -0.09471286 0.006315318 -0.012976413 -0.090922154 -0.029344395 0.20304854
0.025145823 -0.08225194 -0.04305029 0.0069282535 -0.117729515 -0.061278544 0.003308116 0.0987799
-0.01258792 -0.026394058 -0.00034694583 -0.010009686 0.007125478 -0.023505088 0.08631492 -0.037202667
-0.00849717 0.023975508 -0.0120541975 -0.015395556 -0.056870304 0.05848522 0.022454852 0.010494466
0.00464789 -0.0029546067 -0.08923246 0.05487421 0.025113273 -0.0005425571 -0.006806915 -0.033451404
0.05023454 -0.09763419 0.038922478 0.03077772 0.07698685 -0.033189584 -0.0019127817 -0.008746105
-0.031819943 -0.02172678 0.02306571 0.08346017 0.0054902975 0.014523156 0.005576645 -0.015214608
-0.09067139 0.015713701 0.007916627 0.06459405 0.037977073 0.03729658 -0.02758171 -0.030924434
0.06672467 -0.033030428 -0.010888257 -0.015751787 0.023050323 0.008384135 0.018314801 0.024061376
-0.0026203033 0.00196946 -0.01542747 0.02238866 0.008589216 0.056977328 0.044878863 -0.036400303
0.013704838 0.020276653 0.024607694 -0.052041028 0.08693395 0.10232724 -0.014685945 0.02230057
-0.015852628 0.11004833 0.07542047 -0.091078565 0.051315237 0.026184319 -0.0030811194 -0.005101803
0.039153814 -0.031886436 0.00050112186 0.024339044 0.0058656745 -0.05401027 0.025258256 -0.0027826747
-0.022098258 0.080836006 -0.06927338 -0.03651618 -0.0266331 0.00870751 0.021236917 -0.059377797
0.10173198 -0.037049312 -0.031516906 -0.031779613 -0.009405028 0.00044559705 -0.012046737 0.0102310665
-0.017972458 -0.013669624 -0.013292043 -0.027778734 0.0036013515 -0.07924453 0.05231571 0.0070236316
0.027786503 -0.016673747 -0.00024160153 -0.05160172 0.014107131 0.077454455 -0.1213989 -0.0074543953
-0.020543477 0.043899324 -0.06819233 -0.05307788 0.27111548 -0.16015588 -0.11187962 0.02869317
0.040247872 0.0056055738 -0.09721298 0.13929093 -0.061370008 -0.09111865 -0.005081568 0.026565311
0.060057018 -0.055110592 -0.086089075 0.018924104 -0.016074225 0.009442655 0.021934692 0.037203
0.03796693 0.026847351 -0.08176721 -0.01366847 0.00062224956 -0.005679369 -0.06328659 0.01945389
-0.03857776 0.02008694 0.04040694 0.015847718 -0.013599804 -0.07590293 -0.038957935 0.0025664088

activation.coefficients_vect f4 [672]
00000000: 0000 0080 9118 ae3a 68d4 aa3a 2674 493a
00000010: e7d4 f439 da42 d539 12da 2138 8901 1ab8
00000020: 1b5b 5db9 8108 b9b9 e89c 21b9 9b20 1939
00000030: 7e46 fc38 17ca a438 68fc 2938 325b aab8
00000040: 872e 2fba 176e 31ba c009 35ba df4b 92ba
00000050: 0000 0000 0000 0080 b3bc 9a3a a761 863a
00000060: c830 323a 84bb 3139 725a 1337 b0ec 4eb8
00000070: a4c8 82b8 77aa 2bb9 307a 64b9 a29a 3f38
00000080: 7715 a439 6df7 3e39 e6e9 0f39 b667 0f38
00000090: 5bce 98b9 d503 f4b9 ab3f 22ba f4c2 3eba
000000a0: ee4b a6ba 0000 0000 0000 0080 ab4a ff3a
000000b0: d0c5 d13a bfda 353a 8daf 103a 42f6 4939
000000c0: fd45 0b39 232e 8bb9 89b2 a8b9 5b43 c9b9
000000d0: 8f93 64b8 7922 9039 3b8e 7a39 85bc fcb7
000000e0: 838a 7ab8 f0ae 1db9 7fdb 2aba f1a7 33ba
000000f0: da5e 99ba 27f3 b7ba 0000 0000 0000 0080
00000100: a08b 6639 e6fb 3839 c289 3539 3ec1 07b9
00000110: 9da7 0db9 4d0b 78b9 a617 98b9 32c7 d5b9
00000120: 5f33 99b9 e0e6 cab8 de8c a439 8d23 0c3a
00000130: 65ed f739 9cea 4639 3718 9338 8491 f237
00000140: 572e 9eb8 3b19 08b9 f8fa 9db9 0000 0000
00000150: 0000 0080 3235 1d3a 5cb0 ce39 5dd3 a839
00000160: 925c a239 0c99 9439 71dd 3339 6bc3 2139
00000170: 3f8b b038 b869 31b5 f932 f2b7 7a1a 1ab9
00000180: d63a 4db9 e294 61b9 5d6d 72b9 9f22 9eb9
00000190: c6f2 abb9 7d34 bbb9 6ef5 24ba 5986 7eba
000001a0: 0000 0000 0000 0080 12f2 8b3a 297f 513a
000001b0: d61c 4c3a d7bb 1f3a d149 133a 1467 7d39
000001c0: 4226 7739 efa3 3739 0396 1d37 0159 75b7
000001d0: d734 85b8 c3d2 f5b8 7a51 2eb9 8d6e b3b9
000001e0: 6a0d dfb9 e604 efb9 0c4f f4b9 b187 82ba
000001f0: 15d5 c5ba 0000 0000 0000 0080 98a0 513a
00000200: caa6 163a e927 063a ef23 a939 95e0 a739
00000210: a8f7 8839 75d1 eb38 d6aa a138 e897 4136
00000220: 9e1d 99b7 fe07 a3b7 c008 b0b7 786c b6b8
00000230: 0346 4ab9 d1c1 50b9 8cbb 65b9 e1e7 68b9
00000240: 29c3 92b9 eabc 2dba 0000 0000 0000 0080
00000250: fedf 933a 3014 3b3a 966e 053a 2066 013a
00000260: 2916 9b39 d7de 7039 0a25 1639 7304 0139
00000270: e71c ff38 cf3f 10b8 7fa6 70b8 29a3 16b9
00000280: f93f 1fb9 ca4a 32b9 abdc 81b9 d9c5 09ba
00000290: 45f8 0cba 8798 14ba 07e0 83ba 0000 0000
000002a0: 0000 0080 d617 8b3a 9782 8a3a 4eb2 693a
000002b0: e29c 2539 341f 1c39 bd91 4738 84d9 3037
000002c0: c4e8 13b9 1e12 44b9 2254 c6b7 d32f 8039
000002d0: 146e 1c39 da65 6b38 5f32 8bb9 e937 1aba
000002e0: 9e5a b0ba 42aa b5ba 35b5 21bb 5e05 46bb
000002f0: 0000 0000 0000 0080 165b 123b 2960 dc3a
00000300: d4e3 6e3a f371 693a 9b39 2c3a 2f98 2739
00000310: 88fc f238 a93e 50b8 5a5c 29b9 da5e 9f38
00000320: bd16 9c39 b9da 5b39 0eea 0bb5 0fb9 e9b7
00000330: 4b8b c7b9 4900 3dba 71bb 50ba 119a 9dba
00000340: 7982 fcba 0000 0000 0000 0080 0ad6 3c3a
00000350: c90b 3c3a 5bbb 143a bd31 9939 d2ba 9639
00000360: f367 9339 a995 1139 7bcc cb38 0d0d a738
00000370: c657 e8b7 79bc 84b8 d69a f3b8 c443 29b9
00000380: 5de7 6eb9 c463 7ab9 84fb afb9 b1bc d0b9
00000390: a01a 21ba 565a 67ba 0000 0000 0000 0080
000003a0: 1a80 3c3a c82a 063a cdbc db39 8f34 cf39
000003b0: 29af c039 dcca a539 d9e9 9b39 7e2d 2a39
000003c0: a23e bb38 0132 4738 626d 2bb8 c2f0 cbb8
000003d0: 14f6 0ab9 b36b 3fb9 d4a8 90b9 f027 9db9
000003e0: b9af e6b9 dc45 51ba c496 85ba 0000 0000
000003f0: 0000 0080 704c d73a 1cdf a33a fc0f 7c3a
-0.0 0.0013282468 0.0013033273 0.0007684849 0.0004669793 0.00040676334 3.8588485e-05 -3.671789e-05
-0.00021110142 -0.00035292286 -0.00015412609 0.00014603364 0.000120294266 7.8577716e-05 4.052781e-05 -8.123218e-05
-0.00066826533 -0.0006768419 -0.0006906055 -0.0011161527 0.0 -0.0 0.0011805504 0.0010252491
0.000679743 0.0001694989 8.782941e-06 -4.933466e-05 -6.236255e-05 -0.00016371334 -0.00021789293 4.568196e-05
0.0003129651 0.00018211985 0.00013724677 3.4190445e-05 -0.00029145446 -0.00046542162 -0.0006189297 -0.0007276975
-0.0012687424 0.0 -0.0 0.0019477209 0.0016004387 0.0006937198 0.0005519323 0.00019260592
0.00013282146 -0.0002654652 -0.00032176476 -0.0003838789 -5.449686e-05 0.00027491504 0.00023894843 -3.0128527e-05
-5.9733644e-05 -0.00015037856 -0.0006517693 -0.00068533333 -0.0011701242 -0.0014034257 0.0 -0.0
0.00021986524 0.00017641447 0.00017312824 -0.00012946592 -0.00013509249 -0.00023655333 -0.0002900932 -0.00040774938
-0.00029220709 -9.6751144e-05 0.00031385472 0.00053458737 0.00047288384 0.0001897015 7.0140166e-05 2.8916409e-05
-7.5426586e-05 -0.0001297937 -0.0003013236 0.0 -0.0 0.00059970014 0.0003942278 0.00032200935
0.00030968018 0.0002834279 0.00017153264 0.00015426955 8.4182706e-05 -6.609148e-07 -2.8872384e-05 -0.00014696448
-0.00019572242 -0.00021513135 -0.0002311966 -0.00030161903 -0.00032796542 -0.00035706526 -0.00062926754 -0.00097093504
0.0 -0.0 0.0010677001 0.00079916656 0.00077862793 0.0006093359 0.00056186045 0.0002416636
0.00023570008 0.0001751331 9.392857e-06 -1.4623861e-05 -6.3517764e-05 -0.00011721768 -0.00016624285 -0.00034223907
-0.0004254387 -0.00045589282 -0.000465982 -0.0009958652 -0.0015093411 0.0 -0.0 0.00079966476
0.00057468994 0.00051176414 0.00032260965 0.0003202005 0.0002612446 0.000112446876 7.708899e-05 2.8847662e-06
-1.8252813e-05 -1.9434836e-05 -2.098491e-05 -8.69864e-05 -0.00019290303 -0.00019908628 -0.00021909009 -0.00022211626
-0.00027992696 -0.00066275767 0.0 -0.0 0.0011281965 0.0007136492 0.0005090026 0.0004936177
0.00029580414 0.00022971198 0.00014318913 0.00012304056 0.00012164731 -3.43917e-05 -5.737552e-05 -0.00014365897
-0.00015187253 -0.00017003264 -0.00024769208 -0.0005255617 -0.0005377571 -0.00056684803 -0.0010061272 0.0
-0.0 0.0010611962 0.0010567483 0.0008914814 0.0001579407 0.00014888943 4.7581027e-05 1.0541062e-05
-0.00014105724 -0.00018698766 -2.3642617e-05 0.00024449694 0.00014918327 5.6123223e-05 -0.00026549675 -0.0005882965
-0.001345474 -0.0013859945 -0.0024674658 -0.0030215601 0.0 -0.0 0.0022332123 0.0016813326
0.00091129285 0.00089052244 0.0006569863 0.00015983054 0.00011586497 -4.964942e-05 -0.000161515 7.599378e-05
0.0002977158 0.00020966948 -5.212213e-07 -2.7861939e-05 -0.0003806002 -0.00072098203 -0.0007962501 -0.0012024065
-0.0019264958 0.0 -0.0 0.0007203525 0.0007173387 0.000567367 0.00029219492 0.00028749421
0.00028115473 0.0001388403 9.717882e-05 7.9656114e-05 -2.7697428e-05 -6.329356e-05 -0.000116159834 -0.0001614234
-0.00022783638 -0.00023879024 -0.00033565995 -0.00039813438 -0.000614563 -0.0008825412 0.0 -0.0
0.00071907195 0.0005118069 0.00041911603 0.00039521276 0.00036751598 0.00031622394 0.00029738134 0.0001622941
8.928521e-05 4.7491867e-05 -4.0871448e-05 -9.724639e-05 -0.00013252377 -0.000182553 -0.00027591607 -0.0002997513
-0.00043999942 -0.0007983127 -0.0010192026 0.0 -0.0 0.0016425978 0.0012502405 0.0009615419

u f4 [1, 1, 20, 20]
00000000: 4827 6bbb 4c03 b63b 104e 95bb 6030 813b
00000010: 787f 5cbb 50f3 313b 4085 e7ba 00ed 5b3a
00000020: 00c0 9838 0011 85ba 40cc fc3a 70aa 36bb
00000030: c06e 6a3b 7056 8dbb 6053 9e3b 18bd a6bb
00000040: f497 9e3b e0f3 67bb b052 5c3b 8b07 35bb
00000050: 266f 9ebc f057 373d 6fd2 89bd 2647 af3d
00000060: 6771 cebd d706 e93d b8fe fdbd ba43 063e
00000070: 0b49 0abe a50f 0b3e d28e 08be 9bd1 023e
00000080: ee1a f4bd 8a31 dd3d d671 c1bd 1a32 a13d
00000090: e51b 79bd ad6b 293d abc3 bdbc d3ec 093c
000000a0: cba9 21bc 06de 843c 9814 a6bc 3ed9 b83c
000000b0: 387b cbbc d2fc da3c 5a71 e4bc 546f e83c
000000c0: 64ac e6bc 7499 df3c f85f d4bc f0a5 c63c
000000d0: 48e9 b6bc 866a a43c c232 8ebc a462 703c
000000e0: 44fe 49bc 5077 2d3c 70d4 f9bb 1cf1 313b
000000f0: bc2f 913c 46d3 1dbd 27f2 5a3d cda1 87bd
00000100: 8040 a03d acf1 b6bd 8826 ca3d b787 d9bd
00000110: 7e48 e43d 6b98 e9bd a83b e93d 773c e3bd
00000120: 0e91 d73d 9ed5 c5bd 9e1b ae3d 6c44 91bd
00000130: 7f8f 663d 2ca3 29bd 616f cc3c bf50 04bc
00000140: a6b6 423d aec0 cdbd 02f4 0d3e 5257 2fbe
00000150: c8ab 4c3e ff0a 66be 099a 793e 2a8f 83be
00000160: 3141 873e e6e5 87be 907e 853e 0609 80be
00000170: 3c55 6f3e 258c 59be 2ea1 3f3e 34fa 21be
00000180: f68e 003e b8d8 b7bd 8a2f 5a3d 4ab9 9bbc
00000190: 4e16 163d 1486 9abd e8d1 d63d 485d 03be
000001a0: b2bc 173e ac21 28be 6ec6 333e 0cc0 3abe
000001b0: 96fc 3c3e 058e 3abe b6c0 333e 4b3b 29be
000001c0: c096 1b3e 7b11 0bbe 4865 ef3d 040e c5bd
000001d0: 96c9 983d f35f 58bd fd08 053d 26c4 4dbc
000001e0: 3c4f 5abc 82e6 003d 4bd8 3bbd cabf 773d
000001f0: 83b2 97bd ad5e b13d e668 c8bd 4f9e dc3d
00000200: 5cfb ecbd a412 f83d 4208 fdbd 98b0 fb3d
00000210: 2d09 f4bd ea52 e53d 70cb cebd 8969 b03d
00000220: ec5d 8ebd db59 533d 4477 03bd 6eb3 393c
00000230: 928f 60bd 9ac9 f03d b56a 27be 3cf6 503e
00000240: a61b 77be 73a0 8c3e 8092 9abe ed02 a53e
00000250: f7a7 abbe 076e ae3e 4e4c adbe d824 a83e
00000260: 66ee 9ebe d8f2 913e 38c3 81be 9a96 5d3e
00000270: ee9e 32be 0f3a 023e e82c 9ebd 66d2 e43c
00000280: 95ac 54bd d258 e23d f6b4 1dbe f703 433e
00000290: aa1a 64be 8abc 7f3e c537 8abe 1229 913e
000002a0: a7a4 94be 039c 943e 6c11 91be 774f 8a3e
000002b0: 16c6 80be 9582 693e e698 4cbe 048e 2b3e
000002c0: de2d 07be c42e c13d a4f7 6abd 5ce3 b03c
000002d0: 8d12 7dbb 5bb2 f73b a82f 22bc 3e29 093c
000002e0: 5e0c c6bb 6477 353b 90a4 bc3a 0866 dbbb
000002f0: 1969 513c 1cac 9bbc 84f3 c93c c851 f0bc
00000300: c406 073d dc1f 10bd 2a8e 103d 48ee 04bd
00000310: 628e e43c 7550 b5bc 50f5 6b3c 3c62 9fbb
00000320: a0e2 333d 7a3e c3bd 0e59 093e 6213 2ebe
00000330: 3e29 503e f611 6fbe d0b2 843e 282c 8fbe
00000340: fa7b 963e ac6c 9abe 1eed 9a3e 5bdc 97be
00000350: 3c08 913e 0f71 86be f2ee 703e d628 4fbe
00000360: 4a85 283e 9c83 f8bd c601 993d 4581 dfbc
00000370: 1ab1 4a3d 9806 dcbd ac43 1a3e 3b1e 41be
00000380: 1c38 653e 3654 82be 50ce 8e3e e6ea 97be
00000390: 028e 9d3e 0a9c 9fbe ccea 9d3e 3e87 98be
000003a0: c0c2 8f3e 55f9 83be 9c92 6a3e 0cc5 47be
000003b0: c8f9 1f3e 9b6e e7bd dd5e 8d3d 178a d3bc
000003c0: 3ac9 5f3c 7bde 00bd f8e7 373d cae6 5cbd
000003d0: 12ca 7b3d 0a0b 89bd 96c3 8f3d 42d4 91bd
000003e0: 4e00 8f3d 4cdc 87bd b017 7b3d be3a 62bd
000003f0: 56d0 453d 5472 26bd a21b 063d 1a6e d1bc
-0.0035881568 0.0055545922 -0.004556425 0.0039425343 -0.0033645313 0.0027153082 -0.0017663613 0.0008389503
7.2836876e-05 -0.0010152161 0.0019286945 -0.0027872585 0.0035771579 -0.0043132827 0.0048317164 -0.0050884597
0.0048398916 -0.0035393164 0.0033618622 -0.0027622904 -0.01934011 0.044761598 -0.0672959 0.08558492
-0.100802235 0.11378258 -0.12402099 0.13111773 -0.13504426 0.13580187 -0.13335732 0.1277527
-0.11919199 0.108004645 -0.094455406 0.07870884 -0.060817618 0.041362453 -0.02316459 0.00841828
-0.009867142 0.01621915 -0.020273492 0.022564527 -0.024839029 0.026731882 -0.027886081 0.028373398
-0.028158374 0.027294852 -0.025924668 0.024249047 -0.022328034 0.020070326 -0.017358188 0.014671955
-0.012328688 0.010587528 -0.0076242015 0.002715177 0.017722957 -0.038531564 0.05345359 -0.06622658
0.078248024 -0.08932814 0.098706305 -0.10621589 0.11146639 -0.114060245 0.11388332 -0.11095517
0.10525714 -0.09659885 0.08501361 -0.070931286 0.056289192 -0.04141538 0.024955453 -0.008075892
0.04753747 -0.10046516 0.13862613 -0.17123154 0.19987404 -0.22465132 0.24375166 -0.25695163
0.26416925 -0.26542586 0.26073122 -0.25006884 0.23372358 -0.21244867 0.18713829 -0.15818101
0.12554535 -0.08976883 0.053267993 -0.019009251 0.036642365 -0.075451046 0.10489255 -0.12828553
0.14818075 -0.16419095 0.17556164 -0.18237323 0.18455729 -0.18218239 0.17553982 -0.16526525
0.15194225 -0.13580887 0.1168924 -0.09621814 0.074603245 -0.05282588 0.032479275 -0.012558972
-0.013324555 0.03146983 -0.04586057 0.06048564 -0.07407095 0.08660636 -0.09785633 0.107723825
-0.115713805 0.121129304 -0.12355091 0.12289542 -0.11915813 0.11197455 -0.100973964 0.08613879
-0.06951508 0.051599365 -0.032096162 0.011334283 -0.05482442 0.117572024 -0.16349299 0.20406431
-0.24131641 0.27466163 -0.30189896 0.32228795 -0.33526585 0.3406832 -0.33847278 0.3284061
-0.3104126 0.28505588 -0.25344253 0.21639481 -0.1744344 0.1271746 -0.07723409 0.027932357
-0.0519224 0.110520974 -0.15401062 0.19044481 -0.22275797 0.24974266 -0.26995674 0.28351647
-0.2903187 0.29025277 -0.28333604 0.27013752 -0.25151128 0.2280372 -0.19980201 0.16753393
-0.1320109 0.09432748 -0.057365075 0.021592788 -0.0038615793 0.0075591034 -0.009899057 0.008371649
-0.0060439548 0.002768957 0.0014392305 -0.0066955127 0.012781405 -0.019002967 0.02465225 -0.029335871
0.032965437 -0.035186633 0.03529183 -0.032453805 0.027899925 -0.022133091 0.014401749 -0.0048640054
0.0439173 -0.09533401 0.13412878 -0.16999581 0.20328233 -0.23346695 0.25917673 -0.27963376
0.29391462 -0.30161035 0.3025903 -0.29660305 0.28326595 -0.26258132 0.2352865 -0.20230421
0.16457096 -0.121344775 0.074710414 -0.02728332 0.049485303 -0.10743445 0.15064877 -0.18859188
0.22384685 -0.25454873 0.2789178 -0.296714 0.30772406 -0.31173736 0.30843198 -0.29790682
0.2807827 -0.25776163 0.2290749 -0.19508761 0.15622628 -0.11300393 0.06902859 -0.025822682
0.013658816 -0.031462174 0.044898957 -0.053931035 0.061472006 -0.06691559 0.07019727 -0.07120563
0.0698248 -0.06633815 0.061301887 -0.055231802 0.048294388 -0.040636376 0.032741196 -0.025565196

exp_avg f4 [8, 1, 7, 7]
00000000: 2cb6 663c a03b f13b db48 353b 7cf4 8a3b
00000010: ee4e 2abb 7b31 cc3b 4120 a1ba e7bc ad3b
00000020: 7764 4c3b 5e14 603b 3b9d 3a3b 2f96 34bc
00000030: 0219 fdbb debe 29bc 1ff1 f23b d487 1a3c
00000040: 56b2 dc3b 580f 2c3c 2464 653b 035b 9a3a
00000050: 8ba7 00bb 58a5 533c a471 cf38 fe88 ba3b
00000060: 6b6a f839 b043 8eba d3b3 d6bb 1699 5fbb
00000070: 7e7e 0d3c 7b48 52b9 aa12 2f3c f08d 02bb
00000080: 1d3e 1dbc e647 3ebc 75ff c2bc e796 843b
00000090: 724b a13b ab25 a6ba 80e5 c6bb 0209 32bc
000000a0: e9c4 8bbc 7c5a dabc e6dc b63c 693a ac3c
000000b0: 8553 ba3a c0f0 563a 33fc 903a 2816 33bc
000000c0: 9476 85bc 7c73 a23c ee88 7a3c 57d1 383c
000000d0: 8dba a53b f9f2 ec3a d2c8 2f3c 66c5 2a3b
000000e0: 0d57 8b3b 9467 97ba 96d3 fe3a 98e1 24b9
000000f0: 2e40 98bb 2827 39bb ddf2 2abc d187 b33b
00000100: 1545 473c 7ef3 0f3c 6bd7 a33b 523e 0b3c
00000110: e73b 293c eb5a b53b 4703 7a3b 6e91 5fbb
00000120: 7280 99ba 558c cfbb ddff 23bc 4b9e 03bc
00000130: c62d d0bb fb54 083c 3bd6 933b c659 4c3a
00000140: 28c7 0ebb 273d 73bb c757 2c3b 28f3 0abc
00000150: 47df 59ba 807a 0c3b 1b93 c5bb 096f 14bc
00000160: fb21 5ebc 37b5 6abc dc85 7cbc e7ff 463c
00000170: c3eb e43b 2f7a 04bb b22a e8bb ff6b d8bb
00000180: c1db 25bc 12d2 82bc aa6f ab3c ad3f 543c
00000190: 5f06 163c 7f02 d73b 1c09 163c 7b8e 263c
000001a0: e871 4c3c bcc9 9cba e1e3 ab39 82e6 9a3b
000001b0: ba18 69ba e457 773b 35e8 9c3a 575a 2f3c
000001c0: fe74 aa3b c09c 813b fdcd 193c 202d 623b
000001d0: 5cfb 0c3c c263 633c a29c 663c 1493 39ba
000001e0: 14a7 98ba 03b3 50b8 5d97 15bb e779 8fb9
000001f0: c628 32ba 68f3 663b 5072 32ba 8a9b f8ba
00000200: 4e06 7c3b 6d6b 4e3b 88da 0d39 1d07 77bb
00000210: 10e1 133b 7cec 35bc db39 82bc 5257 7fbc
00000220: 6f8d 87bc 0713 40bc 2254 5cbc e2b7 8cbb
00000230: cfde 1abc a589 35bc 6d74 38bc dd8f 88bc
00000240: 81d5 2dbc ddb0 1fbc 44cf 29bb f575 773c
00000250: 038b 5f3c d3ef 5b3b 167d 3e3b e36a 783b
00000260: 942e 0d3c 1680 753a 27a2 213c 32c8 293c
00000270: 7618 bd3b e556 093c 00c3 083c 1525 d93b
00000280: b762 94ba 9f9c 5e3c cfc5 8d3c 450e 083c
00000290: 1744 173c 4425 2a3c ffd6 fe3b 9cf0 14ba
000002a0: a495 af3b 4b81 b53b 3e15 08bb 9099 e1ba
000002b0: bb0d 9bbb 03ab 08bc 56b3 54bc 4c5d 8d3b
000002c0: 30a1 883b 65d2 92bb 1b80 09bc 347c 16bc
000002d0: 7261 07bc c655 76bc 9ed2 7fbb 2251 7dbb
000002e0: 0a5d 38bc 417d 74bc f26b 98bc 30b2 66bc
000002f0: 7225 3ebc 8132 4f3b d307 81ba a1d0 a5bb
00000300: 7200 51bc c1cf 22bc ef20 3fbb 702a 39b8
00000310: 801c 9b3c e6b7 e63b 9b22 01bc 779d 43bc
00000320: 1e8a 48bc 4bf2 3b3b 2975 4dbb 2d44 ff3b
00000330: bf05 38bb e38f f0bb 94d0 43bc 6de4 3bbc
00000340: be19 98bb 0552 fcbb fc91 9b3c 037d 203c
00000350: ce6c 19bb 91a4 adba 5374 103c 88db 233c
00000360: 8e4c 0e3c d7ce 5d3c f0cf d4b9 db05 f9bb
00000370: 15b7 b7bb b033 013a df38 11bb 68a7 db3a
00000380: 7074 aa3c 29e7 d13b 3ccc 0dbc d946 34bc
00000390: 4056 d8ba ec8b 5abb 3f01 19bc dfff 543c
000003a0: 4c81 4a3b e13a 39bc b774 f5ba 1fa3 15bc
000003b0: 3573 63bc b45f c1bb 456c bc3c 6d7d 3c3c
000003c0: 4757 5cbb 1a57 29ba 9fd7 89bb 2d97 fbbb
000003d0: 48f1 c83b cff9 1e3c b669 f339 5007 fcbb
000003e0: a681 00bc 574c fdbb 5120 b43b 841b 5d3b
000003f0: 79ab 7a3b d835 4abb 49b9 9bbb 023e bebb
0.014081519 0.007361844 0.0027661833 0.0042405706 -0.0025986987 0.0062314845 -0.0012292938 0.00530206
0.0031187811 0.0034191827 0.0028475064 -0.011022135 -0.0077239284 -0.010360448 0.007413998 0.009431798
0.0067351265 0.010501705 0.0035002315 0.0011776391 -0.0019631113 0.012917839 9.8916964e-05 0.0056926003
0.00047381534 -0.0010853913 -0.0065521984 -0.0034118346 0.008636115 -0.00020054162 0.010685602 -0.0019921027
-0.0095973285 -0.011613822 -0.023803452 0.0040463093 0.004922324 -0.0012676021 -0.006069839 -0.010866405
-0.017061668 -0.026654474 0.02232213 0.021023946 0.0014215565 0.00081993267 0.0011061489 -0.010930575
-0.016291894 0.019830458 0.015291436 0.011280379 0.005057639 0.0018077783 0.010729032 0.00260576
0.0042523206 -0.0011551254 0.001944172 -0.00015724299 -0.0046463227 -0.0028252099 -0.01043388 0.005478837
0.0121624665 0.00878608 0.005000045 0.008498745 0.010329223 0.00553452 0.0038148926 -0.0034113782
-0.0011711253 -0.0063338676 -0.010009733 -0.008033345 -0.006353113 0.008321042 0.0045116222 0.00077953597
-0.0021786187 -0.0037115307 0.0026297437 -0.0084808245 -0.0008311164 0.002143532 -0.006029499 -0.009059676
-0.013557906 -0.014325432 -0.015412774 0.012145973 0.006986113 -0.0020214429 -0.007085168 -0.006604671
-0.010123194 -0.01596931 0.020927269 0.012954635 0.009156792 0.006561577 0.009157445 0.010165806
0.012478329 -0.0011961977 0.00032785445 0.0047271857 -0.0008891929 0.0037741596 0.0011971059 0.010702691
0.005201935 0.0039554536 0.00938749 0.003451176 0.008604851 0.013878765 0.01407543 -0.0007079106
-0.0011646473 -4.9757782e-05 -0.0022825815 -0.0002736591 -0.0006796237 0.0035240296 -0.0006807195 -0.0018967253
0.0038455906 0.0031497136 0.00013528217 -0.0037693449 0.0022564568 -0.011103746 -0.015896728 -0.015584784
-0.016546933 -0.0117232865 -0.013447793 -0.0042943815 -0.009452536 -0.01108018 -0.011258227 -0.016670162
-0.010609985 -0.009746757 -0.0025910893 0.015103807 0.013643983 0.0033559694 0.0029066256 0.0037905506
0.008617062 0.00093650946 0.00986532 0.010362672 0.0057707382 0.008382534 0.008347273 0.006626735
-0.0011320923 0.013587146 0.017306237 0.008304183 0.0092325425 0.010384861 0.0077770944 -0.00056816055
0.0053584147 0.0055390946 -0.0020764614 -0.0017211903 -0.0047318614 -0.008341554 -0.01298221 0.0043141004
0.0041696057 -0.0044806474 -0.008392359 -0.009184886 -0.008262979 -0.015035098 -0.003903545 -0.0038653095
-0.011252651 -0.014922441 -0.01860616 -0.014080569 -0.011605607 0.0031615796 -0.0009844251 -0.005060271
-0.012756454 -0.009937228 -0.0029163917 -4.414696e-05 0.018934488 0.0070409654 -0.007881786 -0.011939398
-0.012239961 0.0028678353 -0.003135035 0.0077901096 -0.0028079597 -0.0073413714 -0.011951584 -0.011468035
-0.0046417406 -0.007700207 0.01899051 0.00979543 -0.00234108 -0.0013247897 0.008816796 0.010001071
0.008685244 0.013538084 -0.00040590717 -0.007599575 -0.005606542 0.00049286615 -0.0022159142 0.0016758265
0.020807475 0.0064057303 -0.00865465 -0.0110032195 -0.0016505197 -0.003334756 -0.009338676 0.013000458
0.003089982 -0.011305542 -0.00187268 -0.009133129 -0.013882448 -0.0059013013 0.023000846 0.011504513
-0.0033621357 -0.00064598175 -0.0042066122 -0.0076779337 0.0061322786 0.009703114 0.00046427333 -0.0076913014
-0.007843411 -0.0077300477 0.0054970165 0.0033738324 0.0038249178 -0.0030854847 -0.0047523123 -0.0058057318

exp_avg_sq f4 [8, 1, 7, 7]
00000000: 0d56 873c f362 8f3c 0a3c a23c d749 9b3c
00000010: ff69 8a3c 1205 7f3c 65d8 963c 3bfe 553c
00000020: 8bfe 513c 35cf 483c c3db 6b3c f4fb 363c
00000030: 87ad 2e3c a8ce 4d3c ea99 e53b 423a c33b
00000040: d9cc f23b 98a5 d73b 05d4 e03b bd9a b53b
00000050: 0af4 e93b 1fc7 823c 7662 8c3c 93d2 593c
00000060: c19e 483b 1bc8 c73c 7bdc 913c b6d4 803c
00000070: de7c a13c 4910 9d3c e1f1 823c c6ae 9c3c
00000080: f558 ac3c 4762 8f3c 9744 8d3c 92a5 2a3c
00000090: 7915 1d3c a8d1 ee3b 7e20 723c 4179 143c
000000a0: 9a50 273c 48bd 203c 3e97 0e3c 9a9f 1d3c
000000b0: c67d 033c be18 183c b760 373c eb69 2c3c
000000c0: 2b0d 483c 6585 8b3c daa6 513c 0060 963c
000000d0: 8120 b13c 777c 543c 7feb 7b3c d539 913c
000000e0: ea72 333c 0820 0b3c 49e9 273c 88e9 783c
000000f0: 9e86 013c 1b3b 2d3c 84f1 5c3c c91c 5f3c
00000100: a432 203c a7f7 383c 311d 8e3c 1a69 413c
00000110: 3d53 4c3c 3c46 463c bb44 823c f152 8b3c
00000120: ba1c 363c 1652 563b 8d6c f73c 9deb 653c
00000130: 72e7 713c c8eb 623c 5bf2 563c 5342 023c
00000140: 13cc 863c 43de 803c ab21 2e3c 4dee 273c
00000150: 8e29 123c c12f 4e3c 8494 c93b 7299 623c
00000160: 113b 4f3c 9f38 003c 965d 303c 6afe 4c3c
00000170: a53c 8b3c ab75 2d3c a461 793c 0183 963c
00000180: 92c3 513c c508 623c c0aa ad3b 8373 933b
00000190: 0174 7f3b 54b8 813b 419e 973b 95c3 8a3b
000001a0: 66bb a93b 6cea 9a3b 7bfc 853b 0760 753b
000001b0: 84f6 5c3b 5f3c 6b3b 1837 853b a98a 943b
000001c0: f250 663b c1bf 553b 92b7 3d3b b142 0e3b
000001d0: 9c68 293b 861f 6b3b f3da 673b d894 373b
000001e0: ce93 3e3b 6c61 dd3a b8a7 c23a f178 103b
000001f0: f683 293b efe1 4c3b 5607 4c3b 417a 2a3b
00000200: c6f1 2d3b e7d9 2b3b 9dda 623b 02a3 263b
00000210: 63ef 6a3b a1e5 813b 32d2 773b e748 583b
00000220: e3e6 603b 98ff 493b b968 773b 801e a03b
00000230: 647b 9f3b 7d4c 8b3b 7fb4 a03b 2dd6 873b
00000240: d06d 893b d242 a13b 587b bf3b 776f 0b3c
00000250: 9c78 e83b edaa 223c 38c9 0f3c 984a b03b
00000260: c8d8 0f3c 8a2f fd3b bc72 093c d1ca c33b
00000270: ec27 f13b 6477 023c 7405 7d3b a6b7 bf3b
00000280: 08e3 f83b 672a b63b 1d19 873b 44cc 6c3b
00000290: 9445 0b3c 8187 343b ceef a03b 0c1f bf3b
000002a0: 106b ca3b a1ac 9e3b e5b6 cd3b bd0a e53b
000002b0: f641 8e3b 9339 903b 7710 b83b 9154 b33b
000002c0: 6b65 9b3b b474 733b 0d65 7e3b 29e2 fb3b
000002d0: 443c 843b 12f1 d43b d8e9 bc3b 7189 b83b
000002e0: 6eed 4d3b 14e5 eb3b e9c7 093c 7d5c 923b
000002f0: 3a75 e63b c10f bb3b 1935 cb3b f353 6f3b
00000300: e95f df3b 22d8 e83b c130 a33b 4858 f03b
00000310: b345 a63c fc19 8e3c 481e 8e3c 3d42 df3c
00000320: 9b94 873c 5a1b 853c 26e7 963c dae0 923c
00000330: a473 563c d9b4 143c 2a7b cc3c 1475 573c
00000340: 0b65 2f3c 6143 7c3c 06a5 7a3c 72eb 9d3c
00000350: b1b4 113c beae e73c 4a48 ab3c de0f 5d3c
00000360: 1a84 773c 3d80 8c3c 3812 b43c b2d2 a53c
00000370: d9b8 543b 8eb5 c43c dba6 a63c 2c79 933c
00000380: 19dc 493c 80f3 ac3c 165e dd3b d84e 853c
00000390: 9af8 c73c 7998 3f3c 052b 4c3c d6ed 233c
000003a0: fa54 843c 23a3 133c d8ac 393c a928 a23c
000003b0: 271f 2e3c ae43 3c3c c6aa 563c 05c8 943c
000003c0: 3e8d 803c 0af6 683c df0e c33c f6cd 8b3c
000003d0: 59cb 7a3c b6c0 7b3c 2d14 3b3c 87d6 1e3c
000003e0: a15d 5a3c 6413 2b3c 709e 2f3c f549 443c
000003f0: c1fe 473c eb0c cf3b 6287 9c3b 4d33 e93b
0.016520524 0.017503237 0.01980402 0.018956108 0.016896246 0.015565174 0.018413732 0.013061102
0.012817035 0.012256433 0.014395657 0.011168469 0.010661489 0.012561478 0.0070068734 0.0059578726
0.0074096736 0.0065810196 0.006861212 0.005542128 0.0071396874 0.015964089 0.017136794 0.013294834
0.0030612203 0.02438741 0.017805329 0.015726428 0.019712862 0.019172804 0.015984477 0.019126307
0.021038512 0.017502917 0.01724462 0.010415452 0.009587639 0.0072881766 0.014778255 0.009062112
0.010212088 0.009810753 0.008703051 0.0096205715 0.008025592 0.009283243 0.011192492 0.0105233
0.012210171 0.01703138 0.012796128 0.018356323 0.021621944 0.012969128 0.015375971 0.017727772
0.010952691 0.008491524 0.010248491 0.015192397 0.00790563 0.010573174 0.013485316 0.013617703
0.009777699 0.011289514 0.017347904 0.011804843 0.012471017 0.012101706 0.015901914 0.017007323
0.011115247 0.0032702736 0.030203128 0.014033225 0.0147646535 0.01385016 0.0131193055 0.007950383
0.016454732 0.015730983 0.010628144 0.010249686 0.00892104 0.012584628 0.0061517376 0.0138305295
0.01264836 0.0078259995 0.0107645 0.012511829 0.016996691 0.010587136 0.015221033 0.018373014
0.012802975 0.013796036 0.005299896 0.004499854 0.0038979056 0.003958741 0.0046270196 0.004234741
0.0051798103 0.0047276523 0.004088936 0.003744127 0.003371627 0.0035894138 0.0040654056 0.004533131
0.0035143462 0.0032615515 0.0028948528 0.0021707232 0.0025849706 0.0035876944 0.0035378307 0.0028012302
0.0029079798 0.0016889996 0.001485101 0.0022044743 0.0025866008 0.0031262597 0.0031132302 0.002601281
0.0026541813 0.002622241 0.0034615167 0.002542675 0.0035848252 0.0039641415 0.0037814495 0.0033002438
0.0034317307 0.0030822512 0.0037751629 0.0048864484 0.004867004 0.0042510615 0.0049043293 0.004145405
0.004193999 0.0049212957 0.005843561 0.008510462 0.007094456 0.009928447 0.008776002 0.005379986
0.008779712 0.0077266144 0.008389171 0.0059751053 0.0073594954 0.007963035 0.0038607987 0.00585075
0.0075954236 0.005559254 0.004122867 0.0036132494 0.008500475 0.0027546587 0.0049113994 0.0058325585
0.0061773136 0.0048423563 0.0062779062 0.0069898055 0.0043413593 0.0044013946 0.005617197 0.0054727276
0.0047423146 0.0037148418 0.0038817555 0.0076868725 0.0040355045 0.0064984644 0.005765181 0.0056316187
0.0031422037 0.007198939 0.008409479 0.004466592 0.0070330175 0.005708665 0.006201398 0.0036518543
0.0068168533 0.007105843 0.004980177 0.0073347427 0.020296907 0.017346375 0.017348424 0.027253265
0.016550353 0.016248394 0.018420767 0.017929483 0.013089094 0.009076321 0.024961073 0.013150472
0.010705243 0.015396924 0.015298134 0.019277308 0.008893178 0.028281566 0.020908494 0.013492553
0.015107179 0.017150993 0.021981344 0.020242069 0.003245881 0.024012353 0.020343235 0.018002115
0.012320542 0.021112204 0.0067556007 0.016272947 0.024410535 0.011694067 0.0124614285 0.010005435
0.016153801 0.009011063 0.011332713 0.019794779 0.0106275445 0.0114907455 0.013102239 0.018161783
0.01569235 0.0142188165 0.023810802 0.017065983 0.015307271 0.01536577 0.0114183845 0.009694702
0.013327987 0.010441635 0.010718927 0.011980523 0.012206734 0.0063186786 0.004776881 0.007116711

exp_avg f4 [32, 8, 7, 7]
00000000: 0732 0d3b 78b0 283b 1018 833a d9b1 4d3b
00000010: d3e4 ad3a 2f55 3eba 4801 ab3a 69ff 873b
00000020: 4a06 843a 41b7 1dba 1971 1f3b 1e2f a438
00000030: 92d8 ea38 dc26 7a3b 84b6 2c3b 6569 c2b9
00000040: d8e4 9e3a abe4 203b 2530 613a cc8a d53a
00000050: 9d6b 013b a9c2 a139 c8c3 1c3b ffe4 e03a
00000060: 6566 7c3a 5215 b239 ecdc 91ba e7fc 0838
00000070: d4e3 60b9 8b24 1b3b bbbf 8939 352f 25ba
00000080: d0c1 263a 3577 8039 ff60 63ba 3277 e3b9
00000090: 1a33 f239 4b64 aeba 0415 a6ba 71b9 3c39
000000a0: bd3e a7ba 68ce 94ba cdb7 253a 3d43 e139
000000b0: 2dbb 7439 f1bf 023b 03d3 023b b9ed 69b9
000000c0: b861 aa3a a3ee e83a 125f 133b 6645 b739
000000d0: 944c 2d3b 44ec bb3a dd3f 94ba 5df9 93b9
000000e0: 52b9 f63a 3217 9d3a 0fe9 82b8 655d ca3a
000000f0: db98 f639 2109 f1b9 d27c 3b3b e971 3d39
00000100: ebc6 fdb9 723a 1dba b09c 9f3a 7ca1 2b3b
00000110: 686d d63a cf77 603a ebbc 103a 1220 183b
00000120: 0f14 66b9 d78e f939 3ea0 4439 52cb c8ba
00000130: 1570 953a 893f 153b 397a 583b 93d3 c43a
00000140: 9b54 223b 0caf 073b 75da 33ba 142f f93a
00000150: 9b24 f83a c762 163b 0f24 193a 5ceb 1338
00000160: c207 9839 dc10 51ba c974 43ba e6a2 a63a
00000170: d28e 5a3b f13a a33a 9fee 2e3b 04a7 e33a
00000180: f8f1 f9b9 41d1 343a 3f44 263a 0c6a d9ba
00000190: 0066 9aba f4cb 14b9 d546 8bba 255c a0ba
000001a0: 8547 efba 7bda 40ba ef47 f1b9 67c7 23ba
000001b0: 0cd5 62b9 5bcd 08b9 8fe3 7ab9 5d87 9fb9
000001c0: ff1c 95ba 3d14 7bba da42 d3ba 91d9 8db9
000001d0: 0e91 033a c120 5aba b184 8936 46a4 afb9
000001e0: f312 9dba 7e97 11bb 81a5 c6ba 143f d8ba
000001f0: a404 41bb ef18 26ba b971 fe3a 94ab 9d3a
00000200: 34bc c03a 972b ac3a 53a6 0a3b 332a 0d3b
00000210: 6a18 b53a 2169 5939 7609 403a 27c8 8039
00000220: 74cc a039 a972 12ba d788 83b9 3774 6eba
00000230: 675b bdb7 870d 393a fbda 8dba b5c1 8bba
00000240: 7914 b6ba 254d 1739 f142 a538 c720 f4b9
00000250: 8065 04bb 48e4 9a3a d69d 0f3a 462e 6b39
00000260: d8a8 d33a 4a9d 4b39 8ae3 d7ba 0675 ecba
00000270: d498 8ab9 2851 0fba 164f 51ba 3572 9139
00000280: 71c0 b5ba 70ec ecb9 be14 8cba 2d68 20b9
00000290: 3c8e 75ba b0cb aeba cbe1 743a 571d 8339
000002a0: b07a a2ba 8a30 f4ba 79ad 6cba 2e31 c9ba
000002b0: 0eb3 9fba 848a e138 7307 d1b9 d6bc 353a
000002c0: 373c d839 9bec a939 9704 7b3a 86ed a33a
000002d0: 2546 9a3a f5f5 9c3a 9038 76b8 9add 00bb
000002e0: 7cec 6fba a2ab a8ba 33c1 06bb 7648 863a
000002f0: 2717 c2b9 e6c6 80ba a9cf 07bb e8c4 2bba
00000300: 1889 97ba f057 b8ba d43e 823a d391 823a
00000310: f661 cfba 0eb9 88ba 48a7 25ba 9406 3eb8
00000320: ddba 673a 2376 103b d003 eb3a ad4c d139
00000330: 9356 2739 1da4 b6ba b97f fe3a f98a dd3a
00000340: 1010 c3ba 3295 8a3a 4117 833a 4cb9 86ba
00000350: ccbe 68bb 51c0 9aba baef 53ba b44a 26bb
00000360: c885 92ba 08f1 d13a b95a f33a 4738 8439
00000370: 1fe7 21ba 7410 90b9 a322 39ba a64e 953a
00000380: f91d 84b8 e867 213b 38f2 033b 28b8 0b3a
00000390: ff5d 33b8 c31d 6939 8e64 e13a 81a2 e4b9
000003a0: d8f6 e73a d3da f13a c0e8 1aba 583e bbba
000003b0: baf2 c238 8c85 72ba 79ae ca39 060f 2b3b
000003c0: 0718 dab9 45c6 c4ba b1aa 063a 6369 f4b9
000003d0: 6431 6eba d04e d1b8 affc 9cba 21d3 adba
000003e0: ec52 a9ba 9f54 50ba 457a 9aba 4871 b0b9
000003f0: cd59 ab3a e462 72ba 551a 11ba 7272 6aba
0.0021544711 0.002573995 0.0010001678 0.0031386523 0.0013267047 -0.0007260618 0.0013046646 0.0041503203
0.0010072675 -0.00060163817 0.0024328886 7.828906e-05 0.00011198329 0.0038170135 0.0026353905 -0.00037081089
0.0012122644 0.002455036 0.0008590243 0.0016291975 0.001974798 0.00030853346 0.0023920406 0.001715809
0.0009628295 0.0003396669 -0.0011128462 3.266046e-05 -0.00021447177 0.0023672904 0.00026273527 -0.0006301285
0.0006361278 0.0002450288 -0.00086738163 -0.0004338562 0.0004619591 -0.0013305036 -0.0012671058 0.0001799816
-0.0012759786 -0.0011353018 0.0006321639 0.0004296544 0.00023339382 0.0019950832 0.0019962199 -0.0002230917
0.0012999093 0.0017771315 0.0022487086 0.00034956186 0.002644335 0.001433738 -0.0011310537 -0.00028223815
0.001882354 0.0011985062 -6.2422936e-05 0.0015439211 0.00047034663 -0.00045973904 0.0028608334 0.0001806688
-0.00048404126 -0.0005997784 0.0012177434 0.0026188781 0.001635951 0.0008562775 0.0005521315 0.0023212475
-0.00021941982 0.00047599405 0.00018751711 -0.0015319383 0.0011401201 0.0022773466 0.0033031835 0.0015016667
0.0024769667 0.0020703701 -0.0006860861 0.0019011223 0.0018931808 0.002294706 0.000584186 3.5266727e-05
0.0002899748 -0.00079752295 -0.0007456062 0.0012713342 0.0033349288 0.0012453479 0.0026692522 0.00173685
-0.00047673262 0.00068976363 0.0006342567 -0.001658739 -0.0011779666 -0.00014190358 -0.0010625968 -0.0012234492
-0.0018255567 -0.0007356775 -0.00046020697 -0.000624767 -0.00021632406 -0.00013046472 -0.0002392663 -0.00030427697
-0.0011376439 -0.0009577906 -0.0016117946 -0.00027055715 0.0005018868 -0.0008320921 4.0983655e-06 -0.00033500994
-0.0011983797 -0.002221554 -0.0015155525 -0.0016498291 -0.002945223 -0.0006336113 0.0019412554 0.0012029284
0.0014704526 0.0013135549 0.0021156266 0.0021540045 0.001381648 0.00020733896 0.00073256285 0.00024563188
0.00030669908 -0.00055865437 -0.0002508822 -0.0009096297 -2.2573118e-05 0.00070592057 -0.0010822708 -0.0010662588
-0.0013891599 0.00014429221 7.880282e-05 -0.00046563728 -0.00202021 0.0011817301 0.00054785365 0.00022428585
0.0016148342 0.00019418183 -0.001647101 -0.0018040247 -0.00026435277 -0.00054671103 -0.0007984502 0.00027741646
-0.0013866556 -0.00045189587 -0.0010687334 -0.00015297598 -0.0009367203 -0.001333585 0.0009341507 0.00025008127
-0.0012396183 -0.0018630188 -0.0009028535 -0.001534974 -0.00121841 0.000107546366 -0.00039869137 0.0006932741
0.00041243594 0.00032410477 0.0009575574 0.0012506701 0.0011770172 0.0011975156 -5.870365e-05 -0.0019663335
-0.00091523654 -0.0012868533 -0.0020561933 0.0010244984 -0.00037019813 -0.0009824901 -0.002072314 -0.00065524736
-0.0011561243 -0.0014064293 0.0009936937 0.0009961672 -0.0015822041 -0.0010431127 -0.00063191773 -4.5305656e-05
0.00088397955 0.0022043071 0.0017930213 0.00039920714 0.00015958612 -0.0013934408 0.0019416726 0.0016902379
-0.0014882106 0.0010573028 0.0010001437 -0.0010278611 -0.0035514114 -0.0011806582 -0.0008084733 -0.0025374116
-0.0011178786 0.0016017267 0.0018566466 0.00025218932 -0.00061761023 -0.0002747808 -0.0007062351 0.0011391237
-6.299833e-05 0.0024628583 0.0020133387 0.00053298706 -4.2764466e-05 0.00022231699 0.0017196105 -0.00043608624
0.0017697467 0.0018452056 -0.0005909316 -0.0014285548 9.295852e-05 -0.00092514674 0.00038658435 0.0026101484
-0.00041598102 -0.0015012702 0.00051371293 -0.00046617826 -0.0009086339 -9.9805766e-05 -0.0011977161 -0.0013261774
-0.0012918389 -0.000794718 -0.0011785707 -0.00033653737 0.0013073027 -0.0009246303 -0.0005535235 -0.0008943445
