trained_models/Sigma_25_t_10/checkpoints/checkpoint_5.pth (torch, 173091 bytes, 10 tensors)

conv_layer.conv_layers.0.parametrizations.weight.original f4 [8, 1, 7, 7]
0.062358588 0.12790617 0.043760564 0.26032293 -0.052570567 0.02515978 -0.011362085 0.048854023
0.14604312 -0.112211496 0.23029362 0.10982179 0.18766662 -0.0070856246 -0.010196779 -0.0672833
0.18651655 0.19727905 -0.04887048 0.034354076 -0.12785126 0.0071936348 -0.06997631 0.1741868
-0.5214499 -0.06624857 -0.061336607 -0.04847292 0.009534207 -0.14486241 0.17082188 -0.28240666
0.16388336 0.104387514 -0.025621656 0.13473777 0.037569404 0.04600157 0.059938405 -0.050123043
-0.0070740706 0.04350217 -0.021003034 0.062117502 0.07025214 -0.0769738 0.088121064 0.01618467
0.03494693 -0.037427135 -0.096532114 0.0035946958 -0.18139797 0.11513353 0.01662748 -0.014509686
0.03099606 -0.015509978 0.15020671 -0.1535021 -0.0486042 -0.14134125 0.03782825 -0.094960846
-0.009270197 -0.056859907 0.23653436 0.05190276 -0.08352255 -0.080346175 0.1912108 0.09371596
0.2502523 -0.45223927 -0.3218966 -0.15146439 -0.10997987 0.050659414 0.059737995 0.20131315
-0.056853082 -0.056575064 0.13963841 -0.0061817956 0.008297514 -0.060385317 0.09192834 -0.08193306
0.013639811 0.05135025 0.024661092 -0.070140995 0.0032799984 0.1268337 -0.102424085 -0.012501503
0.086887285 0.0028230222 -0.03555895 -0.11398596 -0.12673105 0.056979146 -0.03846622 -0.14881814
-0.03400958 -0.081797235 -0.11236667 -0.070863 -0.24911094 -0.1287623 0.18816344 0.073447905
-0.018161364 -0.07126107 -0.21486023 -0.054634623 0.05998204 -0.24518819 -0.07925648 -0.09778854
0.04110382 -0.13345645 0.10566 -0.016213348 -0.14132151 -0.079292454 -0.06583073 -0.19485919
0.21541849 0.03757 0.23761758 0.07853282 -0.113823205 0.08450197 0.03520525 -0.004195079
-0.21140775 -0.120863944 0.113348514 -0.02007838 -0.02166612 -0.062466137 0.11129727 -0.12109748
-0.001616608 -0.0026841299 -0.041186195 0.01624321 0.14061017 -0.14660914 0.0690904 -0.10627439
0.08259365 -0.060770337 0.05756996 -0.0645874 0.103711955 0.12942497 0.030925585 0.00043404588
0.12786424 -0.0046726693 -0.019139579 -0.14954662 0.11379083 -0.06513949 -0.13839611 0.24944209
0.013997272 -0.1360316 -0.14775497 -0.09010696 0.13450499 -0.09531879 -0.1610187 -0.0016354828
-0.07280517 0.10761305 0.28309846 -0.18292508 0.11304883 0.08475538 -0.0052983956 -0.066929445
0.02422071 0.12624462 0.07949717 -0.01125702 -0.112421416 -0.024786122 -0.0110841235 -0.03467863
0.08022559 0.08333613 0.0035493185 -0.008521189 -0.023219373 -0.060949214 0.028795235 0.047365543
-0.069719784 -0.058400255 0.04315233 0.021988716 -0.0029056913 -0.083730355 -0.10374157 -0.082592465
-0.032123964 -0.004931297 0.10181275 0.1512911 -0.13472109 -0.16789714 0.054713704 0.20957881
0.062338494 -0.04863902 0.16950324 -0.17937657 -0.6206647 0.17167665 -0.0979419 0.0030491597
-0.12587284 0.06436784 0.2114179 0.18453488 -0.17476249 -0.18048204 -0.06356706 0.09474911
0.016704354 0.1060891 0.19475636 -0.024311915 0.004725184 -0.03589647 -0.105697095 -0.08165707
0.063833825 -0.030775297 -0.039048694 -0.07081767 -0.011198626 -0.07693882 -0.09207868 0.032220997
-0.07011382 0.12001597 -0.0481401 -0.07382795 -0.06027919 -0.08766509 -0.083483584 -0.12701246
00000000: b86b 7f3d d6f9 023e 473e 333d 0c49 853e
00000010: 3c54 57bd e21b ce3c 0a28 3abc 281b 483d
00000020: 548c 153e 24cf e5bd 17d2 6b3e 3fea e03d
00000030: ae2b 403e 872e e8bb 6410 27bc d4cb 89bd
00000040: 32fe 3e3e 8503 4a3e 6a2c 48bd dcb6 0c3d
00000050: 71eb 02be 95b8 eb3b bd4f 8fbd 065e 323e
00000060: be7d 05bf 55ad 87bd 183c 7bbd 8a8b 46bd
00000070: 5d35 1c3c d056 14be eeeb 2e3e 9b97 90be
00000080: 0ad1 273e 1fc9 d53d 82e4 d1bc b3f8 093e
00000090: 60e2 193d 246c 3c3d f981 753d d24d 4dbd
000000a0: 9bcd e7bb 552f 323d 8e0e acbc ec6e 7e3d
000000b0: 5be0 8f3d 71a4 9dbd d178 b43d b795 843c
000000c0: 8324 0f3d 324d 19bd a1b2 c5bd fd94 6b3b
000000d0: 64c0 39be 21cb eb3d 5a36 883c 09ba 6dbc
000000e0: 73eb fd3c 901d 7ebc cacf 193e a82f 1dbe
000000f0: 3315 47bd c3bb 10be ccf1 1a3d d57a c2bd
00000100: 06e2 17bc efe5 68bd 1036 723e fd97 543d
00000110: df0d abbd 898c a4bd c4cc 433e 27ee bf3d
00000120: 1221 803e e88b e7be a2cf a4be 7b19 1bbe
00000130: 203d e1bd 3f80 4f3d d4af 743d 0925 4e3e
00000140: c7de 68bd 41bb 67bd 5ffd 0e3e a990 cabb
00000150: 4cf2 073c 9856 77bd ed44 bc3d 85cc a7bd
00000160: 8479 5f3c a454 523d 0f06 ca3c 15a6 8fbd
00000170: 3ef5 563b b2e0 013e b8c3 d1bd 1bd3 4cbc
00000180: f6f1 b13d 7402 393b 43a6 11bd 7971 e9bd
00000190: c9c5 01be f762 693d c18e 1dbd c863 18be
000001a0: a14d 0bbd 4f85 a7bd 7f20 e6bd 9f20 91bd
000001b0: f016 7fbe 44da 03be ebad 403e db6b 963d
000001c0: 24c7 94bc 53f1 91bd 5204 5cbe 8ec8 5fbd
000001d0: baaf 753d 9d12 7bbe 3951 a2bd 5c45 c8bd
000001e0: 7b5c 283d cfa8 08be 4564 d83d dbd1 84bc
000001f0: 96b6 10be 1564 a2bd 43d2 86bd 2b89 47be
00000200: aa96 5c3e 00e3 193d 0652 733e d1d5 a03d
00000210: 241c e9bd 5e0f ad3d 6133 103d e076 89bb
00000220: 467b 58be 8487 f7bd 4423 e83d 6a7b a4bc
00000230: 267d b1bc 7edc 7fbd d3ef e33d f501 f8bd
00000240: 5de4 d3ba 3ae8 2fbb dbb2 28bd 7b10 853c
00000250: 1dfc 0f3e b520 16be 457f 8d3d 63a6 d9bd
00000260: dc26 a93d 51ea 78bd 7ace 6b3d 6646 84bd
00000270: ef66 d43d fb87 043e a757 fd3c a790 e339
00000280: d8ee 023e 311d 99bb 9bca 9cbc c022 19be
00000290: 2b0b e93d da67 85bd b6b7 0dbe bf6d 7f3e
000002a0: d054 653c de4b 0bbe 144d 17be ff89 b8bd
000002b0: adbb 093e 7f36 c3bd 16e2 24be b25d d6ba
000002c0: e11a 95bd 3b64 dc3d 48f2 903e b650 3bbe
000002d0: 2586 e73d 3b94 ad3d 2a9e adbb 4e12 89bd
000002e0: 836a c63c 4546 013e 6acf a23d 5d6f 38bc
000002f0: 333d e6bd 440c cbbc 2f9a 35bc 2e0b 0ebd
00000300: 504d a43d 22ac aa3d af9b 683b 759c 0bbc
00000310: 8e36 bebc e2a5 79bd fce3 eb3c 5f02 423d
00000320: 3fc9 8ebd 1b35 6fbd 7fc0 303d ae21 b43c
00000330: 696d 3ebb d27a abbd 7676 d4bd 3d26 a9bd
00000340: 6b94 03bd b896 a1bb 3483 d03d 0eec 1a3e
00000350: 53f4 09be 3aed 2bbe 7a1b 603d d49b 563e
00000360: a656 7f3d b639 47bd 4292 2d3e 7eae 37be
00000370: e2e3 1ebf 01cc 2f3e c395 c8bd 69d4 473b
00000380: cfe4 00be 49d3 833d ef7d 583e b6f6 3c3e
00000390: f0f4 32be 49d0 38be 722f 82bd d20b c23d
000003a0: 92d7 883c 3e45 d93d 366e 473e c829 c7bc
000003b0: b7d5 9a3b 2d08 13bd b877 d8bd d23b a7bd
000003c0: 4fbb 823d 7a1c fcbc 86f1 1fbd db08 91bd
000003d0: 717a 37bc 1a92 9dbd bf93 bcbd 2afa 033d
000003e0: d697 8fbd efca f53d 8e2e 45bd 1c33 97bd
000003f0: 50e7 76bd c189 b3bd 71f9 aabd 8e0f 02be

conv_layer.conv_layers.1.parametrizations.weight.original f4 [32, 8, 7, 7]
0.005069033 0.021411983 -0.0012186794 -0.029682586 -0.028751576 0.020257263 0.05428306 -0.007025763
-0.04228267 0.010301041 0.033886578 0.050969888 -0.02266924 -0.12205917 -0.029716168 0.008141932
-0.06807147 0.022132345 -0.0448326 0.0147405015 0.019854583 0.029567674 -0.0043175747 0.019922435
-0.18173568 0.032465786 0.007434227 0.036510386 0.030722983 0.06638236 -0.011061766 0.17696908
-0.019200936 -0.05064095 -0.042797398 0.004302147 0.0059315795 -0.031288013 -0.0030276524 0.0039469604
-0.005904663 0.012925303 -0.008600595 0.045750927 0.018608991 -0.014364126 -0.036597226 -0.013230719
-0.021693481 -0.0013456797 0.0014628689 0.030901425 -0.005509263 -0.016050467 -0.034976877 0.0448055
0.015445303 0.032633457 -0.045324042 -0.05760711 -0.06364629 0.094329745 -0.025077797 -0.06514811
-0.015393022 0.063113384 0.12595697 -0.024621697 -0.0278405 -0.032364745 0.08604664 -0.023054497
-0.08546341 -0.2619479 0.028509919 0.07934134 -0.01698859 -0.07062164 0.026793517 0.15006056
0.17740661 -0.109696984 -0.09190033 0.09217411 0.029604893 0.034326993 -0.054861054 0.0010518128
0.106453665 -0.011231562 -0.070536904 -0.026802344 -0.07091575 -0.0017902367 -0.02001581 0.002647941
0.022529779 0.049294602 -0.03873226 0.013772231 0.011416638 -0.0028732775 -0.05356713 -0.016852872
0.019204693 0.07317011 -0.059313573 -0.018478082 -0.039285846 0.040450912 0.06159776 -0.018647294
0.057603933 -0.01468655 0.032028954 -0.021286512 -0.09822323 -0.03893905 0.019241849 0.00040818314
0.019155586 -0.08792852 -0.041440643 0.011799692 0.048900213 0.0153653985 0.03174956 0.005927542
0.0024567074 0.03029143 0.00496465 -0.010768065 0.0037937725 -0.033370253 -0.0036164685 0.027079245
-0.07640486 0.012218154 0.03898878 -0.00402246 0.016412938 0.021203399 0.006158013 0.01674096
-0.0013083089 -0.0447942 0.004145479 -0.0072544576 -0.019571343 0.019822896 0.02574781 0.025825627
6.4153915e-05 0.018887546 -0.013896518 0.062996246 0.06135874 -0.037256557 -0.07952306 0.014945101
0.00014011956 0.01943921 -0.060508482 0.0012498697 0.14413233 0.042008985 -0.018330025 0.0149851255
0.037099876 0.07892623 0.08070749 -0.18714195 -0.009706113 0.013160859 -0.089575864 -0.020409111
-0.062360108 -0.111823 0.0027773161 -0.05141934 -0.0071927207 0.017136356 -0.025445713 0.024599284
-0.050073776 0.044935573 -0.008539736 -0.015283022 0.046518143 0.015789337 -0.026568918 0.08796709
0.012765139 -0.009243719 0.028101007 -0.024806274 -0.01468549 0.014248205 -0.020404488 0.05273464
0.01642773 -0.00585505 0.03546455 0.026151529 0.06666987 -0.0081602745 -0.079164475 -0.07661858
0.055145975 -0.007263774 -0.018688736 -0.08665961 0.025514122 0.22108681 0.0303178 -0.10986548
-0.00285928 0.008739746 0.11510236 -0.081447296 -0.2823632 0.08580273 0.13168386 0.032573614
0.032871157 -0.13651848 0.054773416 0.12858793 -0.03787962 -0.030293861 -0.009638309 0.014519187
0.009023578 -0.013929158 -0.020834545 0.0034506184 -0.007102945 -0.064110994 -0.009149977 0.033778388
-0.040600892 0.04329589 -0.07389007 0.035600293 0.018722601 0.03892665 0.031430095 -0.0006210518
0.008532298 0.012884278 0.011301784 -0.03586277 -0.052739277 -0.026089663 -0.03201286 0.02367997
00000000: 211a a63b 2f68 af3c 18bc 9fba e528 f3bc
00000010: 6d88 ebbc 8ff2 a53c ea57 5e3d 5f38 e6bb
00000020: 9830 2dbd b3c5 283c a7cc 0a3d cdc5 503d
00000030: d8b4 b9bc 28fa f9bd 526f f3bc bd65 053c
00000040: 0e69 8bbd e44e b53c 63a2 37bd 2582 713c
00000050: 14a6 a23c e837 f23c 717a 8dbb 6034 a33c
00000060: eb18 3abe d8fa 043d d19a f33b ea8b 153d
00000070: c4ae fb3c 7af3 873d 693c 35bc 6237 353e
00000080: 484b 9dbc e36c 4fbd 534c 2fbd 06f9 8c3b
00000090: b25d c23b dc27 00bd 946b 46bb 8155 813b
000000a0: e77b c1bb a6c4 533c 83e9 0cbc 5365 3b3d
000000b0: e271 983c 8357 6bbc f9e6 15bd a8c5 58bc
000000c0: 87b6 b1bc 8561 b0ba bcbd bf3a fc24 fd3c
000000d0: 0c87 b4bb 457c 83bc ea43 0fbd f985 373d
000000e0: 4c0e 7d3c a9aa 053d b4a5 39bd 6ff5 6bbd
000000f0: fc58 82bd f42f c13d f46f cdbc 5f6c 85bd
00000100: 0433 7cbc 9741 813d ddfa 003e 71b3 c9bc
00000110: c311 e4bc e590 04bd 3939 b03d c9dc bcbc
00000120: 7107 afbd 091e 86be a28d e93c b67d a23d
00000130: a82b 8bbc 14a2 90bd 147e db3c 7aa9 193e
00000140: 14aa 353e d0a8 e0bd 3d36 bcbd c8c5 bc3d
00000150: f685 f23c 769a 0c3d fcb5 60bd fbdc 893a
00000160: 6104 da3d 9604 38bc a775 90bd 9790 dbbc
00000170: 473c 91bd 60a6 eaba 32f8 a3bc 1489 2d3b
00000180: 5f90 b83c 23e9 493d b8a5 1ebd eca4 613c
00000190: da0c 3b3c 994d 3cbb 3569 5bbd 090f 8abc
000001a0: 2953 9d3c 36da 953d caf2 72bd 595f 97bc
000001b0: 32ea 20bd dbaf 253d ef4d 7c3d 36c2 98bc
000001c0: 1af2 6b3d db9f 70bc cb30 033d 0d61 aebc
000001d0: 4329 c9bd 8e7e 1fbd 15a1 9d3c 6a01 d639
000001e0: 2dec 9c3c de13 b4bd aabd 29bd 7f53 413c
000001f0: 974b 483d 27bf 7b3c d40b 023d d43b c23b
00000200: b600 213b bc25 f83c 81ae a23b 8a6c 30bc
00000210: f1a0 783b 3faf 08bd 4602 6dbb 4bd5 dd3c
00000220: 277a 9cbd a72e 483c b3b2 1f3d d7ce 83bb
00000230: 6d74 863c c0b2 ad3c 28c9 c93b 5624 893c
00000240: 907b abba 207a 37bd ccd6 873b cdb6 edbb
00000250: 1554 a0bc a063 a23c 12ed d23c 4490 d33c
00000260: 5f8a 8638 0eba 9a3c 39ae 63bc 2d04 813d
00000270: 4d53 7b3d 559a 18bd fcdc a2bd 4cdc 743c
00000280: 0fed 1239 fa3e 9f3c bed7 77bd abd2 a33a
00000290: 6d97 133e 9d11 2c3d d928 96bc 2c84 753c
000002a0: 0af6 173d 13a4 a13d f849 a53d 24a2 3fbe
000002b0: 6306 1fbc a5a0 573c 8d73 b7bd 0231 a7bc
000002c0: 506d 7fbd 7503 e5bd a203 363b 169d 52bd
000002d0: eab0 ebbb 8b61 8c3c 8773 d0bc 7084 c93c
000002e0: 291a 4dbd 5d0e 383d 40ea 0bbc a465 7abc
000002f0: cf89 3e3d a458 813c 0fa7 d9bc 1728 b43d
00000300: e024 513c f872 17bc 1534 e63c 8736 cbbc
00000310: 699b 70bc 4e71 693c 5027 a7bc 4700 583d
00000320: 7293 863c b8db bfbb 4743 113d bb3b d63c
00000330: 368a 883d acb2 05bc fc20 a2bd 34ea 9cbd
00000340: bfe0 613d f404 eebb 1f19 99bc 987a b1bd
00000350: fe02 d13c 9564 623e 095d f83c 2701 e1bd
00000360: c262 3bbb 2731 0f3c c9ba eb3d d7cd a6bd
00000370: e991 90be 57b9 af3d 22d8 063e e96b 053d
00000380: e8a3 063d 80cb 0bbe 175a 603d 8eac 033e
00000390: a927 1bbd d52a f8bc ffe9 1dbc e2e1 6d3c
000003a0: a1d7 133c 2037 64bc 35ad aabc c523 623b
000003b0: d2bf e8bb a04c 83bd c9e9 15bc 355b 0a3d
000003c0: 1f4d 26bd 0857 313d ad53 97bd 9dd1 113d
000003d0: 2460 993c 8d71 1f3d d8bc 003d 15ce 22ba
000003e0: 0dcb 0b3c 9418 533c 1e2b 393c d7e4 12bd
000003f0: 2405 58bd fdb9 d5bc eb1f 03bd 7ffc c13c

activation.coefficients_vect f4 [672]
-0.0 6.773488e-05 5.8612663e-05 4.027533e-05 -5.141537e-05 -7.753272e-05 -0.00011527802 -0.00016487401
-0.00036045566 -0.000631859 2.811999e-05 0.0006187933 0.00042167582 0.00036645142 0.00021846863 0.00016470473
0.0001116526 9.098718e-05 -7.917367e-06 -7.408365e-05 0.0 -0.0 0.000783347 0.00055831095
0.00017497392 -4.1713227e-07 -7.8129175e-05 -0.00014868092 -0.00016589773 -0.00028636729 -0.0004085595 9.1125935e-07
0.00041467536 0.00031401406 0.00029471776 0.00022106162 6.402238e-05 -7.045591e-05 -0.00037127084 -0.00060418947
-0.0007567384 0.0 -0.0 0.00063239416 0.00014214999 2.5886824e-05 -8.44431e-05 -0.00023959963
-0.00027340936 -0.00031868424 -0.00040657335 -0.00048599308 -5.9456095e-05 0.00035079004 0.00025723028 0.00023764004
0.00021506213 5.8462097e-06 -4.07522e-05 -0.00026942178 -0.00029661856 -0.0006714824 0.0 -0.0
0.0015364813 0.001362774 0.0010513436 0.0006770363 0.00039364886 -7.3905074e-05 -0.0002397421 -0.00030488207
-0.00047356807 -0.000112788875 0.00025334366 0.00017949629 0.00015354443 -6.169753e-05 -0.000105785744 -0.0005191635
-0.00068688695 -0.00079382554 -0.0018577224 0.0 -0.0 0.0023313458 0.00096803735 0.0009359748
0.0007566895 0.0006792705 0.00033149333 2.9509512e-05 -0.000102961196 -0.00015976117 4.885643e-05 0.00024075869
0.00012147177 -0.00037566663 -0.00044295035 -0.000546752 -0.00068082946 -0.0015105284 -0.0018470993 -0.0021511435
0.0 -0.0 0.0012727513 0.00074309035 0.0006294957 0.00055594917 0.00038448384 0.00025736296
0.00017991406 7.924283e-05 1.3200017e-05 -1.5234308e-05 -0.00012961189 -0.00022820276 -0.00025260064 -0.00026178433
-0.00027080462 -0.00032556045 -0.0005226851 -0.000896884 -0.0013140675 0.0 -0.0 0.00051504956
0.00046789498 0.00041333836 0.00034224417 0.00022356473 0.00016484065 0.0001198697 0.00011653819 8.058714e-05
7.112113e-05 5.4538123e-05 -1.2630156e-05 -1.67819e-05 -4.156173e-05 -9.935362e-05 -0.000283 -0.00048742464
-0.00075436156 -0.001404506 0.0 -0.0 0.0010509681 0.0005592803 0.0004959426 0.00042063376
0.00038206804 0.000225929 0.00017400889 0.00014498369 0.00013543108 -3.247168e-06 -3.982575e-05 -9.5230265e-05
-0.00015761217 -0.00019790184 -0.00032745325 -0.0004115553 -0.0004228874 -0.00050972233 -0.0008776342 0.0
-0.0 0.0003154938 3.5547037e-05 7.2596017e-06 -6.7468056e-05 -0.00010035653 -0.00013845302 -0.00015116583
-0.00022086668 -0.00049398537 0.00014904905 0.00082015834 0.00048422127 0.00043845366 0.00042170496 0.00038338854
0.00020773086 0.0001354837 7.7055476e-05 -7.581649e-05 0.0 -0.0 6.4242835e-05 6.622901e-06
-2.2326181e-05 -3.3598608e-05 -0.00015520783 -0.00015809028 -0.00036032888 -0.0012422118 -0.0004377179 0.00041449832
0.0012665828 0.00016483605 0.00015791623 0.00011467658 9.5529416e-05 4.337879e-05 1.1730833e-05 -4.1828935e-05
-0.00011353315 0.0 -0.0 0.0018118281 0.0014103295 0.0012660052 0.0006575598 0.00043791847
0.00037705275 0.00010880635 -8.646507e-05 -0.00010601626 7.471073e-05 0.00024445832 0.00018201879 -4.8650316e-05
-0.00021931951 -0.0004860361 -0.0010450676 -0.0011743923 -0.0018988864 -0.0022485799 0.0 -0.0
6.631793e-05 1.1730568e-05 -6.375276e-05 -8.151602e-05 -0.00013451665 -0.00013916333 -0.00019458323 -0.0003513216
-0.0012014084 -0.00041029218 0.0003888916 0.0011870383 0.00042359336 0.00036989115 0.00030027542 0.00017803827
0.00016194244 0.0001278114 -5.280244e-05 0.0 -0.0 0.00092149066 0.0005240064 0.0003372176
00000000: 0000 0080 e30c 8e38 ded6 7538 4eed 2838
00000010: d5a6 57b8 1099 a2b8 6ac1 f1b8 08e2 2cb9
00000020: 8afb bcb9 57a3 25ba 38e3 eb37 8436 223a
00000030: 5f14 dd39 4720 c039 ba14 6539 97b4 2c39
00000040: 0827 ea38 5fd0 be38 d5d4 04b7 5b5d 9bb8
00000050: 0000 0000 0000 0080 8759 4d3a 9d5b 123a
00000060: 3479 3739 39f2 dfb4 48d9 a3b8 3be7 1bb9
00000070: d5f4 2db9 9123 96b9 ee33 d6b9 449d 7435
00000080: c968 d939 41a2 a439 5984 9a39 c7cc 6739
00000090: c143 8638 bbc1 93b8 21a7 c2b9 7862 1eba
000000a0: db5f 46ba 0000 0000 0000 0080 41c7 253a
000000b0: 190e 1539 8827 d937 0b17 b1b8 093d 7bb9
000000c0: 6258 8fb9 1315 a7b9 5a29 d5b9 e3cc feb9
000000d0: 7f60 79b8 3eea b739 dddc 8639 032f 7939
000000e0: 4d82 6139 8f2a c436 57ed 2ab8 2e41 8db9
000000f0: 7883 9bb9 6c06 30ba 0000 0000 0000 0080
00000100: c263 c93a 1c9f b23a 3dcd 893a 237b 313a
00000110: a862 ce39 7cfd 9ab8 4863 7bb9 94d8 9fb9
00000120: 3b49 f8b9 1189 ecb8 36d3 8439 2b37 3c39
00000130: c500 2139 9c63 81b8 4ad9 ddb8 7918 08ba
00000140: 3410 34ba bb18 50ba d27e f3ba 0000 0000
00000150: 0000 0080 7ec9 183b e3c3 7d3a 355c 753a
00000160: 935c 463a 1211 323a 48cc ad39 328b f737
00000170: dfec d7b8 9085 27b9 31eb 4c38 2b74 7c39
00000180: a9be fe38 1ff5 c4b9 ca3b e8b9 e853 0fba
00000190: b179 32ba ecfc c5ba 5e1a f2ba 33fa 0cbb
000001a0: 0000 0000 0000 0080 72d2 a63a f3cb 423a
000001b0: be04 253a 1ebd 113a 8c94 c939 acee 8639
000001c0: 50a7 3c39 2c2f a638 a475 5d37 db96 7fb7
000001d0: 6de8 07b9 b649 6fb9 7c6f 84b9 1940 89b9
000001e0: c8fa 8db9 fcaf aab9 ce04 09ba de1c 6bba
000001f0: ca3c acba 0000 0000 0000 0080 6404 073a
00000200: cd4f f539 56b5 d839 3c6f b339 b36c 6a39
00000210: 13d9 2c39 8e62 fb38 f765 f438 e400 a938
00000220: de26 9538 ddbf 6438 1be6 53b7 dbc6 8cb7
00000230: 9152 2eb8 125c d0b8 9e5f 94b9 078d ffb9
00000240: 59c0 45ba 6717 b8ba 0000 0000 0000 0080
00000250: a3c0 893a aa9c 123a 2502 023a 8288 dc39
00000260: 4e50 c839 5be7 6c39 2876 3639 c306 1839
00000270: 8102 0e39 ece9 59b6 930a 27b8 5cb6 c7b8
00000280: b244 25b9 df83 4fb9 08ae abb9 04c6 d7b9
00000290: fcb6 ddb9 e39e 05ba 0911 66ba 0000 0000
000002a0: 0000 0080 dc68 a539 5718 1538 8197 f336
000002b0: a37d 8db8 8076 d2b8 b32d 11b9 4582 1eb9
000002c0: 7398 67b9 cc7e 01ba 0d4a 1c39 e5ff 563a
000002d0: 14df fd39 41e0 e539 4818 dd39 8a01 c939
000002e0: 54d2 5939 a110 0e39 d898 a138 abff 9eb8
000002f0: 0000 0000 0000 0080 1cba 8638 493a de36
00000300: 1c49 bbb7 3bec 0cb8 49bf 22b9 09c5 25b9
00000310: 86ea bcb9 b6d1 a2ba 817d e5b9 0651 d939
00000320: 7703 a63a d7d7 2c39 5196 2539 857e f038
00000330: f756 c838 9ff1 3538 8bcf 4437 7a71 2fb8
00000340: a518 eeb8 0000 0000 0000 0080 dd7a ed3a
00000350: ceda b83a 16f0 a53a 1760 2c3a 6c98 e539
00000360: 2aaf c539 f72e e438 9554 b5b8 0c55 deb8
00000370: 05ae 9c38 a42a 8039 4cdc 3e39 e10d 4cb8
00000380: 22f9 65b9 a9d2 feb9 a6fa 88ba 11ee 99ba
00000390: 0ee4 f8ba e95c 13bb 0000 0000 0000 0080
000003a0: 2b14 8b38 68ce 4437 01b3 85b8 94f3 aab8
000003b0: 0a0d 0db9 5fec 11b9 0a09 4cb9 9631 b8b9
000003c0: 9478 9dba 7c1c d7b9 26e4 cb39 6596 9b3a
000003d0: bd15 de39 f3ed c139 496e 9d39 c9af 3a39
000003e0: 18cf 2939 1d05 0639 3078 5db8 0000 0000
000003f0: 0000 0080 3190 713a 795d 093a 95cc b039

u f4 [1, 1, 20, 20]
0.01144445 -0.007548469 -0.0175175 -0.012661576 0.0367805 -0.07782924 0.10072501 -0.03781103
0.029367432 -0.04142244 0.034258373 -0.034733504 -0.00709315 -0.0004662536 0.023215368 7.679686e-05
0.008120373 -0.0030505294 -0.0065179793 -0.0025104797 0.019943658 -0.043485355 0.016582936 -0.067726046
0.019710127 0.06791451 0.04132672 -0.074870914 0.031388 -0.00079403445 -0.027895046 -0.047092635
0.030081958 0.025604086 0.0136155 -0.013888575 0.0019409633 -0.012315315 0.0042470987 0.006095987
-0.041880466 0.029236149 -0.03986437 0.039187357 0.083824135 0.016943024 -0.017585322 -0.09997065
0.07141045 -0.08962934 -0.018368404 0.015745223 0.10614133 0.020192444 -0.02848374 0.0056933276
-0.02830613 -0.015139136 0.0023856675 0.002013024 0.045578204 -0.05861355 -0.074950494 0.15973255
0.05639646 -0.046185896 -0.1346964 0.05429671 -0.06424497 -0.0008374937 0.03173868 0.10213687
0.00789395 -0.056392677 -0.010856452 -0.022911225 -0.025297385 -0.0028669145 0.02792305 0.0096990075
-0.051146433 0.06972163 0.02362663 0.13139994 -0.063792735 -0.20796925 -0.044130728 0.20766309
-0.16955362 0.10957935 0.013792385 0.13208716 -0.05868458 -0.03254873 -0.021632092 -0.089122295
0.023075035 0.026816357 0.034037635 -0.01652179 0.020855369 0.10307655 -0.08453704 0.04753989
-0.13367227 -0.0038571781 -0.09113802 0.23923704 -0.27893955 0.27393615 0.043593954 -0.0058427746
-0.18797275 -0.016327925 -0.01825187 0.028891612 0.04813733 0.042547055 -0.035253223 0.0059458874
-0.098606795 0.27369142 -0.20325834 0.07085168 -0.19553293 0.012626599 0.035200678 0.21199119
-0.047737766 0.09501678 -0.0061338115 -0.15476432 -0.08497879 0.109935805 -0.11235654 0.070179194
0.034122966 0.05950469 -0.042235985 -0.0069881165 -0.056277305 0.2556895 -0.31792897 -0.018978659
-0.06531632 0.24507159 0.033954307 0.017342597 -0.07702381 0.057148248 -0.09592996 -0.094824746
-0.09300193 0.15178704 -0.040489223 0.176813 0.031233024 -0.038863674 -0.083617106 0.0032426298
-0.04643225 0.061385326 -0.26948902 0.017726697 0.21392184 0.14708243 -0.037443448 -0.03133984
0.05506866 -0.014085492 -0.25827998 0.020152818 0.0009091189 0.19905683 -0.027613921 0.042742997
-0.03365279 -0.08570248 0.036448356 -0.0034850966 0.021631442 -0.19380248 0.058473878 0.07358794
0.18252389 -0.05838736 -0.042875923 0.018047638 -0.126985 -0.1118733 -0.11657788 0.26232892
0.015536142 0.109938234 -0.00083863334 -0.0023703044 -0.094032936 -0.06001709 0.03378188 -0.003635027
0.026536811 -0.26488507 0.29224348 0.07094537 0.038317837 -0.07717682 0.008329924 -0.09895629
-0.12246217 -0.011528549 0.15820704 0.08881249 -0.038889702 0.044392932 -0.011027732 -0.08351755
-0.15882675 0.07799184 0.03218559 0.035801463 0.06834133 -0.29552114 0.49488732 -0.030203113
-0.20565477 -0.08542656 -0.04281567 -0.098914385 0.033472087 0.07547873 0.14001843 0.015814293
0.06581229 -0.00745135 -0.14706989 -0.09617166 -0.03155575 0.15729156 -0.018157441 0.0023392257
0.034704268 -0.09787682 0.44711894 -0.24861664 -0.2070755 -0.0003949017 0.03328238 -0.099145666
0.14552672 0.08555306 0.057172902 -0.0051055294 -0.039368816 -0.1519042 -0.08866438 0.041977145
00000000: 8181 3b3c 2659 f7bb dc80 8fbc 8072 4fbc
00000010: 26a7 163d f064 9fbd ea48 ce3d bddf 1abd
00000020: f893 f03c 94aa 29bd 8252 0c3d b844 0ebd
00000030: a86d e8bb 8073 f4b9 282e be3c 000e a138
00000040: 500b 053c 64eb 47bb c694 d5bb dc86 24bb
00000050: e260 a33c b31d 32bd f0d8 873c f4b3 8abd
00000060: 2277 a13c c316 8b3d 3546 293d ec55 99bd
00000070: b490 003d c026 50ba 2784 e4bc 35e4 40bd
00000080: 706e f63c a9bf d13c 8c13 5f3c e88c 63bc
00000090: ec67 fe3a 2dc6 49bc 3f2b 8b3b d8c0 c73b
000000a0: da8a 2bbd a680 ef3c d248 23bd ec82 203d
000000b0: fdab ab3d 19cc 8a3c 180f 90bc 6abd ccbd
000000c0: a43f 923d 968f b7bd 5679 96bc 20fc 803c
000000d0: a060 d93d a06a a53c bb56 e9bc 188f ba3b
000000e0: 42e2 e7bc 240a 78bc dc58 1c3b f0ec 033b
000000f0: 36b0 3a3d c314 70bd a57f 99bd ee90 233e
00000100: f9ff 663d 6c2d 3dbd daed 09be 3a66 5e3d
00000110: de92 83bd 408b 5bba 6b00 023d 232d d13d
00000120: a055 013c 02fc 66bd 43df 31bc 52b0 bbbc
00000130: 763c cfbc d8e2 3bbb e1be e43c 96e8 1e3c
00000140: ec7e 51bd 37ca 8e3d a28c c13c b58d 063e
00000150: c4a5 82bd e4f5 54be 6cc2 34bd a2a5 543e
00000160: 779f 2dbe 236b e03d 75f9 613c db41 073e
00000170: 3e5f 70bd d151 05bd c935 b1bc c085 b6bd
00000180: db07 bd3c faad db3c 0c6b 0b3d b458 87bc
00000190: e1d8 aa3c cc19 d33d c121 adbd 30b9 423d
000001a0: 62e1 08be b6c8 7cbb 92a6 babd 8efa 743e
000001b0: 2ad1 8ebe 5c41 8c3e 938f 323d bf74 bfbb
000001c0: ee7b 40be 24c2 85bc f284 95bc 1aae ec3c
000001d0: a62b 453d d245 2e3d af65 10bd b8d5 c23b
000001e0: 5cf2 c9bd 4821 8c3e f422 50be b01a 913d
000001f0: c939 48be cbdf 4e3c 962e 103d 3814 593e
00000200: ad88 43bd 2898 c23d 24fe c8bb 8a7a 1ebe
00000210: 5c09 aebd 0626 e13d 301b e6bd 1cba 8f3d
00000220: 86c4 0b3d 31bb 733d a4ff 2cbd 92fc e4bb
00000230: 0883 66bd bce9 823e 96c7 a2be 2279 9bbc
00000240: 90c4 85bd 0cf4 7a3e ac13 0b3d 1012 8e3c
00000250: a9be 9dbd 4814 6a3d ed76 c4bd 7a33 c2bd
00000260: cc77 bebd 106e 1b3e 07d8 25bd 780e 353e
00000270: 66dc ff3c 842f 1fbd 723f abbd 4d82 543b
00000280: be2f 3ebd 2e6f 7b3d 77fa 89be 9437 913c
00000290: 540e 5b3e c79c 163e 4d5e 19bd 345e 00bd
000002a0: ad8f 613d d6c6 66bc 463d 84be 8617 a53c
000002b0: f051 6e3a 8ed5 4b3e 9736 e2bc 4813 2f3d
000002c0: 82d7 09bd c884 afbd df4a 153d 3866 64bb
000002d0: 6c34 b13c 2874 46be 4e82 6f3d 46b5 963d
000002e0: 8be7 3a3e 9627 6fbd aa9e 2fbd a4d8 933c
000002f0: 5b08 02be d41d e5bd 62c0 eebd fa4f 863e
00000300: 4d8b 7e3c 4c27 e13d bbd7 5bba 1c57 1bbb
00000310: 5794 c0bd 7bd4 75bd de5e 0a3d a239 6ebb
00000320: ba63 d93c 049f 87be f0a0 953e ce4b 913d
00000330: 2af3 1c3d e10e 9ebd 3c7a 083c 98a9 cabd
00000340: 72cd fabd 3de2 3cbc 0701 223e 53e3 b53d
00000350: cf4a 1fbd 5dd5 353d a9ad 34bc 400b abbd
00000360: 7ba3 22be 30ba 9f3d 0ad5 033d 8ea4 123d
00000370: 8af6 8b3d 8c4e 97be df61 fd3e 856c f7bc
00000380: 2a97 52be 1ff4 aebd 7c5f 2fbd a093 cabd
00000390: 071a 093d 9894 9a3d fe60 0f3e fa8c 813c
000003a0: 98c8 863d 742a f4bb 7d99 16be a6f5 c4bd
000003b0: 9a40 01bd 0a11 213e eabe 94bc b24d 193b
000003c0: 1026 0e3d a473 c8bd c6ec e43e 5c95 7ebe
000003d0: 9a0b 54be cf0a cfb9 1b53 083d e20c cbbd
000003e0: f504 153e 7136 af3d 222e 6a3d 494c a7bb
000003f0: 3241 21bd c68c 1bbe ac95 b5bd 3af0 2b3d

exp_avg f4 [8, 1, 7, 7]
0.016210891 -0.0044551427 -0.045045465 0.059875757 0.012733931 -0.05713185 -0.0016367726 -0.06469609
-0.080833055 0.00925506 0.020284288 -0.112028435 -0.073507 0.009334031 -0.05086839 -0.048076294
0.07805998 -0.040074836 -0.063047424 -0.009866765 0.042897508 -0.0765215 0.0062293964 0.10144062
0.0077537317 0.012704668 0.040120482 0.012282392 -0.020720001 0.03703772 0.05101335 -0.07233549
0.04748603 0.015626192 -0.017757682 0.014936847 0.029042788 -0.019698745 -0.03213911 0.14148477
0.016564107 0.025264902 -0.012259669 -0.052366212 -0.06315734 0.03639325 0.11636072 -0.0064942925
0.0643241 -0.054390684 -0.033075485 -0.03779328 -0.013811661 -0.011313028 -0.03416976 -0.039756287
-0.035859082 -0.03636226 0.008712604 0.009769462 -0.025259785 -0.034556653 -0.01694847 -0.0065086405
4.9198232e-05 0.04778987 -0.038490064 -0.02545336 -0.00012830782 0.045610085 -0.03583135 -0.0019530223
0.050237067 0.034911927 0.036607992 0.040318932 0.0419077 -0.0025584386 0.018245706 0.04496357
-0.032332215 0.019177418 0.011286206 0.026688702 -0.011766162 0.015349827 0.00040397927 -0.03308124
0.023394497 0.005248231 0.031445086 -0.0029808725 -0.014175209 -0.04231981 -0.008846266 0.041562025
0.026062587 0.04997872 -0.009021779 -0.01205973 -0.025746955 -0.017208608 0.0101909265 0.00037601363
-0.02099425 0.0037978464 -0.0035933235 -0.017718324 0.026666226 0.041830998 0.026701188 0.0024209025
0.013011547 0.003080864 -0.009843389 0.04089636 0.04327117 0.026469309 0.029858764 -0.0051650815
-0.037255604 -0.015749728 0.008104471 0.008989446 -0.016755141 0.025134323 -0.0065433597 -0.019439317
0.011647062 0.00557277 -0.020206824 -0.027648104 0.01133161 -0.013741491 -0.015693117 0.011159184
0.00016694976 -0.022143578 -0.012337418 -0.0052997875 0.013236031 0.013039683 -0.0064400425 -0.014491353
0.003489273 -0.012866397 -0.012480004 0.0050062244 0.017382266 0.018168261 -0.014187508 -0.01600024
0.01578936 0.00035783328 0.028577778 0.03310462 -0.0033149126 0.0079152 0.0153245 0.027310524
-0.017888898 0.055103246 0.04023286 -0.005824381 0.03887593 0.03338426 0.01936525 -0.028950391
0.031566184 0.013492989 -0.012052235 0.053839345 -0.013462808 -0.014673096 -0.03337286 0.0235359
-0.027934184 -0.028780434 -0.0052364916 -0.039232016 -0.025495019 -0.03542426 0.0038876252 -0.025961868
0.0026765491 0.014873765 -0.032470554 -0.0035180463 -0.023122078 0.01132115 -0.0031426358 0.023767455
-0.015826765 -0.04575806 -0.011798077 -0.051431537 -0.05145955 -0.06631643 -0.005556151 -0.067535184
-0.11905459 -0.041328415 0.009968787 -0.044435628 -0.024433848 0.037619308 -0.07796464 -0.062383015
0.04188774 0.029830448 0.016463721 0.044554487 0.042142775 -0.061160114 0.058767933 0.080722645
0.043404255 0.020955648 0.059911482 0.009958274 -0.0018858489 0.08613106 0.033151902 -0.008289848
0.060402095 0.006014562 -0.08129232 -0.07524002 0.0893882 -0.010819631 0.012524032 0.029942213
-0.038105268 -0.072088555 0.010318592 0.06591497 -0.026794871 0.05802476 -0.0038965663 -0.034874067
-0.0053945356 0.007057546 -0.020238299 -0.01506276 0.060552962 0.022868209 -0.019614268 -0.04917772
-0.023257118 -0.011426489 -0.020837791 -0.003277019 0.0068391804 -0.01298433 0.007221152 -0.029312316
00000000: b4cc 843c 72fc 91bb 9881 38bd 4840 753d
00000010: faa1 503c 1603 6abd fa88 d6ba 627f 84bd
00000020: cd8b a5bd 89a2 173c 3c2b a63c 2a6f e5bd
00000030: d78a 96bd c3ed 183c 5f5b 50bd a6eb 44bd
00000040: e9dd 9f3d 8325 24bd 021f 81bd 36a8 21bc
00000050: 4cb5 2f3d 4eb7 9cbd f71f cc3b 1ac0 cf3d
00000060: 0413 fe3b 3d27 503c 6055 243d 163c 493c
00000070: febc a9bc ddb4 173d 60f3 503d a124 94bd
00000080: b680 423d 8002 803c 8f78 91bc adb9 743c
00000090: 24eb ed3c 435f a1bc 4da4 03bd 62e1 103e
000000a0: 73b1 873c 57f8 ce3c c7dc 48bc f47d 56bd
000000b0: a358 81bd 1711 153d 874e ee3d 13ce d4bb
000000c0: 5bbc 833d c4c8 5ebd 297a 07bd 20cd 1abd
000000d0: 4e4a 62bc 475a 39bc 97f5 0bbd 7dd7 22bd
000000e0: f9e0 12bd 98f0 14bd 4fbf 0e3c 1810 203c
000000f0: 9ced cebc 478b 0dbd 85d7 8abc 6f46 d5bb
00000100: 335a 4e38 50bf 433d c2a7 1dbd 9183 d0bc
00000110: 5e8a 06b9 a4d1 3a3d e5c3 12bd 8efc ffba
00000120: 62c5 4d3d cfff 0e3d 43f2 153d 7725 253d
00000130: 69a7 2b3d 7aab 27bb 0578 953c b82b 383d
00000140: c96e 04bd f619 9d3c c7e9 383c 44a2 da3c
00000150: dcc6 40bc d77d 7b3c 2ecd d339 3280 07bd
00000160: d1a5 bf3c 5af9 ab3b 90cc 003d be5a 43bb
00000170: 233f 68bc 8957 2dbd eeef 10bc f13c 2a3d
00000180: 3581 d53c 7cb6 4c3d 15d0 13bc 2c96 45bc
00000190: 47eb d2bc 11f9 8cbc d8f7 263c b223 c539
000001a0: 22fc abbc 4ae5 783b f77d 6bbb 0526 91bc
000001b0: 2173 da3c fb56 2b3d 73bc da3c 01a8 1e3b
000001c0: 622e 553c 52e8 493b 2a46 21bc f182 273d
000001d0: 1c3d 313d 2ad6 d83c 5e9a f43c d83f a9bb
000001e0: 5599 18bd 9305 81bc 9dc8 043c 7848 133c
000001f0: 1442 89bc 7fe6 cd3c ae69 d6bb 343f 9fbc
00000200: 52d3 3e3c c89b b63b c888 a5bc 477e e2bc
00000210: 38a8 393c fe23 61bc da8e 80bc 03d5 363c
00000220: 3c0f 2f39 7366 b5bc e222 4abc d7a9 adbb
00000230: f0db 583c 65a4 553c fe06 d3bb 246d 6dbc
00000240: 49ac 643b 95cd 52bc ee78 4cbc 410b a43b
00000250: 4165 8e3c 9bd5 943c b972 68bc ef12 83bc
00000260: b058 813c 929b bb39 f21b ea3c b698 073d
00000270: 013f 59bb c1ae 013c 9d13 7b3c 52ba df3c
00000280: bd8b 92bc f1b3 613d 36cb 243d 73da bebb
00000290: 5e3c 1f3d efbd 083d dfa3 9e3c 5f29 edbc
000002a0: 8b4b 013d b311 5d3c bd76 45bc a586 5c3d
000002b0: 1c93 5cbc 6d67 70bc fbb1 08bd 5cce c03c
000002c0: 3bd6 e4bc f2c4 ebbc e096 abbb c0b1 20bd
000002d0: eeda d0bc 0719 11bd 87c7 7e3b fcad d4bc
000002e0: 0b69 2f3b 18b1 733c d8ff 04bd 068f 66bb
000002f0: 836a bdbc 587c 393c aef4 4dbb f7b3 c23c
00000300: 22a7 81bc ce6c 3bbd b94c 41bc e0a9 52bd
00000310: 40c7 52bd e9d0 87bd 5f10 b6bb e34f 8abd
00000320: e5d2 f3bd fc47 29bd 2054 233c 2202 36bd
00000330: 7e29 c8bc b416 1a3d edab 9fbd 5585 7fbd
00000340: 7b92 2b3d fc5e f43c edde 863c c47e 363d
00000350: e79d 2c3d 0783 7abd a5b6 703d ea51 a53d
00000360: a9c8 313d 2eab ab3c be65 753d 0728 233c
00000370: 972e f7ba 7b65 b03d 4aca 073d 25d2 07bc
00000380: 3068 773d ce15 c53b 967c a6bd 7117 9abd
00000390: 2911 b73d d244 31bc 9931 4d3c 5f49 f53c
000003a0: 4514 1cbd 2aa3 93bd 500f 293c 6efe 863d
000003b0: eb80 dbbc 5fab 6d3d 895d 7fbb 1cd8 0ebd
000003c0: a5c4 b0bb fd42 e73b caca a5bc cbc9 76bc
000003d0: 6206 783d 1c56 bb3c 1aae a0bc 946e 49bd
000003e0: b685 bebc 2b36 3bbc 04b4 aabc 41c3 56bb
000003f0: 341b e03b 3abc 54bc 6a9f ec3b 6220 f0bc

exp_avg_sq f4 [8, 1, 7, 7]
0.14536811 0.1716657 0.23532882 0.23090462 0.19511549 0.15902245 0.13350728 0.14426538
0.22578979 0.27374044 0.2619871 0.27131036 0.21476181 0.16099627 0.16296811 0.17243887
0.23565987 0.3385243 0.31821063 0.18143296 0.14449176 0.22846769 0.21478708 0.46206453
0.22514775 0.47177625 0.26808244 0.1741758 0.1833948 0.21806774 0.4043886 0.37116802
0.46586487 0.21739824 0.21419021 0.15754563 0.2130486 0.23267877 0.271931 0.25035438
0.22674856 0.17128463 0.12157163 0.14928824 0.15378562 0.17645268 0.20984308 0.20677897
0.10758396 0.09556444 0.092751004 0.117856145 0.12821612 0.1425435 0.09444723 0.1132996
0.11230714 0.12667397 0.12854925 0.15723354 0.13405517 0.1384908 0.11315108 0.11812867
0.13697688 0.14620219 0.31385338 0.21836703 0.13943711 0.13644412 0.15232787 0.12472679
0.18016036 0.19327348 0.29361588 0.14653313 0.12483351 0.1097645 0.17675059 0.13474454
0.2065106 0.18539473 0.12739256 0.101064056 0.09639788 0.15193915 0.15508394 0.1390966
0.1046924 0.122041315 0.10218972 0.12313926 0.092909455 0.093486354 0.11183904 0.11901738
0.10428224 0.07937362 0.056352515 0.050541688 0.04728832 0.052130997 0.036649752 0.03160285
0.04755179 0.05120463 0.048048522 0.04428788 0.0415441 0.042195234 0.037703052 0.0363981
0.04936023 0.04276789 0.044398487 0.041830737 0.0476867 0.060094975 0.04263325 0.041576054
0.0537927 0.0854975 0.034115292 0.07639784 0.04880089 0.05019704 0.048105676 0.038510993
0.0349661 0.056482166 0.04494696 0.052933726 0.044208806 0.048115034 0.049665574 0.049482178
0.06275433 0.05836014 0.06076 0.04493916 0.042117987 0.039314784 0.043405164 0.06344661
0.05410532 0.0399516 0.0487797 0.03421499 0.048256144 0.04174155 0.04558567 0.044162016
0.03649917 0.037445493 0.04761853 0.053584483 0.066859454 0.06191045 0.07517196 0.061900545
0.046166625 0.04447038 0.09641615 0.079667926 0.1063275 0.056663763 0.067740336 0.057860352
0.055780523 0.07457299 0.058810394 0.12792227 0.07137464 0.07591054 0.061884847 0.049112763
0.07179693 0.078426905 0.09706875 0.10723971 0.06745156 0.049170326 0.04417499 0.06051644
0.08488906 0.10053214 0.069476835 0.058364537 0.054750115 0.039640293 0.045344412 0.04504754
0.048548162 0.05982791 0.04813884 0.037846792 0.10231111 0.17215954 0.18356071 0.18332969
0.18139878 0.15671352 0.11903407 0.13815121 0.21041189 0.20764254 0.20774838 0.23392415
0.23162693 0.13095793 0.17168182 0.20322528 0.41142988 0.3964971 0.29131508 0.19051254
0.15242188 0.19295476 0.259643 0.3284819 0.18370727 0.54846174 0.23140435 0.21354882
0.20538205 0.19395253 0.2780973 0.40172103 0.27001742 0.18010835 0.16454507 0.13722576
0.23501898 0.27288616 0.27077866 0.19627002 0.20805776 0.15725651 0.12848729 0.13733046
0.18105687 0.18719533 0.19296063 0.16270906 0.12506108 0.071164966 0.08341136 0.11209831
0.12086413 0.09830045 0.101007074 0.07988207 0.09031684 0.124221 0.14848772 0.14837606
00000000: 61db 143e 22c9 2f3e 0afa 703e 4372 6c3e
00000010: 5bcc 473e c8d6 223e 22b6 083e 4eba 133e
00000020: 7035 673e b527 8c3e 2c23 863e 31e9 8a3e
00000030: 85ea 5b3e 35dc 243e 1de1 263e d193 303e
00000040: d250 713e 0f53 ad3e 81ec a23e 90c9 393e
00000050: a6f5 133e 6ff3 693e 25f1 5b3e b993 ec3e
00000060: 228d 663e a88c f13e 1a42 893e 245b 323e
00000070: d9cb 3b3e 264d 5f3e 060c cf3e bc09 be3e
00000080: d785 ee3e a59d 5e3e ae54 5b3e a453 213e
00000090: 6a29 5a3e 5843 6e3e 8a3a 8b3e 732e 803e
000000a0: c630 683e 3d65 2f3e 8cfa f83d 04df 183e
000000b0: fa79 1d3e 03b0 343e 1be1 563e debd 533e
000000c0: fb54 dc3d 4ab7 c33d 3df4 bd3d 905e f13d
000000d0: 164b 033e ecf6 113e 8d6d c13d 9f09 e83d
000000e0: 4901 e63d d2b6 013e 6aa2 033e d401 213e
000000f0: c245 093e 88d0 0d3e c1bb e73d 72ed f13d
00000100: ab43 0c3e 07b6 153e 64b1 a03e 9b9b 5f3e
00000110: 9ac8 0e3e 02b8 0b3e d6fb 1b3e c270 ff3d
00000120: f57b 383e 7ce9 453e d254 963e c80c 163e
00000130: b6a8 ff3d 36cc e03d 1bfe 343e 79fa 093e
00000140: 8477 533e 1ed8 3d3e 3273 023e acfa ce3d
00000150: 406c c53d f095 1b3e 53ce 1e3e 576f 0e3e
00000160: f868 d63d ccf0 f93d d848 d13d 7030 fc3d
00000170: 5047 be3d c675 bf3d de0b e53d 62bf f33d
00000180: ed91 d53d a38e a23d e5d1 663d cd04 4f3d
00000190: 66b1 413d 5087 553d 0d1e 163d fd71 013d
000001a0: aac5 423d f2bb 513d 87ce 443d 3567 353d
000001b0: 252a 2a3d e9d4 2c3d 846e 1a3d 2d16 153d
000001c0: f42d 4a3d 622d 2f3d 30db 353d b556 2b3d
000001d0: 2153 433d 2626 763d 34a0 2e3d a74b 2a3d
000001e0: bc55 5c3d 5019 af3d 7abc 0b3d 7976 9c3d
000001f0: 71e3 473d 699b 4d3d 750a 453d b4bd 1d3d
00000200: 9d38 0f3d d859 673d 4e1a 383d 09d1 583d
00000210: 4b14 353d 4514 453d 216e 4b3d d3ad 4a3d
00000220: 5885 803d 0b0b 6f3d 7adf 783d 2012 383d
00000230: e983 2c3d 8a08 213d 9dc9 313d 4cf0 813d
00000240: 8a9d 5d3d 4aa4 233d 39cd 473d 0425 0c3d
00000250: 3ca8 453d 30f9 2a3d 0ab8 3a3d 3be3 343d
00000260: 2780 153d 7260 193d a60b 433d 677b 5b3d
00000270: 9ced 883d d095 7d3d c2f3 993d 6d8b 7d3d
00000280: 3719 3d3d 9326 363d d575 c53d f028 a33d
00000290: 3bc2 d93d 4318 683d 72bb 8a3d fafe 6c3d
000002a0: 1e7a 643d b9b9 983d 2be3 703d 0efe 023e
000002b0: de2c 923d fc76 9b3d f77a 7d3d 772a 493d
000002c0: 450a 933d 499e a03d fbcb c63d 7ea0 db3d
000002d0: 0b24 8a3d d366 493d d6f0 343d 16e0 773d
000002e0: 51da ad3d cbe3 cd3d df49 8e3d a70f 6f3d
000002f0: a841 603d dc5d 223d 10bb 393d c583 383d
00000300: 70da 463d 1c0e 753d 3b2d 453d 3d05 1b3d
00000310: 7d88 d13d 974a 303e 57f7 3b3e c7ba 3b3e
00000320: 9ac0 393e 8279 203e 22c8 f33d 8377 0d3e
00000330: 3776 573e 3fa0 543e febb 543e d089 6f3e
00000340: 9c2f 6d3e d619 063e 5ccd 2f3e 4a1a 503e
00000350: f0a6 d23e ab01 cb3e 4027 953e b815 433e
00000360: 7b14 1c3e ef95 453e edef 843e c82e a83e
00000370: c21d 3c3e fd67 0c3f 43f5 6c3e 8bac 5a3e
00000380: ac4f 523e 7e9b 463e c562 8e3e 61ae cd3e
00000390: b93f 8a3e 536e 383e 817e 283e e984 0c3e
000003a0: d1a8 703e bcb7 8b3e 80a3 8a3e 02fb 483e
000003b0: 180d 553e da07 213e 2c92 033e 5ba0 0c3e
000003c0: f966 393e 22b0 3f3e 7997 453e 349d 263e
000003d0: 0310 003e f0be 913d 93d3 aa3d cc93 e53d
000003e0: 9d87 f73d bf51 c93d ccdc ce3d 3699 a33d
000003f0: 09f8 b83d 9467 fe3d 2a0d 183e e5ef 173e

exp_avg f4 [32, 8, 7, 7]
-0.00093636045 0.0018596852 0.003667254 0.0026502844 -0.0004311041 0.0016496491 0.0034960534 0.000617573
0.0037765636 0.0011558724 -0.0028251603 0.0022507147 0.0041531334 0.003759055 0.0017087308 0.00061673875
-0.0018168001 -0.0012720106 -0.00053206674 -0.0003587115 -0.0003768962 -0.0010221953 -0.0009787699 4.1424395e-05
0.0022760509 -0.00421925 -0.006645379 -0.0039394596 0.0040672165 0.0022575192 -0.005817522 -0.008048253
-0.0026814311 0.0009921056 -0.0007212452 -0.0018333744 -0.0020280527 -0.0040075644 -0.00042183782 -0.0014496583
-0.0033787028 0.0005112004 5.9760838e-05 0.0014747997 -0.0020732882 -0.0011141083 -0.0015616207 -0.00016642635
-0.0001427912 0.0013280173 0.0073096077 0.0024593046 -0.005168922 -0.0071931863 -0.0013041544 0.0024809379
-0.000479236 0.003114309 0.0032084957 0.0033380352 -0.0018295503 -0.0044215727 -0.0014220673 0.002866985
0.00430082 -0.0039694766 -0.0035044353 0.0015865571 0.0020619826 -0.0016343609 -0.0010412716 0.006350626
0.006410832 0.0003456118 -0.009252082 -0.0057300385 -0.0003921716 0.0074321274 0.003198613 -0.0069556
-0.003641846 0.001680631 0.0012149665 -0.0033970657 -0.0059110313 0.0010032993 0.00093445356 0.0032912942
-0.0027643475 -0.0028729492 0.00045133737 -0.0029365413 -0.003671158 -0.0038041333 0.0036714894 0.0037427733
-0.0016621848 -0.006346767 0.0001289253 -0.0004294175 -0.00010908944 -0.0012699113 -0.0017016098 0.00027477363
-0.0012322192 -0.0012929261 -0.00460759 -0.0031604664 0.0027527264 0.0017006331 0.00025236167 -0.00017147876
0.0016886102 0.00054468063 -0.00095490844 -0.0016620378 -0.00031138657 0.0037890708 0.0020449504 -0.006646509
-0.0028489735 0.0029863333 0.004160165 -0.00016123462 -0.0005855999 0.0021429267 0.0020414835 -0.0024218534
-0.0054770918 0.0015959904 0.0046207323 0.0014932886 -0.00028418054 -0.00083262444 0.0029013336 0.0059373034
0.0031714153 -0.002962556 -0.001911818 0.0020005263 -0.0017781773 -0.00010081299 0.000761094 0.0011854203
0.0007871038 -0.0011452507 -0.0039840536 -0.0020009999 -0.0027822643 0.0004750238 0.0008893444 -0.00036073997
0.0015515574 0.0016149805 0.0050701187 -0.0029389674 -0.0025442978 0.0041608457 0.0034057414 0.0004177449
0.0028110999 -0.0003816308 0.0005362922 0.00031985718 -0.002106381 -0.0007919975 4.0135415e-05 0.0017283204
0.00178707 -0.002369875 -0.0034630036 0.0017621164 0.0019460302 -0.0009967242 -0.0045558456 0.00037235906
0.00276964 0.0060588513 0.002494759 -0.0029067774 -0.0032243216 0.00044073781 -0.0005344815 -0.0010038987
0.0017377418 0.0019342779 0.002332178 0.0005041969 0.00044048007 0.0024136798 -0.001967231 -0.001286108
-0.000422412 0.0007729363 -0.0010428602 -0.002425956 0.00500351 0.0064486815 0.0016393467 -0.0039730747
-0.0014524241 0.00687703 0.0046512014 -0.0021495328 -0.0011375876 0.0052687093 0.004059882 -0.0014525426
-0.0043223198 -0.0014715492 -0.0006249369 0.0016255544 -0.0011544776 -0.005454476 -0.0032853775 0.00017583685
-0.00057132624 -0.0015607597 0.0016899029 0.0020724682 0.006651796 0.0010529379 -0.0045642494 -0.004829383
-0.001697839 0.004951129 0.0058836616 0.0018166478 0.0012761805 -3.1276308e-05 -0.0009105695 -0.008093695
0.0002586711 0.0039584297 0.0004515414 -0.0019255974 -0.0028740258 -0.0037143102 0.00069729134 -0.005861757
-0.0053186137 0.0009072619 0.0043894267 0.0038558424 -0.00022825286 -0.0049982322 -0.0029231748 0.0044316687
0.005024043 -0.001776693 -0.0022882484 -0.0017980688 0.0013086532 0.0005992569 5.1560393e-05 -0.0004292188
00000000: 1676 75ba aec0 f33a 5056 703b 65b0 2d3b
00000010: d005 e2b9 0a39 d83a 0b1e 653b 9fe4 213a
00000020: 3980 773b a480 973a 5326 39bb ba80 133b
00000030: 0217 883b 7a5a 763b 7ef7 df3a a3ac 213a
00000040: b221 eeba 98b9 a6ba 657a 0bba 7111 bcb9
00000050: 279a c5b9 2ffb 85ba 114a 80ba 1bbf 2d38
00000060: cc29 153b a241 8abb 7bc1 d9bb 9516 81bb
00000070: 4946 853b e3f2 133b e9a0 bebb d2dc 03bc
00000080: f3ba 2fbb 8a09 823a f211 3dba d64d f0ba
00000090: 14e9 04bb e351 83bb 1d2a ddb9 7602 beba
000000a0: 3a6d 5dbb 1402 063a b6a7 7a38 114e c13a
000000b0: 01e0 07bb 4507 92ba 4caf ccba bc82 2eb9
000000c0: 39ba 15b9 de10 ae3a 6f85 ef3b 492c 213b
000000d0: 0f60 a9bb d2b4 ebbb 29f0 aaba 3b97 223b
000000e0: f841 fbb9 6f19 4c3b a045 523b f0c2 5a3b
000000f0: 85cd efba d7e2 90bb a964 baba 07e4 3b3b
00000100: e5ed 8c3b 6212 82bb abaa 65bb 06f4 cf3a
00000110: 5422 073b 0d38 d6ba 477b 88ba e918 d03b
00000120: f511 d23b 3b33 b539 0b96 17bc 0cc3 bbbb
00000130: 629c cdb9 3489 f33b d29f 513b cdeb e3bb
00000140: 09ac 6ebb 9e48 dc3a 833f 9f3a 4ea1 5ebb
00000150: 53b1 c1bb 2381 833a 1ef6 743a c1b2 573b
00000160: 0e2a 35bb 1748 3cbb 7aa1 ec39 fd72 40bb
00000170: d097 70bb c44e 79bb 5f9d 703b 5149 753b
00000180: abdd d9ba 8af8 cfbb 1f30 0739 7123 e1b9
00000190: f2c6 e4b8 2773 a6ba 8d08 dfba 7e0f 9039
000001a0: 6a82 a1ba 6777 a9ba 44fb 96bb d41f 4fbb
000001b0: 1667 343b c7e7 de3a 694f 8439 fbce 33b9
000001c0: 5b54 dd3a e6c8 0e3a d252 7aba bcd8 d9ba
000001d0: 9941 a3b9 0f52 783b 9304 063b f5ca d9bb
000001e0: d8b5 3abb 5cb6 433b fe51 883b 1711 29b9
000001f0: f282 19ba 5870 0c3b 69ca 053b f5b7 1ebb
00000200: 2d79 b3bb 8d30 d13a 8369 973b 73ba c33a
00000210: 11fe 94b9 7b44 5aba 4d24 3e3b b68d c23b
00000220: 85d7 4f3b 7127 42bb f895 faba 431b 033b
00000230: bb11 e9ba 906b d3b8 2784 473a 1b60 9b3a
00000240: a455 4e3a 3d1c 96ba aa8c 82bb 3523 03bb
00000250: a656 36bb 9d0c f939 e422 693a b321 bdb9
00000260: a15d cb3a c1ad d33a 3d23 a63b b19b 40bb
00000270: 3cbe 26bb b457 883b dc32 5f3b c504 db39
00000280: 6e3a 383b 9e15 c8b9 f695 0c3a 81b2 a739
00000290: 360b 0abb 0d9e 4fba 1357 2838 cf88 e23a
000002a0: 1e3c ea3a e84f 1bbb 8ff3 62bb d1f6 e63a
000002b0: f011 ff3a 84a4 82ba 3449 95bb 3039 c339
000002c0: d982 353b 5489 c63b 1c7f 233b a27f 3ebb
000002d0: 244f 53bb d412 e739 721c 0cba 4095 83ba
000002e0: f0c4 e33a 9987 fd3a 74d7 183b 152c 043a
000002f0: 3cf0 e639 d42e 1e3b a9ec 00bb a092 a8ba
00000300: 2e77 ddb9 e19e 4a3a 95b0 88ba cafc 1ebb
00000310: 7cf4 a33b 764f d33b 59df d63a 9130 82bb
00000320: 445f beba b558 e13b 1b69 983b 2ddf 0cbb
00000330: 1b1b 95ba 23a5 ac3b c208 853b 3e63 beba
00000340: 3fa2 8dbb ffe0 c0ba ced2 23ba 8e10 d53a
00000350: d751 97ba 76bb b2bb 7d4f 57bb d860 3839
00000360: 0ec5 15ba 6892 ccba bb7f dd3a 3fd2 073b
00000370: 4ff7 d93b bc02 8a3a b38f 95bb cd3f 9ebb
00000380: 068a deba 153d a23b bbcb c03b 961c ee3a
00000390: 8345 a73a ae2e 03b8 49b3 6eba 6b9b 04bc
000003a0: 3f9e 8739 b7b5 813b dcbc ec39 5464 fcba
000003b0: 275a 3cbb c96b 73bb 6eca 363a fb13 c0bb
000003c0: c447 aebb 51d5 6d3a 2ed5 8f3b 4db2 7c3b
000003d0: 2957 6fb9 36c8 a3bb bc92 3fbb 8837 913b
000003e0: baa0 a43b eddf e8ba 70f6 15bb 2dad ebba
000003f0: 1d87 ab3a 7317 1d3a 8d42 5838 c608 e1b9
