trained_models/Sigma_25_t_10/checkpoints/checkpoint_10.pth (torch, 173091 bytes, 10 tensors)

conv_layer.conv_layers.0.parametrizations.weight.original f4 [8, 1, 7, 7]
00000000: ceaf 6b3d 5719 033e d766 3d3d 702c 8a3e
00000010: 4a2e 4fbd e567 dd3c c197 dcbb de95 433d
00000020: 418e 163e 46e5 debd 99ec 753e 8047 ee3d
00000030: e5aa 3f3e 777e d1ba 196b 1fbc 1ab3 94bd
00000040: 8164 423e 46c0 523e 80a7 3ebd cb58 f63c
00000050: 9604 07be b502 af3b b0f8 94bd b2a9 333e
00000060: 5f1d 0bbf 9152 8ebd 0530 80bd e6c7 54bd
00000070: 4d8b 8e3b a47e 12be 16ef 2e3e 8111 94be
00000080: ac16 293e 3e61 da3d c111 d1bc cad7 0a3e
00000090: 1ae9 303d 3c63 273d 44b9 723d 3900 3abd
000000a0: 4189 2bbc 1bc5 373d 4518 a6bc 365d 6e3d
000000b0: 34a7 883d 2061 93bd 99a3 b73d 1a11 413c
000000c0: e2e8 023d 413a 0abd e834 c2bd b781 cbb9
000000d0: e2d2 3fbe 8569 f33d 52d5 983c 6d67 78bc
000000e0: 24a3 e93c b43a a5bc 4c5b 193e 9e40 1ebe
000000f0: 8130 4bbd 9cb1 10be 5363 143d 521a c2bd
00000100: 2751 5fbc 4169 6bbd 3dce 743e 4135 673d
00000110: 3bd9 b5bd cd18 a4bd 16c6 463e 879a d13d
00000120: ea31 863e 9e9a f0be 6aee aabe 0ed7 1dbe
00000130: 9d6d edbd 2b36 5a3d d3f4 7e3d 733b 523e
00000140: 7eae 5abd f83a 5ebd 0191 103e c16b 80b9
00000150: 91c3 8e3b 0ff1 75bd 3733 be3d 39fa a7bd
00000160: 2487 9c3c d0f4 593d e181 c93c d4d0 87bd
00000170: 9474 993a 9bf3 fc3d f750 cebd 49e5 cebb
00000180: ecae b13d 9bbd 7d3a e9dc 1dbd ba2c e8bd
00000190: 2c95 09be 5161 533d 3798 20bd 642d 19be
000001a0: 542c 08bd 8e24 a3bd 71a0 debd c293 a7bd
000001b0: cdb6 85be 2fb3 03be 9884 4a3e 4619 933d
000001c0: dc8a fbbc 507d 7abd 7a5e 68be adb8 57bd
000001d0: c76d 633d 2e33 7fbe deeb aabd 9297 d1bd
000001e0: aa9e 3b3d 2380 0cbe fdaa ef3d b85d 51bc
000001f0: 3758 15be b026 a5bd 4e62 7abd 59b4 4cbe
00000200: 7cd8 643e d2a0 1e3d 0c55 803e b912 b33d
00000210: 242a e1bd b6a3 aa3d ca9f 1c3d 0491 db38
00000220: 58a6 5bbe 7750 e5bd f46f fd3d c641 e2bc
00000230: 6728 d2bc f9bf 59bd 8e6b df3d 8d7c efbd
00000240: 2029 40bc 2c70 f7ba 2260 2fbd 0ab4 1d3c
00000250: bcac 103e aafb 13be b3ad 8e3d 4fde e6bd
00000260: 13de b23d 09eb 76bd f0ce 703d 2574 80bd
00000270: 2ff6 d73d fb2f 0d3e 22b2 cc3c 359d 1d3c
00000280: 7ed7 033e d16d abbb 9e6b ccbc 4571 19be
00000290: eeb2 eb3d 4996 8cbd 736b 15be a648 863e
000002a0: 67f9 453c 2e19 13be 8512 1fbe 1253 c1bd
000002b0: 8754 0d3e ed7d dbbd d1d6 28be 8e9b 813b
000002c0: 780b 95bd 9fa7 df3d ce13 963e b3a7 3bbe
000002d0: 4a9a e63d 9820 af3d d659 05bc b3e8 86bd
000002e0: 67f2 d83c f231 0b3e 0e3a a43d 1c27 85bc
000002f0: 6be8 e8bd 91bf c7bc 95a5 33bc ec08 19bd
00000300: efa2 ad3d 0274 a93d 9c48 503b 9e48 d0bb
00000310: c171 98bc 8890 7abd bf90 f23c 0806 253d
00000320: 9c69 88bd 9f7e 7abd b4fa 243d cf6a ae3c
00000330: 6aca e0ba cecf acbd 7af8 debd a49a abbd
00000340: b38a 05bd b4d6 a5bb 1ebf c93d 0640 1f3e
00000350: 6929 0abe 35be 32be 124e 7b3d ae6b 593e
00000360: e266 873d 8235 32bd d2d9 333e 0470 36be
00000370: f35e 26bf 214a 343e 437d c6bd 3252 b63b
00000380: b6f0 fabd 5bf6 673d a66b 573e b2c5 443e
00000390: 7fde 33be e2c5 3bbe 7c1d 86bd 1142 c13d
000003a0: eac4 3d3c 60d5 d13d e182 523e 8138 dcbc
000003b0: 0d91 3d3b bc42 13bd 3141 d3bd 3d66 98bd
000003c0: d354 843d a4f1 97bc 3c7d 37bd dec5 8fbd
000003d0: 1dd6 78bc 59d1 92bd a0f6 bebd e27e d93c
000003e0: 0ca9 93bd 0f0f 013e cf11 57bd c43f 94bd
000003f0: 7191 83bd 5cdf bebd 6914 bcbd 2a70 00be
0.057540707 0.12802635 0.046240654 0.26987028 -0.050581254 0.02702708 -0.0067319577 0.047750346
0.14702703 -0.10883574 0.24016036 0.11634731 0.18717535 -0.0015983124 -0.009730124 -0.072607234
0.18983652 0.20581159 -0.04654646 0.030071637 -0.13185343 0.005340899 -0.07273996 0.17545202
-0.5434169 -0.06949342 -0.06259159 -0.05194845 0.004350102 -0.14306122 0.17083392 -0.28919604
0.16512555 0.10663079 -0.025521161 0.1355888 0.043191053 0.04086612 0.059258714 -0.04541037
-0.010469736 0.04486571 -0.020275244 0.05819436 0.066725165 -0.071962595 0.08966751 0.0117838625
0.031960376 -0.03374696 -0.09482747 -0.00038815822 -0.18732789 0.11885361 0.018656407 -0.015161377
0.028520174 -0.020169593 0.14976233 -0.15454337 -0.049606804 -0.14130253 0.036227535 -0.094776765
-0.013630188 -0.057473425 0.23906799 0.05644727 -0.08879324 -0.08012543 0.19411501 0.10234552
0.26209956 -0.46992964 -0.3338502 -0.15414068 -0.11593173 0.053274315 0.0622452 0.2053049
-0.053389065 -0.054255456 0.14117815 -0.00024494345 0.0043568094 -0.060044345 0.09287112 -0.08202023
0.019107409 0.053211987 0.024598064 -0.06631628 0.0011707717 0.123511516 -0.100740366 -0.006313954
0.08675942 0.00096794375 -0.038540754 -0.11336656 -0.13435811 0.05160648 -0.039207663 -0.14958721
-0.0332454 -0.07965957 -0.108704455 -0.081824794 -0.26116028 -0.12861322 0.19777143 0.07182555
-0.030705862 -0.061154664 -0.2269229 -0.052666355 0.055524614 -0.24921867 -0.08345769 -0.10233988
0.04580561 -0.13720755 0.11702535 -0.012778692 -0.14584433 -0.0806402 -0.061128907 -0.19990672
0.22348207 0.03872759 0.25064886 0.087438054 -0.10994366 0.08332007 0.038238324 0.00010469745
-0.21450174 -0.11196988 0.12374869 -0.027619254 -0.025654031 -0.053161595 0.10909186 -0.11693678
-0.011728555 -0.0018878034 -0.04281629 0.009625444 0.14128393 -0.14451471 0.06966724 -0.11272871
0.087337635 -0.06028274 0.0587911 -0.06272153 0.10545003 0.13787834 0.024987284 0.009620001
0.12875172 -0.005231597 -0.02495366 -0.14984615 0.115087375 -0.06864602 -0.1459177 0.262273
0.012083388 -0.14365074 -0.15534408 -0.094396725 0.13801776 -0.10717378 -0.16488196 0.003955311
-0.07277578 0.10920643 0.29311985 -0.18325691 0.11259897 0.08551139 -0.008139094 -0.065873526
0.026482774 0.13593271 0.080188856 -0.016254 -0.11372455 -0.024383338 -0.010964771 -0.037362024
0.08478343 0.0827408 0.003178156 -0.006356313 -0.01860893 -0.061172992 0.029610036 0.040288955
-0.066607684 -0.06115591 0.04027815 0.021291165 -0.0017150168 -0.08438073 -0.10887237 -0.08379105
-0.032602977 -0.005060995 0.09850906 0.15551767 -0.13492359 -0.1745537 0.06135375 0.21232483
0.0661142 -0.04350806 0.1756356 -0.17816168 -0.6498863 0.17606403 -0.096918605 0.0055639977
-0.12252943 0.056631427 0.21037158 0.1921604 -0.17565344 -0.18337205 -0.065485924 0.09436429
0.0115825925 0.10245776 0.20557739 -0.026882412 0.0028925568 -0.035952315 -0.10315169 -0.074413754
0.064614914 -0.01854784 -0.044797167 -0.07020162 -0.015187767 -0.07168836 -0.09324384 0.02654976
-0.072099775 0.126034 -0.052507218 -0.07238725 -0.06424225 -0.09319946 -0.091835804 -0.12542787

conv_layer.conv_layers.1.parametrizations.weight.original f4 [32, 8, 7, 7]
00000000: 3e67 e03b 83bf ac3c 55e8 26ba edd6 0cbd
00000010: 4bf8 dcbc 68a3 a63c 3f74 483d 9c10 b1bb
00000020: 24f3 2dbd 252e 993c 337b 113d 03de 563d
00000030: ddd3 edbc 6a37 fabd 5f29 10bd e635 8a3b
00000040: b80a 9ebd f689 b23c 30be 38bd 5132 d33c
00000050: 9841 3a3c 6371 e83c f6fc a03b 1191 923c
00000060: c366 3cbe 2a4f 013d a88e 073c d840 2c3d
00000070: 7aa5 e13c af46 813d 1c38 81bc 3bea 3a3e
00000080: 335b acbc 91b5 66bd 43bd 04bd 726d f43b
00000090: 89da 3a3b 97fd 11bd 4c0a fab9 8617 483c
000000a0: ddeb 0c3b 379f 8eba 713d 49bc e7b6 553d
000000b0: 5e10 ab3c 286b 98bc 95e8 53bd 3375 63bc
000000c0: 5745 46bc a3ea cd3a 5072 11bc d35f 1b3d
000000d0: 80e6 7738 6b65 b1bc a30a 0abd 009c 003d
000000e0: 1053 973c 2dcf 283d 68b2 5bbd 785b 6abd
000000f0: 8f8c 41bd 1ddf bb3d 2177 f1bc 8b07 8abd
00000100: f7f9 9bbc c0c3 893d 8012 023e 22dd d5bc
00000110: 520e d1bc 6a80 99bc e969 ae3d 3dab 78bc
00000120: 23ab b2bd 0bf4 87be 309f 0d3d a03e 9e3d
00000130: 1552 ccbc 0618 91bd 156e bf3c e4ca 1b3e
00000140: 21bf 383e 026d e0bd 3ec0 c1bd 574b b43d
00000150: 370b 0f3d 21f0 213d c266 35bd 1b20 06bc
00000160: c456 da3d 3c48 05bc a3d4 87bd 5a9c b6bc
00000170: b524 a3bd 7ef2 edbb 9454 22bc 88ca 4d39
00000180: aea9 d63c 941d 243d c1fa 18bd 80d3 3a3c
00000190: 2fe1 d53b 5a6c 44ba 15b5 62bd c55f 2dbc
000001a0: 9aaf b83c 9875 8f3d 50b8 6ebd 88dd 22bc
000001b0: 4012 10bd a4de 473d 863a 4c3d 3254 ebbc
000001c0: db24 763d 5ea7 a8bc ed7d d43c d28f 13bd
000001d0: df87 d1bd 88e9 0cbd 7798 823c b245 0d39
000001e0: cb97 bc3c ee19 b9bd 8732 2abd 8dd8 853c
000001f0: f1d7 2f3d 7f10 8a3c 6a32 be3c 79c2 8a3c
00000200: 436c 2f3b 37d9 c43c 7921 623c 63e1 7839
00000210: e42b a4bb 3509 b8bc 5357 0cbc af34 063d
00000220: b52b 98bd 1a04 603b 62ce fa3c b5b5 423b
00000230: b593 743c 9906 b03c 8399 693b 1f97 c63b
00000240: c2fa 1b3c f175 46bd fedd 743b a009 b7bb
00000250: 9dcf a6bc b83e 863c c0cb 1e3d 1d41 e23c
00000260: e3b1 a43a 7c36 ea3b ab10 63bc c67a 643d
00000270: 3063 6e3d 83a8 29bd a277 a5bd bb7f 6c3c
00000280: 845d 043b c104 853c fbb7 6abd 2a2b 2a3c
00000290: 769c 243e 73d7 2a3d 45f3 dabc bf9a 9f3b
000002a0: de63 193d 5db3 893d 3c2d a93d 9b66 44be
000002b0: f2aa 1fbc aadd 893c a868 c5bd 50a2 d2bc
000002c0: da0e 52bd fbe5 fcbd 9a3f 263c 81c1 37bd
000002d0: b60c 363c 151b 333c 7d1b 94bc 1822 1f3d
000002e0: 9e14 45bd 4c62 fc3c f0ca 96bc 03f6 6fbc
000002f0: 643b 5a3d abdc b93c 69cb d8bc cfd9 b13d
00000300: 2896 cf3c f8d5 65bc ea32 0c3d 88da 06bd
00000310: d622 84bc 87ac a03c ad9e e3bc a09c 523d
00000320: 7128 683c 8cba 51bb e7f3 203d 3f25 bf3c
00000330: ed3a 8c3d 3e92 5aba 9ad5 a4bd 2119 9abd
00000340: e3c4 713d 621a 2bbc fe43 26bc ff2a babd
00000350: 743b c03c 514d 703e a5ac dd3c 81e4 f6bd
00000360: c7ab b6bb 7c34 c4ba 3190 f83d 890c b4bd
00000370: a3d3 93be b0fb bd3d d491 093e 8f7c 093d
00000380: aaff 2e3d 3a2e 12be 8e1b 553d 007a 083e
00000390: 79b6 39bd 98e6 0dbd 02ee 3fbc 00d6 813c
000003a0: a60f c53a 7910 9abc c887 94bc 6fb2 673b
000003b0: da60 91bb 9527 8bbd 734d 41bc c0c4 223d
000003c0: 8011 3dbd dc2b 233d b566 8fbd 6727 f03c
000003d0: 3a99 b73c 5a0d 253d 32fa f73c c482 5c3c
000003e0: a68e 8a3c 082f 533c 7f70 793b 84f1 0bbd
000003f0: 612e 53bd 481a b3bc 1675 44bd 55e1 af3c
0.006848245 0.021087414 -0.00063670176 -0.034384657 -0.026973864 0.02034159 0.048938986 -0.0054035913
-0.042468205 0.018698761 0.035517883 0.05245782 -0.029031688 -0.12217601 -0.035195705 0.004217851
-0.07716888 0.0217943 -0.045103252 0.025780829 0.011368178 0.02837438 0.004912968 0.017891439
-0.18398575 0.031569637 0.008273758 0.042054027 0.027544726 0.0631231 -0.015773825 0.18253414
-0.02103958 -0.0563255 -0.032407057 0.007459336 0.0028511605 -0.035642233 -0.00047691388 0.01221264
0.002150289 -0.001088119 -0.012282715 0.052176382 0.020881828 -0.018605784 -0.05173548 -0.013882923
-0.012101493 0.0015710186 -0.008877352 0.037933182 5.910406e-05 -0.021654805 -0.03370155 0.031398773
0.018472224 0.041213203 -0.05363694 -0.057216138 -0.047253188 0.09173415 -0.02947575 -0.0673972
-0.019040091 0.067267895 0.1270237 -0.02610642 -0.025519524 -0.01873799 0.085162945 -0.015177545
-0.08724048 -0.26553378 0.03457564 0.077267885 -0.024941484 -0.0708466 0.02336792 0.15214115
0.1804166 -0.109582916 -0.094604954 0.088034324 0.034922805 0.039535645 -0.04428745 -0.0081863655
0.106610805 -0.008134898 -0.06632354 -0.022291351 -0.07965986 -0.0072615733 -0.00990786 0.00019625772
0.026203956 0.04006727 -0.037348513 0.011402965 0.006527088 -0.0007492952 -0.055348475 -0.010581915
0.02254467 0.07004851 -0.058281243 -0.0099405125 -0.035173655 0.04879631 0.0498605 -0.02872667
0.060093742 -0.02058762 0.025938952 -0.03602583 -0.102309935 -0.0344024 0.015941842 0.00013472771
0.0230216 -0.09038149 -0.041552093 0.016338611 0.042930547 0.01685357 0.023217399 0.016938435
0.002676741 0.024029357 0.013801926 0.00023735086 -0.005010115 -0.022465328 -0.008565742 0.032765087
-0.074302115 0.0034182132 0.03061599 0.0029710357 0.014927794 0.021487521 0.0035644479 0.0060604955
0.009520235 -0.04845232 0.0037363763 -0.005585864 -0.02036267 0.016387329 0.03876853 0.027618939
0.0012565221 0.0071476083 -0.013858954 0.05578115 0.05820006 -0.04142047 -0.08079459 0.01443475
0.0020197341 0.016237618 -0.057304364 0.010386268 0.1607531 0.041709375 -0.026727328 0.004870742
0.037448756 0.06723664 0.08260581 -0.19179766 -0.009745346 0.01682933 -0.09639102 -0.025712162
-0.051283695 -0.12348553 0.010147 -0.044862274 0.011111429 0.01093175 -0.018079514 0.038850874
-0.048115365 0.03080859 -0.018407315 -0.014646056 0.053279296 0.02268823 -0.026464181 0.08684122
0.025340155 -0.014028065 0.034228243 -0.03292325 -0.016129892 0.019613517 -0.027785623 0.0514189
0.014169798 -0.003200206 0.039295103 0.02333319 0.06847177 -0.0008337832 -0.08048554 -0.07524324
0.059025656 -0.010443302 -0.010148047 -0.09090232 0.02346585 0.23466994 0.027059862 -0.120553024
-0.0055746767 -0.0014969255 0.12136877 -0.087914534 -0.28872404 0.09276521 0.13434535 0.033566054
0.04272429 -0.14275447 0.05202823 0.1332779 -0.045340035 -0.03464374 -0.01171446 0.015849113
0.0015034571 -0.018806683 -0.018131152 0.0035354157 -0.0044365944 -0.06794659 -0.0117982505 0.039738417
-0.046159267 0.03983675 -0.07002012 0.029315664 0.022411931 0.040295936 0.03027067 0.013458911
0.016913723 0.012889631 0.0038061438 -0.034165874 -0.051557902 -0.021863118 -0.047963224 0.021469751

activation.coefficients_vect f4 [672]
00000000: 0000 0080 e30c 8e38 ded6 7538 4eed 2838
00000010: d5a6 57b8 1099 a2b8 6ac1 f1b8 08e2 2cb9
00000020: 8afb bcb9 64dd 09ba 3bd4 5036 8a35 073a
00000030: 5f14 dd39 4720 c039 ba14 6539 97b4 2c39
00000040: 0827 ea38 5fd0 be38 d5d4 04b7 5b5d 9bb8
00000050: 0000 0000 0000 0080 8759 4d3a 9d5b 123a
00000060: 3479 3739 39f2 dfb4 48d9 a3b8 3be7 1bb9
00000070: d5f4 2db9 3aa8 9cb9 f467 a7b9 e2d6 d1b6
00000080: cd30 a339 67cc 9539 1b86 8739 3213 9338
00000090: c143 8638 bbc1 93b8 21a7 c2b9 7862 1eba
000000a0: db5f 46ba 0000 0000 0000 0080 41c7 253a
000000b0: a0ae b939 2b46 5539 f775 0f38 1428 2eb9
000000c0: bbe1 37b9 567e c2b9 2645 c8b9 f101 d8b9
000000d0: 617e a7b8 0cf1 8c39 a81b 7539 1b29 4039
000000e0: dbb8 0339 8f2a c436 57ed 2ab8 2e41 8db9
000000f0: 7883 9bb9 6c06 30ba 0000 0000 0000 0080
00000100: c263 c93a 1c9f b23a 3dcd 893a 237b 313a
00000110: a862 ce39 7cfd 9ab8 4863 7bb9 94d8 9fb9
00000120: 34e3 ceb9 b714 d1b8 7757 5139 03b5 f438
00000130: 6056 d7b6 6f7b 16b9 1dfc cab9 7918 08ba
00000140: 3410 34ba bb18 50ba d27e f3ba 0000 0000
00000150: 0000 0080 7ec9 183b e3c3 7d3a 355c 753a
00000160: 935c 463a 1211 323a 48cc ad39 328b f737
00000170: 1cdb 42b8 fe63 d9b8 0953 3938 51d4 4139
00000180: a9be fe38 1ff5 c4b9 ca3b e8b9 e853 0fba
00000190: b179 32ba ecfc c5ba 5e1a f2ba 33fa 0cbb
000001a0: 0000 0000 0000 0080 72d2 a63a f3cb 423a
000001b0: be04 253a 1ebd 113a 8c94 c939 acee 8639
000001c0: 50a7 3c39 2c2f a638 a475 5d37 db96 7fb7
000001d0: 6de8 07b9 b649 6fb9 7c6f 84b9 1940 89b9
000001e0: c8fa 8db9 fcaf aab9 ce04 09ba de1c 6bba
000001f0: ca3c acba 0000 0000 0000 0080 6404 073a
00000200: cd4f f539 56b5 d839 3c6f b339 b36c 6a39
00000210: 13d9 2c39 8e62 fb38 f765 f438 e400 a938
00000220: de26 9538 ddbf 6438 1be6 53b7 dbc6 8cb7
00000230: 9152 2eb8 125c d0b8 9e5f 94b9 078d ffb9
00000240: 59c0 45ba 6717 b8ba 0000 0000 0000 0080
00000250: a3c0 893a aa9c 123a 2502 023a 8288 dc39
00000260: 4e50 c839 5be7 6c39 2876 3639 c306 1839
00000270: 8102 0e39 ece9 59b6 930a 27b8 5cb6 c7b8
00000280: b244 25b9 df83 4fb9 08ae abb9 04c6 d7b9
00000290: fcb6 ddb9 e39e 05ba 0911 66ba 0000 0000
000002a0: 0000 0080 dc68 a539 5718 1538 8197 f336
000002b0: a37d 8db8 8076 d2b8 b32d 11b9 4582 1eb9
000002c0: 7398 67b9 12d9 beb9 cad0 2239 aaf4 323a
000002d0: 14df fd39 41e0 e539 4818 dd39 8a01 c939
000002e0: 54d2 5939 a110 0e39 d898 a138 abff 9eb8
000002f0: 0000 0000 0000 0080 1cba 8638 493a de36
00000300: 1c49 bbb7 3bec 0cb8 49bf 22b9 09c5 25b9
00000310: 86ea bcb9 be3c 83ba 293a a6b9 5b5e c339
00000320: 1cfc 873a d7d7 2c39 5196 2539 857e f038
00000330: f756 c838 9ff1 3538 8bcf 4437 7a71 2fb8
00000340: a518 eeb8 0000 0000 0000 0080 dd7a ed3a
00000350: ceda b83a 16f0 a53a 1760 2c3a 6c98 e539
00000360: 2aaf c539 0d08 c039 8f9d 8db7 17ca 95b8
00000370: 6752 8f38 e1d4 5639 4cdc 3e39 e10d 4cb8
00000380: 22f9 65b9 a9d2 feb9 a6fa 88ba 11ee 99ba
00000390: 0ee4 f8ba e95c 13bb 0000 0000 0000 0080
000003a0: 2b14 8b38 68ce 4437 01b3 85b8 94f3 aab8
000003b0: 0a0d 0db9 5fec 11b9 0a09 4cb9 9631 b8b9
000003c0: 39b9 67ba c55e a3b9 09cf 8639 46b1 4d3a
000003d0: bd15 de39 f3ed c139 496e 9d39 c9af 3a39
000003e0: 18cf 2939 1d05 0639 3078 5db8 0000 0000
000003f0: 0000 0080 3190 713a 795d 093a 95cc b039
-0.0 6.773488e-05 5.8612663e-05 4.027533e-05 -5.141537e-05 -7.753272e-05 -0.00011527802 -0.00016487401
-0.00036045566 -0.0005259125 3.111795e-06 0.0005157819 0.00042167582 0.00036645142 0.00021846863 0.00016470473
0.0001116526 9.098718e-05 -7.917367e-06 -7.408365e-05 0.0 -0.0 0.000783347 0.00055831095
0.00017497392 -4.1713227e-07 -7.8129175e-05 -0.00014868092 -0.00016589773 -0.00029879977 -0.00031930173 -6.253701e-06
0.00031126142 0.00028571786 0.00025849123 7.0130816e-05 6.402238e-05 -7.045591e-05 -0.00037127084 -0.00060418947
-0.0007567384 0.0 -0.0 0.00063239416 0.00035416055 0.00020339403 3.420372e-05 -0.00016608863
-0.00017536331 -0.0003709669 -0.00038198492 -0.00041200177 -7.9867204e-05 0.00026882475 0.00023375324 0.0001832586
0.00012561998 5.8462097e-06 -4.07522e-05 -0.00026942178 -0.00029661856 -0.0006714824 0.0 -0.0
0.0015364813 0.001362774 0.0010513436 0.0006770363 0.00039364886 -7.3905074e-05 -0.0002397421 -0.00030488207
-0.0003946066 -9.969755e-05 0.00019964376 0.00011668543 -6.4175547e-06 -0.00014351097 -0.0003871628 -0.0005191635
-0.00068688695 -0.00079382554 -0.0018577224 0.0 -0.0 0.0023313458 0.00096803735 0.0009359748
0.0007566895 0.0006792705 0.00033149333 2.9509512e-05 -4.6457266e-05 -0.00010365991 4.418477e-05 0.00018485008
0.00012147177 -0.00037566663 -0.00044295035 -0.000546752 -0.00068082946 -0.0015105284 -0.0018470993 -0.0021511435
0.0 -0.0 0.0012727513 0.00074309035 0.0006294957 0.00055594917 0.00038448384 0.00025736296
0.00017991406 7.924283e-05 1.3200017e-05 -1.5234308e-05 -0.00012961189 -0.00022820276 -0.00025260064 -0.00026178433
-0.00027080462 -0.00032556045 -0.0005226851 -0.000896884 -0.0013140675 0.0 -0.0 0.00051504956
0.00046789498 0.00041333836 0.00034224417 0.00022356473 0.00016484065 0.0001198697 0.00011653819 8.058714e-05
7.112113e-05 5.4538123e-05 -1.2630156e-05 -1.67819e-05 -4.156173e-05 -9.935362e-05 -0.000283 -0.00048742464
-0.00075436156 -0.001404506 0.0 -0.0 0.0010509681 0.0005592803 0.0004959426 0.00042063376
0.00038206804 0.000225929 0.00017400889 0.00014498369 0.00013543108 -3.247168e-06 -3.982575e-05 -9.5230265e-05
-0.00015761217 -0.00019790184 -0.00032745325 -0.0004115553 -0.0004228874 -0.00050972233 -0.0008776342 0.0
-0.0 0.0003154938 3.5547037e-05 7.2596017e-06 -6.7468056e-05 -0.00010035653 -0.00013845302 -0.00015116583
-0.00022086668 -0.00036401354 0.00015527304 0.0006826619 0.00048422127 0.00043845366 0.00042170496 0.00038338854
0.00020773086 0.0001354837 7.7055476e-05 -7.581649e-05 0.0 -0.0 6.4242835e-05 6.622901e-06
-2.2326181e-05 -3.3598608e-05 -0.00015520783 -0.00015809028 -0.00036032888 -0.001001261 -0.0003170532 0.000372636
0.0010374817 0.00016483605 0.00015791623 0.00011467658 9.5529416e-05 4.337879e-05 1.1730833e-05 -4.1828935e-05
-0.00011353315 0.0 -0.0 0.0018118281 0.0014103295 0.0012660052 0.0006575598 0.00043791847
0.00037705275 0.00036627092 -1.6881879e-05 -7.142516e-05 6.83412e-05 0.00020487934 0.00018201879 -4.8650316e-05
-0.00021931951 -0.0004860361 -0.0010450676 -0.0011743923 -0.0018988864 -0.0022485799 0.0 -0.0
6.631793e-05 1.1730568e-05 -6.375276e-05 -8.151602e-05 -0.00013451665 -0.00013916333 -0.00019458323 -0.0003513216
-0.0008839551 -0.00031160392 0.00025712725 0.0007846545 0.00042359336 0.00036989115 0.00030027542 0.00017803827
0.00016194244 0.0001278114 -5.280244e-05 0.0 -0.0 0.00092149066 0.0005240064 0.0003372176

u f4 [1, 1, 20, 20]
00000000: e8b0 26bb a04a 59bc be8d 503d a719 4abd
00000010: 2626 023d 10d1 eabb 80cf f839 f801 f7bb
00000020: de79 0a3c 6c80 22bd 14f4 203d 9053 99bc
00000030: e84f 74bc 84a0 073d 7aff 113b 30a8 ea3b
00000040: 24bc 04bd 728a 9a3c 4858 72bb 6021 04ba
00000050: e684 a9bb 8dde b23c e018 1cbd 23d0 2d3d
00000060: 1039 f4bb a68f 5bbd 7a97 bf3d 747c dcbd
00000070: ebb4 653d 7cd6 433d 2090 00bd 6083 76bc
00000080: 87a5 213d c6fb 2bbc 6c50 38bd 188d aabb
00000090: b9b2 043d 1043 a23c 0deb a1bc f718 753b
000000a0: e059 213d 2b54 a3bd 5c70 533c c07d 15ba
000000b0: 607d d9bb f9b9 073d bc6f 9fbc 1e4c 8abc
000000c0: 4a7b d73d 4bbd c8bc 622f 9fbd 765e e3bc
000000d0: 40a1 c43d 9f65 ecbc 6e5a 81bd 0947 8c3c
000000e0: f05b 1bba 5cc7 443c 2a77 15bc c027 0b3b
000000f0: 6269 69bd 8933 833d 7d1d 5c3d f619 03bd
00000100: d193 b13c def2 e53c 26be 8dbd e8c5 6d3b
00000110: ec9a 5fbd 6f5c a2bd ec9c 393d 62ba 8c3d
00000120: c07d 89bd 8f6c b4bc e065 273e ec31 883d
00000130: 9083 a6bd 1494 6dbd b7d7 073d 4713 f9bb
00000140: f268 4a3d d805 a5bb ebed a2bd 1235 ccbc
00000150: 6473 183c 92a7 48bd 0e2c 333c 9031 203e
00000160: 9285 87bd ed82 ea3c 7e80 df3d fb01 ec3d
00000170: a47a 29be ac07 8fbd 78a2 22bd e059 4eba
00000180: f983 7d3c 2a9a 473c 57ec 443c 70ef 1e3a
00000190: 42e1 38bd e40a 0a3d 6bc3 4f3c b3b1 853d
000001a0: 6661 78bc 5493 9dbc 5c29 43bd ee55 323e
000001b0: 05e5 24be 010d 29bd be60 b8bd b413 f3bc
000001c0: bef6 f63b 0681 073e dc10 fbbc 86d7 cebd
000001d0: 69c8 bc3d 5403 96bb a0f2 2ebc 70c7 cf3a
000001e0: 82b2 113c 784a 983b 483d 66bc 9e8f a1bc
000001f0: aa91 af3d 8cbb 71bc e20a 6bbd c847 1dbd
00000200: 3114 50bd ffbc 193e b013 883d bc05 c8bd
00000210: 0c26 a9bb f818 553e 9f05 f73c 902d 2dbd
00000220: 306b 03bd 49c9 163c f2fb cabc b03a 0bbb
00000230: c2ba ad3c 9c90 763c 657b cdbd cece f4bc
00000240: a21b 1cbd 323d 883d 0364 603c 2e58 6abd
00000250: 575f f43c 849a 033e 160f 99bb 7d09 b3bd
00000260: 3838 b7bd 98ae 97bd c65d 14be a1fb c4bc
00000270: ec8d 9c3c b269 f23c e5aa 523d 26e9 02bb
00000280: 52f9 6ebd 34b8 ce3d a683 35bb 8016 413d
00000290: f0f3 e93a 9d88 923d ee0f 1fbc 8d70 aa3c
000002a0: d7f0 87bc 838f 02be bf5e eabd 286e 3d3e
000002b0: 3cf2 393e 7ec8 0c3d b227 5bbc e9fd 283e
000002c0: e40d bf3d 43cd 90bd c116 c2bd b4a6 e43b
000002d0: 9357 0c3d 6f73 eebd 8e41 1fbc 4130 123d
000002e0: 2f7e 243d 2c8a bdbd bc99 11be 0c30 1f3e
000002f0: 55d3 443d 7cb7 78bd e45c d4bd fda6 2b3c
00000300: 4011 f6bd 355a c6bd 3b5f e0bb 4f0e 9bbd
00000310: a08b adbd 2f20 753c 2683 a23d f00e f33b
00000320: 2427 0b3d 3a03 27bd a6d5 863d ea32 ac3d
00000330: 276d 2abe d3bc 08bd 1503 803d 9811 8b3d
00000340: d48f fcbd ce79 163e d83a 783e c221 b23d
00000350: 2f4d cebd f3c8 b93d a244 133e 980e 2abd
00000360: 7417 7bbd 052b 393d b8d6 2e3b e7f1 13bd
00000370: aeb0 2bbd 1a3e 4f3d 6a1f 623b 5036 43bd
00000380: 969e a4bc 64af 1f3e 3aa9 f63d 2a9a 06be
00000390: d005 4bbe 53b7 fcbc ccee a4bd f2a7 f0bd
000003a0: a148 fcbd 86d6 ccbc 7a6a 1bbd b0bc b33d
000003b0: fc83 933d 36e5 4bbd acb6 7bbd ac9b 703d
000003c0: a2a5 3c3d 6439 cabd 475b 313d 67b3 883d
000003d0: 9c99 ebbd 3aa7 883d e077 79bd 0040 a33c
000003e0: b745 4f3e b9d3 003e 7abd 37be 01f4 763d
000003f0: 40ca 9c3e e1a6 a33d a218 25be 5925 a5bc
-0.0025435034 -0.013262421 0.050916426 -0.04934087 0.031774662 -0.0071660355 0.00047456846 -0.0075380765
0.008451907 -0.039673254 0.03929527 -0.018716604 -0.014911629 0.033112064 0.002227752 0.007161163
-0.032405987 0.018864844 -0.003697889 -0.00050403737 -0.0051733134 0.021834636 -0.03810966 0.042434823
-0.0074530914 -0.05360379 0.09355064 -0.10765925 0.05608074 0.04781197 -0.03138745 -0.015045971
0.0394645 -0.010497039 -0.04499857 -0.005204808 0.032397006 0.019807369 -0.019765401 0.0037398913
0.039392352 -0.07975038 0.0129052065 -0.0005702637 -0.0066372603 0.03313634 -0.019462459 -0.016881999
0.105215624 -0.024504324 -0.077727094 -0.027755003 0.096010685 -0.02885705 -0.06316076 0.017123716
-0.00059264805 0.012010422 -0.009122649 0.002123341 -0.056985267 0.06406314 0.05373906 -0.03200718
0.02167693 0.02806991 -0.069210336 0.0036281291 -0.054591104 -0.079277866 0.045315668 0.06871487
-0.06713438 -0.022024421 0.16347456 0.06650147 -0.08130562 -0.058002546 0.033164706 -0.007601175
0.04941649 -0.005036097 -0.079555355 -0.02492765 0.009304855 -0.048987933 0.010935796 0.15643907
-0.066172734 0.028626883 0.1091318 0.11523815 -0.1655069 -0.06983885 -0.039705724 -0.0007871669
0.015473359 0.012182752 0.012019238 0.00060629006 -0.045136698 0.033701792 0.012680869 0.06528034
-0.01515994 -0.01923529 -0.047646865 0.17415592 -0.16102989 -0.041272167 -0.09002827 -0.029672481
0.007536738 0.13232812 -0.030647688 -0.100997016 0.09217913 -0.0045780335 -0.0106779635 0.0015852284
0.008892657 0.0046475492 -0.0140526965 -0.019721802 0.08572705 -0.014754187 -0.057383426 -0.038398534
-0.050800506 0.15013503 0.0664438 -0.09766719 -0.0051620062 0.20810306 0.030154048 -0.04227978
-0.032084644 0.009203264 -0.02477834 -0.0021244697 0.021207217 0.015049126 -0.10033301 -0.029883768
-0.03811229 0.06652297 0.01369572 -0.057213 0.029830618 0.12851912 -0.004670988 -0.08742044
-0.0894627 -0.07406348 -0.14488897 -0.024045767 0.019110642 0.029591415 0.05143251 -0.0019975393
-0.05834324 0.10093728 -0.0027696877 0.0471406 0.0017849188 0.07154963 -0.009708388 0.020805622
-0.016594334 -0.12750058 -0.11443853 0.18499053 0.18158811 0.03437089 -0.013376163 0.16503109
0.09328821 -0.070704006 -0.09476996 0.0069778804 0.034263205 -0.11643111 -0.009720219 0.03569055
0.0401594 -0.0925487 -0.14218801 0.15545672 0.048053104 -0.06072186 -0.1036928 0.010476825
-0.12015009 -0.096851744 -0.00684729 -0.075710885 -0.08473897 0.014961286 0.07935171 0.007417552
0.033972874 -0.04077456 0.06583719 0.084081486 -0.16643201 -0.0333832 0.06250588 0.06790465
-0.123321205 0.14694902 0.24241197 0.08697845 -0.10073315 0.09071531 0.1438165 -0.041517824
-0.061301664 0.045207042 0.0026678275 -0.036119368 -0.04191654 0.050596334 0.0034503588 -0.04765922
-0.02009515 0.1559425 0.12043996 -0.13144746 -0.19826436 -0.030849135 -0.080533594 -0.11750783
-0.1231854 -0.025004636 -0.03794334 0.08776224 0.072029084 -0.04977914 -0.061453506 0.05874221
0.046056397 -0.09874228 0.04329994 0.06674843 -0.11503908 0.06672521 -0.060905337 0.019927979
0.20241438 0.12580766 -0.17943373 0.060291294 0.30623055 0.07990814 -0.16122678 -0.02015941

exp_avg f4 [8, 1, 7, 7]
00000000: 541c 8c3c 8c69 ca3c c04d af3b 755f 71bc
00000010: ac93 e23b 087a b6bc b10a 6a3c 890d e63c
00000020: 6f5f a93b 1f98 6c3d ec68 e23d a594 0e3d
00000030: 7d83 dabc b8b9 613c 9d51 9f3c c1ab 553d
00000040: 24e3 8e3d 9e61 c33c bbf5 75bc 3e74 06bc
00000050: 93fc 10bc 1f19 07bc 75ea d53d 5ec8 543c
00000060: 9d2c 283d 1dac 27bd 2ce5 633d 48d4 b8bb
00000070: e43e 0abd cddc 343d 6d27 50bd f441 acbc
00000080: a43f 38bd 4f3e 723c b54c 4bbd c31a 64bd
00000090: 9fd2 36bc 782c 30bd 8e1e d93c 0744 f4bb
000000a0: caa0 79bd 240c 63bd 6b4e 2dbc 8c2d 88bc
000000b0: ca5f 47bd d867 0d3c f484 3fbd 7300 70bd
000000c0: ea13 d7bc bd7e eebc a312 803c 6b40 77bc
000000d0: d051 d3bc d94b ecbc c05a 273d 3d00 d83d
000000e0: be64 1dbd 94e7 28bd 2342 0ebd c273 dd3c
000000f0: 4c17 b43b bd41 723b f03f 193d 63c5 f3bc
00000100: 0724 a9bc 04f4 81bc 86f0 e7bc 0e8f 03bd
00000110: 1141 e33a 1668 f33c ae5e 86bc ed9b bd3c
00000120: 2a8f 36bd 969e b63b 945a 09bd 26e6 693d
00000130: 33d2 813d c79e 08bd 6203 333c 0174 69bd
00000140: ed88 adbd dcbe 6bbd 66a2 203d 8d80 4e3d
00000150: 8991 12bd fc33 04bd ddf1 17bd 368b 80ba
00000160: 7b6a 29bb 265f a03c 5520 553d 7011 213d
00000170: 54bd 6c3b a749 e5bc 6aee acba ceb8 d63c
00000180: 42b6 513d e34c c53d 1a4c 713c df57 c63c
00000190: 7541 7e3c 8df3 40bc 51ce a13c 6f5a 0f3c
000001a0: 03a9 87bc 0269 a43b dd04 c33b 847a 62bc
000001b0: 60e8 bdbc 3231 54bc 025e bfba 4b02 7cbc
000001c0: 6ab2 833c a8bb d83a 2d1a 1bbc ac5d 0cbc
000001d0: b0a8 6ebc 8334 f5bc 7410 50bc dd01 4a3b
000001e0: b0f6 d9bc 22bb b5ba 3e7b 26bc b08f d13b
000001f0: 15af d7bc f3dc 9bbc 4dfa b23c dd08 4d3c
00000200: b4f0 3539 d4d9 d3bb 42a5 5ebc aac2 86bc
00000210: a99a 86bc 8fb3 a43c 532b 3d3d d4f8 223c
00000220: 8b09 c53b 2fda cb3a d69c 643c 6bb9 27bc
00000230: 4a25 923c 92e9 e93c 4655 293c 855f 453c
00000240: bfea 14bb 094e 31ba dba0 10bb c1c8 693d
00000250: 5a93 043d 217c 813d d39c 0c3d 6f73 ef3c
00000260: 87e4 393d cdad 1c3d 5564 133d 1208 9e3c
00000270: 3170 7d3d 1a66 f03c 289c 9e3c 9269 ffbb
00000280: 6791 60bb c328 d93c eb05 06bc 0466 4fbb
00000290: 0451 1abd 4cbc 4a3c 8ae0 84bc c6be 24bd
000002a0: 1ff0 0d3c 6a6f 88bc 9600 51bc 2a4a 6cbb
000002b0: 0105 c03b ca94 eabb 1eaa 51bc c101 adbb
000002c0: 5f13 e0bc 0f5a 6b3b c9a2 64bc 8f31 8c3b
000002d0: 1a63 d8bc f062 bcbb a41a 01bd 3eda 16bd
000002e0: 0419 443c 4753 b3bb f5c6 c3bc c04a 13bd
000002f0: 9339 02bc 8f9e f2bb dc09 0bbd 9fc3 c2bc
00000300: 02a5 e6bc 7730 4dbc 9d2a 9dbc 7e22 c4bc
00000310: 885f 2e3d 9674 ff3c 5d19 883d b2cd 8e3d
00000320: 5964 303d 7588 c33d a774 1a3e 04d6 a3bc
00000330: 22b8 a3bc 1ccc 493d f76c af3d 7cfd 7c3c
00000340: 8735 193d b0f6 573d e031 6abd 8d43 67bc
00000350: 7a8c b5bd e0f5 9ebd 87c9 f9bc 7850 613d
00000360: 309a e0bb 496d 8bbd d73e fabc 5c45 f5bd
00000370: 9ec6 5cbc 52a4 3ebd 00cb a13d d9b4 26bc
00000380: dead 94bd 9406 59bd 360e babd 5da9 f7bc
00000390: c4ba 1b3c 9b73 933c 9930 9e3c 4f73 82bd
000003a0: d255 6fbd ebb9 bcbc 3be9 1b3d d204 6dbc
000003b0: f937 b6bb 98f7 2e3d 20a6 423c 8c9c 06bd
000003c0: 0426 80bd a1cd b7bc 752a 033b 67c3 663d
000003d0: 6329 7c3d be7c 2cbd c9db 0a3b e588 0dbc
000003e0: 5251 483c 7b5e b43c 1b6f 293d b613 f23c
000003f0: 0fd6 4dbd bc86 25bc f215 3d3c d369 893d
0.017103352 0.024708532 0.0053498447 -0.014732231 0.0069145765 -0.022274986 0.014284776 0.028082626
0.0051688473 0.05776226 0.110551685 0.034809727 -0.026674027 0.013777189 0.019448096 0.05216575
0.069769174 0.023850258 -0.0150122 -0.008206425 -0.008849281 -0.008245735 0.1044511 0.012987224
0.04105817 -0.040935624 0.055638477 -0.0056405403 -0.033751383 0.044155885 -0.05081885 -0.021027543
-0.044982567 0.014785363 -0.0496337 -0.055689584 -0.011158614 -0.04301116 0.026503827 -0.0074543986
-0.060944356 -0.0554315 -0.010577778 -0.016623281 -0.048675336 0.008630715 -0.046757653 -0.05859418
-0.026254613 -0.029113168 0.015633887 -0.015091042 -0.025795847 -0.02884476 0.04085803 0.105469204
-0.038426153 -0.041236475 -0.03473104 0.027032737 0.0054959413 0.0036965453 0.03741449 -0.029757207
-0.020647062 -0.015863426 -0.028312933 -0.03211885 0.0017338117 0.029712718 -0.016402569 0.02314564
-0.044570126 0.005573104 -0.033533648 0.057104252 0.063389204 -0.033354547 0.0109260995 -0.056995396
-0.08473382 -0.057555065 0.039217375 0.050415564 -0.035783324 -0.03227614 -0.037095893 -0.0009807113
-0.002585082 0.01957662 0.052032787 0.03932327 0.003612359 -0.027989222 -0.0013193612 0.026211169
0.051199205 0.096338056 0.014727617 0.024211822 0.015518536 -0.011776817 0.0197517 0.008749588
-0.016560083 0.0050174007 0.0059515075 -0.013823155 -0.023182094 -0.012951182 -0.001460016 -0.015381406
0.016076285 0.0016535418 -0.00946669 -0.008567255 -0.014566585 -0.029932266 -0.012699235 0.0030823865
-0.026606888 -0.0013864974 -0.010161219 0.0063953027 -0.026328603 -0.019026255 0.021847868 0.01251432
0.00017351174 -0.006465176 -0.013589205 -0.016450245 -0.01643117 0.020105151 0.046183895 0.009947021
0.0060131005 0.0015552695 0.013953408 -0.010237078 0.017840046 0.028553758 0.010335272 0.012046699
-0.0022722927 -0.00067636423 -0.0022068534 0.05707622 0.032367088 0.06322504 0.034329247 0.029229848
0.045383956 0.038251687 0.035984356 0.019290958 0.061874572 0.02934556 0.01936157 -0.0077945674
-0.0034266354 0.026508695 -0.008180122 -0.00316465 -0.03767492 0.012373995 -0.01622035 -0.040221
0.008663206 -0.016654689 -0.012756487 -0.0036054947 0.0058599715 -0.0071588503 -0.012796907 -0.00527975
-0.027352987 0.0035911833 -0.013954827 0.004278369 -0.026414443 -0.005749099 -0.031519547 -0.036829226
0.011968855 -0.005472574 -0.023898581 -0.03595996 -0.007948297 -0.0074041556 -0.03394495 -0.02377492
-0.028154854 -0.012523762 -0.019185359 -0.023942228 0.042571574 0.031183522 0.06645463 0.06972827
0.04306445 0.095475115 0.15083562 -0.019999512 -0.019985262 0.04926692 0.08565705 0.015441295
0.037404563 0.052725494 -0.05717647 -0.014115226 -0.088646844 -0.07761741 -0.030491604 0.05500838
-0.006854318 -0.06807954 -0.030547542 -0.1197612 -0.013475088 -0.046543427 0.07900047 -0.010174953
-0.07259725 -0.05298479 -0.09084742 -0.030232126 0.009504978 0.01799946 0.019310283 -0.063696496
-0.058431454 -0.023037871 0.038064223 -0.014466481 -0.0055608717 0.042716593 0.011880428 -0.03286414
-0.06257251 -0.022436919 0.002001432 0.056338694 0.061562907 -0.04211115 0.002118813 -0.008638595
0.0122264195 0.022017708 0.041365724 0.029550415 -0.05025297 -0.010102924 0.011540877 0.067096375

exp_avg_sq f4 [8, 1, 7, 7]
00000000: 0bbb 6f3d e32e 763d cd98 b43d 0695 9b3d
00000010: d9f4 993d ccc9 793d 30f0 823d cbef 7c3d
00000020: c779 ba3d dd93 e23d 9580 e33d a270 b13d
00000030: 2516 b93d c91c 6b3d 595a 7d3d 6269 8e3d
00000040: 34df b23d 8936 0e3e 6967 e13d ba62 723d
00000050: 88ad 863d 5592 b83d 9c83 cb3d 9007 433e
00000060: 2585 083e 184f 3d3e 59b3 da3d b5bd 923d
00000070: 11bd 863d 716a b03d 0011 4b3e 797e 003e
00000080: 915e 833e 0927 b33d a335 a03d 2019 803d
00000090: 5960 a13d f9e1 a43d 8f1e b83d 6e53 8f3d
000000a0: aa92 9f3d 5913 853d 25ad 673d a5d6 523d
000000b0: b4fd 4a3d 5e08 943d 5987 923d 0b3e 773d
000000c0: e41c 463d 060b 453d b0ae 293d d6a6 0b3d
000000d0: 5971 3b3d 1c1f 4c3d 882d 253d ec8a 543d
000000e0: 1166 453d 0c63 513d 41ab 1a3d d54b 883d
000000f0: 8ffb 463d b84f 5d3d b298 523d 2b93 493d
00000100: aaa4 863d e272 433d ea58 173e d35f e83d
00000110: 8cc4 413d ba10 4d3d 1cf1 623d b68f 823d
00000120: 4f74 8f3d 28d9 dc3d a6f2 dd3d f183 673d
00000130: 7326 943d e1d4 703d 4008 933d 94c5 3f3d
00000140: eb98 983d b61e be3d cbad 7e3d ef10 593d
00000150: c5ef 373d 22c4 7a3d d94e 493d c7f8 3f3d
00000160: b5f8 173d 683b 2b3d 6c7b 413d 7ecf 683d
00000170: e0da 293d 52e6 183d 74e5 363d 889e 2c3d
00000180: 5461 123d bc6d 1c3d 7d5b d13c 4b96 c63c
00000190: c0f3 a33c 91cd ac3c 5d1b 7b3c 5ddb 763c
000001a0: bfd1 953c 14dd c63c bbf0 ef3c 1e4a b63c
000001b0: 5a78 5f3c 955d 5d3c ac66 3b3c ef94 903c
000001c0: da68 b43c 35f4 6c3c b034 533c 09aa 693c
000001d0: 3fd9 6b3c a18b 8e3c cacd 8b3c 4844 bb3c
000001e0: 6c9a c33c 2443 0c3d d97d 333c 18b3 213d
000001f0: ae91 db3c 641d a63c d919 8b3c 2173 4b3c
00000200: d8c1 8e3c 8d12 cf3c c03d 853c 4eb4 693c
00000210: c5c4 b53c efd5 9b3c c06d 873c f356 8c3c
00000220: 4546 053d 1038 bf3c 54a5 b63c 2d85 a33c
00000230: a5f1 9e3c 249f 8f3c a1a1 963c 6cc2 af3c
00000240: 00d2 b73c 7647 aa3c 0541 c23c b5ea 843c
00000250: c639 b83c 058a 863c d8f2 883c 11af 8e3c
00000260: 6e7d a23c 2bbe 893c 2151 a53c cb0d 903c
00000270: d509 ad3c 16a2 af3c 0ea0 df3c 14f6 b63c
00000280: 4995 c23c c856 9e3c 6389 543d 461e bb3c
00000290: b20b 6a3d 7561 d23c f5d0 cf3c f662 b83c
000002a0: 16d8 a93c 9ef5 e73c 7ab2 d73c d245 283d
000002b0: 2fa3 f43c d11f dc3c 8a84 ed3c 8b3b 9d3c
000002c0: 8a33 f83c 3ba3 073d 6c87 6b3d 17c7 213d
000002d0: 2229 e33c 9f29 9d3c 379a 973c 26e8 a23c
000002e0: 5951 113d f897 0a3d 2ce5 0f3d 5219 cf3c
000002f0: 73a5 d13c 5c4b 823c b3a8 8e3c 9a6e 8a3c
00000300: f822 8d3c 3a9c 913c 62d5 b43c 88d5 9b3c
00000310: 7861 483d d609 6f3d 3144 6a3d 0347 a33d
00000320: 0104 603d 42bc 6f3d d27d 723d 45c6 7a3d
00000330: 998d 7d3d 3218 8b3d dea9 8d3d d128 8f3d
00000340: de26 b83d ab26 6c3d 99cb 833d 0342 9b3d
00000350: d91e 523e 030e 2a3e f133 073e f16f 843d
00000360: 17fb 703d 0b1c a53d 9e5f cf3d 11f2 183e
00000370: 0616 ed3d ec10 703e 4b4d de3d f8e9 ad3d
00000380: e74b a73d 08ad 643d 8095 003e 4379 2a3e
00000390: 41c7 c03d a849 903d b3ab 493d 60c6 733d
000003a0: 1846 dc3d d275 be3d 6846 d13d 5c28 823d
000003b0: aa5e c13d 14c7 783d e159 573d b1d9 7b3d
000003c0: 4c7e 823d 769f 8b3d 1e43 4c3d a3a2 563d
000003d0: fe02 503d 8b3c 0a3d 894d de3c e041 033d
000003e0: 8f4e 213d 98fb 003d e0dd 0b3d 0897 0e3d
000003f0: 7527 0c3d 456d 233d dfbf 103d a11c 863d
0.058527987 0.06010331 0.08818207 0.07596783 0.07517404 0.060983464 0.063934684 0.061752122
0.091052584 0.11063359 0.111085095 0.08664061 0.09037427 0.0574005 0.06185374 0.06953694
0.08733979 0.13887991 0.11006052 0.059176184 0.06576067 0.090122856 0.09937212 0.19045854
0.1333204 0.18487203 0.10678739 0.0716509 0.0657903 0.08614052 0.19830704 0.12548245
0.25658086 0.0874768 0.078227304 0.06254792 0.07879705 0.08050913 0.089902036 0.06998335
0.07791646 0.06497831 0.056561608 0.051474232 0.049558356 0.072281584 0.07154722 0.060361903
0.048367396 0.048106216 0.04142636 0.034094654 0.045762394 0.049834356 0.040326625 0.0518903
0.04819304 0.05111985 0.037760977 0.06655089 0.04857975 0.054031104 0.051415153 0.049212616
0.06574376 0.047716983 0.14780012 0.11346402 0.047306582 0.05006478 0.05540572 0.06375067
0.07004606 0.10783607 0.10837297 0.056522314 0.07233896 0.058796767 0.07179308 0.046819285
0.07451042 0.092832014 0.06217746 0.052994665 0.044906396 0.061222203 0.04914746 0.046868112
0.03710242 0.0418047 0.047236845 0.056838505 0.0414685 0.037329026 0.044652417 0.042143375
0.03573735 0.03819059 0.02555632 0.024241587 0.02001369 0.021094115 0.015326348 0.015066949
0.018288491 0.02427534 0.029289594 0.022252139 0.013639534 0.013511081 0.011438053 0.017649142
0.022022653 0.01446252 0.01289098 0.014261731 0.014395057 0.017400565 0.017065901 0.022859707
0.023877345 0.034243718 0.010955297 0.039477438 0.026802864 0.020277686 0.016980099 0.012417586
0.017426416 0.0252774 0.016264796 0.014264179 0.022188554 0.01902291 0.016531825 0.017131304
0.032537717 0.023342162 0.022295631 0.019960964 0.019402334 0.017531939 0.018387618 0.021455012
0.022439003 0.020786028 0.023712644 0.016225198 0.022488486 0.016423235 0.01671736 0.017417463
0.0198352 0.016814312 0.020180287 0.017584702 0.021122852 0.021439593 0.027298 0.022334136
0.023752825 0.01932849 0.051888835 0.022841584 0.05714006 0.025681237 0.025368193 0.022508126
0.02073292 0.028315362 0.026330221 0.04108221 0.029862968 0.02687064 0.028993864 0.019193431
0.030298013 0.033114653 0.057502195 0.039496507 0.027729575 0.019184886 0.018506153 0.019886088
0.03547797 0.033836335 0.035130665 0.025280628 0.025591588 0.015905075 0.017414426 0.016898442
0.017228588 0.01777469 0.022074405 0.019022718 0.04892108 0.05835899 0.05719394 0.07972529
0.05469132 0.058529146 0.059202023 0.06122424 0.061902616 0.06791724 0.06917165 0.06990207
0.08991788 0.057654064 0.064353175 0.0758095 0.2051958 0.16606908 0.13203408 0.06466664
0.058833208 0.080619894 0.101256594 0.14936091 0.11576466 0.23443955 0.10854586 0.084918916
0.08168774 0.055829078 0.1255703 0.1664782 0.09413005 0.07045299 0.04923601 0.059515357
0.10755557 0.09299816 0.10218507 0.06355354 0.09441884 0.06073673 0.05257595 0.061486904
0.063717455 0.06817524 0.049868695 0.052401196 0.050784104 0.033749145 0.027136581 0.032045245
0.03938156 0.03148994 0.034147143 0.034812003 0.034217317 0.03989913 0.035339233 0.06548429

exp_avg f4 [32, 8, 7, 7]
00000000: e989 ac3b deb8 2ebb 5a55 8fbb 87fe 0abb
00000010: 35e2 51ba a3ae 1b3a 3e04 563b 3d3d b23a
00000020: fda3 a83a eec8 713b 653d 0b3c 1466 0b3c
00000030: 78e1 da3a 3f1e b0b7 9256 ec3b d3d5 263c
00000040: 742f e93b e061 dc3a f3d2 4038 500b ae3b
00000050: ee75 b63b 6f85 84bb d5a2 d7bb 9a9a dbbb
00000060: 7c53 68ba decf 6bba 7d24 96b9 07ee 1c3a
00000070: dbd4 0bbc 58b7 62bb 4ee8 94bb a4ea d5bb
00000080: 7f68 6bba ab5c 903b 6404 17ba 7f5c 53bb
00000090: c426 063a a8e6 143a 6f64 5939 e1bd cdbb
000000a0: 8658 06bc 3c93 1bbb 8de2 323b 7239 b9ba
000000b0: 0d69 07bc e19a b6bb e65a 313b 1c33 bb3b
000000c0: 0b8c 61ba b308 0dba 28fd feba 41ab f3bb
000000d0: eb0f 40bc 40b3 c3bb 95f6 933b bc78 343c
000000e0: 56d6 f9bb 5978 e5bb f430 593b 8280 c23b
000000f0: 6edb a7bb 9881 6ebc af48 bbbb d2d9 9c3b
00000100: 71ef e9ba 8b89 53bc 51e7 4ebc 2252 c5b8
00000110: d5be 153b 9edd 5bbb f776 63bb 69c2 8bba
00000120: d400 0b3b fe1e ceba e71e aebb a6e5 04bb
00000130: 3103 cd3b 1f47 313b c8ed 3b3b f81f 55bb
00000140: 2b75 3c3a 26ae d13b e6e9 2b3b 2d8d 8b3a
00000150: f57e 273b 81b7 173c 7079 b63b 36d9 afba
00000160: 3744 06bc 080b aabb 6f4e 233b 49aa f73b
00000170: 349b 95bb 63c6 23bc a7dc e93a 1e06 473c
00000180: 405e d13b 8e34 33bb a93d 7339 2fb0 b0bb
00000190: 1ef7 77bb 6417 323a 26f7 5f3b 1d68 763b
000001a0: a9cc 363a 9a28 0bba 974c 58bb 6700 c0bb
000001b0: d9f5 6cbb 4b19 ddba 1dcb 1e3a 883e 1c3b
000001c0: cdee c93b 616e 2f3c 13d9 623a cb80 17bc
000001d0: 750f e5bb a076 d73a 4d53 893a 5d61 33bb
000001e0: 9bd6 303b f297 743c ee1b 803c 6d2b 39ba
000001f0: eddf 0dbc 4244 f2b9 9d29 453c b2fb 0e3a
00000200: 1877 0abc 82ba 203b 733e 763c 47d7 423c
00000210: 2e07 90ba e145 853b a1f4 db3b 5414 c63b
00000220: 6628 7dba 9cf5 81bb d298 b63b b69e 073c
00000230: 109b 913b 28e1 a33b e2c5 833b 5c8c 7b3b
00000240: 4f86 803a fee7 ba3a 67e6 373b 7c17 a8bb
00000250: 19c2 ba3b 6eae 333c c558 deb9 d45e 09bc
00000260: e968 0138 c9fa be3b 9079 c43b 8303 373b
00000270: 63b5 923a 588e bb3b f4cc db3b 00df d739
00000280: 1a56 0bbb 4aa6 afba 2c9a ab3b 8381 003c
00000290: f0fd 0c3b be8a 6e3b 367a 8e3b a779 cfba
000002a0: 27ec 803b b664 5938 8807 22bb d30b 6339
000002b0: c319 ee39 2cd9 fc3a d19a 0c3a 389c 65bb
000002c0: c5a3 283b 5446 433b 0ee7 c4ba c461 86bb
000002d0: 92fd 39bb e1cd 643b ef5f f8ba 08f8 e5bb
000002e0: 93dd e73a 1fbc fe3b ccc1 a63b 1b31 51bb
000002f0: a298 cabb 9f46 6a3b 72b6 9c3b 7f08 143b
00000300: e277 5cba 2a61 bc3a 3c2f 9a3a fe5e a7ba
00000310: 877b 093c ca0f b33b a3fc 66bb daa1 4bbc
00000320: 0203 15bc 11dd 053b 3d8b 173c 3cdb 49ba
00000330: d4de 3cb9 cfac 8a3a fd39 543b 73a7 2cba
00000340: ab03 24bc ece2 1ebb d834 dcba 5a7f c9ba
00000350: 466a 58bb ac22 0cbb d134 5e3b 7746 51ba
00000360: 15b4 01bc d670 523b d072 e7bb 8c83 f7bb
00000370: 647a ce39 24df d83a 3941 07bb 63b7 82bb
00000380: 5061 f63b 833d e03b 5293 8cbb 4569 5ebc
00000390: 47b3 6fbb 991b 0a3c 905f 113c 9994 1fbc
000003a0: 080b e2ba 6eb3 313c d4e7 db3b eeb8 e1bb
000003b0: f7b3 3dbc 6de0 4abb 760c 133b a235 1abb
000003c0: f78d 21bb 03c8 9d3b 05cf 023c 263b 39ba
000003d0: 4896 09bc 89d1 403b 990f 68bb 9470 0dbb
000003e0: dc58 bf3b 7ecc 153b 2393 f6bb 613a 1fbb
000003f0: 08b5 d83b e32c 603b 0328 eeba 4b61 86ba
0.0052654636 -0.0026660482 -0.0043741884 -0.002120884 -0.0008006425 0.00059388037 0.0032656337 0.0013598573
0.0012866255 0.0036893445 0.008498524 0.008508224 0.0016699275 -2.099492e-05 0.0072124684 0.010182816
0.0071162526 0.0016813837 4.597283e-05 0.005311407 0.0055682575 -0.004044227 -0.0065806904 -0.0067017796
-0.0008862538 -0.0008995513 -0.00028637415 0.00059863966 -0.008534635 -0.0034594145 -0.0045442944 -0.0065282155
-0.00089801097 0.004405578 -0.0005760847 -0.0032251177 0.0005117471 0.00056801224 0.00020732147 -0.006278739
-0.008199817 -0.0023738882 0.002729568 -0.00141315 -0.008264792 -0.005572662 0.0027062236 0.00571288
-0.0008603937 -0.00053800194 -0.0019454109 -0.0074361865 -0.011722545 -0.005972296 0.004515479 0.011015113
-0.007624428 -0.007002872 0.003314075 0.0059357295 -0.0051225936 -0.014557265 -0.0057154517 0.0047867084
-0.0017847848 -0.012911211 -0.012628392 -9.4089904e-05 0.002284934 -0.0033548842 -0.003470836 -0.0010662797
0.002121021 -0.0015725789 -0.0053137424 -0.0020278483 0.006256484 0.0027050448 0.0028675664 -0.0032520276
0.000718909 0.006398934 0.0026231944 0.0010646932 0.002555785 0.009260059 0.0055686757 -0.0013416174
-0.008194975 -0.0051893033 0.0024918576 0.0075581414 -0.004565621 -0.00999603 0.0017842249 0.012147455
0.0063894093 -0.0027344557 0.00023197256 -0.0053920965 -0.0037836502 0.00067936466 0.0034174412 0.0037598677
0.0006973246 -0.00053084793 -0.0033004635 -0.005859423 -0.0036157279 -0.00168685 0.0006057488 0.0023840982
0.0061625005 0.010707469 0.00086535624 -0.009247015 -0.006990368 0.0016438551 0.0010477096 -0.0027371265
0.0026983384 0.014928805 0.015638318 -0.0007063661 -0.008659345 -0.00046208693 0.012033847 0.00054543756
-0.008451246 0.002452523 0.0150295375 0.011892146 -0.0010988468 0.004067168 0.0067125116 0.006044904
-0.0009657204 -0.0039660465 0.005572417 0.008277586 0.0044435337 0.005001206 0.004021392 0.0038383221
0.0009805652 0.0014259813 0.0028060914 -0.0051297527 0.005699408 0.01096688 -0.00042409278 -0.008384425
3.0853702e-05 0.0058282358 0.0059959367 0.0027925677 0.0011192973 0.005723756 0.006707782 0.00041174144
-0.0021261037 -0.0013400998 0.0052368846 0.007843378 0.0021513663 0.0036398615 0.004348065 -0.0015829102
0.0039344016 5.1830626e-05 -0.0024723727 0.00021652812 0.0004541409 0.0019290796 0.00053636456 -0.003503574
0.002573238 0.0029796558 -0.0015022473 -0.00410101 -0.00283799 0.0034912752 -0.0018949489 -0.007018093
0.0017689936 0.0077738906 0.0050890204 -0.0031920138 -0.006182746 0.003574766 0.0047824914 0.0022588072
-0.0008410198 0.0014372219 0.0011763345 -0.0012769399 0.008391268 0.0054645287 -0.0035245798 -0.012428725
-0.009094955 0.0020425955 0.009249506 -0.000770021 -0.00018012087 0.0010580065 0.0032383197 -0.0006586231
-0.01001064 -0.0024244143 -0.0016800417 -0.0015373037 -0.0033022328 -0.002138297 0.0033905993 -0.00079832174
-0.00791647 0.0032110712 -0.0070632473 -0.0075535234 0.0003938257 0.0016545993 -0.002063824 -0.0039891466
0.007518925 0.0068432703 -0.004290023 -0.013574903 -0.0036575363 0.008429431 0.0088728815 -0.009740018
-0.0017245719 0.010846002 0.0067109857 -0.0068885004 -0.0115785515 -0.0030956522 0.0022437847 -0.0023530503
-0.0024651268 0.004815103 0.007983928 -0.0007066004 -0.008397646 0.0029421768 -0.0035409688 -0.0021581994
0.0058394503 0.0022857483 -0.0075248643 -0.002429627 0.0066133775 0.0034206442 -0.0018169883 -0.0010252384
